merged/Lex.ptjaywalker_QAgent.pt (torch, 225501 bytes, 22 tensors)

layer1.weight f4 [128, 5]
0.22405727 -0.11949248 -0.056530736 0.2179716 -0.4747959 0.18417585 -0.016719613 0.24289785
0.21853599 -0.122261554 0.20413195 0.030120205 0.1397975 -0.13304614 0.009503675 -0.08743948
0.097665384 0.004426577 0.35562047 0.12854639 -0.06455825 -0.31565303 -0.07926183 -0.23307997
-0.20942661 -0.034027167 0.23706236 0.30405575 -0.42740384 0.27190372 0.20969887 0.4404811
0.31620196 -0.39011678 -0.37570754 -0.19817603 0.3886536 -0.046271678 0.2538015 -0.17153496
0.4935931 -0.23272572 0.3108177 0.026593003 -0.23119298 0.030402461 -0.22445616 0.06835741
-0.13878231 -0.023044312 -0.37886024 -0.22150008 0.14986324 -0.19657776 0.48832121 0.3303541
-0.004697468 -0.30028066 0.34231433 0.103776425 -0.38962498 0.23487997 0.17687806 0.52099025
-0.24887761 0.04395873 -0.0046183947 0.08965637 -0.38935673 -0.20617859 0.35088402 -0.094684854
0.18809733 0.14875355 0.061438404 -0.028977493 0.122268416 0.24568477 -0.44789016 0.251187
-0.22947419 -0.34981558 -0.06501193 -0.13802285 -0.004658117 -0.2618867 -0.41526797 0.24433407
-0.2329291 0.3447092 0.17237839 -0.3183525 0.024511969 0.23257208 -0.2499235 -0.16758473
0.09735321 0.11332327 -0.20400576 -0.15388978 0.3711048 -0.04229195 0.27739602 0.28312257
-0.09309939 -0.37461567 0.4481551 0.046248257 0.28884736 0.11939369 0.1212417 0.34103087
0.42739478 -0.29535294 0.07954159 0.31593817 0.3425627 0.2856993 -0.33020642 -0.29349113
-0.38347414 -0.0050226836 0.36575207 -0.41731554 0.20744172 -0.30695412 -0.389974 -0.06477077
0.16645761 0.39553565 -0.24584615 0.12418616 0.40841842 0.33547896 0.23687424 0.36789647
0.31276926 0.09961549 -0.34542295 -0.33903566 -0.13544893 -0.06625912 -0.25139493 0.046835683
0.087049596 0.07563394 0.14752716 0.12072188 0.30316287 0.26885936 -0.13793269 0.49480274
-0.030645413 -0.006375518 -0.37603736 -0.2207997 -0.26547748 -0.18952392 0.37570184 -0.17742036
-0.4529661 0.014815084 0.069177434 0.22261637 -0.22987829 0.15743154 -0.09941881 -0.008190605
-0.3840914 -0.20822164 -0.16910915 0.15610002 0.01995149 0.027306268 0.45984018 0.41901278
0.30114743 0.010002429 -0.28650606 0.3958179 -0.06876073 -0.003208281 -0.3255101 -0.09661076
-0.35816386 0.4172463 -0.4098461 -0.4139664 -0.056447804 -0.19696255 0.19395985 -0.12694257
-0.20690458 0.038350914 0.3736549 -0.3066547 0.20804799 0.3306942 0.47827473 -0.33281785
0.05214147 -0.38506624 0.30399212 -0.34038186 0.25578457 0.013285485 0.04014783 -0.0035642337
0.103613116 0.17988461 0.10959526 0.08349731 -0.4237685 0.42193106 0.38513264 0.4552837
0.2727331 -0.3621489 -0.032781344 0.33260235 -0.24276425 0.49731448 -0.25435734 -0.33621395
0.2769131 -0.47916588 -0.19796911 0.14482968 0.32478493 0.3106908 -0.10161959 -0.3310922
0.44741482 -0.16444749 -0.21307844 0.09118721 -0.2383589 0.39696446 0.22996588 -0.44006
-0.36105564 -0.01527224 0.21209082 0.05394296 -0.26592907 -0.046202015 -0.40962094 -0.33830392
-0.35748196 0.34846509 0.34236476 -0.1802925 0.018816976 0.2153787 -0.02027379 -0.25860173
00000000: 456f 653e 79b8 f4bd c68c 67bd f233 5f3e
00000010: 7318 f3be 9898 3c3e 92f7 88bc 37ba 783e
00000020: e6c7 5f3e 4464 fabd f707 513e a6be f63c
00000030: 1327 0f3e 3f3d 08be 4db5 1b3c 7813 b3bd
00000040: ca04 c83d d20c 913b e313 b63e aaa1 033e
00000050: 1e37 84bd 469d a1be 0754 a2bd 84ac 6ebe
00000060: ee73 56be 1260 0bbd 7ac0 723e 32ad 9b3e
00000070: add4 dabe f736 8b3e 4dbb 563e bd86 e13e
00000080: 39e5 a13e 63bd c7be bd5c c0be a8ee 4abe
00000090: 9bfd c63e 5f87 3dbd 45f2 813e dca6 2fbe
000000a0: 3cb8 fc3e a74f 6ebe 7f23 9f3e 92d9 d93c
000000b0: dabd 6cbe 950e f93c d6d7 65be f8fe 8b3d
000000c0: f31c 0ebe 6dc7 bcbc f8f9 c1be ebd0 62be
000000d0: c075 193e ae4b 49be 3d05 fa3e 2c24 a93e
000000e0: 38ed 99bb 63be 99be d343 af3e bc88 d43d
000000f0: ed7c c7be 6084 703e 861f 353e 9e5f 053f
00000100: c6d9 7ebe 120e 343d e755 97bb c29d b73d
00000110: c459 c7be 7b20 53be 12a7 b33e 22ea c1bd
00000120: 969c 403e da52 183e d6a6 7b3d 3562 edbc
00000130: dd67 fa3d ca94 7b3e dc51 e5be 959b 803e
00000140: 48fb 6abe 071b b3be fa24 85bd dd55 0dbe
00000150: 1ea3 98bb 0316 86be 019e d4be b632 7a3e
00000160: f784 6ebe b97d b03e f683 303e 19ff a2be
00000170: 53cd c83c 6027 6e3e f2eb 7fbe 559b 2bbe
00000180: 1f61 c73d 0816 e83d e3e6 50be 4895 1dbe
00000190: 7301 be3e 533a 2dbd da06 8e3e 71f5 903e
000001a0: e5aa bebd a0cd bfbe 9674 e53e d06e 3d3d
000001b0: cde3 933e ae84 f43d 924d f83d 999b ae3e
000001c0: 7dd3 da3e 8038 97be b3e6 a23d a6c2 a13e
000001d0: 6164 af3e 2e47 923e d110 a9be 7844 96be
000001e0: b956 c4be 5395 a4bb db43 bb3e 62aa d5be
000001f0: 9a6b 543e 1729 9dbe acaa c7be 8aa6 84bd
00000200: dd73 2a3e a683 ca3e 18bf 7bbe 5055 fe3d
00000210: 381c d13e e6c3 ab3e 298f 723e ed5c bc3e
00000220: 4b23 a03e 3503 cc3d 47db b0be 1596 adbe
00000230: 20b3 0abe ddb2 87bd d6b6 80be c6d6 3f3d
00000240: 0f47 b23d f8e5 9a3d 5c11 173e 083d f73d
00000250: 2a38 9b3e efa7 893e 3a3e 0dbe c956 fd3e
00000260: 170c fbbc b9e9 d0bb f887 c0be 5119 62be
00000270: aaec 87be 8f12 42be fe5b c03e afad 35be
00000280: 2ceb e7be f7ba 723c e6ac 8d3d 8cf5 633e
00000290: 3765 6bbe bc35 213e 179c cbbd e331 06bc
000002a0: a1a7 c4be 0e38 55be f32a 2dbe afd8 1f3e
000002b0: 4f71 a33c 65b1 df3c 2c70 eb3e d888 d63e
000002c0: ff2f 9a3e 3ae1 233c ecb0 92be a5a8 ca3e
000002d0: 6dd2 8cbd 0642 52bb 43a9 a6be dddb c5bd
000002e0: 4161 b7be 4fa1 d53e 59d7 d1be 67f3 d3be
000002f0: d035 67bd 8db0 49be 699d 463e 3cfd 01be
00000300: cbde 53be d915 1d3d b24f bf3e d801 9dbe
00000310: 880a 553e c050 a93e 6de0 f43e 1a67 aabe
00000320: 4b92 553d 6727 c5be dba4 9b3e 8846 aebe
00000330: 32f6 823e 5dab 593c 0d72 243d eb95 69bb
00000340: 1d33 d43d ac33 383e 7b73 e03d a300 ab3d
00000350: 2ff8 d8be 5907 d83e 1b30 c53e f21a e93e
00000360: aca3 8b3e 956b b9be bb45 06bd db4a aa3e
00000370: 3197 78be 01a0 fe3e 203b 82be 3c24 acbe
00000380: 8ec7 8d3e 3b55 f5be 6ab8 4abe 3b4e 143e
00000390: 364a a63e dd12 9f3e ee1d d0bd eb84 a9be
000003a0: 8e13 e53e ec64 28be 3c31 5abe 5cc0 ba3d
000003b0: 5b14 74be ed3e cb3e 2d7c 6b3e 8b4f e1be
000003c0: 49dc b8be 6b38 7abc 562e 593e 4bf3 5c3d
000003d0: db27 88be 533e 3dbd d6b9 d1be 2c36 adbe
000003e0: e007 b7be 046a b23e 6f4a af3e 999e 38be
000003f0: 0f26 9a3c 3c8c 5c3e 3815 a6bc 7267 84be

layer1.bias f4 [128]
-0.029954027 -0.028395247 0.35311693 0.4122198 0.18868999 0.19730951 -0.36082724 0.42585564
-0.30462095 -0.22843306 -0.3276612 0.16988595 -0.32437348 -0.23436043 -0.20486642 -0.25445482
-0.30502135 0.37620488 0.0029330165 0.1620328 -0.5022316 0.4207423 -0.07949787 -0.43337786
0.1979694 -0.17991675 0.40267557 -0.2612481 -0.32454792 -0.35319394 0.18223985 0.07021477
-0.41614464 0.115621015 -0.053536233 0.23908667 -0.1993714 -0.2560994 0.33969268 -0.16772538
0.26244274 0.38187438 -0.20583186 -0.27480325 0.062191594 -0.44686228 0.021031303 -0.10200437
-0.1571827 -0.3116791 0.31576186 -0.25082743 -0.349774 -0.17109944 -0.15874289 -0.4092581
0.14577715 -0.14289467 0.30389878 0.16857678 -0.32015222 -0.24692437 -0.16270363 0.28039816
-0.04842358 -0.28474247 0.23313846 0.3887338 0.38191336 -0.39268148 -0.107089765 -0.06504911
0.43107322 -0.18371788 -0.2682884 -0.06975406 -0.07659434 0.19613925 0.063601814 -0.303944
0.29914507 0.29185677 0.06013288 -0.4048744 0.22285314 0.28780305 0.091214694 -0.049496964
-0.014985395 -0.30384916 0.45620918 0.4343394 -0.019438967 -0.2417895 0.27571225 0.33147812
0.24953143 -0.33544517 -0.06225643 -0.15527587 -0.3735827 -0.22581172 0.24650389 0.17303418
-0.5692231 0.2451819 0.3382946 0.26626438 0.30200225 -0.08981134 0.2947374 0.41321847
-0.0061831037 -0.3356473 -0.14770494 0.33564326 0.389998 0.3049095 -0.19395997 -0.07197488
-0.29106376 -0.21212679 0.34841686 -0.32760248 -0.0430947 0.19628079 -0.27853692 0.073408484
00000000: 2662 f5bc 269d e8bc becb b43e 790e d33e
00000010: f337 413e 810b 4a3e 59be b8be c009 da3e
00000020: 47f7 9bbe 5bea 69be 35c3 a7be 95f6 2d3e
00000030: 4814 a6be 2efc 6fbe 81c8 51be e747 82be
00000040: c22b 9cbe ed9d c03e da37 403b edeb 253e
00000050: 4092 00bf 896b d73e c7cf a2bd b4e3 ddbe
00000060: 7eb8 4a3e 193c 38be 7e2b ce3e 50c2 85be
00000070: 252b a6be d6d5 b4be 159d 3a3e c3cc 8f3d
00000080: e910 d5be b6ca ec3d cf48 5bbd 23d3 743e
00000090: 0428 4cbe 761f 83be 33ec ad3e 34c0 2bbe
000000a0: e55e 863e 0a85 c33e 96c5 52be 03b3 8cbe
000000b0: 9dbc 7e3d 22cb e4be d749 ac3c abe7 d0bd
000000c0: 80f4 20be 6794 9fbe 8aab a13e 746c 80be
000000d0: 9415 b3be b134 2fbe 7f8d 22be 478a d1be
000000e0: 9b46 153e fb52 12be 9f98 9b3e 649f 2c3e
000000f0: feea a3be bed9 7cbe c89b 26be 5990 8f3e
00000100: ce57 46bd c4c9 91be d9bb 6e3e 1e08 c73e
00000110: 268a c33e 8c0d c9be e151 dbbd 7838 85bd
00000120: a1b5 dc3e 8a20 3cbe 195d 89be 37db 8ebd
00000130: 7edd 9cbd bad8 483e ab41 823d 8c9e 9bbe
00000140: 8b29 993e 406e 953e e54d 763d b34b cfbe
00000150: 9d33 643e ec5a 933e c5ce ba3d 54bd 4abd
00000160: 4d85 75bc 1e92 9bbe 4094 e93e bc61 de3e
00000170: 783e 9fbc ab97 77be 282a 8d3e 80b7 a93e
00000180: 2b85 7f3e 78bf abbe 9900 7fbd a300 1fbe
00000190: 3b46 bfbe 303b 67be 846b 7c3e df2f 313e
000001a0: 9bb8 11bf f710 7b3e f334 ad3e ce53 883e
000001b0: 0aa0 9a3e 02ef b7bd d2e7 963e 5f91 d33e
000001c0: a29b cabb f7d9 abbe f73f 17be 6fd9 ab3e
000001d0: d1ad c73e 191d 9c3e 719d 46be 9167 93bd
000001e0: 4f06 95be c437 59be b263 b23e 83bb a7be
000001f0: 1184 30bd d5fd 483e 649c 8ebe 3057 963d

layer2.weight f4 [128, 128]
0.0015289822 0.030727837 -0.061348747 0.025134072 -0.08107406 0.05352879 0.09364612 -0.0284798
-0.004313647 -0.04777313 -0.05792885 -0.031216484 -0.041949473 0.022800216 -0.0128941275 -0.007923815
-0.0704508 -0.064377345 -0.06467684 -0.05375505 0.061522275 0.03422619 -0.08027974 -0.017242353
-0.005583106 0.052599113 0.090960674 0.01568819 0.07013517 -0.03803762 0.009903486 -0.030835794
0.025346044 0.080859885 0.046384424 0.089699715 -0.030848542 0.012279114 0.024317572 0.08692022
-0.07563193 -0.03854857 0.01142293 -0.05054589 0.008723294 -0.008814469 -0.0111353155 0.05677805
0.0784212 0.07044429 0.05712237 -0.005115615 0.066096745 0.07994172 -0.054559022 0.03894031
0.017548516 -0.038424604 -0.0043217256 -0.021263838 -0.06185183 -0.027665427 0.011187435 0.067592785
-0.0032260506 -0.0855971 0.060189072 -0.019326057 0.094971515 -0.079449326 -0.026265318 0.06290063
0.030362817 -0.027781645 -0.08036241 -0.0015856688 0.049930677 -0.06967669 -0.07545126 -0.015389579
-0.025700647 0.07103493 -0.082894266 -0.019665692 -0.06535005 -0.006353391 -0.038706742 0.032791752
-0.08172755 -0.0713615 -0.04470359 -0.05540904 0.05927535 0.0030857325 -0.037523005 0.08123831
-0.0033889294 0.042555608 -0.0415537 -0.08766685 0.010412479 0.07099602 -0.09209867 -0.0026673703
0.018902821 0.023557415 0.0125391 -0.05133752 -0.07501087 0.0104895625 -0.058004428 -0.066352345
-0.052791923 -0.050206445 0.022378419 0.0712771 0.09051881 -0.06090383 0.034578983 0.070812605
-0.014834202 0.029225528 0.060163278 0.06411691 0.050476413 0.045464054 -0.04639976 -0.051175453
-0.023680856 0.07387277 -0.010840549 0.006802441 -0.07278981 -0.012092928 -0.012553641 -0.03776783
0.067373246 -0.070484035 -0.012592343 -0.023440007 -0.08860237 0.054469958 -0.041388594 0.0344829
0.05071779 0.095384955 0.029038027 0.06886249 0.07720765 0.025940333 -0.014992621 -0.015406871
0.014079948 0.026148232 -0.07420722 0.07168167 0.014729431 -0.103251986 0.034737047 0.06694073
0.032477926 0.07796037 -0.013995523 -0.079419896 0.004062682 0.07001783 -0.05308767 0.04204261
0.023366392 -0.015054434 -0.031230118 0.017398546 -0.06511793 0.05219402 0.072495826 0.07247015
0.09641166 -0.002044001 -0.06047095 -0.00015932533 -0.061916694 0.032138593 0.06388996 -0.04960914
0.020382222 0.08748562 -0.05821645 -0.0059109037 0.08582817 0.05732011 0.028237753 -0.025454096
-0.010689098 -0.0814063 -0.080568746 -0.059361108 0.10668513 0.074136086 0.025931915 -0.031234201
0.10177484 -0.030469492 0.053353004 0.0028802305 -0.027823396 -0.012738208 -0.020024197 -0.11180324
0.027177276 -0.0036260365 0.034627575 0.05782248 -0.012625347 0.043436646 0.015433196 0.04554563
-0.06777957 -0.005488821 -0.030600216 0.08998728 -0.07925696 -0.047147088 0.005824162 0.108041026
0.05053257 -0.078315176 -0.069183536 0.082110465 0.012971076 -0.07155146 -0.033561327 0.048654325
-0.01817564 -0.06403037 -0.038896617 -0.0490577 0.0090280175 0.0293495 0.05962673 -0.025983278
-0.01520154 -0.06952711 0.066184424 0.11410609 0.08009607 0.043409284 -0.028077433 -0.031184468
0.03535105 -0.09071352 0.012174326 -0.097405046 -0.08793631 -0.016122375 -0.022790404 -0.04689929
00000000: 2168 c83a f2b8 fb3c d348 7bbd f8e5 cd3c
00000010: 280a a6bd 0141 5b3d 89c9 bf3d 784e e9bc
00000020: 7e59 8dbb c2ad 43bd cd46 6dbd b6b9 ffbc
00000030: 36d3 2bbd 85c7 ba3c e441 53bc e4d2 01bc
00000040: 8248 90bd 45d8 83bd 4b75 84bd 412e 5cbd
00000050: c8fe 7b3d c330 0c3d b469 a4bd d63f 8dbc
00000060: 7df2 b6bb 2b72 573d 9749 ba3d 8584 803c
00000070: 07a3 8f3d 56cd 1bbd 3b42 223c 599b fcbc
00000080: 82a2 cf3c de99 a53d 98fd 3d3d 7cb4 b73d
00000090: 15b6 fcbc 562e 493c a535 c73c 3a03 b23d
000000a0: eae4 9abd 1be5 1dbd 3e27 3b3c 3509 4fbd
000000b0: 26ec 0e3c 906a 10bc e670 36bc 1a90 683d
000000c0: 4b9b a03d 1945 903d 25f9 693d e4a0 a7bb
000000d0: bb5d 873d 7cb8 a33d 4879 5fbd e07f 1f3d
000000e0: e8c1 8f3c 1e63 1dbd 439d 8dbb 8031 aebc
000000f0: 5858 7dbd 9ba2 e2bc 814b 373c 166e 8a3d
00000100: 266c 53bb 884d afbd d188 763d ae51 9ebc
00000110: 6d80 c23d 54b6 a2bd 5d2a d7bc 0cd2 803d
00000120: 71bb f83c 5596 e3bc 0c95 a4bd 37d6 cfba
00000130: 1c84 4c3d a7b2 8ebd 3186 9abd 9324 7cbc
00000140: 2a8a d2bc c37a 913d 78c4 a9bd f219 a1bc
00000150: 3fd6 85bd 1b30 d0bb f68a 1ebd a550 063d
00000160: c660 a7bd fa25 92bd 1d1b 37bd 97f4 62bd
00000170: b6ca 723d 003a 4a3b b9b1 19bd 4560 a63d
00000180: cd18 5ebb ca4e 2e3d 3634 2abd ad8a b3bd
00000190: 1a99 2a3c 5d66 913d 3a9e bcbd 0ccf 2ebb
000001a0: 17da 9a3c 7bfb c03c cc70 4d3c 4b47 52bd
000001b0: 4d9f 99bd 6adc 2b3c 0d96 6dbd bde3 87bd
000001c0: 583c 58bd 46a5 4dbd f252 b73c baf9 913d
000001d0: ed61 b93d 4b76 79bd b1a2 0d3d 3306 913d
000001e0: 270b 73bc 606a ef3c c56d 763d ba4f 833d
000001f0: 5bc0 4e3d 8438 3a3d ad0d 3ebd 5a9d 51bd
00000200: 5bfe c1bc 9b4a 973d 8f9c 31bc 03e7 de3b
00000210: d312 95bd 6b21 46bc c9ad 4dbc 71b2 1abd
00000220: fcfa 893d ef59 90bd 1d50 4ebc 4205 c0bc
00000230: 2975 b5bd e41b 5f3d 1687 29bd f13d 0d3d
00000240: 75bd 4f3d 3059 c33d 28e1 ed3c c707 8d3d
00000250: 0b1f 9e3d d280 d43c 9ca3 75bc 1a6d 7cbc
00000260: 95af 663c d134 d63c f4f9 97bd d7cd 923d
00000270: b653 713c c775 d3bd 6f48 0e3d 3918 893d
00000280: 9307 053d b0a9 9f3d 7a4d 65bc e6a6 a2bd
00000290: 3f20 853b 8265 8f3d 7572 59bd df34 2c3d
000002a0: e06a bf3c dfa6 76bc 4ed6 ffbc 6587 8e3c
000002b0: 8d5c 85bd 66c9 553d b178 943d 3b6b 943d
000002c0: 7a73 c53d a5f4 05bb 63b0 77bd 9110 27b9
000002d0: 5c9c 7dbd c2a3 033d bdd8 823d f432 4bbd
000002e0: 9ef8 a63c a92b b33d 5f74 6ebd 41b0 c1bb
000002f0: aec6 af3d 7ec8 6a3d dc52 e73c 1c85 d0bc
00000300: 5421 2fbc 59b8 a6bd 3a01 a5bd a224 73bd
00000310: bc7d da3d a9d4 973d 2b6f d43c dede ffbc
00000320: 546f d03d 289b f9bc ae88 5a3d 40c2 3c3b
00000330: e4ed e3bc ebb3 50bc c909 a4bc 19f9 e4bd
00000340: e1a2 de3c cca2 6dbb a5d5 0d3d 44d7 6c3d
00000350: 8bda 4ebc a0ea 313d 84db 7c3c 0e8e 3a3d
00000360: 04d0 8abd 91db b3bb 4ead fabc 404b b83d
00000370: 7951 a2bd 4e1d 41bd 9dd8 be3b 9d44 dd3d
00000380: 3dfb 4e3d b563 a0bd 19b0 8dbd 8829 a83d
00000390: a384 543c 9289 92bd 9a77 09bd c249 473d
000003a0: 14e5 94bc 5b22 83bd 0f52 1fbd baf0 48bd
000003b0: 40ea 133c 5d6e f03c 283b 743d e2da d4bc
000003c0: e10f 79bc 3b64 8ebd b38b 873d 74b0 e93d
000003d0: 6909 a43d efcd 313d a502 e6bc 9276 ffbc
000003e0: 43cc 103d 03c8 b9bd d376 473c 4c7c c7bd
000003f0: f417 b4bd 1213 84bc f1b2 babc 7819 40bd

layer2.bias f4 [128]
0.029035436 0.094422 0.072424404 0.018780367 -0.03214316 0.034649126 -0.014838739 0.07674863
0.04687069 0.003565236 0.011775094 0.04988772 0.11157588 0.036319517 0.01654536 0.06574444
0.05114597 0.08103115 -0.0022512223 0.034066994 -0.0076588085 0.04427328 -0.044622876 0.028436417
-0.01891518 -0.0071974914 0.03512557 0.0014829449 -0.07110998 -0.0026255688 -0.052507073 0.00018883284
0.026566567 -0.0041270107 0.024150738 -0.06059673 0.0003436694 0.07462191 0.02690509 0.078787595
-0.02362231 0.024839137 -0.07080283 -0.008734441 -0.06006627 0.04270233 0.029555231 -0.015327737
-0.054703437 -0.03843647 0.06521129 0.010770534 -0.09095347 0.06658464 -0.01073616 0.047228727
0.046482313 -0.014945126 -0.08711627 -0.008314264 0.001439156 0.024622153 -0.09971848 -0.02268413
-0.06477614 -0.058140438 -0.09610618 0.08759832 0.06448517 -0.04505509 -0.0130382385 0.038291026
-0.022703001 -0.05096857 -0.00032889628 -0.08503504 -0.060800347 0.06075501 -0.04490739 0.077484734
-0.040566463 -0.09264556 -0.06286896 0.058867715 -0.09222339 0.037268043 0.053146362 0.025919637
-0.069257915 -0.0645239 -0.014739573 -0.032338116 -0.044816118 0.037646856 0.02197242 0.04834706
-0.06592046 -0.05316846 0.08164941 -0.035721358 -0.005179309 0.049785353 -0.069535464 0.062153228
-0.050481897 -0.015902823 -0.045079194 -0.080289505 -0.0076456647 0.03769442 -0.046887957 0.0011069427
-0.07540047 -0.0536329 0.03729188 0.062713645 0.03147719 -0.06527395 0.08875325 -0.04780355
0.039024148 0.050890543 -0.019417845 -0.08055901 -0.11102437 -0.079709694 0.0039286097 0.060998034
00000000: b9db ed3c 5260 c13d 3f53 943d 49d9 993c
00000010: 8ca8 03bd 3eec 0d3d 2f1e 73bc 632e 9d3d
00000020: 7bfb 3f3d bca6 693b 53ec 403c 1157 4c3d
00000030: e581 e43d c6c3 143d 238a 873c 05a5 863d
00000040: 707e 513d a9f3 a53d 3e89 13bb d589 0b3d
00000050: bef6 fabb e657 353d 7ac6 36bd 7df3 e83c
00000060: 02f4 9abc efd8 ebbb d4df 0f3d 605f c23a
00000070: 1ca2 91bd bc11 2cbb a811 57bd 6e01 4639
00000080: 21a2 d93c e03b 87bb c5d7 c53c 4734 78bd
00000090: 872e b439 5fd3 983d 1068 dc3c 645b a13d
000000a0: 9383 c1bc 727b cb3c 1301 91bd e71a 0fbc
000000b0: 0d08 76bd a3e8 2e3d d01d f23c 3021 7bbc
000000c0: b610 60bd 8f6f 1dbd 7f8d 853d e576 303c
000000d0: d045 babd 875d 883d b8e6 2fbc e972 413d
000000e0: 3d64 3e3d 67dc 74bc 046a b2bd 8d38 08bc
000000f0: 10a2 bc3a 66b4 c93c 3439 ccbd 12d4 b9bc
00000100: 5aa9 84bd ab24 6ebd 51d3 c4bd bf66 b33d
00000110: cd10 843d b08b 38bd 569e 55bc 0dd7 1c3d
00000120: a5fb b9bc 6bc4 50bd b66f acb9 da26 aebd
00000130: c909 79bd 3fda 783d d0f0 37bd 51b0 9e3d
00000140: 0529 26bd f5bc bdbd 71c1 80bd 461f 713d
00000150: 9edf bcbd 60a6 183d 00b0 593d 6b55 d43c
00000160: 18d7 8dbd 1b25 84bd 407e 71bc f974 04bd
00000170: 1b91 37bd 9733 1a3d 81ff b33c 9107 463d
00000180: 4e01 87bd 2cc7 59bd ce37 a73d 8f50 12bd
00000190: 31b7 a9bb baeb 4b3d 9c68 8ebd 6294 7e3d
000001a0: 1bc6 4ebd a346 82bc f6a4 38bd d36e a4bd
000001b0: 7c88 fabb 7765 1a3d 960d 40bd d516 913a
000001c0: 906b 9abd 2cae 5bbd 5fbf 183d 0370 803d
000001d0: 3aee 003d 59ae 85bd 44c4 b53d a8cd 43bd
000001e0: c9d7 1f3d 9a72 503d 2c12 9fbc 1ffc a4bd
000001f0: bf60 e3bd d63e a3bd 91bb 803b 13d9 793d

layer3.weight f4 [128, 128]
0.048619054 0.10344636 -0.07005436 0.04819032 -0.0226403 0.040014345 -0.07103701 -0.054106552
0.059704587 0.059330862 -0.05432811 -0.06410453 -0.00031577214 0.08697738 0.0759589 -0.021714915
0.016729627 0.047596462 -0.06589745 -0.030795526 0.07880651 0.041655 0.034433875 0.0876912
0.039969955 -0.08055549 -0.068242446 -0.033000212 -0.06894627 0.0529124 0.010769751 0.09149273
-0.009371234 0.021902123 -0.023140613 0.074202 0.081097394 -0.021912003 -0.0011243066 0.0068074344
-0.04098436 -0.08679474 0.04485621 0.07426884 -0.06223814 0.04778879 -0.07699097 -0.07466996
0.020286752 0.00073457055 -0.025673686 0.008473896 0.013474133 -0.046603404 0.066705875 -0.058679752
-0.01691726 -0.09647437 -0.033072077 0.031177286 -0.029208697 -0.07488686 -0.03680634 -0.05158602
0.09674994 0.10550582 0.010081813 -0.018170502 0.085561745 -0.019732788 0.074214034 0.060917713
0.0623692 0.08481632 -0.012875687 -0.08709038 -0.032829836 -0.08091921 0.051474694 -0.010901646
0.05362538 -0.0846008 0.030150197 0.02806161 0.07069859 -0.05196658 0.025588378 -0.047969926
-0.025324786 0.06539349 -0.02196279 0.0741646 0.04218697 0.0027195397 0.10569175 0.027879672
-0.059116952 0.10066674 0.09091267 -0.04650397 0.06021796 -0.0070449696 0.034203663 0.015196429
-0.0799027 0.09663241 0.07059446 -0.0898639 -0.085370824 0.0840062 0.03248476 -0.013994324
-0.011805473 0.071080305 0.06364932 -0.09368138 -0.057411138 -0.047261246 -0.08377027 -0.016294522
0.03827365 -0.012236891 -0.06410003 -0.00873823 -0.01820561 -0.0630874 0.016883016 -0.0632993
0.044537373 -0.020771176 -0.025063612 0.011597601 0.076128446 0.026019951 0.08100543 0.07464863
0.005999455 0.0076225633 0.073606305 -0.0539055 -0.015607306 -0.07879198 0.044916645 0.06953214
0.069078706 0.016872436 -0.08165679 -0.054803655 -0.060932327 -0.0028844064 0.031789068 -0.07180453
-0.0042500664 0.034003668 -0.05680589 0.009916198 -0.06665717 0.09366821 -0.05762308 0.008726768
0.017983902 -0.03971868 0.054897707 0.023183089 0.0031000415 -0.013149811 0.0545096 0.017649481
-0.061990425 -0.08160832 0.08234658 0.097356744 -0.062365428 0.07787341 -0.050037954 -0.048115876
0.008214771 0.09840874 0.05055199 -0.080002226 -0.027637508 0.04663694 0.05667933 0.032255113
-0.001993333 -0.027346088 0.050274342 0.0019926303 0.06871099 0.02083002 0.074870296 0.05711946
0.014679191 0.095402196 0.094661236 -0.002186101 -0.046221357 -0.025835771 0.014177897 -0.021327786
0.030076288 0.033385176 -0.03767054 0.048417803 0.022423556 0.031785797 -0.019375954 0.014313182
-0.001601685 -0.058963094 -0.067487 -0.08044847 -0.085500315 0.014017305 -0.008154777 -0.05786811
-0.054229043 -0.078123875 -0.020759922 0.031215096 -0.059905093 -0.020798387 0.084364235 0.046546444
0.0150768785 0.03743206 -0.027959106 -0.011549185 0.050089583 0.055169802 0.037171666 -0.052410737
-0.07818435 -0.021457616 -0.044350177 0.05744609 -0.022961667 0.06415819 -0.06881941 0.06225079
0.096294925 0.004639768 -0.006971671 -0.036905833 0.065919876 0.07416031 0.011319442 0.004357758
0.024947919 0.021964721 0.05035716 0.058524244 -0.10552365 -0.051862225 -0.09613438 -0.035937384
00000000: c624 473d afdb d33d a978 8fbd 3763 453d
00000010: 2778 b9bc 15e6 233d da7b 91bd d59e 5dbd
00000020: cc8c 743d eb04 733d 2787 5ebd 3c49 83bd
00000030: 388e a5b9 3221 b23d 5790 9b3d 7ae3 b1bc
00000040: 920c 893c 82f4 423d 3ef5 86bd e646 fcbc
00000050: 4f65 a13d 6f9e 2a3d 890a 0d3d 7297 b33d
00000060: 89b7 233d 47fa a4bd b2c2 8bbd 3b2b 07bd
00000070: b433 8dbd acba 583d 9c73 303c 8a60 bb3d
00000080: ce89 19bc 156c b33c 6291 bdbc 38f7 973d
00000090: 6416 a63d cd80 b3bc 785d 93ba e610 df3b
000000a0: 37df 27bd 71c1 b1bd 25bb 373d 431a 983d
000000b0: 6bed 7ebd 2ebe 433d 71ad 9dbd 90ec 98bd
000000c0: 6730 a63c 3290 403a 9f51 d2bc 19d6 0a3c
000000d0: 9cc2 5c3c 36e3 3ebd 179d 883d 2e5a 70bd
000000e0: 1196 8abc 5b94 c5bd 9676 07bd 8267 ff3c
000000f0: 1447 efbc 485e 99bd 3fc2 16bd dd4b 53bd
00000100: d524 c63d 6f13 d83d 302e 253c 4eda 94bc
00000110: ff3a af3d a8a6 a1bc 87fd 973d da84 793d
00000120: d976 7f3d 2eb4 ad3d 8cf4 52bc 715c b2bd
00000130: 9478 06bd f9b8 a5bd 21d7 523d d19c 32bc
00000140: 49a6 5b3d 2f43 adbd 8cfd f63c 76e1 e53c
00000150: 6cca 903d e9da 54bd b89e d13c 1d7c 44bd
00000160: ed75 cfbc 06ed 853d 4feb b3bc 9ce3 973d
00000170: 3fcc 2c3d 4e3a 323b eb74 d83d e963 e43c
00000180: 9e24 72bd 5d2a ce3d 6c30 ba3d f27a 3ebd
00000190: 1ca7 763d 7dd9 e6bb 2419 0c3d 71fa 783c
000001a0: 07a4 a3bd 37e7 c53d d493 903d 900a b8bd
000001b0: e6d6 aebd 710b ac3d bd0e 053d 7348 65bc
000001c0: be6b 41bc 8d92 913d 935a 823d 06dc bfbd
000001d0: f127 6bbd 0295 41bd bf8f abbd 177c 85bc
000001e0: d5c4 1c3d 3e7d 48bc e046 83bd cb2a 0fbc
000001f0: ee23 95bc f733 81bd 404e 8a3c 10a3 81bd
00000200: d26c 363d 5028 aabc 3452 cdbc dd03 3e3c
00000210: 3be9 9b3d cb27 d53c 2de6 a53d 62e1 983d
00000220: 1497 c43b b2c6 f93b e7be 963d 03cc 5cbd
00000230: c9b5 7fbc b15d a1bd 84fa 373d de66 8e3d
00000240: 2379 8d3d 1038 8a3c ad3b a7bd cc79 60bd
00000250: 2d94 79bd 4f08 3dbb 4135 023d 410e 93bd
00000260: 2444 8bbb 6e47 0b3d 4bad 68bd 8d77 223c
00000270: 8e83 88bd 1ed5 bf3d 2e06 6cbd b8fa 0e3c
00000280: fa52 933c 0eb0 22bd 6bdc 603d 76ea bd3c
00000290: 112a 4b3b 4e72 57bc 7545 5f3d a595 903c
000002a0: ace9 7dbd 4322 a7bd 53a5 a83d f962 c73d
000002b0: e472 7fbd 187c 9f3d 99f4 4cbd 2715 45bd
000002c0: 3f97 063c 858a c93d 9a0f 4f3d 35d8 a3bd
000002d0: 0e68 e2bc 6006 3f3d 9628 683d f01d 043d
000002e0: 94a2 02bb e704 e0bc 78ec 4d3d ca96 023b
000002f0: 59b8 8c3d b8a3 aa3c 9955 993d 18f6 693d
00000300: fd80 703c 3a62 c33d c0dd c13d b044 0fbb
00000310: 9b52 3dbd 8aa5 d3bc 694a 683c 9cb7 aebc
00000320: 8c62 f63c e5be 083d 6d4c 1abd bf51 463d
00000330: 9bb1 b73c d331 023d 52ba 9ebc d681 6a3c
00000340: a1ef d1ba 4983 71bd a036 8abd 2bc2 a4bd
00000350: ca1a afbd d7a8 653c 9d9b 05bc 1c07 6dbd
00000360: 461f 5ebd 69ff 9fbd b610 aabc cdb6 ff3c
00000370: 0b5f 75bd 6161 aabc 28c7 ac3d 7ca7 3e3d
00000380: 0305 773c 5c52 193d 7f0a e5bc cb38 3dbc
00000390: bc2a 4d3d bbf9 613d 5141 183d a4ac 56bd
000003a0: 1e1f a0bd e2c7 afbc 88a8 35bd 974c 6b3d
000003b0: 1b1a bcbc 5e65 833d 31f1 8cbd affa 7e3d
000003c0: 4636 c53d 3209 983b 9d72 e4bb 922a 17bd
000003d0: 0001 873d 5ce1 973d 2e75 393c 86cb 8e3b
000003e0: 945f cc3c 5cef b33c 4f43 4e3d 1eb7 6f3d
000003f0: c91c d8bd 7c6d 54bd 1ae2 c4bd 1433 13bd

layer3.bias f4 [128]
-0.044369355 -0.1324338 0.012398944 0.0022382792 -0.0016221197 -0.03670762 -0.04149251 -0.03251834
0.05711931 -0.07659405 0.020489598 0.065240994 0.08323101 -0.032574654 0.0030704483 -0.029834928
0.10536643 0.030599741 0.07131601 -0.01131493 -0.018219609 -0.07949847 0.02661508 -0.030155467
-0.017611502 -0.061749965 -0.06601837 0.021985976 0.032086473 -0.039112467 0.082613274 -0.035703626
-0.020022204 0.007864946 -0.06897545 0.007173637 -0.014220232 -0.022007033 -0.077632606 0.031214984
-0.022281697 -0.07387478 0.06893166 -0.06651138 -0.032952793 -0.07883735 -0.07920948 0.014970366
0.035156675 0.07649729 0.0047217165 -0.07653504 0.014005633 -0.024169343 -0.024441829 0.06271755
-0.00028442222 -0.010596087 -0.042064447 -0.012673259 0.08785431 -0.01891774 -0.02728965 -0.07759002
-0.02463425 -0.048282586 -0.07157289 0.04195357 -0.0770304 0.04801201 0.031298123 0.028647562
0.07783938 0.04071032 0.019187426 0.052279945 0.09447019 0.109532915 0.065139785 0.04667962
0.06827637 0.10070002 -0.06956925 0.05969465 -0.09144235 -0.018224813 0.06893602 0.115258776
0.10111918 -0.02198429 0.031739578 -0.10627446 0.03341738 -0.05681113 0.085383825 0.04814234
0.053224362 -0.0078114164 -0.011562762 -0.0057024043 -0.026450891 -0.06065842 0.083688915 0.09453719
0.022170683 0.09960548 0.049762815 -0.0025691804 -0.03631017 -0.05834757 0.0053067794 0.060567126
0.03352406 0.05102777 0.015536275 -0.06276504 0.09839121 0.05793858 0.07253521 -0.03245724
0.029855741 0.05580149 -0.081124716 0.0780583 0.06692933 0.05606453 -0.03253416 0.09999348
00000000: a4bc 35bd ba9c 07be f124 4b3c 18b0 123b
00000010: 4e9d d4ba bb5a 16bd 0df4 29bd f331 05bd
00000020: f0f5 693d 57dd 9cbd cdd9 a73c 129d 853d
00000030: 0575 aa3d 006d 05bd 9339 493b 6168 f4bc
00000040: 5bca d73d 4fac fa3c 210e 923d 4262 39bc
00000050: 4a41 95bc 18d0 a2bd de07 da3c 9908 f7bc
00000060: ff45 90bc 88ed 7cbd a434 87bd ef1b b43c
00000070: 1b6d 033d 6534 20bd 2631 a93d f73d 12bd
00000080: 9b05 a4bc f9db 003c 0043 8dbd d410 eb3b
00000090: fafb 68bc 1848 b4bc d8fd 9ebd 91b6 ff3c
000000a0: 1b88 b6bc a94b 97bd 0b2c 8d3d 1e37 88bd
000000b0: 82f9 06bd 7a75 a1bd 9438 a2bd 4446 753c
000000c0: 7200 103d 9caa 9c3d a1b8 9a3b 67be 9cbd
000000d0: e277 653c c9fe c5bc 3b3a c8bc 0f72 803d
000000e0: 811e 95b9 369b 2dbc c54b 2cbd 80a3 4fbc
000000f0: f6ec b33d 60f9 9abc 8b8e dfbc 84e7 9ebd
00000100: c4cd c9bc f6c3 45bd cf94 92bd 82d7 2b3d
00000110: 1dc2 9dbd 3ea8 443d 7632 003d 4bae ea3c
00000120: 416a 9f3d ddbf 263d f32e 9d3c 7f23 563d
00000130: 9679 c13d cb52 e03d 0268 853d 2133 3f3d
00000140: 7bd4 8b3d d03b ce3d 537a 8ebd 6182 743d
00000150: 2046 bbbd 344c 95bc 542e 8d3d cb0c ec3d
00000160: 9317 cf3d 6618 b4bc 5c01 023d 6da6 d9bd
00000170: aae0 083d cab2 68bd b7dd ae3d e730 453d
00000180: ca01 5a3d e9f6 ffbb bd71 3dbc 3cdb babb
00000190: 8aaf d8bc f774 78bd 1865 ab3d b79c c13d
000001a0: 4b9f b53c f5fd cb3d 18d4 4b3d b25f 28bb
000001b0: f9b9 14bd ddfd 6ebd 7ee4 ad3b 3c15 783d
000001c0: 8650 093d 7f02 513d dc8b 7e3c f58a 80bd
000001d0: 5581 c93d 0151 6d3d 578d 943d e2f1 04bd
000001e0: 0794 f43c 1a90 643d b724 a6bd 08dd 9f3d
000001f0: 3f12 893d eca3 653d 8a42 05bd 62c9 cc3d

layer4.weight f4 [128, 128]
0.04314579 -0.04941324 -0.05584465 -0.010703474 -0.061761517 -0.009858303 -0.079803266 -0.012202291
-0.060680512 0.005219151 -0.012836086 -0.010853684 -0.0773803 -0.029323932 0.06591687 -0.019279145
-0.07535944 -0.057579488 -0.02079425 -0.07003151 0.08196048 0.037851922 0.013895686 -0.0070457375
-0.029525282 0.033707384 0.0260166 -0.02566865 0.014704649 -0.036616214 0.071028136 0.07119538
0.05786986 0.06548307 0.011876392 -0.019898988 0.043997932 0.066515945 -0.06614724 -0.06401938
-0.041244995 -0.0009169141 0.009303919 -0.008384733 -0.017100371 -0.050896335 0.0066489223 0.0018523118
-0.044361 -0.003902894 0.0084631005 0.087078825 0.074160054 -0.022880292 0.052924797 -0.013391761
0.02415481 0.049767286 0.09675216 0.07866564 -0.0035990444 0.030224502 0.040039912 -0.07425555
-0.041080315 0.041543294 0.076601736 0.045921043 -0.06689099 0.062182385 -0.00467265 -0.023461249
0.04259224 -0.06528171 0.043882392 0.0067527667 0.012271833 -0.07679218 0.050646435 -0.052061494
0.014619348 -0.052399356 -0.045373186 -0.017189888 0.028322456 -0.07541748 -0.0610183 -0.05099524
0.090163715 -0.03909927 -0.02548423 -0.050216302 0.031082146 -0.0012747685 0.00030893864 0.041275233
0.081087135 -0.02570525 -0.015589756 0.03817514 -0.06868264 -0.061585877 -0.05539437 0.027804377
0.057274994 0.062329408 -0.061497156 0.036072332 0.01733716 0.026191827 -0.026854195 -0.07335285
0.056692936 0.07415785 -0.055140954 -0.004983719 -0.06092449 0.053863604 0.0109842485 0.07078221
-0.03909013 -0.0060922345 -0.06590387 0.0047863745 0.07901695 0.059082694 -0.02938083 -0.027209863
-0.080864295 -0.00079261273 0.06727197 -0.06478646 0.006055918 -0.06603981 -0.038576268 0.06517103
-0.053783435 -0.039229028 0.070802815 0.049517047 0.038552634 -0.012454795 0.077584624 -0.035709593
0.07397143 0.051582683 0.053699613 -0.10866301 -0.014666334 -0.0010929406 0.04114211 0.10199459
0.08016397 -0.008306772 -0.06719103 0.018314835 0.0703438 -0.058375616 0.08361704 0.028722845
0.015256913 0.023173593 -0.094044805 -0.0078119873 0.041281715 0.036929183 -0.005951801 0.008438125
-0.013011519 -0.079095505 0.048462663 -0.017103512 0.06418652 0.012818161 -0.009989794 0.072089404
-0.07736667 -0.049953498 0.00065291283 0.08175902 0.04454312 0.10681926 0.056550164 0.08666579
0.009274663 -0.036525093 0.00018003488 -0.07232121 0.056083526 0.0011842784 0.084825285 -0.065882
-0.0039558895 -0.041390136 0.050045613 0.016618667 0.0331335 0.050593108 -0.08227077 -0.054668676
-0.119638145 0.042973455 0.042025965 0.07941456 0.010819257 -0.027638962 0.041486602 0.06437556
-0.017953398 0.010806587 -0.082937434 -0.0027928108 -6.763829e-05 -0.06248071 -0.019947024 0.0779956
-0.023187062 0.036400348 -0.061665174 -0.06019218 0.00576696 -0.039564423 0.008946968 -0.056230146
0.0004663978 0.08462695 0.008862936 0.062659904 -0.062808335 0.003656806 -0.014819711 0.08420807
0.07656376 0.048090074 -0.016138654 -0.09204244 -0.07295559 0.07685115 0.05870083 0.06619164
0.048036862 -0.021461057 0.046535846 0.025985181 -0.01460844 -0.090494566 0.07207124 -0.04277304
0.105357245 0.05621764 -0.024578352 -0.09938166 -0.026557717 -0.0512196 0.0642559 0.026716031
00000000: a4b9 303d 8a65 4abd 5cbd 64bd a05d 2fbc
00000010: a5f9 7cbd b884 21bc e56f a3bd 1eec 47bc
00000020: 218c 78bd 6905 ab3b 724e 52bc a6d3 31bc
00000030: 9079 9ebd be38 f0bc 6dff 863d 4cef 9dbc
00000040: 0d56 9abd 78d8 6bbd b458 aabc ae6c 8fbd
00000050: e5da a73d 9e0a 1b3d bbaa 633c eedf e6bb
00000060: 01df f1bc c110 0a3d c420 d53c 1047 d2bc
00000070: c5eb 703c e2fa 15bd 3377 913d e2ce 913d
00000080: f208 6d3d fd1b 863d 3395 423c 3403 a3bc
00000090: 2d37 343d 8339 883d 3478 87bd 981c 83bd
000000a0: 83f0 28bd 105d 70ba 776f 183c 1f60 09bc
000000b0: 1416 8cbc ad78 50bd 34df d93b 45c9 f23a
000000c0: e1b3 35bd b2c7 7fbb d1a8 0a3c 6256 b23d
000000d0: 3ae1 973d 736f bbbc acc7 583d 1e69 5bbc
000000e0: 4fe0 c53c c8d8 4b3d ff25 c63d 731b a13d
000000f0: f2dd 6bbb 6099 f73c e400 243d 4b13 98bd
00000100: d543 28bd 4d29 2a3d 5fe1 9c3d b417 3c3d
00000110: 25fe 88bd f5b2 7e3d 071d 99bb ce31 c0bc
00000120: 3375 2e3d 6bb2 85bd 06be 333d 5046 dd3b
00000130: cc0f 493c 3845 9dbd a372 4f3d 6f3e 55bd
00000140: fd85 6f3c b5a0 56bd 3cd9 39bd cfd1 8cbc
00000150: 7f04 e83c 7b74 9abd 53ee 79bd 63e0 50bd
00000160: c1a7 b83d 8e26 20bd 4ec4 d0bc 9caf 4dbd
00000170: fc9f fe3c 2216 a7ba 0bf9 a139 3810 293d
00000180: 0311 a63d d193 d2bc 2d6c 7fbc 895d 1c3d
00000190: 7ca9 8cbd 7941 7cbd 35e5 62bd 01c6 e33c
000001a0: 2f99 6a3d 1f4d 7f3d 71e4 7bbd 95c0 133d
000001b0: a906 8e3c 3e90 d63c 54fd dbbc 053a 96bd
000001c0: da36 683d 12e0 973d 7bdb 61bd 774e a3bb
000001d0: f58b 79bd 15a0 5c3d 47f7 333c 43f6 903d
000001e0: f91c 20bd 5ea1 c7bb 9cf8 86bd 05d7 9c3b
000001f0: a4d3 a13d b200 723d 11b0 f0bc 38e7 debc
00000200: 2e9c a5bd 57c7 4fba e3c5 893d c3ae 84bd
00000210: b970 c63b e13f 87bd 2602 1ebd 6478 853d
00000220: 054c 5cbd 9eae 20bd 1101 913d 63d2 4a3d
00000230: 5ee9 1d3d 320f 4cbc b0e4 9e3d 3944 12bd
00000240: 557e 973d 5d48 533d 20f4 5b3d b68a debd
00000250: 104b 70bc 0041 8fba a184 283d 8ae2 d03d
00000260: 022d a43d 2119 08bc 739b 89bd fe08 963c
00000270: 6910 903d 451b 6fbd 693f ab3d 2c4c eb3c
00000280: 22f8 793c 8cd6 bd3c 909a c0bd b3fb ffbb
00000290: 0417 293d 0e43 173d 5307 c3bb 1040 0a3c
000002a0: 442e 55bc d3fc a1bd c980 463d aa1c 8cbc
000002b0: 3974 833d 4403 523c 3cac 23bc 9ca3 933d
000002c0: 6b72 9ebd 0a9c 4cbd 3d28 2b3a 4671 a73d
000002d0: d972 363d 0ec4 da3d 25a1 673d d57d b13d
000002e0: c2f4 173c 569b 15bd bfc7 3c39 241d 94bd
000002f0: d7b7 653d ca39 9b3a e1b8 ad3d 24ed 86bd
00000300: 68a0 81bb b488 29bd a1fc 4c3d df23 883c
00000310: feb6 073d b83a 4f3d 947d a8bd 43ec 5fbd
00000320: d804 f5bd ef04 303d 6b23 2c3d 1aa4 a23d
00000330: 4143 313c 1b6b e2bc dbed 293d 55d7 833d
00000340: 0113 93bc 1c0e 313c 1adb a9bd 9707 37bb
00000350: 08d9 8db8 c6eb 7fbd f167 a3bc 28bc 9f3d
00000360: cbf2 bdbc 8818 153d 9f94 7cbd 138c 76bd
00000370: c4f8 bc3b 4e0e 22bd 4e96 123c 9551 66bd
00000380: da86 f439 e550 ad3d d935 113c d653 803d
00000390: a8a1 80bd 06a7 6f3b 60ce 72bc 4875 ac3d
000003a0: 76cd 9c3d 19fa 443d 3635 84bc bf80 bcbd
000003b0: be69 95bd 2364 9d3d 4870 703d 7c8f 873d
000003c0: 4dc2 443d 19cf afbc 5f9c 3e3d e0de d43c
000003d0: 3d58 6fbc 3755 b9bd 169a 933d c832 2fbd
000003e0: 8ac5 d73d 7844 663d 8a58 c9bc 9d88 cbbd
000003f0: 928f d9bc a5cb 51bd 9998 833d 94db da3c

layer4.bias f4 [128]
-0.0736212 0.07245372 -0.047973223 0.0273303 -0.06962417 -0.059841912 -0.04379948 0.052595086
0.08690626 0.0686854 0.06826448 0.07242518 -0.05719164 -0.029837012 -0.07234435 -0.09358643
0.051455695 0.06380939 -0.04952419 -0.046524283 0.017276162 0.00518815 0.06321507 -0.058042426
0.036000576 -0.025329912 -0.010998417 -0.06779116 0.05819496 0.090673655 0.10381408 0.082228735
0.07875596 -0.03323455 -0.009067386 -0.034457956 -0.07351697 -0.0050730896 -0.036928423 -0.045083452
-0.082444325 0.080271706 -0.00740293 -0.06934082 -0.049320128 0.061799556 -0.040453695 -0.021268552
-0.0039867973 0.08011854 0.0011051248 0.08109724 -0.046445888 0.07817296 0.044095755 -0.035551187
-0.029424775 0.004958335 0.086097516 -0.0584576 0.03008786 -0.061934836 0.033964388 -0.006890469
-0.06279026 0.08280209 0.06990549 -0.05307124 -0.056133877 0.0786991 0.03394128 0.035676952
0.07201045 0.017404454 0.113005236 0.008980788 -0.00040639634 -0.060277868 0.041063506 0.07736907
0.0011738769 0.029705742 -0.06310104 -0.020872211 0.06171022 -0.039477233 -0.050822172 0.028673982
0.010294475 -0.07472133 0.0524092 -0.025468152 0.0118231485 -0.0806693 0.06886952 -0.059275024
0.032634422 -0.05842772 0.008226216 0.08247814 0.036673233 0.09252423 0.09546268 -0.06416726
0.0403004 -0.057295788 -0.045101516 -0.009190195 -0.08007855 0.06385278 -0.029565323 -0.06048521
0.01615865 -0.102671646 -0.0432611 0.10784246 0.0019025201 -0.040969837 0.0513667 -0.0022133216
0.044019174 -0.063251674 -0.072515056 -0.014347892 -0.08232773 0.030277101 0.044821493 0.06499477
00000000: b6c6 96bd 9e62 943d 927f 44bd cbe3 df3c
00000010: 1e97 8ebd cb1c 75bd 1567 33bd f26d 573d
00000020: e9fb b13d eeaa 8c3d 3fce 8b3d a753 943d
00000030: c841 6abd c06c f4bc 4629 94bd 3eaa bfbd
00000040: 35c3 523d 7fae 823d e1d9 4abd 3f90 3ebd
00000050: bd86 8d3c 5b01 aa3b e776 813d e5bd 6dbd
00000060: 5775 133d ad80 cfbc b432 34bc 17d6 8abd
00000070: d75d 6e3d 1cb3 b93d 7a9c d43d 8a67 a83d
00000080: ce4a a13d f420 08bd 608f 14bc c923 0dbd
00000090: 1190 96bd 293c a6bb 4242 17bd 6da9 38bd
000000a0: 92d8 a8bd 7e65 a43d 4794 f2bb 8f02 8ebd
000000b0: e703 4abd 8821 7d3d c6b2 25bd 633b aebc
000000c0: aea3 82bb 3015 a43d d6d9 903a 4f16 a63d
000000d0: 0b3e 3ebd 2519 a03d c09d 343d 1f9e 11bd
000000e0: 3a0c f1bc 8779 a23b e553 b03d 3d71 6fbd
000000f0: d17a f63c 62af 7dbd 3e1e 0b3d 72c9 e1bb
00000100: 2e98 80bd 2494 a93d 9c2a 8f3d 3b61 59bd
00000110: a3ec 65bd fe2c a13d 0306 0b3d ff21 123d
00000120: 377a 933d c993 8e3c 4a6f e73d 2824 133c
00000130: 9811 d5b9 ede5 76bd 3532 283d ad73 9e3d
00000140: c6dc 993a 7559 f33c 1e3b 81bd 33fc aabc
00000150: dbc3 7c3d e1b2 21bd e92a 50bd b3e5 ea3c
00000160: 28aa 283c 7f07 99bd 08ab 563d 96a2 d0bc
00000170: e1b5 413c f235 a5bd 770b 8d3d 5eca 72bd
00000180: acab 053d e851 6fbd 40c7 063c 4dea a83d
00000190: ac36 163d 587d bd3d f081 c33d 206a 83bd
000001a0: 0812 253d fdae 6abd 5ebc 38bd 7992 16bc
000001b0: 3900 a4bd 3fc5 823d fa32 f2bc 57bf 77bd
000001c0: 255f 843c 8345 d2bd 8d32 31bd 82dc dc3d
000001d0: fb5d f93a fdcf 27bd e465 523d 600d 11bb
000001e0: 734d 343d 188a 81bd c682 94bd 6c13 6bbc
000001f0: 719b a8bd af07 f83c be96 373d fa1b 853d

input_norm.weight f4 [5]
1.0933585 1.1104181 0.58095336 1.1388557 0.66626984
00000000: 2cf3 8b3f 2e22 8e3f 5cb9 143f 06c6 913f
00000010: a990 2a3f

input_norm.bias f4 [5]
0.44838107 0.1409227 -0.12920898 0.7925558 0.043985937
00000000: 3492 e53e 0a4e 103e 5c4f 04be f0e4 4a3f
00000010: 992a 343d

input_norm.running_mean f4 [5]
5.5946875 0.0528323 -1.8474357 10.9945 0.0657118
00000000: ae07 b340 af66 583d c678 ecbf 79e9 2f41
00000010: e893 863d

input_norm.running_var f4 [5]
6.7031474 0.020373913 2.4187374 44.19121 0.023838487
00000000: 2f80 d640 31e7 a63c 98cc 1a40 cdc3 3042
00000010: ee48 c33c

norm.weight f4 [128]
0.964295 0.9863425 0.9554419 0.95814437 0.9581344 0.96023846 0.9599974 0.96781486
0.981035 1.0120072 0.9324584 0.95492387 0.9637611 0.94396114 0.9510955 0.9129108
0.97043973 0.97338265 0.9796963 0.9734644 0.9913273 0.9811312 0.95898086 0.96511
0.94949245 0.9510503 0.9619539 0.95628124 1.0096726 0.97781724 0.96498805 0.97701246
0.98636544 0.9629587 0.98099065 0.9594404 0.945167 0.9694147 0.9695497 0.9761218
0.94834155 0.9641906 0.9417485 0.97066826 0.95569193 0.98419386 0.9357647 0.96110535
0.9298098 0.9402659 0.95349175 0.9777601 0.96821547 0.9554317 0.9694607 0.94050604
0.9694682 0.9485799 0.943497 0.98424745 0.97023064 0.9366117 0.9377126 0.9622772
0.9355488 1.0017533 0.9526853 0.94285566 0.9475137 0.93393016 0.9674684 0.97673655
0.93509734 0.9582651 0.9546934 0.9799288 0.95997643 0.97383475 0.96083957 0.96281964
0.9622428 0.96514004 0.94656396 0.99655944 0.9741417 0.96366876 0.93039644 0.97145927
0.9550061 0.9511969 0.96080965 0.96066254 0.9871967 0.93927056 0.9529636 0.9654036
0.9690055 0.96995157 0.9772798 0.9566107 0.9522537 0.9703864 0.9494026 0.95915216
0.955494 0.96399397 0.9561547 0.96162814 0.94914436 0.9722936 0.96163183 0.97629136
0.9543577 1.1002046 0.93943477 1.0034933 0.9726559 0.96096367 0.97267705 0.9651599
0.9952316 0.92354447 0.9584677 0.95833576 0.9477081 0.9368904 0.94976413 0.9488922
00000000: 0adc 763f f180 7c3f d797 743f f348 753f
00000010: 4c48 753f 30d2 753f 64c2 753f b7c2 773f
00000020: 1c25 7b3f 7489 813f 98b5 6e3f e475 743f
00000030: 0cb9 763f 70a7 713f ff7a 733f 86b4 693f
00000040: bd6e 783f 9b2f 793f 60cd 7a3f f734 793f
00000050: a0c7 7d3f 6a2b 7b3f c57f 753f 7311 773f
00000060: f011 733f 0878 733f 9c42 763f d9ce 743f
00000070: f43c 813f 3b52 7a3f 7509 773f 7d1d 7a3f
00000080: 7282 7c3f 7684 763f 3422 7b3f e39d 753f
00000090: 77f6 713f 902b 783f 6934 783f 1ee3 793f
000000a0: 83c6 723f 32d5 763f 6e16 713f b77d 783f
000000b0: 3aa8 743f 21f4 7b3f 468e 6f3f 000b 763f
000000c0: 0408 6e3f 44b5 703f 0918 743f 7c4e 7a3f
000000d0: f8dc 773f 2c97 743f 942e 783f 01c5 703f
000000e0: 112f 783f 22d6 723f 0589 713f a4f7 7b3f
000000f0: 0961 783f c9c5 6f3f ef0d 703f cc57 763f
00000100: 2080 6f3f 7439 803f 2fe3 733f fd5e 713f
00000110: 4290 723f 0c16 6f3f 02ac 773f 680b 7a3f
00000120: 8a62 6f3f dd50 753f c966 743f 9ddc 7a3f
00000130: 04c1 753f 3c4d 793f 95f9 753f 597b 763f
00000140: 8b55 763f 6b13 773f 0452 723f 851e 7f3f
00000150: 5a61 793f ffb2 763f 762e 6e3f 8eb1 783f
00000160: 487b 743f a481 733f 9ff7 753f fbed 753f
00000170: ecb8 7c3f 0974 703f 6cf5 733f b124 773f
00000180: bf10 783f bf4e 783f 022f 7a3f 70e4 743f
00000190: e6c6 733f 3e6b 783f 0c0c 733f ff8a 753f
000001a0: 419b 743f 4fc8 763f 8ec6 743f 432d 763f
000001b0: 20fb 723f 3ce8 783f 812d 763f 3bee 793f
000001c0: c950 743f 81d3 8c3f cc7e 703f 7872 803f
000001d0: faff 783f b701 763f 5d01 793f b814 773f
000001e0: 80c7 7e3f 696d 6c3f 245e 753f 7e55 753f
000001f0: ff9c 723f 0dd8 6f3f be23 733f 99ea 723f

norm.bias f4 [128]
0.028178742 -0.05991631 0.03836753 -0.18677144 0.22965819 -0.10371002 -0.033422302 -0.15338989
0.025246223 0.040593978 0.050069563 0.034692872 0.45457697 0.03725911 0.45065042 -0.2051085
0.045234043 0.027688412 0.16835721 0.103308626 -0.216211 -0.07362543 0.055725396 -0.069929115
-0.27674165 -0.11044509 -0.054216936 -0.224129 -0.32287014 -0.16894622 -0.07386323 0.18550396
0.023572328 -0.08541218 -0.13960436 -0.27817833 0.12565541 -0.19337584 -0.07357904 -0.048440963
-0.045014057 0.25023738 0.23256306 -0.24181123 0.09260977 0.053554222 -0.04681272 -0.19675682
0.20920427 -0.21064734 0.1501782 -0.040524296 0.33510292 -0.19969378 -0.07449139 0.054042738
0.033480104 0.046527345 -0.26831704 -0.083779864 0.08181315 0.14429468 0.15151858 0.120351106
0.30059186 0.07670734 -0.15908903 -0.1444777 -0.22579914 -0.024846217 0.009629435 -0.08769517
0.52620846 -0.17809504 -0.023765948 -0.09189391 0.014755679 -0.02750091 -0.06162928 -0.20435166
0.18152481 0.19968088 -0.31463107 0.0035421192 -0.13197866 0.14764953 0.30949402 0.13973057
0.08826589 0.12290658 0.2657929 -0.15200858 -0.17549159 0.3850608 0.092733234 0.079858616
-0.0050199707 -0.22298595 -0.051926654 0.47592467 0.06310867 0.08937099 0.34343484 -0.07376926
-0.05727821 -0.118824266 -0.2260704 -0.27861282 -0.35688758 -0.043011665 -0.0032010148 0.20027311
0.12736246 0.05447657 -0.03743065 -0.54595655 0.052558787 -0.45123652 -0.008701618 -0.081313185
0.11672063 0.350381 -0.2078568 0.27232334 -0.16991623 0.27624938 -0.031938337 0.16909605
00000000: 1bd7 e63c ce6a 75bd 4527 1d3d 0341 3fbe
00000010: 842b 6b3e eb65 d4bd d3e5 08bd 3d12 1dbe
00000020: 2bd1 ce3c df45 263d be15 4d3d 1d1a 0e3d
00000030: 50be e83e 029d 183d a7bb e63e f607 52be
00000040: 5547 393d cfd2 e23c d565 2c3e 7993 d33d
00000050: 6b66 5dbe eec8 96bd 5040 643d ff36 8fbd
00000060: 15b1 8dbe 0931 e2bd 9412 5ebd 1382 65be
00000070: 3c4f a5be 3d00 2dbe 9b45 97bd c0f4 3d3e
00000080: c11a c13c 95ec aebd 72f4 0ebe 646d 8ebe
00000090: d0ab 003e 5104 46be 9cb0 96bd 086a 46bd
000000a0: a960 38bd 1d1f 803e 0325 6e3e 5d9d 77be
000000b0: 31aa bd3d ac5b 5b3d b2be 3fbd 9f7a 49be
000000c0: a539 563e f0b3 57be 50c8 193e cefc 25bd
000000d0: 9c92 ab3e 877c 4cbe f18e 98bd eb5b 5d3d
000000e0: 6f22 093d 7593 3e3d da60 89be c794 abbd
000000f0: a78d a73d fcc1 133e b027 1b3e a47a f63d
00000100: 2de7 993e bd18 9d3d 3ce8 22be f6f1 13be
00000110: e437 67be 4b8a cbbc c7c4 1d3c 8699 b3bd
00000120: 99b5 063f 8c5e 36be ceb0 c2bc e032 bcbd
00000130: cec1 713c 9749 e1bc fc6e 7cbd 9041 51be
00000140: a4e1 393e 2579 4c3e 5317 a1be e622 683b
00000150: 6a25 07be 7031 173e 0076 9e3e 8815 0f3e
00000160: bfc4 b43d 72b6 fb3d 0216 883e 23a8 1bbe
00000170: 11b4 33be b026 c53e ecea bd3d ea8c a33d
00000180: 917e a4bb 6e56 64be 0bb1 54bd 66ac f33e
00000190: 1e3f 813d 2308 b73d b1d6 af3e 5614 97bd
000001a0: 8e9c 6abd 235a f3bd 007f 67be 57a6 8ebe
000001b0: f8b9 b6be 002d 30bd 1ec8 51bb 6514 4d3e
000001c0: 4e6b 023e d322 5f3d e250 19bd cfc3 0bbf
000001d0: e247 573d 7908 e7be 3b91 0ebc 8787 a6bd
000001e0: 3a0b ef3d 2365 b33e 6ad8 54be f76d 8b3e
000001f0: 85fe 2dbe 8f70 8d3e c6d1 02bd 8427 2d3e

norm.running_mean f4 [128]
0.38181913 0.3490973 0.33689725 0.6939435 0.1418997 0.25450015 0.08176081 0.6503274
0.2376091 0.03998943 0.17250367 0.8248059 0.15623383 0.10338913 0.23363487 0.048468187
0.076131344 0.4045309 0.3544365 0.17276992 0.20502019 0.5790848 0.16979693 0.049635038
0.271174 0.2795176 0.5425349 0.054074015 0.015810631 0.198031 0.37852785 0.46506244
0.06693483 0.0842275 0.14967406 0.34045503 0.15012449 0.29466948 0.6182393 0.22828516
0.19119868 0.54600847 0.47977942 0.32645926 0.3543976 0.2378478 0.09645943 0.18477538
0.07985553 0.11602531 0.708184 0.257882 0.7276503 0.24692725 0.51650023 0.019031014
0.23156409 0.22282764 0.7247605 0.29621804 0.07241894 0.059456978 0.061455682 0.27865058
0.061886694 0.06377831 0.36290795 0.46160895 0.6584947 0.17939717 0.19306773 0.4718313
0.389479 0.17575523 0.09760183 0.30764726 0.22187588 0.21794839 0.2042049 0.31406832
0.3032318 0.4206221 0.14792314 0.06589326 0.4957276 0.5707761 0.23429541 0.23797466
0.19927514 0.023511507 0.65167516 0.9564547 0.2516199 0.18112372 0.57094944 0.6362837
0.42325047 0.054224458 0.1316124 0.1829194 0.08970832 0.11680598 0.41045952 0.22423618
0.012845449 0.27682045 0.53958964 0.31332803 0.37577763 0.13502035 0.17530559 0.32692719
0.15842773 0.00012437173 0.0360549 0.31819957 0.92936474 0.30184075 0.122261785 0.46431488
0.18160932 0.14445606 0.55296326 0.5643574 0.08424251 0.36149627 0.05603903 0.17952238
00000000: cc7d c33e e2bc b23e cc7d ac3e 48a6 313f
00000010: 284e 113e d84d 823e 3672 a73d db7b 263f
00000020: cd4f 733e f5cb 233d cda4 303e 7b26 533f
00000030: c3fb 1f3e aebd d33d fb3d 6f3e 9486 463d
00000040: c0ea 9b3d ad1e cf3e b378 b53e 99ea 303e
00000050: d0f0 513e e73e 143f 3fdf 2d3e 1c4e 4b3d
00000060: 52d7 8a3e ee1c 8f3e 91e3 0a3f b77c 5d3d
00000070: 4c85 813c a3c8 4a3e 67ce c13e aa1c ee3e
00000080: 2115 893d 787f ac3d 2844 193e 1f50 ae3e
00000090: 3cba 193e ebde 963e ee44 1e3f 96c3 693e
000000a0: 96c9 433e 36c7 0b3f a6a5 f53e ab25 a73e
000000b0: 9a73 b53e 608e 733e 868c c53d c235 3d3e
000000c0: 4c8b a33d ad9e ed3d 8c4b 353f 1c09 843e
000000d0: 4a47 3a3f 7fda 7c3e 5c39 043f eee6 9b3c
000000e0: 231f 6d3e ee2c 643e e789 393f e4a9 973e
000000f0: 6250 943d 2989 733d f4b8 7b3d 4aab 8e3e
00000100: e77c 7d3d 349e 823d 12cf b93e 0258 ec3e
00000110: 1c93 283f e4b3 373e 8cb3 453e df93 f13e
00000120: cb69 c73e 2ef9 333e 78e3 c73d f183 9d3e
00000130: 6e33 633e dd2d 5f3e 171b 513e 90cd a03e
00000140: 3341 9b3e c85b d73e 2a79 173e 0cf3 863d
00000150: 02d0 fd3e 621e 123f 23eb 6f3e a1af 733e
00000160: c80e 4c3e 349b c03c 2fd4 263f 37da 743f
00000170: 53d4 803e 7f78 393e be29 123f 7de3 223f
00000180: 49b4 d83e 771a 5e3d 67c5 063e 394f 3b3e
00000190: ffb8 b73d f937 ef3d c027 d23e 2b9e 653e
000001a0: b875 523c 69bb 8d3e 8c22 0a3f 886c a03e
000001b0: ed65 c03e c642 0a3e 4f83 333e 0063 a73e
000001c0: e13a 223e c869 0239 4eae 133d 0eeb a23e
000001d0: d9ea 6d3f df8a 9a3e 6364 fa3d aeba ed3e
000001e0: cbf7 393e 4aec 133e 008f 0d3f ba79 103f
000001f0: 5687 ac3d 0a16 b93e 2f89 653d b7d4 373e
