Chri/Lex.ptjaywalker_QAgent.pt (torch, 225501 bytes, 22 tensors)

layer1.weight f4 [128, 5]
000000 f7 83 03 3e 4a 1e 0b bc 93 39 08 bd 35 ec 68 3e
       0.1284331 -0.008491108 -0.033258032 0.22746356
000010 22 46 fe be 63 89 87 3e 20 21 a2 bb 84 4d 86 3e
       -0.49662882 0.26472005 -0.0049477965 0.26231015
000020 9d 64 61 3e 85 24 ec 3b d8 52 34 3e ba 53 17 3d
       0.22011037 0.007206502 0.17609727 0.036945082
000030 f6 8d 41 3e 76 ba d3 bd a0 3c 9d 3b 33 fc 2e bd
       0.1890181 -0.10338299 0.004798487 -0.042720985
000040 7e a2 bd 3d 23 f3 49 bc 82 72 ac 3e 14 c2 06 3e
       0.092595086 -0.012326035 0.33681113 0.13159972
000050 f0 d0 41 be cc 67 70 be f0 c0 3a 3d 61 46 2b be
       -0.1892736 -0.23477095 0.045594156 -0.16726066
000060 36 eb 6d be 62 0c 3f bd 04 d1 80 3e bd 86 99 3e
       -0.23234257 -0.04664267 0.25159466 0.2998561
000070 f3 9a eb be 77 bd 65 3e 1c 41 43 3e 6d 36 e5 3e
       -0.46016654 0.22435556 0.19067806 0.44768086
000080 51 7e a6 3e 24 6e cc be ba db c3 be f1 cf 34 be
       0.32518247 -0.3992778 -0.38253576 -0.17657448
000090 e5 bb ce 3e 4f 15 a7 bd a8 77 70 3e 12 ac f0 bd
       0.40377727 -0.08158361 0.23483145 -0.1175157
0000a0 7c dd 10 3f 54 b2 48 be 9f ab 85 3e 5f eb 2d 3d
       0.5658796 -0.19599277 0.261075 0.042460795
0000b0 9d 96 5f be 01 a3 55 3e 6d b7 3c be 60 80 37 3d
       -0.21834798 0.20862962 -0.18429346 0.044800162
0000c0 20 d6 1e be c7 9d be 3c 95 6e cf be 23 5d 59 be
       -0.1551137 0.023268593 -0.40514055 -0.21226935
0000d0 ae c9 00 3e 65 d5 b1 bd 56 1f 06 3f 34 5a a2 3e
       0.12576935 -0.0868328 0.52391565 0.31709445
0000e0 f1 59 1a bd 2e b4 bb be 85 0b 91 3e 7b fe a5 3d
       -0.03768343 -0.36660904 0.283291 0.08105179
0000f0 c4 18 b6 be 39 4b 70 3e 82 24 ed 3d e9 79 c0 3e
       -0.3556577 0.23466195 0.11579229 0.3759301
000100 ea 00 cc be 3a 50 93 bd d4 e9 6b bc 5c af fb bb
       -0.39844447 -0.071930364 -0.014399011 -0.0076808166
000110 17 51 b0 be 84 17 9a be b2 ae 95 3e bf eb 0a be
       -0.34436867 -0.30096066 0.29234844 -0.13566492
000120 97 c9 5c 3e a6 dd 27 3e af ae 87 3d ba 3f fb 3b
       0.21561275 0.16393146 0.06625115 0.007667509
000130 c0 a7 5a 3e 3a 1f 70 3e 54 94 e8 be a7 9b 06 3e
       0.21353054 0.23449412 -0.45425665 0.13145314
000140 b8 ac 99 be fd b0 c4 be 25 e4 a6 bd c2 e6 f5 bb
       -0.30014586 -0.3841628 -0.08148984 -0.007504315
000150 cb 38 8b 3d 6c fb a9 be 24 f3 e2 be 66 f5 8a 3e
       0.06797942 -0.33199632 -0.44326127 0.2714035
000160 9e 08 79 be a2 12 7f 3e bb ea 54 3e 2c 47 ae be
       -0.24319693 0.24909452 0.20792668 -0.34038675
000170 c3 a8 66 3d 5b d1 40 3e be 1b 31 be a3 c7 0b be
       0.056313287 0.18829863 -0.17295739 -0.13650374
000180 f7 3f 04 3e 14 2a 2d 3e 2a 46 5a be c2 88 cd bd
       0.12915026 0.16910583 -0.21315828 -0.1003585
000190 2d 6a f8 3e c2 3c 88 bd 6b 1a 83 3e 50 cd 77 3e
       0.48518506 -0.06652214 0.25606093 0.24199414
0001a0 8a 51 b1 be 05 26 b2 be d7 e5 f1 3e c1 b9 4d 3d
       -0.34632522 -0.34794632 0.47245666 0.050225977
0001b0 70 23 9b 3e 61 05 fc 3d 3f b9 31 3e 25 e1 a9 3e
       0.30300474 0.123057134 0.17355822 0.33179584
0001c0 56 8d dc 3e c3 3b 8b be 67 c6 ad 3d 9e a6 bc 3e
       0.4307658 -0.27194032 0.08485108 0.3684587
0001d0 b6 5f a8 3e 72 79 8d 3e 02 22 b2 be 67 ae 84 be
       0.32885522 0.27631718 -0.3479157 -0.25914308
0001e0 9e 1b 8e be 61 93 50 3d 52 f0 ed 3e 2b 75 96 be
       -0.27755445 0.0509218 0.46472412 -0.29386267
0001f0 e2 e6 68 3e 2e f5 a2 be 31 10 b9 be 3d 55 ff bc
       0.22744325 -0.31827682 -0.36145166 -0.031168574
000200 5c 06 3f 3e af 7e e7 3e f7 03 80 be 61 ec e6 3d
       0.1865477 0.4521384 -0.25003025 0.112755544
000210 fb 17 ce 3e 71 d8 98 3e 9b d1 74 3e 39 7b ad 3e
       0.4025267 0.29852632 0.23908083 0.33883074
000220 a1 ac b9 3e c9 ed 97 3d cf 00 8c be 66 30 a3 be
       0.36264518 0.07418401 -0.27344367 -0.31872863
000230 9b ee 85 bd 5f 7b 23 bd 2c 0a 83 be dd fa 5e 3c
       -0.06539651 -0.039912578 -0.25593698 0.013609615
000240 c7 c1 42 3d 4c b2 6e bc 4f d2 4a 3e f0 bc f4 3d
       0.04754808 -0.0145688765 0.19806789 0.119500995
000250 74 0f ba 3e 88 8e 8f 3e a1 c4 94 bd bb 98 ed 3e
       0.36339915 0.2803843 -0.072640665 0.46405587
000260 b5 4b 62 bb e4 f3 1f bc d1 91 e6 be 26 cc 9c be
       -0.0034529988 -0.009762738 -0.45033124 -0.30624503
000270 5f 35 83 be 6d 16 3e be 74 16 8a 3e 47 f8 35 be
       -0.25626656 -0.18563242 0.26970255 -0.17770492
000280 01 52 c7 be 8b 7b c2 bc 69 7e a5 3b d2 0c ad 3e
       -0.38929752 -0.02374055 0.0050504697 0.33798844
000290 e8 db 85 be 88 7d 4f 3d d1 d8 06 be 84 f2 f2 bc
       -0.26144338 0.050656825 -0.13168646 -0.029656656
0002a0 e8 94 c7 be 7d 3c 27 be 5d f8 02 be b6 64 03 3e
       -0.38980794 -0.16331668 -0.12790056 0.12831387
0002b0 16 52 0b bd b0 54 e6 3d 87 87 eb 3e 2a f7 e7 3e
       -0.03401383 0.112466216 0.46001837 0.4530576
0002c0 ac b4 96 3e 0e 5a cc bc dd af 8e be 81 96 c6 3e
       0.29434717 -0.024945285 -0.27868548 0.387867
0002d0 c5 23 d3 bd cd 1a 25 bd 36 e9 c5 be c4 b1 c2 bd
       -0.10309557 -0.040308762 -0.38654488 -0.09506562
0002e0 ea 4d 3b be 98 8d ca 3e 6d aa c6 be 5e e9 c8 be
       -0.1829144 0.39561152 -0.388019 -0.39240545
0002f0 c2 89 a2 3b 69 2b a7 be 54 28 16 3e 76 2d 0b be
       0.0049602697 -0.32650307 0.14663821 -0.1359156
000300 0d 23 3f be 2b ec 01 3e a9 30 ad 3e 07 76 97 be
       -0.18665715 0.12687747 0.33826187 -0.29582235
000310 a0 65 3f 3e a3 6e a4 3e c1 ea 05 3f 9f 5e 8c be
       0.1869111 0.3211566 0.5231133 -0.2741594
000320 df 58 55 3d 03 cf ab be 4d ad b0 3e 5d 9b 85 be
       0.052086707 -0.33556375 0.34507218 -0.26095095
000330 1e 25 98 3e 83 e6 90 bc 5e 47 32 3d ae 49 e3 bb
       0.29715818 -0.017688042 0.043525092 -0.0069362735
000340 4e 61 07 3e 93 2c 34 3e 83 91 14 3e be 3c 4d 3d
       0.13220713 0.17595129 0.14508633 0.050106756
000350 65 c0 bf be 8b c8 b1 3e 5e 1f f0 3e a0 be d0 3e
       -0.37451473 0.34723315 0.4689893 0.40770435
000360 86 4d a8 3e d2 28 a5 be da 90 27 be 72 08 d3 3e
       0.32871646 -0.32257706 -0.1636385 0.4121738
000370 60 dc ae be 27 50 e5 3e 89 da 85 be 36 25 c8 be
       -0.34152508 0.44787714 -0.26143292 -0.3909089
000380 a0 28 83 3e 0f 49 01 bf a0 96 3c be 8e c8 45 3e
       0.25616932 -0.50502104 -0.18416834 0.19314787
000390 2f 48 e1 3e 19 6b e5 3d f3 7d 1b be cb b3 cd be
       0.44000384 0.11202068 -0.15184765 -0.40176234
0003a0 d0 c7 c6 3e fa 97 1b be 03 d3 36 be 29 e5 d7 3d
       0.3882432 -0.15194693 -0.17853932 0.10541756
0003b0 04 ab 8a be 82 05 ac 3e be 2b 9f 3e 36 17 ac be
       -0.270836 0.33597952 0.3108806 -0.3361146
0003c0 75 90 c6 be ad 58 55 bc 53 a4 38 3e 2b df 03 3d
       -0.38782087 -0.01302163 0.18031435 0.03219525
0003d0 2e cc 6f be 57 3b fa bd 27 c3 d2 be 8c 5c ad be
       -0.23417732 -0.122183494 -0.41164514 -0.3385967
0003e0 ec fb a7 be 56 42 92 3e 22 98 c2 3e a3 c0 24 be
       -0.3280939 0.28566235 0.38006693 -0.1608911
0003f0 de fc 0a 3d a4 bc 72 3e 3c 9a a0 3c 95 fb 62 be
       0.03393256 0.23704773 0.019604795 -0.22166283

layer1.bias f4 [128]
000000 ce 0e b3 3b 0f 03 bd bd a0 74 ac 3e b4 0f d0 3e
       0.0054644113 -0.09229099 0.33682728 0.4063698
000010 ab e8 89 3e 34 7a 1a 3e 46 4f bb be 9b 07 e3 3e
       0.26935324 0.1508568 -0.36583918 0.4434174
000020 29 40 90 be 2b 9f 32 be 3b fc a4 be 97 73 39 3e
       -0.2817395 -0.1744353 -0.32223687 0.181105
000030 56 7a dd be 6b 71 47 be 15 e0 71 be b7 a5 8d be
       -0.43257397 -0.1947686 -0.23620637 -0.27665493
000040 44 02 37 be 96 ca b3 3e 0b 85 df bc 33 e9 30 3e
       -0.17871958 0.35115498 -0.02728512 0.17276458
000050 f3 0a a8 be 14 8c c8 3e 75 60 fa bd 3b b6 db be
       -0.32820854 0.3916937 -0.12225429 -0.42912468
000060 74 e6 85 3e 5d 16 fd bd de 97 ca 3e 67 4d a8 be
       0.26152384 -0.12357781 0.3956899 -0.32871553
000070 6b c3 9f be f7 3a 89 be 79 67 6b 3e f7 f7 ed 3c
       -0.3120378 -0.268028 0.2298869 0.029048903
000080 c7 eb bc be ee 0f e6 3d a8 45 a2 bc 9e 6c 51 3e
       -0.36898634 0.11233507 -0.019808605 0.2045159
000090 c4 01 8e be 08 6b 83 be 6b 36 b9 3e c9 70 25 be
       -0.27735722 -0.25667596 0.3617433 -0.16156305
0000a0 85 4b 96 3e 9a 17 c1 3e ef ef 75 be 12 ef 12 be
       0.29354492 0.3771332 -0.24017309 -0.1434901
0000b0 4b fd 85 3c 3f 3a be be d9 72 6a 3d 5c 6a 53 be
       0.016356131 -0.37153813 0.057238434 -0.20646042
0000c0 87 08 25 be 90 15 bd be c2 2e 67 3e 4c 66 92 be
       -0.16116534 -0.36930513 0.2257643 -0.2859367
0000d0 05 84 ab be db f0 32 be 91 d0 3d be 75 40 d8 be
       -0.3349916 -0.17474692 -0.18536593 -0.42236677
0000e0 4f bf 02 3e 49 d3 f2 bd fa 4d 8e 3e 7f fa 88 3e
       0.12768291 -0.11856706 0.27793866 0.26753613
0000f0 6d 8c a2 be fb 28 93 be 02 a1 55 be de d1 46 3e
       -0.3174776 -0.28742203 -0.20862201 0.19415995
000100 0c 84 15 be 52 96 a9 be c5 6e 8c 3e c9 14 d1 3e
       -0.14601153 -0.33122498 0.2742826 0.4083617
000110 a5 8d ca 3e 44 a2 ac be fe b9 23 be 0f 8d 08 bd
       0.3956119 -0.3371755 -0.15988919 -0.03333765
000120 96 38 c6 3e 36 83 94 be 8e 73 16 be 7f 93 91 3d
       0.38715047 -0.29006356 -0.14692518 0.07108211
000130 68 82 1d bd 00 48 51 3e b5 1b c2 3b a4 94 ac be
       -0.038454443 0.20437622 0.005923713 -0.33707154
000140 70 bf a6 3e 5a ea 70 3e 0e e8 cd 3d 53 f9 bf be
       0.3256793 0.23526898 0.100540265 -0.37494907
000150 d3 73 5c 3e e3 3d 9b 3e b4 42 25 3e 71 71 e1 bd
       0.21528558 0.30320653 0.16138726 -0.11007965
000160 42 f2 7d 3d 7f 24 68 be fa 73 d8 3e bf 2a da 3e
       0.061998613 -0.22670172 0.42275983 0.42610738
000170 b5 bc c3 bd 79 c7 3f be b6 22 8b 3e dc 8d 96 3e
       -0.095574774 -0.18728437 0.2717492 0.29405105
000180 92 9d 5b 3e 15 eb 85 be ab e3 88 bd f7 19 fd bd
       0.21446827 -0.26155916 -0.06684049 -0.12358468
000190 c3 4b bb be 08 9a 51 be 31 f4 80 3e 6d 60 13 3e
       -0.3658124 -0.20468915 0.25186303 0.14392252
0001a0 e8 84 0c bf d8 a4 3c 3e 31 7b b1 3e a5 80 a5 3e
       -0.548903 0.18422258 0.346643 0.3232471
0001b0 50 7c 92 3e 8b e3 31 bd 67 e0 9e 3e 8e f7 be 3e
       0.28610468 -0.043429893 0.3103058 0.37298244
0001c0 3c 37 56 3a de 56 bf be 72 d3 be bd 90 58 a0 3e
       0.0008171683 -0.37370962 -0.09317674 0.31317568
0001d0 1d 9a b6 3e a2 69 bb 3e 27 04 3e be 6e 33 4f bd
       0.35664454 0.3660403 -0.18556271 -0.050586157
0001e0 40 1d 87 be 09 ac 85 be f3 92 b2 3e b2 44 a8 be
       -0.26389503 -0.26107815 0.34877738 -0.3286491
0001f0 5e bc 4d 3c e6 e0 df 3d b1 15 92 be be dd 7f 3d
       0.012557117 0.10931568 -0.28532174 0.06246733

layer2.weight f4 [128, 128]
000000 ac 5c 8a bc 14 78 0f 3d d5 5b 9f bd 3e fb c9 3c
       -0.016889893 0.035026625 -0.077811874 0.024655934
000010 3d d6 98 bd be a5 56 3d c8 6c b0 3d 7b 43 12 bd
       -0.07462738 0.052404158 0.086144984 -0.035708886
000020 79 8f 2c 3c 3e 48 4e bd c0 b5 3e bd 2b 2f 54 bd
       0.010532253 -0.050361864 -0.04656005 -0.051802795
000030 43 5b 11 bd da ba 81 3c 8d 30 b1 bb d3 42 b6 3b
       -0.035487425 0.015836168 -0.005407399 0.0055621653
000040 40 53 7b bd 97 ef 29 bd 39 13 98 bd e2 0b 85 bd
       -0.06135869 -0.041488256 -0.074255414 -0.06496407
000050 7d e5 a1 3d 82 5e 2a 3d e8 e0 b0 bd 5d 35 ca bb
       0.079050995 0.041594036 -0.086366475 -0.006170912
000060 2a 76 aa 3c 1f 55 86 3d a9 ca cb 3d bc 1b d5 3c
       0.020808298 0.06559204 0.09950764 0.026014201
000070 83 8a 86 3d 36 7e d0 bc 97 33 27 bc 33 94 d4 bc
       0.06569388 -0.025450807 -0.010205171 -0.025949573
000080 27 fa 2a 3d 50 de 85 3d 92 84 9e 3d 3c b7 ae 3d
       0.04174247 0.06536543 0.077401295 0.08531043
000090 5b e6 06 bd a6 ab ae bc 75 b8 49 3c 6c f4 ab 3d
       -0.032934528 -0.021322083 0.012312044 0.08396229
0000a0 3d c5 a2 bd 36 85 30 bd 15 16 d7 3c a3 3c 58 bd
       -0.079477765 -0.04309579 0.026255647 -0.052792203
0000b0 9c 12 ca 3c 02 3d b6 3c ba 64 8d bc f4 40 81 3d
       0.024667077 0.022245888 -0.017259944 0.06311217
0000c0 c4 5e a3 3d 6d d5 ab 3d c0 dc f5 3c f2 18 cf 3a
       0.079770595 0.08390317 0.030012488 0.0015800281
0000d0 83 8d a7 3d 6d e3 a8 3d ef 2d 11 bd 8d fc 26 3d
       0.08181288 0.08246503 -0.035444196 0.040768195
0000e0 8e a1 34 3c 1f 3e e9 bc 7f f0 3f bc 00 88 9f bc
       0.011024846 -0.028472004 -0.011715054 -0.01947403
0000f0 b2 51 7d bd ec 34 92 bc e2 73 da 3c f8 d1 a8 3d
       -0.06184549 -0.0178475 0.026666585 0.08243173
000100 74 8c ce 3a 2a f0 af bd 54 64 1e 3d e2 0e 8b bc
       0.0015758411 -0.085907295 0.0386699 -0.01697487
000110 d4 a8 d6 3d 2f d3 ac bd 98 ab c1 bc 3b 84 83 3d
       0.1048142 -0.084387176 -0.023641393 0.06421705
000120 8d 4a 61 3d cf 02 13 bd 85 ce 8a bd 89 3d 43 3c
       0.055002738 -0.03589135 -0.06777672 0.011916527
000130 9b f5 56 3d af 2d b5 bd f2 4c 92 bd c8 b8 d0 3b
       0.05248032 -0.08846604 -0.071435824 0.006369684
000140 fb e9 d5 bc 0a 12 a6 3d 00 60 a9 bd f3 12 92 bc
       -0.026112547 0.081089094 -0.08270264 -0.017831301
000150 b8 98 58 bd bf d6 c0 bc 76 24 18 bd 39 2c 13 3d
       -0.05288002 -0.023539899 -0.037144147 0.035930846
000160 62 e5 8c bd ca d5 9f bd 11 bc 21 bd 5c 2c b7 bd
       -0.06879689 -0.07804449 -0.039485995 -0.08944008
000170 c7 03 6a 3d 7d 5f a9 bc f1 1e a3 bc e6 d1 69 3d
       0.05713251 -0.020675415 -0.019912215 0.05708494
000180 38 83 5e bc b7 9b 8c 3d b5 b5 11 bd 26 c3 9f bd
       -0.01358109 0.06865638 -0.03557368 -0.078008935
000190 3e e6 b3 3c 94 30 9c 3d f4 7a 83 bd a6 4a 42 3c
       0.021960374 0.07626453 -0.06419936 0.011858618
0001a0 1b 01 89 3c dd f4 4d 3c af a5 1b bc c1 8c d8 bc
       0.01672416 0.012570587 -0.009499951 -0.026434304
0001b0 c6 80 af bd ed 07 90 3c 73 43 95 bd 62 87 c3 bd
       -0.085694835 0.017581904 -0.072882555 -0.095473066
0001c0 de ec 06 bd f7 d2 76 bd 5c 03 bb 3b 12 44 74 3d
       -0.032940738 -0.060259786 0.0057071876 0.05963523
0001d0 46 aa 84 3d f8 89 19 bd ef 2c 2a 3d 6e ce a7 3d
       0.064777896 -0.037485093 0.04154676 0.0819367
0001e0 f3 91 3c bc 5a ed 1d 3d 77 ca 37 3d 27 e5 9f 3d
       -0.011509406 0.038556434 0.04487082 0.07807379
0001f0 1b d5 78 3d b1 98 3d 3d 31 7d 1b bd f5 04 5f bd
       0.06075011 0.046288196 -0.03796119 -0.054448087
000200 6f cf d3 bc 04 e6 a7 3d 0d f9 9d bc dc 68 16 b9
       -0.025855748 0.08198169 -0.019283796 -0.00014344178
000210 c4 c5 a0 bd d8 a2 04 bc bf a8 e1 bc 8c 7c 8c bd
       -0.07850221 -0.008095466 -0.027546285 -0.06859693
000220 d0 6e 9a 3d f3 bb 94 bd 85 6c 94 bc 5f d5 d6 bb
       0.07540667 -0.07262411 -0.018118152 -0.0065561975
000230 c3 4a cb bd 28 9c 51 3d 79 c0 de bc 8e 18 1c 3d
       -0.09926369 0.051174313 -0.027191387 0.038109355
000240 0c f6 5b 3d a4 80 c8 3d 72 56 17 3d c9 95 72 3d
       0.053701445 0.09790161 0.036947675 0.059224878
000250 87 df d3 3d 01 cd 9e 3a c5 b4 c5 bc d1 cd b8 bc
       0.10345369 0.0012115539 -0.02413405 -0.022559078
000260 ab f3 93 3c 50 bf a5 3c d6 4b b0 bd f6 42 96 3d
       0.018060526 0.020232826 -0.086082146 0.073369905
000270 b1 91 1c 3c a6 3f b7 bd dd fc 71 3c b6 a6 59 3d
       0.00955622 -0.08947687 0.01476976 0.053137504
000280 65 40 96 3c 79 4a a4 3d 78 54 80 bc 82 8f 95 bd
       0.018341253 0.08022017 -0.015665278 -0.073027626
000290 d0 18 83 3a fc 0e 9a 3d 15 9d 81 bd 0c 30 28 3d
       0.0010001902 0.07522389 -0.06328789 0.041061446
0002a0 07 c7 fc 3c e2 02 9c bc 2f 18 78 bc c1 36 2f 3d
       0.030856622 -0.019044343 -0.015142485 0.042776827
0002b0 6e cf 80 bd 9e 9d 6e 3d e3 ac 8d 3d b2 2a 94 3d
       -0.06289564 0.058255784 0.06917741 0.07234706
0002c0 ef 92 9f 3d c3 37 ae 3b c0 bb 56 bd dc ef a4 bb
       0.07791697 0.005316706 -0.052425146 -0.0050334763
0002d0 47 81 d0 bc 98 85 c0 3c fc b9 c3 3d fb 43 36 bd
       -0.02545227 0.023501202 0.09556958 -0.044498425
0002e0 e8 94 14 3c 9a 5e bf 3d 1c a3 57 bd ee 3b 87 bc
       0.009068705 0.09344216 -0.052645788 -0.016508069
0002f0 10 ad af 3d ec da 69 3d 30 ad fe 3c 25 9a 21 bd
       0.08577931 0.057093546 0.031088442 -0.039453644
000300 2e 5f 3a bc fe cb 9b bd 64 a8 ad bd 49 1b ab bd
       -0.011375232 -0.07607268 -0.084793836 -0.083548136
000310 b2 8d a1 3d 35 82 9c 3d a3 8d 18 3d 2f 5d 57 bc
       0.07888354 0.076420225 0.03724445 -0.013144775
000320 10 0b ba 3d 06 c2 af bc 8e d5 49 3d d9 df 17 3c
       0.09084141 -0.021454822 0.049275927 0.009269678
000330 61 37 fc bc dd 1b b9 bc 2c a3 aa bc 28 67 a5 bd
       -0.030788125 -0.022596294 -0.02082976 -0.08076316
000340 b4 47 31 3c 21 98 15 bd a5 3b 0b 3d f2 1e 70 3d
       0.010820318 -0.036522035 0.03399243 0.05862326
000350 f4 f9 00 bd 45 8a 1c 3d c7 b2 76 3c 4c 76 2f 3d
       -0.031488374 0.0382178 0.015057272 0.042837426
000360 4f a7 a6 bd e8 70 11 bc 66 84 15 bd 7b 61 9d 3d
       -0.0813738 -0.008877017 -0.036503218 0.076846085
000370 70 99 92 bd d9 82 37 bd fa 96 1d 3c fd a9 d5 3d
       -0.07158172 -0.04480252 0.009618515 0.10432813
000380 70 53 31 3d 7c a2 8b bd b7 3d 40 bd 39 f1 bb 3d
       0.043292463 -0.06818101 -0.046933856 0.09176869
000390 d9 3b 17 3c fa eb 9b bd 0c 20 3b bd 93 1f 24 3d
       0.009230577 -0.07613368 -0.04568486 0.040069174
0003a0 aa 21 8b bc 62 dc a3 bd 94 77 3c bd b6 7e 43 bd
       -0.016983826 -0.08001019 -0.046012476 -0.047728263
0003b0 42 f3 3f 3c 68 1b 08 3d d5 f6 3d 3d 4f ff 61 bd
       0.011715712 0.03322926 0.046377975 -0.055175122
0003c0 14 c5 c9 ba eb 11 8b bd 63 d0 8c 3d 85 b7 b1 3d
       -0.0015393817 -0.06790527 0.06875684 0.08677582
0003d0 3c 74 c7 3d 84 68 0b 3d 3a d4 f2 bc 55 32 fe bb
       0.09738967 0.03403522 -0.029642213 -0.007757465
0003e0 a0 55 0e 3d 2d 33 bc bd fa 81 cc 3b 06 53 8c bd
       0.034749627 -0.091894485 0.0062410804 -0.06851773
0003f0 28 18 b7 bd 46 f1 b3 bb 66 ca e5 bc 5f b2 44 bd
       -0.08940154 -0.0054914085 -0.028050613 -0.04802167

layer2.bias f4 [128]
000000 77 72 16 bc b9 0a 5b 3d 7e dd d0 3d dc 28 00 3d
       -0.009182564 0.053477023 0.10198496 0.031288967
000010 f5 8b 0f bd a3 ba bc 3c 66 11 78 bc 27 9d a5 3d
       -0.035045583 0.023038214 -0.015140867 0.08086615
000020 61 db 2a 3d 71 d0 c5 3c 85 68 68 3c 34 f6 01 3d
       0.041713122 0.024147244 0.014185076 0.03172894
000030 bd 73 ed 3d f9 84 50 3d a3 1d 0e 3b 9c a0 61 3d
       0.11594341 0.050908063 0.0021685145 0.05508481
000040 7c 64 8a 3d 6e e9 83 3d 27 02 85 bc c7 7a 22 3d
       0.06757447 0.064410076 -0.016236378 0.03966787
000050 2a 80 23 bc 76 df 52 3d e9 cf 1b bd f6 69 b5 3c
       -0.009979287 0.05148264 -0.038040075 0.022145253
000060 64 97 57 bd 98 93 ff bb fa 11 20 3d f4 69 15 3b
       -0.05263461 -0.007799577 0.039079644 0.0022798749
000070 55 9c a0 bd 8a 78 21 3c 54 98 37 bd ca c7 98 3c
       -0.07842318 0.009855399 -0.044823006 0.018649954
000080 39 d4 dd 3c 89 e8 d5 bc 66 7a c0 3c a6 7e b6 bd
       0.027078735 -0.026111858 0.023495864 -0.08910875
000090 94 5a 16 3c 7b 9d 94 3d 6b e4 f6 3c a9 1f a5 3d
       0.009176869 0.072565995 0.030138215 0.08062679
0000a0 14 4f 24 bd 5a e2 e0 3b 91 c2 90 bd 44 09 ae bc
       -0.040114477 0.0068629207 -0.070683606 -0.021244653
0000b0 d8 55 52 bd 64 21 09 3c f6 f1 cf 3c 30 21 7b bc
       -0.0513514 0.008369777 0.02538393 -0.015327737
0000c0 cd 23 8b bd 10 58 86 bd b2 7f 67 3d cf 31 f2 bc
       -0.06793938 -0.06559765 0.056518264 -0.029564766
0000d0 13 1e bf bd 47 ec 76 3d 1e c2 ee 3c 37 a8 81 3d
       -0.09331908 0.060283925 0.029145297 0.063309126
0000e0 15 2d c7 3c a3 ec 00 3c a0 d2 c4 bd 38 e6 8c 3c
       0.024313489 0.007868919 -0.09610486 0.01719962
0000f0 3a a9 94 bc 5f 2e 3d 3d 7b fd d0 bd 39 66 c4 3c
       -0.0181471 0.0461868 -0.102045976 0.023974525
000100 38 be a3 bd c3 f9 83 bd 4c 58 b9 bd 37 70 92 3d
       -0.07995266 -0.06444123 -0.090500444 0.071503095
000110 1d 38 8c 3d a1 d2 13 bd 7a 5a 4a bb d1 94 6b 3d
       0.0684664 -0.036089543 -0.0030876682 0.05751497
000120 66 36 23 bd e2 6d fc 3b 57 d1 1a bc 14 d7 ad bd
       -0.0398468 0.0077035287 -0.009449325 -0.084882885
000130 6d 22 87 bd 16 42 8f 3d 95 a5 65 bd 7d 90 42 3d
       -0.06598363 0.06995027 -0.056066114 0.047501076
000140 11 67 2c bd 5f 95 68 bd b2 45 f0 bc 8f e6 7d 3d
       -0.04209048 -0.056783076 -0.029330108 0.061987456
000150 25 e7 e8 bd ba 87 1b 3d 8c 39 6e 3c bf 44 d1 3b
       -0.11372212 0.037971236 0.014540087 0.006386369
000160 a7 52 52 bd 76 c5 b5 bd a1 6a 85 bc 28 26 94 bc
       -0.051348355 -0.08875553 -0.016286196 -0.0180846
000170 0b fb a4 bc 0b 8c f1 3c 21 a4 0a 3d 04 e7 67 3d
       -0.020139238 0.029485723 0.03384793 0.056616798
000180 dc 65 61 bd 9d 6c 3d bd e0 a3 6a 3d e6 b0 eb 3b
       -0.05502878 -0.04624616 0.05728519 0.007192719
000190 25 44 e1 bc af 29 cb 3d 5e 40 42 bd 60 c1 0f 3d
       -0.027498314 0.0992006 -0.047424667 0.035096526
0001a0 85 76 72 bd 57 ed 83 3c b9 7c ef bc 82 dd 8c bd
       -0.05919506 0.016104383 -0.029234277 -0.06878187
0001b0 e1 8e 14 3b c4 35 c8 3c 18 39 81 3c 00 f0 42 3c
       0.002266817 0.0244397 0.015774295 0.011898041
0001c0 e8 9a 81 bd 2a b8 84 bd d8 cd d8 3c e1 6b 7d 3d
       -0.06328374 -0.06480439 0.026465341 0.06187046
0001d0 56 6f 48 3d eb aa 90 bd 50 79 58 3d db d5 82 bd
       0.048934303 -0.0706385 0.052850068 -0.06388446
0001e0 50 4b 50 3d 32 8c 86 3c 6f 8f f4 bc 1a 69 b7 bd
       0.050853074 0.016424272 -0.02985355 -0.089555934
0001f0 cc 0c 9f bd f0 84 ba bd ce 3d 49 bc 89 81 63 3d
       -0.07766113 -0.09107387 -0.012282802 0.055543456

layer3.weight f4 [128, 128]
000000 75 7d 04 3d 52 26 cd 3d fa 91 88 bd f6 f4 75 3d
       0.032346208 0.10017075 -0.06668468 0.060048066
000010 83 b4 dd bc c9 d9 3f 3d 3e e0 d2 bd 6f bf 84 bd
       -0.027063614 0.046838555 -0.10296677 -0.064818256
000020 dd fa 82 3d 59 58 94 3d 91 c8 70 bd f6 d1 84 bd
       0.063955046 0.072434135 -0.058785025 -0.06485359
000030 f9 ef 82 bc 3f fa b3 3d 22 89 9c 3d 5a 3a 1f bd
       -0.015983569 0.08787965 0.076433435 -0.038874008
000040 3f 32 85 3b 04 05 47 3d 64 30 8a bd 87 0b 0b bd
       0.0040648277 0.048588768 -0.06747511 -0.03394654
000050 0b b8 8a 3d 51 8c fb 3c f6 fb bb 3c 72 69 b1 3d
       0.06773385 0.030706557 0.022947293 0.0866269
000060 44 c2 3d 3d 92 63 ca bd 48 37 6e bd ff 95 06 bd
       0.046327844 -0.09882273 -0.05815819 -0.03285789
000070 30 d9 a1 bd 93 ed 81 3d a4 4a 15 3b dc 9b a1 3d
       -0.07902753 0.06344142 0.0022780085 0.07891056
000080 74 8b 1d bc d0 5c 12 3d 6a 9a b5 bc 15 c9 a2 3d
       -0.009615768 0.035733044 -0.022168357 0.079485096
000090 d4 8e b6 3d f3 3c f8 bc d1 8b d6 3b b3 b8 82 bc
       0.08913961 -0.0303025 0.006547429 -0.015957212
0000a0 c5 7a 1b bd 09 37 aa bd 08 f0 2e 3d 7e 22 6d 3d
       -0.03795888 -0.083112784 0.04270938 0.057894222
0000b0 78 1a 82 bd 95 b8 66 3d b3 f8 89 bd 90 ec 98 bd
       -0.06352705 0.056328375 -0.06736889 -0.07466996
0000c0 84 76 49 3c eb bb af 3c 16 fc e3 bc 8b 31 87 bc
       0.012296323 0.021451911 -0.027830165 -0.016503116
0000d0 bb 26 ad 3b 0e d0 5d bd c7 51 aa 3d cc 2f 5b bd
       0.005284158 -0.054153495 0.08316379 -0.05351238
0000e0 5c 71 b7 bc 58 9d fb bd 49 af 18 bd 6b d0 b5 3b
       -0.022392921 -0.1228587 -0.03727654 0.005548527
0000f0 90 38 16 bd 68 28 8e bd 64 9b ab bc 79 bf 36 bd
       -0.036675036 -0.06941301 -0.02094812 -0.044616196
000100 20 72 ce 3d 4a 12 c4 3d 90 a7 14 3c d6 c8 ed bc
       0.10080361 0.09573801 0.009073153 -0.02902643
000110 70 f3 8c 3d a9 7e ec bb 90 74 92 3d dd 01 51 3d
       0.068823695 -0.0072172475 0.07151139 0.051027168
000120 6d 5b 91 3d 63 9e 68 3d 7a 27 be bc a1 69 b0 bd
       0.07097516 0.056791674 -0.023212183 -0.08613897
000130 aa 04 c3 bc 8c 78 c1 bd 31 3c 36 3d 20 9b 8d bc
       -0.023805935 -0.094468206 0.044490997 -0.017285883
000140 0c d8 61 3d 0d 6d af bd ac b4 13 3d cf 94 56 3c
       0.05513768 -0.08565722 0.036060974 0.013097002
000150 15 77 9e 3d 22 21 9d bd 51 4d 7f 3c 31 08 88 bd
       0.07737557 -0.07672335 0.0155823985 -0.066421874
000160 71 98 8e bc 45 b8 81 3d 81 42 c0 bc 6d e0 4a 3d
       -0.017406674 0.06333975 -0.023469212 0.049530435
000170 a3 49 50 3d fb 14 8e 3c b0 41 ac 3d c1 d4 52 3c
       0.050851475 0.017343989 0.084109664 0.012868107
000180 14 78 62 bd 85 15 8e 3d e1 73 87 3d a1 8d ae bc
       -0.055290297 0.06937698 0.06613899 -0.021307768
000190 77 9f 76 3d 65 b1 c4 3b 8a f8 16 3d ef f6 e6 bb
       0.06021067 0.0060025924 0.03685812 -0.0070484797
0001a0 95 7d a0 bd cf 80 d0 3d b1 3c 8b 3d 78 c2 9f bd
       -0.07836453 0.10180818 0.06798685 -0.07800764
0001b0 e2 28 a6 bd e3 2a c7 3d f1 6e 1d 3d 1a 71 5e bc
       -0.081132665 0.09724977 0.03843588 -0.01357677
0001c0 11 b0 b9 bc 00 ff 84 3d fd 27 73 3d 01 91 9d bd
       -0.022666963 0.0649395 0.059364308 -0.07693673
0001d0 8f 4a 2c bd 4f a8 0a bd df a8 a1 bd 8a e3 17 bc
       -0.042063292 -0.033851918 -0.07893538 -0.009270558
0001e0 ca e2 94 3c f2 6c 37 bc 70 36 8e bd e4 4d c5 bc
       0.018174548 -0.011195408 -0.06943977 -0.024084993
0001f0 fc 81 27 bc b1 50 4b bd 84 e8 bc 3c 0b c3 8d bd
       -0.010223862 -0.0496375 0.02306009 -0.06921967
000200 62 57 04 3d 85 13 b0 bc 95 3b 54 bc 12 fd 89 3c
       0.032309897 -0.021493683 -0.012953659 0.016844306
000210 1b 8a 66 3d 8d ec bf 3c 58 85 9d 3d aa cb b8 3d
       0.05628405 0.023428226 0.07691449 0.09023221
000220 09 f1 b5 ba 58 4b ca 3c e1 69 96 3d 72 30 7b bd
       -0.0013881038 0.02469413 0.073444135 -0.061325498
000230 7e f9 b3 bb 25 89 a1 bd 9b 3f 4b 3d 4c ee 87 3d
       -0.0054923883 -0.07887486 0.049621206 0.066372484
000240 60 f1 91 3d 22 46 77 3c ae 6d a0 bd 47 9a 3e bd
       0.07126117 0.015092405 -0.0783342 -0.04653385
000250 ff f7 80 bd 7a 83 e8 ba 16 6c d9 3c c8 dd 5b bd
       -0.062973015 -0.0017739378 0.026540797 -0.053678304
000260 d1 a0 ad 3c f5 9e 8a 3c 47 98 01 bd cd e7 2a 3c
       0.021194847 0.0169215 -0.031639364 0.010431242
000270 a6 eb 82 bd d7 af 9e 3d f4 b0 98 bd 81 09 1d 3b
       -0.063926026 0.077483825 -0.07455626 0.0023961964
000280 d3 a7 ad 3c d8 74 13 bd 82 a6 5d 3d ea 5e 55 3c
       0.021198189 -0.036000103 0.054113872 0.013023118
000290 5c ed ee bc 47 e8 92 bc 56 df 92 3d 99 ba a3 3b
       -0.029165916 -0.017933024 0.07171504 0.0049966094
0002a0 01 60 b6 bd 97 32 67 bd c8 ac 95 3d 50 da 86 3d
       -0.0890503 -0.05644473 0.07308346 0.065846086
0002b0 bd c6 84 bd 09 49 97 3d 8d 26 4d bd 27 15 45 bd
       -0.06483219 0.07386977 -0.050085593 -0.048115876
0002c0 94 58 1e 3c 7c 18 99 3d ad 99 39 3d b5 fb d0 bd
       0.009664673 0.07475373 0.045312572 -0.10204259
0002d0 26 43 ed bc b5 69 3a 3d 3e 2d 30 3d 1b 4a ea 3c
       -0.028962683 0.045510966 0.043011896 0.02859979
0002e0 c8 67 b6 bc b9 30 38 bd ce 18 27 3d 51 53 ef bc
       -0.022266284 -0.04496834 0.04079514 -0.029214533
0002f0 37 89 66 3d 8d d8 65 3d ea 2d 98 3d 68 ee 52 3d
       0.056283202 0.056114722 0.074306324 0.051496893
000300 dd f0 2c 3c 79 09 c1 3d 61 f3 bf 3d 41 3f 90 bc
       0.010555473 0.09425635 0.09372593 -0.017608287
000310 60 ed 97 bd b8 ca a4 bc 36 4c 97 3c b8 7a 0b bd
       -0.074183226 -0.020116195 0.018468957 -0.03405258
000320 20 f2 2d 3d 7b 92 12 3d 87 cb 00 bd 11 30 11 3d
       0.042467237 0.035784226 -0.0314441 0.03544623
000330 b6 ec ef 3c 34 6f af 3c b3 30 12 bd fd f8 bc 3c
       0.029287677 0.02141533 -0.035690974 0.023067946
000340 0a 82 3d bc a7 64 4d bd 00 fd 82 bd b3 14 78 bd
       -0.011566648 -0.050144818 -0.06395912 -0.060566615
000350 b3 dd 87 bd 2b 28 96 bb 69 e3 d4 3c f9 3d 8c bd
       -0.06634083 -0.004582425 0.025987344 -0.06847758
000360 af e5 58 bd 61 e6 9b bd 85 75 5f bd 1e ea 3c 3d
       -0.05295342 -0.07612301 -0.054555435 0.04612171
000370 85 6a 49 bd 46 47 56 bc 90 e3 30 3d 31 d3 02 3d
       -0.04917385 -0.013078516 0.04318577 0.03193969
000380 8f f1 ac 3c ce 4f 63 3d 4c 95 31 bd 1f 35 88 3c
       0.021111278 0.05549603 -0.04335527 0.016626893
000390 04 76 56 3d 20 a4 5a 3d d0 7a 0e 3d f1 5d 0f bd
       0.052358642 0.053379178 0.034785092 -0.0350017
0003a0 5a 28 a1 bd 65 82 5b bc c3 7e 4b bd 9a d6 72 3d
       -0.078690246 -0.013397788 -0.049681436 0.05928669
0003b0 73 c3 c8 bc 32 54 8c 3d 20 58 a0 bd 0d f6 71 3d
       -0.02450726 0.068519965 -0.078293085 0.059072543
0003c0 19 93 a7 3d 03 8b a1 3b d6 a4 f2 3c bb 62 2e bd
       0.081823535 0.0049299016 0.029619616 -0.042574625
0003d0 86 79 3d 3d 40 b2 a2 3d 52 a0 4e 3c eb b6 4c 3b
       0.046258472 0.07944155 0.0126114655 0.0031236957
0003e0 5d f9 12 3d 77 53 27 3d b5 4b 19 3d ac 19 68 3d
       0.035882343 0.040851083 0.037425715 0.056665108
0003f0 8c ba 9b bd 1d 24 4b bd 79 e5 be bd 08 82 07 bd
       -0.0760394 -0.049594987 -0.09321112 -0.03308299

layer3.bias f4 [128]
000000 92 5d a6 bd 07 54 7e bd 2c f6 17 bc ba dc 2c bd
       -0.08123316 -0.062091853 -0.009275001 -0.04220269
000010 6f 73 53 3c c1 cd 52 bc 65 a9 3c bd 8e f9 90 bc
       0.0129059395 -0.012866438 -0.046059985 -0.017697122
000020 c6 66 c9 3d 1c c9 9d bd 27 77 51 3c fc e8 33 3d
       0.098340556 -0.07704374 0.012784756 0.043923363
000030 a7 31 bc 3d e0 66 fc bc 81 e5 20 3b df 03 a5 bc
       0.09189158 -0.030810773 0.0024550857 -0.020143447
000040 14 3a a4 3d 41 98 a3 3d 8e eb 58 3d d8 bf 05 bc
       0.0801889 0.079880245 0.052959017 -0.008163415
000050 72 75 8f bc 18 d0 a2 bd c1 8c f5 bb c9 99 90 3c
       -0.017512057 -0.07949847 -0.007493586 0.017651455
000060 14 01 03 bc 6b 04 82 bd dc 36 ef bd 41 7a c3 3c
       -0.0079958625 -0.06348499 -0.116803855 0.023862006
000070 d4 02 df 3c 39 ef a1 bd 3a 58 78 3d 98 7b 7f bc
       0.027223028 -0.07906956 0.060631014 -0.015593432
000080 15 91 48 bc e9 69 e2 3c 4c 5e 16 bd 35 96 5c 3b
       -0.0122416215 0.027638393 -0.036711022 0.0033658866
000090 fa 76 2d 3c 39 d9 14 bd b9 30 55 bd 5f e0 75 3d
       0.010587448 -0.036339972 -0.05204842 0.06002843
0000a0 15 b2 f6 3c a4 6f de bd e4 82 8c 3d 60 f9 98 bc
       0.030114213 -0.108611375 0.06860903 -0.018673599
0000b0 c7 6a 6c bc 3b cc a0 bd d0 c6 74 bd 96 7c 6f 3d
       -0.014429755 -0.07851454 -0.059759915 0.058468424
0000c0 27 f8 aa 3c d1 3f 90 3d 16 77 d9 3c 62 5e eb bd
       0.020870281 0.07043422 0.026546042 -0.114926115
0000d0 63 3b 83 3c 50 d6 16 bd c1 92 11 bd 55 51 8c 3c
       0.016019529 -0.036825478 -0.035540346 0.017128626
0000e0 f1 dc c5 bc 92 3d 8f bc 57 93 15 bc 7e 08 7e bd
       -0.024153205 -0.017485414 -0.009129367 -0.062019818
0000f0 7e eb ca 3d 49 0c 68 bc 2f ba 48 bc 6c 49 83 bd
       0.09908198 -0.014163085 -0.012251421 -0.064104885
000100 93 81 22 3c 37 9c d7 bd 84 64 95 bd 1e 43 e3 bc
       0.009918588 -0.105278425 -0.072945625 -0.027741965
000110 28 a0 a2 bd db bf 5d 3c 33 4c 1d bc a6 55 ef 3c
       -0.07940704 0.013534511 -0.009600687 0.029215645
000120 1f e3 96 3d 94 62 50 3d 5b 60 74 3c 19 4b 3c 3d
       0.07367539 0.05087526 0.014915551 0.045970056
000130 5d ac ba 3d c8 32 d0 3d bf c9 45 3d 01 17 47 3d
       0.09114907 0.10165936 0.048288103 0.048605923
000140 97 d7 a1 3d 11 02 6b 3d f4 ba e9 bd f5 4f 98 3d
       0.079024486 0.057375018 -0.114126116 0.074371256
000150 97 d1 bf bd 16 8f ae bc 2f fb ac 3d 55 5f dc 3d
       -0.09366148 -0.021308463 0.08446347 0.10760371
000160 28 40 bc 3d 8d 7e 12 bc b9 90 ed 3c 2f ef a7 bd
       0.09191924 -0.008941305 0.028999673 -0.081999175
000170 07 89 8e 3d 5d 01 6e bd db 8f a4 3d 0c 79 79 3d
       0.0695973 -0.05810677 0.08035251 0.060906455
000180 7a 63 8d 3d a4 67 e3 3c cc b2 10 bd 44 96 e9 bc
       0.06903739 0.02775938 -0.035326764 -0.028514035
000190 f1 7a 99 3c e1 1c 8a bc db 2d ce 3d f2 57 d4 3d
       0.01873538 -0.016859474 0.1006734 0.10368337
0001a0 57 8f 59 3d 37 0e e8 3c cd d1 97 3d 52 ce d5 3b
       0.053115215 0.02832709 0.07413063 0.0065248394
0001b0 44 a9 95 bd 02 a4 cd b9 ee e5 a0 3c 43 f5 c7 3c
       -0.073076755 -0.00039222842 0.019640889 0.024408942
0001c0 b8 28 89 3d d0 9c 63 3d ef a8 a1 3c e1 9f 9e bb
       0.066972196 0.05556947 0.019733874 -0.0048408364
0001d0 28 d7 b7 3d 4b 96 5b 3d 21 f2 85 3d f2 90 58 bc
       0.08976585 0.053610127 0.06540323 -0.013218151
0001e0 b2 67 c3 3c 59 f1 1f 3d 98 c5 75 bd fb 35 49 3d
       0.023853157 0.039048526 -0.060002893 0.049123745
0001f0 63 89 9c 3d 1a 2a c0 3c cd fc 7e bd 18 34 c7 3d
       0.07643392 0.023457576 -0.06225281 0.09726733

layer4.weight f4 [128, 128]
000000 71 cd fd 3c 71 07 82 bd bc b8 82 bd c7 7c 2e bc
       0.030981751 -0.063490756 -0.063828915 -0.010649866
000010 53 55 7e bd 55 5a 12 bc 30 9a 91 bd e8 48 5e bc
       -0.06209309 -0.00893267 -0.07109487 -0.013567187
000020 1f e1 6a bd 18 90 a9 3b 41 a0 97 bc d1 7a 37 bc
       -0.0573436 0.005174648 -0.018509032 -0.011198715
000030 d9 80 9b bd f1 3c f8 bc 8b fc 86 3d 7e 45 b1 bc
       -0.07592935 -0.030302497 0.065911375 -0.021639582
000040 1e 43 a1 bd 64 86 87 bd 5f 06 08 bd 1e c3 9c bd
       -0.0787413 -0.0661743 -0.0332092 -0.07654403
000050 e5 da a7 3d 9e 0a 1b 3d 57 ee 65 3c bd 60 0c bc
       0.08196048 0.037851922 0.014033875 -0.008567986
000060 ef d6 ed bc e8 10 0a 3d ae 97 9a 3c 91 d9 b5 bc
       -0.029033152 0.03370753 0.018871155 -0.02219847
000070 c7 3d ac 3c 9d 6f 0c bd 09 5e 90 3d 05 44 95 3d
       0.021025551 -0.03428613 0.07049186 0.07288364
000080 6f 15 89 3d 2f b8 84 3d 88 d0 4c 3b 1d a8 a0 bc
       0.06693541 0.06480443 0.0031252224 -0.019611413
000090 56 b4 06 3d b5 8b 8b 3d 98 09 8e bd 0e 3d 8a bd
       0.032886826 0.068137564 -0.069354236 -0.067499265
0000a0 48 9f 2a bd 18 1c a0 bb 82 17 8a bb 99 ce 5c bc
       -0.04165581 -0.0048861615 -0.004214228 -0.013476991
0000b0 bb de 90 bc 0d b0 50 bd d1 1b f1 bb 06 c1 50 3a
       -0.017684331 -0.050949145 -0.0073580523 0.0007963333
0000c0 b2 b8 63 bd a1 41 02 bc d1 38 2d 3c 55 2d b9 3d
       -0.05559606 -0.007950217 0.010572628 0.090418495
0000d0 01 39 8d 3d 19 58 f4 bc 3a 36 54 3d 51 dd 7b bc
       0.06895638 -0.029827164 0.051809527 -0.01537259
0000e0 21 4d 41 3c d1 1e 23 3d 78 38 c7 3d 63 f5 a3 3d
       0.011798174 0.03982431 0.097275674 0.08005788
0000f0 88 37 36 bb 1f 08 b8 3c a2 13 15 3d d1 13 a9 bd
       -0.0027804095 0.02246481 0.036395676 -0.08255733
000100 20 55 50 bd 74 7d 0d 3d 22 49 a1 3d 49 f6 1e 3d
       -0.05086243 0.03454347 0.07875277 0.038809095
000110 74 4f 8c bd 05 da 94 3d a2 cb 48 bb 9b f7 17 bd
       -0.06851092 0.072681464 -0.0030638953 -0.03710137
000120 4a ff fa 3c ef 96 83 bd 36 bd 33 3d 89 40 b3 3b
       0.03063931 -0.06425273 0.043881617 0.0054703397
000130 8e 03 1c 3c 1d 84 a9 bd af 13 3a 3d 66 74 54 bd
       0.009522332 -0.08277152 0.045428928 -0.05186882
000140 2b 5b d4 3b a7 68 57 bd 05 50 40 bd 04 b4 9a bc
       0.0064805946 -0.05259004 -0.046951313 -0.018884666
000150 55 d5 fa 3b 73 2a 91 bd ac 2c 78 bd 40 21 3c bd
       0.0076548257 -0.07088175 -0.060589477 -0.045930147
000160 14 b0 ba 3d da 4a 20 bd bc 56 d2 bc 7c 79 53 bd
       0.091156155 -0.039133884 -0.025676124 -0.05162953
000170 5b 17 1c 3d 40 1c a7 ba b7 c5 df bb 73 db 26 3d
       0.03810821 -0.0012749508 -0.0068289894 0.040736627
000180 15 10 a6 3d 38 21 e0 bc 1e 1f 3b bc dd 86 0f 3d
       0.08108536 -0.02735959 -0.011420993 0.035040725
000190 aa a8 86 bd 99 97 81 bd eb a2 73 bd 58 89 0b 3d
       -0.06575139 -0.06327743 -0.059481543 0.034066528
0001a0 0e ae 44 3d 8a 61 83 3d 18 d3 7a bd 1f 39 01 3d
       0.048017554 0.064150885 -0.06123647 0.031548616
0001b0 b1 69 87 3c b1 54 b2 3c d2 e1 0f bd bb a6 96 bd
       0.01652989 0.0217689 -0.03512747 -0.0735602
0001c0 68 ff 61 3d ce 14 a0 3d ce 01 65 bd f2 22 f7 bb
       0.055175215 0.07816468 -0.055909924 -0.0075420076
0001d0 a1 a1 90 bd 5d 7d 4a 3d 4e 6c 8b 3b 30 ff 82 3d
       -0.07062078 0.049435962 0.0042548543 0.063963294
0001e0 bd fc 09 bd dc 87 f1 bb 32 8d 88 bd 4a cd 83 3b
       -0.033688296 -0.007370932 -0.06667556 0.004022275
0001f0 bf 81 9f 3d ed 57 81 3d fb d7 f2 bc cb 17 da bc
       0.07788419 0.06315599 -0.029644003 -0.026622673
000200 52 67 83 bd 80 47 83 3c 01 8d 7e 3d 21 f1 9a bd
       -0.06416191 0.016025305 0.06214619 -0.07565523
000210 68 41 48 3c 14 b6 99 bd 9a 52 0c bd 73 1c 93 3d
       0.012222625 -0.07505432 -0.034258462 0.07183161
000220 99 91 70 bd b3 8a 21 bd bf 71 8d 3d 21 a0 89 3d
       -0.058732603 -0.039438915 0.06906461 0.06719995
000230 fd 87 e9 3c 6a 11 74 bc e0 07 9f 3d ee 00 ee bc
       0.028507227 -0.01489673 0.07765174 -0.029053178
000240 d0 5a aa 3d 22 fa 3f 3d d7 e9 6a 3d ce b6 94 bd
       0.08318102 0.046869405 0.057351913 -0.0726143
000250 67 00 6f bc 00 41 8f ba c0 14 20 3d c6 39 c7 3d
       -0.014587498 -0.0010929406 0.03908229 0.09727816
000260 d9 4f a3 3d ea 88 0b bc ab aa 70 bd 51 f8 bc 3c
       0.07974214 -0.00851653 -0.05875651 0.023067625
000270 65 03 9b 3d 1d 4b 4d bd e5 38 8e 3d e9 84 bf 3c
       0.07569007 -0.05012046 0.069444455 0.023378806
000280 d5 3a 4f 3c 8d bd 8e 3c a9 5e a9 bd 01 d9 d3 bb
       0.012648304 0.01742437 -0.08270008 -0.006465078
000290 de f6 1c 3d f8 0e 10 3d b7 87 e1 bb 88 6a 2e 3c
       0.03832137 0.035170525 -0.0068826335 0.010645516
0002a0 5a 5c f9 bc 44 e9 98 bd 24 0e 49 3d 64 3c b1 bc
       -0.030439544 -0.07466367 0.04908575 -0.021635242
0002b0 06 55 7f 3d eb 89 50 3c f8 88 d9 3b 99 ac 88 3d
       0.062336944 0.012728195 0.0066386424 0.066735454
0002c0 f5 1e 83 bd 45 9d 48 bd 34 bd d3 3b e0 d5 af 3d
       -0.06402389 -0.04897811 0.0064617638 0.08585715
0002d0 c2 9a 0f 3d 75 70 9d 3d 59 72 7c 3d c5 a2 96 3d
       0.035059698 0.07687465 0.061632488 0.073552646
0002e0 e6 63 78 3c 10 34 47 bd 78 f1 01 3c e1 52 3c bd
       0.015160536 -0.048633635 0.007931106 -0.045977477
0002f0 e8 67 65 3d a2 ba ce ba 58 d9 a2 3d 18 f4 4d bd
       0.056007296 -0.0015772174 0.07951611 -0.050281614
000300 ab 3a 40 bc 49 56 27 bd 81 c3 62 3d 76 5d 37 3c
       -0.0117327375 -0.040853772 0.05536223 0.011191716
000310 df 52 4c 3d 50 62 52 3d aa 1f 99 bd 34 7c 59 bd
       0.04988372 0.05136329 -0.074767426 -0.053096965
000320 33 25 d0 bd 98 75 37 3d d2 24 2b 3d 98 28 83 3d
       -0.10163345 0.04478988 0.04178316 0.06404227
000330 36 37 66 3c 23 ca 81 bc dd 12 5d 3d 85 53 9e 3d
       0.014051249 -0.015843457 0.053973068 0.07730774
000340 50 f5 44 bc 0a aa bf 3b 5c 09 9d bd 30 14 b9 3b
       -0.012021378 0.0058491277 -0.07667801 0.0056481585
000350 2f 88 cd 3c 33 0e 7f bd 12 a7 99 bc a9 52 8e 3d
       0.025089351 -0.0622694 -0.018756423 0.0694936
000360 2b a7 f4 bc 0e 42 30 3d be 4e 80 bd d2 48 91 bd
       -0.029864868 0.043031745 -0.06265019 -0.070939675
000370 ab 06 83 3b a9 fb 21 bd 02 09 1c 3c 0e 04 40 bd
       0.0039985976 -0.039546642 0.009523632 -0.046878867
000380 d1 9a ba 3a 1a ea b5 3d 87 5d a1 3b 4d b5 a7 3d
       0.0014236813 0.08882542 0.0049244794 0.08188877
000390 60 e5 91 bd b4 bd 02 3c 31 89 8a bc 7c e8 93 3d
       -0.07123828 0.007979799 -0.016911121 0.07222077
0003a0 75 49 a7 3d 07 72 93 3d 3d 7b 17 bc 9b e9 a8 bd
       0.08168308 0.07199483 -0.009245691 -0.08247682
0003b0 33 b7 87 bd 5c 34 7a 3d 88 3b 7e 3d b5 34 89 3d
       -0.06626739 0.06108509 0.062068492 0.06699506
0003c0 8c 2d e9 3c 50 7d 15 bd 2d b1 b6 3c b2 d1 25 3d
       0.028464101 -0.03649646 0.02230128 0.040483184
0003d0 f3 25 e6 3c b7 2e a9 bd 16 63 9f 3d 7c 0b 3a bd
       0.028094267 -0.08260863 0.07782571 -0.04542111
0003e0 ff b7 c5 3d 16 e2 4e 3d 04 93 f4 bc cc 29 b4 bd
       0.09654235 0.05050858 -0.029855259 -0.087970346
0003f0 eb 9c 5b bd 23 0f e9 bc b9 c7 7d 3d 45 31 6c 3c
       -0.053616446 -0.0284496 0.06195805 0.014416044

layer4.bias f4 [128]
000000 2e a5 75 bd 1d 6b 94 3d b9 2d 8a 3c 6f 5e ad 3c
       -0.05997198 0.07246993 0.016867505 0.021163194
000010 0d 5c 86 bd 7c b0 6e bd a7 8a 1c bd a2 f6 74 3d
       -0.06560526 -0.058273777 -0.038218167 0.05980552
000020 89 83 b1 3d f5 0d 3c 3d 34 7f 81 3d a7 53 94 3d
       0.086676665 0.045911748 0.0632309 0.07242518
000030 81 8f 6b bd ad 2d d0 3c 68 2c 8c bd cf 09 b5 bd
       -0.057509903 0.025412405 -0.06844407 -0.088397615
000040 3b a8 04 3d fd 6a ce 3c e2 dc 5c bd 52 9a 38 bd
       0.032387 0.0251975 -0.053921588 -0.045069046
000050 f9 ec 38 3d 0d e0 a4 bb db b2 a6 3d e5 bd 6d bd
       0.04514787 -0.0050315917 0.08139583 -0.058042426
000060 35 91 c8 3d 02 82 43 3c 19 77 71 bc e5 34 4b bd
       0.09793321 0.011932852 -0.014737868 -0.04961099
000070 20 7e ac 3d 60 e3 8a 3d ec 5e c5 3d 04 d0 a3 3d
       0.08422494 0.067816496 0.096372455 0.0799866
000080 d5 f2 ef 3c 59 f0 03 bd cf 61 d7 3c 58 49 b9 bc
       0.029290596 -0.032211635 0.026291756 -0.02261798
000090 ed 86 af bd f7 a4 02 bb c1 b8 36 bc 20 68 2d bd
       -0.08570657 -0.0019934752 -0.011152447 -0.04233563
0000a0 6d 65 98 bd aa a9 a1 3d 91 3e 20 bd 1f b2 40 bd
       -0.074412204 0.07893689 -0.039122168 -0.04704487
0000b0 fe 3e 4a bd b7 07 87 3d c6 b2 25 bd f1 0b 81 3c
       -0.04937648 0.06593268 -0.040453695 0.015752764
0000c0 1f c9 f4 3c 98 0f a9 3d 1d 18 bd bc 16 b3 9e 3d
       0.029881058 0.082549274 -0.023082787 0.07749002
0000d0 bb 63 14 bd 01 71 68 3d 0a 4e 84 3c 44 61 7c 3d
       -0.036227923 0.056748394 0.016150493 0.061616197
0000e0 89 d1 c3 bb 78 01 d1 bb ca 60 b0 3d d1 5e bc bd
       -0.0059759063 -0.006378349 0.08612211 -0.09197772
0000f0 c6 64 63 bd 23 98 97 bd 7d 47 0b 3e 1b 44 c9 3c
       -0.055516027 -0.07402065 0.1360149 0.024568608
000100 2e 98 80 bd c3 1d 71 3d ff 5a 8d 3d ef 5e 59 bd
       -0.06279026 0.058866274 0.06902122 -0.05306905
000110 df d4 6c bd 97 a6 37 3d 9d 98 bd 3c e9 1a 5b 3d
       -0.057820197 0.044836607 0.02314406 0.05349246
000120 8f a9 96 3d ea e4 ce 3c 17 4a a3 3d 9e 78 86 b8
       0.073565595 0.02525564 0.07973116 -6.4120846e-05
000130 f5 05 75 bd 4f 0d 79 bd cd c1 a0 3d b0 72 c3 3d
       -0.059820134 -0.060803708 0.078494646 0.09543359
000140 55 92 2a 3d 3c f8 53 3d 56 ae 99 bd bb d9 05 3d
       0.04164346 0.051750407 -0.07503955 0.032678347
000150 1e a6 72 3d 13 05 4e 3b cc 5b 4e bd 72 fb 73 3c
       0.059240453 0.003143613 -0.050380513 0.014891492
000160 28 aa 28 3c 0b 30 8f bc f9 cb 3e 3d a4 a8 ee b9
       0.010294475 -0.017478963 0.046581242 -0.00045520545
000170 61 de 2f 3c 96 47 a5 bd bf ad 9a 3d 34 91 57 bd
       0.010734172 -0.080702946 0.07552671 -0.05262871
000180 93 5d 32 3d 83 03 89 bd c6 89 12 bd 4d ea a8 3d
       0.04354627 -0.06690123 -0.035775922 0.08247814
000190 63 9e 9e 3d 10 5b 77 3d 8e 32 9e 3d f1 75 73 bd
       0.077450536 0.06038958 0.07724486 -0.05943865
0001a0 e1 e5 44 bc be 22 30 bd 43 90 a9 bd d0 cc 4b 3b
       -0.012017698 -0.043001883 -0.08279469 0.003109742
0001b0 39 00 a4 bd 2c 21 32 3d c1 bc f4 bc 98 f3 67 bd
       -0.08007855 0.043488666 -0.029875161 -0.056628793
0001c0 fe 22 5e bd c6 b5 17 bd e0 7e 92 bd 7a d5 ed 3d
       -0.05423259 -0.037038587 -0.07153106 0.11612983
0001d0 f4 da c1 3c e1 53 87 bd 6d 8a fd 3c 2b 5f 03 3c
       0.023663975 -0.066077955 0.030949796 0.008018295
0001e0 0b 58 32 bd eb e4 6b bd 73 cf b7 bd e0 dc 68 bc
       -0.043540996 -0.05759136 -0.08975115 -0.014212817
0001f0 c6 d5 95 bd 4b 9a cb 3b a2 33 76 3d 6a 2b 8c 3d
       -0.07316165 0.0062134615 0.060107835 0.06844218

input_norm.weight f4 [5]
000000 4a 98 aa 3f 5b 05 84 3f 9f bb 3a 3f a2 6e 86 3f
       1.3327725 1.0314134 0.7294254 1.0502512
000010 89 c7 3b 3f
       0.7335134

input_norm.bias f4 [5]
000000 2f 51 c8 3e 8d f1 b6 3d b7 c5 a3 bd 27 6c 3e 3f
       0.39124438 0.08932791 -0.079966955 0.7438378
000010 96 19 7f bd
       -0.06228026

input_norm.running_mean f4 [5]
000000 9f c7 96 40 e7 fd 31 3d 02 0e f1 bf 58 33 1e 41
       4.711868 0.04345503 -1.88324 9.887535
000010 09 90 25 3d
       0.040420566

input_norm.running_var f4 [5]
000000 d6 b4 c6 40 23 22 60 3c a9 23 26 40 18 90 0c 42
       6.2095747 0.013680014 2.5959265 35.140717
000010 65 ad b0 3c
       0.021567056

norm.weight f4 [128]
000000 ce 9d 7e 3f 53 4f 79 3f ce 47 77 3f 22 56 76 3f
       0.9945954 0.97386664 0.9659394 0.9622518
000010 7e 84 75 3f 75 b5 76 3f c1 bd 77 3f b4 ce 75 3f
       0.9590529 0.9637063 0.96773916 0.9601853
000020 4c 0b 7a 3f f4 a9 77 3f 56 00 70 3f 2c 62 74 3f
       0.9767349 0.967437 0.9375051 0.954623
000030 eb ad 77 3f 74 a3 76 3f 78 77 75 3f 13 79 69 3f
       0.9674975 0.9634316 0.9588542 0.9120037
000040 3c 32 79 3f d0 3f 74 3f 7a 4d 7c 3f fc a4 76 3f
       0.97342277 0.9540987 0.9855572 0.96345496
000050 09 24 78 3f 73 e6 79 3f 42 22 77 3f dd df 73 3f
       0.96929985 0.9761726 0.9653665 0.95263463
000060 d5 54 71 3f 12 bf 74 3f 33 2d 76 3f be 46 72 3f
       0.9427007 0.9560405 0.9616272 0.94639194
000070 cc f1 91 3f 2e fb 75 3f 69 3f 77 3f 74 9e 77 3f
       1.1401916 0.96086395 0.9658113 0.96726155
000080 74 ac 82 3f d8 24 75 3f 6e cb 7e 3f 5e 3f 72 3f
       1.0208879 0.95759344 0.9952916 0.9462794
000090 6e d4 74 3f 0e bf 75 3f 07 d1 78 3f f9 6a 78 3f
       0.9563664 0.9599465 0.9719395 0.9703823
0000a0 d8 57 73 3f 84 14 76 3f e9 77 76 3f f5 19 75 3f
       0.95055914 0.96125054 0.9627672 0.9574273
0000b0 95 1f 6f 3f e7 ae 7b 3f a8 b1 71 3f 2e 82 77 3f
       0.93407565 0.98313755 0.94411707 0.96683013
0000c0 38 d4 74 3f 2d 4e 71 3f ba 3f 75 3f e9 56 78 3f
       0.9563632 0.9425991 0.95800364 0.97007614
0000d0 77 11 76 3f 6e a4 78 3f 93 c4 73 3f ae 7d 79 3f
       0.961204 0.971259 0.95221823 0.97457397
0000e0 19 24 76 3f 0a d3 72 3f a8 4f 71 3f 60 f3 7c 3f
       0.9614883 0.9485327 0.9426217 0.9880886
0000f0 77 e8 a9 3f 7d aa 72 3f 10 68 72 3f 46 06 77 3f
       1.3274068 0.94791394 0.94690037 0.9649395
000100 21 d3 6c 3f 73 37 80 3f 00 79 76 3f 80 70 6e 3f
       0.9250966 1.0016922 0.9627838 0.9314041
000110 88 d3 74 3f b5 2d 70 3f 15 8c 74 3f 8e c0 78 3f
       0.9563527 0.93819743 0.9552625 0.97168815
000120 80 25 74 3f 04 33 74 3f bc 1e 74 3f e9 b3 75 3f
       0.9536972 0.95390344 0.95359397 0.95977646
000130 53 fc 76 3f 64 65 77 3f 29 cd 75 3f e1 ce 77 3f
       0.96478766 0.96639085 0.96016175 0.9680005
000140 c8 6a 78 3f 7c f7 76 3f 10 0b 75 3f fa 40 7a 3f
       0.97037935 0.9647138 0.95720005 0.97755396
000150 27 16 7a 3f 8f e0 75 3f 55 c3 70 3f d6 b9 76 3f
       0.9769005 0.96045774 0.94048053 0.96377313
000160 da 45 75 3f bd d7 6e 3f a9 66 75 3f 12 f6 74 3f
       0.9580971 0.9329794 0.9585977 0.95687973
000170 46 db 78 3f 2a 2f 72 3f bb e6 74 3f 69 c5 76 3f
       0.97209585 0.94603217 0.95664567 0.96394974
000180 85 7a 78 3f e9 d4 72 3f b9 50 7a 3f 0b 52 70 3f
       0.9706195 0.94856125 0.97779423 0.9387519
000190 16 ff 70 3f 9c a0 79 3f d6 4a 71 3f 74 8a 71 3f
       0.9413923 0.97510695 0.94254816 0.9435189
0001a0 8f 5b 70 3f 2e b0 74 3f 89 aa 75 3f 62 76 77 3f
       0.9388971 0.9558133 0.9596334 0.9666501
0001b0 63 58 70 3f dc 6c 76 3f 90 1c 74 3f 2b 00 78 3f
       0.9388487 0.96259856 0.9535608 0.96875256
0001c0 bb 90 75 3f 18 b3 80 3f 6e 90 72 3f 29 f9 7a 3f
       0.95923966 1.0054655 0.9475163 0.9803644
0001d0 29 e4 76 3f 8e ed 74 3f 9d 37 78 3f 93 f7 77 3f
       0.96441895 0.9567498 0.9695986 0.96862143
0001e0 b9 e6 73 3f 38 2c 6e 3f ec ea 76 3f 5d 8f 74 3f
       0.9527393 0.9303622 0.9645221 0.95531255
0001f0 53 e7 77 3f 81 fc 73 3f 36 9d 76 3f 4e 70 77 3f
       0.9683735 0.95307165 0.96333635 0.9665574

norm.bias f4 [128]
000000 ff e0 6f 3d b8 72 06 bd 5f 6d 0b bd fa fb 10 be
       0.058564182 -0.032824248 -0.03403985 -0.14158621
000010 69 e5 8e 3e 83 99 88 bd 9a 97 aa bb c9 e8 ea bd
       0.279094 -0.06669905 -0.0052060606 -0.114701815
000020 06 4f bd bc de e1 15 3e fd b0 8f 3c bc 63 ea 3c
       -0.02310897 0.14636943 0.01754045 0.02861201
000030 3a c0 9f 3e 0b 3d 4c 3d 76 32 ea 3e b6 67 31 be
       0.31201345 0.049862903 0.45741624 -0.17324719
000040 26 be 45 bc 7c 84 27 3d f1 f8 5b 3e 00 16 d0 3d
       -0.012069261 0.04089783 0.21481682 0.10160446
000050 d3 dd 8b be 0d 33 c7 3c 1d 17 49 3d b1 a6 30 be
       -0.27317676 0.024316335 0.04909431 -0.17251088
000060 82 2d ae be be 42 a2 bd 90 10 db bc 52 3d 7b be
       -0.34019095 -0.07922886 -0.026741296 -0.2453511
000070 83 ac 91 be 0f bd 0b be cd 57 13 be d8 f1 28 3e
       -0.28451928 -0.13646339 -0.14388962 0.16498506
000080 0c 49 1a be 84 1b fc bd ea a1 28 be 1d 04 b7 be
       -0.15066928 -0.12309936 -0.16468015 -0.35745326
000090 84 98 fb 3d 4c 69 19 be 6d 1f 8f bd 9a 06 8e bd
       0.122849494 -0.14981574 -0.06988416 -0.06934853
0000a0 e7 29 f6 bd 85 83 64 3e 3f 2d 50 3e 9f 8e 56 be
       -0.12019711 0.22315796 0.2032976 -0.20952843
0000b0 9c 01 dd 3d 3e 38 a7 3d 9d d7 4a 3d fa 18 2a be
       0.107913226 0.08165024 0.04952203 -0.1661109
0000c0 59 01 14 3e bb 5e 83 be 46 15 0d 3e e8 09 8e bd
       0.14453639 -0.2565821 0.13777646 -0.06935483
0000d0 8d 7f 96 3e df bf 3e be e0 dd 46 be 38 e2 f0 3d
       0.2939419 -0.1862788 -0.19420576 0.11761898
0000e0 89 5f c0 3d 68 dc de 3b da 5d 45 be 99 7e ff bd
       0.09393222 0.006801177 -0.19274083 -0.124753185
0000f0 72 31 8e bd c4 1c d5 3d 9c 3e 45 3e 49 c7 a5 3d
       -0.06943025 0.10405877 0.19262165 0.08094651
000100 30 92 72 3e f4 ca 17 3d b9 01 b3 bd 6a 70 74 be
       0.23688579 0.037058786 -0.08740563 -0.23871008
000110 34 8b 5e be 01 e2 54 3b bb 8b 62 3c d9 b0 c2 bd
       -0.2173279 0.0032483342 0.01382726 -0.09506387
000120 40 69 05 3f e2 1b 0c be 4d 1b 2e bd a3 65 a2 bd
       0.52113724 -0.13682511 -0.042506505 -0.07929542
000130 ae 9d 00 bc 5a f2 11 bd ba ac b3 bd a1 ef f0 bd
       -0.007850094 -0.035631515 -0.08773179 -0.117644556
000140 da 7a c6 3d b3 24 57 3e 39 3e 88 be 32 02 1b 3d
       0.09691401 0.21010093 -0.26609972 0.03784389
000150 b6 8c 0e bd 11 9c 1f 3e a9 74 a8 3e ed 2e bf 3d
       -0.03480216 0.15586878 0.32901505 0.09335122
000160 40 29 05 3c b1 ab cb 3d c2 13 90 3e cb 87 3c be
       0.008127511 0.09944857 0.28140074 -0.18411176
000170 cc da d2 bd 13 a8 b7 3e 80 84 9d 3d 1e 8f 3d 3d
       -0.102956384 0.35870418 0.07691288 0.046279065
000180 a9 34 c9 bd 89 a3 5b be ff eb ac bd 68 80 e5 3e
       -0.09824497 -0.21449102 -0.0844345 0.4482453
000190 a3 f5 9d 3d 42 7c 40 3d 6a c5 a4 3e 84 8b 28 bc
       0.07712867 0.0469935 0.32181865 -0.010287169
0001a0 8c fa a2 bd f9 50 16 be fe d1 16 be cf 55 34 be
       -0.07957944 -0.14679326 -0.14728543 -0.17610858
0001b0 2d fa ba be 32 81 05 3e fb c9 c8 bc 8c d2 f4 3d
       -0.36518994 0.13037565 -0.024510374 0.11954221
0001c0 41 13 a3 3d 5d 26 09 3e 46 83 59 bd c0 61 ef be
       0.07962657 0.1339354 -0.053103708 -0.46754265
0001d0 a2 3d b4 3d 37 fa d4 be 34 e8 62 bd df ca 64 bd
       0.08800818 -0.4159715 -0.055397227 -0.055857535
0001e0 ff be 6a 3e ba e9 8d 3e 7b 80 8f be 80 62 9f 3e
       0.22924422 0.27717382 -0.2802771 0.31129837
0001f0 89 bf ac be 4f 10 93 3e e8 60 65 bc 77 ab 1f 3e
       -0.3373988 0.2872338 -0.014000155 0.15592752
