.previous_experiments/car_arriving_trials_alternatives/training/Lex_jaywalker_QAgent.pt (torch, 226913 bytes, 22 tensors)

layer1.weight f4 [128, 8]
000000 ba 12 ff 3d fa 46 ec bd 11 e2 04 be 15 7b 69 3e
       0.12454744 -0.11536975 -0.12976862 0.22800858
000010 a3 3d 01 bf b7 a5 7a 3d 37 49 d9 bc 3f d5 86 3d
       -0.50484675 0.061193194 -0.02652417 0.06583642
000020 c6 8d 45 be 7f 27 ac bc 9f e1 8f 3d 94 4e 17 3e
       -0.19292364 -0.021014927 0.07025456 0.14776069
000030 ab 41 f1 bc eb 31 d7 bc de c6 82 3b f1 97 b8 bc
       -0.029450258 -0.02626892 0.003990992 -0.022533389
000040 5f 48 02 bd 4e a6 3e 3d a1 68 7f 3e e8 73 bd 3d
       -0.0318073 0.04654532 0.24942257 0.09250623
000050 75 6c ae 3c b2 40 87 bd 3d 70 26 ba 5e fa 0d be
       0.02129195 -0.066041365 -0.0006349122 -0.13865039
000060 43 2d 42 be 60 6f 47 3c 9b 41 b8 3d c4 6b 88 3e
       -0.18962578 0.01217255 0.08996888 0.2664472
000070 7a 57 dd be b4 52 3a 3e ca 89 da 3d 2a 93 f2 3e
       -0.43230802 0.18195611 0.106708124 0.47377902
000080 9d c5 bd 3e df eb 7a be 2e c3 8e be 7b f5 c5 bd
       0.3706483 -0.2450404 -0.27883285 -0.09665962
000090 bb 51 bb 3e 28 90 45 be 21 27 8c 3e c8 36 84 be
       0.36585793 -0.19293272 0.27373603 -0.25823045
0000a0 9e 7b eb 3e 6e b2 70 bd 0a 5c 62 3d 70 e6 10 bd
       0.4599275 -0.058763914 0.055263557 -0.035376012
0000b0 1a d2 5a bc 7a fe 0b 3e 84 ad 8f be 0b e0 25 3d
       -0.013355756 0.13671294 -0.2806207 0.040496867
0000c0 e3 30 70 bd 9e b8 3f 3d 36 22 82 be e6 37 d6 3d
       -0.058640372 0.046806924 -0.25416726 0.104598805
0000d0 28 22 86 3e 95 e5 09 be 34 1e 10 3f 35 c5 b6 3e
       0.26197934 -0.13466485 0.56296086 0.35697332
0000e0 69 42 12 be 7c 15 80 bd 4b 67 54 3d f4 2b 04 3d
       -0.14283146 -0.06254098 0.05185632 0.03226848
0000f0 2f 9e 8f bd d2 b7 61 3e fa 0a 1c 3d cb d0 39 3e
       -0.07012593 0.22042778 0.038096406 0.18146054
000100 58 f7 67 bc 1c 47 0f bd 66 6b 6f 3c 29 36 91 3c
       -0.014158092 -0.034979925 0.014613008 0.01772602
000110 ef 19 b6 be 7a 3d a4 be d0 aa 6c 3d be 94 87 3d
       -0.3556666 -0.32078153 0.057780087 0.06620167
000120 21 d6 85 3e 27 17 93 3d 90 98 d2 3c ba 16 79 3d
       0.2613993 0.0718215 0.025707513 0.06081269
000130 55 85 e5 3d 0a 7d 30 bd 4f d2 d7 be d8 e1 ab 3d
       0.11207072 -0.043087997 -0.4215264 0.08392686
000140 5b 58 5b be 8d 7f b9 be fb e1 57 3d 3a 23 10 3c
       -0.21420424 -0.36230126 0.052705746 0.008797461
000150 24 e1 b6 3e eb 16 43 be db ae 85 be d0 72 2c 3e
       0.35718644 -0.19051711 -0.26109967 0.16840672
000160 b9 99 c3 3c 4d ef aa 3e 28 b5 b7 3c d9 cb 70 be
       0.023877012 0.33385697 0.02242525 -0.23515262
000170 d0 78 1a 3d e6 bc 10 3e 7b 6d 3c be 1b fe 17 be
       0.037712872 0.14134559 -0.18401138 -0.14843027
000180 16 a7 d3 bc 7c fa 63 3e 31 b8 5e be ec 5a a2 bd
       -0.025836509 0.22263521 -0.21749951 -0.07927498
000190 a1 6b c7 3e dc 79 a1 b9 98 29 6f 3e e4 5a 33 3e
       0.38949302 -0.00030799105 0.2335571 0.17515141
0001a0 0d 96 a1 be 70 ba ce be 35 a5 bf 3e 0c f2 0c 3e
       -0.31559792 -0.40376616 0.3743073 0.13764209
0001b0 3c 70 b8 3d 12 79 d3 3c 47 7c 61 3e 6e 13 5b 3d
       0.09005782 0.025814567 0.22020064 0.053485326
0001c0 ac 32 d7 3e b7 7d fe bd a3 9f c2 3c 49 a0 c2 3e
       0.42030847 -0.12426322 0.023757761 0.38012913
0001d0 c6 b7 80 3e 5c ab 77 3e c3 8d f8 bd e3 60 2f be
       0.25140208 0.24186462 -0.12136414 -0.17126803
0001e0 0c e5 b1 be 0f c4 a7 bd a7 96 d0 3e 55 0b d0 bd
       -0.3474506 -0.08191692 0.4073994 -0.101584114
0001f0 04 d0 ce 3d 37 f3 5e be 7d 65 86 be 80 17 d1 bc
       0.100982696 -0.21772467 -0.26249304 -0.025523901
000200 6d 9c 71 3e f7 8d 84 3e f1 12 61 be 59 7a 34 3e
       0.23594828 0.2588956 -0.21979882 0.17624797
000210 57 46 c4 3e 7d 02 1c 3e 10 21 d1 3e fa b8 10 3e
       0.38334915 0.15235324 0.40845537 0.14133063
000220 b6 ee 89 3e bb 2d 2b 3e cc d0 29 be b4 cb 8b be
       0.26939934 0.16716664 -0.16583556 -0.2730385
000230 22 8d d2 bd 3a 08 0e be 65 18 f8 be 8b 73 a1 3d
       -0.10280825 -0.13870326 -0.48456112 0.07883366
000240 10 14 d4 3c d7 65 c0 bd b0 e5 b7 3d d3 cb 54 3e
       0.025888473 -0.093944244 0.08979356 0.20780878
000250 37 53 13 3e 04 95 e1 3d 0f 91 2a bc b8 e5 91 3e
       0.14387213 0.110147506 -0.010410561 0.28495574
000260 b4 e4 7d bc c6 a4 29 3d d7 4c cb be 0c 8f 5b be
       -0.015496422 0.041416906 -0.39707062 -0.21441287
000270 7b 0d 9f be cd 55 4b be 81 92 c0 3e 3f 57 d2 bd
       -0.31064972 -0.19856949 0.37611774 -0.10270547
000280 4f aa c2 be 59 6f 3f 3e 19 4f 03 bd 68 22 c3 3e
       -0.3802056 0.1869482 -0.032057855 0.38112187
000290 cd 0a 93 be 08 00 41 3e 59 5c 87 be b1 9f 12 be
       -0.28719178 0.18847668 -0.26437643 -0.1431873
0002a0 5a bd a0 be 36 d1 bc bd e9 fe 8c bd 3c f4 56 3e
       -0.31394464 -0.09219591 -0.06884558 0.20991606
0002b0 bb 68 87 bc 09 9e 0f 3e 79 81 da 3e 79 d4 d2 3e
       -0.016529432 0.1402513 0.42676905 0.4117773
0002c0 4f 2d 49 3e 99 24 0e 3e 9f fc 12 be 51 42 db 3e
       0.1964619 0.13881148 -0.1435418 0.42824033
0002d0 c0 93 b6 bd 2e ab 19 3e 65 a4 54 be 7a 4f 64 be
       -0.089149 0.15006706 -0.20765837 -0.22295943
0002e0 5c 44 29 be 82 b1 80 3e 03 76 d9 be d5 83 bd be
       -0.16529983 0.25135428 -0.42472848 -0.37014642
0002f0 06 99 5f 3d e0 ee b6 bd 42 49 41 3e fc af f1 3d
       0.054589294 -0.089322805 0.18875602 0.118011445
000300 0e 3a 56 be 40 aa 93 3d b6 26 88 3e be 4e b3 be
       -0.20920584 0.07210207 0.26592034 -0.35021013
000310 22 30 58 3e fb 92 39 3e bf d6 83 3e 6f 08 9c be
       0.21112111 0.18122475 0.25749776 -0.30475184
000320 6c 8e 92 bb 1c 0b 8b be 3f d5 a7 3e 41 b3 d1 bd
       -0.0044725444 -0.27156913 0.3277988 -0.10239268
000330 50 94 07 3e 38 dd d5 bd d5 29 e9 bc 93 5a 9d bc
       0.1324017 -0.10442585 -0.02846233 -0.019208228
000340 15 61 78 3d 3c 12 2f 3e 38 52 b4 3c 8f 5f 2d 3e
       0.06063946 0.170968 0.022011861 0.16930984
000350 e5 97 8a be 33 fb 5c 3e 6b 7c 01 3f db fe 9f 3e
       -0.2706901 0.215802 0.5058047 0.31249127
000360 12 2f 43 3e 6c 50 8a bd da 64 63 be 8e 83 f5 3e
       0.19060925 -0.067536205 -0.2220644 0.4795193
000370 c5 be 4d be 5b 16 b2 3e d8 10 bc be 4f c7 88 be
       -0.20092304 0.3478268 -0.367316 -0.2671456
000380 43 7c 55 3e 01 8c 9b be 86 cf 06 be f1 96 26 3d
       0.20848183 -0.30380252 -0.13165101 0.040671293
000390 b2 92 f0 3e f1 b7 9c 3e fc ab 58 bd 91 c9 dc be
       0.4698692 0.30609086 -0.052898392 -0.43122533
0003a0 19 b0 41 3e 5e 7a d9 3b 59 26 56 bc 76 8c c6 3c
       0.18914832 0.0066369018 -0.013070666 0.024236899
0003b0 a3 59 32 3b 07 46 1a 3e 71 b0 c0 3e d7 d1 5b be
       0.0027214072 0.15065776 0.37634614 -0.21466766
0003c0 76 f6 c2 be 45 7f 90 3d ef 13 eb 3d 63 ec 80 3d
       -0.3807866 0.07055525 0.114784114 0.06295087
0003d0 01 92 34 be b2 44 09 3d bf a0 d2 be 70 1c 51 be
       -0.17633821 0.03351278 -0.41138265 -0.20421004
0003e0 32 2f a9 bd 4b 70 2a 3e 5b 58 a2 3e 41 32 9c bc
       -0.08260955 0.16644399 0.31708035 -0.019066932
0003f0 83 c0 d9 bb bb 5c 4d 3e d2 da a5 3d 67 ac 6a be
       -0.0066452636 0.20054905 0.08098377 -0.22917329

layer1.bias f4 [128]
000000 14 53 f2 bc 12 61 9d be 77 bf 38 bd 8c 44 fb ba
       -0.02958063 -0.3073812 -0.04510447 -0.0019170209
000010 18 ef 81 be 4c 09 9c bc cb 49 55 be 09 32 61 be
       -0.25377727 -0.019047402 -0.20828931 -0.21991743
000020 b8 2d 93 3e 42 0d 07 3e ec 64 c5 ba 5d f7 84 bd
       0.28745818 0.13188651 -0.0015059984 -0.06492493
000030 39 fb 8c be 56 4a b9 3d 7b 32 4b be 83 1d 0c 3d
       -0.27535418 0.090473816 -0.19843476 0.034207832
000040 21 d3 b5 be 17 29 95 3e 1d 89 66 be a8 85 0b 3e
       -0.3551264 0.29132912 -0.22513242 0.13625205
000050 0f 52 b5 3d af f6 4e 3e b2 d5 95 3e 28 66 68 3e
       0.08853542 0.2021129 0.292646 0.2269522
000060 2c 03 d5 bc f5 3a 93 3d 36 7e 63 be ed 6b b8 be
       -0.026002489 0.071889795 -0.22216114 -0.3601984
000070 88 c1 a3 3e 13 e4 d6 be f1 56 2b 3e a8 5f c8 bc
       0.3198359 -0.41970882 0.16732384 -0.024459675
000080 c9 9e 9b 3d 39 ec 7a be ff 52 8c be 66 fa b5 3e
       0.07598645 -0.24504174 -0.2740707 0.355426
000090 8d 25 71 3e 91 6f 3e 3d 44 ac 54 be b5 04 43 be
       0.2354948 0.046493117 -0.20768839 -0.19044764
0000a0 03 e1 02 bf 44 41 a0 bd ef 79 83 be f5 b7 57 be
       -0.5112459 -0.078249484 -0.25678965 -0.21066268
0000b0 c9 fc 69 be 6c dc b7 bd 99 f0 ed 3e 2a 79 c1 3e
       -0.22850336 -0.08977589 0.46472624 0.37787753
0000c0 36 ee 1c be e1 fc 65 bd e5 32 b9 be 64 04 bd be
       -0.15325245 -0.056149367 -0.36171642 -0.36917412
0000d0 bc 90 09 bd 30 8d 4e 3e 44 1b 27 3d 60 c2 08 be
       -0.033585295 0.20171046 0.040797487 -0.13355398
0000e0 e6 3d c4 3e 02 b1 ec bd 49 45 ab 3e 45 40 82 3e
       0.38328475 -0.11557199 0.33451298 0.2543966
0000f0 15 bb b6 3e ed b4 92 bd a7 90 c5 be 76 6a d6 be
       0.35689607 -0.07163415 -0.38586923 -0.41878098
000100 76 d7 9e be 78 9e ad 3e c0 44 a7 3d 38 fa 9e 3d
       -0.3102376 0.33909965 0.0816741 0.07762569
000110 44 e3 7f be 0a d0 a8 be 80 2a 1a 3e 9e cf ca bc
       -0.24989039 -0.3297122 0.15055275 -0.024757203
000120 52 7e b7 be 7e 5f c9 bd 4c 02 cc bd 9a de f3 bd
       -0.35838562 -0.09832667 -0.099613756 -0.11907692
000130 69 81 2b 3d 45 2d 23 3e ef 38 d1 be 54 5e 02 be
       0.041871462 0.15935238 -0.4086375 -0.12731296
000140 94 58 2c be 91 e3 63 3e 46 04 8c 3e 0e 9c 8e 3e
       -0.16830665 0.22254778 0.2734701 0.27853435
000150 e7 cc 88 3e 31 7a 24 3e 62 37 7e be f3 2e 89 3d
       0.26718828 0.16062237 -0.24825814 0.06698408
000160 93 36 8a be 58 31 b0 bd e1 20 9a 3d 3e 9a 7f 3e
       -0.26994762 -0.086031616 0.075258024 0.24961182
000170 43 cc 8b be 04 fa 8d be 3c 83 82 be 1c 74 19 be
       -0.27304277 -0.2772981 -0.2549075 -0.14985698
000180 db 69 3a 3d 74 26 8d 3e 36 37 93 3e c1 8f 55 bd
       0.045511108 0.275684 0.2875306 -0.052139048
000190 8f fd 09 be 1e 06 0c be d3 fa b9 bd 78 24 ce 3d
       -0.13475631 -0.13674209 -0.09081044 0.100655496
0001a0 18 e7 62 be 63 08 1b 3e 04 32 0f 3e cd 08 8d 3e
       -0.22158468 0.15139918 0.13983923 0.27545777
0001b0 8f 06 ad be d9 79 21 3e 1b 6d 91 be 88 a0 93 bd
       -0.33794066 0.15769137 -0.28403553 -0.07208353
0001c0 04 11 ad 3e 1b 78 5b 3e b4 08 bb bd a6 1c 4e 3e
       0.33802044 0.21432535 -0.09132519 0.20128116
0001d0 ca 09 b1 be 0c 38 96 3e c4 7a 8c 3e 63 88 05 be
       -0.3457778 0.29339635 0.27437413 -0.13040309
0001e0 54 10 0d bd 16 df 8a bd f1 38 68 be 89 e6 8d bd
       -0.0344394 -0.067808315 -0.22677971 -0.06928737
0001f0 c8 14 0e 3c ce 8c c3 be e6 fb 59 be f5 79 69 bb
       0.008671947 -0.38193363 -0.21287498 -0.003562567

layer2.weight f4 [128, 128]
000000 23 97 0e be 34 00 9f bd c4 09 46 3d bd 9b 95 3c
       -0.13924842 -0.077637106 0.048349157 0.018262738
000010 f5 b6 33 3e 69 a8 e7 bc 9a b3 80 bc 4b ea d3 3a
       0.17550261 -0.028278546 -0.01571064 0.0016167847
000020 c8 60 b6 bd 71 64 1d 3d bd 9a e0 bc 20 91 a8 bd
       -0.08905178 0.038425867 -0.027417535 -0.082308054
000030 f4 eb 94 bd 1b 6f b6 3a 2c e9 fb bd 0d db 46 bd
       -0.07271567 0.001391861 -0.123003334 -0.048548747
000040 6c 13 99 bd 6a 47 03 bd e1 5e 17 3c a9 b9 5d bd
       -0.074744076 -0.032050528 0.0092389295 -0.054132137
000050 42 52 f5 3d 2f 96 84 3d 05 bf 97 3d 3f b1 98 bd
       0.1197858 0.06473958 0.07409481 -0.07455682
000060 d7 2e 18 3d 1e 5c 99 3d 5c 16 c5 3c e9 02 05 be
       0.037154045 0.07488273 0.024058513 -0.12989391
000070 95 a5 22 be 1c ab b5 3d 2d 88 0c 3c 3f 83 c4 3d
       -0.15883477 0.08870527 0.008577389 0.09595346
000080 63 9f 85 3c 5f 84 cb 3d 4e 3a ac bd ac 20 ad 3d
       0.016311353 0.09937357 -0.08409558 0.08453497
000090 cb 9e 40 3d 97 c6 75 39 17 39 de 3d ef e8 cc 3d
       0.047026437 0.00023439001 0.10850733 0.10005366
0000a0 b1 b7 9d 3c 49 db c4 bd 0f e9 ae 3c 69 4d 94 3d
       0.01925263 -0.09612138 0.021351365 0.07241327
0000b0 13 f6 00 bb b3 61 9a bd d9 ee fb 3c 43 96 49 3d
       -0.0019677922 -0.07538166 0.03075354 0.049215566
0000c0 50 90 f8 3d 62 cf 87 3d 99 e7 d7 3c 43 a7 11 3d
       0.121369004 0.06631352 0.026355552 0.035559904
0000d0 cf 4b 8b 3c 05 1f c3 bd bb 96 25 3c 1b bb ef 3d
       0.017003922 -0.09527401 0.010106738 0.117056094
0000e0 01 ef 43 be c4 aa f8 3c 2c 3a bd 3d ba ae 13 3e
       -0.19134142 0.030354865 0.09239611 0.14422122
0000f0 27 25 35 be db 7d e1 ba 14 58 6b 3d 0c 35 e9 3d
       -0.17689954 -0.0017203646 0.057457045 0.11387071
000100 8d 41 64 3d ba f5 f9 bd c4 ba 43 bd 3d c2 fa 3b
       0.055726577 -0.12205072 -0.047785535 0.0076525495
000110 94 e8 18 3d 63 89 8f bc a6 ab 07 3d 64 dc 26 3d
       0.03733118 -0.017521566 0.03312268 0.040737525
000120 d7 91 8f 3d 8f 20 7a bd 83 44 8b bc b5 45 ca ba
       0.070102386 -0.061066207 -0.017000442 -0.0015432151
000130 ac f7 04 3d 23 58 03 bd 0d f3 18 3e be eb 5f 3d
       0.03246276 -0.032066476 0.14936467 0.05466818
000140 ef 27 4f 3d f2 e0 ca bd 39 30 ac 3d 4e df bb bd
       0.050575193 -0.09906186 0.08407635 -0.09173451
000150 0d ca 14 bd 2b ed 7c bc 19 06 82 3c 1a c3 d3 bc
       -0.036325503 -0.015437405 0.015872048 -0.025849868
000160 17 26 93 bd 87 65 63 bd 1e 4d a8 3d 19 2b 97 bd
       -0.071849994 -0.055516746 0.08217834 -0.07381267
000170 ae 81 c4 bc 97 6d 00 bd 9d a6 29 3d 52 22 e4 3d
       -0.023987617 -0.031354513 0.04141866 0.111393586
000180 11 82 81 bd 13 80 41 3d 06 fa 14 3d eb d4 af 3d
       -0.06323636 0.04724128 0.036371253 0.08585533
000190 fa 75 74 3e c7 9e a7 bd de 31 d6 3c d1 de 06 3e
       0.2387313 -0.08184581 0.026146825 0.13170935
0001a0 94 28 8a bd e1 75 0a 3d 7f 2a 79 3d fc b0 fb 3c
       -0.06746021 0.033803824 0.060831543 0.030724041
0001b0 ad 63 03 3d c0 36 9a bd 79 c8 ed bd 98 ee 9e 3c
       0.03207748 -0.07529974 -0.11610503 0.01940088
0001c0 9d 30 a4 3d 87 c4 90 bd 5e 7a 25 3e 4a 92 29 3e
       0.08017085 -0.070687346 0.1615996 0.16559711
0001d0 b2 65 4c bd a5 35 5d bc 0c 75 c8 3c fe 70 2c bd
       -0.04990167 -0.013501559 0.024469875 -0.042099945
0001e0 a4 b5 2d 3e 2c 93 6b 3c 9a 1d 67 bd 66 d7 bd bc
       0.16963822 0.01437835 -0.056424715 -0.023173999
0001f0 0e fe 9a bd 78 f4 96 bd 42 f1 89 bd 07 cf 27 bd
       -0.07567988 -0.073708475 -0.067354694 -0.04096892
000200 f3 04 94 3c 25 d8 b0 bb c6 22 11 3d 1f b4 37 3b
       0.018068766 -0.00539686 0.035433553 0.0028030945
000210 88 d4 2b 3d e0 d6 ff 3c 99 28 ab bc e9 6d 4e 3d
       0.041950732 0.03123039 -0.020893382 0.050397787
000220 32 be 89 bc 2b b1 4b 3c c2 44 9c 3d 99 60 f9 3c
       -0.016814325 0.012432377 0.07630302 0.03044157
000230 39 46 05 3d 82 0d 90 3d 34 36 78 3d d0 ea 8f 3d
       0.032537673 0.070338264 0.060598567 0.07027209
000240 00 6f 04 be f6 3f 19 bd 48 4f dc 3d 3e 6c d4 bd
       -0.12932968 -0.037414514 0.10757309 -0.10372208
000250 35 33 73 3d f5 92 9c 3b c4 32 cc 3d 88 b7 07 3d
       0.059375007 0.004778261 0.0997062 0.033134013
000260 b7 bb 17 bd 7e 51 01 3d 8a 2e a9 bd e7 21 6b 3d
       -0.037044253 0.031571858 -0.0826083 0.05740538
000270 29 49 96 3d c9 d8 8d 3d 5d 26 06 3c d6 9f d8 bd
       0.07338173 0.06926114 0.008187857 -0.10577361
000280 a6 8f 75 3c 4c bc f6 3c a3 12 44 b9 ed db 1f 3d
       0.014987862 0.030119084 -0.0001869896 0.039028097
000290 1a da 0b bd ff ac 61 3d fc 21 6f 3d 15 90 dd bd
       -0.034143545 0.055096623 0.05838202 -0.10818497
0002a0 5f f4 99 bd 42 ca 06 3c b5 a5 69 bc 46 80 a1 3d
       -0.07517313 0.008226933 -0.014260699 0.07885794
0002b0 84 0f 2d bd e9 c6 74 3d 6b 32 98 bd a6 94 0a be
       -0.042251125 0.059760008 -0.074314915 -0.13533267
0002c0 95 27 0f bd 1f 63 db bd 65 94 4e bb 1b 1d 55 bc
       -0.034949858 -0.10712265 -0.0031521556 -0.013007428
0002d0 21 ae db bd 86 c9 9f 3d 0a 69 e6 bd be f7 56 3d
       -0.10726572 0.078021094 -0.11250503 0.05248236
0002e0 dd db fe 3d db 1a dc 3b cc 04 c1 bd c4 e5 ae 3d
       0.12444279 0.0067170686 -0.09424743 0.08539918
0002f0 f8 70 89 bc 86 64 c1 3c c7 54 d0 bd 10 44 24 bd
       -0.0167775 0.023607504 -0.1017242 -0.040103972
000300 94 d1 48 bd 1e 73 ff ba 76 a7 d0 bc c3 91 38 bd
       -0.049027994 -0.0019489264 -0.025470477 -0.045060884
000310 d8 42 c6 3c 20 49 b6 3b e5 4e 82 3d 0d f2 e1 bc
       0.024201795 0.0055629164 0.06362704 -0.02758124
000320 b3 ec 2d bd 2d a9 11 3d c8 4c bc 3d 6a 6d 35 bd
       -0.042462062 0.03556173 0.09194332 -0.0442938
000330 b0 92 e3 bd 06 fd fd 3c 39 76 15 3d 24 5d 66 3c
       -0.11111963 0.03100444 0.0364897 0.014060292
000340 da 53 0f 3d 6e c2 da 3d 53 bc ae 3b b7 5f 60 3d
       0.034992076 0.10681616 0.0053325086 0.05477878
000350 61 5d e6 3d 76 89 ae bd 11 3c 6d 3d ea 45 bd 3d
       0.11248279 -0.08522312 0.057918612 0.09241851
000360 de e6 31 3e 81 d8 c6 bc 53 1e c8 bd 6b 7a 8d 3c
       0.17373225 -0.024273159 -0.09771409 0.017270287
000370 6d 10 93 bd e7 7a bc bd 30 4f d4 3d 57 d5 c9 3d
       -0.07180867 -0.09203129 0.10366666 0.098551445
000380 f1 e3 86 3c 2c 16 e1 3b de 2f 95 3d 4c d7 81 3d
       0.016466113 0.006869098 0.072845206 0.06339893
000390 bf 5a 73 3d a9 9b 9d 3b df 9d 58 bd 3e bc 32 3c
       0.059412714 0.004809816 -0.052884933 0.010909138
0003a0 02 f6 5f 3c 0f 10 e3 bd ba 2c a0 bd f3 af f5 3d
       0.013669493 -0.11087047 -0.07821031 0.1199645
0003b0 96 af bc 3d e5 e4 25 bd 5b 31 7f 3b 43 33 91 3c
       0.09213178 -0.040501494 0.003893933 0.017724639
0003c0 30 36 e1 3b 9c 11 af 3d a8 e2 a3 bd 88 1f b9 bb
       0.0068729147 0.085482806 -0.080022156 -0.005649511
0003d0 92 eb a8 bd 5f 8d 9e bc d7 de ea bc 20 00 46 3b
       -0.082480565 -0.01935452 -0.028670711 0.0030212477
0003e0 75 c3 d8 3b 45 5d 77 bd 6d 14 6d bc 2b 12 18 bd
       0.006615097 -0.060391683 -0.014470202 -0.0371267
0003f0 e5 95 f2 bc 54 a3 5c bd b7 5c d2 3d b3 cc 7c bd
       -0.02961249 -0.0538667 0.1027159 -0.061718654

layer2.bias f4 [128]
000000 b5 42 8b bd f7 08 5a bd 91 83 ee 3d 03 21 57 bd
       -0.06799833 -0.053231206 0.11646188 -0.052521717
000010 db 84 90 bd a4 0d 0d 3c e1 9e ce bd 4c 11 ba 3d
       -0.0705659 0.008609209 -0.100888975 0.0908533
000020 04 a9 8e bd cc de 85 bd da 2f ad 3d 85 8c 9c 3d
       -0.06965831 -0.06536636 0.084563926 0.076439895
000030 5f a6 70 bd d9 65 74 be 9c 3b 5c bd da 8c 6e 3d
       -0.058752414 -0.23866977 -0.053767785 0.058239795
000040 c3 c5 4b bd 71 b0 be 3d b1 cb 83 be 98 79 9a 3d
       -0.049749147 0.09310997 -0.25741342 0.075427234
000050 20 51 f3 3d db 8f 09 3d b2 12 15 3c e7 66 9b bd
       0.11880708 0.033584457 0.009098696 -0.075879864
000060 0b 5a 9b 3d c6 74 c1 bd 69 86 06 3e c8 43 17 bc
       0.07585534 -0.09446101 0.13137211 -0.009232469
000070 39 9f 06 3d 43 10 51 3d 3d 61 ea 3d 68 2d c2 bd
       0.03286669 0.0510409 0.11444328 -0.09481317
000080 7a 01 79 bd e7 f1 85 b8 62 a7 a0 3d d9 dd a7 3d
       -0.060792424 -6.386992e-05 0.07844426 0.08196611
000090 4e 45 0c 3d cf b2 81 3c 44 af 6f bd c0 36 b1 bd
       0.03424578 0.015832333 -0.058516756 -0.08653021
0000a0 d8 8d 89 bd 30 78 a3 3d 07 69 dd bd a4 81 31 bd
       -0.06716508 0.07981908 -0.10811048 -0.043336526
0000b0 d1 45 90 3d c2 97 a7 3d 37 a3 5e bd dc 1a a5 bd
       0.070445664 0.081832424 -0.054354873 -0.08061764
0000c0 7c 35 23 3e e9 06 c9 3d a8 28 43 bd 35 65 a9 3d
       0.15938371 0.09815771 -0.047646195 0.08271257
0000d0 e3 41 88 3d d1 bf b0 3d f8 f1 8a 3b 2d ac 18 be
       0.06653192 0.08630336 0.0042402707 -0.1490943
0000e0 a7 82 4b 3d ef e2 9e bd 49 b3 3d bd 22 11 5a bb
       0.049685147 -0.07758128 -0.046313558 -0.0033274372
0000f0 db 51 57 3d 65 a5 8d bc 41 65 b1 bd b5 30 20 3d
       0.052568298 -0.01729078 -0.08661891 0.03910895
000100 fc af 48 bd 93 c0 81 bd 96 6a 02 bd ec 6a 3c bd
       -0.048995957 -0.06335559 -0.03183993 -0.046000406
000110 1d d1 06 3d 65 02 ae 3c 28 f7 ef bd 24 fd 3d bc
       0.03291427 0.021241376 -0.11717063 -0.011595998
000120 4e c7 16 3e b8 bc fe 3d 44 44 83 3c ba be 8d bd
       0.14724466 0.12438339 0.016023763 -0.06921144
000130 d6 c9 ac 3a 0c a7 a1 bd 12 be 15 be df 2c 12 bd
       0.001318271 -0.0789319 -0.14623287 -0.035687324
000140 76 d5 81 3c 0b 49 06 bd 83 54 c5 3d b4 c4 f6 bc
       0.015848856 -0.032784503 0.0963526 -0.030123092
000150 31 e5 08 be 84 b8 97 bd cc e7 16 be 10 d6 5e be
       -0.1336868 -0.074082404 -0.14736861 -0.21761346
000160 af a6 71 bd b6 e1 13 bd 6e cc 8e bc 68 6a 03 3e
       -0.058996852 -0.036103927 -0.017431464 0.1283356
000170 9e bd 45 3d 48 e1 5a 3e 9d 2d 18 3e ef 4c 4c 3d
       0.048276536 0.21375 0.1486115 0.049878057
000180 ab 1a c8 bd 90 57 93 3c 11 c3 5a bd bc a2 58 3d
       -0.097707115 0.017986089 -0.053408686 0.05288957
000190 7a 33 10 bc f8 f0 fc 3d fa 76 5c 3b fd b3 3c 3c
       -0.0088013355 0.12350649 0.0033640251 0.011517522
0001a0 52 c0 cd 3d b9 bb 85 3d 59 e4 d8 3c e9 cc 3e bc
       0.10046448 0.06529946 0.026476072 -0.011645534
0001b0 e2 89 37 3e 8a 5d 89 bd f0 f3 9e bb 99 29 60 bc
       0.17923692 -0.06707294 -0.004850857 -0.013681793
0001c0 56 81 5c 3c 0b 29 36 3d a4 47 86 3c 56 c4 b9 bc
       0.01345857 0.044472735 0.016391583 -0.022676628
0001d0 ff a0 14 3e ca d9 62 bc fc d4 cc bd 6d c0 25 3d
       0.1451454 -0.01384587 -0.10001561 0.040466715
0001e0 29 44 18 bd ff 55 80 bd 3e b8 14 bd 4f a1 9b bd
       -0.037174378 -0.062664025 -0.03630852 -0.075991265
0001f0 04 1f 4c bd d8 50 ca bd 50 a8 2e bd 73 39 e6 bd
       -0.049834266 -0.09878701 -0.042640984 -0.11241426

layer3.weight f4 [128, 128]
000000 46 03 74 bd 22 db 54 3d 00 1d 34 3b 57 5f ed bd
       -0.059573434 0.051966794 0.0027483106 -0.1159045
000010 08 0c 10 bd 6a be 80 bd 9e af f2 bc 89 ab c5 3d
       -0.035167724 -0.062863186 -0.029624756 0.09651858
000020 3c e0 7c 3d 6d 67 78 3d 33 26 0f 3d f0 b3 3b 3d
       0.061737284 0.06064551 0.03494854 0.0458259
000030 63 ef d4 bd 09 97 10 bd 99 89 a6 3d bf 6c 00 3e
       -0.10397222 -0.03530029 0.081317134 0.12541483
000040 cd 8a 94 3d 0a 19 7d bc 22 41 1c 3e ac bb ff bc
       0.07253037 -0.015447864 0.15259221 -0.031217419
000050 44 ae a3 bb 2a 9c ab 3d e3 4e d1 bd 69 4f b7 bd
       -0.0049951393 0.08379395 -0.102201246 -0.08950693
000060 21 95 32 bd c8 5d a3 bd 06 3b 03 3d 5c 82 b1 bd
       -0.04359925 -0.07976872 0.03203871 -0.08667442
000070 62 30 66 bd 59 15 31 3d 4f 55 bc 3d 9a f8 26 3c
       -0.056198485 0.04323325 0.09195959 0.010191107
000080 a2 6f 6e 3d f8 f9 ba bc a1 ee b8 bc b5 01 23 bd
       0.05821193 -0.022824273 -0.022574725 -0.03979655
000090 db 57 63 bd 74 63 b3 3d 12 76 87 3d 22 fb 84 ba
       -0.055503707 0.087592036 0.06614317 -0.0010145644
0000a0 ba f8 99 bd 09 20 fa bb d7 8e 06 3c a5 b8 56 bd
       -0.07518144 -0.0076332134 0.008212767 -0.052422184
0000b0 43 fc 8c bd 30 55 da bc a1 f2 1b bc 8c 80 10 3d
       -0.068840526 -0.026651949 -0.009518296 0.03527884
0000c0 f5 36 d8 bc 57 14 f3 bc f9 50 fb 3c cb 21 3d 3c
       -0.026393393 -0.029672785 0.03067826 0.011543701
0000d0 7a a5 bc 3c 10 b8 0d 3d 61 36 aa bd b6 b6 00 3e
       0.023028124 0.034599364 -0.08311153 0.12569699
0000e0 9e 2a 9c bc 46 7c 5f bd 85 7e 32 bd ca ce 88 bd
       -0.01906329 -0.054561876 -0.04357769 -0.06680067
0000f0 b9 9a 35 3d 31 4f 7a bd 8b 82 8f 3d 0a 91 ff bd
       0.04433701 -0.06111068 0.07007321 -0.12478836
000100 d1 23 93 bd ce c2 fb bd 9b 32 d4 bb 05 d1 85 3c
       -0.07184566 -0.122930154 -0.006475759 0.01633502
000110 a6 68 86 bd 6d d9 aa bd 23 cc 2d bd 78 49 ad 3c
       -0.06562929 -0.08342252 -0.042431008 0.021153197
000120 89 f7 e3 3d 9b a1 1c 3d 42 c5 10 3d 80 ae b4 bc
       0.11131198 0.038240056 0.03534437 -0.022055864
000130 54 99 97 3d 4f 73 11 3d 7c 4a 3d bd a0 33 e4 bc
       0.07402292 0.035510357 -0.046213612 -0.027856648
000140 93 58 4c bd 32 c1 d1 bb 42 6c cf 3d 4a 4c 7a bd
       -0.04988916 -0.0064012045 0.101280704 -0.06110791
000150 14 0e 84 3d 3b 3d 73 bd b4 a6 be 3d f8 45 60 3d
       0.06447998 -0.059384566 0.0930914 0.054754227
000160 95 d6 ef bb 7a bd 5a bc 37 05 40 3d 46 a6 c9 3d
       -0.0073192813 -0.013350839 0.046879973 0.09846167
000170 c0 e7 77 3d 4a 06 b5 39 92 d0 be 3d c6 5e aa 3b
       0.06052375 0.00034527696 0.093171254 0.005199286
000180 c5 2c 98 3d 0b b7 7e 3c 19 36 3d bd 8f dd d3 bc
       0.07430414 0.0155465705 -0.04619417 -0.025862483
000190 e1 7d c7 3c 8b bf 35 3d ad 1a fe bd 06 71 9b 3c
       0.024352016 0.044372123 -0.12407432 0.018974792
0001a0 9b 94 a5 3b d5 7f b7 3d e8 a2 88 3c 0d 33 80 bc
       0.0050531155 0.08959929 0.016679242 -0.015649343
0001b0 4c cc e1 3c 40 00 98 3c 38 31 68 bd ff 6a 8a bd
       0.027563237 0.018554807 -0.056687564 -0.06758689
0001c0 7a 0b 22 3d 41 57 8c 3d 3e 69 69 3d 7b 70 c1 3c
       0.039561726 0.0685258 0.056985132 0.023613205
0001d0 a2 94 84 3d 5d 5d 66 bd 99 df b6 3d 62 78 25 bd
       0.06473662 -0.056241382 0.089293666 -0.04039801
0001e0 f1 c1 39 3d 9f a1 55 3b 59 5e c6 bd af d3 cc bb
       0.045350973 0.0032597554 -0.09685964 -0.0062508206
0001f0 e7 92 c9 3b d8 eb 0e 3d 34 04 e6 bb bd ae a1 bb
       0.0061515453 0.034892887 -0.007019544 -0.0049341605
000200 9d 44 4f 3d 7b bc b1 3c 28 e5 ea 3b b8 e0 02 3d
       0.050602544 0.02169632 0.007168431 0.03195259
000210 28 ca b8 bc b8 af 80 bc 9a 9e 50 bd 40 1b cd 3b
       -0.022557333 -0.01570879 -0.050932504 0.006259352
000220 cd 4d 84 3d ee 13 4f bd 91 8a bd bd be 67 1f bc
       0.06460152 -0.050556116 -0.09254945 -0.009729324
000230 71 a6 87 bd e1 af bd bc ba ad 0b bd 89 c5 55 3d
       -0.06623543 -0.023155155 -0.034101225 0.052190337
000240 6a d5 32 3d 4e 42 7f bd f7 e2 b5 bd 8b ee 86 bd
       0.04366056 -0.062319092 -0.08881181 -0.06588467
000250 e5 f2 3a 3d aa ca 2a bd d6 8f 92 3c 24 af 5a 3c
       0.0456418 -0.04169718 0.017890852 0.013347421
000260 9d 0b 59 3b a1 e9 8e bd 4e ef a5 bb f4 d0 74 3d
       0.0033118494 -0.06978155 -0.0050639277 0.059769586
000270 70 6c 43 3d aa fb 15 3d 71 42 4a 3d dc 64 84 bd
       0.047710836 0.03661696 0.04937977 -0.0646455
000280 89 ed ad 3d b9 57 f4 3d f9 c9 32 3d f2 90 d5 3b
       0.08492572 0.11930794 0.043649647 0.006517523
000290 7a ac 1e 3d 43 4d b8 bc 73 86 58 bc 49 82 25 3d
       0.038738705 -0.022497779 -0.013215649 0.040407453
0002a0 16 39 e3 bd 50 b5 c6 bd 0e 1f 6a 3d 1c cd 01 3e
       -0.11094873 -0.09702551 0.057158522 0.126759
0002b0 4f 2c 74 3d 27 7a 15 3d 2b a8 c2 bc 25 f8 ab bd
       0.05961257 0.036493447 -0.02376183 -0.08396939
0002c0 58 d6 46 3d 36 7e b7 3c d8 3e c0 bd 5b 60 60 bd
       0.048544258 0.02239905 -0.093869865 -0.05477939
0002d0 3c 2d d4 bc 16 a0 89 3d c1 20 81 3d ff 58 9f bd
       -0.025900476 0.06719987 0.063050754 -0.077806465
0002e0 a6 e9 29 3d fa 88 23 bc 17 3c aa 3d 39 ea 5a bd
       0.04148259 -0.009981388 0.083122425 -0.05344603
0002f0 50 a7 bf bc ad b0 90 3d eb 7f d8 bc 47 e2 c1 bd
       -0.02339521 0.07064948 -0.026428184 -0.09466987
000300 08 5c 49 bc 42 b7 94 3d cc a4 96 bd f3 a0 3f 3d
       -0.012290008 0.07261516 -0.07355651 0.046784353
000310 54 6c dc 3d 11 81 ae 3d 58 d7 78 3c 85 c3 f9 bd
       0.107628495 0.08520711 0.015188061 -0.121954955
000320 86 bd 90 bd 18 c0 6c 3b b3 48 67 3c fc 7e 61 bc
       -0.07067399 0.003612524 0.014116454 -0.013763186
000330 b3 80 22 bc 4f 1d 1c bd a0 3f 7f bd 61 d9 94 bb
       -0.00991838 -0.03811389 -0.062316537 -0.004542515
000340 7b 14 0c 3e 58 1c 51 3d b0 79 29 be cc cf b1 bd
       0.13679688 0.05105242 -0.16550326 -0.08682212
000350 68 75 45 3d bc 86 f7 3c 1f 3a 31 bd ac 48 ff bc
       0.04820767 0.030215614 -0.04326832 -0.031162582
000360 99 5c 0f bd a6 ee 8d bd a5 55 09 3c c3 fe 66 3d
       -0.035000417 -0.06930284 0.008382236 0.056395303
000370 8b 37 9c bc 9c d7 80 bd be c2 82 3c c4 af 6c bd
       -0.019069454 -0.06291124 0.015962001 -0.05778481
000380 6b de da 3d 7e 1c 07 3d ec 00 a8 bd a6 b9 d5 bd
       0.10686954 0.032986157 -0.08203301 -0.104358
000390 ee c1 c0 bd 45 cb 00 be 04 58 9d bb 45 83 62 bd
       -0.09411989 -0.12577541 -0.004801752 -0.05530097
0003a0 74 b3 61 bd 51 cb 88 bd 23 7d 9c bc 68 8c 2f bc
       -0.05510278 -0.066794045 -0.019102639 -0.010714628
0003b0 06 43 5e 3d ab 96 2d bd bc 8e f9 bc 1e f7 4f be
       0.054263137 -0.042380016 -0.030463569 -0.20309111
0003c0 a9 22 a8 3d 72 73 80 3d b7 59 e9 bc c8 35 0c 3d
       0.08209736 0.062720194 -0.028485162 0.034230977
0003d0 1a d8 e1 3c 63 46 f2 3d 7d b3 92 bc 9c c3 89 bd
       0.027568866 0.118298315 -0.017907852 -0.06726763
0003e0 24 da 0a bd 97 dd 75 bd ee c1 8f 3d 9f 9a cd bb
       -0.03389944 -0.060025778 0.07019411 -0.006274536
0003f0 61 25 99 3c 79 9e 14 3d 35 c6 23 3c 3a 92 81 3d
       0.018694581 0.036283944 0.009995987 0.06326719

layer3.bias f4 [128]
000000 ab 93 4a 3e e5 63 82 bd f9 a9 a9 3c 3f 56 7e bb
       0.19782893 -0.063667096 0.020710932 -0.003880873
000010 4e 66 2a bd e1 7d 2a 3e a3 3a 45 bd 7d 95 bd 3d
       -0.04160147 0.16649581 -0.048151623 0.09257028
000020 a7 70 73 3d 70 57 dd bd 4e a0 cc bd 90 05 49 bc
       0.059433606 -0.10807693 -0.09991513 -0.012269393
000030 0d 92 09 be c8 94 16 3d 6d ff 00 3e 7c d1 2e bd
       -0.1343462 0.036762983 0.12597437 -0.04268025
000040 f5 20 a3 bd 66 ea a7 bd ec 5d 8c 3d de f8 b7 bb
       -0.079652704 -0.08199005 0.06853852 -0.005614384
000050 e2 5d d2 bc 09 2b 9a bd fa 19 0f 3e 4e aa e1 bd
       -0.025679532 -0.075277396 0.13974753 -0.11018811
000060 a2 3a b7 3d ab 18 19 be 99 ba 20 bd 62 ae 82 3e
       0.0894673 -0.14950816 -0.039240453 0.2552367
000070 56 d5 3f 3e c4 ee 40 be 5b 5c 92 3d 06 42 6c 3e
       0.18733725 -0.18841082 0.07146522 0.23072061
000080 98 63 86 bd 19 d2 0f bd 34 30 69 bd 52 35 b4 bc
       -0.06561965 -0.035112474 -0.056930736 -0.021998081
000090 c4 15 69 bd ba ca 01 3e 3f 16 52 bd 77 b3 92 3d
       -0.056905523 0.1267499 -0.051290747 0.071631365
0000a0 ee 80 75 bc 0e db 2c 3d 94 b7 74 bd 5a b3 1d 3e
       -0.0149843525 0.042201094 -0.059745386 0.15400448
0000b0 1f f2 a6 bd 24 0e 0b bc 4b 65 07 3e 92 7d 62 3d
       -0.0815165 -0.008487258 0.13222234 0.055295534
0000c0 07 7a 68 3d a4 0b df bc 57 7b b9 3d 6c fc aa 3d
       0.056757 -0.02722723 0.09056728 0.08348927
0000d0 76 b8 a6 3d 8b 32 55 bd 4d ee ee 3d 3e ed 88 bd
       0.08140652 -0.052050155 0.11666546 -0.06685875
0000e0 ff 56 2e be 9f ea d0 bc 58 57 1c 3e f4 4f 99 3b
       -0.17025374 -0.025502501 0.15267694 0.0046787206
0000f0 f1 d9 ed bd 05 bd f1 3d 0c 1a 0c 3d 21 5d 13 bd
       -0.11613835 0.11803631 0.034204528 -0.035977487
000100 7d f8 d6 bc 91 f3 3d 3e cb 2e 5b 3e ec 1e a5 bd
       -0.026241535 0.18549944 0.21404569 -0.080625385
000110 a0 7f d8 3b b0 cb 02 3e aa 8c 9b 3d 6e 55 78 bd
       0.006607011 0.12773013 0.07595189 -0.060628347
000120 c6 ea 27 bc d6 f8 3e 3e 17 f6 90 bd 8d ce d2 bd
       -0.010248845 0.18649611 -0.07078188 -0.10293303
000130 a5 0e 37 3d b2 f9 ad 3d 45 86 24 3d 58 d0 7a 3d
       0.0446917 0.08494891 0.040167112 0.06123385
000140 ee aa c3 b9 95 18 3c 3d 70 05 03 bd ce 5b b3 bc
       -0.0003732065 0.04592188 -0.031987607 -0.021894362
000150 63 cc 04 bd 9e a6 ca 3d 6e 09 8d 3e 6b f7 82 bd
       -0.03242148 0.09895061 0.27546257 -0.063948475
000160 cf 71 1d 3d 77 1d d3 bc 55 da 13 3e b6 05 78 3d
       0.038438614 -0.025770886 0.14438756 0.06055232
000170 23 85 11 3c b4 ac 9a 3d 61 3e 42 be 09 dd 6a bd
       0.00888184 0.07552472 -0.18969108 -0.0573397
000180 9e c3 55 bd ef 00 cb bd 6b ea 59 bd b4 bf e3 bd
       -0.05218851 -0.099122874 -0.053202074 -0.11120549
000190 99 c6 4b bd 7f 44 0d 3d fe 7b 8b 3d 46 fc e5 bd
       -0.049749944 0.03448915 0.06810759 -0.11229758
0001a0 1c 3c 07 3e 4a 28 06 3e c7 9b 18 3e 47 66 ac bd
       0.13206524 0.13101307 0.14903174 -0.08417945
0001b0 5f 1b 2c bd 9b e3 99 bd 5e b6 02 3d c7 67 ff bd
       -0.04201829 -0.075141154 0.0319122 -0.12470966
0001c0 92 65 59 be 34 fb c9 bd 06 f9 31 bd d1 f1 ef bd
       -0.21230152 -0.09862366 -0.043450378 -0.11716045
0001d0 b8 50 15 be b7 be 03 3c da 29 7a 3c e3 53 85 bd
       -0.14581573 0.008041075 0.015268767 -0.06510141
0001e0 7f b2 8a 3d 9b 0c 87 bb 0a be 90 bc ed b8 3d 3d
       0.06772327 -0.0041213757 -0.017668743 0.046318937
0001f0 a1 c0 3b bd a3 da 1d bc 17 5a 5d ba d4 6a 30 3e
       -0.045838002 -0.009634647 -0.00084439054 0.17228252

layer4.weight f4 [128, 128]
000000 a6 40 90 bd 9a 4b b2 3d 80 80 6c 3d b2 a2 5d 3d
       -0.07043581 0.08705826 0.057739735 0.054110236
000010 8c d4 8f 3c bb b3 a2 bd 84 7a 9a bd f7 80 b3 bd
       0.017557405 -0.07944437 -0.07542899 -0.087648325
000020 93 b5 3e 3c c7 d1 1f 3d ff d3 55 bd e4 60 b5 ba
       0.01163997 0.03901842 -0.05220413 -0.001383808
000030 61 3f 1e bd cd 71 a2 39 e9 96 3f bc 96 fc 61 bd
       -0.03863466 0.00030983836 -0.011693695 -0.055172525
000040 b0 61 17 3d 20 fd 00 3c f1 e4 ca 3b ac 6d c9 3c
       0.036958396 0.00787285 0.0061918427 0.024588428
000050 6c 47 64 3c ca 3a 1b bd 26 41 b7 bc b6 d4 7e bd
       0.013933044 -0.037897862 -0.022369932 -0.062214576
000060 1c 7b 87 3c 7c 47 9f 3a 35 1a 76 3d b1 e2 3b bd
       0.016538195 0.0012152041 0.060083587 -0.045870487
000070 ce 73 00 3d ef b3 89 3d 00 44 63 bd 2b 76 5e 3d
       0.03136044 0.06723773 -0.05548477 0.054311913
000080 28 0b b7 bb 86 66 0f bd 8d 56 07 bd 3f 20 1d bd
       -0.0055860467 -0.035009883 -0.033041526 -0.03836083
000090 81 72 1c bd fb ae 9d 3d 87 a7 62 bd b6 ad cd 3c
       -0.038195137 0.076993905 -0.055335548 0.025107246
0000a0 a5 79 02 bd 93 98 ca 3c b5 45 7e bd c2 fc 9f bd
       -0.03185429 0.024730956 -0.062078197 -0.078118816
0000b0 30 f5 ad 3d 0c 3f 0a bd a4 91 96 3c e9 f6 4c 3d
       0.084940314 -0.033751532 0.018379994 0.05004016
0000c0 77 31 95 3c a6 74 1f b9 a6 06 5a 3c 63 27 1a 3c
       0.018212063 -0.00015206877 0.013307249 0.009408805
0000d0 f0 cb 9d bd db 4d a7 bd 95 66 36 3d a9 51 42 3d
       -0.077049136 -0.081691466 0.044531424 0.04744116
0000e0 a0 d3 05 bd 85 38 3a bd 25 d2 a7 3d 19 b7 bd bc
       -0.032672524 -0.045464057 0.08194379 -0.023158597
0000f0 18 c6 37 bd 75 d8 85 bc 69 9e 37 bd b5 4d 1d bb
       -0.04486665 -0.016338566 -0.044828806 -0.0024002616
000100 a5 f3 aa bd d6 a2 5a bd 4a 37 ae ba 22 9a 2d 3b
       -0.08347253 -0.05337795 -0.0013291624 0.0026489575
000110 b6 ff c0 3c c3 83 97 3d 90 69 66 bd 75 d2 ed 3c
       0.023559432 0.073981784 -0.056253016 0.029031018
000120 13 9b 52 bd b5 05 82 bb a5 7a 49 3b c5 95 9d bd
       -0.05141742 -0.0039679655 0.0030743268 -0.07694582
000130 00 c0 e6 3c 41 d6 18 bd 90 d3 a8 bd fc 5e c9 3b
       0.028167725 -0.037313703 -0.08243477 0.006145356
000140 2e 00 b8 3c 04 a3 c9 3b ee d5 97 bc ca 19 65 3d
       0.022461023 0.006153466 -0.018534627 0.055932797
000150 d8 d2 12 3d 64 bb 8e bd d3 8f 7f 3d 1e 94 8e bd
       0.035845608 -0.06969336 0.06239302 -0.06961845
000160 75 48 98 3d c0 f3 b0 bd d2 9d 7e 3d 67 7c 12 3d
       0.07435695 -0.086402416 0.062162228 0.03576317
000170 8c e7 8b bd 2e b1 85 3c 34 6c 56 3d 91 2f 20 bd
       -0.068312734 0.016319837 0.052349284 -0.039107863
000180 fd ca a3 3d 33 72 05 3d 4f 95 25 bb df 46 39 3d
       0.07997701 0.032579612 -0.0025265997 0.045233604
000190 12 32 cd 3c bc 39 b0 3d be 57 cd bb 1f 10 9d bd
       0.02504829 0.08604762 -0.006266563 -0.076690905
0001a0 74 66 8b bd f5 69 28 3c 92 68 30 3d c6 42 9d bd
       -0.06806651 0.010279168 0.043068476 -0.07678752
0001b0 99 21 8f bb 95 da 14 3d 45 e7 9f bc 6f 5c 2e bd
       -0.004368019 0.03634127 -0.019519458 -0.04256862
0001c0 f2 e8 0b 3d b2 90 af 3c ef 38 62 3d a7 53 82 bd
       0.0341577 0.0214313 0.055230077 -0.06363612
0001d0 bf 2e 22 bc 51 f3 94 bd 34 74 da bc ae 1b 68 3c
       -0.00989884 -0.072729714 -0.026666738 0.014166756
0001e0 74 59 ab bc b2 13 19 3d 54 ab 6d 3d da a6 b6 bd
       -0.020916678 0.0373723 0.05802472 -0.08918543
0001f0 29 24 80 bd a0 97 b0 bd 60 f5 7a bd f7 c9 1c 3c
       -0.06256897 -0.0862267 -0.061269164 0.009569637
000200 95 a0 3e 3d 43 22 86 bd be 61 de 3c ab 9a 8f bd
       0.04653986 -0.06549504 0.027146216 -0.070119224
000210 eb bb 51 3e a5 54 11 3d 68 57 90 bb 87 15 8b 3d
       0.20481841 0.035481114 -0.004404951 0.067912154
000220 26 83 00 3e 5c 2f e9 3d f3 f1 32 bd c1 4f 63 bd
       0.12550029 0.11385986 -0.043687772 -0.05549598
000230 37 f8 cb bd 33 c2 02 be 6e 94 d0 3d 6b 43 e9 bd
       -0.099594526 -0.12769394 0.10184561 -0.11389812
000240 88 ba 19 be 60 f2 f5 3b a9 b8 74 bd ee a7 fb 3d
       -0.15012562 0.0075057 -0.05974642 0.122878894
000250 1b 9a 1d bd b8 a4 16 bc aa 11 e0 3d e9 33 29 3d
       -0.038477045 -0.009194545 0.10940869 0.04130927
000260 c2 c3 d3 bd f7 2f 5f bc 74 c5 bf bd ec 56 9d bd
       -0.10340072 -0.013622276 -0.09363833 -0.07682595
000270 af 6b 8f 3d cf 14 be 3d 29 f8 28 bd e3 3f 47 be
       0.07002961 0.09281313 -0.04125229 -0.19457965
000280 84 2b 3b be 04 75 0f be b6 bc ba bd da ac d7 3d
       -0.18278319 -0.14009482 -0.09118025 0.10531016
000290 fa 63 66 bd 45 88 67 3c 4b 95 b8 3d b1 ed 40 bd
       -0.05624769 0.01413161 0.090128504 -0.04710168
0002a0 09 a0 23 3e 2a c9 28 3d 31 1c 70 bc 0f 77 e7 3d
       0.15979017 0.04120747 -0.014655159 0.113020055
0002b0 e2 2f 9b 3d b3 cf 66 bd 52 d9 56 3c 14 21 34 bd
       0.07577492 -0.05635042 0.013113337 -0.04397686
0002c0 2a 6f c5 3d 1f c6 a7 3d 66 84 29 bd 61 5c 14 3b
       0.096403435 0.081920855 -0.04138603 0.002263807
0002d0 7c 5f 17 be 86 1f 62 bb b0 3d 9e 3d 9d 84 09 3e
       -0.14782518 -0.0034503653 0.0772661 0.13429494
0002e0 b0 84 60 be 67 94 84 3c a3 62 2e be 93 3b 16 bd
       -0.21925616 0.016184045 -0.17029814 -0.03667791
0002f0 b7 df bd 3d 68 c2 bd 39 6b 87 25 3d 5a 95 d4 bc
       0.09271186 0.00036193733 0.040412348 -0.025950123
000300 2d ce b8 bd c7 1f cb 3c 4a e0 9a bd 62 9c 28 bd
       -0.090237 0.024795426 -0.07562311 -0.041164763
000310 f5 88 80 3d ec fd 3e bc 8b 43 1a 3d a1 1e c3 bd
       0.062761225 -0.011657219 0.03766207 -0.095273264
000320 31 28 05 3e 05 eb 5a be da 3f 2c 3d 20 b1 ed 3c
       0.13003613 -0.21378715 0.04205308 0.029015124
000330 46 85 cd bd 84 fc f2 3d d7 e3 bf 3d 57 a4 80 bd
       -0.100351855 0.1186457 0.09369629 -0.06281345
000340 bc 74 a8 bc 0b 2a b9 3d b1 2a aa bd ca f7 82 3d
       -0.020563476 0.09041222 -0.08308924 0.06394918
000350 18 13 5c 3d da ba 85 3d ee ff 8a 3d a2 f9 cd bc
       0.053729147 0.0652978 0.06787096 -0.025143448
000360 6c df 39 3e de 0f 34 3d de e4 07 bc ed fc d7 bd
       0.18151635 0.043960445 -0.008294312 -0.10546289
000370 39 4b 20 3d e8 c8 5a bd f1 90 7e be 6c 7e 46 bd
       0.039134238 -0.053414255 -0.24859978 -0.04846041
000380 ad e0 fd ba 2c c0 5d bd 25 2d e3 3d c8 b5 01 be
       -0.0019369327 -0.054138348 0.11092595 -0.12667
000390 fd 06 83 bc cd 29 09 3d fa 48 6e bc 1d e1 9e 3c
       -0.015994543 0.03348713 -0.014543766 0.019394452
0003a0 c2 63 37 3d a6 95 91 bd 35 21 a1 3d 79 82 99 be
       0.04477287 -0.07108621 0.07867662 -0.29982355
0003b0 44 bf 2c be d4 32 9c bd 3c b6 21 be dc 44 1a be
       -0.16869837 -0.07626882 -0.15792173 -0.1506533
0003c0 32 0f 25 3e e1 21 43 3d e8 9c ea 3d 1c 06 a3 bd
       0.16119078 0.04763973 0.11455709 -0.0796015
0003d0 72 1b 73 bd 2f 98 69 be a2 48 0c 3d cb f7 e1 3c
       -0.059352346 -0.2281196 0.034248956 0.027583977
0003e0 b4 ff 91 3c d2 a8 1f be 89 7e 85 bd ce 29 05 3e
       0.017822124 -0.15591744 -0.06518275 0.13004228
0003f0 42 8f c7 bd e3 2c 73 bc 3d 18 8d 3d f5 a1 92 3d
       -0.09744121 -0.014842245 0.06889389 0.07159797

layer4.bias f4 [128]
000000 8f b9 89 bd cc 91 2e 3e 32 73 f8 3d 66 5b a2 3c
       -0.067248456 0.17047805 0.12131347 0.019818973
000010 38 b8 23 bc 83 fd f9 bb 40 c5 94 3d 02 a4 a3 bd
       -0.009992652 -0.007629098 0.07264185 -0.079902664
000020 cb 59 73 3d 55 93 a8 3c 4d a8 a3 bd 1a 5b aa 3d
       0.059411805 0.020578066 -0.07991085 0.083181575
000030 31 b8 0a 3d 6a 77 c1 3d 29 96 0f 3d e7 03 83 3c
       0.033867065 0.094466045 0.035055313 0.015993072
000040 e4 9e d2 3d 93 9d 86 bd 94 a2 60 3d 61 3f 27 3d
       0.10284212 -0.06573024 0.054842547 0.040831927
000050 d2 9b 5f bd a9 00 3e bd a9 d5 c4 3b 5b da 84 bd
       -0.05459196 -0.04638735 0.0060069156 -0.064869605
000060 c8 3f 06 be a5 84 19 be 39 e7 7e 3a e9 67 8c bd
       -0.13110268 -0.14992006 0.0009723786 -0.06855757
000070 e4 77 5f 3d cb b6 74 be 77 46 9c bd 9d bf 9f bd
       0.054557696 -0.23897855 -0.076306276 -0.07800219
000080 cd 97 78 bc 50 00 3d 3e f6 03 dc 3d 07 23 28 bc
       -0.015172911 0.1845715 0.10742943 -0.010262257
000090 b6 55 1c 3e 2a 3f 68 3d 8a d6 13 be 45 54 af 3d
       0.15267071 0.056700863 -0.14437309 0.08560995
0000a0 6b 05 87 3c 38 99 a6 3d f0 4c 05 be 69 a9 98 3e
       0.016482076 0.08134693 -0.1301763 0.2981675
0000b0 f7 a4 02 be bb 53 25 3d f7 b3 93 bd 85 e1 97 bd
       -0.12758242 0.040363055 -0.0721206 -0.07416061
0000c0 24 c7 56 3e 17 a1 1c be f1 6a 62 bc f6 9f 8d 3d
       0.20974404 -0.15295826 -0.013819442 0.06915276
0000d0 71 9a c7 3a 4c 78 65 3e ce be 16 bd 0a 29 a3 bd
       0.0015228522 0.22409171 -0.03680306 -0.07966812
0000e0 54 a2 59 bd 11 ba 94 3d 9f 6b 8f bc c9 b3 d9 3c
       -0.053133324 0.07262052 -0.017507372 0.026574986
0000f0 cb f5 fa 3c eb 10 3d bd 41 6e dc 3c 55 fa 02 bd
       0.030634781 -0.046158712 0.026908042 -0.031977016
000100 12 53 ff 3d 19 7d 0c bd 29 94 de 3c 32 af 16 3d
       0.12467016 -0.03429899 0.027170258 0.036788173
000110 b7 75 38 3e 1d 06 33 3c 3c f3 84 bd 0a 7c 03 3e
       0.18013655 0.0109267505 -0.06491706 0.12840286
000120 8b 8b df 3c 0a 18 ad bd 24 a0 14 bd 26 f2 07 bd
       0.027288219 -0.08451851 -0.036285535 -0.033189915
000130 fd 10 39 3e 50 a9 82 bd fa 63 21 be d9 0c 49 3e
       0.18072887 -0.0637995 -0.15760794 0.19633807
000140 c5 ed 8e bd 48 67 af bd 60 40 b5 3d ca 1d 73 bc
       -0.06978945 -0.08564621 0.08850169 -0.014838645
000150 12 df e5 3c c0 cc 63 3d 23 91 db 3d fe ac f7 3b
       0.02806047 0.055615187 0.10721042 0.007558464
000160 92 24 b3 3c 3d 59 2a bd e5 5e 7f bd ff 7a 2a bd
       0.021868024 -0.04158901 -0.062346358 -0.041621204
000170 e7 32 46 3d 34 39 76 bd e9 f5 35 bd a9 e8 9b 3d
       0.048388388 -0.060113147 -0.04442397 0.07612736
000180 c7 1e ae 3d e3 f7 b6 3c a9 9b 47 bd d4 b9 bc 3d
       0.08501964 0.022334998 -0.048732433 0.092151314
000190 12 99 60 3d f8 7e 3e 3c 7b a4 58 3d ee fa 91 bd
       0.05483348 0.011626951 0.052891236 -0.07127939
0001a0 fb 7b 9b 3d 23 be a7 bc 87 8a 05 bc a0 a4 eb 3c
       0.07592007 -0.020476406 -0.008150703 0.028765023
0001b0 85 f9 5b 3d ae 9a 44 3b ee 4a 74 3d 23 a7 3b be
       0.053704757 0.0029999423 0.05964177 -0.18325476
0001c0 e2 2d f3 3c ab e4 df 3d 2a bd 28 3d 9f 89 7d bd
       0.029684965 0.10932287 0.041196026 -0.061898824
0001d0 ce 04 9a 3b 4a 94 87 3c 7e 54 67 bc 7b 38 90 3c
       0.00470028 0.016550202 -0.014119266 0.017605057
0001e0 ea 5e 9e bd 0b f3 ee 3b 0b 2d 95 3d 32 02 ce bc
       -0.07732947 0.0072921566 0.07283982 -0.025147531
0001f0 ea d2 ac 3d ce 86 60 bd 3f 4b 18 3e c9 b3 02 bd
       0.08438666 -0.05481606 0.14872454 -0.031909738

input_norm.weight f4 [8]
000000 89 1f 92 3f cb 82 48 3f 34 aa 0f 3f aa 50 83 3f
       1.1415874 0.78324574 0.56119084 1.0258992
000010 92 f0 57 3f 82 d8 23 3f 26 40 c0 3f 1b 9c 4d 3f
       0.84351456 0.6400224 1.5019577 0.80316323

input_norm.bias f4 [8]
000000 fb 6a 62 3e b0 fc 09 3e 8a cb f8 3d 28 65 02 3e
       0.22111122 0.13475299 0.12148197 0.127339
000010 c8 36 15 3e ef 8a 5b 3d 0c ef 13 be 67 f8 33 3e
       0.14571679 0.053599294 -0.14446658 0.17575227

input_norm.running_mean f4 [8]
000000 ad 2a 5b 40 c8 b9 6f 3d 8c f8 61 be eb de 58 40
       3.4244797 0.058526784 -0.2206747 3.3886058
000010 fb ae 2c 3d bc 30 36 3c 6b 6a 0f be 4c 83 8b 3e
       0.042159062 0.011120018 -0.14005439 0.2724861

input_norm.running_var f4 [8]
000000 a9 c8 8e 40 3d 3b 74 3b b5 71 e9 3e 2d 04 3c 41
       4.4619946 0.0037266754 0.45594564 11.7510195
000010 5a 9e b1 3d 8a 81 c6 3a 11 f8 52 3f 42 c8 4a 3e
       0.08672781 0.0015144807 0.8240977 0.19802955

norm.weight f4 [128]
000000 99 8b 4f 3f 70 7d 82 3f 88 10 72 3f 75 39 4f 3f
       0.81072384 1.019453 0.94556475 0.8094705
000010 c8 80 49 3f 25 dc 59 3f 99 48 53 3f d7 de 84 3f
       0.7871213 0.8510154 0.8253265 1.0380505
000020 4e 9a 5d 3f b9 95 67 3f e6 76 78 3f d7 e2 64 3f
       0.86563575 0.90462834 0.97056425 0.8940863
000030 85 de 4e 3f 52 dc 5e 3f d0 63 4f 3f c0 de 6d 3f
       0.8080829 0.8705493 0.81011677 0.92918015
000040 13 0d 52 3f 6b ba 60 3f 15 bb 6c 3f 70 53 58 3f
       0.820512 0.8778445 0.92472965 0.84502316
000050 6d f7 5a 3f 51 a2 56 3f 72 73 5d 3f e5 a8 52 3f
       0.8553379 0.83841425 0.8650428 0.8228896
000060 3b 49 58 3f f0 e4 6b 3f ed 57 58 3f 08 4a 53 3f
       0.8448674 0.92146206 0.84509164 0.8253484
000070 06 de 4b 3f 15 f0 83 3f fb 28 67 3f c7 48 67 3f
       0.79635656 1.0307642 0.90296906 0.90345424
000080 f9 2d 55 3f a8 7f 5b 3f ff 7c 56 3f af 5e 6c 3f
       0.83273274 0.8574166 0.8378448 0.92331976
000090 93 1b 65 3f 65 d8 5a 3f 22 30 66 3f 94 82 5f 3f
       0.894952 0.8548644 0.89917195 0.8730862
0000a0 a4 3f 6c 3f 52 60 7a 3f c7 de 6b 3f 00 b5 97 3f
       0.9228461 0.97803223 0.92136806 1.1852112
0000b0 6b ca 5b 3f a6 ca 74 3f 4b db 62 3f 4c 2a 50 3f
       0.8585574 0.95621717 0.88615865 0.8131454
0000c0 f1 35 7b 3f 4b ed 62 3f 43 d1 65 3f 23 25 5c 3f
       0.98129183 0.8864333 0.89772433 0.85994166
0000d0 5d a0 4b 3f 31 44 75 3f f6 f6 5b 3f 1e 8d 62 3f
       0.7954157 0.95807177 0.8592371 0.8849658
0000e0 1d ba 5c 3f 87 76 67 3f 62 16 64 3f fd 02 5a 3f
       0.86221486 0.90415233 0.89096653 0.8516081
0000f0 f9 68 62 3f d5 9e 55 3f d1 f3 6c 3f 0e 32 6d 3f
       0.88441426 0.83445483 0.92559534 0.926545
000100 1d f4 6d 3f 2e 57 57 3f 43 83 74 3f 03 34 5d 3f
       0.9295061 0.841174 0.9551279 0.8640749
000110 e1 fa 94 3f fb d1 49 3f fe d7 62 3f 8f 23 6a 3f
       1.1639062 0.7883603 0.8861083 0.9146051
000120 24 f5 59 3f ea 17 40 3f da ef 58 3f f0 37 56 3f
       0.8513968 0.7503649 0.84740984 0.83679104
000130 42 8e 61 3f 52 e4 55 3f 1e 47 81 3f c9 c6 81 3f
       0.88107693 0.83551514 1.0099828 1.013879
000140 85 de 5c 3f 05 e4 5c 3f 21 01 59 3f 65 dd 5a 3f
       0.8627704 0.8628543 0.8476735 0.8549407
000150 37 8a 66 3f 2b e8 5b 3f dd 52 68 3f 6b af 5c 3f
       0.9005465 0.85901135 0.9075144 0.86205167
000160 75 fd 63 3f e7 6c 41 3f f7 24 52 3f 2b 88 54 3f
       0.8905862 0.75556797 0.82087654 0.83020276
000170 93 94 58 3f 6a 7c 52 3f 99 24 5c 3f f9 af 6b 3f
       0.84601706 0.8222109 0.85993344 0.9206539
000180 c5 27 5a 3f 6b c1 5d 3f c6 54 6e 3f 39 be 6f 3f
       0.85216933 0.8662326 0.93098104 0.9364963
000190 7a 29 5d 3f 98 3d 69 3f 82 f5 50 3f 63 f3 50 3f
       0.86391413 0.9110961 0.81624615 0.8162138
0001a0 1a 64 66 3f 8f d7 66 3f 62 e7 51 3f 96 92 6d 3f
       0.8999649 0.90172666 0.8199369 0.928018
0001b0 e1 7a 6d 3f 50 5b 6b 3f e2 e1 5c 3f c0 06 92 3f
       0.92765623 0.91936207 0.8628217 1.140831
0001c0 b7 47 5b 3f c1 1a 57 3f 56 c1 62 3f 4c 1d 52 3f
       0.85656303 0.840252 0.8857626 0.82075953
0001d0 d6 e1 4d 3f 63 c6 56 3f 1e 7f 54 3f cb e0 57 3f
       0.80422723 0.83896464 0.83006465 0.8432738
0001e0 64 a0 50 3f f6 83 68 3f 92 43 54 3f c0 60 55 3f
       0.81494737 0.90826356 0.82915604 0.83350754
0001f0 01 e5 51 3f dd 38 5d 3f bd bb 61 3f 99 86 6b 3f
       0.8199006 0.8641489 0.8817709 0.92002255

norm.bias f4 [128]
000000 6a 4b c0 3d 32 01 3b be d4 09 34 3e bc 05 d2 bd
       0.09389384 -0.18262175 0.17581874 -0.10255
000010 d2 f9 26 3e 83 c4 d5 bc 88 a5 cf 3c 31 3a a9 bd
       0.16306236 -0.02609468 0.025347486 -0.08263052
000020 b1 74 e1 3d b7 2a 41 bc dd 0b fb 3d 9e b6 97 3d
       0.11008585 -0.011789969 0.12258122 0.07407878
000030 18 88 c7 b8 57 e8 a5 3e 9f df 87 3e 65 c1 48 be
       -9.514409e-05 0.32403824 0.26537797 -0.19605024
000040 d0 0c 09 3d 5a 80 10 3e 9a 88 4a 3e 2d f3 0c bd
       0.033459485 0.14111462 0.19778672 -0.034411598
000050 7a 51 3b 3e 6d c3 26 3e 42 19 06 be c8 a8 91 bd
       0.182928 0.16285487 -0.13095573 -0.071122706
000060 3a 3a dd bd 09 f5 34 3d e2 ce 0a 3e 18 75 41 bd
       -0.108021215 0.044178996 0.13555482 -0.04723081
000070 69 98 87 be 4b 4a fa bc e3 c4 69 be 44 26 cd 3d
       -0.26483467 -0.030553004 -0.22829013 0.10017064
000080 c6 84 f7 bd eb 5e 15 be 54 18 23 be fa 1e 9b be
       -0.120858714 -0.1458699 -0.15927249 -0.3029707
000090 b9 2a 9b 3d 34 71 89 be d2 ad 19 3e d1 9f 4d 3a
       0.07576508 -0.2684418 0.15007713 0.0007843944
0000a0 6b 04 ca 3e dc 83 31 3d 89 1c 69 3e 4c 13 46 3e
       0.39456496 0.04333864 0.22764792 0.19343299
0000b0 da 46 f4 bd 4a 68 82 3b fa ec 00 3d fc 57 98 be
       -0.11927576 0.0039797174 0.031476 -0.29754627
0000c0 f0 ef 2e 3e 21 09 78 3d c5 bc 33 3c f0 c0 ee bd
       0.17083716 0.06055558 0.010970299 -0.11657894
0000d0 d3 4e 5a 3e 7b 5a 5c bd c5 49 49 be dc 92 e3 3c
       0.21319132 -0.053797226 -0.19657047 0.027779989
0000e0 0c b8 24 3e 69 20 7b 3e f8 52 fe 3b e8 9c 55 3e
       0.16085833 0.24524082 0.0077613555 0.20860636
0000f0 09 2f 66 be ed 5a cb 3d 30 d9 6f be d3 fc 2d 3e
       -0.2247888 0.09929452 -0.23422694 0.16990976
000100 7b 87 b2 3d b4 7e b4 be 81 8a 93 3d 64 40 bf bc
       0.08717247 -0.35252917 0.07204152 -0.023346134
000110 0d e9 19 3e 15 7f 90 bd e0 19 6e 3e 55 8d 7b bc
       0.15030308 -0.07055489 0.23252058 -0.01535352
000120 e6 c0 87 3d 13 4b a7 be 56 f1 c5 3d eb c1 09 3e
       0.06628589 -0.32674465 0.09665172 0.1345288
000130 0b 67 22 bd 57 28 35 be c6 31 d8 bd 8b b2 a5 bd
       -0.03964905 -0.1769117 -0.105563685 -0.08090695
000140 41 df 8e bc 26 a1 9b 3e b9 62 49 be 2e 70 ca bb
       -0.01744044 0.30396384 -0.19666566 -0.0061779236
000150 e1 9e 01 bd dc e5 22 3d 95 87 49 3e 62 07 f9 bd
       -0.03164566 0.039769992 0.19680627 -0.12159611
000160 e1 bf 76 be 05 d4 5c 3e 81 7d 7a 3e 23 3e 2d 3e
       -0.24096633 0.21565254 0.24461938 0.16918235
000170 5f d1 0f be e6 50 11 bc b5 49 11 bd 25 e7 a4 bd
       -0.14044712 -0.008869385 -0.035470683 -0.080519
000180 12 99 10 be 3a 84 59 be d5 1f 41 bd a4 01 e3 3c
       -0.14120892 -0.21241847 -0.047149498 0.027710743
000190 35 93 a8 3c 34 71 11 bd f1 6f bb 3d 70 08 cd bd
       0.020578006 -0.03550835 0.091522105 -0.10011375
0001a0 d9 cf 32 bd 8a 0d c7 bd 31 18 3d 3e ec 36 05 be
       -0.04365525 -0.09719379 0.1846626 -0.13009232
0001b0 0a 9f d5 bd 6b 22 40 3e d3 9f ef 3c 5a 60 b4 3d
       -0.10430725 0.1876313 0.029251015 0.0880744
0001c0 5c 71 94 be 0f d2 04 be b1 65 3d bd b1 9b a3 bd
       -0.28992736 -0.12970756 -0.04623956 -0.0798868
0001d0 15 8a 53 be f1 ed b2 be e5 57 6b 3e d9 d9 62 3c
       -0.20658143 -0.3494716 0.22982748 0.013845884
0001e0 85 fb 90 3e 83 34 19 3e 2e c4 67 be 68 19 12 3e
       0.28316894 0.14961438 -0.2263343 0.14267504
0001f0 d6 74 ca bd 6b 95 15 3e 8e 27 e9 3c 45 51 1e 3e
       -0.09885566 0.1460778 0.028461244 0.1546069
