Lex.ptjaywalker_QAgent.pt (torch, 225501 bytes, 22 tensors)

layer1.weight f4 [128, 5]
0	0x3e4f0583	0.20216946
1	0xbe393800	-0.18087769
2	0xbd6b7fe2	-0.057495005
3	0x3e316067	0.17321931
4	0xbeeb5d6e	-0.4596972
5	0x3e6a32d5	0.22870953
6	0xbd9294ce	-0.071572885
7	0x3e7209f3	0.23636608
8	0x3e2acd72	0.16679934
9	0xbdea36f7	-0.11436265
10	0x3df476dd	0.11936734
11	0x3a5ec53d	0.0008498019
12	0x3e1e38c2	0.15451339
13	0xbe27e4d1	-0.1639588
14	0x3c5dc34c	0.013535332
15	0xbdb2f3d8	-0.08737916
16	0x3d907b93	0.0705482
17	0x3c3f7600	0.011685848
18	0x3ecc3c48	0.3988974
19	0x3e098e61	0.1343322
20	0xbe27b706	-0.16378412
21	0xbeacf20b	-0.33778414
22	0xbd8f2ba6	-0.06990747
23	0xbe49e022	-0.19714406
24	0xbe182754	-0.14858752
25	0xbd2b2e3b	-0.041792136
26	0x3e61b3a1	0.22041179
27	0x3e9506a6	0.29106635
28	0xbee666b3	-0.45000228
29	0x3e8b6373	0.2722431
30	0x3e0da460	0.13832235
31	0x3ecb6cd3	0.39731464
32	0x3e991c1f	0.29904267
33	0xbeb93092	-0.3616987
34	0xbed93742	-0.4242497
35	0xbe642df1	-0.2228315
36	0x3ed19507	0.4093401
37	0xbd15051c	-0.036381826
38	0x3e6551cf	0.22394489
39	0xbe345e3e	-0.17614076
40	0x3ed4a334	0.41530764
41	0xbe4d711f	-0.20062684
42	0x3e976901	0.295723
43	0xbe125d4b	-0.14293401
44	0xbe89721e	-0.26844877
45	0x3dc73050	0.09726012
46	0xbdb8dd75	-0.090266146
47	0x3d93ff8a	0.072264746
48	0xbd8a674b	-0.06757983
49	0xbcbaefc9	-0.022819417
50	0xbee99786	-0.45623416
51	0xbe58a02d	-0.21154852
52	0x3de24072	0.11047448
53	0xbe6b7803	-0.22995
54	0x3edc1fa5	0.42992893
55	0x3ebce7b3	0.36895522
56	0xbd673d6b	-0.056455057
57	0xbea94865	-0.33063045
58	0x3e7f695b	0.24942534
59	0x3cdb2fbc	0.02675616
60	0xbebfe109	-0.37476376
61	0x3e8327a8	0.25616193
62	0x3e0cc1e9	0.13745846
63	0x3ef315ab	0.4747747
64	0xbe85c925	-0.26130024
65	0x3daa3dbb	0.083125554
66	0x3c937d8a	0.018004198
67	0x3dec70f9	0.11544985
68	0xbead65b4	-0.33866656
69	0xbe77080c	-0.24124163
70	0x3e9fe3d8	0.31228518
71	0xbd80e2ce	-0.062932596
72	0x3deed525	0.11661748
73	0x3e262250	0.16224027
74	0x3e0086dc	0.12551445
75	0xbd37f4ea	-0.044911303
76	0x3e11448d	0.14186306
77	0x3e8d7cbe	0.27634233
78	0xbefe897e	-0.49714273
79	0x3d9849c8	0.07435948
80	0xbe88f0c4	-0.2674619
81	0xbebe5c15	-0.37179628
82	0xbcb2ea6c	-0.021840297
83	0xbd237ccc	-0.039913937
84	0x3d15054c	0.036382005
85	0xbe90fd6d	-0.2831835
86	0xbede177a	-0.43377286
87	0x3e79c345	0.24390896
88	0xbe5f935a	-0.21833554
89	0x3e8efdc6	0.2792799
90	0x3e1b47a9	0.15164055
91	0xbe7fe1e3	-0.24988513
92	0x3dde1d42	0.10845424
93	0x3e7d8a53	0.24759798
94	0xbea46faf	-0.32116458
95	0xbe46a749	-0.19399752
96	0x3e05c237	0.13062368
97	0x3db69c27	0.089165024
98	0xbe9908d9	-0.29889563
99	0xbd9436cc	-0.07237014
100	0x3ef7f62d	0.48430005
101	0xbc9123fe	-0.017717358
102	0x3e8a6e4d	0.27037278
103	0x3e809f7b	0.25121674
104	0xbe6fe0eb	-0.23425643
105	0xbeb790c1	-0.35852626
106	0x3ee54402	0.44778448
107	0x3d801735	0.062544264
108	0x3e8f5096	0.2799117
109	0x3e0c71f8	0.1371535
110	0x3e1e55a7	0.15462361
111	0x3ea99d44	0.33127797
112	0x3ee3c5d4	0.44486868
113	0xbe89f866	-0.26947325
114	0x3d010727	0.03150096
115	0x3e85286e	0.26007408
116	0x3eae7c37	0.34079143
117	0x3e921743	0.28533372
118	0xbeaed5a4	-0.3414737
119	0xbea9f4be	-0.33194536
120	0xbea32462	-0.31863695
121	0x3d4616d1	0.048361603
122	0x3edce357	0.43142197
123	0xbe9c0713	-0.30474147
124	0x3e75ce29	0.24004425
125	0xbeb0b3f3	-0.3451229
126	0xbeab9cef	-0.33518168
127	0xbdafc48f	-0.085824125
128	0x3e82f9e4	0.25581276
129	0x3ed4d0b4	0.41565478
130	0xbe796e17	-0.24358402
131	0x3de9b274	0.1141099
132	0x3eca1779	0.39471033
133	0x3eb6a46d	0.35672322
134	0x3e9fa225	0.31178394
135	0x3e9b0dcc	0.30283964
136	0x3ea9b6b4	0.33147204
137	0x3e4289bf	0.18997858
138	0xbea9e527	-0.33182642
139	0xbec351d1	-0.38148358
140	0xbe123a78	-0.14280117
141	0xbd726348	-0.059176713
142	0xbe936890	-0.28790712
143	0x3e089375	0.133375
144	0x3d95b5d1	0.07310069
145	0xbdb531cc	-0.088473886
146	0x3e425682	0.18978313
147	0x3e3dd7e7	0.18539391
148	0x3e9cc925	0.3062221
149	0x3e83a382	0.25710684
150	0xbe155007	-0.1458131
151	0x3ee1b953	0.44086704
152	0xbd0deb91	-0.03464848
153	0x3d0273de	0.03184878
154	0xbed3b023	-0.4134532
155	0xbe643720	-0.22286654
156	0xbe6229bb	-0.22086231
157	0xbdbfd110	-0.093660474
158	0x3ecd4a8c	0.40095937
159	0xbe6030b9	-0.21893586
160	0xbee585ce	-0.44828647
161	0xbce88b02	-0.028386597
162	0x3ce35e27	0.027754856
163	0x3e7319e4	0.23740345
164	0xbe8b1ddd	-0.2717122
165	0x3db9d4c8	0.09073788
166	0xbdeda31c	-0.11603376
167	0xbca59805	-0.02021409
168	0xbee58373	-0.4482685
169	0xbe070fe0	-0.1318965
170	0xbe2425e3	-0.16030078
171	0x3db30db3	0.08742847
172	0x3c297728	0.0103433505
173	0x3ab1eefc	0.0013575251
174	0x3ef53df6	0.47898835
175	0x3ed966f2	0.42461354
176	0x3e9366b4	0.28789294
177	0xbb31939e	-0.0027096043
178	0xbe9aaacb	-0.3020843
179	0x3ebd4fe2	0.36975008
180	0xbb30a026	-0.0026950925
181	0xbc83d96f	-0.016094891
182	0xbeb461a3	-0.3523074
183	0x3d669c77	0.05630156
184	0xbe425e6d	-0.18981333
185	0x3ebc03d6	0.36721677
186	0xbed62a8a	-0.4182933
187	0xbebc4512	-0.36771446
188	0xbd5c3dbf	-0.053769823
189	0xbe8b7c09	-0.2724307
190	0x3e1576f5	0.1459616
191	0xbdf148a8	-0.11781436
192	0xbe434b62	-0.19071725
193	0x3da02a92	0.0782062
194	0x3ea6b8c2	0.32562834
195	0xbe9a07d0	-0.30084085
196	0x3e49fae1	0.19724609
197	0x3eb0c52c	0.3452543
198	0x3eee1889	0.46503094
199	0xbeab2023	-0.33422956
200	0x3ddba8a4	0.10725525
201	0xbeb079b7	-0.3446786
202	0x3e8be106	0.27320117
203	0xbe9c2c71	-0.30502656
204	0x3e8bab35	0.27279058
205	0xbbe69001	-0.0070362096
206	0x3ceb8a0e	0.028752353
207	0xbc911fef	-0.017715422
208	0x3ca5e865	0.020252416
209	0x3e51b8f6	0.20480713
210	0x3d974320	0.0738585
211	0x3ddf3410	0.10898602
212	0xbecb76dc	-0.3973912
213	0x3ef71a3f	0.48262212
214	0x3eb4d57d	0.3531913
215	0x3ebb7963	0.36616048
216	0x3e95d554	0.2926432
217	0xbeb153c2	-0.34634215
218	0xbe0862e7	-0.13318978
219	0x3edc70e2	0.43054873
220	0xbe98bc17	-0.29831
221	0x3ef1f2e2	0.47255617
222	0xbe827d35	-0.2548615
223	0xbe9d1268	-0.30678105
224	0x3eaa3b0d	0.33248177
225	0xbed42a09	-0.4143832
226	0xbe089c1c	-0.13340801
227	0x3e6a4f08	0.2288171
228	0x3e975d9d	0.2956361
229	0x3ebfad56	0.37436932
230	0xba71843f	-0.00092131266
231	0xbe8efec1	-0.27928737
232	0x3efac84b	0.48980936
233	0xbd8f1fb8	-0.06988472
234	0xbe741ac5	-0.23838337
235	0x3e1a159c	0.15047306
236	0xbeae4f7c	-0.34045017
237	0x3e9dbcf3	0.3080822
238	0x3e83ab19	0.25716475
239	0xbed92bb9	-0.4241617
240	0xbec869e2	-0.39143282
241	0x3cc36099	0.023849772
242	0x3e34d369	0.17658772
243	0x3d6bbb3e	0.057551615
244	0xbe6dcce3	-0.2322269
245	0xbdda1d58	-0.10650128
246	0xbed4271a	-0.41436082
247	0xbecb3c12	-0.39694268
248	0xbe8e8997	-0.27839348
249	0x3e8dbd4c	0.27683485
250	0x3ebd5dc2	0.36985594
251	0xbe40fefb	-0.18847267
252	0x3cb2acb0	0.02181086
253	0x3e82b74b	0.25530466
254	0x3bb8336a	0.0056213634
255	0xbe7dc795	-0.24783166

layer1.bias f4 [128]
0	0x3cadbf21	0.021209301
1	0xbd8c2a2e	-0.06843983
2	0x3eb45a45	0.3522512
3	0x3ec7860f	0.38969466
4	0x3e350daa	0.17680994
5	0x3e511e99	0.20421828
6	0xbed85d2a	-0.4225858
7	0x3ed71623	0.42009076
8	0xbec2583e	-0.37957948
9	0xbde9f0bd	-0.1142287
10	0xbe956252	-0.29176575
11	0x3e4892a3	0.19587187
12	0xbebd7456	-0.3700282
13	0xbe87ee04	-0.2654878
14	0xbe920651	-0.28520444
15	0xbe618c86	-0.22026262
16	0xbe53281b	-0.20620768
17	0x3ed449d1	0.41462567
18	0x3d0f52a2	0.034990914
19	0x3d50ddcd	0.050992776
20	0xbed30a5a	-0.41218835
21	0x3ed78015	0.42089906
22	0xbd8d240e	-0.068916425
23	0xbed9dc4e	-0.42550892
24	0x3e961f45	0.29320732
25	0xbe11b320	-0.14228487
26	0x3eafd1ab	0.3433965
27	0xbe43ab11	-0.19108225
28	0xbe958e36	-0.2921006
29	0xbe8c4ad9	-0.27400854
30	0x3e57b070	0.210634
31	0x3d1fafa1	0.038985852
32	0xbebceb53	-0.36898288
33	0x3d0a52a6	0.033770226
34	0xbd1f0c5f	-0.038830157
35	0x3e6e781c	0.23288006
36	0xbe9cc49f	-0.3061876
37	0xbe93ba76	-0.28853196
38	0x3ec005ae	0.37504333
39	0xbdc47741	-0.095930584
40	0x3ea425fc	0.3206023
41	0x3ec12bdb	0.37728772
42	0xbe6c20a0	-0.2305932
43	0xbe6592b8	-0.2241925
44	0x3cb8894c	0.022526406
45	0xbedeb4fc	-0.43497455
46	0x3e1b5169	0.15167774
47	0xbd58f7c1	-0.05297065
48	0xbe37fd9b	-0.17967837
49	0xbeadcf28	-0.3394711
50	0x3e685de3	0.22692065
51	0xbe92065f	-0.28520486
52	0xbea6701a	-0.32507402
53	0xbe0439d4	-0.12912685
54	0xbe488bb9	-0.1958455
55	0xbebd850f	-0.37015578
56	0x3e16136d	0.14655848
57	0xbe2dfabe	-0.16990182
58	0x3ea2042b	0.31643805
59	0x3e8e5813	0.2780157
60	0xbea0f708	-0.3143847
61	0xbe68ad3a	-0.2272233
62	0xbe7098ea	-0.23495832
63	0x3e8ec316	0.27883214
64	0xbc18212f	-0.009285255
65	0xbea0f551	-0.31437162
66	0x3e907376	0.2821309
67	0x3ed168b9	0.4090021
68	0x3eb532c6	0.353903
69	0xbeb89748	-0.36052918
70	0xbd91615f	-0.0709865
71	0xbd3e25a6	-0.046422623
72	0x3ec836d3	0.39104328
73	0xbe40b454	-0.1881879
74	0xbe8d63a4	-0.27615082
75	0xbcf241f4	-0.029572465
76	0xbd4e2bc9	-0.050334726
77	0x3e35891e	0.17728087
78	0xbd348ea4	-0.044081345
79	0xbe7b8b9a	-0.24564973
80	0x3e9ddaf8	0.30831122
81	0x3e9e1914	0.30878508
82	0x3e2e0026	0.16992244
83	0xbf039681	-0.51401526
84	0x3e5db56f	0.21651243
85	0x3eb66318	0.35622478
86	0x3d9cd0a8	0.076569855
87	0xbd55f24b	-0.05223302
88	0x3cd3883e	0.025821801
89	0xbe70ea50	-0.23526883
90	0x3edd9f83	0.4328576
91	0x3ebe3623	0.37150678
92	0xbb991833	-0.004672074
93	0xbe9db0a6	-0.30798835
94	0x3e967c80	0.2939186
95	0x3e9ac5db	0.30229077
96	0x3e734248	0.23755753
97	0xbea3276a	-0.31866008
98	0xbd1cf79c	-0.038322076
99	0xbde99ea6	-0.11407213
100	0xbea39930	-0.3195281
101	0xbe7039a1	-0.23459484
102	0x3e729cd2	0.23692635
103	0x3e4e2b19	0.20133628
104	0xbf144ddc	-0.57931304
105	0x3e449fef	0.19201635
106	0x3ead7f39	0.33886126
107	0x3eb4938c	0.3526882
108	0x3e8b455b	0.27201352
109	0xbd4bf5ce	-0.049794964
110	0x3e48c337	0.19605719
111	0x3eb6cf16	0.3570487
112	0xbbc52656	-0.006016533
113	0xbeaa39b3	-0.33247146
114	0xbe1a1526	-0.1504713
115	0x3ebf041c	0.37307823
116	0x3eb5e758	0.35528064
117	0x3e8cdc95	0.2751204
118	0xbe630657	-0.22170387
119	0xbd9f6ea8	-0.07784778
120	0xbe902a4e	-0.28157276
121	0xbe3db277	-0.1852511
122	0x3eb9eeb3	0.36314926
123	0xbe7ebf4e	-0.24877664
124	0xbda173d4	-0.078834206
125	0x3dd43b0c	0.10362825
126	0xbe8bbba9	-0.2729161
127	0x3d9be70d	0.07612429

layer2.weight f4 [128, 128]
0	0xba429e20	-0.0007424075
1	0x3d200dc0	0.039075613
2	0xbd807c25	-0.06273679
3	0x3cb52f1a	0.022117186
4	0xbdbe786a	-0.09300311
5	0x3d62d538	0.055379122
6	0x3db489bb	0.088153325
7	0xbcc0158f	-0.02344778
8	0x3c4c1591	0.012456314
9	0xbd39335b	-0.045214992
10	0xbd6ed682	-0.05831004
11	0xbd06afc5	-0.03288247
12	0xbcdfec87	-0.027334465
13	0x3c6a9022	0.0143165905
14	0xbc0913cd	-0.008366537
15	0x3b43bd51	0.002986748
16	0xbd9451cc	-0.07242164
17	0xbd8c4d38	-0.06850666
18	0xbd783037	-0.060592856
19	0xbd833bdc	-0.06407902
20	0x3d9825c5	0.07429079
21	0x3ce554d7	0.027994556
22	0xbd9ee513	-0.07758536
23	0xbc665506	-0.014058357
24	0xba220f11	-0.00061820546
25	0x3d1b1566	0.037862204
26	0x3d8fa7bc	0.07014415
27	0x3c98a07e	0.018631216
28	0x3d8bc27e	0.06824206
29	0xbd4c189c	-0.049828157
30	0x3b806b8f	0.003919072
31	0xbcee5e4c	-0.029097699
32	0x3d14cd31	0.0363285
33	0x3da01dbc	0.078181714
34	0x3d3abb21	0.045588616
35	0x3dcabe6a	0.098996
36	0xbcfdee68	-0.03099747
37	0xbb946c1b	-0.0045294887
38	0x3c830d78	0.015997633
39	0x3d9b7f03	0.07592585
40	0xbd9a74f3	-0.075418375
41	0xbd454143	-0.04815794
42	0x3b147f7d	0.0022658997
43	0xbd51b034	-0.05119343
44	0x3ce4089c	0.027836137
45	0xbc9f861a	-0.019473124
46	0xbcdbe74b	-0.026843688
47	0x3d5f06da	0.054449894
48	0x3d813036	0.06308024
49	0x3d9c207f	0.07623386
50	0x3d67e502	0.056614883
51	0x3a55b770	0.00081526395
52	0x3d8854ff	0.06656837
53	0x3dbf9b36	0.09355776
54	0xbd293f5c	-0.04132019
55	0x3d24a46e	0.040195875
56	0x3bf83656	0.0075748367
57	0xbd25cba1	-0.0404774
58	0xbc157112	-0.009121196
59	0xbd0ee54b	-0.03488664
60	0xbd7d5858	-0.06185183
61	0xbd0ebbf3	-0.03484721
62	0x3c97102a	0.018440325
63	0x3d8a0690	0.06739533
64	0xbba5a4c2	-0.005055041
65	0xbdaf5af5	-0.085622706
66	0x3d802c49	0.06258447
67	0xbc600821	-0.013673813
68	0x3dddf1ad	0.108371116
69	0xbdb5c1aa	-0.08874829
70	0xbcaf4dab	-0.02139934
71	0x3d8b86fd	0.06812856
72	0x3cee8890	0.029117852
73	0xbd04b7ff	-0.032402035
74	0xbda0d66d	-0.078533985
75	0x3a0bcb3f	0.0005332715
76	0x3d2499ff	0.040185925
77	0xbd83e0b7	-0.06439345
78	0xbda4fcc7	-0.08056026
79	0xbccd9152	-0.025093708
80	0xbccf35cc	-0.025294207
81	0x3da5e302	0.08099939
82	0xbda928ef	-0.082597606
83	0xbc74d608	-0.014943607
84	0xbd758a9c	-0.05994664
85	0x3b86a060	0.0041084737
86	0xbd244452	-0.040104218
87	0x3c5c4fcc	0.013446759
88	0xbd6aac75	-0.057293374
89	0xbd9ed810	-0.077560544
90	0xbd689625	-0.056783814
91	0xbd2c55f9	-0.042074177
92	0x3d8e829a	0.06958504
93	0xbbf48e06	-0.0074632196
94	0xbd6f5eb7	-0.058439936
95	0x3dc37988	0.095446646
96	0xbc98d926	-0.018658232
97	0x3d35b64f	0.044363316
98	0xbced8d15	-0.028997937
99	0xbd989952	-0.074511185
100	0x3c43840d	0.011933339
101	0x3da07681	0.07835103
102	0xbdbc4824	-0.09193447
103	0xbc00a971	-0.007852898
104	0x3c8b834d	0.017030383
105	0x3a793b7a	0.0009507459
106	0x3c0312b8	0.008000068
107	0xbd3ba778	-0.045814008
108	0xbd78c802	-0.060737617
109	0x3cb571b5	0.022148946
110	0xbd895642	-0.067059055
111	0xbd9b2f4b	-0.0757738
112	0xbd22f29c	-0.03978215
113	0xbd59f825	-0.053215165
114	0x3cbf40ca	0.023346324
115	0x3d8e5ec6	0.0695167
116	0x3db1223b	0.08649107
117	0xbd712b9a	-0.058879472
118	0x3d29c87c	0.041450962
119	0x3d8349fe	0.06410597
120	0xbc29cd45	-0.0103638815
121	0x3d051d5c	0.032498702
122	0x3d682e53	0.056684803
123	0x3d69184d	0.05690794
124	0x3d4b1df5	0.049589116
125	0x3d54c3d9	0.051944587
126	0xbd19e0f2	-0.03756804
127	0xbd7e8492	-0.062138148
128	0xbca5c4fb	-0.02023553
129	0x3d944370	0.07239425
130	0xbc03222a	-0.008003751
131	0x3bdea8c1	0.0067950194
132	0xbd9bcaaa	-0.076070145
133	0xbb8bbe9a	-0.004264665
134	0xbca9decb	-0.020736119
135	0xbd89910c	-0.067171186
136	0x3db1d036	0.08682291
137	0xbd8e3e82	-0.06945516
138	0xbc5204a6	-0.012818491
139	0xbc36a420	-0.011147529
140	0xbde8b16d	-0.11361966
141	0x3d6d423f	0.057924505
142	0xbd1682d5	-0.036745865
143	0x3d362770	0.044471204
144	0x3d56c53d	0.052434195
145	0x3dd2e797	0.102980785
146	0x3d30faa7	0.04320779
147	0x3d65d4f1	0.05611128
148	0x3d9fb9be	0.077990994
149	0x3be7324e	0.0070555573
150	0xbc9b2db4	-0.018942691
151	0xbc8a03cf	-0.01684752
152	0x3d094e53	0.03352196
153	0x3d03034a	0.03198556
154	0xbdab742d	-0.08371768
155	0x3da0ba3f	0.078480236
156	0x3c1c67d4	0.009546239
157	0xbdce0c8b	-0.10060986
158	0x3c462fcd	0.0120963575
159	0x3d7d8ab7	0.061899867
160	0x3c5bf7b3	0.013425755
161	0x3da7bf6d	0.081908084
162	0xbc17f715	-0.009275218
163	0xbda1ad5b	-0.07894393
164	0x3b22f124	0.002486297
165	0x3d8ca104	0.06866649
166	0xbd4c1048	-0.049820215
167	0x3ceef1c8	0.029168025
168	0x3d025de8	0.031827837
169	0xbc38f72e	-0.011289401
170	0xbc6be982	-0.014398934
171	0x3d117017	0.035507288
172	0xbd723b37	-0.059138503
173	0x3d56d757	0.052451458
174	0x3da69976	0.08134739
175	0x3da48626	0.08033399
176	0x3d961491	0.073281415
177	0xbb86c80a	-0.004113202
178	0xbd70d686	-0.058798335
179	0xbc65fdbf	-0.014037549
180	0xbd26ab79	-0.040690873
181	0x3c1e8158	0.009674393
182	0x3d8bffdc	0.06835911
183	0xbd3ff5c2	-0.046865232
184	0x3ba7397d	0.0051032887
185	0x3db71630	0.08939779
186	0xbd503986	-0.05083611
187	0xbc4c123c	-0.012455519
188	0x3dafc6ae	0.08582817
189	0x3d7be877	0.061500993
190	0x3cd2af31	0.025718303
191	0xbd2a8183	-0.04162742
192	0xbc04efab	-0.008113782
193	0xbd9fe5e6	-0.078075215
194	0xbd957ee4	-0.07299593
195	0xbd982edf	-0.07430815
196	0x3dbeb628	0.09312087
197	0x3d8ebbde	0.069694266
198	0x3d0b70df	0.03404319
199	0xbd146acd	-0.036234666
200	0x3dbb8fc7	0.09158283
201	0xbcbf443c	-0.023347966
202	0x3d37be8b	0.04485945
203	0x3b7e3597	0.0038789266
204	0xbcfdef55	-0.030997911
205	0xbca14c95	-0.019689837
206	0xbc7a06a4	-0.015260372
207	0xbdc1f2a4	-0.09470108
208	0x3c83f86f	0.016109673
209	0xbcda3a06	-0.026638996
210	0x3d281d4c	0.041043565
211	0x3d75fa91	0.060053412
212	0xbd0b95c6	-0.034078382
213	0x3d303438	0.04301855
214	0x3cca034c	0.024659775
215	0x3d13bd32	0.036069103
216	0xbd9e3fcd	-0.07727013
217	0xbbb75665	-0.005595016
218	0xbce7ce40	-0.02829659
219	0x3db44571	0.088023074
220	0xbd85328f	-0.06503784
221	0xbd439a3c	-0.04775451
222	0x3c8fd4a1	0.017557444
223	0x3def7c3e	0.11693619
224	0x3d7786d0	0.0604313
225	0xbd9cecf8	-0.07662386
226	0xbd5430a9	-0.05180422
227	0x3db51b59	0.08843107
228	0x3b92597d	0.0044662342
229	0xbd9eca93	-0.07753482
230	0xbd12844a	-0.035770692
231	0x3d0879a0	0.033319116
232	0xbca9e3b6	-0.020738464
233	0xbda14957	-0.078753166
234	0xbd395858	-0.045250267
235	0xbd202a09	-0.039102588
236	0x3c2c1dd6	0.01050516
237	0x3d15bf5e	0.036559455
238	0x3d3db411	0.046314303
239	0xbd3919cb	-0.045190614
240	0xbc2aab8f	-0.010416879
241	0xbd882526	-0.066477105
242	0x3d8d3ce7	0.06896382
243	0x3dc490bb	0.09597918
244	0x3dbaf1c2	0.09128143
245	0x3cf4dec2	0.029891375
246	0xbd1737f4	-0.036918595
247	0xbc6ab6ef	-0.014325841
248	0x3cfe47e1	0.031040134
249	0xbdc57656	-0.096417114
250	0x3c78f772	0.015195714
251	0xbdad737f	-0.08469295
252	0xbdaa5b69	-0.08318216
253	0xbc843ac5	-0.016141305
254	0xbcacd812	-0.021099124
255	0xbd575d8c	-0.052579448

layer2.bias f4 [128]
0	0x3cad56b3	0.021159505
1	0x3d9f3a48	0.07774788
2	0x3d934084	0.0719004
3	0x3caba134	0.020950891
4	0xbd79df0c	-0.06100373
5	0x3d4e7fac	0.050414726
6	0xbca11d03	-0.019667154
7	0x3d9c5cec	0.07634911
8	0x3d202e49	0.03910664
9	0x3c796692	0.015222209
10	0xb9021449	-0.00012405323
11	0x3d1e278f	0.038611945
12	0x3dbfd094	0.09365955
13	0x3d7d70d1	0.06187517
14	0x3c514b82	0.01277435
15	0x3d32d11b	0.04365645
16	0x3d5aae75	0.05338903
17	0x3d75824a	0.059938706
18	0x3b6a7e3a	0.0035780803
19	0x3ceee62b	0.029162487
20	0x3c15ee94	0.00915112
21	0x3d79c478	0.060978383
22	0xbd4b1bbb	-0.049586993
23	0x3cba0d40	0.022711396
24	0xbcdf2757	-0.027240438
25	0x3bbdbfe5	0.005790698
26	0x3d46200b	0.048370402
27	0x3ba7f809	0.0051260036
28	0xbd9cefdd	-0.07662938
29	0x3befa8f6	0.007313843
30	0xbd3a68aa	-0.04550997
31	0x3b8a6406	0.0042233495
32	0x3c8e4eff	0.017371653
33	0xbcec981c	-0.028881125
34	0x3cecf292	0.02892426
35	0xbd9901f2	-0.07471074
36	0x3c6e84ce	0.01455803
37	0x3db90588	0.09034258
38	0x3ca62c59	0.020284818
39	0x3d6ac7ae	0.057319336
40	0xbd1735c1	-0.036916498
41	0x3d49ef1f	0.04930031
42	0xbd88d252	-0.066807404
43	0xbc0f136e	-0.00873266
44	0xbd7159de	-0.058923595
45	0x3cc2c7da	0.023776937
46	0x3d6777b5	0.056510646
47	0xbc7b2130	-0.015327737
48	0xbd8bb3e4	-0.06821421
49	0xbd87236c	-0.06598553
50	0x3d6b0e00	0.0573864
51	0x39a71f0e	0.0003187586
52	0xbda258d6	-0.079271
53	0x3d96b481	0.07358647
54	0x3c73f59b	0.0148901
55	0x3d39e984	0.045388713
56	0x3d56ee4c	0.05247335
57	0xbc9519c3	-0.01820076
58	0xbdaff6f1	-0.08592022
59	0x3b96d11d	0.004602565
60	0xbc65e150	-0.0140307695
61	0x3cd630ae	0.02614626
62	0xbdc93f37	-0.098265104
63	0xbc684365	-0.014176224
64	0xbdd11782	-0.10209562
65	0xbd59122c	-0.052995846
66	0xbda7b376	-0.08188526
67	0x3da04992	0.078265324
68	0x3d9ce555	0.07660929
69	0xbd0f1fee	-0.03494256
70	0xbc9ebfe4	-0.01937861
71	0x3d618d1b	0.05506621
72	0xbb5d933f	-0.003380969
73	0xbc72485d	-0.014787761
74	0xbc6ba5ad	-0.014382762
75	0xbda1b09b	-0.07895013
76	0xbd8fc7aa	-0.07020505
77	0x3d78b821	0.060722474
78	0xbd757b81	-0.059932236
79	0x3d2f3d00	0.042782784
80	0xbc9f617f	-0.01945567
81	0xbd9f86f4	-0.07789412
82	0xbc571b5b	-0.013129081
83	0x3d8bd338	0.06827396
84	0xbdc4e618	-0.096141994
85	0x3d2470e0	0.04014671
86	0x3c4f88d1	0.012666897
87	0x3ce43f23	0.027862137
88	0xbd75c05f	-0.059997912
89	0xbd918bba	-0.07106729
90	0xbd0e8e54	-0.034803703
91	0xbc9d012e	-0.019165602
92	0x3aee1609	0.0018164526
93	0x3ce397b1	0.027782293
94	0x3d52fb1e	0.051509015
95	0x3da4bfb5	0.08044378
96	0xbd6f548e	-0.058430247
97	0xbd687818	-0.056755155
98	0x3dae6c45	0.085167445
99	0xbcd62aa0	-0.026143372
100	0xbd175cd6	-0.03695377
101	0x3d561cdf	0.052273627
102	0xbd84d3c9	-0.06485707
103	0x3d24a427	0.04019561
104	0xbd07a63b	-0.033117514
105	0xbbd6e7b0	-0.006558381
106	0xbd559fbb	-0.052154284
107	0xbd774b26	-0.0603744
108	0xbbbc192a	-0.0057403045
109	0x3c78cad8	0.0151850805
110	0xbd6d166d	-0.057882715
111	0x3c8adc9c	0.016950898
112	0xbd86cfad	-0.0658258
113	0xbdbe811f	-0.09301972
114	0x3d422946	0.047402643
115	0x3d9993d6	0.074989006
116	0x3d2020e6	0.039093874
117	0xbd4930f4	-0.04911895
118	0x3d80204f	0.062561624
119	0xbd507570	-0.050893247
120	0x3d6e9d03	0.058255207
121	0x3d21239d	0.039340604
122	0xbcd751b1	-0.02628407
123	0xbd953773	-0.07285967
124	0xbdc9ddd8	-0.098567665
125	0xbdb77159	-0.08957166
126	0xbc6033b7	-0.013684205
127	0x3d4dfa0c	0.05028729

layer3.weight f4 [128, 128]
0	0x3cbde650	0.02318111
1	0x3d9eb220	0.077488184
2	0xbd90183a	-0.07035871
3	0x3d50d880	0.05098772
4	0xbcb44b7d	-0.022008652
5	0x3d2db0bf	0.042404886
6	0xbd9bc25e	-0.07605432
7	0xbd826c4c	-0.06368312
8	0x3d939428	0.07205993
9	0x3d6b78db	0.057488304
10	0xbd4c20c2	-0.049835928
11	0xbd74d837	-0.05977651
12	0xbc648ed6	-0.01395007
13	0x3db28e54	0.08718553
14	0x3d933240	0.07187319
15	0xbd16dc3b	-0.036831122
16	0x3be52227	0.0069925967
17	0x3d463111	0.048386637
18	0xbd779234	-0.060442165
19	0xbc59f7c7	-0.013303704
20	0x3d815804	0.06315616
21	0x3d174361	0.036929492
22	0x3d2ffd12	0.042965956
23	0x3d9a5130	0.075350165
24	0x3d2e77cd	0.04259472
25	0xbdb167a5	-0.08662347
26	0xbd8399cb	-0.06425818
27	0xbd066981	-0.03281546
28	0xbd9c0a7a	-0.07619186
29	0x3d7e13b3	0.062030505
30	0x3b09f766	0.0021052002
31	0x3d8d7347	0.06906753
32	0xbc16f6b2	-0.00921409
33	0x3d1dbc2f	0.038509544
34	0xbcb8f340	-0.022576928
35	0x3dba7b66	0.09105568
36	0x3d720c8c	0.059093997
37	0xbd0c8e50	-0.034315407
38	0x3b817397	0.003950547
39	0xbc9b548d	-0.018961215
40	0xbd042f8a	-0.0322719
41	0xbdbffb5c	-0.09374115
42	0x3d0ee272	0.034883924
43	0x3d3a791e	0.045525663
44	0xbd7e09e1	-0.06202114
45	0x3d808fd1	0.06277431
46	0xbd8f0715	-0.06983773
47	0xbd98ec90	-0.07466996
48	0x3c4b8f5a	0.012424314
49	0x3bf452a5	0.007456141
50	0xbd128424	-0.03577055
51	0xbbea2242	-0.007145197
52	0x3c55e43f	0.013054906
53	0xbd4bf23c	-0.04979156
54	0x3d9c931b	0.07645246
55	0xbd637b76	-0.055537663
56	0xbcfe2ca8	-0.031027153
57	0xbdc9702f	-0.098358504
58	0xbd14c7f5	-0.036323506
59	0x3c7a0df7	0.015262119
60	0xbcf20d83	-0.029547459
61	0xbdcd43aa	-0.100226715
62	0xbcb539a1	-0.022122206
63	0xbd50d978	-0.050988644
64	0x3da33b48	0.079702914
65	0x3da41509	0.08011825
66	0x3c6c6159	0.014427506
67	0xbd265da5	-0.04061665
68	0x3d807979	0.06273169
69	0xbc4c1908	-0.01245714
70	0x3d86483b	0.065567456
71	0x3d4bc438	0.049747676
72	0x3d6c1264	0.057634726
73	0x3da5742f	0.08078801
74	0xbcd8b4bf	-0.026453374
75	0xbdcb6106	-0.09930615
76	0xbd17cd1f	-0.037060853
77	0xbdc2d431	-0.095131285
78	0x3c203a1c	0.009779479
79	0xbca88ff1	-0.02057645
80	0x3d4493fa	0.047992684
81	0xbd8d53fc	-0.069007844
82	0x3cf19475	0.029489735
83	0x3c412bb6	0.011790207
84	0x3d867b6d	0.0656651
85	0xbd8bb0d9	-0.068208404
86	0x3b26a7eb	0.0025429677
87	0xbd726f59	-0.05918822
88	0xbccd6adb	-0.025075367
89	0x3d7863a5	0.060641903
90	0xbd70698d	-0.05869441
91	0x3d05e2e2	0.032687075
92	0x3cc43a8c	0.023953699
93	0x3aaf328c	0.0013366505
94	0x3d9b8b35	0.07594911
95	0x3c502df2	0.012706267
96	0xbd7fc227	-0.062441017
97	0x3d90181a	0.07035847
98	0x3d885637	0.06657069
99	0xbd16d767	-0.036826517
100	0x3d695a1d	0.056970704
101	0xbc06f610	-0.008237377
102	0x3cdd47fc	0.027011864
103	0xbc368d24	-0.011142049
104	0xbd8a0e21	-0.06740976
105	0x3d9e14ce	0.07718812
106	0x3d8f8fdb	0.0700986
107	0xbdb3d496	-0.08780782
108	0xbdb965b3	-0.09052601
109	0x3dab7242	0.08371402
110	0x3d79a6cc	0.060950086
111	0xbc6721f0	-0.014107212
112	0xbcee1525	-0.029062817
113	0x3d840047	0.064453654
114	0x3d33df66	0.04391422
115	0xbdb0a763	-0.086256765
116	0xbd542185	-0.05178978
117	0xbd3577fa	-0.04430387
118	0xbda2d709	-0.07951171
119	0xbc0fd7af	-0.00877945
120	0x3cb226bf	0.021746991
121	0xbc843995	-0.016140739
122	0xbd8c725f	-0.06857752
123	0xbcd7497d	-0.02628016
124	0xbce58d38	-0.02802144
125	0xbd5d7481	-0.054066185
126	0x3cb54c68	0.02213116
127	0xbd9899c4	-0.074512035
128	0x3d40f1c3	0.047105562
129	0xbc98eeb5	-0.018668512
130	0xbca3d3d0	-0.019998461
131	0x3bfcc405	0.007713797
132	0x3d6cdb60	0.0578264
133	0x3d212fc6	0.0393522
134	0x3dc8d662	0.09806515
135	0x3d9ccda8	0.07656413
136	0xbbeac9cb	-0.007165169
137	0x3a2cd743	0.0006593356
138	0x3dc9a7a1	0.09846426
139	0xbd402d7a	-0.04691837
140	0xbc5ba1b8	-0.013405256
141	0xbda8efdd	-0.08248875
142	0x3d33eea5	0.04392876
143	0x3d81ef5a	0.06344481
144	0x3d8f6ae3	0.07002809
145	0x3c8043e1	0.015657367
146	0xbda024aa	-0.07819493
147	0xbd4cf1de	-0.05003535
148	0xbd9382e6	-0.07202701
149	0xbb2dde24	-0.0026530111
150	0x3d078b40	0.033091784
151	0xbd88ca07	-0.06679159
152	0x3b35ba3e	0.0027729417
153	0x3c9847d8	0.018588945
154	0xbd37e006	-0.04489138
155	0x3c2b3ef3	0.01045202
156	0xbd6153eb	-0.05501167
157	0x3dae4438	0.085091054
158	0xbd76ac2c	-0.06022279
159	0x3ada0e00	0.0016636252
160	0x3c96b24e	0.01839557
161	0xbca500fe	-0.020142075
162	0x3d9c6bbb	0.076377355
163	0x3d35d10a	0.04438881
164	0xbc0aedd9	-0.008479559
165	0xbc964aa7	-0.018346144
166	0x3d95ed06	0.07320599
167	0x3ba2c9e8	0.0049679168
168	0xbd9ee499	-0.07758445
169	0xbd940b13	-0.07228675
170	0x3dba08c1	0.09083701
171	0x3d9c694b	0.076372705
172	0xbd85fca3	-0.06542327
173	0x3db3aa34	0.08772698
174	0xbcf0f9da	-0.029416014
175	0xbd451527	-0.048115876
176	0x3c852977	0.016255124
177	0x3dc3f351	0.09567893
178	0x3d3f4542	0.04669691
179	0xbd9b41a2	-0.07580878
180	0xbcdbab63	-0.026815122
181	0x3d90b908	0.07066542
182	0x3d893393	0.0669929
183	0x3d03b101	0.032151226
184	0xbca400aa	-0.020019848
185	0xbd191cfd	-0.03738116
186	0x3d5cb7d2	0.053886242
187	0xbc85087a	-0.016239394
188	0x3d9a4eae	0.07534538
189	0x3d123d89	0.035703216
190	0x3daf0186	0.085452124
191	0x3d78b9af	0.060723957
192	0x3bf6f469	0.00753646
193	0x3da96367	0.082709126
194	0x3de267ad	0.11054931
195	0xbbf971a8	-0.007612426
196	0xbd67e1ee	-0.056611948
197	0xbb588f8f	-0.0033044552
198	0x3cefb18a	0.029259462
199	0xbccf477c	-0.025302641
200	0x3d1c31ed	0.03813355
201	0x3d6b4142	0.05743528
202	0xbca229fb	-0.019795408
203	0x3cb9018c	0.022583745
204	0x3cef767a	0.029231299
205	0x3c8945db	0.016756942
206	0xbceb8cb0	-0.028753608
207	0x3d06375b	0.032767635
208	0xbc50a84a	-0.012735436
209	0xbda23b94	-0.0792152
210	0xbd930b70	-0.07179916
211	0xbd952e88	-0.07284266
212	0xbda4586d	-0.080246784
213	0x3988ad88	0.00026069232
214	0x3cc12c75	0.02358077
215	0xbd49e0bd	-0.049286593
216	0xbd409211	-0.0470143
217	0xbd939952	-0.07206978
218	0xbd4579f6	-0.048212014
219	0x3d03f880	0.03221941
220	0xbd6537c5	-0.05596139
221	0xbca6eeab	-0.020377478
222	0x3d4c1614	0.049825743
223	0x3d114099	0.035461996
224	0x3c8369d1	0.016041668
225	0x3d34a13f	0.04409909
226	0xbd0550be	-0.032547705
227	0xbbe0180d	-0.0068388046
228	0x3d3de4a0	0.046360612
229	0x3d5f0a63	0.054453265
230	0x3d0a6cb8	0.03379509
231	0xbd5af895	-0.053459723
232	0xbd72a1fa	-0.059236504
233	0xbcd4f5d8	-0.025996134
234	0xbd522323	-0.05130304
235	0x3d7897d2	0.060691662
236	0xbce18bb0	-0.027532429
237	0x3d88f656	0.0668761
238	0xbd731c4e	-0.059353165
239	0x3d868bf4	0.06569663
240	0x3df0bd2b	0.11754831
241	0x3c5e55ca	0.013570258
242	0x3ba14532	0.004921579
243	0xbcdb7d74	-0.02679322
244	0x3d71f298	0.059069246
245	0x3d8f5ca9	0.070000954
246	0x3c763379	0.0150269205
247	0x3c0d9e26	0.008643663
248	0x3cb2e1e1	0.021836223
249	0x3c118590	0.008881941
250	0x3d2c66cc	0.042090222
251	0x3d75d468	0.06001702
252	0xbdd3ec05	-0.103477515
253	0xbd2bbd0b	-0.041928332
254	0xbdba9094	-0.09109607
255	0xbcd59c86	-0.026075613

layer3.bias f4 [128]
0	0xbdd62f4a	-0.104582384
1	0xbdf293e0	-0.11844611
2	0x3d685ce9	0.05672923
3	0xbd0d28ed	-0.034462858
4	0x3cf43c07	0.02981378
5	0xbd3d32ac	-0.046190903
6	0xbd632345	-0.055453558
7	0xbcb45eb7	-0.02201782
8	0x3dc465cb	0.09589728
9	0xbda68e10	-0.08132565
10	0x3d34c8bd	0.04413675
11	0x3d73d10b	0.05952553
12	0x3d8b811f	0.06811737
13	0xbd2067c4	-0.03916146
14	0x3b2de282	0.0026532714
15	0xba367e77	-0.0006961594
16	0x3dc8b93a	0.09800954
17	0x3dac8894	0.08424488
18	0x3d8cc484	0.0687342
19	0xbbbbd329	-0.0057319594
20	0xbc8bdc25	-0.017072747
21	0xbda2d018	-0.07949847
22	0xbb084f7e	-0.0020799334
23	0xbc292a5a	-0.010325039
24	0xbc81e725	-0.015857289
25	0xbd4b9c9b	-0.049709897
26	0xbde53014	-0.11190811
27	0xbb9891b8	-0.004656043
28	0x3c8abe87	0.016936554
29	0xbd4a8ce1	-0.04945076
30	0x3dd4a835	0.103836454
31	0xbcc4248e	-0.023943212
32	0xbc60eb71	-0.013728009
33	0x3d5e438c	0.054263636
34	0x3b4c19ec	0.003114338
35	0xbcbb43da	-0.022859503
36	0xbd0973d0	-0.033557713
37	0x3b2c4c86	0.0026290729
38	0xbdbe0d89	-0.092799254
39	0x3d0137a6	0.03154721
40	0x3be9a4f2	0.0071302587
41	0xbd4f1c0e	-0.050563864
42	0x3d9ca042	0.07647754
43	0xbd98ce96	-0.07461278
44	0x3c478a19	0.012178921
45	0xbda25548	-0.07926422
46	0xbe006e9a	-0.12542191
47	0x3d638a53	0.055551838
48	0x3ceffcea	0.029295404
49	0x3d893451	0.06699432
50	0x3cc44284	0.023957498
51	0xbdf1662d	-0.117870666
52	0x3d54275b	0.051795345
53	0x3ca2be31	0.019866081
54	0xbd1d7b25	-0.038447518
55	0x3cf5711e	0.029961165
56	0xbc30616f	-0.0107654175
57	0xbc459441	-0.012059272
58	0x3aaa53aa	0.0012994905
59	0xbd4d5f01	-0.05013943
60	0x3d420d30	0.047375858
61	0x3b310f1b	0.002701706
62	0xbc9c7622	-0.019099299
63	0xbc6b1525	-0.014348303
64	0x3be30480	0.0069280267
65	0xbd996aa4	-0.07491043
66	0xbd96ff38	-0.07372898
67	0x3c856085	0.016281376
68	0xbd2eb4f8	-0.042653054
69	0x3d2a76b2	0.041617103
70	0x3b972c79	0.004613456
71	0x3cfd33b6	0.030908447
72	0x3dbfc38f	0.09363472
73	0x3d6b6b17	0.057475176
74	0x3c6582b6	0.014008215
75	0x3d815a1e	0.063160166
76	0x3dd41910	0.10356343
77	0x3d8bdb20	0.06828904
78	0x3d350503	0.044194233
79	0x3d570079	0.052490685
80	0x3d5b5348	0.05354622
81	0x3de76108	0.11297804
82	0xbd804f5c	-0.062651366
83	0x3dc09292	0.09402956
84	0xbd96cbcb	-0.07363089
85	0xbc4a8874	-0.0123616345
86	0x3dc1c4f6	0.094613954
87	0x3e1b6359	0.15174617
88	0x3de0131f	0.10941147
89	0xbd488fdf	-0.04896533
90	0x3d98c583	0.07459547
91	0xbd8b65f9	-0.06806559
92	0x3c134fd3	0.0089912
93	0xbd72e171	-0.05929703
94	0x3d8b5d6b	0.068049274
95	0x3d6686d7	0.056280937
96	0x3d72d9e9	0.059289847
97	0xbd3a4bfc	-0.04548262
98	0x3a55883b	0.0008145605
99	0xbd50e5eb	-0.051000517
100	0xbd335b8e	-0.043788485
101	0xbd307adf	-0.04308593
102	0x3dad2e1b	0.084560595
103	0x3de0bd87	0.109736495
104	0x3d533191	0.051560942
105	0x3dbbac03	0.09163668
106	0x3d9cea38	0.07661861
107	0x3bb4a792	0.00551314
108	0xbdc56571	-0.09638489
109	0x3cfd85d9	0.030947613
110	0x3d206cbb	0.039166193
111	0x3bf0f523	0.0073534413
112	0x3d070da9	0.03297201
113	0x3daa77b5	0.083236136
114	0xbbae12cc	-0.0053122994
115	0xbc81bffc	-0.015838616
116	0x3def7a18	0.116932094
117	0x3db40901	0.0879078
118	0x3caa26e9	0.020770507
119	0xbcc74ac4	-0.024327643
120	0x3d70576d	0.058677126
121	0x3d8663a1	0.065619715
122	0xbdbdcbc9	-0.092673846
123	0x3d9a8b3c	0.07546088
124	0x3db129cb	0.086505495
125	0x3d40c6ba	0.04706452
126	0xbc169c83	-0.009192589
127	0x3da1cb5c	0.07900116

layer4.weight f4 [128, 128]
0	0x3d06b425	0.032886643
1	0xbd34edea	-0.044172205
2	0xbd6eb8f5	-0.058281858
3	0xbc2288ec	-0.00992034
4	0xbd90069d	-0.070325114
5	0xbc5e38f7	-0.013563386
6	0xbd983ccc	-0.07433471
7	0xbc5cf3df	-0.013485878
8	0xbd80d326	-0.06290273
9	0x3ba28b9b	0.00496049
10	0xbc87a5b0	-0.016558498
11	0xbbae1bef	-0.0053133885
12	0xbd9ca975	-0.07649509
13	0xbcf0906d	-0.029365743
14	0x3d86feb2	0.06591548
15	0xbca81f27	-0.020522667
16	0xbda36279	-0.079777665
17	0xbd647610	-0.055776656
18	0xbcc5c78c	-0.024143003
19	0xbd8f0907	-0.06984144
20	0x3da7dab0	0.08196008
21	0x3d1b0a9e	0.037851922
22	0x3c5771a9	0.013149657
23	0xbbe725a0	-0.007054046
24	0xbcf1f3f0	-0.029535264
25	0x3d0a10ce	0.033707432
26	0x3cf89ca8	0.030348137
27	0xbcb60c7d	-0.022222752
28	0x3c6334f1	0.013867603
29	0xbcfe5257	-0.031045122
30	0x3d91208e	0.070862874
31	0x3d8ee32a	0.06976922
32	0x3d6ef96a	0.05834333
33	0x3d7e8757	0.06214079
34	0x3c1002e8	0.008789755
35	0xbcaba6d3	-0.020953571
36	0x3d328b8d	0.043590117
37	0x3d833ca4	0.06408051
38	0xbd8d3454	-0.068947464
39	0xbd7c1eaa	-0.06155268
40	0xbd2dd7df	-0.0424422
41	0xbbffc3fe	-0.0078053465
42	0x3b7cd6e7	0.003858024
43	0xbc166fa1	-0.009181888
44	0xbc560bdb	-0.01306435
45	0xbd507849	-0.050895963
46	0xbabbaf0a	-0.0014319133
47	0xbad7f09e	-0.0016474908
48	0xbd463779	-0.048392747
49	0xbc0c03a9	-0.0085457945
50	0x3b309efc	0.002695023
51	0x3dba57cf	0.090987794
52	0x3d97551b	0.073892795
53	0xbcdaf28c	-0.026726983
54	0x3d5ac379	0.053409074
55	0xbc6dc26c	-0.014511686
56	0x3c97b565	0.018519113
57	0x3d2ee2cb	0.042696755
58	0x3dd2a32a	0.10285027
59	0x3d970924	0.0737479
60	0xbb725a45	-0.0036980074
61	0x3caeb160	0.021324813
62	0x3d1a1ebf	0.037626978
63	0xbda22be6	-0.07918529
64	0xbd3a3301	-0.045458797
65	0x3d163f1a	0.036681272
66	0x3d9c64b3	0.07636394
67	0x3d38ede8	0.04514876
68	0xbd94d789	-0.072676726
69	0x3d811d62	0.063044325
70	0xbb8aca16	-0.0042355163
71	0xbcbc2409	-0.022966402
72	0x3d220740	0.039557695
73	0xbd7f5e28	-0.062345654
74	0x3d33bd36	0.043881617
75	0x3c015c2b	0.00789551
76	0x3bf58def	0.0074937264
77	0xbd9f04d1	-0.077645905
78	0x3d6cde3b	0.057829123
79	0xbd5937c5	-0.0530317
80	0x3c555589	0.013020881
81	0xbd5d84a0	-0.05408156
82	0xbd40faa6	-0.047114037
83	0xbc8bf457	-0.017084284
84	0x3cb2483b	0.021762958
85	0xbd910672	-0.070813075
86	0xbd7e6469	-0.062107477
87	0xbd52df0b	-0.05148224
88	0x3dbf7578	0.09348577
89	0xbd1817ad	-0.037131954
90	0xbccca76c	-0.024982177
91	0xbd58c713	-0.052924227
92	0x3d07d647	0.033163335
93	0xbaa71c40	-0.0012749508
94	0x3aceae6a	0.0015768532
95	0x3d26461a	0.040594198
96	0x3da3cefc	0.079984635
97	0xbcc3b213	-0.023888623
98	0xbc864a79	-0.016392933
99	0x3d40b043	0.047043096
100	0xbd8e2b6c	-0.06941876
101	0xbd828b4c	-0.06374225
102	0xbd5045e9	-0.05084792
103	0x3cdafcce	0.026731875
104	0x3d41827d	0.047243584
105	0x3d7d300c	0.0618134
106	0xbd809043	-0.06277516
107	0x3d199433	0.03749485
108	0x3c819a57	0.015820665
109	0x3cc8689e	0.024463948
110	0xbcf4f492	-0.029901776
111	0xbd95c3d8	-0.07312745
112	0x3d61a3a0	0.055087686
113	0x3d938ed0	0.07204974
114	0xbd7b4b80	-0.0613513
115	0xbb9b1552	-0.004732766
116	0xbd91ab94	-0.07112804
117	0x3d51cbe0	0.05121982
118	0x3b7602aa	0.003753821
119	0x3d8af684	0.067853004
120	0xbd2c5649	-0.042074475
121	0xbbe7f6cb	-0.0070789806
122	0xbd885f21	-0.066587694
123	0x3b59de5f	0.0033244116
124	0x3da3fbd9	0.080070205
125	0x3d5eb058	0.054367393
126	0xbd006213	-0.03134353
127	0xbcf014ce	-0.029306795
128	0xbd8ac415	-0.06775681
129	0x3cd75e9f	0.026290236
130	0x3d991996	0.07475583
131	0xbd9be7e8	-0.07612592
132	0x3c041ca8	0.008063473
133	0xbd9c5499	-0.07633323
134	0xbd1d75cd	-0.03844242
135	0x3d93b63b	0.07212492
136	0xbd1706c9	-0.036871705
137	0xbd290427	-0.041263726
138	0x3d9a67da	0.07539339
139	0x3d91e7f2	0.07124318
140	0x3d0fe0ca	0.035126485
141	0xbc5b8c48	-0.013400145
142	0x3d9eda7f	0.077565186
143	0xbd02a507	-0.031895664
144	0x3da39b11	0.07988561
145	0x3d304244	0.043031946
146	0x3d96aaa3	0.07356765
147	0xbd943db7	-0.07238334
148	0xbc7a74ab	-0.015286605
149	0xba8f4100	-0.0010929406
150	0x3d18513c	0.037186846
151	0x3db4a602	0.08820726
152	0x3da304a5	0.0795987
153	0xbc193faf	-0.009353562
154	0xbd2f5b96	-0.042811953
155	0x3cc26f8e	0.023734834
156	0x3d988f33	0.07449188
157	0xbd62c307	-0.055361774
158	0x3d996449	0.07489831
159	0x3ce46e09	0.0278845
160	0x3cbce505	0.023058424
161	0x3c7b8c1e	0.015353231
162	0xbdaacd89	-0.08339984
163	0xbc10f63f	-0.008847772
164	0x3d12886f	0.035774644
165	0x3d014b1c	0.03156577
166	0xbc3ae33e	-0.011406718
167	0x3c9d026f	0.0191662
168	0xbce8009e	-0.028320607
169	0xbd9ba742	-0.07600261
170	0x3d84c176	0.06482212
171	0xbc99ff78	-0.018798575
172	0x3d8eb6ba	0.06968446
173	0x3c682423	0.014168772
174	0xbbe0c5c5	-0.0068595135
175	0x3d85cc76	0.065331385
176	0xbd851839	-0.06498761
177	0xbd26e8c5	-0.04074933
178	0x3c2bcfa2	0.010486515
179	0x3daa7c9d	0.08324549
180	0x3d1f9419	0.038959596
181	0x3db67c9e	0.089104876
182	0x3d793ff3	0.060852002
183	0x3d9f9922	0.0779288
184	0x3cb8e4ce	0.02257004
185	0xbd566888	-0.052345783
186	0x3c74e34d	0.014946771
187	0xbd599541	-0.053120855
188	0x3d2ab44e	0.04167586
189	0x3c0045f5	0.007829179
190	0x3d991e53	0.07476487
191	0xbd16ba13	-0.036798548
192	0xbc499a87	-0.012304909
193	0xbcec986a	-0.02888127
194	0x3d4eb54b	0.050465863
195	0x3d21ec4f	0.039532002
196	0x3d98e4ef	0.074655406
197	0x3d6683bf	0.056277987
198	0xbda4dc82	-0.08049871
199	0xbd4b7ff3	-0.04968257
200	0xbdad6c2d	-0.084678985
201	0x3d377339	0.04478762
202	0x3d2abdea	0.041685022
203	0x3d8d6d6d	0.06905637
204	0x3ca0e154	0.019638695
205	0xbc87a564	-0.016558357
206	0x3d8f2663	0.069897436
207	0x3d939aab	0.07207235
208	0xbc25e9c5	-0.010126536
209	0x3b9787d9	0.0046243486
210	0xbd985b97	-0.074393444
211	0x3baa8343	0.005203636
212	0x3d06e001	0.03292847
213	0xbd8cfd7a	-0.06884284
214	0xbc54218e	-0.012947453
215	0x3dadb028	0.08480865
216	0xbd0461d3	-0.032319855
217	0x3d4b37bd	0.049613703
218	0xbd811697	-0.06303137
219	0xbd8bfaff	-0.06834983
220	0x3bb7c843	0.00560859
221	0xbd21f0ca	-0.039536275
222	0x3cdd1602	0.026988033
223	0xbd82e1c2	-0.06390716
224	0xbb940630	-0.004517339
225	0x3db18648	0.0866819
226	0x3bcfaaf6	0.006337519
227	0x3dc1be74	0.09460154
228	0xbd7c136e	-0.061541967
229	0x3c1a91ec	0.009434205
230	0xbc904143	-0.017609244
231	0x3d8c15bc	0.06840083
232	0x3da2da36	0.07951777
233	0x3d5b0fbf	0.053481814
234	0xbc11ae31	-0.008891628
235	0xbda28a91	-0.07936586
236	0xbd879b7e	-0.06621455
237	0x3d85a7c6	0.06526141
238	0x3d93845e	0.072029814
239	0x3d949f9d	0.07257006
240	0x3cfcb7ed	0.030849421
241	0xbcd9df94	-0.026595868
242	0x3d0fc027	0.03509536
243	0x3d018ca8	0.03162828
244	0x3cf7ea2d	0.03026303
245	0xbd95f65f	-0.07322382
246	0x3d9db7e9	0.07701094
247	0xbd04149a	-0.03224621
248	0x3dc9f6cf	0.09861528
249	0x3d71beaf	0.05901974
250	0xbd0cc390	-0.03436619
251	0xbdc09994	-0.09404293
252	0xbd3a8dff	-0.045545574
253	0xbc9e6642	-0.01933587
254	0x3d8e6200	0.06952286
255	0x3bcf9b51	0.006335654

layer4.bias f4 [128]
0	0xbd8c0dec	-0.06838593
1	0x3d946b1d	0.07246993
2	0xbd1ae7f7	-0.037818875
3	0x3cf362ba	0.029710162
4	0xbdafb6aa	-0.08579762
5	0xbd4b0099	-0.049561117
6	0xbcf71f4b	-0.030166289
7	0x3d6e5ccb	0.058193963
8	0x3db18389	0.086676665
9	0x3d62d4df	0.05537879
10	0x3dae31a4	0.08505562
11	0x3d93d0e0	0.07217574
12	0xbd5e367e	-0.054251187
13	0xbac6f5e1	-0.0015179479
14	0xbd9433b7	-0.07236426
15	0xbdb5c881	-0.08876134
16	0xbb0a04e5	-0.0021060046
17	0x3cf60c84	0.030035265
18	0xbdaad40b	-0.08341225
19	0xbc4b7296	-0.012417456
20	0xbba4260c	-0.0050094184
21	0x3cc395f4	0.023875214
22	0x3d7df933	0.062005233
23	0xbd6dbde5	-0.058042426
24	0x3d59c6b8	0.05316803
25	0xbdb1bed6	-0.08678977
26	0x3bdbbfa0	0.006706193
27	0xbd6413b5	-0.055682857
28	0x3da64d0d	0.08120165
29	0x3d417c84	0.047237888
30	0x3dc101d2	0.09424175
31	0x3db7b4f6	0.089700624
32	0x3d3bae46	0.045820497
33	0xbd063fe8	-0.03277579
34	0x3d1db988	0.038507015
35	0xbc5e3549	-0.013562509
36	0xbdfadfd3	-0.12249722
37	0x3ccb01c2	0.024781112
38	0xbd084278	-0.033266515
39	0xbd270273	-0.04077382
40	0xbd8d3452	-0.06894745
41	0x3dac0f16	0.08401315
42	0xbcea4ad9	-0.028600143
43	0xbdefdb53	-0.11711755
44	0xbd789ed1	-0.060698334
45	0x3d92526d	0.07144628
46	0xbcf56fe1	-0.029960575
47	0xbcad5b72	-0.021161769
48	0x3be14e15	0.006875763
49	0x3d7dfe01	0.062009815
50	0xbd4ec7f3	-0.050483655
51	0x3dac12a6	0.084019944
52	0xbd352311	-0.044222895
53	0x3d607952	0.0548032
54	0x3d4c8f9c	0.049941644
55	0xbd13b178	-0.03605792
56	0x3a698d15	0.00089092675
57	0xbc6be93f	-0.014398872
58	0x3db053e5	0.086097516
59	0xbd8eab79	-0.069662996
60	0xbd53a95e	-0.051675193
61	0xbd88d20e	-0.0668069
62	0x3dbe8933	0.093035124
63	0x3cb893b2	0.022531364
64	0xbd80982e	-0.06279026
65	0x3c9c9678	0.019114718
66	0x3d8d2551	0.06891883
67	0xbd9244b9	-0.07142014
68	0xbd7b3f9d	-0.061339963
69	0x3d9b23ff	0.07575225
70	0x3d898b00	0.06715965
71	0x3d7c4e6d	0.06159823
72	0x3d790721	0.060797814
73	0x3dc92a49	0.098225184
74	0x3de4ae0a	0.11166008
75	0xbc11a867	-0.008890248
76	0xbcdf1bc5	-0.027234921
77	0xbd7e0f54	-0.062026337
78	0x3d2221f1	0.03958315
79	0x3db98a39	0.09059567
80	0x3d09c50a	0.033635177
81	0x3ca8612c	0.020554148
82	0xbda78db7	-0.08181327
83	0x3cf65f7f	0.030074833
84	0x3d2f306d	0.04277079
85	0x3c7e50c1	0.015522183
86	0xbd4f8a96	-0.050669275
87	0x3d0a6c74	0.033794835
88	0x3c28aa28	0.010294475
89	0x3bebe115	0.0071984627
90	0x3d6339c5	0.055475015
91	0xbc8d1e95	-0.017226497
92	0x3d4f8f8d	0.05067401
93	0xbda748bf	-0.08168172
94	0x3da87304	0.082250625
95	0xbdbaff30	-0.091307044
96	0x3d768911	0.06018931
97	0xbdaa0ebd	-0.08303592
98	0x3d06a09c	0.032868013
99	0x3da8ea4d	0.08247814
100	0x3cc352fb	0.02384328
101	0x3daa941a	0.083290294
102	0x3db7aea6	0.089688584
103	0xbd8029ab	-0.062579475
104	0xbc91dc43	-0.017805224
105	0xbcc3bf42	-0.02389491
106	0xbd8f2a90	-0.0699054
107	0x3c777834	0.015104342
108	0xbda40039	-0.08007855
109	0x3de4f8ca	0.11180265
110	0xbca4c99c	-0.020115666
111	0xbd82b54f	-0.06382238
112	0xbd2a4e10	-0.041578352
113	0xbc94111d	-0.018074566
114	0xbd71aa61	-0.059000377
115	0x3e07d485	0.13264664
116	0x3c91a67c	0.017779581
117	0xbc563ca1	-0.0130759785
118	0x3ccbd444	0.02488149
119	0x3bd74eeb	0.006570687
120	0x3d4123b8	0.047153205
121	0xbd938f92	-0.07205118
122	0xbd602645	-0.054723997
123	0xbc90b753	-0.01766554
124	0xbdba20cc	-0.09088287
125	0x3cd2e23f	0.025742648
126	0x3d6a1473	0.05714841
127	0x3db3168e	0.08744536

input_norm.weight f4 [5]
0	0x3f882c60	1.0638542
1	0x3f886eac	1.0658774
2	0x3f2c5844	0.6732218
3	0x3f900acc	1.1253295
4	0x3f32fd24	0.6991751

input_norm.bias f4 [5]
0	0x3e7c0121	0.24609806
1	0x3e0317de	0.12802073
2	0xbc4ff690	-0.012693062
3	0x3f4f0923	0.80873317
4	0x3d653005	0.055953998

input_norm.running_mean f4 [5]
0	0x40883ba5	4.257281
1	0x3d57ad1f	0.052655336
2	0xbfe306ca	-1.7736447
3	0x411704ba	9.438654
4	0x3d03824d	0.032106686

input_norm.running_var f4 [5]
0	0x40a7cadf	5.2435145
1	0x3cb3052c	0.021853052
2	0x402ec70e	2.7308993
3	0x41f42e3b	30.522573
4	0x3cbd2444	0.023088582

norm.weight f4 [128]
0	0x3f7c79f5	0.9862359
1	0x3f784ffa	0.96997035
2	0x3f7863c2	0.9702722
3	0x3f7762ea	0.96635306
4	0x3f774bf3	0.96600264
5	0x3f78295d	0.96938115
6	0x3f782b02	0.96940625
7	0x3f775bc2	0.96624386
8	0x3f792ae5	0.97331077
9	0x3f84ba3e	1.0369337
10	0x3f741206	0.9534
11	0x3f75b9ef	0.9598684
12	0x3f799e06	0.9750675
13	0x3f76cf9e	0.9641055
14	0x3f6fe988	0.93715715
15	0x3f6e9cff	0.9320831
16	0x3f804ff1	1.0024396
17	0x3f77ffa1	0.96874434
18	0x3f77e54e	0.96834266
19	0x3f7d0dcc	0.9884918
20	0x3f77ab06	0.96745336
21	0x3f7af91e	0.9803637
22	0x3f7aad01	0.97920233
23	0x3f77969c	0.96714187
24	0x3f712ad6	0.9420599
25	0x3f79cc28	0.9757714
26	0x3f76c7dc	0.9639871
27	0x3f76b31d	0.96367055
28	0x3f78c0da	0.9716927
29	0x3f795554	0.97395825
30	0x3f78dfd0	0.9721651
31	0x3f769d18	0.96333456
32	0x3f81f9c3	1.0154346
33	0x3f769a0f	0.96328825
34	0x3f7f2214	0.99661374
35	0x3f769015	0.963136
36	0x3f79f664	0.9764159
37	0x3f7977ad	0.97448236
38	0x3f7c44d3	0.9854252
39	0x3f78bd44	0.97163796
40	0x3f756014	0.9584973
41	0x3f7bdce5	0.98383933
42	0x3f750d65	0.95723563
43	0x3f76f9f2	0.96475136
44	0x3f774010	0.96582127
45	0x3f805922	1.0027201
46	0x3f74e866	0.9566711
47	0x3f786b71	0.9703894
48	0x3f76205a	0.96143115
49	0x3f73ec94	0.95282865
50	0x3f766846	0.9625286
51	0x3f7a1735	0.9769166
52	0x3f798780	0.9747238
53	0x3f763d84	0.96187615
54	0x3f753fc4	0.95800424
55	0x3f72f2cd	0.94901735
56	0x3f791b2f	0.97307104
57	0x3f78d25c	0.9719598
58	0x3f727e63	0.947241
59	0x3f7d4ff2	0.9895011
60	0x3f7ff613	0.99984854
61	0x3f748681	0.95517737
62	0x3f734472	0.95026314
63	0x3f76ba50	0.9637804
64	0x3f72b881	0.9481278
65	0x3f84cc1b	1.0374788
66	0x3f77dd72	0.96822274
67	0x3f73522b	0.95047253
68	0x3f7786fb	0.9669034
69	0x3f725009	0.94653374
70	0x3f721208	0.94558764
71	0x3f7b7bad	0.9823559
72	0x3f737343	0.9509775
73	0x3f7f9285	0.99832946
74	0x3f771f17	0.96531814
75	0x3f77a0f5	0.96729976
76	0x3f7b87db	0.98254174
77	0x3f77f328	0.968554
78	0x3f77e7ec	0.9683826
79	0x3f7832d4	0.9695256
80	0x3f783e17	0.9696974
81	0x3f75d788	0.96032
82	0x3f76c700	0.963974
83	0x3f8a9fc4	1.0830007
84	0x3f796dbd	0.9743307
85	0x3f79c974	0.9757302
86	0x3f7403c6	0.9531826
87	0x3f780e77	0.9689707
88	0x3f7439a1	0.95400435
89	0x3f776737	0.9664187
90	0x3f77e60c	0.968354
91	0x3f78f53c	0.972492
92	0x3f7c2cd7	0.9850592
93	0x3f7057d7	0.9388403
94	0x3f76d8c1	0.9642449
95	0x3f772f0c	0.9655616
96	0x3f783727	0.96959156
97	0x3f818fc3	1.0121998
98	0x3f801d43	1.000893
99	0x3f7561fa	0.95852625
100	0x3f77afec	0.9675281
101	0x3f7bb862	0.9832822
102	0x3f7413a0	0.95342445
103	0x3f7567e7	0.9586167
104	0x3f721fe8	0.94579935
105	0x3f7981f1	0.974639
106	0x3f77b3e8	0.9675889
107	0x3f788280	0.9707413
108	0x3f72d16f	0.9485082
109	0x3f799c6b	0.975043
110	0x3f7a579b	0.97789925
111	0x3f7ab65f	0.97934526
112	0x3f777b66	0.96672666
113	0x3f7eb817	0.9949965
114	0x3f761c9b	0.961374
115	0x3f7a54d7	0.97785705
116	0x3f79a661	0.975195
117	0x3f789a5b	0.9711053
118	0x3f79a2a0	0.9751377
119	0x3f79c57c	0.9756696
120	0x3f81746f	1.0113658
121	0x3f6e0fae	0.92992675
122	0x3f76a99f	0.9635257
123	0x3f747f85	0.9550708
124	0x3f71ed93	0.94503134
125	0x3f737a77	0.9510874
126	0x3f73dc17	0.95257705
127	0x3f7569dc	0.95864654

norm.bias f4 [128]
0	0x3c8f4622	0.017489497
1	0xbd461731	-0.04836196
2	0x3ce78453	0.02826134
3	0xbe2b7201	-0.16742708
4	0x3e6089b3	0.21927528
5	0xbdde2b45	-0.10848097
6	0x3c205429	0.00978569
7	0xbdabf0f7	-0.0839557
8	0xbcff9a28	-0.031201437
9	0x3e09473d	0.13406081
10	0xbcc470b3	-0.02397952
11	0x3b81c9b1	0.003960811
12	0x3e935a99	0.28780058
13	0x3bd4d8fd	0.0064955936
14	0x3ec88395	0.3916289
15	0xbe2442bf	-0.16041087
16	0x3c96f974	0.018429495
17	0x3dac697b	0.08418556
18	0x3dec7517	0.115457706
19	0x3d8f1f8c	0.06988439
20	0xbe5aa7d1	-0.2135308
21	0xbd5fbd6c	-0.054624006
22	0x3de2f667	0.11082154
23	0xbd90a063	-0.07061841
24	0xbe7473a4	-0.23872238
25	0xbddaa6f6	-0.106763765
26	0xbd60e6c1	-0.054907564
27	0xbe7b8b05	-0.2456475
28	0xbe705e2d	-0.23473425
29	0xbe2a3e47	-0.1662532
30	0xbd84efd3	-0.06491055
31	0x3e3d05d6	0.18459257
32	0xbdde0e60	-0.108425856
33	0xbe09d6e3	-0.13460879
34	0xbe439bda	-0.19102421
35	0xbea95d97	-0.33079216
36	0x3d679d83	0.0565467
37	0xbe5371ca	-0.20648876
38	0xbcf3d77b	-0.029765835
39	0xbd8a39ee	-0.067493305
40	0xbdad728c	-0.08469114
41	0x3d9f9d9f	0.07793736
42	0x3e165471	0.1468065
43	0xbe2f9064	-0.17144924
44	0x3da854e5	0.08219317
45	0x3d97bc82	0.07409002
46	0x3d00f8bc	0.03148721
47	0xbe571914	-0.2100566
48	0x3e6c2152	0.23059586
49	0xbe6ade9b	-0.2293648
50	0x3e1403f2	0.1445463
51	0xbdfcd066	-0.12344436
52	0x3e50c2c4	0.20386797
53	0xbe319bee	-0.17344639
54	0xbe417ec0	-0.18896008
55	0x3dbea80d	0.09309397
56	0x3d5dae85	0.054121513
57	0xbd3f4b88	-0.04670289
58	0xbe3405b9	-0.17580308
59	0xbe8769fb	-0.26448044
60	0x3e20c1c4	0.15698916
61	0x3e2afc59	0.16697825
62	0x3e5ae343	0.21375756
63	0x3dd7008c	0.10498151
64	0x3e4ef6d3	0.20211343
65	0xbc594251	-0.01326044
66	0xbdf65e31	-0.12029684
67	0xbe1310f9	-0.14361943
68	0xbe393ced	-0.18089648
69	0xbb8fb230	-0.0043852553
70	0x3ca9ead9	0.020741867
71	0xbd8c1007	-0.068389945
72	0x3efafd60	0.49021435
73	0xbd3ce4ec	-0.046116754
74	0xbbf171d0	-0.007368304
75	0xbd68d709	-0.0568457
76	0xbbee0419	-0.007263672
77	0xbd8f6bf4	-0.07003012
78	0xbcbe5d9d	-0.023237998
79	0xbe176041	-0.14782812
80	0x3e1c5e4c	0.15270346
81	0x3e6c613e	0.2308397
82	0xbea4b20c	-0.3216709
83	0x3cad1a6f	0.021130769
84	0xbde06fbc	-0.10958812
85	0x3e961b43	0.29317674
86	0x3e9cfa54	0.30659735
87	0x3e3399cf	0.17539142
88	0x3dc5ccbb	0.0965819
89	0x3dc27753	0.094954155
90	0x3e729f3c	0.23693556
91	0xbe59b564	-0.21260601
92	0xbd70f788	-0.058829814
93	0x3ea819b0	0.32832098
94	0x3e1c70af	0.1527736
95	0x3c02ddaa	0.007987419
96	0xbdc3d72b	-0.095625244
97	0xbe081dce	-0.1329262
98	0xbc872edd	-0.016501838
99	0x3ec4d21f	0.3844156
100	0x3cfcbe6f	0.030852525
101	0x3dd0748e	0.10178481
102	0x3eb20c48	0.34774995
103	0xbd9bcfe7	-0.076080136
104	0xbd6c7c83	-0.05773593
105	0xbd3ebcf9	-0.046566937
106	0xbe0b9ed0	-0.13634801
107	0xbe6bd995	-0.2303222
108	0xbec62922	-0.38703257
109	0x3d016a6d	0.031595636
110	0x3d3935d1	0.04521734
111	0x3e26ff82	0.16308406
112	0x3c9e047e	0.019289251
113	0x3e28084f	0.1640942
114	0xbc44eebb	-0.012019808
115	0xbef200f0	-0.4726634
116	0x3dca6daf	0.09884202
117	0xbeaf8375	-0.3427998
118	0xbd686970	-0.056741178
119	0xbe031e0c	-0.1280443
120	0x3e0bcf75	0.13653357
121	0x3eb90f0c	0.36144292
122	0xbe35d726	-0.17757854
123	0x3e9f5862	0.31122118
124	0xbe8072f7	-0.2508771
125	0x3e7ebfbb	0.24877827
126	0x3bd70bd8	0.006562691
127	0x3dbef656	0.093243286
