Lex_jaywalker_QAgent.pt (torch, 225889 bytes, 22 tensors)

layer1.weight f4 [128, 6]
00000000: 6073 61bd 8816 58be 3976 e5bd 9fd3 513e
00000010: 9748 ebbe 35b8 bb3d e9ff d93d 5139 8c3c
00000020: feb9 8e3c 915b 43bc 4372 c43e 99c0 d3bb
00000030: 1260 b93c 80a9 bdbd e609 1dbd cd75 0bbd
00000040: d39c 1a3d 2e2c de3c fdb5 2a3f c1e2 343c
00000050: d256 5bbe 4ef4 5dbe a5e3 12bd c938 d6be
00000060: 5094 84be cdf0 b93c 5922 9d3e 6d9a 003e
00000070: 3997 1fbf 7039 993d bc99 c1bc 26f6 fa3e
00000080: 69a1 833e 3023 13bf 8407 06bf a85e afbd
00000090: 6c9e 4d3e c326 a2bc a199 5f3e 0c3a 72be
000000a0: 3c11 963e 174d cf3c af51 1a3f 2625 0fbe
000000b0: d060 893b 5568 b33e e4cc 14be c379 4ebe
000000c0: 00d8 1f3c 0532 27be 881b efbe ee73 40bc
000000d0: f9af c53e e3ee 20bd 3bfb 343f a6e0 553e
000000e0: 58c2 6fbe 345e 84be ed36 473e 3e19 123f
000000f0: 03d3 b83d ec31 d23e 125f 6f3e bd75 573e
00000100: b224 bcbe adc8 6f3d d0a4 e3bd b54d 0e3d
00000110: bec7 7cbe bee4 debe a0b4 013d 1c95 8dbe
00000120: 94c5 373f 02e3 25ba 7fae 57bd be6b 70bd
00000130: 6562 ad3b 7fed 0d3f 6fb8 e0be b84b f0bb
00000140: 3222 c9bd 24a0 b0be 7a57 04be 6a4a 0f3e
00000150: dfeb c63d 9f54 f0be 1722 9ebe 68c4 473e
00000160: 3f56 87bd 1f06 873e 685c 403d 58c6 f7be
00000170: b9f2 9fbd a0fb 0ebc 0227 b0be 3ad4 eebd
00000180: 7624 483c f1b8 26bd f6f9 07be e49b afbd
00000190: f721 693e 645a 013e f297 3f3e 76a2 593c
000001a0: 4ba8 8cbe c7d5 97be a42f 5c3e 1b81 a83e
000001b0: 9ebb 2a3f 6340 04be cb04 5c3e dcab 013f
000001c0: badc 173f 8a0c 65be 1717 143d 12cb b33e
000001d0: 9853 8f3e 6e73 4a3e 3e37 e9be bce2 e4bd
000001e0: 3adb 63be 8ab4 e03d 0de8 cc3e 5fe2 acbe
000001f0: ebaf ce3e 4ddb c7be 2dba fcbe a41a 2d3c
00000200: fec7 6d3e b55a 5a3e fdb6 13bf 5c69 bb3c
00000210: 2d5d 123f 83b4 073e 1330 ab3e 087b d33e
00000220: ddd3 b63e cb53 843d 2c34 9dbe dfc5 13bf
00000230: cb84 fdbe e42c 973d 0176 a3be 1b96 fdbc
00000240: c0fa d63d 0284 81be 1fe6 9b3e a9d2 bd3d
00000250: a910 3e3e 559b 573e b46f 1abe db8f a13e
00000260: 8ec9 333d 51bc 69be 2962 e1be 09d1 d7be
00000270: 6d73 6ebe 086a a9be e880 2a3e d860 40be
00000280: 2353 97be d5fd 103f 50e7 a63d e8f3 a43c
00000290: 85f4 91be 6d9b eabb e4c8 cbbd 2f19 d53c
000002a0: 9364 12bf 9941 92be 07b5 82be 1e9b 9a3d
000002b0: 4d7a 0e3e f6fa 623e 2d81 183f 45f1 283e
000002c0: 292c d73e 6f5d 293e 47c5 babe 1bcb 473e
000002d0: 84ee 78be 92ed 24be ff09 07bf 9124 65be
000002e0: 7559 a8be 0fad 1d3e e5dd 0abf b746 b23c
000002f0: 6723 8dbd 3b8e 83bd 3121 bd3e d833 fdbe
00000300: da0b 12bf cfb7 edbc 8647 5a3e a5f4 05bf
00000310: 7306 533e 9c0d 1c3f bdd6 983e 2a1f b1be
00000320: 9f16 d63c bb51 babe 754b 863e 9b19 31be
00000330: b3b6 f53d b7f7 e5bd 69ce 2abd 698e d7bc
00000340: 442c a63b ada0 1f3e 2376 8dbe 7485 403c
00000350: 1db7 aabe a521 b73e 229c 063f 3d11 c63e
00000360: a667 fa3e 2bde 5abe 0641 70bd 3540 903e
00000370: 2f72 5dbe f5df f93e d71f 88be 72b7 c1be
00000380: 8329 26be 0595 79be 7945 40be 7e55 6c3e
00000390: 2f5e 7d3e 82b8 de3e 5160 99bd e081 c8be
000003a0: fe60 a03e f018 2ebe d1c2 95be 8153 c73e
000003b0: c060 70be 30e3 0f3e 92d7 2c3f e925 65be
000003c0: b85f 53be 1e37 51bd c753 65bd b1e2 93bd
000003d0: 8bc5 a9be 5119 2a3e 6409 64be af10 37be
000003e0: 3598 3bbe 7b93 56be 4ada a63e 6745 bcbe
000003f0: 8cd8 8dbd 0b47 d93d bb0a 2ebd 2809 3fbe
-0.05504167 -0.21102345 -0.1120419 0.20490883 -0.4595382 0.09165994 0.10644514 0.017117174
0.017422672 -0.011923687 0.38368425 -0.0064621684 0.022628818 -0.09260845 -0.038339518 -0.03404789
0.037747215 0.027120676 0.6668394 0.0110403905 -0.21419838 -0.21675226 -0.03586163 -0.418402
-0.25894403 0.02269783 0.30690268 0.12558909 -0.6234012 0.074816585 -0.023632877 0.4901592
0.25709084 -0.57475567 -0.5235522 -0.08562976 0.20079964 -0.019793874 0.21835949 -0.23654956
0.29310024 0.025305314 0.6028089 -0.13979015 0.004192449 0.35040537 -0.14531285 -0.20163636
0.009756088 -0.16327675 -0.46700692 -0.01174639 0.3861082 -0.03929032 0.7069585 0.20886478
-0.2341398 -0.2585312 0.19454546 0.57069767 0.09024622 0.41053712 0.2337611 0.21041007
-0.36746746 0.05854099 -0.1111542 0.034742076 -0.2468557 -0.4353389 0.031666398 -0.27652824
0.71785855 -0.0006328077 -0.052656647 -0.0586965 0.0052912706 0.55440515 -0.43890712 -0.007333245
-0.09820975 -0.34497178 -0.12923995 0.1399323 0.097129576 -0.4693956 -0.30885383 0.19508517
-0.06608247 0.26371858 0.046963125 -0.48393512 -0.078099675 -0.008726984 -0.3440476 -0.11661573
0.012215724 -0.040703718 -0.13278946 -0.08574656 0.22766863 0.12632138 0.18710306 0.013283363
-0.27472147 -0.29655287 0.21502548 0.32911 0.6669253 -0.12915187 0.21486203 0.5065286
0.59321177 -0.22368065 0.036154833 0.35115868 0.27993464 0.19770595 -0.4554996 -0.11176059
-0.22251597 0.10971935 0.4002079 -0.33766457 0.4036859 -0.390345 -0.4936079 0.010565434
0.23220822 0.21323664 -0.5770109 0.022877388 0.57173425 0.13252454 0.33435115 0.41304803
0.35708514 0.06461295 -0.30703866 -0.577238 -0.49515375 0.07381609 -0.31925967 -0.030955365
0.104970455 -0.25296026 0.30449006 0.09268696 0.18561043 0.21055348 -0.15081674 0.31555066
0.04389339 -0.22825743 -0.44020203 -0.4215167 -0.23286219 -0.33088708 0.16650736 -0.18786943
-0.29555616 0.56637317 0.08149588 0.020135835 -0.28506866 -0.0071596415 -0.09950426 0.026012985
-0.57184714 -0.28565672 -0.25528738 0.075491175 0.13913842 0.22166047 0.59572107 0.16498287
0.4202588 0.16539548 -0.36478636 0.19511072 -0.24309736 -0.16106251 -0.5274963 -0.2237723
-0.3288075 0.15398048 -0.54244834 0.021762235 -0.06891518 -0.06423613 0.36939386 -0.49453616
-0.57049334 -0.02901831 0.21316347 -0.5232642 0.20607929 0.60958266 0.29851332 -0.3459409
0.026133833 -0.3639048 0.26229444 -0.17294924 0.11997738 -0.112288885 -0.041700754 -0.026313024
0.005071195 0.15588637 -0.27629194 0.011750568 -0.3334283 0.35767856 0.5258199 0.38685027
0.48907202 -0.21373813 -0.05865576 0.28173986 -0.21625589 0.48803678 -0.26586792 -0.3783527
-0.16226773 -0.24373253 -0.18776502 0.23079488 0.2474296 0.43500143 -0.07489074 -0.39161587
0.31324 -0.170017 -0.29250196 0.38930896 -0.23474407 0.14051509 0.67516434 -0.22377743
-0.20641983 -0.051077954 -0.0559881 -0.07220972 -0.33158526 0.1661122 -0.22269207 -0.17877458
-0.18319781 -0.20954697 0.32588416 -0.367717 -0.06926069 0.106092535 -0.042490702 -0.18655837

layer1.bias f4 [128]
00000000: 0134 fbbc c8c6 783e e53c c6be 8c70 49be
00000010: fff6 f4be 996c 4b3e 1863 c83e fb42 1cbf
00000020: 5fd8 b53d 9a5e 60bf 0f0c c6be 8de6 12bf
00000030: cbfb a0bf 5a97 d2bd 656f 73be 292b 76bd
00000040: 7623 2ebf 923d 17bf 207e b5be 5a6f f4be
00000050: 9aed 133f f068 32bd 8e2b 4bbf 5b9d 07be
00000060: 9741 72be 0770 b8bb ce56 bb3e 42bc 5bbe
00000070: 581c 673e 61f0 26bf af0d 8cbd e46f 87bf
00000080: 3d65 c63c e091 403e 0952 953e 774b 063f
00000090: baf0 1bbf 5834 48be 0a42 5d3e 2942 f53e
000000a0: 0c15 45bf 6eeb 06bf a448 a6bd a6b7 f3be
000000b0: 6528 dcbd 64e6 ff3a bda4 b7bc dcec 873d
000000c0: 8351 b03e eddc 703e 7335 3dbe 845c 44be
000000d0: 86ba 2e3e 036d d03e 04b2 eebe 4b1b 873e
000000e0: 2639 973d cf61 d7be 5155 32bf 237b d8be
000000f0: 15e4 66bf bf2f 75be e690 8b3d c4f7 563e
00000100: 1828 40bf b354 eebe 6554 143e 4f7d 11bf
00000110: 2a6d 153f 90fc 27bf 5ea7 acbe cd4c 613e
00000120: 490c 503e 5ada 18bf 58be 33bf 4d55 9abd
00000130: a5bd 9dbe e990 53be f7ad d2be eb02 41bd
00000140: adb8 2cbd f1eb 9b3e a7f1 91be 7c84 a93d
00000150: d37c 993c 189c 5fbf e695 a4be d82b a93e
00000160: 4937 0fbf 1f7c 14bf 0e90 aebe 6fc3 7bbf
00000170: fa4a 05be 23b0 adbe fb4e 86be 7708 bf3e
00000180: ade1 16be 54a0 363e 15bd a0be e12f 04bf
00000190: c281 843d 8b4e 8c3e 7df0 d7be c5db 33bc
000001a0: e14d 92bc 5bed cebd 1d7b 32bf 2ca2 29bf
000001b0: 6e02 5bbf baa7 eabd 9e61 dfbe 4b47 1fbf
000001c0: fa4e 56bf 986e 40be c8db 153e ad8c d93e
000001d0: 3d2c 8e3e 021c 0abe f222 553e 4cdd 8f3e
000001e0: b33a 0cbe f617 e33b 6dd9 ef3d 4f38 a33e
000001f0: cc6c 3e3e 3880 923d 79cd 93be c1bc bbbe
-0.030664446 0.24294579 -0.38718334 -0.1967184 -0.47844693 0.19865645 0.39138103 -0.61039704
0.0887916 -0.8764435 -0.38681075 -0.5738304 -1.2576841 -0.10282774 -0.23772962 -0.060099754
-0.6802286 -0.59078324 -0.35447788 -0.47741205 0.57784426 -0.043557107 -0.79363334 -0.1324362
-0.23657833 -0.005628589 0.36589664 -0.21458533 0.22569406 -0.6521054 -0.068385474 -1.0581021
0.024218196 0.18805647 0.2916415 0.524589 -0.60914195 -0.19551218 0.21607223 0.4790204
-0.7698524 -0.5270299 -0.08119324 -0.4760105 -0.10749892 0.0019523618 -0.02241742 0.06636974
0.34437189 0.23521776 -0.1847742 -0.19175917 0.1706334 0.4070817 -0.4662019 0.2638801
0.07383947 -0.4206681 -0.6966143 -0.42281446 -0.90191776 -0.23943995 0.068147466 0.20992953
-0.7506118 -0.46548995 0.14485319 -0.5683183 0.58369696 -0.65619755 -0.3372144 0.22001953
0.20317186 -0.5970818 -0.70212317 -0.07535801 -0.3080875 -0.20660748 -0.4114835 -0.047121923
-0.042168308 0.30453447 -0.2850468 0.082772225 0.018736279 -0.87347555 -0.32145613 0.33041263
-0.55943733 -0.58001894 -0.3409428 -0.98345083 -0.13016883 -0.33923444 -0.26232132 0.37311146
-0.14734526 0.17834598 -0.31394258 -0.5163556 0.06470062 0.27403674 -0.42175665 -0.01097769
-0.017859401 -0.10103866 -0.69719106 -0.6626308 -0.8555058 -0.114577726 -0.43629164 -0.6221816
-0.8371426 -0.18792188 0.14634621 0.4249014 0.27768126 -0.13487247 0.20814112 0.28098524
-0.13694267 0.0069303466 0.117113926 0.31878898 0.1859619 0.07153362 -0.288677 -0.36667445

layer2.weight f4 [128, 128]
00000000: 452d 0abe 2014 1c3d 5e62 afbc ff12 7fbc
00000010: d6e2 d3bd d9ab b0bd 3a52 c0bd f5c0 b4bd
00000020: 8734 8f3d 4793 99bd 6d68 efbc 3653 19bd
00000030: 6774 a6bd 18be ef3d 705d 02bd 2023 e63c
00000040: f330 433d 3d19 883d e4e2 173c e5c7 d13c
00000050: 233c 033e 9760 bd3d ff33 10bd b9d3 08bd
00000060: 053a 20bd 2ecb 763d 6be8 53be 0229 883d
00000070: 8003 ad3c 3eb5 d4bd 3dfb 14bd 2c75 cf3c
00000080: 3a17 5c3d edce a2bc 0040 febd 530d 71be
00000090: ef3a a7bc 7e7b a83d 3ea5 d7bd 6461 053e
000000a0: b70c 9e3c b595 54bc 78c8 babb 5b1f 7fbc
000000b0: b249 65bd e747 ab3d 398d 983d a03d bbbd
000000c0: 107d 593c d7b6 8cbc 854e 7abd db58 cd3d
000000d0: b5e7 62bd 2915 40bd 45f7 593d 4a1f 25be
000000e0: fc4f 083e c43a 113e df3c 303d 6b37 aabd
000000f0: d555 093e edff 053e 07fb 67bd ea5a 97bd
00000100: 6714 163e 674a b5bd 0272 83be 3d45 d9bd
00000110: 52f1 623b 5743 703d d4e4 f23d aff7 3a3d
00000120: 981e 4f3d 0a6b 3fbd e650 213d 6073 94bd
00000130: 68bc 813d f34c cabd 253f c2bc ba16 65bd
00000140: c4e0 0e3b 0b30 353d a31b e13c 294c 0dbd
00000150: 2e7b e4bb d6a1 3c3d d481 dc3d acf3 153d
00000160: bcef 67bd 2258 debc 52cd 16bd 2f18 413d
00000170: f350 cabd dc8c b5bc 8318 233c d2b1 edbc
00000180: f3fe 1cbb bcd0 e3bd 76a3 acbd d7ca 5a3d
00000190: 1d1d 2f3d 15ea 81bd 9fdb 2dbd 466c 53bd
000001a0: 3590 59bd 083f 0fbe 2b09 8fbd b7d4 97bd
000001b0: 0d41 993d 36d7 363d 99a4 0b3e 246b 35bd
000001c0: e7b3 2c3e 9563 cbbd 8105 083b e9df c43a
000001d0: ccaa 543d cf35 573d aead 6cbd 0b19 693d
000001e0: 6063 83bb f84f 2abe 9581 843d 348e 1bbe
000001f0: 99e4 ccbd 2dd5 0fbd e277 95bd f233 b1bd
00000200: dca9 41bc 3409 8b3c cee5 5e3c a1dc edbd
00000210: 791d d3bd 5bd6 9e3d cc46 3c3d 70dc ccbd
00000220: aac7 913d 5142 de3c 755b cd3c 4cf5 f5bc
00000230: 9ffb 77bd 073b 3e3c 0cff bcbd edfb 32bd
00000240: 0e87 81bd 76ad cd3d 1ff9 7abd f0f5 023d
00000250: 98bb ca3d 14f3 c73c 6c10 983d c748 333d
00000260: d167 d33c 4a94 5b3d 479b 15be 9152 aebd
00000270: 84e8 453d 426f e93c a471 5f3d daa0 bf3c
00000280: 7b09 dfbd b970 403c c2e4 96bd 1372 603d
00000290: 51c6 303d b075 fc3c 5b50 8fbd ce1d 7b3d
000002a0: 6ab9 1ebd 4a9b 78bc e395 d6bc faa7 ddbd
000002b0: f2fa aabd b2e9 c7bd 2428 9c3d 7bd0 053e
000002c0: c220 96bd a6f4 80bc d840 87bd b8e5 64bd
000002d0: 900c ebbd 5067 cc3d 9131 0dbc ea97 16bc
000002e0: c97d e03d 2c49 fb3c cc84 b13d 5eb7 5e3d
000002f0: c002 8f3d 48db b33c 5a52 16be 36d5 82bd
00000300: e165 d3bc 1cff 883d 7ad8 efbc 32ff ba3c
00000310: 9183 02bd 1627 88bd a13c 423d ec50 883c
00000320: 6e88 5dbd 8e5d 00bd 9a9f 82bd f376 a8bb
00000330: ffda f33d ee24 603d ce7b 7bbd 0156 abbd
00000340: e719 d63b 10a5 a73d 2c33 4e3c 19c7 0f3e
00000350: 8fe5 ad3d 3f35 d33c 9a91 74bd e375 453c
00000360: aede 74bd ecf9 55bc 9b38 4a3b 7384 8d3d
00000370: c237 a5bd f1e0 84bd ed17 c1bc 0218 393d
00000380: 832c dd3d 9365 9e3d 267a 593d d9b7 9ebc
00000390: 27f0 33be 9925 11bd 0cc7 87bd a56d 043d
000003a0: 0de8 11bd 93c9 b53c b310 383d c00e 073e
000003b0: a3fb c1bd 49b0 123d b026 91bd 3fa6 b23a
000003c0: 7896 ee3d be15 6abd 6c87 ebbc 3e1d 3c3d
000003d0: be30 f7bd 8937 0dbd cb9a e93d 2492 af3c
000003e0: a04a a23c 4c0f 28bd c95c 243c b463 4bbd
000003f0: 5afb 3c3a c79a 51bd 67c1 d6bd ce13 d13b
-0.13493831 0.03810513 -0.02140921 -0.015568494 -0.10346 -0.08626527 -0.093906835 -0.08825866
0.06992441 -0.07498794 -0.029224599 -0.03743287 -0.08127671 0.117061794 -0.03182739 0.02809292
0.047654103 0.06645439 0.0092704035 0.025608012 0.12815909 0.09246939 -0.035205837 -0.03340504
-0.03911783 0.06025236 -0.20694129 0.066484466 0.021119833 -0.10386132 -0.036372412 0.025324427
0.053733088 -0.01987406 -0.12414551 -0.23540239 -0.020413844 0.08226679 -0.10529564 0.13025433
0.019293172 -0.012975146 -0.0057001673 -0.015571441 -0.055978484 0.08363324 0.07448811 -0.091426134
0.013274446 -0.017177029 -0.06111004 0.100267135 -0.055396754 -0.04689518 0.05321433 -0.16125217
0.13311762 0.14182574 0.0430268 -0.083113514 0.13411649 0.13085909 -0.056635883 -0.07390387
0.1465622 -0.08852082 -0.2567292 -0.10608909 0.0034628701 0.05865797 0.11860052 0.045646366
0.050566286 -0.04673294 0.03938379 -0.072485685 0.06334764 -0.09877958 -0.02371175 -0.055929877
0.0021801451 0.04423527 0.027478999 -0.03449646 -0.006972692 0.046052776 0.1076695 0.036609337
-0.056625113 -0.027141634 -0.036816902 0.047142204 -0.09878721 -0.022161894 0.0099545745 -0.029015455
-0.0023955673 -0.11123797 -0.08429615 0.0534161 0.042752374 -0.06343476 -0.042445775 -0.05161693
-0.053116042 -0.13988888 -0.069841705 -0.07413619 0.074831106 0.044638835 0.13637008 -0.04429163
0.16865502 -0.09931103 0.0020755234 0.0015020344 0.051920697 0.05254155 -0.05778282 0.05690865
-0.004009649 -0.16632068 0.06470028 -0.15190965 -0.10004539 -0.03511541 -0.072982565 -0.08652486
-0.011820283 0.016972162 0.013604594 -0.11614347 -0.10308356 0.07755729 0.045965955 -0.100029826
0.07118161 0.027131232 0.025068024 -0.030024193 -0.0605427 0.011610753 -0.09228334 -0.043697286
-0.06324588 0.10042851 -0.061272737 0.031972826 0.09899062 0.0244079 0.07425007 0.043770578
0.02580634 0.053608216 -0.14610015 -0.08511842 0.048317447 0.028495435 0.054551736 0.02339213
-0.1089048 0.011745625 -0.07367851 0.05479629 0.04315788 0.030817837 -0.069977485 0.06130772
-0.038751043 -0.015173743 -0.026194518 -0.108230546 -0.08348645 -0.09761371 0.07624844 0.1306781
-0.07330467 -0.015741657 -0.06604165 -0.05588314 -0.114770055 0.09980643 -0.008617775 -0.009191493
0.109614916 0.03067454 0.08667907 0.05437409 0.069829464 0.021955147 -0.14679852 -0.06388323
-0.025805416 0.06689283 -0.029278029 0.022826765 -0.031863753 -0.0664808 0.0474211 0.016640149
-0.054085188 -0.03133922 -0.06378098 -0.005141133 0.119070046 0.05472272 -0.061397366 -0.08366013
0.0065338495 0.0818578 0.0125854425 0.14040793 0.084910505 0.025782226 -0.05970917 0.012052032
-0.059782676 -0.013060074 0.0030856493 0.06910028 -0.080672756 -0.06488217 -0.023570979 0.04518891
0.107995056 0.077342175 0.053095005 -0.019374775 -0.1757208 -0.035436247 -0.06629762 0.032331128
-0.03562169 0.022190845 0.0449378 0.1318922 -0.09471824 0.03581265 -0.07087457 0.0013629867
0.116497934 -0.05714964 -0.028751098 0.045926325 -0.12069844 -0.03447679 0.114064775 0.02143199
0.019810975 -0.041030213 0.010031887 -0.04965563 0.0007209085 -0.051172998 -0.10486107 0.0063805347

layer2.bias f4 [128]
00000000: 86a9 d8bd 80a2 ca3d da94 a8be 4333 83be
00000010: 37b8 5c3c a004 533e 8872 6bbd 1708 61be
00000020: 289f 873d 0c5a 123e 5aa8 4fbe 5461 86be
00000030: a631 cfbc 990b 133d 924e cf3a 6147 7dbb
00000040: ecb9 883d e9df 07bf f27a 4abe 230a 5bbd
00000050: 5045 753d d4c3 083e 7c99 5b3e d92c 893d
00000060: 49ec 0a3d ba7d 42be 6a9f 38be b8db 813e
00000070: 3b5d c3bd 2ebe 243e a5c1 6abe ec7d 023d
00000080: 4aaa 62bc b88a 273e eb6d 25be 1a95 27be
00000090: d15f 5bbd 17f6 78be f22d ce3d 7617 28bf
000000a0: 3129 9bbe 221b 75be 8e05 82bd 9491 003e
000000b0: b2f1 5ebe 030e 77bd a419 d5bd ea55 50bd
000000c0: d6b0 4c3c 0d8c 113c 3379 bdbc ac59 0a3d
000000d0: 0b24 283d 57c6 63be b8a6 a03e c784 73be
000000e0: 0459 a6bc 4912 5cbd c1a6 39bd 6646 1dbc
000000f0: 80ac 16be 8129 09be 38db 3f3d ac10 68bd
00000100: 17d5 a53d 3d7d 8f3e cb22 133e 2166 d03c
00000110: 7248 8ebd 6e68 1b3e 944c eb3d 3ae5 a3bd
00000120: b78c 673d 8ffb b03e 3c22 e8bd 961b f9be
00000130: 1973 59be b21c eebd e1dd b03d c057 28bd
00000140: 3c6e 353d d8b6 8abc dcd4 3e3d a05e b2bb
00000150: 1d66 30bc 408d 16be df47 28bd 1299 63bd
00000160: 810d 77bd df4c 123e 6930 77be f03c 21bd
00000170: 4c93 e93d a562 eebd e9f0 0d3e cd93 bcbd
00000180: 32b7 11be d038 c53e a743 b23d 52cc 3d3c
00000190: f165 b33e f3c2 853a 5011 cc3c 649d fdbe
000001a0: fc3a 20be 43c4 9a3e cc68 bdbc 4196 e4bd
000001b0: 48f6 7bbd 484d 533d d343 263d ba52 9abd
000001c0: f17b 89bd f7d9 febd ee10 6bbe fc1b 8fbd
000001d0: 2091 9abd b7f4 37bd 4030 edbe a578 673c
000001e0: 8b3f 093d 5e0a 9bbd 92c2 73be 5be8 80be
000001f0: 804f 07be 8e88 fabd 6d2a 1f3d 27e9 28be
-0.10579209 0.09894276 -0.32926065 -0.25625047 0.013471655 0.20607233 -0.057482272 -0.21975742
0.066221535 0.14292163 -0.20279065 -0.2624613 -0.025292229 0.035899732 0.0015816262 -0.0038647281
0.06676087 -0.53076035 -0.19773462 -0.053476464 0.059880555 0.13355953 0.21445268 0.06698007
0.033916745 -0.18993273 -0.18029562 0.25362945 -0.09539267 0.16088173 -0.22925432 0.03185837
-0.013834545 0.16361511 -0.16155212 -0.16365471 -0.053558175 -0.24312626 0.10067357 -0.656608
-0.30304864 -0.23936132 -0.06348716 0.12555534 -0.21771887 -0.060316097 -0.10405281 -0.050863184
0.012493333 0.008883488 -0.023129081 0.033776924 0.04105 -0.2224363 0.31377196 -0.2378112
-0.020306118 -0.053728376 -0.045325045 -0.009599304 -0.14714241 -0.13394739 0.046839923 -0.056656525
0.08097284 0.28025237 0.14368741 0.025439324 -0.069474116 0.15176556 0.114892155 -0.08002706
0.05653068 0.34566924 -0.11334655 -0.4865386 -0.21235313 -0.11626567 0.0863607 -0.04109931
0.04429458 -0.01693289 0.046589717 -0.005443409 -0.010766533 -0.1470232 -0.041084167 -0.0555659
-0.060315613 0.14287136 -0.24139561 -0.039364755 0.11405048 -0.11639909 0.13861431 -0.09207878
-0.1423004 0.38519907 0.0870431 0.011584358 0.35038713 0.0010205194 0.024910599 -0.49534142
-0.15647501 0.3022786 -0.02312126 -0.11161471 -0.06151417 0.051587373 0.040592026 -0.0753531
-0.06713093 -0.12443917 -0.22955677 -0.069877595 -0.07547212 -0.044911113 -0.46325874 0.014127885
0.033507865 -0.07570337 -0.23804691 -0.25177273 -0.1321392 -0.12233077 0.03885882 -0.1649519

layer3.weight f4 [128, 128]
00000000: 475a 19bc e4b6 3f3d a914 553d 39ea ae3d
00000010: e52f ca3c 7538 5dbc 33d0 b13d c1c9 433c
00000020: 31ab 933d d876 7b3c f134 183e 9b67 1abe
00000030: 5287 a43c 362a c3bd 4af9 b23d 95ff c83d
00000040: 8180 d53d e9bb cbbd ff5e dfbd 65e8 5dbc
00000050: e46b 8ebd 930c 343b d8ff 1e3d 3890 d9bc
00000060: 2034 943c dc34 dd3c 4901 80bd 73d0 b13d
00000070: b58d 5ebd fc46 883d 1dcb 2dbd 711c 753c
00000080: faea 9f3b e3c8 efbd f99c a1bc 457d 44bc
00000090: 44a6 113d 07af 17be 32ea d43d c41d 42be
000000a0: 4523 74bd 020a cabd eff4 8e3d 090b c53d
000000b0: 185c 08be fc5b b73d 8355 c539 b81c 983a
000000c0: d723 e03d ce3c 673d cc1b a23d 2a1c 3ebe
000000d0: 225a 783d 58b6 67bc 8c30 3d3e de64 e1bc
000000e0: c6d0 d6bc 7b09 9bbd a8c2 a83c 5613 46bd
000000f0: ff1e 0f3e 3e45 7b3c 1196 a23d d89b 0d3e
00000100: 0081 b5ba 6ff2 8d3d 28c1 473d 8847 6ebc
00000110: f3b3 e3bd c7f6 12bc dab6 1b3d 53d8 23bc
00000120: de98 763d 71c2 e23d b2fd a53c 9149 a1bd
00000130: b099 a53d 61c2 19bc 0764 2abd c6bd 923c
00000140: 7d78 9dbc 675a d3bd 03f4 79bd b866 90bd
00000150: e60d 21bd d450 f7bc 2549 4cbd 9a3d 2fbd
00000160: aa31 e3bd f615 2fbe 34a4 27be 30ea 583d
00000170: 80d1 17bd 1c1e 5ebd e89b be3d 03a3 3cbd
00000180: 52da bb3b 0bc7 d13d 594a 9cbd 79e1 923d
00000190: 0e23 163e 242a 333d 9f1c 123d f903 54be
000001a0: 6776 a2bd 47e9 47bd ce24 4fbd 0ecf bb3c
000001b0: 4b78 223d 8494 683d eb72 7abd e594 be3d
000001c0: da18 9c3d 08a7 c0ba 4459 69bd ee57 a0bc
000001d0: 2a7c 563d c229 9c3d 18d2 bfbd 4a53 8ebb
000001e0: 3f0c 083c 9a8e cdbc 4398 34bc 9c8d a83c
000001f0: a654 30be f9eb d8bd 60b6 acbc b199 ba3b
00000200: a396 b9bd 1ad8 26be 86ba bbbd 5ecb 383e
00000210: fd43 e3bc 3ef2 3c3e d3c6 8b3a 01af ec3d
00000220: e600 8abd ec4e df3c 329c c53d 01cd 743d
00000230: 7f4b 33bd 34d0 11be 115a bbbd 1fdf a63b
00000240: 175c 8bbc b586 0dbd 0855 bebc 57be c93d
00000250: 224f 943d 5db6 09be 50a0 80bd 63d3 51bd
00000260: bdce 7c3d f2be a9bc ce19 163d c091 113e
00000270: b104 58bc f6d0 423e 5a94 04bd bda4 eabd
00000280: afac 8dbd 60f1 9d3d 1278 c939 71dc 9139
00000290: dc51 d53d b5df f4bc 6640 ef3b 602a b3bd
000002a0: 004e 1dbe b4a0 883c 000b bebd 9365 9f3d
000002b0: 809d 3bbd dff9 203d 2b0c 883d 1ef6 9fbd
000002c0: bf1b 9e3d 387b a33c 7091 333c 7b3b a2bb
000002d0: 3530 a83d a4b9 153e b6b2 f13d a9c6 59bd
000002e0: 6ac2 7a3d e778 d9bd 43b6 aa3b cbae 1ebd
000002f0: 09fe f1ba 6573 5bbd 8cde b8bd d0ca b93d
00000300: 0039 3f3b d0f5 8b3d 7bb6 553c 4ba0 1a3d
00000310: d0a2 543c 350e 1f3e 13db e0bb 8186 88bc
00000320: f413 f43c 275a dc3d 8f84 90bd 7078 b0bd
00000330: f594 eebd 6559 283d b17b 233c afa4 90bd
00000340: 88a4 2abd 8500 5abb f38c 0a3d b375 d5bd
00000350: 9272 3cbe 1da5 c8bd bf1b c9bd de45 9cbd
00000360: 7bcc a3bc 45cf d73b 7666 083d ae7f c23d
00000370: 523c fd3c 6899 dd3c 86d9 b43d 37d7 f83d
00000380: f375 80bd 3f71 e03d 2929 1cbd 4e59 5abc
00000390: e31c de3a 3ca1 063d 2d96 2b3d 248a 22bc
000003a0: f630 7e3c 44e7 0a3e 3051 ccbc 453d f33b
000003b0: eb88 8ebc bebc b2bc 565f c23d 6b24 adbd
000003c0: 61b2 b93d e6a4 8e3c 0f02 45bd feb9 a53d
000003d0: 5b74 c13d 4919 54bd 8666 fdbd 56f1 973d
000003e0: 7507 90bc ccfe bfbd 70b3 4fbd 8576 db3b
000003f0: 96eb 06be dc9a e4bd 7f6a 9a3d 3d22 00be
-0.009359903 0.046805277 0.052021656 0.08540768 0.024681041 -0.01350223 0.08682289 0.011949957
0.072103865 0.015348159 0.14863946 -0.15078585 0.020084057 -0.095295355 0.08738954 0.098143734
0.10424901 -0.099479504 -0.10906791 -0.013544177 -0.06954172 0.0027473315 0.03881821 -0.026558027
0.018091261 0.027002744 -0.06250245 0.08682337 -0.05433436 0.06654164 -0.042430032 0.014960394
0.0048803063 -0.11708238 -0.01972817 -0.011992757 0.035558954 -0.14812861 0.10396232 -0.18956667
-0.05960395 -0.0986519 0.06980311 0.096212454 -0.13316381 0.089530915 0.0003763848 0.0011605239
0.10944336 0.056454472 0.07915458 -0.18565431 0.060632832 -0.014142595 0.1847555 -0.027513918
-0.026222598 -0.07570168 0.020600632 -0.048358284 0.13976668 0.015336333 0.07938779 0.13828981
-0.0013847649 0.06931006 0.048768193 -0.014543422 -0.11118307 -0.008969969 0.038016178 -0.010000306
0.06020438 0.11072243 0.020262573 -0.0787536 0.08085954 -0.009384722 -0.0415993 0.017912757
-0.019222492 -0.10319977 -0.061023723 -0.07050842 -0.039319895 -0.030189909 -0.049874444 -0.042783357
-0.11093457 -0.17098221 -0.16371232 0.052957714 -0.03706503 -0.054227933 0.093070805 -0.046053898
0.005732813 0.102430426 -0.07631368 0.07171912 0.1466181 0.04374136 0.035671826 -0.2070464
-0.0793274 -0.048806455 -0.05057221 0.02292588 0.0396655 0.05678226 -0.06114475 0.09305743
0.076219276 -0.0014698217 -0.056969896 -0.019573178 0.052364506 0.07625152 -0.09366244 -0.004343425
0.008303701 -0.025092412 -0.01102263 0.020575337 -0.17219791 -0.10591883 -0.021083057 0.005694591
-0.09061935 -0.16293374 -0.09166436 0.18046328 -0.02774238 0.18451783 0.0010664113 0.11556817
-0.067384526 0.027259313 0.096489325 0.05976582 -0.04377317 -0.1423958 -0.09148038 0.005092516
-0.017011685 -0.034552295 -0.023233905 0.098507576 0.07241656 -0.13448472 -0.06280577 -0.051226985
0.0617206 -0.020720933 0.036645703 0.14215755 -0.013184712 0.19025025 -0.03236804 -0.114572026
-0.069177024 0.07712054 0.00038427167 0.00027820797 0.10416004 -0.029891828 0.007301378 -0.08748317
-0.15361786 0.016678192 -0.09279442 0.077830456 -0.0458045 0.039300796 0.06642946 -0.07810615
0.07720136 0.019956216 0.010959968 -0.0049509383 0.0821232 0.14621598 0.118016645 -0.053167973
0.061220564 -0.106187634 0.0052097156 -0.038740914 -0.0018462549 -0.053576846 -0.090268224 0.090718865
0.0029178262 0.068339944 0.013043995 0.037750524 0.012978271 0.15532763 -0.006862053 -0.016665699
0.02979467 0.10759383 -0.070565335 -0.08616722 -0.11649505 0.04110088 0.009978221 -0.07062661
-0.041660815 -0.003326447 0.033825826 -0.1042284 -0.1840308 -0.09797118 -0.09819745 -0.076305136
-0.019994965 0.0065859878 0.03330084 0.09497009 0.030912552 0.027050689 0.08830552 0.12150424
-0.06272497 0.109591 -0.03812519 -0.013326956 0.0016945865 0.03286861 0.041891266 -0.009920631
0.015514603 0.13564783 -0.024941057 0.0074230754 -0.017399272 -0.021818515 0.0949084 -0.08454212
0.09067226 0.017412614 -0.048097666 0.08092116 0.09446021 -0.051781926 -0.123730704 0.07419078
-0.01758168 -0.093747705 -0.050708234 0.0066974782 -0.13175806 -0.111623496 0.07539844 -0.12513061

layer3.bias f4 [128]
00000000: fff1 3f3e 2413 a5bd 8918 debe 5e74 abbd
00000010: 2b77 65be 7684 5fbe 3582 1ebe 7c40 fe3d
00000020: b20e 60be d444 f83c 3645 283e 0ce3 9bbc
00000030: b75c 083e 7b91 d5bc fc88 84bc 1012 c2bc
00000040: 6b90 d3bc 146f 683d e55c 063d 6219 2fbe
00000050: 7d2c 7f3e d54c 69bd 165b f13d 8640 c2bd
00000060: f6e0 5ebd e381 b23e a7d2 a83d 19a2 3bbd
00000070: 8fb6 5cbe 55cc 57bd a3fd b23e 93c8 c3bc
00000080: 95b6 17bd ea24 aebd ca9e 51bd 0e20 e4bd
00000090: 05cf a5bc a3c2 853e d639 d0be 3213 d2be
000000a0: 3a88 36bd 4291 b2bd a35b 9d3d 7983 713c
000000b0: d7e5 f13d a2a4 cdbe bef1 603d 2ee6 463e
000000c0: e958 e6bd e6cd 8fbe b45e 193d d15a 0b3e
000000d0: bc6f 163e fe1a 4cbe 3b8f ed3d 6159 13be
000000e0: 0d8f 143e b679 b4bd c544 ae3d 3926 18bd
000000f0: e4c2 a03c 120f 39be 3e9b 943d 05c9 23bf
00000100: a270 c4bc c806 c23d e40f 963e dbf5 a1bd
00000110: 301c 63be b478 09be a524 8c3d b499 cebd
00000120: 6846 783e eb9b bdbe dd09 c3bd 0268 f03c
00000130: f74f d1bd 4d59 cbbd 13f6 6c3e de44 56be
00000140: f547 083e 65ad 153e 6cdb ee3c 7adf cb3b
00000150: 9e7b 5a3b e657 d7be 1645 fc3c 76a7 b1bd
00000160: 4674 ea3d c6a0 95bd 626d 0ebc 2c48 83be
00000170: b30b e03d 873a 373d 9dcd b7bd 4b95 253d
00000180: bff2 1e3e 3719 0bbe bb87 2d3e 7a26 8abd
00000190: 6d00 163e 33ee 1e3d c9b0 5abd 6dd6 163e
000001a0: 8960 063d cc43 83bc 8623 f2bd 1f1a c9bb
000001b0: abee c93d 32c7 a33d a5a0 aebd 1de9 35be
000001c0: 886e 1d3e e0a2 9b3d c2d6 93be 4416 833d
000001d0: 2549 51bd 452b acbe afb8 86bd a388 913e
000001e0: ed93 cbbd bd82 d73d 54f8 e6be bd91 2a3d
000001f0: 886e 75bc 3d79 44bd f917 04be cc22 ffbe
0.18744658 -0.080602914 -0.43378094 -0.08371805 -0.2240874 -0.21827874 -0.15479358 0.12414643
-0.21880606 0.030306257 0.16432652 -0.019029163 0.13316618 -0.026070347 -0.0161786 -0.023690253
-0.0258257 0.056746557 0.032803435 -0.17099527 0.24919315 -0.05695804 0.117849514 -0.09484963
-0.05441376 0.3486472 0.08243304 -0.045808885 -0.21554016 -0.0526851 0.34959134 -0.023899352
-0.03703936 -0.085031345 -0.051176824 -0.111389264 -0.020240316 0.2612506 -0.40669125 -0.4103027
-0.04456351 -0.08719112 0.07683494 0.014740818 0.118114166 -0.40164667 0.054918043 0.19423744
-0.11247427 -0.28086776 0.03744383 0.13608862 0.14691061 -0.19932172 0.11599585 -0.14389564
0.14507695 -0.08812277 0.085092105 -0.037145827 0.019624181 -0.18072155 0.072561726 -0.63978606
-0.023979489 0.0947395 0.29309 -0.07908221 -0.22178721 -0.13424951 0.06842927 -0.1008791
0.24245608 -0.37033018 -0.09523366 0.02934647 -0.1022033 -0.09929142 0.23140745 -0.20924708
0.133087 0.14616926 0.029157363 0.006221709 0.0033337842 -0.4205925 0.030794661 -0.08674519
0.11447959 -0.07306056 -0.008693071 -0.25641 0.109397314 0.04473355 -0.089747645 0.04042558
0.15522288 -0.13583837 0.16946308 -0.0674562 0.146486 0.038801383 -0.05339125 0.14730234
0.032806907 -0.016023539 -0.11823182 -0.006137147 0.098599754 0.07996978 -0.08526734 -0.17764707
0.15374196 0.07599425 -0.28874785 0.06400731 -0.051095147 -0.33626762 -0.06578194 0.28424558
-0.09940324 0.10522983 -0.45111334 0.041642893 -0.014979966 -0.047967184 -0.1289977 -0.49831235

layer4.weight f4 [128, 128]
00000000: 8b37 abbc 56e2 e93d 1017 ec3d 70f9 babd
00000010: 0def 413d d2df f8bd 6db3 70bd 9be0 803d
00000020: d41f 39bd 0eaa 91bd fc44 a23d fcfc 063d
00000030: 3b57 dc3d 3551 8c3c 42f0 8e3d 5c21 82bd
00000040: 988c c83d e618 933d 386e 093e eb91 d8bd
00000050: eb40 223d 42e4 ddbb 3f8c 7f3d 0da0 fa3d
00000060: 5146 843d d995 2f3c 521e 0abd 12e8 3b3d
00000070: ee05 f93d a612 83bd c30b 553d fb9a eebc
00000080: 7e87 5ebc 74a9 5dbd c3cf b1bd 2a0c 40bd
00000090: b2eb 463d 1346 cb3d 1950 313b 375f 02bc
000000a0: 04aa 1f3d 3553 adbd b006 143e 0202 a0bd
000000b0: a458 bf3d a3bd 0ebb 7db3 b63d ffc3 763c
000000c0: 5d60 b4bc 94ba e6bd 2ff1 bdbc 000b c83d
000000d0: 899c d13c 5c72 8b3d 2dd0 163d 7c6d 603d
000000e0: d40e 11bd 3350 87bd 7fbb 79bc e4f4 39bd
000000f0: 6dbf 8f3d 7d40 43bd 04e3 1f3e c6f8 7ebd
00000100: 8973 23bc 03fc 18bd 3304 8d3d 6297 323c
00000110: 7827 be3d 2115 773d 3fb1 c5bd 8e5f 07bd
00000120: 25e2 f4bd efa7 7c3d 38a9 073d cf78 843d
00000130: 021f 2a3b 82d1 3bbc 910b 6c3d 0255 b03d
00000140: 631a d8bc 1709 78bc 321a 02be b4b4 f53c
00000150: 5424 d23d 11d7 c3bd d83f 93bd fb79 8d3d
00000160: 57ad 2bbd 753a ae3d b7da 313c e225 86bd
00000170: c43e 89bc d3a3 afbd ea0d 633b 6dfb 21be
00000180: b46d 283d b56a dd3d c2a2 8e3d 5d36 f03c
00000190: 5aa3 e2bd 85e8 e33d 0192 6abd d86e a63d
000001a0: 622d 963d d38c 3d3d 6c55 a93c 3bd0 b2bd
000001b0: 6236 fdbd 660e 4eba 1250 163d 5bf0 833c
000001c0: 059e 273b a48a 9e3c ac15 343c 45f0 9c3d
000001d0: f3b3 be3d ef44 00be 3ef6 9b3c 6d66 dcbc
000001e0: 8334 b23d cb73 ad3c c561 05bd e624 bbbd
000001f0: b511 22bd 9d3b fcbc 7b26 083e 86e5 813d
00000200: 60f6 c53b 6394 653a a2fb 913d 2e1f 96bd
00000210: 109e 2cbd 2437 8c3d 37c3 a93b a2dd 0d3e
00000220: 9c60 193d e5a0 3bbd 5f59 1bbe 9612 8abd
00000230: a18e 21bd 1fe0 953c a02e 9ebc da41 f83c
00000240: 7850 49bd b47b aabc a18b a73d 132a 2ebe
00000250: 47d3 debd 418c 18bd 7276 f0bc 6e97 c1bb
00000260: b261 dc3d 5a98 0bbe 461b cbbd f9de 533d
00000270: 4dfb 503d 8d08 9fbd 02ff f03d 1ad6 2fbd
00000280: 5121 b03c 70d3 95bd 4260 c3bd bdd6 cebb
00000290: a6f7 47bd cf4e de3d ee99 413d 0259 ab3d
000002a0: 03cd 35bd 945a f7bc 7ce4 b3bd 41c8 9b3d
000002b0: 97e5 6abd 397b 52be 2b7b fd3d c0b1 b63c
000002c0: 4729 263e ca3b 2a3d 6457 9cbd 38c5 bebd
000002d0: dd25 cf3d 6d2f 953c eeb5 073e cba2 c9bc
000002e0: c3b7 953d 650a a4bc f850 2c3d d325 31bd
000002f0: 65f2 d6bc b833 05bc 2452 ab3d 35d0 86bd
00000300: 8099 19bc 9454 b13d 8160 1a3e d50c 7bbd
00000310: 4684 64bd 8b14 bb3d 2e06 c6ba 7e84 6cbd
00000320: 83c8 e83d 4a64 56bd 7a6f 88bc 1abe eabc
00000330: 8ee9 a13d 5ca4 393d 43ca 823c 47ef 16bd
00000340: 045a ac3d 428a bebd 4e3f 55bd 01aa 98bd
00000350: aeeb 74bd 20d1 be3d 88b3 cf3d de90 b4bd
00000360: 786f 023e 4647 f73c b039 333c feca ac3d
00000370: 9cd5 4fbd fe57 a5bd 6a2b 76bd 5e81 adbd
00000380: dc70 df3c 1feb e7bd f40b 5e3c 0384 d33c
00000390: 6f1d cebd be63 113d f897 fe3d 90b4 b6bd
000003a0: b62c cb3d 0273 c63d 2f7c 393b e2e4 dc3a
000003b0: db90 19ba ffe1 77bd 4d01 1d3d 7171 fcbb
000003c0: fb6c 0ebd 2417 96bd 2b1a b9bc 540d 54bb
000003d0: e020 aabd aea7 a5bd 2ed0 97bd bc13 84bd
000003e0: 0ab3 ae3d c3ec 933d 8691 07bd 6c37 c1bd
000003f0: a5d8 25bd 3be5 e23c d808 3dbd 46cf 473e
-0.020900508 0.11420123 0.11527836 -0.09129608 0.047347117 -0.12152065 -0.058764864 0.0629284
-0.04519637 -0.071125135 0.07923314 0.03295611 0.107588254 0.017128566 0.06979419 -0.06354019
0.09792441 0.071824834 0.13420951 -0.10574707 0.03961269 -0.006771595 0.06238961 0.122375585
0.06458724 0.010716879 -0.033720322 0.045875616 0.12159334 -0.06400041 0.05201317 -0.029126635
-0.013582109 -0.05411668 -0.086822055 -0.0468866 0.04856462 0.09925475 0.0027055799 -0.007957271
0.0389805 -0.08463136 0.14455676 -0.07812883 0.09343079 -0.0021780513 0.089209534 0.015061378
-0.022018606 -0.11266056 -0.023186294 0.09767723 0.025587337 0.06808922 0.036819626 0.054791912
-0.03541453 -0.06607094 -0.015242456 -0.04539956 0.070189334 -0.047668923 0.15613943 -0.062248968
-0.009976276 -0.037349712 0.068855666 0.01090035 0.09284872 0.060322884 -0.09652948 -0.033050112
-0.11957196 0.06168359 0.033120364 0.06468355 0.0025958424 -0.011463525 0.057628218 0.08609964
-0.02637977 -0.015138886 -0.12705305 0.029993393 0.10260835 -0.09562505 -0.071899116 0.069080316
-0.041913357 0.085072435 0.010855368 -0.06550194 -0.016753562 -0.08576169 0.0034645745 -0.15818568
0.041120246 0.108113684 0.06964637 0.029322797 -0.11066313 0.11128334 -0.057268146 0.081266105
0.07332875 0.04627688 0.020670615 -0.08731123 -0.12363888 -0.0007860422 0.036697455 0.016105821
0.0025576365 0.019353218 0.010991495 0.07663015 0.09311666 -0.12526296 0.019038316 -0.02690431
0.08701422 0.021173378 -0.032563943 -0.09137897 -0.039567668 -0.030790145 0.13295929 0.06342606
0.006041333 0.0008757768 0.07128073 -0.07330166 -0.042142928 0.06846455 0.005180742 0.13854077
0.03744565 -0.045807738 -0.15170811 -0.06741826 -0.039442662 0.018295346 -0.019309342 0.030304838
-0.049149007 -0.02081094 0.08180929 -0.17008238 -0.10880142 -0.03724313 -0.029353354 -0.0059079444
0.107608214 -0.13632336 -0.09917311 0.051726315 0.05102091 -0.07765303 0.11767389 -0.042928793
0.021500262 -0.07315719 -0.09539844 -0.00631222 -0.04882016 0.10854875 0.04726594 0.08366586
-0.044384968 -0.030194558 -0.08783814 0.07606555 -0.05734786 -0.20554818 0.12377008 0.022301555
0.16226684 0.041560926 -0.07633856 -0.0931496 0.10114644 0.018211091 0.13252994 -0.024613759
0.073104404 -0.020024488 0.042069405 -0.043248963 -0.02623863 -0.0081300065 0.083652765 -0.06582681
-0.009374976 0.0865871 0.15075876 -0.061291534 -0.05579021 0.09134778 -0.0015108043 -0.057743542
0.113663696 -0.052341737 -0.016654719 -0.0286551 0.07905875 0.04532276 0.015965587 -0.036849286
0.084156066 -0.09303714 -0.052062325 -0.07454301 -0.059795074 0.09317231 0.10141665 -0.08816694
0.12737834 0.030185353 0.010939047 0.08437155 -0.050740823 -0.08073424 -0.060099997 -0.084719405
0.027275495 -0.11324143 0.013552655 0.025819784 -0.10064208 0.035495512 0.124313295 -0.08921158
0.09920637 0.09689905 0.002830278 0.001685288 -0.0005858072 -0.06051826 0.03833132 -0.007703953
-0.0347719 -0.073286325 -0.022595486 -0.0032356577 -0.08307052 -0.08088623 -0.07412754 -0.064490765
0.08530243 0.07222893 -0.033097766 -0.09434399 -0.04048981 0.027697196 -0.046151012 0.19512662

layer4.bias f4 [128]
00000000: 921f 9f3d 267e 953d a066 433e 439f 023e
00000010: e2f3 c33d 3201 f43d 1b73 933d e212 47be
00000020: 37e6 3d3c 879d a5bb 5710 e73c 6780 e53d
00000030: f708 603d 468d 103d 01d1 293e 12ee 11be
00000040: b2d2 d23b ee0a 96be 896b e6bd 09b5 b2bc
00000050: 059d 88ba 9aa5 ef3a 729f 24bc 9a78 82bd
00000060: 3ab0 bf3d af9c 4dbd ff7c c8bd 8afc 08bd
00000070: d7bc d1bc 2f9c 183d 0798 00b9 9ad0 b83e
00000080: 17b2 74bd 1f51 b8bd d42d 123d 4291 98bd
00000090: 7a01 ffbd fc3e 1ebe 0c74 f43d 7dfe 36bd
000000a0: 3523 dc3d 0702 373e 55ff 15bd 63f3 13be
000000b0: edff 80bc ee5e 72bd adb1 343e 5550 cabd
000000c0: fc2b a23d ede1 1fbe fa8f 853e 1a45 863c
000000d0: 7b43 2bbe 95a6 813d 68cb d43e 4658 c03d
000000e0: 88d6 04bd dbcc 3c3e b1de d73e 4e74 353d
000000f0: 7790 87be 0d73 70bd cf6c 5c3d 32ce 083e
00000100: d64b 553e 372f f53d d422 843d b9aa 153f
00000110: 7d1a 85bb b747 203e e5f5 03bd 8ebb 2abd
00000120: 4a52 fdbc e43f ef3d 52c5 3bbe 86ac 5f3c
00000130: fdf4 6b3d a0fb 87bc e1cd cb3d f778 053e
00000140: 9ac0 3fbe 51fb 873d ef3d babe 53b1 973e
00000150: a1f2 d4bd d6dc 8b3e 28cb 6b3e 92de 453c
00000160: f16a 0bbe 2ba4 63bd b368 153e 7562 7b3e
00000170: 2561 58bd 09b7 41bc 798b 63be 81f4 5fbe
00000180: b164 203e bb50 323e cbba d5bb 8ba4 dcbc
00000190: e804 5abd ce22 e53d 77bc 0dbe e8d4 0b3e
000001a0: 0059 253d f2ba f2bc cd36 d43d ae2f 9ebc
000001b0: 3ba5 c93e b52d 0c3c 0b34 bbbd 0e73 833e
000001c0: b4ed f83d 6ec5 923d 5201 0bbd 6fc0 00be
000001d0: f05c 99bd e26a 873e 11c2 1abd dd9c ac3c
000001e0: ab71 2f3e 13c9 c13c 952d 51bd dedd 263e
000001f0: a9f7 cf3b ee86 9fbd fc13 7c3e a2bd d93d
0.077696934 0.072994515 0.19082117 0.12756066 0.09568001 0.119142905 0.07199689 -0.19440797
0.011590532 -0.005054179 0.028206034 0.112061314 0.05469605 0.03529098 0.16583635 -0.14250973
0.0064338082 -0.29305214 -0.112509795 -0.02181484 -0.0010422772 0.0018283606 -0.01004778 -0.06370659
0.093597844 -0.050198253 -0.09789466 -0.033443965 -0.025602741 0.037258323 -0.00012263666 0.3609665
-0.059740152 -0.089998476 0.035688236 -0.07449581 -0.124514535 -0.15453714 0.11936197 -0.044676293
0.10748903 0.17871867 -0.036620457 -0.14448313 -0.015747035 -0.059172563 0.17645903 -0.09878603
0.079185456 -0.15613528 0.26086408 0.016390372 -0.1672496 0.06330601 0.41561437 0.09391837
-0.032431155 0.18437521 0.42162088 0.04430037 -0.26477405 -0.05870347 0.053814705 0.13359907
0.2082971 0.11971896 0.064519554 0.5846363 -0.0040619955 0.15652357 -0.032216925 -0.041682772
-0.030923028 0.11682108 -0.1833699 0.013651973 0.057606686 -0.016599476 0.09951378 0.13034426
-0.18725815 0.06639732 -0.36375377 0.29627475 -0.1039784 0.27316922 0.23026717 0.012076991
-0.13615014 -0.055576485 0.14590721 0.24549277 -0.05282702 -0.011823424 -0.22221173 -0.21870615
0.1566341 0.17413609 -0.0065225116 -0.026933929 -0.053227335 0.11188279 -0.13841425 0.13655436
0.04036808 -0.029630158 0.10362015 -0.019309845 0.39383873 0.008555819 -0.09140786 0.25673717
0.12154713 0.07166563 -0.033936806 -0.12573408 -0.074884295 0.26448733 -0.037782732 0.021070892
0.17133205 0.02365545 -0.05106886 0.16295573 0.006346662 -0.07789408 0.24616998 0.10631873

input_norm.weight f4 [6]
00000000: dc51 cc3f 6886 523f 086d 503f 81b3 db3e
00000010: 46bf 4f3f 3dfe 793f
1.5962481 0.8223634 0.8141637 0.42910388 0.81151235 0.9765356

input_norm.bias f4 [6]
00000000: 99c0 2d3e e12c 863e 0e1b 053f f2bc c13d
00000010: d842 cd3e 3293 2fbd
0.16968001 0.26206115 0.5199441 0.094598666 0.4009006 -0.042864986

input_norm.running_mean f4 [6]
00000000: b649 9a40 1bf5 853c 605d 5b3c 9a9e 1e3b
00000010: 690a 6040 1365 423d
4.821498 0.016352227 0.013388962 0.002420342 3.5006354 0.047459673

input_norm.running_var f4 [6]
00000000: e3f4 1041 b922 ba3a c6c1 7c3a 0983 3c39
00000010: 51b5 b140 4e91 b43d
9.059787 0.0014201022 0.00096419116 0.00017977892 5.5533834 0.08816777

norm.weight f4 [128]
00000000: f4c3 673f e73e 6f3f 67dd d23f 41e3 753f
00000010: b486 5a3f f881 673f 71a1 613f 2988 523f
00000020: c093 603f 16ef 6d3f e49c 6a3f 0d88 853f
00000030: 4456 6e3f 7489 513f 8b33 603f 8697 613f
00000040: d5ea 673f be77 633f e99a 743f 1bc5 5d3f
00000050: 4c8c 613f c0fe 5f3f b30b 503f f204 6a3f
00000060: 5046 6a3f 5ebb 5f3f 99ee 603f 86b3 8d3f
00000070: f604 613f 1eff 5b3f c1cd 6c3f 5b9d 8c3f
00000080: aecb 543f 6234 5e3f 1042 713f 4ae9 583f
00000090: a965 523f 6541 6d3f e1a1 763f 9169 633f
000000a0: e5e6 9a3f d1a1 5d3f cae1 643f 4df3 533f
000000b0: 4ac2 643f 680b 653f 433d 643f 0bb0 5a3f
000000c0: 85a9 613f 200f 603f ed54 643f 7488 6c3f
000000d0: 960f 6e3f 0e19 713f e5d6 993f 4068 633f
000000e0: 27e5 653f 3ce3 8e3f f36c 9d3f 392f 653f
000000f0: 1b5a 943f 18e9 643f 5876 613f 95d6 703f
00000100: b020 913f 3049 8c3f d6bf 5f3f 3d59 b23f
00000110: 58f1 663f b1e4 603f e0c3 673f 0bb9 663f
00000120: b0d3 6a3f 813b 643f 1908 673f 0b59 673f
00000130: e717 703f 66be 413f 57b2 923f f1e4 683f
00000140: 37c9 613f 15d3 693f 20db 593f 89bb 753f
00000150: cb32 5d3f 2feb 833f 2979 693f 401e 603f
00000160: 8703 893f b1e4 4d3f 01d8 963f 2003 9b3f
00000170: 16ee 603f f97e 863f 1904 963f 2a0d 723f
00000180: 942a 693f 60d4 673f 2c1a 743f b296 733f
00000190: 1cdc 5e3f e1d1 633f 71ae 643f 2deb 703f
000001a0: dfa1 5b3f 2922 673f 36c7 833f a894 4f3f
000001b0: 04db 913f 7590 5c3f 8a5d 693f b427 bf3f
000001c0: 7a8d a53f f68c 643f a434 6b3f a5a8 6d3f
000001d0: f6f3 5a3f ec06 5e3f ea3b 5c3f 040b 6e3f
000001e0: 5563 6c3f e430 653f db2e 543f 6dff 703f
000001f0: 74a3 673f d152 623f bf2e 7c3f a8fd 7b3f
0.90533376 0.93455356 1.6473817 0.96049887 0.8536179 0.9043269 0.88136965 0.82239014
0.8772545 0.9294294 0.91645646 1.0432144 0.9310038 0.8185036 0.8757865 0.8812183
0.905927 0.8885459 0.95548874 0.86628884 0.881047 0.8749809 0.8126785 0.91413796
0.9151354 0.87395275 0.8786407 1.1070411 0.87898195 0.8593615 0.92501456 1.0985521
0.8312329 0.8679868 0.9424143 0.8473097 0.8218637 0.9267791 0.9634076 0.88832957
1.2101713 0.8657504 0.89407027 0.8279312 0.8935896 0.8947053 0.8915598 0.8542487
0.8814929 0.8752308 0.89192086 0.9239571 0.9299253 0.94178855 1.2018706 0.8883095
0.89802784 1.1163096 1.2298874 0.8952518 1.1589998 0.8941817 0.88071203 0.94077426
1.13381 1.0959835 0.87402093 1.3933483 0.9021201 0.87848955 0.90533257 0.90126103
0.9172926 0.89153296 0.9024673 0.90370244 0.9378647 0.7568115 1.1460675 0.90974337
0.88197654 0.9133771 0.85099983 0.9598928 0.8640563 1.0306147 0.912005 0.8754616
1.0704201 0.8042708 1.1784669 1.2110329 0.8786329 1.0507499 1.172 0.94551337
0.91080594 0.90558434 0.95352435 0.9515182 0.8705461 0.88992125 0.89328676 0.9410885
0.8579387 0.902865 1.0295169 0.81086206 1.1394963 0.86157924 0.91158354 1.4933991
1.29338 0.8927759 0.918772 0.92835456 0.85528505 0.8672931 0.8602892 0.9298556
0.9233907 0.89527726 0.82883996 0.9413975 0.90483785 0.8840762 0.9850883 0.98433924

norm.bias f4 [128]
00000000: cc6e 2e3e 7b6c 863d 7838 0e3e 4d6a 23bd
00000010: 3a57 aabe bab8 a6be 472b 98be 99c2 01bf
00000020: b59b 0ebe ab5c 613e e2b8 b63e 3578 22be
00000030: 5605 be3e a964 fa3e db2e 7b3e 8419 a3be
00000040: d8cf 4a3e 670a b9bd 2a96 813e 4f98 b9bd
00000050: 7c84 0fbf c8d4 483d 2c1f 8dbd 57bf 04bd
00000060: b8b4 3abe d626 24be 6eb9 0e3e 13c2 bcbd
00000070: bd3f 86bd 4340 0abe 897e e8bd 9fdc 6e3e
00000080: 8b4c 00bf 8878 9cbe 2b3b c8bd 6ef9 6fbe
00000090: 39f5 31be 8289 a0bd 2d7b afbd 01d8 bdbd
000000a0: ac70 8e3e fa01 223f 9c75 533e 6d5e c8bd
000000b0: fc3d cebe 5d2d 07be 5e8e 873e 3784 88be
000000c0: 6f90 13bd 6324 f33d 9a91 043f 6af3 1bbe
000000d0: 4585 d93e 198c 2cbe 7bb2 f83c 7a0a 273c
000000e0: 62bf e23e 88c9 3ebe 4542 0c3d 65f5 5cbe
000000f0: c1e9 2b3e 0a71 373e d90f 163d dc43 963c
00000100: cbdc 293e c79d 8dbd aef8 21be 1bb2 3bbd
00000110: 82c7 debd b5c0 02be dcb7 823d b80f 4a3e
00000120: 1309 603e 83af 01be 94e1 4a3d e783 cbbd
00000130: 463f a93d 6532 e8be bf31 3bbe c523 debe
00000140: aeef febd ed21 74bc 728f 6dbe b6d8 5d3e
00000150: c888 8dbe 4ca8 793e 6fbe c63d 2065 4ebe
00000160: e3c8 bfbd c7f5 99bd 71bd 8d3e 8e78 3b3d
00000170: 8357 69be d052 b63e ed3a 163e 3a4d 0a3e
00000180: 4135 013d 3b2f ddbe 309a 44be c3d1 893e
00000190: 6ae9 91be c9e3 2bbe 8616 d13d af67 f5bd
000001a0: 7104 b83d 78aa f1bd 05d4 133e ae33 b3be
000001b0: e4f7 15bc f4a9 403c d7f8 70bd c410 133f
000001c0: bcce eebb 3337 e23d bb9a 5fbd c89a 12be
000001d0: 4493 19be ab36 f4be cc75 cebe 30a6 ae3e
000001e0: dd0d 03bd 4326 853e fc18 1bbf 589f 2ebd
000001f0: 7315 42be 8ef3 0c3c 3351 debd 4ec2 c7bc
0.17034453 0.0656366 0.13888729 -0.0398963 -0.33269674 -0.3256281 -0.29720518 -0.5068756
-0.13926585 0.22008006 0.3568793 -0.15866168 0.37113446 0.48904923 0.24529593 -0.31855404
0.19805849 -0.09035187 0.2530988 -0.09062254 -0.5606153 0.04903105 -0.06890711 -0.03240904
-0.18233001 -0.1603044 0.13937923 -0.09216704 -0.06555126 -0.13501076 -0.1135226 0.23326348
-0.50116795 -0.30560708 -0.097769104 -0.23434994 -0.17378701 -0.078387275 -0.08568416 -0.09269715
0.27820337 0.63284266 0.20650333 -0.09783635 -0.40281665 -0.13200898 0.26475805 -0.26663372
-0.036026414 0.118721746 0.5178467 -0.15229574 0.4248449 -0.16850318 0.030358544 0.010195369
0.44286638 -0.18631566 0.034242887 -0.21577986 0.16788389 0.17914215 0.036636207 0.018342905
0.16588132 -0.06914859 -0.1581752 -0.04582415 -0.10877897 -0.12768824 0.06382725 0.19732559
0.21878462 -0.12664609 0.049531534 -0.09937268 0.082640216 -0.45350948 -0.18280695 -0.43386665
-0.12448059 -0.014900667 -0.23199251 0.216647 -0.27643418 0.24380606 0.09704291 -0.20155764
-0.09364488 -0.075175814 0.27683595 0.045769267 -0.2278729 0.35610056 0.14670916 0.13506022
0.031544928 -0.43200096 -0.19199443 0.26917848 -0.28498393 -0.16786112 0.10209374 -0.11982667
0.08985222 -0.118000925 0.14436348 -0.35000366 -0.00915334 0.01175927 -0.058831062 0.5744746
-0.0072878283 0.11045685 -0.05459092 -0.14316857 -0.14997584 -0.47697958 -0.40324247 0.34111166
-0.031995643 0.26005754 -0.60585 -0.04263243 -0.18953495 0.00860299 -0.10855331 -0.024384644

norm.running_mean f4 [128]
00000000: 3b07 963e 47ab 053f 32b8 053d 22b9 ea3e
00000010: d677 a33e f33b ee3e 3cb8 623f 92f1 433e
00000020: a49a 3b3e 2169 d03e ce62 ff3d 16cd c23e
00000030: dcff 793e 0fc7 c03e d437 9b3e 5511 843d
00000040: cf48 843d 7dd4 1f3d abd0 283f b0c6 b63d
00000050: fb8e 8e3f 4cf0 c53e 4913 b23e 3a0c c13d
00000060: b25f 0c3f 8961 563e 9e14 c63e 1198 4e3d
00000070: 6a86 ff3e e8ac b03e 4219 e73d a55e 4d3f
00000080: ec1f e93e 1aac c53e 33e8 dc3e 2e2b 1d3f
00000090: cee8 2b3e f8aa 4c3e 43a3 0b3f f855 483f
000000a0: df77 3e3e 6965 d33e d5ef 643e 80ca a13d
000000b0: 50a8 fe3d bc3a ba3e c2d5 393e f9a6 063e
000000c0: 6991 113f d9de 313e 0d58 113f aa1d c93e
000000d0: 970e bb3e fb46 173f 06ae 8a3e 376f 0f3f
000000e0: 7cd1 033f 0025 a23e f9fd 373f 6a7f bf3e
000000f0: 45f7 d13c 0a5c ce3e 2a45 533e 771b 043f
00000100: 1cde 3b3e f717 3b3d 1cbe 033f 8496 353f
00000110: 6af1 443f 2ab6 433e 3d10 ae3e 900d d73e
00000120: cb8b 073f a6ec 2e3e a7df 8a3c 6842 0d3f
00000130: 849d 9d3e f2f4 f23d 7116 c93d d098 da3e
00000140: e6d1 d83e f739 3c3f c534 3f3e 50d0 913e
00000150: 4418 453e fe9d c63e 708e bd3e 8c45 7d3e
00000160: 0400 0000 784d 8d3d cbf7 083e 56bb ad3d
00000170: 68aa 943e d523 b53c 0400 0000 3025 1e3e
00000180: bdde fd3e 7861 0c3f 8164 4b3e bf77 1a3e
00000190: c2fc 2a3f 2bc0 1b3f 5632 303e 1cf2 cf3e
000001a0: 7e11 713e a5db 2e3e 9441 053d b784 4f3e
000001b0: 9497 463f f561 943d a60b aa3d 0bf6 363e
000001c0: 9cfe 283e 91fc 8f3e bd7d 1f3e 08f4 8e3e
000001d0: fac2 b63e ac6f 143f b218 eb3e ab83 7f3e
000001e0: 367f aa3e ebd4 d23e 93f5 233f 35c2 173f
000001f0: d8f6 443f 46bd 8f3e 2f65 e83e aa9e af3e
0.2930239 0.52214473 0.032646365 0.4584437 0.31927365 0.46530113 0.8856237 0.1913512
0.1832071 0.40705207 0.124700174 0.38047093 0.24414009 0.3765187 0.3031603 0.06448618
0.064592 0.039021004 0.659434 0.089246154 1.1137384 0.38659894 0.34780338 0.0942616
0.5483352 0.20935644 0.38687605 0.05043799 0.49907237 0.34506917 0.112841144 0.8022254
0.45532167 0.38607866 0.43145904 0.6139401 0.16788027 0.19987094 0.5454599 0.7825618
0.18600415 0.41288307 0.22357114 0.07899952 0.12434447 0.36372936 0.18147948 0.13149633
0.56862503 0.17370166 0.5677498 0.39280444 0.3653457 0.5909268 0.27085894 0.56029075
0.5149152 0.31668854 0.71871907 0.37401897 0.025630603 0.40304595 0.20631853 0.5160441
0.18346447 0.04567715 0.5146196 0.70932794 0.7693087 0.19112459 0.33996764 0.42002535
0.5294768 0.17082462 0.016952349 0.5517945 0.30784237 0.11863126 0.098187335 0.42694712
0.4234764 0.7352595 0.18672474 0.28479242 0.19247538 0.38792413 0.37022734 0.24733561
6e-45 0.068995416 0.13375776 0.08482997 0.2903626 0.022111813 6e-45 0.15443873
0.49583998 0.54836226 0.19862558 0.15084742 0.6679193 0.608401 0.17206702 0.40614402
0.23541829 0.17075975 0.032533243 0.2026547 0.7757504 0.07245246 0.08303003 0.17867295
0.16503376 0.2812238 0.15575309 0.27920556 0.3569563 0.579829 0.4591728 0.24952571
0.3330018 0.4117807 0.6404659 0.5928071 0.76939154 0.28074092 0.45389697 0.3430074

norm.running_var f4 [128]
00000000: 0b89 503d 12d1 b03d 0e88 283c f5d7 7b3e
00000010: 06f0 e93d 3ec4 973e 4e30 0a3e 5742 d53d
00000020: 11a0 123d d0c8 a73e 2cc9 dd3d b1e2 493d
00000030: 5f43 223e b999 a13d 6d54 f63d 8db6 a33c
00000040: 5f83 663d 4bb2 5f3c 6bea 0c3f 6ad7 b23d
00000050: 4d16 fc3e a14f 8e3e c026 5c3e 244f 1d3d
00000060: e6ab 293d d99f 063e 00aa 543e 26de 5e3c
00000070: 77c8 803e 69cb 363e 990a 2c3d c474 163e
00000080: e547 9c3e 0403 323e 793c 9f3d 1716 833e
00000090: f77a e43d 01f7 183d 8b3c 9c3e c821 be3e
000000a0: 437d b93d af06 fb3d c1d4 af3d 875a 703d
000000b0: 17c9 c73c f4a5 613e f6cb b43d 995f 8a3d
000000c0: b2f7 973d 48cd 803d 3106 603d 2686 883e
000000d0: ec33 143e 98f0 d03d bcee 833d b59e 433e
000000e0: 403f 713e 9fd9 2d3d 5655 013e 2975 7c3e
000000f0: 1172 a83b 83c0 4c3e 8c9c a73d c1a9 b63d
00000100: 5813 af3d 1005 313c 2dd5 193e 1cdf d23d
00000110: 76c0 bf3e 00e5 c83c 4ed4 793e cde0 403e
00000120: 4e1f 0e3e 8116 dc3d 4842 8d3b 10fa 2a3e
00000130: a4a1 413e afa2 a13d 2a4b 233d 02aa 623e
00000140: 9392 f13d c88d 993e 062e 973d 31a6 8e3d
00000150: b5d3 883d 0d55 7e3d 9a68 0e3e bd92 1c3d
00000160: 0400 0000 75f5 9e3c b8a9 353d 477d 0f3d
00000170: b4a1 093e 085e ed3b 0400 0000 e6ba 513d
00000180: 831e b13d b1c2 793e e035 653d 6c9e d13d
00000190: 2deb 2f3f 2aff 423e 4285 8d3d 5a62 ed3d
000001a0: d883 d13d 97a5 533d 6127 5a3c a970 af3d
000001b0: 7031 c93d d525 123d 4abb 423d 1342 b93d
000001c0: ecab da3d 8aa3 c03d fb7e 933d 7cdc fe3d
000001d0: c126 133e d9dd 6c3e 5f0b 103e d871 923d
000001e0: cc38 bd3d 77ae 453e 33c1 833e f7cb 283d
000001f0: 86b0 e83e a237 d33d 87b5 b03d 2c3f 733d
0.050911944 0.08633627 0.010286344 0.245941 0.11422734 0.29641908 0.1349499 0.10413044
0.035797182 0.32770395 0.10829386 0.049288455 0.15846013 0.078906484 0.12027822 0.019984508
0.05627763 0.013653348 0.55045193 0.08732493 0.49235764 0.27795127 0.21499157 0.038405553
0.0414237 0.13146915 0.20767975 0.013602769 0.25152943 0.17851032 0.042002294 0.1469298
0.305236 0.17383963 0.07775206 0.2560279 0.11156266 0.037344936 0.3051494 0.37135148
0.09057095 0.12257134 0.085855015 0.058680084 0.02438788 0.22035962 0.08827965 0.06756515
0.07420291 0.06289154 0.054693405 0.26664847 0.14472932 0.102021396 0.06442019 0.1910351
0.23559284 0.042443868 0.1263021 0.24654068 0.005140551 0.19995312 0.08184156 0.08919097
0.085486114 0.01080443 0.15022726 0.10296461 0.37451524 0.024523258 0.24397394 0.18835755
0.1387913 0.1074648 0.00431088 0.16696954 0.18909317 0.078923576 0.039866604 0.22135165
0.11795535 0.29990983 0.07381825 0.06965292 0.06681005 0.06209283 0.1390709 0.038225878
6e-45 0.019404152 0.04435131 0.035031583 0.13440591 0.0072438754 6e-45 0.05120363
0.08648398 0.24390675 0.055959582 0.10235295 0.68718225 0.1904265 0.069101825 0.11591025
0.10230225 0.05167159 0.013315053 0.0856641 0.098238826 0.03568061 0.047541894 0.09045806
0.10677323 0.094061926 0.07201954 0.12444398 0.14370252 0.23131503 0.14066838 0.0715062
0.09239349 0.19304834 0.25733337 0.04121014 0.45447177 0.103133455 0.086283736 0.059386417
