Lex_jaywalker_QAgent.pt (torch, 225889 bytes, 22 tensors)

layer1.weight f4 [128, 6]
0	0x3e5b88ad	0.21438856
1	0xbe4ae85a	-0.19815198
2	0xbdad957f	-0.0847578
3	0x3dd62273	0.104557894
4	0xbebe924f	-0.37221
5	0x3e5a7cd7	0.21336685
6	0xbd6c1b9a	-0.05764351
7	0x3e59214d	0.2120411
8	0x3b257956	0.0025249324
9	0xbd8f0ab0	-0.0698446
10	0x3dcc6d66	0.099818036
11	0x3dae1b4f	0.085013025
12	0x3dd6478a	0.10462864
13	0xbe07ffb4	-0.13281137
14	0xbcb70203	-0.022339826
15	0xbcfd776f	-0.03094074
16	0xbc091737	-0.008367351
17	0x3da3c677	0.079968385
18	0x3eda4041	0.42627147
19	0x3dc401d8	0.09570664
20	0xbdac0fe6	-0.0840147
21	0xbe52cda4	-0.20586258
22	0xbe82be2d	-0.25535718
23	0xbde4854d	-0.111582376
24	0xbe05b136	-0.13055882
25	0x3cc21b19	0.023694562
26	0x3e549f60	0.20763922
27	0x3e8d7054	0.27624762
28	0xbebf5799	-0.3737152
29	0x3e7fb321	0.24970676
30	0x3ddf8aec	0.10915169
31	0x3ee0e5fc	0.43925464
32	0x3e898ccc	0.26865232
33	0xbec32665	-0.3811523
34	0xbed2854f	-0.4111733
35	0xbe288fe1	-0.16461135
36	0x3eb5b874	0.3549229
37	0xbdb0c459	-0.086312
38	0x3e2504cf	0.16115116
39	0xbe32d9c0	-0.17465878
40	0x3edbd12b	0.4293302
41	0xbe1b9a1d	-0.15195508
42	0x3e9993bd	0.29995528
43	0xbbd406e3	-0.0064705475
44	0xbe38d491	-0.18049838
45	0x3df3035c	0.11865875
46	0xbe7f30ed	-0.24921007
47	0x3e5e8a6d	0.21732493
48	0xbd97f882	-0.07420446
49	0xbde02b77	-0.1094579
50	0xbedd3750	-0.43206263
51	0xbe69082f	-0.22757028
52	0x3e0921fa	0.13391867
53	0xbdb3b6c4	-0.08775094
54	0x3ee7edbb	0.4529856
55	0x3eaab765	0.33343044
56	0xbcf4cd93	-0.029883182
57	0xbe8a842d	-0.27053967
58	0x3e790d17	0.243214
59	0x3e1b7cb1	0.15184285
60	0xbe6bc7b0	-0.23025393
61	0x3e88540d	0.26626626
62	0x3e5eb53f	0.21748827
63	0x3ea56f50	0.32311487
64	0xbe58a000	-0.21154785
65	0x3d12b49e	0.03581678
66	0xbd28353c	-0.041066393
67	0x3db66409	0.08905799
68	0xbebe8a3b	-0.37214836
69	0xbe9ca560	-0.3059492
70	0x3e2fb517	0.17158924
71	0xbe552426	-0.20814571
72	0x3e7ad900	0.24496841
73	0xbd112ab9	-0.035441134
74	0x3e2c6734	0.16836244
75	0x3be9ac99	0.007131171
76	0x3e210788	0.15725529
77	0x3e1aa02f	0.15100168
78	0xbf01d775	-0.50719386
79	0x3dc96717	0.09834116
80	0xbe1d7211	-0.15375544
81	0xbea20b1e	-0.31649107
82	0x3d469d1d	0.04848968
83	0xbd75aaae	-0.059977226
84	0x3e9a74db	0.3016728
85	0xbe81a919	-0.25324324
86	0xbea76ec0	-0.32701683
87	0x3e5232e9	0.20527233
88	0xbdef2cac	-0.11678442
89	0x3e94782a	0.28997928
90	0x3e4d6f88	0.20062077
91	0xbe7edc9c	-0.24888843
92	0x3dbc0470	0.09180534
93	0x3d16069e	0.036627404
94	0xbe85a652	-0.26103455
95	0xbe7f52e6	-0.24933967
96	0x3dbc5e47	0.091976695
97	0xbcf2fa1b	-0.029660275
98	0xbe2a71a0	-0.16644907
99	0xbdef9cd9	-0.11699838
100	0x3ee6b92a	0.45063144
101	0xbd47a88e	-0.04874473
102	0x3e58dc01	0.21177675
103	0x3e31324b	0.17304341
104	0xbe954f73	-0.29162177
105	0xbeb2468c	-0.34819448
106	0x3ecc56b0	0.39909887
107	0x3b9b0d69	0.004731823
108	0x3e970369	0.2949479
109	0xbcc7e3d3	-0.024400627
110	0x3e08048d	0.13282986
111	0x3e949f32	0.29027706
112	0x3ef93520	0.48673344
113	0xbe80a900	-0.25128937
114	0x3e32ecf4	0.17473203
115	0x3eb13974	0.34614146
116	0x3eb285b2	0.34867626
117	0x3e852678	0.26005912
118	0xbe930de3	-0.28721532
119	0xbe4b2870	-0.19839644
120	0xbe60340e	-0.21894857
121	0x3de38dcc	0.1111103
122	0x3ec73940	0.38910866
123	0xbe88c782	-0.26714712
124	0x3e64e954	0.22354633
125	0xbe25607f	-0.16150092
126	0xbec4f5d9	-0.38468817
127	0xbd157e6b	-0.036497515
128	0x3e889b34	0.2668091
129	0x3ead303f	0.3382587
130	0xbe63bb78	-0.22239482
131	0x3e4b79d4	0.19870692
132	0x3ec5af1a	0.38610154
133	0x3e990093	0.2988325
134	0x3e7802b7	0.24219786
135	0x3e841a8f	0.25801513
136	0x3e883c4b	0.266085
137	0x3df2a96c	0.11848721
138	0xbe988f1d	-0.29796687
139	0xbe5bc341	-0.21461202
140	0xbe3de2d7	-0.18543564
141	0xbd974947	-0.073870234
142	0xbe887729	-0.26653412
143	0x3e7ab632	0.24483564
144	0x3ca1ae14	0.019736327
145	0xbdc35232	-0.09537162
146	0x3e0076e6	0.12545356
147	0x3dfd65ec	0.12372956
148	0x3e8b874e	0.27251667
149	0x3e9549e9	0.2915795
150	0xbdf2c566	-0.11854057
151	0x3eeffb9b	0.46871647
152	0xbd861de0	-0.06548667
153	0xbcb88bea	-0.022527654
154	0xbeb5f5b3	-0.35539016
155	0xbe89cfa8	-0.26916242
156	0xbe8bfc6b	-0.27341017
157	0xbe5c7e4e	-0.21532556
158	0x3e9edea2	0.3102923
159	0xbd81b675	-0.06333629
160	0xbe9bdd1d	-0.30442134
161	0x3de46cd9	0.111535735
162	0x3e1d2071	0.15344407
163	0x3e8d3354	0.27578223
164	0xbe51757d	-0.20454974
165	0x3df0694c	0.11738834
166	0xbd9ee452	-0.077583924
167	0x3ccde333	0.025132751
168	0xbe93f624	-0.28898728
169	0xbe821040	-0.25403023
170	0xbe2c4687	-0.16823779
171	0x3e13c398	0.14430082
172	0x3df04c63	0.117333196
173	0x3c976733	0.018481826
174	0x3ec7f04a	0.39050514
175	0x3ecaf0f5	0.3963696
176	0x3e985789	0.29754284
177	0x3ae0d15f	0.0017152241
178	0xbe83d281	-0.2574654
179	0x3ebc29e8	0.36750722
180	0xbe8f2b33	-0.27962646
181	0xbad4493c	-0.0016196142
182	0xbea7f789	-0.32806042
183	0xbd87ed37	-0.06637042
184	0xbe5a1cae	-0.21300003
185	0x3e995726	0.299493
186	0xbea3b6e5	-0.31975475
187	0xbe9c52d3	-0.3053194
188	0x3e1e476d	0.15456934
189	0xbe599624	-0.2124868
190	0x3e3a7fbb	0.18212788
191	0xbdc0bf13	-0.094114445
192	0xbe97f781	-0.29681018
193	0xbd16979e	-0.036765687
194	0x3e878a03	0.26472482
195	0xbe9d4a50	-0.30720758
196	0x3d8bab45	0.068197764
197	0x3e670521	0.2256055
198	0x3eb8d929	0.3610318
199	0xbe95f262	-0.29286486
200	0x3dd1ac83	0.10237982
201	0xbe8eae1f	-0.2786722
202	0x3eb2a584	0.34891903
203	0xbe5891e4	-0.21149403
204	0x3e843e7f	0.2582893
205	0xbd92ca09	-0.071674414
206	0xbca15004	-0.019691475
207	0xbcb144f2	-0.021639321
208	0xbd85b545	-0.06528715
209	0x3e3fdfa5	0.18737657
210	0x3d51d82b	0.051231544
211	0x3e05b112	0.13055828
212	0xbeab2284	-0.3342477
213	0x3ea51e7a	0.32249814
214	0x3ed63dfb	0.41844162
215	0x3eb49982	0.35273367
216	0x3ec33beb	0.3813165
217	0xbe945be9	-0.28976372
218	0xbe8a395f	-0.26996896
219	0x3ea6eb5f	0.3260145
220	0xbe30767b	-0.17232697
221	0x3ed886ea	0.4229043
222	0xbead9e84	-0.3391
223	0xbe870ea2	-0.2637835
224	0x3e34db41	0.17661764
225	0xbe96daa1	-0.29463676
226	0xbdfc13a0	-0.12308431
227	0x3e82a294	0.25514662
228	0x3ea6d088	0.32580972
229	0x3ebcc66e	0.3687014
230	0xbcfa394f	-0.030544905
231	0xbea3c350	-0.3198495
232	0x3ed63637	0.41838238
233	0xbdbc3b24	-0.09190968
234	0xbe1672bd	-0.14692207
235	0x3dccd337	0.100012235
236	0xbeaea391	-0.34109166
237	0x3e841ff0	0.25805616
238	0x3e5da5c8	0.21645272
239	0xbeb280c8	-0.34863877
240	0xbe963f75	-0.2934529
241	0xbd02c6a9	-0.03192774
242	0x3d2bc2aa	0.041933693
243	0xbcfdd806	-0.030986797
244	0xbde986df	-0.11402678
245	0x3c08d1c9	0.008350798
246	0xbed81656	-0.4220454
247	0xbe91bb9a	-0.2846344
248	0xbe236088	-0.15954792
249	0x3e8ae9e3	0.27131566
250	0x3eda0fb8	0.42590117
251	0xbe3f0f51	-0.18658186
252	0x3d0acdbd	0.033887614
253	0x3e16238c	0.14661998
254	0x3c26f89e	0.010191111
255	0xbe57676b	-0.21035545

layer1.bias f4 [128]
0	0xbe329395	-0.1743911
1	0x3e2c4cae	0.16826126
2	0xbea2bc25	-0.31784168
3	0x3de68f59	0.1125781
4	0xbec3bd05	-0.38230148
5	0x3e6b40f1	0.22973992
6	0x3eda0ccf	0.42587897
7	0xbe487c9a	-0.19578782
8	0x3b911985	0.004428091
9	0xbe568934	-0.20950776
10	0xbeb1d347	-0.34731504
11	0xbd01da7c	-0.031702504
12	0xbe6a921b	-0.22907297
13	0x3d08f14b	0.03343324
14	0xbdca152a	-0.09867318
15	0x3ca2695d	0.019825632
16	0xbe4d9fb2	-0.2008045
17	0xbe6bb665	-0.23018797
18	0xbe9b596b	-0.30341658
19	0xbe7b7472	-0.24556139
20	0x3edc12e1	0.42983153
21	0x3e1dbbd0	0.15403676
22	0xbec41558	-0.38297534
23	0xbe0f2b1c	-0.13981289
24	0x3d521b9b	0.051295858
25	0x3e20a3c0	0.15687466
26	0x3eb89393	0.3605009
27	0x3ddb10cb	0.106965624
28	0x3ea1b85e	0.31585974
29	0xbe02ee82	-0.12786296
30	0xbe05f433	-0.13081436
31	0xbe84a10f	-0.25904128
32	0x3e313c41	0.17308141
33	0x3eda3b7c	0.42623508
34	0x3e868d01	0.26279452
35	0x3ece10c0	0.40247154
36	0xbd9e9045	-0.07742361
37	0xbe14122e	-0.1446006
38	0x3df23a3a	0.11827512
39	0x3eb730df	0.35779473
40	0xbecd9fd4	-0.40161002
41	0xbe27f961	-0.16403724
42	0x3e106ad8	0.14103258
43	0xbe751c4b	-0.23936574
44	0x3e81ecd6	0.25376004
45	0xbc8f70ad	-0.017509783
46	0xbe12d13c	-0.14337629
47	0x3e64b92f	0.22336267
48	0x3ea59e27	0.32347223
49	0x3ec055be	0.37565416
50	0x3e2ac143	0.16675286
51	0xbd8a6eb8	-0.06759399
52	0x3e9a4c36	0.3013627
53	0x3ea8b12a	0.32947665
54	0xbeb86ffc	-0.36022937
55	0x3e246e58	0.16057718
56	0x3d2741a0	0.04083407
57	0xbe50aa95	-0.20377572
58	0xbe72c89f	-0.23709343
59	0xbdd8b6e2	-0.10581757
60	0xbe84d7cb	-0.25945887
61	0xbdeaa9c8	-0.114581645
62	0x3dcca0ac	0.09991583
63	0x3e981900	0.29706573
64	0x3d38fd19	0.045163248
65	0xbe9c8a73	-0.30574378
66	0x3e84fe1a	0.25975114
67	0xbe6061b9	-0.21912278
68	0x3eb0bf5d	0.34521
69	0xbeaa875e	-0.33306402
70	0xbd43dea7	-0.04781976
71	0x3eaeeaef	0.34163615
72	0x3e59c3de	0.21266124
73	0xbd94d4e4	-0.07267168
74	0xbec7f01d	-0.3905038
75	0x3d246f22	0.040145047
76	0x3e14e37c	0.14539903
77	0xbe8fb900	-0.2807083
78	0xbe9de702	-0.30840307
79	0x3d6ab973	0.057305764
80	0xbd78d3c3	-0.060748827
81	0x3e8e0a1d	0.2774209
82	0xbeae2452	-0.34012085
83	0xbe001508	-0.12508023
84	0xbebc2e49	-0.36754063
85	0xbe0af917	-0.13571583
86	0xbe5656e0	-0.20931578
87	0x3def1128	0.11673194
88	0xbe5d77ac	-0.21627682
89	0xbef16ecc	-0.47154844
90	0xbe8a54bb	-0.2701777
91	0xbec3209d	-0.3811082
92	0x3e91dc61	0.28488448
93	0xbda62ce3	-0.0811403
94	0xbe8ae97f	-0.27131268
95	0x3e8600d3	0.26172504
96	0x3ca3e5ac	0.020006977
97	0x3e2522b5	0.16126521
98	0xbe028367	-0.12745439
99	0xbea86961	-0.32892898
100	0x3c846ef1	0.016166182
101	0x3e787a14	0.24265319
102	0xbea3cba1	-0.31991294
103	0x3dbde811	0.09272779
104	0x3ded7fd1	0.11596645
105	0x3e0f3bd2	0.13987663
106	0x3d877e49	0.06615884
107	0xbdd5747f	-0.104226105
108	0xbea3dd3f	-0.32004735
109	0x3dd0c87c	0.10194489
110	0xbe2f7d6f	-0.17137693
111	0xbe854e66	-0.26036376
112	0xbe104358	-0.1408819
113	0xbe8a2132	-0.2697845
114	0x3dba213c	0.0908837
115	0x3ea3d84f	0.32000968
116	0x3ea35cea	0.31906825
117	0xbe6487e7	-0.22317468
118	0x3e7558a3	0.23959593
119	0x3ea31493	0.31851634
120	0x3cadd313	0.021218812
121	0x3e3959d8	0.18100679
122	0x3e4b83d5	0.19874509
123	0x3e8b021d	0.2715005
124	0x3e757e2a	0.23973909
125	0x3e18e8ff	0.14932631
126	0xbe6ae541	-0.22939016
127	0xbe524371	-0.2053354

layer2.weight f4 [128, 128]
0	0xbd142a08	-0.036172897
1	0x3d92c280	0.07166004
2	0xbcaf6050	-0.02140823
3	0x3c354e67	0.011066056
4	0xbdb68d34	-0.08913651
5	0x3a429fac	0.00074243057
6	0xbc95bae2	-0.01827759
7	0xbd541dcd	-0.051786233
8	0x3d819e46	0.063290164
9	0xbd9a37d6	-0.07530181
10	0xbcb6bc23	-0.022306507
11	0xbc0a159b	-0.008428003
12	0xbda6f20a	-0.08151634
13	0x3d4ac02c	0.049499676
14	0xbcc38b0d	-0.023870016
15	0x3d2c646a	0.04208795
16	0x3d3d2a38	0.04618284
17	0x3d9a4c62	0.075341
18	0x3c93acdc	0.018026762
19	0x3d7d71ce	0.06187611
20	0x3daaac94	0.08333698
21	0x3ac1e73e	0.0014793647
22	0xbcb479d4	-0.022030748
23	0xbcef97be	-0.029247161
24	0x3c785b45	0.015158479
25	0x3cf35250	0.029702336
26	0xbdbaf274	-0.091282755
27	0x3d8f40ea	0.06994803
28	0xbae65ee9	-0.0017575893
29	0xbdac8d99	-0.08425445
30	0x3cbd05f6	0.023074131
31	0x3d606936	0.054787837
32	0x3cfb0a6a	0.030644614
33	0x3da00ca5	0.07814912
34	0x3b457eb1	0.0030135328
35	0xbda2d26d	-0.07950292
36	0x3c17c167	0.009262419
37	0x3d705171	0.05867142
38	0xbd10aa62	-0.03531874
39	0x3cdd0a34	0.026982404
40	0x3c9ae9bd	0.018910283
41	0xbceaaa11	-0.028645547
42	0x3a8deabc	0.0010827403
43	0x3d0f3202	0.0349598
44	0xbd6899fd	-0.05678748
45	0x3d489669	0.048971567
46	0x3d6623ea	0.056186594
47	0x3d73d58c	0.059529826
48	0x3dab08e7	0.08351307
49	0xbb9ad43e	-0.0047250083
50	0xbd824946	-0.06361632
51	0xbc216e47	-0.009852952
52	0xbd1646b4	-0.03668852
53	0x3d19363c	0.037405238
54	0x3d9ac3f4	0.07556906
55	0xbd25655c	-0.040379867
56	0xbbfd37f9	-0.0077276197
57	0x3db77f8e	0.08959876
58	0xbda280f6	-0.079347536
59	0xbc2c7dd0	-0.010528043
60	0x3db03b1b	0.086050235
61	0x3d6b091e	0.05738174
62	0x3cb6bd5c	0.02230709
63	0xbd15060f	-0.03638273
64	0xbc809a9e	-0.015698727
65	0xbda3f3eb	-0.08005508
66	0xbd9248a5	-0.07142762
67	0xbd9fc371	-0.07800949
68	0x3daff310	0.08591282
69	0x3d87a42b	0.066231094
70	0x3ce0703e	0.027397271
71	0xbce3b22f	-0.027794925
72	0x3d9f4c03	0.0777817
73	0xbc91dd3d	-0.01780569
74	0x3d538cda	0.051648
75	0x3ad24268	0.0016041519
76	0xbd301b48	-0.042994767
77	0xbcc079b9	-0.023495542
78	0xbcc8a214	-0.024491347
79	0xbda6801d	-0.081299044
80	0x3cd4e1f2	0.025986645
81	0xbd0b66d1	-0.0340336
82	0x3d11b7af	0.035575565
83	0x3d8220f3	0.06353941
84	0xbc44013c	-0.011963185
85	0x3d0b3310	0.033984244
86	0x3c764cf3	0.015032995
87	0x3d73ea87	0.059549835
88	0xbd796c3d	-0.06089424
89	0xbbc042b6	-0.0058673276
90	0xbcc384b1	-0.023866983
91	0x3d8d046c	0.06885609
92	0xbd9f54ff	-0.077798836
93	0xbd600eda	-0.054701664
94	0x3c2153da	0.009846652
95	0x3da5de37	0.08099025
96	0x3d80bcc1	0.06286002
97	0xbdb640bd	-0.088990666
98	0xbd88b222	-0.06674601
99	0x3daede45	0.08538488
100	0x3c7d2b3e	0.015452204
101	0xbd97d4f2	-0.07413663
102	0xbd052087	-0.032501724
103	0x3d3f10a2	0.04664672
104	0xbc850647	-0.016238345
105	0xbd782a00	-0.06058693
106	0xbd58da7f	-0.05294275
107	0xbd404d4e	-0.046948723
108	0xbbb109af	-0.0054027657
109	0x3c8d37c0	0.017238498
110	0x3d393a08	0.04522136
111	0xbd2a6428	-0.041599423
112	0xbcb6a0c7	-0.022293461
113	0xbd912cb8	-0.070886075
114	0x3d8c12db	0.06839534
115	0x3db89b76	0.09014027
116	0x3dacf5fb	0.084453546
117	0x3d08e6ec	0.03342335
118	0xbc805adb	-0.015668323
119	0xbc536f16	-0.012904903
120	0x3d0eb0c2	0.034836538
121	0xbda0a8bc	-0.078446835
122	0xbab43c08	-0.0013750801
123	0xbda1cdce	-0.07900582
124	0xbdc9df74	-0.098570734
125	0x39f71a64	0.00047131174
126	0xbcda7166	-0.0266654
127	0xbd4a067f	-0.0493226
128	0x3ce082db	0.027406147
129	0xbc513c59	-0.012770736
130	0x3c57f0cc	0.013179969
131	0xbd4e8e45	-0.050428648
132	0xbdae9674	-0.085247904
133	0xbcb724df	-0.022356449
134	0xbd66c2b7	-0.05633804
135	0xbcbc9cdf	-0.02302402
136	0x3d3a4f4d	0.045485783
137	0x3b012e88	0.0019711573
138	0x3d3f1850	0.046654046
139	0xbd1a3f02	-0.037657745
140	0xbd8d8331	-0.069097884
141	0x3bc23627	0.0059268656
142	0xbd43a792	-0.04776723
143	0x3c20f857	0.009824834
144	0xbd9d691d	-0.076860644
145	0x3d7757bc	0.060386404
146	0xbd848c86	-0.06472115
147	0x3d7edf23	0.06222452
148	0x3d19133a	0.03737185
149	0x3dace48f	0.084420316
150	0x3cf9b5e9	0.03048225
151	0x3cd01299	0.025399493
152	0x3bfd5da9	0.0077321124
153	0xbcdde4c9	-0.027086632
154	0xbd25d0e7	-0.040482428
155	0xbda53026	-0.08065824
156	0x3da6a621	0.08137155
157	0xbbd8ba79	-0.006614026
158	0x3d79358d	0.060842086
159	0x3b80ba3d	0.0039284513
160	0x3cc55a80	0.024091005
161	0xbd94fe34	-0.07275048
162	0xbd85dbb5	-0.065360464
163	0x3d98387a	0.07432647
164	0x3d5a36ab	0.05327479
165	0x3d5bc063	0.05365027
166	0xbded72c6	-0.11594157
167	0xbb25fa63	-0.0025326244
168	0xbda456d6	-0.08024375
169	0xba91d23c	-0.0011125277
170	0xbc43209e	-0.011909632
171	0xbd3b017f	-0.045655724
172	0xbdc9e314	-0.09857765
173	0xbb3b19ba	-0.002854927
174	0x3dab3761	0.08360172
175	0x3dd5555c	0.10416672
176	0xbd813f83	-0.06310942
177	0xbd038c35	-0.032116134
178	0xbdaaa540	-0.083323
179	0xbd8faf58	-0.07015866
180	0xbce81150	-0.028328568
181	0x3d85883a	0.06520124
182	0xbccca57d	-0.024981255
183	0xbc761d1f	-0.015021591
184	0x3da09074	0.07840052
185	0xbb240031	-0.0025024528
186	0x3dab75fb	0.08372112
187	0x3d11bb9e	0.035579316
188	0x3dc6a474	0.09699336
189	0x3c9fce4e	0.019507553
190	0xbd64495e	-0.05573403
191	0xbdd135f3	-0.10215368
192	0xbd6106f1	-0.05493826
193	0x3d4a1a54	0.049341515
194	0x3d4cf0ac	0.05003421
195	0x3ca55c03	0.020185476
196	0xbda5229c	-0.08063242
197	0xbd8a58ae	-0.067551956
198	0x3daa7f35	0.08325044
199	0xbcc00f7e	-0.023444887
200	0xbdd6c03b	-0.10485884
201	0x3a9c959a	0.001194644
202	0xbc91437a	-0.01773237
203	0xbc19e45a	-0.009392822
204	0x3cdd64a0	0.02702552
205	0x3cbe3a6a	0.023221213
206	0xbd89dcf9	-0.067316
207	0xbc4d5f40	-0.012534916
208	0xbd1333ca	-0.03593806
209	0x3d25cf99	0.040481184
210	0x3d2ef066	0.04270973
211	0x3d3e63aa	0.046481766
212	0x3d9b659e	0.07587741
213	0x3d346b9f	0.044047948
214	0xbdbbfc0a	-0.09178932
215	0x3c88320a	0.016625423
216	0xbd570aeb	-0.052500647
217	0x3ccaff87	0.024780048
218	0x3bcd4c3f	0.0062651928
219	0x3da5955a	0.08085127
220	0xbd995d29	-0.07488472
221	0xbdd015f3	-0.101604365
222	0xbcc09ca6	-0.023512196
223	0x3c292eed	0.010326129
224	0x3d91148a	0.07083996
225	0x3d8193b3	0.063269995
226	0x3d79efc6	0.06101968
227	0x3c7e63ed	0.015526754
228	0xbcd4e043	-0.025985843
229	0xbd07dac6	-0.033167623
230	0xbd4d6d2a	-0.050152935
231	0x3b94033e	0.004516988
232	0xbd828ba0	-0.063742876
233	0x3d0d6b87	0.034526374
234	0x3d3b1ffe	0.045684807
235	0x3d9a2e0d	0.07528315
236	0xbdb70506	-0.08936505
237	0x3da79e1b	0.08184453
238	0xbd9216f6	-0.07133286
239	0xb88baa39	-6.659743e-05
240	0x3da74a08	0.08168417
241	0x3d32ffac	0.04370086
242	0xbd267ec9	-0.040648255
243	0x3d141415	0.036151964
244	0xbda7dedb	-0.08196803
245	0x3d772c4d	0.060344983
246	0x3d92a179	0.07159705
247	0xbc1fd70b	-0.00975586
248	0xb993f13d	-0.0002821776
249	0xbc2e3d77	-0.010634772
250	0xbd51afed	-0.051193167
251	0xbd17233d	-0.03689884
252	0xbc1c3caa	-0.009535948
253	0xbdabf21c	-0.08395788
254	0xbda66f62	-0.08126713
255	0x3c45946c	0.012059312

layer2.bias f4 [128]
0	0x3ce5512b	0.027992805
1	0x3d4ffeac	0.050779983
2	0xbdb471ef	-0.088107936
3	0x3d4b17fe	0.049583428
4	0x3adfd712	0.0017077646
5	0x3d31176e	0.043235235
6	0xbdb2d7f7	-0.08732598
7	0xbd10159a	-0.03517685
8	0x3d94c9cc	0.07265052
9	0x3d95ee11	0.07320798
10	0xbd881279	-0.066441484
11	0xbd9c48be	-0.07631062
12	0xbcad96e3	-0.021190112
13	0x3df6a489	0.12043101
14	0x3db7beb9	0.08971924
15	0xbc894e77	-0.016761048
16	0x3cc3ad05	0.023886213
17	0x3d49c19c	0.049256906
18	0xbd9ab7ce	-0.07554589
19	0xbbd98df6	-0.0066392375
20	0x3d824181	0.0636015
21	0x3d0774ae	0.03307026
22	0x3d037b68	0.03210011
23	0x3dc6a516	0.096994564
24	0x3d7f3f41	0.062316183
25	0xbdd23dbe	-0.10265683
26	0xbd4ca88c	-0.049965426
27	0xbd3bd250	-0.045854867
28	0xbd82f92a	-0.063951805
29	0x3d85f00b	0.06539925
30	0x3c8363aa	0.016038734
31	0x3db70084	0.08935645
32	0xbc800ae6	-0.015630197
33	0x3d23284d	0.039833356
34	0xbd130cb1	-0.035900775
35	0x3da7e14b	0.08197268
36	0x3d4e0848	0.050300866
37	0xbccf7c4b	-0.025327822
38	0x3cdc7ecb	0.026915928
39	0xbd31aee9	-0.043379698
40	0xbd2e8331	-0.042605583
41	0xbdc7908b	-0.09744366
42	0x3d51ece6	0.051251315
43	0x3d970624	0.07374218
44	0xbd9066d6	-0.070508644
45	0x3d97fc39	0.074211545
46	0xbd5092a7	-0.05092111
47	0xbda736ad	-0.081647255
48	0x3ce50186	0.027954828
49	0x3d1233fb	0.035694104
50	0xbc95ad67	-0.018271161
51	0xbc049899	-0.008093023
52	0x3ccf6ec6	0.025321376
53	0xbd4e9725	-0.05043711
54	0x3da5c072	0.08093347
55	0xbd898616	-0.06715028
56	0xbca65904	-0.020306118
57	0xbdc30b01	-0.09523583
58	0xbcdc4299	-0.026887225
59	0xb9051d7b	-0.00012694851
60	0xbd832e7b	-0.0640535
61	0xbd3937c5	-0.0452192
62	0xbd322901	-0.043496136
63	0xbcf970bb	-0.030449262
64	0x3dae1300	0.08499718
65	0x3db1fbfd	0.08690641
66	0x3b2da70a	0.0026497268
67	0xbc6e7a74	-0.014555562
68	0x3d7ee2f4	0.062228158
69	0xbcc33cc2	-0.023832683
70	0x3db8d670	0.09025276
71	0x3d20e04c	0.039276406
72	0x3d3fe3d3	0.04684813
73	0x3dc07f83	0.09399321
74	0xbcf18ebb	-0.029487005
75	0xbd9171d3	-0.07101788
76	0xbc90133f	-0.017587302
77	0xbda76600	-0.08173752
78	0x3d716f99	0.05894432
79	0xbbd00945	-0.0063487613
80	0x3d9cd6f2	0.07658185
81	0xbd641120	-0.055680394
82	0x3d39dfcb	0.04537944
83	0x3c946f46	0.018119466
84	0x3dcf96c8	0.10136181
85	0xbd9e1dcf	-0.07720529
86	0x3bd8e729	0.0066193533
87	0xbd426c51	-0.04746658
88	0xbc51eba2	-0.012812527
89	0x3d1a676e	0.037696294
90	0xbd6202b3	-0.055178355
91	0x3d864525	0.06556157
92	0x3b99389e	0.0046759387
93	0x3c7936f6	0.015210858
94	0x3d9a516d	0.07535062
95	0xbbbd4fb9	-0.005777326
96	0xbcf49263	-0.029854959
97	0x3d9894a3	0.07450225
98	0x3d90c657	0.0706908
99	0xbd29d940	-0.04146695
100	0x3d9b2862	0.07576062
101	0xbc88ece9	-0.01671453
102	0x3d69a7ea	0.0570449
103	0xbb983659	-0.0046451506
104	0xbdc428d0	-0.09578097
105	0x3d4db285	0.050219078
106	0x3d232284	0.03982784
107	0xbda68e3e	-0.08132599
108	0xbd9cea69	-0.07661898
109	0x3db60764	0.088881284
110	0x3d856fc3	0.065154575
111	0xbcc35869	-0.023845868
112	0xbd377b68	-0.044795424
113	0x3da475ff	0.080303185
114	0x3d943fbf	0.07238721
115	0xbd9e14f3	-0.077188395
116	0xbd2e5d1c	-0.042569265
117	0xbd349432	-0.044086643
118	0xbdba7927	-0.09105139
119	0xbc2a126b	-0.010380368
120	0x3d34c0d9	0.044129226
121	0xbd019f13	-0.031645846
122	0xbd9c495c	-0.0763118
123	0xbcc678ac	-0.024227463
124	0xbd17621c	-0.0369588
125	0xbd8d14fd	-0.06888769
126	0x3d125636	0.03572675
127	0xbd3bd33c	-0.045855746

layer3.weight f4 [128, 128]
0	0x3cf44890	0.029819757
1	0xbca2b43c	-0.019861333
2	0xbcff834e	-0.03119054
3	0x3d1844f8	0.03717515
4	0x3d7d7310	0.06187731
5	0x3d17a44b	0.037021916
6	0x3d82db9f	0.06389546
7	0x3da5614d	0.08075199
8	0xbbafc45d	-0.0053639845
9	0x3d083b37	0.033259597
10	0x3d89d31c	0.06729719
11	0xbd510141	-0.051026586
12	0xbc81c83c	-0.01584255
13	0xbdb1f4a7	-0.08689242
14	0x3ce49a5e	0.02790564
15	0x3d5c1774	0.053733304
16	0x3d8fea0a	0.07027061
17	0x3ccf01b1	0.025269361
18	0xbd81c03c	-0.06335494
19	0xbd7a8289	-0.061159644
20	0xbda094d2	-0.07840885
21	0xbb941ef4	-0.0045202915
22	0x3c769e08	0.015052326
23	0xbd6e2d9a	-0.058148958
24	0x3b8bba8e	0.0042641824
25	0x3c7c7b39	0.015410238
26	0xbd4e6404	-0.05038835
27	0x3bec4282	0.007210077
28	0xbd501638	-0.05080244
29	0x3dc11e00	0.0942955
30	0xbd6b6bc6	-0.057475828
31	0xbbcaa870	-0.00618463
32	0x3cc6377e	0.024196383
33	0xbd48bb3b	-0.049006682
34	0x3d97256f	0.07380187
35	0x3c518fe1	0.012790651
36	0xbd02709c	-0.031845674
37	0x3bdc40bc	0.006721584
38	0x3d84de81	0.06487752
39	0xbbcf48e0	-0.006325826
40	0xbd9e544f	-0.07730924
41	0xbd7bc88a	-0.061470546
42	0x3dc2702f	0.094940536
43	0x3d8fc5b7	0.07020133
44	0xbd8770c1	-0.06613303
45	0x3d9fdfef	0.07806384
46	0xbd20dca6	-0.039272927
47	0xbd40169b	-0.04689656
48	0x3c60b694	0.013715405
49	0x3dae6d1d	0.085169055
50	0x3d3a4857	0.045479145
51	0xbdb32ddd	-0.08748982
52	0xbca41546	-0.020029675
53	0x3d384406	0.044986747
54	0x3d87260a	0.06599052
55	0x3d43a705	0.047766704
56	0xbcd6d0c6	-0.026222598
57	0xbd1d9b99	-0.038478468
58	0x3cc51b3e	0.024060842
59	0xbc7227c1	-0.014779986
60	0x3d976adc	0.07393429
61	0x3d19a2fc	0.03750895
62	0x3d45555d	0.048177112
63	0x3d638651	0.055548016
64	0xbab59e6f	-0.0013856421
65	0x3d97b3b9	0.07407326
66	0x3db9d416	0.09073655
67	0xbc37f803	-0.011228564
68	0xbd71d8e7	-0.059044745
69	0xbc7996c5	-0.0152337
70	0x3bcbfd64	0.006225275
71	0xbd11a397	-0.035556402
72	0x3d12446b	0.03570978
73	0x3d0b2ae5	0.033976454
74	0xbced8d19	-0.028997945
75	0x3cd4e6f0	0.025989026
76	0x3ce195e0	0.027537286
77	0x3cb9922e	0.022652712
78	0xbce3345f	-0.027734933
79	0x3cc4d329	0.02402647
80	0xbc138e32	-0.00900607
81	0xbd84ccd1	-0.06484378
82	0xbd6b9b53	-0.057521176
83	0xbd9afa21	-0.075672396
84	0xbd82ae1e	-0.063808665
85	0x3b9a6600	0.0047118664
86	0x3cf05158	0.029335663
87	0xbd2f5261	-0.042803172
88	0xbd778dd8	-0.060438007
89	0xbd7e9e0f	-0.062162455
90	0xbd636ec2	-0.05552555
91	0x3d2b0316	0.04175099
92	0xbd7afb20	-0.061274648
93	0xbce8acbc	-0.028402679
94	0x3d2d3f1a	0.042296506
95	0x3d0a0992	0.033700533
96	0x3bf57456	0.007490675
97	0x3ce63331	0.028100582
98	0xbd05a5fc	-0.032629
99	0x3c1a6e37	0.009425691
100	0x3d58b459	0.052906368
101	0x3d45a9d2	0.048257656
102	0x3cb05599	0.021525191
103	0xbd75590c	-0.059899375
104	0xbd8c97fa	-0.06864925
105	0xbca91abd	-0.020642633
106	0xbd48fab1	-0.049067203
107	0x3d25b715	0.040457804
108	0xbcdb822f	-0.026795475
109	0x3d80ea77	0.062947206
110	0xbd9ea772	-0.077467814
111	0x3d81e647	0.0634275
112	0x3dae6907	0.08516126
113	0xbbc93e2e	-0.0061414456
114	0x3d2a7a55	0.04162057
115	0xbd0c3575	-0.034230668
116	0x3d00b667	0.031423952
117	0x3d9c27a8	0.07624751
118	0xbb195642	-0.002339736
119	0x3c681029	0.014164009
120	0x3c8a1a2c	0.016858183
121	0x3cb9aea2	0.02266628
122	0x3d373be7	0.04473486
123	0x3d567f81	0.05236769
124	0xbdb87e76	-0.090084955
125	0xbd4e8e0f	-0.050428446
126	0xbdccc04f	-0.099976175
127	0xbd17cd92	-0.03706128
128	0xbd7e4d9e	-0.06208574
129	0xbdc6fbe0	-0.0971601
130	0x3da059bb	0.07829615
131	0x3c6ac858	0.014329992
132	0xbd992c23	-0.074791215
133	0x3dc66abc	0.09688327
134	0xbd4ec55d	-0.05048119
135	0x3d6528c0	0.055947065
136	0xbd54cefe	-0.051955216
137	0x3da4610a	0.08026321
138	0x3d1eb1e4	0.03874387
139	0x3d591c81	0.0530057
140	0x3c4d1ea4	0.012519512
141	0xbd97d8ca	-0.07414396
142	0xbc69321b	-0.0142331375
143	0x3cf206be	0.02954423
144	0xbd0ee8d1	-0.03489
145	0x3adcd0a7	0.0016846851
146	0xbc19535b	-0.009358252
147	0x3d6aff69	0.057372484
148	0x3d947430	0.072487235
149	0xbb62746b	-0.0034554254
150	0x3c760a2e	0.015017075
151	0xbd2edee8	-0.04269305
152	0x3d9736dd	0.07383511
153	0xbd7c6916	-0.061623655
154	0x3d499542	0.04921461
155	0x3d522f1e	0.051314466
156	0xbccda230	-0.025101751
157	0x3de3c739	0.11121983
158	0x3d1b68d8	0.037941784
159	0xbdb4997c	-0.08818337
160	0xbcd60948	-0.026127473
161	0x3dbae72e	0.09126125
162	0x3c96f272	0.018426154
163	0xbbf85d50	-0.007579483
164	0x3dab0b10	0.083517194
165	0x3ce8689a	0.02837019
166	0xbd841c9d	-0.0645077
167	0xbd6899bd	-0.05678724
168	0xbd975b98	-0.07390517
169	0x3d276420	0.04086697
170	0xbdaff0a5	-0.08590821
171	0xbc1c241a	-0.009530092
172	0x3da2fba8	0.07958156
173	0x3d525c74	0.0513577
174	0x3d50e925	0.051003594
175	0xbd925888	-0.07145792
176	0x3db395e0	0.08768821
177	0x3d29fa59	0.041498516
178	0x3d4f37f9	0.05059049
179	0x3d0caa9a	0.034342386
180	0x3dc387ff	0.095474236
181	0x3d9a9f9e	0.07549976
182	0xbb2d0427	-0.002640018
183	0xbd782abd	-0.060587633
184	0x3d7ac26a	0.061220564
185	0xbd912365	-0.07086829
186	0xba08cd52	-0.00052185834
187	0x3c68b226	0.01420263
188	0x3ca2f4a9	0.019892054
189	0x3ba8d225	0.0051520043
190	0xbdc83db6	-0.097773954
191	0x3c78a686	0.015176421
192	0x3b3f2af1	0.0029169882
193	0xbd00c5b2	-0.031438537
194	0x3ca3958a	0.019968767
195	0xbc80bd5f	-0.0157153
196	0xbc79244b	-0.015206407
197	0x3d8a25e1	0.06745506
198	0x3c8d9dab	0.017287096
199	0xbcab4e17	-0.02091126
200	0x3da189cd	0.078876115
201	0x3d28f239	0.041246627
202	0x3b9ca389	0.004780237
203	0xbd86b639	-0.06577725
204	0xbd6a8959	-0.05725989
205	0xbcf2ba3d	-0.029629821
206	0xbca267e2	-0.019824926
207	0xbd95c0b5	-0.073121466
208	0x3c189f28	0.00931529
209	0x3c9d77ad	0.019222105
210	0x3d26fe59	0.04076991
211	0xbd96161f	-0.07328438
212	0xbd807fe7	-0.062743954
213	0xbd9a3a91	-0.07530702
214	0xbd18a29c	-0.03726445
215	0xbd9d2e9b	-0.07674905
216	0xbb371849	-0.002793806
217	0xbd6a7f8e	-0.057250552
218	0x3ddff752	0.109358445
219	0x3d70783e	0.058708422
220	0xbc79dc49	-0.015250274
221	0x3d9b2fde	0.07577489
222	0x3d8367e3	0.06416299
223	0x3d6149f6	0.055002175
224	0xbd3c747a	-0.04600952
225	0x3d274d01	0.04084492
226	0x3c66d66c	0.014089208
227	0x3bd22d5b	0.006414098
228	0x3cbafcd5	0.022825638
229	0x3cb3bbac	0.021940075
230	0x3c422580	0.011849761
231	0x3db8c98b	0.09022816
232	0x3dd9462c	0.10609087
233	0x3dac5f4b	0.08416613
234	0xbb27f674	-0.0025629075
235	0x3a8a6551	0.0010558759
236	0x3dae6c0e	0.085167035
237	0xbd8c60a5	-0.06854371
238	0x3cc9d648	0.02463831
239	0xbd02eb55	-0.03196271
240	0x3d99f3eb	0.07517227
241	0x3d31e984	0.04343559
242	0xbd5bcba7	-0.053661015
243	0x3d5c77f9	0.053825352
244	0x3da85ada	0.082204536
245	0xbd54153f	-0.051778074
246	0xbd1e4318	-0.038638204
247	0x3d22efb1	0.03977937
248	0xbc288c22	-0.0102873165
249	0xbc1c67b6	-0.009546211
250	0xbd029e08	-0.03188899
251	0xbd193cc4	-0.037411466
252	0xbd9068aa	-0.07051213
253	0xbd292f7c	-0.04130505
254	0xbd1cdffa	-0.03829954
255	0xbd621e90	-0.055204928

layer3.bias f4 [128]
0	0x3d19a1f2	0.03750796
1	0xbd87ad4c	-0.06624851
2	0xbd683813	-0.0566941
3	0x3c423473	0.011853325
4	0xbd3022a9	-0.043001805
5	0xbcaa8579	-0.020815598
6	0xbda600d2	-0.08105625
7	0xbce574aa	-0.028009731
8	0xbdd26c8e	-0.102746114
9	0x3ca85808	0.02054979
10	0x3c265caa	0.010153929
11	0xbc9be342	-0.019029263
12	0xbd99b777	-0.07505696
13	0xbc8809be	-0.016606208
14	0x3dbe963f	0.09306001
15	0xbca7c7a6	-0.020480942
16	0xbd8d8d18	-0.06911677
17	0xbd220cf9	-0.039563153
18	0xbc1f6f43	-0.009731117
19	0xbd9db2ac	-0.077000946
20	0x3d869b6a	0.06572612
21	0x3cf74287	0.03018309
22	0x3d77639e	0.060397737
23	0x3c2d5c09	0.010581025
24	0xbcbc80ea	-0.02301069
25	0x3ca8d764	0.020610519
26	0x3c70d525	0.014699255
27	0xbbc5ca38	-0.0060360692
28	0x3c6e8302	0.014557602
29	0xbc99dbe9	-0.01878162
30	0x3dcf6cab	0.10128149
31	0x3da25dbb	0.07928034
32	0x3d35b766	0.044364356
33	0x3d20a036	0.03921529
34	0xbb1812bf	-0.0023204533
35	0xbd4aafad	-0.049483944
36	0x3cb89e62	0.02253646
37	0x3da476d9	0.08030481
38	0xbd2cbba5	-0.04217114
39	0xbd8c2720	-0.068434
40	0xbcbbea73	-0.022938943
41	0xbd6ee422	-0.058323033
42	0x3d014af6	0.03156563
43	0xbb5f19db	-0.003404251
44	0xbc90982c	-0.017650686
45	0xbd8b8c1c	-0.06813833
46	0x3b95d2ee	0.004572264
47	0x3c202674	0.009774793
48	0xbcdddabd	-0.027081842
49	0x3c5c8eed	0.013461811
50	0xbc144ed8	-0.009052001
51	0x3d8f9244	0.0701032
52	0x3db585b3	0.08863392
53	0xbd569dc7	-0.052396562
54	0x3d1b1e44	0.03787066
55	0xbd664bcf	-0.05622464
56	0x3d5336e1	0.05156601
57	0x3ce4c6bd	0.027926797
58	0x3ddf5b66	0.10906105
59	0x3da24d9f	0.07924961
60	0x3b24e220	0.0025159195
61	0x3c144bee	0.009051306
62	0x3d91f46e	0.071266994
63	0xbdacb8b0	-0.08433664
64	0xbdac9a16	-0.08427827
65	0x3d272f5e	0.040816657
66	0x3d65345d	0.05595814
67	0x3a3622fd	0.00069479627
68	0xbd18c931	-0.037301246
69	0x3d62d0c1	0.055374864
70	0xbd2a8324	-0.04162897
71	0xbd6036a3	-0.054739606
72	0x3d1b6881	0.03794146
73	0xbd948b2d	-0.07253108
74	0x3d86f694	0.0659
75	0x3cb9c9ef	0.022679297
76	0x3cc645c5	0.02420319
77	0xbd97e9cc	-0.0741764
78	0x3d3a2326	0.045443676
79	0xbd1d1540	-0.038350344
80	0xbc194381	-0.009354473
81	0xbd510ba4	-0.051036492
82	0xbd69656d	-0.056981493
83	0xbce53f5f	-0.02798432
84	0x3d5dac94	0.05411966
85	0xbd9c74e7	-0.07639485
86	0xbd909ede	-0.070615515
87	0xbd6403d6	-0.05566772
88	0x3dab5fb7	0.083678655
89	0xbd275c02	-0.04085923
90	0xbd87fe3a	-0.06640287
91	0xbd0c0f72	-0.034194417
92	0x3cf5a2b6	0.029984813
93	0x3cf5c4a4	0.030000992
94	0xbca72664	-0.020404048
95	0x3ccb5837	0.024822338
96	0x3db936ae	0.090436324
97	0xbccfbe13	-0.02535919
98	0x3b089c2c	0.0020845039
99	0x3c42c047	0.011886663
100	0xbda42738	-0.08015293
101	0xbd52bd48	-0.051450044
102	0xbcefe2e0	-0.029282987
103	0x3ce97d34	0.028502084
104	0x3ce87bc5	0.02837933
105	0x3d98c8e7	0.07460194
106	0xbdab9b3b	-0.08379217
107	0x3c6b9467	0.014378644
108	0x3c4161b5	0.01180308
109	0xbbf9b8b0	-0.0076208934
110	0xbd230ed2	-0.039809056
111	0xbdb04636	-0.08607142
112	0x3dbfc3e6	0.093635365
113	0x3dafbfc2	0.08581497
114	0xbca7750c	-0.020441554
115	0x3d3d7f1c	0.0462638
116	0xbd89bb5d	-0.0672519
117	0x3d5be887	0.053688552
118	0x3c70d5d6	0.01469942
119	0x3d3ab11c	0.04557906
120	0xbd436dfd	-0.047712315
121	0xbc869a3f	-0.016430972
122	0xbd8d2b51	-0.068930276
123	0x3ce97c6a	0.028501708
124	0x3e0bdd29	0.13658585
125	0x3d4b1921	0.04958451
126	0xbcfa6252	-0.03056446
127	0xbd8f0702	-0.069837585

layer4.weight f4 [128, 128]
0	0xbd976262	-0.07391812
1	0x3cb85094	0.02249936
2	0x3db1c943	0.08680966
3	0xbda36ee7	-0.07980137
4	0x3bfe3967	0.0077583077
5	0xbd64ba77	-0.05584189
6	0xbd3f9c65	-0.04678001
7	0x3d89035f	0.06690096
8	0xbd7c891b	-0.06165419
9	0xbd3bba2e	-0.04583185
10	0x3d8ed650	0.069744706
11	0x3d8f7bc1	0.07006026
12	0x3ce420e6	0.027847718
13	0xbc8917b3	-0.016734933
14	0x3d961996	0.07329099
15	0xbd164bf5	-0.036693532
16	0x3da5eb77	0.08101552
17	0x3d176f0e	0.036971144
18	0x3da6e4d5	0.08149115
19	0xbd9afe59	-0.07568044
20	0xbcfa2b0b	-0.030538103
21	0x3b67533a	0.003529741
22	0x3d7a6b94	0.06113775
23	0x3db59469	0.088661976
24	0x3d9edd55	0.077570595
25	0xbb486364	-0.003057682
26	0xbd785280	-0.060625553
27	0x3caa9814	0.02082447
28	0x3d8c3ca3	0.06847503
29	0xbd833c3a	-0.06407972
30	0x3da18ee1	0.0788858
31	0x3cd0f0d9	0.02550547
32	0x3c9a1831	0.018810363
33	0x3bf0ab30	0.007344626
34	0xbdb38731	-0.0876602
35	0xbc2be61a	-0.010491872
36	0x3d139416	0.036029898
37	0x3c59c856	0.013292393
38	0x3a300e54	0.0006716002
39	0x3cd096ea	0.025462586
40	0xbc25802e	-0.010101361
41	0xbd9b91e2	-0.07596184
42	0x3da5981a	0.08085652
43	0xbb69f7d7	-0.0035700703
44	0x3d8229f9	0.06355662
45	0x3b3f899d	0.002922631
46	0x3ca7b0bb	0.020470014
47	0x3d7e67bf	0.06211066
48	0xbd93c424	-0.07215145
49	0xbd6d5a1b	-0.05794726
50	0xbae37a13	-0.0017355107
51	0x3dc4de65	0.09612731
52	0x3d39f429	0.045398865
53	0x3da03df6	0.07824318
54	0x3d76c391	0.0602451
55	0x3db0ebfe	0.08638762
56	0x3d17d822	0.037071355
57	0xbd353c14	-0.044246748
58	0xbb78a4fd	-0.0037940138
59	0xbd6f7894	-0.0584646
60	0x3d62da0a	0.05538372
61	0xba70f9d4	-0.0009192501
62	0x3daee43c	0.08539626
63	0xbd557612	-0.052114554
64	0xbc3ed7a9	-0.011648097
65	0xbd32914e	-0.043595605
66	0x3d81ee27	0.06344252
67	0x3c90ee96	0.017691892
68	0x3d82580d	0.063644506
69	0x3d2861c6	0.04110887
70	0xbdaa8b1f	-0.083273165
71	0xbd94c93c	-0.07264945
72	0xbd9d819e	-0.07690738
73	0x3d173c5e	0.036922805
74	0x3d36fddf	0.044675704
75	0x3da4ccea	0.08046897
76	0x3cbf8afc	0.023381703
77	0xbc558f22	-0.013034614
78	0x3d8fbe5d	0.07018731
79	0x3dabefce	0.083953485
80	0xbc6d8a06	-0.014498239
81	0x3c2b8bf5	0.01047038
82	0xbdaa6ced	-0.08321557
83	0x3c2541ab	0.010086457
84	0x3d00e5c8	0.031469136
85	0xbd9d6efc	-0.07687184
86	0xbd0f2d80	-0.0349555
87	0x3da09d5b	0.07842513
88	0xbc9a95f9	-0.01887034
89	0x3d3f72c2	0.0467403
90	0xbd52240a	-0.0513039
91	0xbd9567e6	-0.07295208
92	0x383b571f	4.4665412e-05
93	0xbd07fc5e	-0.03319966
94	0x3c45d127	0.012073792
95	0xbd4f0ece	-0.05055123
96	0xbc1e535d	-0.00966343
97	0x3db6c9f9	0.08925242
98	0x3bd8e8b3	0.006619537
99	0x3dc303e2	0.09522225
100	0xbd837b15	-0.064199604
101	0x3c21f9a9	0.009886184
102	0x3b302fd4	0.0026883977
103	0x3d9a0000	0.07519531
104	0x3db4bff5	0.088256754
105	0x3d6b75cd	0.05748539
106	0x3c43e2de	0.011955945
107	0xbda1d2d7	-0.07901543
108	0xbd8e805f	-0.069580786
109	0x3d8795a7	0.06620341
110	0x3d81a727	0.0633071
111	0x3d82be74	0.06383982
112	0x3d00caa7	0.031443264
113	0xbc8ba33f	-0.017045615
114	0x3d131c0e	0.035915427
115	0x3cf2b676	0.02962802
116	0x3d068320	0.032839894
117	0xbda9568c	-0.08268461
118	0x3dbc79c4	0.092029124
119	0xbc25c766	-0.010118341
120	0x3d9bca24	0.07606915
121	0x3d9b98e3	0.0759752
122	0xbd071060	-0.0329746
123	0xbdc1fb93	-0.09471812
124	0xbd5ba2dd	-0.053622115
125	0xbcb28735	-0.021792987
126	0x3d843c95	0.064568676
127	0x3c56cb82	0.0131100435
128	0x3d6e9b29	0.05825344
129	0xbc8e54b3	-0.017374372
130	0xbafb2071	-0.0019159449
131	0xbd40992d	-0.04702108
132	0xbcdcd32b	-0.026956161
133	0x3dad6210	0.084659696
134	0x3bbbb8f0	0.0057288334
135	0x3d87c222	0.06628825
136	0x3b42a08a	0.002969774
137	0xbd8af5be	-0.06785153
138	0xbd82b54a	-0.063822344
139	0xbc654d3b	-0.013995464
140	0xbbc69a8f	-0.0060609053
141	0x3d6dff2c	0.05810468
142	0x3c7210b0	0.014774486
143	0x3c8cb0ed	0.017174209
144	0xbc680418	-0.014161132
145	0xbdb08af3	-0.086202525
146	0x3d310517	0.043217745
147	0xbda1eb8b	-0.079062544
148	0xbd771fdf	-0.06033313
149	0xbd5f8f25	-0.054579873
150	0x3b93cd9f	0.004510596
151	0xbd0f1e8b	-0.034941237
152	0x3dad5f74	0.08465472
153	0xbd92d6ca	-0.07169874
154	0xbd8f3305	-0.06992153
155	0x3d898e49	0.06716592
156	0x3d129fbf	0.035796877
157	0xbd9d1015	-0.07669083
158	0x3d7b8847	0.06140926
159	0x3d5d4df0	0.054029405
160	0xbc102dab	-0.008799951
161	0xbdb1707d	-0.086640336
162	0xbda0c45a	-0.07849951
163	0xbbef141f	-0.0072961
164	0xbd6ee675	-0.05832525
165	0x3d6df49a	0.0580946
166	0xbc7a94d3	-0.0152942715
167	0x3d8569c1	0.065143116
168	0x3c0793de	0.008275
169	0xbc9b1fab	-0.018935999
170	0xbd6f4ce6	-0.058422945
171	0x3db035fe	0.08604048
172	0xbdad140a	-0.08451088
173	0xbdb403ea	-0.08789809
174	0x3da31cda	0.079644874
175	0x3d1e2569	0.038609896
176	0x3d879ba1	0.06621481
177	0xbc368ded	-0.011142236
178	0x3c7263b7	0.014794282
179	0xbb9c7c3c	-0.004775552
180	0x3da9f995	0.08299557
181	0xbcda41cf	-0.026642708
182	0x3d3cae53	0.046064686
183	0xbd2632b8	-0.040575713
184	0x3a607051	0.00085616583
185	0x3c77165a	0.015081013
186	0x3d44fe07	0.04809382
187	0xbd45ffd8	-0.048339695
188	0xbd177f2f	-0.036986526
189	0x3d885ce3	0.06658342
190	0x3d618713	0.055060457
191	0xbd412ff3	-0.04716487
192	0xbcc32433	-0.023820972
193	0x3dac1004	0.08401492
194	0x3da7de09	0.08196647
195	0xbd6204ff	-0.055180546
196	0xbd412dba	-0.04716275
197	0x3ca9a317	0.02070765
198	0x3c36ac6a	0.011149505
199	0xbd36c12b	-0.044617813
200	0x3d53ffb1	0.05175752
201	0x3ca274a4	0.01983101
202	0xbd40f83e	-0.047111742
203	0xbd375b88	-0.044765025
204	0x3d2e591f	0.04256546
205	0x3d3d0294	0.046145037
206	0x3c8668d1	0.016407402
207	0xbc9386b4	-0.018008567
208	0x3d05c1ac	0.032655403
209	0xbb8a34ea	-0.0042177336
210	0x3c8f0a34	0.01746092
211	0xba5f001a	-0.000850679
212	0xbd36ba77	-0.04461142
213	0x3d0a4b02	0.03376294
214	0x3d5860e6	0.052826785
215	0xbd89ba93	-0.06725039
216	0x3ca3894c	0.01996293
217	0x3d18f35e	0.037341468
218	0x3d4c17b8	0.049827307
219	0x3d85b19b	0.06528016
220	0xbd37048a	-0.044682063
221	0x3bf94f34	0.0076083187
222	0xbd51bb0f	-0.051203784
223	0xbc410432	-0.011780785
224	0x3d5a0e20	0.053236127
225	0xbd306bb7	-0.043071475
226	0x3d271079	0.040787194
227	0xbd044ae6	-0.03229799
228	0xbd97041b	-0.0737383
229	0x3cacae19	0.02107911
230	0x3d60e038	0.05490133
231	0xbda340ac	-0.079713196
232	0x3d93d1b4	0.07217732
233	0x3d9cd57a	0.07657905
234	0x3da9bb7c	0.08287713
235	0xbbfbcddd	-0.007684453
236	0x3ccb4602	0.024813656
237	0xbd703647	-0.058645513
238	0x3d1d63ae	0.03842514
239	0xbc054b0b	-0.008135567
240	0xbdafde5a	-0.08587332
241	0xbd7b2fe2	-0.06132496
242	0x3b3ba878	0.002863435
243	0xbd48daca	-0.04903678
244	0xbd8738ca	-0.066026285
245	0xbd4de552	-0.050267525
246	0xbd6ae659	-0.057348583
247	0xbd58774c	-0.052848145
248	0x3d3dab84	0.04630615
249	0x3d65133a	0.05592654
250	0xbcc6bf43	-0.024261123
251	0xbd08b5e9	-0.033376608
252	0xbc79bcb2	-0.015242742
253	0x3cbc855e	0.023012813
254	0xbccab477	-0.024744255
255	0x3d780eb0	0.060560882

layer4.bias f4 [128]
0	0x3a9bd683	0.0011889491
1	0x3d418dde	0.047254436
2	0x3d078c73	0.033092927
3	0x3db5adb3	0.08871021
4	0x3bab6f58	0.005231779
5	0x3d752266	0.059847258
6	0x3c1cd6cf	0.009572699
7	0xbd5c65f3	-0.053808164
8	0x3d9b1e86	0.07574181
9	0x3a558df5	0.00081464584
10	0x3d97b91e	0.07408355
11	0xbb0875d0	-0.0020822175
12	0xbd9eff51	-0.077635415
13	0x3da5136d	0.08060346
14	0x3d0527ec	0.032508776
15	0xbcf91b64	-0.030408569
16	0x3d66a3f5	0.056308705
17	0xbd6cf924	-0.057854787
18	0xbda5a410	-0.08087933
19	0xbbcc3308	-0.0062316693
20	0xbd0d3a0f	-0.034479197
21	0x3b42246f	0.0029623767
22	0xbd4515b4	-0.0481164
23	0x3b86ea58	0.0041172914
24	0x3d9651cf	0.073398225
25	0xbd4321e2	-0.047639735
26	0xbdadf391	-0.08493722
27	0x3db8d988	0.09025866
28	0x3c77c472	0.01512252
29	0x3d49aa90	0.049234927
30	0x3dc6af84	0.09701446
31	0x3d5be915	0.05368908
32	0xbd31a130	-0.04336661
33	0xbd529f40	-0.051421404
34	0xbd75b885	-0.059990425
35	0xbd0f33f4	-0.034961656
36	0xbdb0bed5	-0.08630148
37	0xbd23dd9a	-0.040006258
38	0x3dca6c5f	0.098839514
39	0xbd28a6a8	-0.04117456
40	0xbd69d83a	-0.057090975
41	0x3cb9140d	0.022592569
42	0xbcbd282b	-0.023090443
43	0xbd85edd8	-0.06539506
44	0xbd244cb2	-0.040112205
45	0xbc1ae633	-0.009454298
46	0x3dea7ef0	0.11449993
47	0xbdc25a15	-0.09489838
48	0x3da91517	0.08255976
49	0xbd98026c	-0.07422337
50	0x3de279f8	0.1105842
51	0xbd1bf732	-0.03807754
52	0xbd463358	-0.04838881
53	0x3c17b160	0.009258598
54	0x3d8aef8b	0.067839704
55	0x3d6e67f9	0.058204625
56	0x3d783e59	0.060606334
57	0x3d988630	0.07447469
58	0x3d1bbc74	0.03802152
59	0x3d843495	0.06455342
60	0xbd264fa1	-0.040603284
61	0xbd9d8167	-0.07690697
62	0x3ae01675	0.0017096536
63	0x3cd38f10	0.025825053
64	0x3d7cb0f5	0.061692197
65	0x3b54e6e2	0.003248625
66	0xbd8cc7db	-0.06874057
67	0x3de611ac	0.112338394
68	0x3d2587d4	0.04041274
69	0x3d957b37	0.07298892
70	0xbcdc7c65	-0.026914785
71	0xbd7e4d5d	-0.062085498
72	0x3d13ce79	0.03608558
73	0x3d0832ca	0.03325156
74	0xbd38a1b6	-0.045076095
75	0xbbc8ef2a	-0.006132026
76	0x3d34b7db	0.04412065
77	0xbd266856	-0.040626846
78	0x3e30dac7	0.17270957
79	0x3c93efed	0.018058741
80	0xbcd1fc8a	-0.025633115
81	0xbcd35945	-0.025799403
82	0xbd5ba5f5	-0.053625066
83	0x3db4f0d1	0.088349946
84	0xbd75b953	-0.059991192
85	0x3d60f165	0.05491771
86	0x3d8aef4b	0.06783923
87	0xbda30c02	-0.07961275
88	0x3d3891b7	0.04506084
89	0xbdf769a6	-0.12080698
90	0xbd84360b	-0.064556204
91	0x3d961214	0.07327667
92	0xbdbdbd44	-0.09264615
93	0x3b85844c	0.004074609
94	0xbd171efc	-0.036894783
95	0xbcb99645	-0.022654662
96	0x3d0a34c0	0.033741713
97	0x3d91ec5a	0.071251586
98	0x3d0b6696	0.03403338
99	0xbd0319f1	-0.03200716
100	0xbcd053e6	-0.02543063
101	0x3d0686a2	0.03284324
102	0xbdca5f30	-0.09881437
103	0x3d082509	0.033238444
104	0x3dae3845	0.08506826
105	0xbd1c2587	-0.038121726
106	0xbd585bc4	-0.05282189
107	0xbd8432c0	-0.06454992
108	0x3df59790	0.11991799
109	0x3d3e3e24	0.04644598
110	0xbcf1ceba	-0.02951752
111	0x3d60a354	0.05484326
112	0xbc1aac14	-0.009440441
113	0x3d19daad	0.03756206
114	0xbd750593	-0.05981977
115	0xbd9cf29b	-0.07663461
116	0xbde2ba66	-0.11070709
117	0x3c6ec4cc	0.014573287
118	0xbd80a4d1	-0.06281436
119	0x3c4ebfc4	0.012618963
120	0x3d09bd91	0.03362805
121	0xbc85bb26	-0.01632459
122	0xbda439f1	-0.08018864
123	0x3d2a812c	0.041627094
124	0xbd22f928	-0.039788395
125	0xbd7cd789	-0.061728988
126	0x3d986f7d	0.0744314
127	0xbd7e6bcb	-0.062114518

input_norm.weight f4 [6]
0	0x3fa431f1	1.2827741
1	0x3f94611c	1.1592135
2	0x3f4cf856	0.8006643
3	0x3ec4e9bb	0.38459572
4	0x3f8404bd	1.0313946
5	0x3f222409	0.63336235

input_norm.bias f4 [6]
0	0x3eb5ff84	0.35546505
1	0x3e3a0fcf	0.18170093
2	0x3b23cbf9	0.0024993403
3	0x39c4525b	0.00037445393
4	0x3f328788	0.69738054
5	0xbc32c3e3	-0.010910961

input_norm.running_mean f4 [6]
0	0x409d01b7	4.9064593
1	0x3c6cb22c	0.014446776
2	0x3c078f57	0.008273921
3	0x3ad2a2eb	0.0016070282
4	0x411c746c	9.778423
5	0x3cae6051	0.021286162

input_norm.running_var f4 [6]
0	0x410feacb	8.9948225
1	0x3aa3b659	0.0012490257
2	0x39c76f3c	0.00038039114
3	0x38eef3b1	0.000113941154
4	0x4206bdf2	33.685493
5	0x3d400304	0.046877876

norm.weight f4 [128]
0	0x3f707227	0.9392418
1	0x3f7712c8	0.9651303
2	0x3f73cb2e	0.952319
3	0x3f79cfc6	0.9758266
4	0x3f6de162	0.9292203
5	0x3f720950	0.9454546
6	0x3f73c49b	0.9522187
7	0x3f754407	0.95806926
8	0x3f796877	0.97425026
9	0x3f76a7c6	0.9634975
10	0x3f72626b	0.94681424
11	0x3f741559	0.95345074
12	0x3f77ea9d	0.96842366
13	0x3f7710c3	0.9650995
14	0x3f689c6d	0.90863687
15	0x3f6e4c96	0.9308561
16	0x3f79bf8a	0.9755789
17	0x3f719408	0.943665
18	0x3f73a672	0.9517585
19	0x3f70e800	0.94104004
20	0x3f6d105c	0.9260309
21	0x3f6e804b	0.9316451
22	0x3f7274b4	0.94709325
23	0x3f702085	0.9379962
24	0x3f76ec28	0.96454096
25	0x3f7020c7	0.93800014
26	0x3f772fc2	0.9655725
27	0x3f7c92a2	0.98661244
28	0x3f752503	0.957596
29	0x3f75bbbc	0.95989585
30	0x3f73440d	0.9502571
31	0x3f77b498	0.9675994
32	0x3f76d879	0.9642406
33	0x3f73cbbd	0.95232755
34	0x3f75361f	0.9578571
35	0x3f7405ad	0.9532116
36	0x3f677a11	0.90420634
37	0x3f6cd266	0.9250854
38	0x3f793394	0.97344327
39	0x3f6e4f9d	0.9309023
40	0x3f7d3fbe	0.9892539
41	0x3f72fb13	0.9491436
42	0x3f76e9be	0.9645041
43	0x3f6e13da	0.9299904
44	0x3f73ff14	0.95311093
45	0x3f70d0c1	0.94068533
46	0x3f76b890	0.9637537
47	0x3f6feaf3	0.9371788
48	0x3f77a8d3	0.9674198
49	0x3f744ee4	0.9543288
50	0x3f7872f2	0.9705039
51	0x3f7262f1	0.9468222
52	0x3f6b5418	0.9192519
53	0x3f740fca	0.9533659
54	0x3f79d456	0.97589624
55	0x3f72b34b	0.9480483
56	0x3f75bcea	0.95991385
57	0x3f715be7	0.94280857
58	0x3f6f8805	0.93566924
59	0x3f754e70	0.9582281
60	0x3f86c4dd	1.0528828
61	0x3f70f0c9	0.9411741
62	0x3f6e7825	0.93152076
63	0x3f735905	0.9505771
64	0x3f71d28b	0.9446189
65	0x3f7547b4	0.95812535
66	0x3f72f936	0.94911516
67	0x3f78274c	0.9693496
68	0x3f729015	0.947511
69	0x3f6de70e	0.92930686
70	0x3f73cc59	0.95233685
71	0x3f7bcd15	0.98359805
72	0x3f6ee18a	0.93312895
73	0x3f71b1e4	0.94412065
74	0x3f71ac9f	0.94404024
75	0x3f74cca1	0.9562474
76	0x3f72f41c	0.9490373
77	0x3f7234a7	0.9461159
78	0x3f7a57d8	0.9779029
79	0x3f733595	0.95003635
80	0x3f746ac1	0.95475394
81	0x3f74ac0f	0.9557504
82	0x3f753af2	0.9579307
83	0x3f6de541	0.9292794
84	0x3f7a9c57	0.97894806
85	0x3f6cbce3	0.9247572
86	0x3f6ed669	0.93295914
87	0x3f7140e5	0.94239646
88	0x3f72381e	0.9461688
89	0x3f866681	1.0500032
90	0x3f7dcfb1	0.99145037
91	0x3f7dd31d	0.9915026
92	0x3f744c84	0.95429254
93	0x3f6d9772	0.9280921
94	0x3f7d8ed5	0.9904607
95	0x3f733980	0.95009613
96	0x3f7a7105	0.97828704
97	0x3f789d3f	0.9711494
98	0x3f7a8c21	0.9787007
99	0x3f7a9dcc	0.9789703
100	0x3f6e5ada	0.9310738
101	0x3f748e26	0.955294
102	0x3f78f469	0.9724794
103	0x3f761acb	0.9613463
104	0x3f7671f1	0.9626761
105	0x3f77fef9	0.9687343
106	0x3f72a05e	0.9477595
107	0x3f76de5e	0.96433055
108	0x3f753814	0.95788693
109	0x3f6e94d9	0.93195873
110	0x3f7452d9	0.95438915
111	0x3f73404e	0.95019996
112	0x3f6d8d3f	0.9279365
113	0x3f7037f9	0.9383541
114	0x3f6f7451	0.9353686
115	0x3f725872	0.94666207
116	0x3f6e6cd2	0.93134797
117	0x3f793843	0.97351474
118	0x3f77bbb4	0.9677079
119	0x3f7515ce	0.95736396
120	0x3f74f9a0	0.956934
121	0x3f6f867f	0.935646
122	0x3f71afcb	0.94408864
123	0x3f7630aa	0.96168005
124	0x3f6a7fc9	0.91601235
125	0x3f72c890	0.94837284
126	0x3f721d54	0.94576
127	0x3f7601c2	0.9609643

norm.bias f4 [128]
0	0x3cd4c5fa	0.025973309
1	0xbcab7bd2	-0.020933066
2	0x3d652e9a	0.055952646
3	0xbc60e241	-0.013725818
4	0xbb82b609	-0.0039889854
5	0xbd291f2a	-0.041289486
6	0x3df6151c	0.12015745
7	0xbba82a23	-0.005131976
8	0xbdef0fb6	-0.116729185
9	0x3e14678b	0.14492624
10	0x3de4f9f2	0.11180486
11	0xbc85c49e	-0.016329106
12	0xbc5a2da8	-0.013316549
13	0x3de5d212	0.11221708
14	0x3ebc0089	0.36719158
15	0x3c2c3a51	0.010511951
16	0xbc2f95d2	-0.010716872
17	0x3e47d82d	0.19516058
18	0x3e5daced	0.21647997
19	0x3db00287	0.08594232
20	0xbd950609	-0.07276542
21	0xbe1acdf2	-0.15117624
22	0x3e05beb3	0.13061027
23	0xbe6a06df	-0.22854184
24	0xbe5d6d26	-0.21623668
25	0x3d6893f6	0.05678173
26	0xbdf7c37a	-0.12097831
27	0xbe1f7ae7	-0.15574227
28	0xbe8bcc64	-0.27304375
29	0xbe4c7e56	-0.19970068
30	0x3c2662df	0.010155409
31	0x3ca29d1f	0.019850312
32	0xbe63a9fe	-0.22232816
33	0xbb12689b	-0.0022340182
34	0xbd887975	-0.06663791
35	0xbe45fb3c	-0.1933412
36	0xbedcc18b	-0.43116412
37	0x3beee942	0.00729099
38	0xbda57a2a	-0.080799416
39	0xbdd4db4f	-0.10393392
40	0xbd39befe	-0.04534816
41	0x3dca373d	0.09873817
42	0xbc4b7810	-0.012418762
43	0xbd9a9086	-0.07547097
44	0x3d228aec	0.039683267
45	0xbd8b6a15	-0.06807343
46	0x3e80b26e	0.2513613
47	0xbea99d0a	-0.33127624
48	0x3e6cd674	0.23128682
49	0xbe450157	-0.19238792
50	0x3dbe70f3	0.09298887
51	0xbe9ac144	-0.30225575
52	0x3e9da5f5	0.30790678
53	0xbd3256e1	-0.043539885
54	0xbcd4f3a6	-0.025995087
55	0x3e2d73ff	0.1693878
56	0x3d2f422a	0.04278771
57	0x3c4b1bc5	0.0123967575
58	0x3e117176	0.14203438
59	0xbe97ec7e	-0.29672617
60	0xbd4cbdb8	-0.049985617
61	0x3e169764	0.14706188
62	0x3e602182	0.21887782
63	0xbbc29db8	-0.0059392117
64	0x3eaeedd9	0.34165838
65	0x3cc75807	0.024333967
66	0xbda88b52	-0.08229698
67	0xbd06a5d5	-0.032872993
68	0x3db18f82	0.0866995
69	0xbd1846a7	-0.037176754
70	0x3e237667	0.15963136
71	0x3abe7f86	0.0014533855
72	0x3eafe90b	0.34357485
73	0xbd8d7fb7	-0.06909125
74	0xbd7ee581	-0.06223059
75	0x3de1a212	0.110172406
76	0xbe8e29d1	-0.27766278
77	0xbe0d0fb3	-0.1377552
78	0x3ca83138	0.020531282
79	0x3d32e159	0.04367194
80	0x3e693676	0.22774681
81	0x3d59ee8f	0.053206023
82	0xbcfb2a86	-0.030659925
83	0xbc2b2eea	-0.010448197
84	0xbcd3480a	-0.025791187
85	0x3edb7070	0.4285922
86	0x3eabc0c6	0.33545512
87	0x3e0fd79c	0.14047092
88	0xbc3d4b28	-0.011553563
89	0x3cb679d4	0.022274889
90	0x3dbfa3e3	0.09357431
91	0xbdadc6f5	-0.08485214
92	0xbd47e6a2	-0.048803933
93	0x3e5870f5	0.2113684
94	0xbc086982	-0.008325936
95	0x3dd4e0be	0.10394429
96	0xbe5de524	-0.21669441
97	0xbec23984	-0.37934506
98	0x3d9eb763	0.07749822
99	0x3e812ac7	0.2522795
100	0xbe46d7a1	-0.19418193
101	0xbdaba13b	-0.08380362
102	0x3de8c384	0.11365417
103	0xbd82edd3	-0.063930176
104	0x3e27f7a1	0.16403057
105	0x3dadaa65	0.08479766
106	0x3dfdcee6	0.12392978
107	0xbd632e67	-0.055464175
108	0xbe8cc492	-0.2749372
109	0x3e1851b2	0.14874914
110	0x3b1c02fd	0.0023805492
111	0xbd9d099a	-0.07667847
112	0xbe1d2a34	-0.1534813
113	0x3e288b6e	0.16459438
114	0xbe01a9e1	-0.1266246
115	0x3bc301e1	0.0059511517
116	0x3e0786ba	0.13234988
117	0xbe398e7d	-0.18120761
118	0xbe870191	-0.26368383
119	0x3dae93ff	0.08524322
120	0x3e8d3897	0.27582237
121	0x3ee2aa9e	0.44270796
122	0xbe7c4b38	-0.24638069
123	0x3e355326	0.177075
124	0xbee4ed4a	-0.44712287
125	0x3e00ee93	0.12591009
126	0x3e45a012	0.19299343
127	0xbd5ac2b3	-0.053408336
