Lex_jaywalker_QAgent.pt (torch, 225889 bytes, 22 tensors)

layer1.weight f4 [128, 6]
000000 d1 1e 97 3e 8e 23 4b be 4e 1d ba bd 25 9a f2 3d
       0.295157 -0.19837782 -0.09087621 0.11845807
000010 05 db a8 be 3e f0 95 3e 8c b4 3f bd f6 90 3a 3e
       -0.329796 0.29284853 -0.046803042 0.1821936
000020 7a eb 6a 3d d6 bb 06 bd 84 d0 0e 3e 4f 57 14 bd
       0.057353474 -0.032893978 0.1394673 -0.036216076
000030 f3 b3 05 3e 24 2b 92 ba 33 3f 17 3c 22 10 bf 3b
       0.13056926 -0.0011151773 0.009231376 0.0058307806
000040 60 12 9e 3d 4d cb c5 3d 4c 28 b2 3e 6d 69 94 3c
       0.077183485 0.09657917 0.3479637 0.018116677
000050 ad b5 51 bd e7 c2 98 be f2 a7 99 3d 6d 4d 22 be
       -0.05119865 -0.298362 0.07502736 -0.15849848
000060 e1 36 14 be a6 83 73 3b 9c 96 9d 3e 7f 1d 5c 3e
       -0.1447406 0.0037157326 0.30778968 0.21495627
000070 31 16 aa be b4 ef 96 3e 48 71 d0 3d ce 31 cd 3e
       -0.33220056 0.29479754 0.10177857 0.4007706
000080 8e c7 9d 3e 52 b9 b0 be cd e0 c1 be 38 1b 38 be
       0.3081631 -0.34516388 -0.37866822 -0.17979133
000090 02 06 b7 3e 24 c9 a5 bd 3f 67 30 3e d3 13 40 be
       0.3574677 -0.08095005 0.17226885 -0.18757562
0000a0 90 9e d5 3e 59 b7 29 be ec 81 ac 3e bb 92 e9 3b
       0.41722536 -0.16573848 0.33692873 0.0071280873
0000b0 ab a3 58 be b5 44 5d 3e 13 27 4d be 92 29 0c 3e
       -0.21156184 0.21608241 -0.20034437 0.13687733
0000c0 21 0f 12 be b1 9b 6e bd f3 99 c0 be a8 1b 74 be
       -0.14263584 -0.058253948 -0.37617454 -0.23838675
0000d0 40 3e 15 3e 73 40 f8 bc 3b e2 ed 3e 8a fb 87 3e
       0.14574528 -0.03030417 0.46461663 0.26559097
0000e0 b6 52 88 bc 45 e1 8d be 91 d8 9e 3e 9d 8b 04 3e
       -0.016641002 -0.2771093 0.31024602 0.12943883
0000f0 b1 42 81 be ce ee 68 3e 67 3c 61 3e 72 15 d1 3e
       -0.25246194 0.22747347 0.21995698 0.40836674
000100 92 10 35 be 38 46 71 3b 63 ce a8 bd c6 6d 14 bc
       -0.17682102 0.0036815535 -0.0824249 -0.009059375
000110 30 4d 9d be 99 92 a1 be 11 58 3a 3e 35 82 82 bd
       -0.30722952 -0.31557158 0.18197657 -0.06372491
000120 67 b5 57 3e 13 95 d7 bc a8 e8 14 3e 51 c7 f2 3c
       0.21065293 -0.026316201 0.14541876 0.029636057
000130 25 5f f9 3d cf ba 47 3e 6e 4f d3 be d2 f2 19 3e
       0.121763505 0.19504856 -0.41271538 0.15034035
000140 bc d5 40 be 1d 79 a9 be 2a bc a9 bd c6 3c 5d 3d
       -0.18831533 -0.33100215 -0.082878426 0.054013036
000150 9e 22 5d 3e e5 35 82 be 36 dd da be 18 bf 4d 3e
       0.21595237 -0.25431743 -0.42746896 0.20092428
000160 e2 5b 38 bd c4 72 84 3e a7 31 02 3e 41 96 af be
       -0.0450095 0.2586881 0.12714253 -0.34294322
000170 4d 73 bd 3d 20 e0 87 3d 01 6f 73 be 78 d4 48 be
       0.092505075 0.06634545 -0.23772813 -0.196123
000180 e8 fc 07 3e f8 7e 8d bc 11 99 a4 bd e7 7e b0 bd
       0.1328007 -0.017272457 -0.080370076 -0.08617955
000190 a0 5b f2 3e c2 1f 3d bd 66 f9 3d 3e 2d 0a c3 3d
       0.4733553 -0.046172865 0.18552169 0.09523425
0001a0 f6 c3 82 be 3d e7 ad be ae 3a db 3e 02 a8 13 3d
       -0.2554013 -0.33965483 0.42818207 0.036048897
0001b0 17 97 a5 3e f6 f5 1f 3d ba 2e f7 3d 06 3f 8d 3e
       0.32341835 0.039052926 0.12069459 0.27587146
0001c0 85 ec ee 3e 1e 79 88 be 07 68 19 3e 77 93 ac 3e
       0.46664825 -0.26654905 0.1498109 0.33706257
0001d0 5a b3 9a 3e 1f 04 8b 3e 23 be 9c be 61 d6 8e be
       0.3021496 0.27151582 -0.30613813 -0.27897933
0001e0 29 76 4a be 2e 02 e3 3d 0f 32 da 3e 85 59 7b be
       -0.19771637 0.110844 0.42616317 -0.24545868
0001f0 69 e5 60 3e 81 6c 59 be 62 6a b8 be ce a4 57 bd
       0.21962513 -0.21232797 -0.36018664 -0.052647404
000200 2c cf a1 3e 1f 2c be 3e 21 6e 56 be 52 ae cd 3d
       0.31603372 0.37143037 -0.20940448 0.100430146
000210 b8 3c c2 3e bb fb 92 3e fe 11 5c 3e a9 ab 89 3e
       0.3793695 0.2870768 0.21491238 0.2688878
000220 79 f7 7b 3e 98 f7 5c 3e fa 0c 68 be ec 91 a7 be
       0.24606122 0.21578825 -0.226612 -0.32728517
000230 01 63 4e be 77 b4 0b bd 5a 1f 99 be f2 84 b2 3d
       -0.20154954 -0.03410765 -0.29906732 0.087167636
000240 6c 53 e4 3d aa 14 65 be d5 0d c4 3d 35 70 86 3e
       0.11148724 -0.22371164 0.09572951 0.26257482
000250 2e c5 28 3e 4e 24 45 3e 90 bb 2e be 14 e8 cd 3e
       0.16481468 0.1925213 -0.17063737 0.40216124
000260 f5 9b b6 3b fc f3 0d 3c 7a f4 c5 be dc 68 84 be
       0.0055727907 0.008664127 -0.38663083 -0.2586125
000270 33 b0 67 be 2c ea 1b be f9 bd a9 3e 34 53 e7 bd
       -0.22625808 -0.15226048 0.3315275 -0.112951666
000280 d4 97 c9 be b9 14 39 3e 46 84 b6 3c 89 44 6e 3e
       -0.39373648 0.18074311 0.02227987 0.23268332
000290 dc 27 63 be 4c a9 e9 3d 36 14 43 be 3f 6a aa bd
       -0.22183174 0.11409244 -0.19050679 -0.08321046
0002a0 41 11 9f be cb 51 7b be 22 dd 23 be 5f 17 2d 3e
       -0.3106785 -0.2454292 -0.16002324 0.16903447
0002b0 4a 14 fe 3d ba 54 f8 3d 5e ae c3 3e d2 94 d2 3e
       0.124062136 0.12125535 0.3821897 0.41129166
0002c0 d1 22 aa 3e 15 4b 9b 3d df 32 94 be e5 42 a2 3e
       0.33229688 0.0758268 -0.28945062 0.3169166
0002d0 38 a8 7a bd 94 fc 0e bb 58 a9 b6 be 58 cc 98 bd
       -0.061195582 -0.0021818029 -0.35676074 -0.074608505
0002e0 29 08 3f be a0 1d d0 3e 6b b5 77 be fe 02 73 be
       -0.18655457 0.40647602 -0.24190299 -0.2373161
0002f0 38 91 b0 bc 59 db 4a be bb ce 5d 3d d4 a5 be bd
       -0.02155362 -0.19810237 0.05415223 -0.09308973
000300 4c 92 3d be 75 83 c7 bd 37 b1 80 3e b5 26 ab be
       -0.18512839 -0.0974187 0.25135204 -0.3342797
000310 f3 80 45 3e 77 17 74 3e cc 5d a9 3e 0f e9 8a be
       0.19287471 0.23837076 0.33079374 -0.27130935
000320 dd 25 9d 3d c1 d1 9e be 3f 41 99 3e b0 ca 38 be
       0.076732375 -0.31019405 0.2993259 -0.18046069
000330 68 bf 82 3e 9e e6 57 3c ba e8 95 3c 5b 37 12 bc
       0.25536656 0.013177542 0.01829945 -0.008924331
000340 8b b1 82 bc f6 bd 0c 3e 1d ae 82 3d 61 c4 e3 3d
       -0.0159538 0.1374434 0.06380866 0.11121441
000350 9f 6a be be a0 8e 95 3e 9f 5a cd 3e 5a c1 96 3e
       -0.3719072 0.29210377 0.401082 0.2944439
000360 d2 92 b1 3e 4e 61 82 be ad ec d5 bd 80 c6 c4 3e
       0.34682328 -0.25464863 -0.10445533 0.38432693
000370 31 7b 8b be 9b a8 e2 3e 32 71 9c be 6d 5d a3 be
       -0.27242425 0.4426926 -0.3055511 -0.31907216
000380 19 09 ac 3d be 6a 8a be fd c8 4e be ba cd 87 3e
       0.08400173 -0.27034563 -0.20193858 0.26524144
000390 82 7a 98 3e 41 01 bd 3e 5e ef f9 bd 83 e7 ad be
       0.29780966 0.3691502 -0.12203859 -0.33965692
0003a0 1c 21 d8 3e 56 4e af bd b5 e6 34 be ea f1 cd 3d
       0.4221276 -0.08559863 -0.17666133 0.10055907
0003b0 d7 34 ae be 3b c0 85 3e 5e 0c 55 3e 87 c2 a7 be
       -0.3402469 0.26123223 0.20805499 -0.327656
0003c0 38 56 54 be 6d df 84 3a b9 ff 80 bb 08 df 38 3b
       -0.20736015 0.0010137387 -0.0039367345 0.002820911
0003d0 cb 65 e1 bd 3c 3c bc 3c 05 dc d5 be c9 76 9a be
       -0.110057436 0.02297794 -0.41769424 -0.3016875
0003e0 44 13 8a be 00 8c 93 3e 41 94 cf 3e 68 13 08 be
       -0.26967824 0.2881775 0.40542796 -0.13288653
0003f0 d6 f8 85 3d 19 f4 fe 3d 1b c9 03 3b 54 df 56 be
       0.06541602 0.12448902 0.0020108882 -0.2098363

layer1.bias f4 [128]
000000 e7 22 d3 3b e5 28 40 3e 12 6e f5 be 5d f9 0a 3e
       0.0064433697 0.187656 -0.4793554 0.13571687
000010 93 3b aa be 4a 87 86 3e 28 dd e0 3e be 69 c8 bd
       -0.33248577 0.26275092 0.4391873 -0.09785794
000020 88 75 a6 bc 9a 89 21 be 3a 34 99 be e8 c2 c3 bd
       -0.020319715 -0.15775147 -0.29922658 -0.0955866
000030 93 ac 6d be 4e 62 13 3e 1d 8a 31 3c 9c f9 a4 3d
       -0.23210363 0.14392969 0.010836151 0.08055422
000040 cc e8 61 be 75 b7 8f be f8 5f 92 be 8f 73 6b be
       -0.22061461 -0.28069654 -0.28588843 -0.22993301
000050 86 55 d7 3e 49 32 21 3e 4c 4f c0 be d9 1c 3c be
       0.42057437 0.15741839 -0.375605 -0.1837038
000060 55 0d 77 bd 65 44 6e 3e ec 0f 87 3e 6e 0d 50 3d
       -0.06031545 0.23268278 0.26379335 0.050794058
000070 74 d3 74 3e a5 2b 05 be 5e 8c a1 bb b7 69 97 be
       0.23908788 -0.1300493 -0.004930063 -0.29572842
000080 cd 23 08 3e db df f5 3e 84 2c ac 3e b6 18 e0 3e
       0.13294907 0.4802235 0.33627713 0.43768853
000090 7a c2 ca bd 12 c3 8b bd 48 e9 eb 3d 2e de b5 3e
       -0.09900375 -0.06824316 0.11519104 0.35521072
0000a0 72 a3 e0 be 98 68 03 be 0a e3 ec 3d f3 46 58 be
       -0.438747 -0.12832868 0.11566742 -0.21120815
0000b0 77 99 57 3e 0f 3c f0 3c aa 46 e5 bd 64 7d 3a 3e
       0.21054636 0.029325513 -0.11195119 0.18211895
0000c0 f8 76 a1 3e 75 bf a5 3e 3b 9d 61 3e 6b 54 32 bd
       0.31536078 0.32372633 0.22032635 -0.04353754
0000d0 3b fe b2 3e 97 43 8c 3e c2 aa a0 be 92 99 44 3e
       0.34959587 0.27395317 -0.31380278 0.19199207
0000e0 38 f9 a7 3d 36 b2 33 be 75 fd 1b be 0f 17 5c bd
       0.082018316 -0.17548451 -0.15233405 -0.053732928
0000f0 c4 5f c2 be 93 39 98 be 01 53 02 3e 95 0a 95 3e
       -0.37963688 -0.29731426 0.12726976 0.29109636
000100 7b 95 09 3d cd 32 c0 be cb 06 8a 3e 9e de 27 be
       0.03358982 -0.37538758 0.26958308 -0.16393515
000110 55 3c 8e 3e 5d bc c9 be 5f 32 a9 bd e2 8a 8a 3e
       0.27780405 -0.39401522 -0.08261561 0.27059084
000120 1c 5a 4e 3e 15 76 5f be ed 5f df be 0c f9 30 3d
       0.20151561 -0.21822388 -0.43627873 0.04320626
000130 bd a5 e0 3d 2f ac 96 be 5f 50 97 be 08 19 29 3d
       0.10969112 -0.2942824 -0.29553506 0.041283637
000140 ec d4 cc bc 4b 12 66 3e 6a cd ab be b5 c7 c7 bd
       -0.025003873 0.22467916 -0.33555156 -0.09754888
000150 82 cd 89 be e4 2c 42 bd 6a 6f 38 be bf 81 c8 3d
       -0.26914603 -0.047406092 -0.18011251 0.09790372
000160 66 1e 9d be 13 9f 52 be 72 3e 80 be d7 c5 9e be
       -0.30687255 -0.20568494 -0.25047642 -0.31010315
000170 99 68 9f 3e 27 f4 87 bd 9e 0a 0b be d9 6f 5d 3e
       0.3113449 -0.06638365 -0.13578269 0.21624698
000180 c6 c9 ee bd 33 d9 f7 3d 78 41 d3 bd 90 94 a5 be
       -0.11659579 0.12101974 -0.103152215 -0.32339907
000190 40 98 ae 3d 0a ec 6b 3e 7a 72 c2 be 8a c3 99 3d
       0.08525133 0.2303926 -0.37977964 0.07507999
0001a0 63 08 b0 3d 25 f5 f3 bb c1 5f 92 bc 4e fe c7 bd
       0.0859535 -0.007444995 -0.017867925 -0.09765302
0001b0 f6 d1 b1 be b4 1a a6 3c cb 43 92 be 8e b8 a1 be
       -0.347305 0.020276405 -0.28567347 -0.31586117
0001c0 ef af 2e be 85 6f 35 be 5d 3d 21 3e 67 77 8b 3e
       -0.17059301 -0.17718323 0.15746064 0.27239534
0001d0 4f 66 af 3e e7 67 4e be 5a 93 1f 3e f8 41 a4 3e
       0.34257743 -0.20156823 0.15583554 0.3208158
0001e0 c0 81 f3 3d 32 e2 7e 3e de 62 83 3e f1 ff 97 3e
       0.11889982 0.24890974 0.25661367 0.29687455
0001f0 32 55 84 3e fc d3 1d 3e 40 fa 62 be bb f4 7f be
       0.2584625 0.15412897 -0.22165775 -0.24995701

layer2.weight f4 [128, 128]
000000 40 f5 29 bd 72 ea 8c 3d fd 5c af bc 0a 62 48 3c
       -0.041493654 0.068806544 -0.021406645 0.012230406
000010 93 2c ba bd 74 46 d0 3a c0 dd da bc 80 86 36 bd
       -0.09090533 0.0015890137 -0.026717067 -0.044561863
000020 ae f3 82 3d 6f aa 95 bd cc 00 af bc f4 05 39 bc
       0.063941345 -0.07307898 -0.021362685 -0.011292923
000030 73 49 a5 bd 4f fc 33 3d 21 6d be bc a6 68 4a 3d
       -0.0807065 0.043941792 -0.023245396 0.049416207
000040 a5 9e 35 3d d9 8a 95 3d ad 2e 9c 3c b3 a4 88 3d
       0.04434075 0.07301874 0.019065225 0.06672039
000050 99 23 a3 3d 34 f2 98 3b a4 24 a7 bc 30 16 01 bd
       0.07965774 0.0046675447 -0.020403214 -0.0315153
000060 84 d5 00 3c a5 0f fb 3c b0 ae b3 bd d2 a0 9a 3d
       0.007863406 0.030647108 -0.08773553 0.07550205
000070 22 96 54 3b 12 89 aa bd 2e 5e a0 3c c2 3c 5b 3d
       0.003243812 -0.08326925 0.019576158 0.05352474
000080 d0 4a 0d 3d 81 ea 95 3d c6 32 b0 bb 0c d0 af bd
       0.034495175 0.07320119 -0.0053771464 -0.08584604
000090 26 29 e5 3b e9 2b 6f 3d 68 d3 4f bd 96 38 05 3d
       0.0069934307 0.058391485 -0.050738722 0.032524668
0000a0 18 5f 91 3c cc 4f de bc 8f b8 37 bb 82 0c e6 3c
       0.01774554 -0.02713766 -0.002803359 0.028082136
0000b0 12 ca 84 bd 3d 42 82 3d 3d 32 5a 3d c2 55 42 3d
       -0.06483854 0.0636029 0.053270567 0.047445066
0000c0 7c e1 a8 3d f1 c5 84 3b 74 2b 80 bd c1 85 c0 bb
       0.08246133 0.0040519168 -0.06258288 -0.0058753197
0000d0 82 88 0f bd be c7 21 3d 32 a9 a4 3d 2a 49 33 bd
       -0.035042293 0.03949713 0.08040084 -0.043770947
0000e0 e7 99 fc 39 a3 c3 9e 3d 5f 19 a0 bd 67 ad 9c bc
       0.00048179852 0.077521585 -0.07817339 -0.019125653
0000f0 c0 83 b1 3d 54 b1 53 3d 50 70 93 3c 7e a2 2f bd
       0.086677074 0.051682785 0.01799789 -0.042879574
000100 1f 51 66 bc d8 15 a1 bd 8a f6 a8 bd 7a cb a7 bd
       -0.014057427 -0.078654945 -0.082501486 -0.08193107
000110 c4 d3 b7 3d d3 20 9d 3d 51 f7 ea 3c c9 2d c8 bc
       0.08975938 0.07672276 0.028682383 -0.024435895
000120 a6 12 94 3d 3e 1c 3d bc 52 d6 83 3d b9 e0 01 bc
       0.072301194 -0.011542378 0.06437363 -0.007927113
000130 32 36 28 bd 00 06 86 bc 09 f2 a9 bc 5c bc 89 bd
       -0.04106731 -0.016360283 -0.020745294 -0.0672538
000140 51 97 bf 3c c0 dd 0c bd ad 3c 27 3d e4 46 50 3d
       0.023387583 -0.034391165 0.04082935 0.050848857
000150 61 a3 67 bc 98 ca 24 3d b1 49 58 3c 15 99 60 3d
       -0.014138074 0.04023227 0.013201163 0.05483349
000160 07 0d 76 bd 1c 6e 53 bc 7a cc cf bc ed 84 92 3d
       -0.060071018 -0.01290467 -0.025366057 0.0715426
000170 04 94 a3 bd 7d 06 51 bd 1d a0 24 3c a8 76 a6 3d
       -0.07987216 -0.05103158 0.01004794 0.08128101
000180 80 24 73 3d 16 f2 b9 bd 19 71 86 bd 49 db ad 3d
       0.05936098 -0.09079377 -0.065645404 0.08489091
000190 22 4c da 3c 23 7b 89 bd c1 d7 0c bd e9 c0 08 3d
       0.026647631 -0.067129396 -0.034385446 0.0333871
0001a0 65 2c 88 bc 1c fc 70 bd a1 85 5d bd 11 cf 51 bd
       -0.016622731 -0.05883418 -0.054082517 -0.051222865
0001b0 21 77 d0 bb de 78 e0 3c 07 d1 1e 3d 81 2e 2f bd
       -0.0063618575 0.027401384 0.038773563 -0.04276896
0001c0 6d bc bc bc 7f 0d 75 bd 31 b7 92 3d 50 38 cd 3d
       -0.023039067 -0.059827324 0.07163847 0.100205064
0001d0 a2 77 c3 3d 59 c0 13 3d d9 3e 8c bc 97 33 d6 bb
       0.095443025 0.03607211 -0.017119812 -0.0065369117
0001e0 c3 5b e2 3c 66 4f a8 bd 15 4d bf 39 b7 9e a5 bd
       0.027631646 -0.08218269 0.0003648779 -0.08086913
0001f0 6f f5 ca bd 48 51 1a bb dc bc 9f bc 19 88 47 bd
       -0.09910094 -0.0023546983 -0.019499235 -0.048713777
000200 05 26 2d 3c a3 7a 8a 3b af 7a 5e 3c 21 a8 5a bd
       0.010568147 0.004226045 0.013579055 -0.053382996
000210 8b 8d 96 bd 76 cf ff bb 46 53 22 bd 0e 7d 50 bd
       -0.07351216 -0.0078067137 -0.039630197 -0.05090051
000220 3e 44 5c 3d d8 55 c3 3c 1f 11 4e 3d 84 9a ff bc
       0.05377602 0.023844644 0.050309297 -0.031201608
000230 e6 ef 84 bd 8e 10 aa 3c 7c 28 8a bd 37 58 ae 3c
       -0.064910695 0.020759847 -0.06746003 0.021282298
000240 3e dc 91 bd 51 98 8d 3d c5 c9 80 bd dc c6 6d 3d
       -0.07122086 0.06913818 -0.062884845 0.058050975
000250 02 b1 83 3d 34 b1 b0 3d dc b3 64 3d 69 3e 37 3d
       0.06430246 0.08627549 0.05583559 0.044737253
000260 d6 6b 36 bb 97 4d 69 bb 78 f6 b3 bc d4 16 be bd
       -0.0027835271 -0.0035599226 -0.021968111 -0.09281698
000270 c5 d7 a1 3d 2d ec a5 bc c5 21 20 3d 7e 7e 7b 3b
       0.07902483 -0.020254219 0.039094705 0.0038374956
000280 be d9 9d 3c d1 87 82 bd 5c b1 a0 bd 86 9b 2f 3d
       0.019268867 -0.06373561 -0.078463286 0.042872928
000290 db 79 13 3d fa 2a 52 3d 50 ac b3 bd da cf 24 3c
       0.036004882 0.051310517 -0.087731004 0.010059321
0002a0 1d 4d a6 bd 93 5a dd bc b1 17 58 bc 07 4b 4f bd
       -0.08120177 -0.027020728 -0.013189242 -0.05060866
0002b0 57 79 d2 bd da 79 11 bc bd 13 ad 3d 25 eb 91 3d
       -0.1027705 -0.008879149 0.084510304 0.071249284
0002c0 f4 d4 84 bd 0e 8b 14 3c b4 c9 8f bd 5f cc 55 bd
       -0.0648593 0.009066356 -0.07020894 -0.052196857
0002d0 bd 92 d8 bc 74 f8 af 3d fd 02 b7 bc 1b 66 0b bb
       -0.026437158 0.085923105 -0.022340292 -0.0021270576
0002e0 c1 5e cb 3d e7 53 83 3c 6f 00 9c 3d d0 66 94 3d
       0.09930182 0.016031219 0.0761727 0.072461724
0002f0 93 0d a8 3d 48 4f b8 3c a4 0d 83 bd 53 f0 9f bd
       0.08205714 0.022498742 -0.06399086 -0.0780951
000300 31 2d 08 bd 10 a4 ad 3d 20 ca 4d 3d 8d 2f e0 3c
       -0.033246223 0.08478558 0.05024159 0.027366424
000310 42 fd 87 bd b3 4c aa bd 26 46 bf 3d 9d 02 c6 bb
       -0.06640102 -0.083154105 0.09339552 -0.006042792
000320 c0 7e bc bd aa f0 3b bd 70 97 20 bd 29 2f aa 3c
       -0.09203863 -0.045883812 -0.039206922 0.02077444
000330 7f 6b bb 3c 12 8a 45 3c f6 73 9f bd ec 26 93 bc
       0.022878407 0.012056844 -0.0778579 -0.017962895
000340 87 ae 40 bd 9a 16 ac 3d 14 95 28 3d ec da 54 3d
       -0.047041442 0.084027484 0.041157797 0.051966593
000350 db 9a a2 3d 12 e6 41 3d 1d 96 a3 bd f0 7b 7d 3c
       0.079396926 0.047338553 -0.07987616 0.0154714435
000360 d9 ee 79 bd 87 65 c6 3c d7 e6 42 3c ba dd a7 3d
       -0.0610188 0.024218334 0.011895857 0.08196588
000370 c4 5c 8a bd 55 b0 a2 bd 27 64 ca bc b9 f7 8f 3c
       -0.06755975 -0.07943789 -0.02470596 0.017574178
000380 a7 1e 7e 3d f7 68 a1 3d 43 99 90 3d 57 69 19 3d
       0.06204095 0.078813486 0.07060482 0.037453976
000390 d6 82 e6 bc b5 8e 04 bd e5 43 30 bd 4e dd 84 3c
       -0.02813856 -0.03236266 -0.0430335 0.016218808
0003a0 ba 8a 8e bd 8d 2f 30 3d b9 ef 76 3d 28 56 81 3d
       -0.06960054 0.043014098 0.06028721 0.06315261
0003b0 a9 a1 b5 bd 98 f5 8e 3d 4a 80 50 bd 0d 87 14 bc
       -0.08868725 0.06980437 -0.050903596 -0.009065402
0003c0 5d 63 9c 3d 19 88 0a 3d a0 ff a1 bc a2 f8 9b 3d
       0.076361395 0.0338212 -0.019775212 0.07615782
0003d0 40 a0 90 bd 46 28 a1 3d dd b7 9a 3d 0d aa 05 bc
       -0.07061815 0.0786901 0.075546004 -0.008158219
0003e0 39 44 fc 3b e1 df 31 bd a8 21 7e bd 7d 81 5a bd
       0.0076985625 -0.0434264 -0.062043816 -0.053346146
0003f0 7e 7c 58 3c 0b 27 97 bd f2 06 be bd 6d 05 69 3c
       0.013213275 -0.07380494 -0.092786685 0.014222485

layer2.bias f4 [128]
000000 97 f1 d8 3c 0f 7c a6 3d 70 80 de bd 71 4d 55 3d
       0.026482387 0.08129131 -0.10864341 0.052075807
000010 64 bb f6 bc b7 4c 9f 3d 0a 8d a0 bd ae b5 49 bd
       -0.030118652 0.07778304 -0.07839401 -0.04924553
000020 31 bd 99 3d 26 fc 84 3d ec 8c 1a bd 6f c2 96 bd
       0.075067885 0.06493406 -0.03773205 -0.07361304
000030 9c 71 cc bc 6e e3 bf 3d 6f b3 ba 3d c8 a3 b2 bc
       -0.024956517 0.09369551 0.091162555 -0.021806613
000040 3d 82 22 3d 8e 5d 51 3c 15 1a 90 bd b2 a6 0e bd
       0.039674986 0.012778653 -0.07036225 -0.03482694
000050 07 7a 8e 3d 29 73 cb 3c 4f 6c 37 3d be 4f b1 3d
       0.069568686 0.024835186 0.044781025 0.08657788
000060 b6 30 83 3d f4 a0 a9 bd 6e a8 63 bd e1 03 9b 3c
       0.06405775 -0.082826525 -0.05558055 0.018922748
000070 cf 4d c5 bd d8 46 5e 3d 3b f8 23 bd 8c bd b9 3d
       -0.096339814 0.05426678 -0.040031653 0.09069356
000080 d8 7b 2c 3c 04 59 d1 3c 53 5f cf 3b 9b c2 86 3d
       0.0105275735 0.025555141 0.006328502 0.06580087
000090 07 bd 71 3d 33 4a 7f bd b4 2e 02 3c ea 74 5f bd
       0.05901816 -0.06232662 0.007945705 -0.054554857
0000a0 b6 ca 52 bd 26 4d bc bd 5d 1f 58 3d a5 0b 5f 3d
       -0.05146285 -0.091944024 0.052764285 0.054454464
0000b0 02 07 16 bd fc d4 09 3d 4b 07 4e bd 90 7f 6c bd
       -0.036627777 0.033650383 -0.050299924 -0.05773884
0000c0 a7 4b 11 3d 3c f2 aa 3a 04 50 97 bc ae fc 00 bd
       0.03547254 0.0013042162 -0.018470772 -0.031490974
0000d0 42 8d 01 bb 08 d5 66 bd 20 16 83 3d 07 9a 41 bd
       -0.0019768034 -0.056355506 0.064007044 -0.047266033
0000e0 04 59 a6 bc 4a 50 b3 bd 2d bf e2 bc 94 6b 0e ba
       -0.020306118 -0.08755548 -0.02767905 -0.00054329005
0000f0 4a e7 4c bd 46 94 7b bd 03 5d 86 bc 2c 79 83 bd
       -0.050025262 -0.0614207 -0.016401773 -0.06419596
000100 b9 d1 ad 3d 56 67 b6 3d f9 ad e4 bc 1c 9b 11 bd
       0.08487267 0.089064285 -0.027914988 -0.035548314
000110 88 db 45 3d b5 b8 8c bc d9 4a b6 3d 2c 64 63 3d
       0.048305064 -0.017177919 0.08900995 0.055515453
000120 fc 3a 60 3d 7d da ae 3d a5 3d ae bc 68 49 a8 bd
       0.054743752 0.08537767 -0.021269629 -0.08217126
000130 50 a2 ac bb ac 39 b1 bd 00 36 8c 3d 8b 78 db bc
       -0.0052683726 -0.08653578 0.06846237 -0.026790878
000140 1a ee 7c 3d 45 76 7e bd f5 43 7f 3c 6b 8b 2c 3d
       0.06175051 -0.06212451 0.015580167 0.042125147
000150 bb 31 97 3d 91 35 9b bd ff ef c5 3c 64 77 5a bd
       0.07382532 -0.07578576 0.02416229 -0.053336516
000160 06 9b e7 bc 29 7f cf 3d 9e b2 95 bd eb 97 30 3d
       -0.028272163 0.10131676 -0.07309459 0.04311363
000170 a1 da 47 3d 5e 03 6a bc ce 43 a0 3d 21 b2 bb bb
       0.048792485 -0.014283029 0.07825433 -0.0057280217
000180 1a 26 9d bd 34 e1 ba 3d f4 49 98 3d c0 1b 95 bc
       -0.07673283 0.09124985 0.074359804 -0.018201709
000190 3d 26 b1 3d df 16 e5 bc 3e 86 86 3c 20 96 5c bc
       0.086498715 -0.027965007 0.016421434 -0.013463527
0001a0 52 92 c9 bd 70 ef b7 3d c4 f2 83 3d c5 3a 7a bd
       -0.098423615 0.08981216 0.06442788 -0.061091203
0001b0 ad 9a aa bd eb ad c8 3d 67 c3 18 3d 55 0f e7 bc
       -0.08330283 0.09798797 0.037295725 -0.028205553
0001c0 06 5d 01 bd 14 0c 35 3d 48 9b 94 3c 9a 6e ae bd
       -0.031582855 0.04420097 0.01814045 -0.08517189
0001d0 ea 7c dc bc 25 8a 34 bd 20 03 de bd 7a cc a8 3b
       -0.026915032 -0.044077057 -0.1084044 0.0051513286
0001e0 17 07 1f 3d 44 e9 b7 bc b8 c6 86 bd ef aa 23 bb
       0.03882512 -0.022450097 -0.06580871 -0.002497371
0001f0 e0 f0 02 bd c5 da 25 bd 7e ec 0e 3d 90 e8 aa bd
       -0.031967998 -0.040491838 0.034893505 -0.08345139

layer3.weight f4 [128, 128]
000000 03 a9 27 3d b0 97 cc bc 07 72 06 bd 1a 52 49 3d
       0.040932667 -0.024974674 -0.03282359 0.049150564
000010 97 10 76 3d 62 4d f4 3c 6f 24 95 3d fd 3f a1 3d
       0.060074415 0.029822055 0.0728234 0.07873533
000020 5d 20 39 ba 21 42 ab 3c 79 f9 86 3d 31 5e 2b bd
       -0.00070620124 0.020905556 0.06590552 -0.041837875
000030 6c 1f 82 bc 4c 79 aa bd 13 29 06 3d 15 09 66 3d
       -0.015884124 -0.08323917 0.032754015 0.056161005
000040 68 85 97 3d 62 2f 1c 3c d7 ff 81 bd 13 23 98 bd
       0.07398492 0.009532781 -0.06347626 -0.07428565
000050 40 08 a4 bd b7 a2 c2 bc ec 98 77 3c e7 3b 5c bd
       -0.08009386 -0.02375923 0.015112143 -0.053768065
000060 a3 95 19 3c 43 c5 8d 3c 97 e6 50 bd 29 6a 09 3c
       0.009374055 0.017305976 -0.051001158 0.008387127
000070 6e b0 5b bd d3 de a3 3d e2 97 b7 bd 6b 80 18 bc
       -0.053635053 0.08001485 -0.08964516 -0.009307961
000080 57 23 8e 3b 08 43 09 bd 8d e8 80 3d d2 c5 36 3c
       0.004337709 -0.03351119 0.062943555 0.0111555625
000090 e0 d1 08 bd bf 1b 89 bc 22 27 93 3d d5 15 b6 ba
       -0.033403277 -0.016736863 0.07185198 -0.0013892004
0000a0 90 de a9 bd 6d 4b 91 bd 9e 71 a1 3d e9 28 7f 3d
       -0.082944036 -0.070944645 0.07882999 0.062294874
0000b0 72 3b 96 bd ae 07 9b 3d cc 94 19 bd fa e6 38 bd
       -0.07335557 0.07569824 -0.03749542 -0.04514215
0000c0 25 9e f7 3b 47 2d 85 3d 5d 33 46 3d c1 33 b2 bd
       0.007556694 0.065027766 0.048388828 -0.087012775
0000d0 52 57 e9 bc 08 ac 40 3d 0a 7e 7f 3d d7 64 23 3d
       -0.02848402 0.04703906 0.06237606 0.03989109
0000e0 c6 d0 d6 bc b4 c0 19 bd 05 31 c5 3c cd e2 4c bc
       -0.026222598 -0.03753729 0.024071226 -0.012505245
0000f0 bf 4b 87 3d 6e 14 08 3d 6c 91 3a 3d b2 a1 77 3d
       0.06606244 0.03322261 0.04554884 0.06045694
000100 00 81 b5 ba 72 42 aa 3d 44 21 a9 3d 4b 1d 25 bc
       -0.0013847649 0.08313455 0.08258298 -0.010077785
000110 40 14 67 bd b0 ad 89 bc 77 8e 1f 3c f7 71 14 bd
       -0.056415796 -0.016806453 0.009738556 -0.036241498
000120 52 00 2b 3d 1d d9 e3 3c 36 6a 02 bd 49 f8 9d 3c
       0.041748352 0.027813489 -0.031839572 0.01928343
000130 bc 6c 00 3d 4d 31 b0 3c 1d 42 ab bc 5a 00 b8 3c
       0.031353697 0.021507883 -0.020905549 0.022461105
000140 b3 b2 0e bc b2 dd 8d bd b5 a5 6a bd 71 d3 9d bd
       -0.008709597 -0.06927051 -0.057286937 -0.07706345
000150 91 6d 50 bd 5e 34 81 ba 00 2e c2 3c 15 90 36 bd
       -0.05088574 -0.0009857526 0.023703575 -0.044571
000160 5f 13 86 bd 3e f9 6c bd 9c 49 24 bd f0 56 1a 3d
       -0.065466635 -0.057854883 -0.040109262 0.037680566
000170 a2 78 88 bd 97 99 d8 bc 35 6a 0a 3d 08 df 08 3d
       -0.06663634 -0.026440425 0.033792693 0.033415824
000180 bb 90 c9 3b f1 43 91 3c 2b 9c 1e bd 85 56 46 39
       0.0061512864 0.017732592 -0.038723152 0.00018914983
000190 d3 6c 3d 3d e1 9a 1c 3d 8b ea 99 3c 05 db 39 bd
       0.04624636 0.03823364 0.018788597 -0.04537489
0001a0 13 93 8a bd f6 e7 6d bc 5b 7a 5d bd 6d ff 14 3d
       -0.067663334 -0.014520636 -0.054071765 0.036376406
0001b0 09 9f 00 bd aa 4d 8a 3d 0c e3 9f bd ee 3c 82 3d
       -0.031401668 0.067530945 -0.07806978 0.06359278
0001c0 6b db a2 3d 8b 08 9e 3b 9b 92 0f 3d 9b 0b 32 bd
       0.07952007 0.0048227957 0.035051923 -0.0434681
0001d0 ed 68 4f 3d 99 27 9c 3d 5e df 5a 3c 6c d5 a6 3c
       0.050637174 0.0762474 0.013358919 0.02036544
0001e0 b1 0b 99 3c f5 30 66 3c b6 ec 3d 3d 86 f4 7d 3d
       0.018682333 0.014049758 0.046368323 0.062000774
0001f0 26 cf ae bd 14 cd 66 bd ab 55 b7 bd 53 eb 17 bd
       -0.08535604 -0.05634792 -0.08951887 -0.037089657
000200 43 b2 55 bd 3c 6a a7 bd 62 c2 60 3d 5e 85 26 bc
       -0.052171957 -0.081745595 0.054872878 -0.010163633
000210 88 76 90 bd 9b e6 ba 3d 2e e5 57 bd ec 8f 8b 3d
       -0.07053858 0.09126016 -0.052708797 0.0681456
000220 48 5f 4d bd 2d cc 95 3d 9b a9 27 3d 25 b7 55 3d
       -0.050139695 0.07314334 0.040933233 0.052176613
000230 37 3b 51 3c a8 94 77 bd a3 86 81 bc 71 3f b2 3c
       0.012770466 -0.060444504 -0.01581127 0.021758767
000240 f4 09 d2 bc 67 54 12 3c 0d ef 27 bc 2f 16 94 3d
       -0.025639512 0.008931256 -0.010249865 0.07230794
000250 20 fd 8f 3d 64 88 b6 3b 4a 8f 11 3c 88 da 2a bd
       0.07030702 0.0055704582 0.00888426 -0.041712314
000260 88 63 c1 3d 88 dd 8a bd ba 22 58 3d a6 c3 2d 3d
       0.09442812 -0.06780535 0.052767493 0.042422913
000270 dc 1c 1e bc cc 87 c6 3d 65 ce 04 3d 94 d6 ad bd
       -0.009650435 0.0969387 0.032423396 -0.08488193
000280 02 52 17 bd 6b 18 8e 3d 5d 42 d4 3c d7 19 b5 bc
       -0.036943443 0.06938251 0.02591055 -0.022107048
000290 b8 2c a7 3d 18 1e 15 3d 43 8f 27 bd 1b df 77 bd
       0.08162826 0.036405653 -0.04090811 -0.060515504
0002a0 9f 0e 8f bd 8a 1c 16 3d 3a 6a 4d bd 7a 8d 9e bc
       -0.069852106 0.03664831 -0.050150134 -0.01935457
0002b0 54 f7 79 3d 17 4e 29 3d 97 bb b5 3d 23 6a a6 bd
       0.061026886 0.041334238 0.088736705 -0.08125713
0002c0 b4 c6 c0 3d 4f d3 21 3d b8 a7 3f 3d 8d d4 22 3d
       0.094128996 0.03950816 0.04679081 0.039753485
0002d0 9b 38 af 3d 39 b6 99 3d 82 a6 3c ba ef 9a 9d bd
       0.085557185 0.07505459 -0.00071964425 -0.07695567
0002e0 6a c2 7a 3d a5 f3 9d bd 72 ba 03 ba 18 25 ab 3c
       0.061220564 -0.07712487 -0.0005025036 0.020891711
0002f0 c0 17 07 3c f3 74 2d bc f2 68 bd bd 90 cb 0e 3d
       0.008245409 -0.010586965 -0.09248532 0.0348621
000300 00 39 3f 3b 53 73 33 bc cb ce 03 3d 6e 67 15 bb
       0.0029178262 -0.010952788 0.032179635 -0.0022797245
000310 1f b8 77 39 d5 a6 98 3d ba 5e 65 3b 86 95 30 bc
       0.00023624346 0.07453696 0.0034999088 -0.010777837
000320 ae 44 b5 3d e2 f7 16 3d 1a 99 ae 3b bc 2c 87 bd
       0.0885099 0.036857493 0.0053283097 -0.06600329
000330 d6 e1 22 bd db 00 01 bd 86 fe f0 bb ba 93 91 bd
       -0.039766155 -0.031494956 -0.0073545603 -0.07108255
000340 5f 69 c4 3c da d5 ae 3b d8 be 56 3d 4a de 93 bd
       0.023976026 0.0053355517 0.052428097 -0.07220133
000350 dd 19 7f bd 99 95 7f bd 9a 59 55 bd fe fa a3 bd
       -0.062280525 -0.062398527 -0.052087404 -0.08006857
000360 4f 8e 63 3b fe a1 71 bd c2 85 9f 3d 5b 4e 94 3d
       0.0034722274 -0.05899238 0.07789184 0.072415076
000370 a8 82 84 bc 84 3b a3 3d 54 0b 89 3d 65 cf 67 3d
       -0.016175583 0.07970336 0.06691614 0.05659427
000380 ae bd 8f bd 95 2d 68 3d 8e b5 03 3b 17 fe 93 3b
       -0.070186004 0.056684095 0.0020097229 0.004516374
000390 82 81 b5 3c f2 d7 8b 3c 3f bd 8d 3a aa 55 ab 3d
       0.02215648 0.017070744 0.0010813846 0.083659485
0003a0 b5 2a 9b 3d ba 4f 92 3d e5 5e 2e 3c 64 0a 88 ba
       0.07576505 0.07144113 0.010642742 -0.0010379073
0003b0 73 a6 95 3d cb 5b 91 bd b8 18 1a 3d 65 e0 0c bd
       0.07307138 -0.07097586 0.03762123 -0.034393687
0003c0 5c a4 c3 3d 70 27 b2 3c 47 73 fd bc 21 ed 1e 3d
       0.095528334 0.02174732 -0.030938758 0.038800362
0003d0 4c 5b b4 3d a5 15 54 bd 45 28 39 bd 64 84 1c 3d
       0.08806476 -0.051778454 -0.04520442 0.038212195
0003e0 75 bb eb 3a ed cf 05 bd c9 83 e4 bc 1e 09 da bc
       0.0017984944 -0.032668997 -0.027894871 -0.026615676
0003f0 cf 45 a0 bd 80 b5 4b bd 14 3b 79 3b 10 1e 39 bd
       -0.07825815 -0.04973364 0.0038029598 -0.045194685

layer3.bias f4 [128]
000000 3b f8 e5 3c f7 08 62 bd 6a b4 99 bd 52 18 84 bb
       0.028072467 -0.05518433 -0.075051144 -0.0040312195
000010 23 67 44 bd df fc 37 bc d2 00 a6 bd 89 6a 13 bc
       -0.04794992 -0.011229723 -0.08105625 -0.008997568
000020 60 95 73 bd d3 3e e5 bc 87 3a ca bc 3b 70 b6 3c
       -0.059468627 -0.027984058 -0.024686111 0.022270313
000030 13 89 4f bd 86 ff 3d bd 37 2f b1 3d 16 8a 9e bc
       -0.050667834 -0.046386264 0.08651584 -0.019352954
000040 a3 f6 90 bd c5 4b a1 bd 20 b5 11 bd fa b7 a0 bd
       -0.07078292 -0.0787578 -0.035573125 -0.07847591
000050 fa 37 99 3d b7 a3 1b 3d 05 06 06 bd d6 1b 7a bc
       0.0748138 0.037997928 -0.032720584 -0.015265426
000060 0e 03 5b bd b7 1b 3d 3d 5a 7d 8f bc 37 9c 80 bd
       -0.05346971 0.04616901 -0.017515827 -0.062797956
000070 6e 87 d9 bb b0 60 e9 bc 7e 8e bb 3d fc 85 c3 3d
       -0.006638459 -0.028488487 0.091580376 0.0954704
000080 16 74 53 3d 5d 29 aa 3d b3 6b 06 bc d7 3d 64 3b
       0.05162438 0.08308671 -0.008204388 0.0034826898
000090 f6 09 43 3d 67 b1 88 3d 69 15 a8 bd 40 ff 32 bd
       0.04761692 0.06674462 -0.08207209 -0.043700457
0000a0 a4 ab 13 bd 98 09 45 3d 91 11 e6 3b 11 be cc bc
       -0.03605236 0.048104852 0.007021137 -0.024992974
0000b0 f7 62 c2 bc fe 6d 7f bd 19 4a ac b9 b9 34 4d 3c
       -0.02372883 -0.062360756 -0.00032861604 0.012524777
0000c0 fe 34 90 bd f5 f3 82 bd 58 c3 89 bc 2d ef ca 3d
       -0.070413575 -0.06394187 -0.01681678 0.099089004
0000d0 a8 40 b6 3d e6 01 a3 bd 8b 10 8d 3d bd af 65 bd
       0.08899051 -0.079593465 0.06887921 -0.0560758
0000e0 7b f1 16 3d 3b f3 c6 3c fd 6f b5 3d db 31 9b 3d
       0.036851387 0.024285903 0.08859251 0.075778686
0000f0 e7 c8 ca 3c f6 b4 95 3c d8 bc aa 3d a8 cb c3 bd
       0.024754 0.018274765 0.083368 -0.09560329
000100 91 3c 8c bc 79 df 06 3d 89 21 aa 3d ce f6 8f 3d
       -0.017118724 0.032927964 0.083071776 0.07029496
000110 cc a0 b1 bd fd 00 7d 3d 38 83 31 bc d6 c6 13 bd
       -0.08673248 0.06176852 -0.010834508 -0.036078297
000120 70 4a ca 3d 05 3d 85 bd 94 90 48 3d 29 e0 1e bc
       0.09877479 -0.06505779 0.048966005 -0.009696999
000130 e9 d7 e4 3c 4c 08 98 bd 6b 0d 6d 3d 72 e1 c8 bd
       0.027934985 -0.074234575 0.057874124 -0.09808625
000140 e5 7c 72 3d 07 20 38 bd 72 da 85 bd 83 8d 43 bb
       0.05920114 -0.04495242 -0.06535806 -0.0029838986
000150 d9 3d b6 3c 95 e7 bb bd cb de 8d bd 45 aa 25 bd
       0.022246288 -0.0917503 -0.0692726 -0.040445585
000160 9a dd 89 3d 02 5c 27 bd 99 80 41 bd 99 cc 9b bd
       0.0673172 -0.04085923 -0.04724178 -0.07607383
000170 ca e9 dd 3c 62 9d 71 3c 60 30 89 3c 4f 96 9e 3d
       0.027089018 0.014746996 0.0167467 0.07743513
000180 4c 91 d5 3d 8a 2b 0b bd cc e4 d5 bc 0a f3 95 3b
       0.10428104 -0.03397707 -0.026110075 0.0045760917
000190 68 69 2a 3c d9 30 f8 bd 93 82 69 bd e0 e7 03 3d
       0.010401107 -0.12118692 -0.05700929 0.032203555
0001a0 9c 9b 52 3d 0e a5 8a 3d 8d 4e 98 bd 9d 64 b6 3c
       0.051417932 0.06769763 -0.07436857 0.022264773
0001b0 a6 68 fa 3c c3 8a 25 3d 7d 20 ee bc 50 0a 9b bd
       0.030567478 0.040415537 -0.029068226 -0.07570326
0001c0 d1 2d cb 3d 02 10 77 3d 6b d2 d0 bd b8 3b 17 3d
       0.09920848 0.060318 -0.10196384 0.036922187
0001d0 d8 be 6f bd 16 d6 72 3d 22 c5 c7 3c 05 00 15 3d
       -0.058531612 0.0592862 0.024385992 0.03637697
0001e0 a7 85 4d bd b9 1b 25 bc 18 3e a0 bd ed 2f 24 3d
       -0.05017629 -0.01007741 -0.078243434 0.040084768
0001f0 c1 0b 76 3d be 32 72 3d 7c dc 1b bd 0d 49 81 bc
       0.060069803 0.059130423 -0.038052067 -0.015781904

layer4.weight f4 [128, 128]
000000 cb b4 7a bd cb 29 09 bb 26 44 a1 3d 9f 15 99 bd
       -0.061207574 -0.0020929452 0.078743264 -0.07474827
000010 ef 83 25 3c 3b 47 8b bd 65 9c 3f bd f0 bd 8f 3d
       0.010102256 -0.068006955 -0.04678001 0.070186496
000020 95 bd 5f bd 2d 8a 3a bd d0 6c 85 3d 44 08 90 3d
       -0.05462416 -0.04554193 0.06514895 0.070328265
000030 82 3f f7 3c c6 d7 50 bc 08 6a 9e 3d 57 dd f6 bc
       0.03018165 -0.012746757 0.077350676 -0.03013484
000040 f9 49 a4 3d 4c 52 36 3d 2c d5 98 3d f1 21 9a bd
       0.08021922 0.04451208 0.07462534 -0.07526005
000050 11 7f 59 bc 44 37 28 3b f1 66 3c 3d ad b2 b5 3d
       -0.013274924 0.0025667707 0.04599661 0.0887197
000060 d7 52 a0 3d 20 b8 f5 bb 55 34 7d bd 08 97 61 3c
       0.078283004 -0.007498756 -0.061817486 0.013768919
000070 d9 63 9c 3d f2 fa 85 bd 9f 4d 8c 3d ec f5 ab 3c
       0.07636232 -0.06542005 0.068507425 0.020991288
000080 7a bf 8a 3c c1 cf 47 3c 7b ff b1 bd a9 d1 1d bc
       0.016937006 0.0121955285 -0.08691307 -0.009632506
000090 66 d6 26 3d f6 f3 ef 3c 0e ed 66 bc 4b 94 ae 3c
       0.04073181 0.029291134 -0.014094604 0.021310946
0000a0 85 80 ac bc 60 fe ad bd 27 e5 76 3d f3 52 a8 bc
       -0.021057377 -0.08495784 0.06027713 -0.020547366
0000b0 78 28 82 3d 98 1e 17 3c 0a 3a c9 3c 0f e5 83 3d
       0.06355375 0.009223603 0.024563808 0.06440174
0000c0 c1 a1 98 bd 69 fc 30 bd f6 4a 8c bb 39 e3 ab 3d
       -0.07452727 -0.043209467 -0.004281397 0.08392949
0000d0 97 5f 32 3d 89 3d b1 3d f2 98 68 3d c5 a5 95 3d
       0.043548193 0.08654315 0.056786485 0.07307009
0000e0 7c c0 07 3d 92 20 6c bd 79 65 47 bb c3 70 5d bd
       0.03314255 -0.05764825 -0.0030425473 -0.054062616
0000f0 d0 93 73 3d 0f d0 15 bc 08 69 94 3d da bb 2d bd
       0.059467137 -0.009143843 0.072465956 -0.042415477
000100 2d 61 89 bb 5a a9 1d bd 6b 53 54 3d b8 62 e2 3c
       -0.0041924925 -0.038491584 0.051837366 0.027634963
000110 98 2a 63 3d 8b ed 0f 3d cb bd a7 bd 8c 7e 83 bd
       0.055460542 0.035138648 -0.08190497 -0.06420621
000120 13 91 bf bd a7 97 21 3d b0 99 2a 3d b3 15 87 3d
       -0.093538426 0.039451268 0.041650474 0.06595936
000130 cd 46 c3 3c 0a 83 55 bc 7d 21 66 3d 33 a2 98 3d
       0.023837471 -0.01303173 0.05618428 0.07452812
000140 61 e4 3d bc 07 81 01 3c fb 5e 9b bd b1 87 b0 ba
       -0.011590094 0.007904298 -0.075864755 -0.0013468174
000150 68 2f 12 3d 75 3e 9f bd 3f b4 0d bd 3f 14 9f 3d
       0.03568974 -0.077755846 -0.034595724 0.077675335
000160 77 4e 9c bc c2 72 3f 3d fc 1f 83 bd ca 85 7e bd
       -0.019080384 0.0467403 -0.06402585 -0.06213931
000170 0f 65 9d 39 22 b4 2b bd 3f 38 2c 3c f8 7a 40 bd
       0.00030020668 -0.041919835 0.010511457 -0.046992272
000180 d6 d0 8a 3a d5 02 b1 3d 2d 65 41 3c d5 cf b6 3d
       0.0010590802 0.08643118 0.011803907 0.089263596
000190 c4 64 78 bd b1 e2 e5 b9 79 c3 1a bc 93 43 86 3d
       -0.060642973 -0.00043847182 -0.009446018 0.065558575
0001a0 c2 35 b5 3d a3 9f 7c 3d 27 89 0d bb 96 f0 a6 bd
       0.08848144 0.06167568 -0.0021596642 -0.08151357
0001b0 89 b5 aa bd 4d 59 8c 3d a9 ee 87 3d 3c a1 7b 3d
       -0.08335406 0.0685297 0.06637318 0.061433062
0001c0 d0 6a 98 3c f2 e6 04 bd 8e e8 fa 3c 1a 03 3c 3d
       0.01860562 -0.03244681 0.030628469 0.045901395
0001d0 92 0c 07 3d bf 29 aa bd 80 f2 b2 3d 01 60 c2 bc
       0.032970972 -0.08308744 0.087376595 -0.023727419
0001e0 1d 52 a4 3d 82 2a 86 3d 60 a8 96 bc 61 93 c3 bd
       0.08023474 0.065510765 -0.018390834 -0.09549595
0001f0 19 70 37 bd 30 1d bf bc 8b 72 85 3d e4 d7 52 3c
       -0.04478464 -0.023329347 0.06515988 0.012868855
000200 0a e0 66 3d de 73 a6 bc f2 ca f6 bb f3 3d 5b bd
       0.056366004 -0.020318922 -0.007531517 -0.053525876
000210 69 47 eb bc 14 f6 b7 3d f0 b8 bb 3b cb ee 90 3d
       -0.028720574 0.089824826 0.0057288334 0.07076796
000220 cd 39 2c 3c df 5b 95 bd 13 8f 76 bd af ec 34 bc
       0.010511828 -0.07292914 -0.06019504 -0.011042758
000230 27 da fe bb d2 51 72 3d ee a8 82 3c 63 77 fe 3c
       -0.0077774706 0.05916006 0.015949693 0.031062787
000240 f0 98 5b bc e8 15 a0 bd 3a 0f 5e 3d 7c c1 a1 bd
       -0.013403162 -0.07816678 0.05421374 -0.07898232
000250 88 4e 38 bd a8 f1 69 bd 91 71 2a 3c 97 da 0d bd
       -0.04499677 -0.057115227 0.010403053 -0.03463229
000260 7b d7 ac 3d 9a 9f 92 bd 85 40 73 bd 6d 81 9d 3d
       0.08439537 -0.07159348 -0.059387702 0.07690702
000270 32 dc 3b 3d c6 11 a3 bd 45 44 2d 3d 59 a0 41 3d
       0.04586429 -0.079623744 0.042301435 0.04727206
000280 1e ab 56 bc a4 75 c2 bd dc cf a1 bd 1c f2 e5 ba
       -0.013102321 -0.094950944 -0.07900974 -0.0017543468
000290 97 cb 5d bd b7 f0 70 3d 5a e3 7b bc fe fb 80 3d
       -0.054149237 0.058823314 -0.015374029 0.06298064
0002a0 af fa 4f 3c 61 41 d6 bc 68 28 67 bd ef ad a9 3d
       0.012694045 -0.026154222 -0.05643502 0.08285128
0002b0 75 fc ad bd ec d4 b6 bd e5 13 a9 3d 34 91 fc 3c
       -0.08495418 -0.089273304 0.08255748 0.030830957
0002c0 36 08 4d 3d f5 7f 8b bc b6 b7 5d 3c bf 7d 21 bc
       0.05005666 -0.017028788 0.01353257 -0.00985664
0002d0 37 2b a9 3d 4c 4d e0 bc 11 b9 38 3d 02 1d 27 bd
       0.08260196 -0.027380608 0.045098368 -0.04079915
0002e0 e2 42 01 3b b0 e9 2b 3c 59 15 47 3d fe 1f 59 bd
       0.0019723703 0.010492727 0.048604343 -0.053009026
0002f0 b1 ec 19 bd 7d 0d 91 3d 67 16 5c 3d 6c de 40 bd
       -0.037579242 0.07082651 0.053732302 -0.047087118
000300 3b ef 7a bc 4d e0 ab 3d 0a a0 b1 3d 97 d3 2e bd
       -0.015315826 0.08392391 0.08673103 -0.042682257
000310 0f bd 48 bd 7d 96 11 3c 3c e0 0f 3c dd 4d 3e bd
       -0.049008425 0.008885977 0.008781489 -0.046460975
000320 b1 2c 3e 3d 10 6e aa 3c 23 c1 2f bd aa 6a 5f bd
       0.04642934 0.020804435 -0.0429088 -0.054545082
000330 b4 94 2f 3d c2 ff 3c 3d 5c f0 d3 3c 9f 06 e4 bb
       0.042866424 0.046142347 0.025871448 -0.006958797
000340 72 a3 de 3c 25 8c 83 bb 12 8a f2 3c c7 d4 36 bc
       0.027177546 -0.0040145093 0.029606853 -0.0111591285
000350 fd 6a 36 bd 18 8e fa 3c 68 9d 6d 3d 2f bd 8b bd
       -0.044535626 0.030585334 0.058011442 -0.06823193
000360 bd dd 80 3c 5e f3 18 3d 39 dc 2e 3d 6d 0b 8f 3d
       0.015730733 0.037341468 0.04269049 0.06984601
000370 91 8a 36 bd 8c 65 6f 3b fe c8 33 bd 3b 67 df bb
       -0.04456574 0.0036529033 -0.043892853 -0.006817726
000380 bb 8c 71 3d 33 84 3d bd c6 6d 28 3d 44 40 0a bd
       0.0589721 -0.046268653 0.041120313 -0.033752695
000390 ca 64 8e bd eb 6f ae 3c 6a b7 69 3d e0 96 b0 bd
       -0.06952818 0.021293601 0.057059683 -0.08622527
0003a0 5d e7 a1 3d 85 af 90 3d 66 ca ad 3d 6b 45 a8 b9
       0.07905457 0.07064728 0.0848587 -0.00032095177
0003b0 c8 7f 6d 3c 09 c3 55 bd 21 4d 31 3d fd 25 a4 bb
       0.014495797 -0.052187953 0.043286446 -0.0050094114
0003c0 ae fc 9a bd 5e 72 82 bd 4e c5 05 3b 1c 36 12 bd
       -0.07567726 -0.0636947 0.0020411792 -0.035696134
0003d0 72 52 8a bd b2 9d 76 bd ab f9 71 bd 91 85 51 bd
       -0.067540064 -0.060208984 -0.059075993 -0.05115277
0003e0 ee bf 57 3d 28 54 84 3d 1c 4a d3 bc 14 ca 11 bd
       0.052673273 0.06461364 -0.025792174 -0.035593107
0003f0 34 61 86 bc e6 ed 9b 3c ba 8c cb bc 0f dd 90 3d
       -0.016403772 0.019034337 -0.024847377 0.070734136

layer4.bias f4 [128]
000000 14 81 58 3c b7 1e 44 3d f3 83 3f ba f6 99 ea 3d
       0.013214368 0.047880854 -0.0007305734 0.11455147
000010 ce fe 33 bc 35 2a 37 3d 83 b1 c7 3c 64 a6 ab bd
       -0.010986043 0.044717986 0.024376636 -0.08381346
000020 52 9a ef 3d c1 c6 15 3b 58 89 91 3d 83 de 52 3d
       0.11699356 0.0022854062 0.07106274 0.051481735
000030 09 73 89 bd a9 f5 b3 3d 60 ef 7b 3d 30 cc 8a bc
       -0.06711394 0.0878709 0.061507583 -0.016943067
000040 4c 4c 89 3d 3e 7e 51 bd 04 de ad bd 9a d3 eb bb
       0.067040056 -0.051145785 -0.08489612 -0.0071968557
000050 38 89 82 bc 4f 17 65 3c b4 15 45 bd 10 06 de bc
       -0.015934572 0.013982608 -0.0481164 -0.0271025
000060 cf 51 96 3d d8 99 3c bd cd e5 b1 bd 85 18 9c 3d
       0.073398225 -0.046045154 -0.08686409 0.07621864
000070 db 0e 9c 3c 3c f7 f7 3c 3d e9 27 3d cc 11 ec 3d
       0.019050052 0.030269258 0.040993918 0.11526832
000080 30 a1 31 bd 4f 3c 9f bc ff b4 94 bd 6c 65 4c bd
       -0.04336661 -0.019437937 -0.07261085 -0.04990141
000090 3e 5e 8b bd 91 3a fa bd 85 ea a6 3d b2 e1 46 bd
       -0.06805085 -0.12218202 0.081502 -0.048555084
0000a0 9d d0 0a 3d d9 60 1c 3d 18 4e 8f bc a2 c2 8c bd
       0.033890355 0.0381783 -0.017493293 -0.06873061
0000b0 b1 e4 3c bd 75 30 32 3c 67 2f 9d 3d 9d aa 1a bd
       -0.046116535 0.010875811 0.07675057 -0.037760366
0000c0 5c 3b b7 3d 62 8c 9a bd 06 1b 8c 3d 00 78 23 bd
       0.08946869 -0.07546307 0.06841092 -0.039909363
0000d0 fb ea f5 bc 65 e8 1c 3d 10 71 cb 3d 56 9e 1a 3d
       -0.030019274 0.038307566 0.09933674 0.037748657
0000e0 d3 1c 5d 3d 00 fb 88 3d ad 98 0a 3d 89 60 e6 3c
       0.053982567 0.066884995 0.03383701 0.028122203
0000f0 27 aa 1c bd 2b ed b7 bd 4d 16 13 3d 85 53 11 3d
       -0.038248207 -0.08980783 0.03590994 0.03548004
000100 b6 c7 74 3d 2a 0f 1f 3c 9b 15 8e bd 04 96 6a 3d
       0.05976077 0.009708205 -0.06937715 0.057271972
000110 bc a8 16 3d 78 c7 91 3d 7c ea 80 bc a3 c0 75 bd
       0.03678201 0.07118124 -0.01573681 -0.059998166
000120 d2 b0 58 3d 92 9d 08 3d a9 4a 6e bd d0 92 ff bb
       0.052903004 0.033353396 -0.05817667 -0.007799484
000130 0a 4f 11 3c 4d 7d 11 bd f7 0f ca 3c 1b ef 0b bd
       0.008868942 -0.035519887 0.024665816 -0.034163576
000140 06 ee 27 bd 2b 4d 31 ba d7 7c d0 bd 2f 10 e6 3d
       -0.04099848 -0.0006763513 -0.10180061 0.112335555
000150 a7 1b 88 bd 39 cf 9c 3d 43 ef b2 3d 93 fe e2 bd
       -0.06645899 0.07656712 0.08737042 -0.110837124
000160 18 9f e4 3b 76 d4 81 bd 66 24 58 bd f1 a1 54 3d
       0.0069769733 -0.06339352 -0.052769087 0.05191225
000170 79 1c aa bd f9 39 2d bd 8e 76 8e 3d 58 f0 da ba
       -0.08306212 -0.042291615 0.06956206 -0.0016703708
000180 57 33 7c 3c a0 17 c5 3d f5 79 f5 3c fd 5a 06 bd
       0.0153931 0.09623647 0.02996538 -0.032801617
000190 b9 09 50 bc 09 05 33 3d df 9d 9f bd a4 ec 18 3d
       -0.012697631 0.043705974 -0.077937834 0.037335053
0001a0 86 07 c1 3d 3d e4 3c bc 82 fe 82 3c c0 32 84 bd
       0.09425263 -0.011529026 0.0159905 -0.06454992
0001b0 fd b5 b6 3d 68 8f 25 3d dc d4 82 bd 2f dc 3b 3d
       0.0892143 0.040419966 -0.06388256 0.04586428
0001c0 b2 8a b7 3c 85 51 0a 3d a6 69 47 bc 53 0c 5b bd
       0.022405002 0.03376915 -0.012171185 -0.05347855
0001d0 95 e9 31 bd ca 1c 78 3d 9b 59 26 bd 54 32 27 3d
       -0.04343565 0.06057433 -0.0406128 0.04081948
0001e0 ef 68 4c 3d 83 3d 33 3d 45 1d a4 bd 1e c8 5b 3d
       0.04990476 0.043759834 -0.08013395 0.053657643
0001f0 62 41 45 bd e0 d7 7b bd 06 be a9 3d d8 1b f3 3b
       -0.048158057 -0.06148517 0.08288197 0.0074190907

input_norm.weight f4 [6]
000000 8b 75 6e 3f 7c ec 80 3f 3e 88 80 3f 7a 1d 71 3f
       0.93148106 1.0072169 1.0041578 0.941856
000010 a3 73 58 3f 48 ff 67 3f
       0.8455145 0.90623903

input_norm.bias f4 [6]
000000 91 af cf 3e 4b 92 18 3e 6b b4 56 3e 37 38 8e 3d
       0.40563634 0.14899556 0.20967261 0.06944316
000010 f6 5a ea 3e b9 55 a0 3d
       0.45772523 0.0782885

input_norm.running_mean f4 [6]
000000 60 28 96 40 3c 3c 84 3c 2a 6a 4d 3c 37 52 44 3b
       4.6924286 0.016142003 0.0125375185 0.002995623
000010 e6 1a 7f 40 07 c8 0c 3d
       3.9860168 0.03437045

input_norm.running_var f4 [6]
000000 ee 61 a0 40 3c 13 95 3a fc 06 29 3a 81 a6 57 39
       5.0119543 0.001137353 0.0006447879 0.00020566025
000010 8f 2a 85 40 d2 80 9d 3d
       4.161445 0.07690586

norm.weight f4 [128]
000000 38 87 77 3f ce f4 77 3f 61 10 75 3f 9f e7 7a 3f
       0.966907 0.9685792 0.9572812 0.98009676
000010 72 88 72 3f 67 5b 79 3f 16 3e 75 3f 2a 51 76 3f
       0.9473945 0.97405094 0.9579786 0.96217597
000020 1e af 79 3f b3 31 78 3f d5 52 77 3f 3a 05 7c 3f
       0.9753283 0.96950835 0.96610767 0.98445475
000030 27 3a 76 3f 17 f2 79 3f c8 b7 77 3f 69 92 73 3f
       0.96182483 0.97635025 0.967648 0.9514528
000040 d8 d1 76 3f 3a eb 79 3f 73 af 7d 3f 23 f8 76 3f
       0.96413946 0.9762455 0.9909584 0.96472377
000050 68 00 78 3f 73 7d 77 3f b9 42 78 3f 10 99 74 3f
       0.9687562 0.96675795 0.9697681 0.95546055
000060 5f e0 77 3f 30 96 73 3f a2 22 7d 3f 3d e0 7a 3f
       0.9682674 0.9515104 0.9888097 0.9799841
000070 67 74 75 3f 6d 62 75 3f 39 ec 75 3f 4f 68 78 3f
       0.9588074 0.9585331 0.9606357 0.9703416
000080 56 14 77 3f 84 4b 7c 3f 01 fb 80 3f d6 a2 75 3f
       0.96515405 0.9855273 1.00766 0.9595159
000090 e5 8c 73 3f 89 ad 74 3f 83 e6 7b 3f ab 46 76 3f
       0.95136863 0.95577294 0.9839861 0.9620158
0000a0 bd 44 7b 3f c8 62 76 3f 1c 2a 76 3f b7 ec 76 3f
       0.9815176 0.9624448 0.96158004 0.9645495
0000b0 74 2b 77 3f b1 30 7b 3f b5 f9 74 3f 42 78 74 3f
       0.9655068 0.9812117 0.9569352 0.95496
0000c0 98 89 75 3f 00 89 75 3f d6 a2 7b 3f 19 37 79 3f
       0.95913076 0.9591217 0.9829534 0.973497
0000d0 f1 3a 75 3f a7 a7 7a 3f bb 83 75 3f 4c b9 77 3f
       0.9579306 0.9791207 0.9590413 0.96767116
0000e0 77 cc 78 3f 5a 41 76 3f c9 ed 76 3f e6 9c 75 3f
       0.9718699 0.9619347 0.9645658 0.95942533
0000f0 34 c2 83 3f 30 71 79 3f 1b f3 79 3f d3 1c 77 3f
       1.0293641 0.97438335 0.97636575 0.9652836
000100 1f 60 77 3f 50 74 75 3f e2 3c 76 3f 18 2e 76 3f
       0.96631044 0.95880604 0.9618665 0.96164083
000110 ac 76 78 3f 04 d8 72 3f 8d 68 76 3f 91 66 78 3f
       0.9705608 0.94860864 0.9625328 0.97031504
000120 de db 77 3f 3c d1 76 3f d4 d5 75 3f f7 9d 75 3f
       0.96819866 0.96413016 0.960294 0.9594416
000130 d8 a8 77 3f 6f 18 73 3f 78 ce 74 3f cc 8f 7c 3f
       0.9674201 0.9495916 0.95627546 0.98656917
000140 0b 0e 78 3f 11 a4 79 3f bc e0 76 3f b3 88 75 3f
       0.9689643 0.9751597 0.9643667 0.9591171
000150 29 34 7a 3f 08 ed 77 3f 0c e0 77 3f 4b fa 73 3f
       0.9773584 0.96846056 0.96826243 0.9530379
000160 84 e5 79 3f 32 d4 78 3f e1 6d 76 3f 48 cf 7c 3f
       0.9761584 0.97198784 0.9626141 0.98753786
000170 e2 8b 76 3f 82 7f 73 3f 31 68 81 3f f1 ea 78 3f
       0.96307194 0.95116436 1.0109922 0.9723349
000180 59 51 7a 3f 49 4b 7b 3f 4e 9f 78 3f 6f a1 79 3f
       0.97780377 0.9816175 0.9711808 0.97511953
000190 de ea 78 3f 15 4a 78 3f e6 0f 75 3f 41 00 78 3f
       0.9723338 0.9698804 0.95727384 0.9687539
0001a0 5a 92 76 3f 86 f1 74 3f 37 fc 74 3f 02 42 79 3f
       0.96317065 0.95681036 0.9569735 0.97366345
0001b0 8e 9c 7b 3f 9c 8d 78 3f 71 74 78 3f fd 60 77 3f
       0.9828576 0.9709108 0.97052675 0.9663237
0001c0 93 94 77 3f 22 71 76 3f 37 59 77 3f bf b9 76 3f
       0.9671108 0.96266377 0.96620506 0.96377176
0001d0 eb ab 75 3f 6e bd 75 3f 8a 30 7d 3f 0d 80 7e 3f
       0.9596545 0.9599217 0.9890219 0.9941414
0001e0 90 a0 77 3f ac dd 76 3f 2a 3d 77 3f d5 95 78 3f
       0.96729374 0.96431994 0.96577704 0.97103626
0001f0 55 96 76 3f 6d 78 76 3f e3 5d 78 3f 4a 2c 76 3f
       0.9632314 0.96277505 0.9701826 0.9616133

norm.bias f4 [128]
000000 8e cb 87 bc be dd 9f bc ab 33 2d 3c 70 71 27 bd
       -0.016576555 -0.019514915 0.010571401 -0.040879667
000010 88 ea 99 3d ba bb fa 3c 55 f7 a3 3d 9f ce 88 3c
       0.075154364 0.030607093 0.08006159 0.016700087
000020 16 7e ad bd e5 9d 58 bc 40 fe cd bb 65 c5 ca bc
       -0.084713146 -0.013221239 -0.0062864125 -0.024752328
000030 a1 96 bc bd a9 15 6b bd e9 65 73 3d a3 06 84 3d
       -0.09208418 -0.057393704 0.05942336 0.06446578
000040 63 d3 8e bd b3 fe 04 3d 47 54 24 bc 89 07 a2 3d
       -0.069739126 0.032469463 -0.010029859 0.079115935
000050 bc ac 3e bb d4 02 52 bd bf 5c 0f 3d e5 4d cd bd
       -0.0029094657 -0.05127223 0.03500056 -0.10024623
000060 5b d3 e9 bd 19 51 0b bc 2e b2 20 bd 57 a7 9c 3c
       -0.11417266 -0.008503222 -0.039232425 0.019122763
000070 e5 ae cd bd a7 d2 c2 bd 7b c4 72 bd a9 a1 2c bd
       -0.10043124 -0.09512835 -0.05926941 -0.04214636
000080 79 7b 85 bd 86 3c 8d bb bb 5a 29 bd 06 01 e1 bd
       -0.06517691 -0.0043101935 -0.041346293 -0.10986523
000090 af 93 89 bd 52 67 05 3c ea 0e a1 bb ab cd 20 bc
       -0.067176215 0.008142309 -0.004915108 -0.00981466
0000a0 ed 9d 14 be b6 89 67 bc 7b a2 38 bd a3 b4 f2 bc
       -0.14513369 -0.014131954 -0.04507683 -0.02962715
0000b0 81 d4 ba 3d a6 6d 7c bd 26 9f b6 3d aa e8 e2 bd
       0.09122563 -0.061628006 0.08917074 -0.110795334
0000c0 7b 41 fd 3d 5a 33 d7 bc 6f 57 3d 3c 27 ca e6 bd
       0.12366005 -0.026269604 0.01155649 -0.11269026
0000d0 a7 91 14 3d 78 7d c8 bc de 09 8a bd e9 a7 2b 3d
       0.036271717 -0.02447389 -0.06740163 0.04190818
0000e0 de a4 16 be f7 33 b1 3d 1d 17 48 3d 38 63 34 be
       -0.1471133 0.0865249 0.048850168 -0.17615974
0000f0 3c 4e ab bd 90 b9 80 3d c3 6d 0d bc c0 58 70 3c
       -0.083645314 0.06285393 -0.008632126 0.014669597
000100 48 23 72 3d 54 ca 6d 3d 8c 6e 54 bc 4f 39 79 bb
       0.059115678 0.058054283 -0.01296581 -0.0038028543
000110 c8 04 4a bc 63 a7 1a bd a8 60 26 3d 57 38 52 bc
       -0.0123302415 -0.03775729 0.040619522 -0.012830815
000120 6a e7 08 3d f4 74 29 bd ed 98 a9 bd 0d 0c 89 3d
       0.03342382 -0.0413713 -0.082811214 0.06691752
000130 61 28 e2 bd 76 27 e0 bc 70 51 2d bc 44 fc c8 3c
       -0.11042858 -0.027362566 -0.010578498 0.024534352
000140 6b db 57 3d 01 c8 ae 3d 2f 55 f6 bc f6 f6 3d 3d
       0.052699488 0.085342415 -0.030069916 0.0463781
000150 51 43 37 bd ab 8c b9 3d a8 d8 0d 3e e7 e5 67 3d
       -0.044741932 0.090600334 0.13852179 0.056615736
000160 af b0 74 3d ba 5e 06 3b 61 11 a8 3c 94 52 13 bd
       0.05973881 0.0020503239 0.0205161 -0.035967425
000170 65 02 57 bd 51 96 52 bd 02 89 87 3c c4 fc ab bd
       -0.052492518 -0.051412884 0.016544823 -0.083978206
000180 99 58 60 bd 54 d9 f3 bd c7 1b fa 3c 9f 83 81 bc
       -0.054771993 -0.119066864 0.030530823 -0.015809832
000190 04 a8 26 bd 76 2b 3d bc 33 09 00 3e 14 99 a6 bb
       -0.040687576 -0.011546006 0.12503509 -0.0050841663
0001a0 d7 e3 a3 3d 73 66 57 3c 4e 29 1c bc 4f c9 4c bd
       0.080024414 0.013146984 -0.009531332 -0.04999667
0001b0 d6 93 9f bc 87 94 c9 3d ae 1e ae 3c e0 33 7d bc
       -0.019479673 0.098427825 0.021254864 -0.0154542625
0001c0 6a 16 eb bd 39 fd 93 3d 36 f9 cf bb 68 10 c4 bc
       -0.114788845 0.07226033 -0.006346847 -0.023933604
0001d0 35 6e 05 3e 28 ae 6a bc 30 f8 8b bb a8 0f c2 3c
       0.13030322 -0.014323749 -0.0042715296 0.023689106
0001e0 f4 56 56 3d 80 49 04 3e 0f ea 55 bd 1a 56 16 3e
       0.05232902 0.12918663 -0.05222517 0.14681283
0001f0 c1 4d 1a be a5 b3 95 3d 8a da 5c 3d 48 a8 0c be
       -0.15068723 0.07309655 0.053919353 -0.13736069
