Lex_jaywalker_QAgent.pt (torch, 226913 bytes, 22 tensors)

layer1.weight f4 [128, 8]
000000 10 f2 44 3e 34 e3 ba bd 2f e9 56 bd c0 69 45 3e
       0.19232965 -0.09125367 -0.052468475 0.19278622
000010 c6 bd a8 be 87 9c 46 3e 12 ae ee bd 98 5d 61 3e
       -0.32957286 0.19395648 -0.11654295 0.2200836
000020 b5 ef 72 3b 89 9d b8 bc af 67 04 3d 3d 55 3e bc
       0.0037069146 -0.022536056 0.032325443 -0.011617002
000030 3f 93 bd 3b e1 ba a9 bb 26 f3 a6 3c 03 03 76 bd
       0.0057853754 -0.0051797484 0.020379614 -0.060061466
000040 9b 03 ba 3d fd e4 e0 bc 5c 9b 8f 3e 0d c3 1b 3e
       0.09082719 -0.02745294 0.28048217 0.15211125
000050 05 25 8c bd f1 f8 8a be b9 af 63 bd 30 26 00 be
       -0.068429984 -0.27143052 -0.055587504 -0.12514567
000060 ea dd 86 bd a8 02 4e 3d 8a a3 58 3e c6 1b 0a 3e
       -0.065852955 0.050295502 0.21156135 0.13487157
000070 64 65 af be 59 c0 90 3e 1e 09 c7 3d 43 e8 c6 3e
       -0.34257042 0.2827175 0.09718536 0.38849077
000080 15 8d e9 3d 9d 5a a0 be 99 49 9e be c6 3d 81 be
       0.114038624 -0.31319132 -0.30915526 -0.25242442
000090 17 ca 7a 3e 92 e0 ea bd 46 cb 03 3d 89 db 94 be
       0.24491154 -0.11468615 0.03217628 -0.29073742
0000a0 a4 a2 d0 3e 20 86 e8 bd 63 93 8b 3e 0a dd 7b bd
       0.40749085 -0.11353707 0.27260885 -0.061490096
0000b0 9b 4f 8a bd 1d d3 e1 3d 29 fa 4c be bb 8e 39 3e
       -0.06753465 0.11026595 -0.20017304 0.18120854
0000c0 61 61 37 be 9c 80 29 bc 92 29 96 be a3 1f 4c be
       -0.17908241 -0.010345604 -0.2932859 -0.19933943
0000d0 6f b1 1e 3e 6a 2b 09 3c 76 69 cf 3e 8a 71 92 3e
       0.15497373 0.008372167 0.40510148 0.28602248
0000e0 4d 9a 04 3c 87 23 46 be bf 84 87 3e 11 d2 fd 3d
       0.008093429 -0.1934949 0.26468465 0.123935826
0000f0 43 de 66 be 6d 3b 61 3e df ce 83 3e ef 8f ad 3e
       -0.22545724 0.21995325 0.25743768 0.33898875
000100 6d 8b 28 be eb 8c 8d 3d 4e b3 a1 3d 2e 7d 25 3d
       -0.16459437 0.069116436 0.07895528 0.040402584
000110 bc ca 67 be 8b 41 a6 be 88 be 0a 3e 08 a4 38 bc
       -0.22635931 -0.3247188 0.13549244 -0.011269577
000120 cf 70 36 3e f0 1f 88 3d dd 71 0f 3e b2 ea 79 bd
       0.1781647 0.066467166 0.14008279 -0.06101484
000130 07 95 a9 3d 86 df 37 3e 66 e7 a2 be 78 5a 73 3e
       0.08280378 0.17956361 -0.31817168 0.2376498
000140 01 a2 91 be 4a 63 b3 be 7b e9 78 bd 76 49 18 be
       -0.28443912 -0.3503669 -0.06076954 -0.14871773
000150 e7 95 1c 3e 96 2e 4d be 7a 1f 8a be 51 38 06 3e
       0.15291558 -0.20037302 -0.2697714 0.1310742
000160 f1 5c f1 bd 28 41 5b 3e 49 49 0d 3e bb ef 4c be
       -0.11785305 0.21411574 0.13797487 -0.20013325
000170 d0 0e 80 3d 83 f9 f4 bd 5a 24 3e be 4b 47 59 be
       0.06252825 -0.11961653 -0.18568555 -0.21218602
000180 0d 2f d4 3d c5 9d ca 3b 08 37 8b bc 97 89 cd 3c
       0.10360537 0.0061833584 -0.016994014 0.025090022
000190 1b 00 b4 3e e1 a9 f8 bd 33 73 60 3c 9d cf bf bc
       0.3515633 -0.12141777 0.013699341 -0.023414427
0001a0 96 b6 9a be 53 3d 8f be 46 39 be 3e e4 33 91 3d
       -0.30217427 -0.27976474 0.3715307 0.070899755
0001b0 49 f8 dc 3d e0 8d ae 3d f6 ae 41 3e 4c 1f 1d 3e
       0.10789544 0.08523154 0.18914399 0.1534397
0001c0 d3 91 c7 3e 2b 15 87 be 8e e4 14 bd 9d 1f a4 3e
       0.38978443 -0.26383337 -0.03635078 0.3205537
0001d0 e9 27 8d 3e a2 33 37 3e a0 59 6d be 7e c4 8c be
       0.27569512 0.1789079 -0.2317872 -0.27493662
0001e0 f9 5c 7e be 11 78 e2 3d 85 a7 bd 3e e1 50 60 be
       -0.24840154 0.11058057 0.3704187 -0.21905853
0001f0 ce e7 1c 3e 79 6d 88 bd a7 b6 a1 be 09 28 b7 bd
       0.15322801 -0.06661505 -0.31584665 -0.08943183
000200 e5 c8 93 3e bc 35 a5 3e c3 15 8c be ce fe a1 3d
       0.28864208 0.3226756 -0.27360353 0.07909928
000210 7b 01 b2 3e 80 52 49 3e c4 36 87 3e b0 59 71 3e
       0.34766755 0.19660378 0.2640897 0.2356937
000220 4e 91 4d 3e c1 ce d1 3a fb e2 9c be 99 20 cc be
       0.2007496 0.0016007052 -0.30641922 -0.3986862
000230 60 38 2f be 9e e1 4f bd c5 dd ff bd 65 52 30 3d
       -0.17111349 -0.050752275 -0.12493471 0.043047328
000240 11 10 2c 3e 82 ea 79 bd 07 55 cf 3d 04 9b 31 3e
       0.16803004 -0.06101466 0.101236396 0.1734429
000250 5a 4b f3 3d 60 bf 80 3e 88 6a 08 be b8 02 ab 3e
       0.118796065 0.25146008 -0.13321888 0.33400512
000260 1b e4 f7 bb 64 b4 98 bc 89 60 9d be e3 5c a5 be
       -0.007565034 -0.018640704 -0.30737713 -0.3229743
000270 fe 46 2b be c4 2f 27 be 0f 7d 7f 3e c8 a9 fe bd
       -0.167263 -0.16326815 0.2495005 -0.12434727
000280 b3 f5 3f be 11 fb c8 3d da 77 d2 3d fa 79 9e 3e
       -0.1874607 0.09813512 0.10276766 0.30952436
000290 ed 25 71 be 54 81 e5 3d b6 26 8d bd ab 7e 43 3c
       -0.23549624 0.11206308 -0.06892149 0.0119320555
0002a0 70 99 9b be cd fc f2 3c da f5 ac bd b9 1b 37 3e
       -0.303905 0.02966156 -0.0844533 0.17881669
0002b0 58 55 25 3e 56 3a 61 bd 20 7e be 3e 4d 29 c4 3e
       0.16145837 -0.054987274 0.372056 0.3831276
0002c0 1f 7b 95 3e fd 78 73 3c 1a 0d 8b be 5d e5 9e 3e
       0.29195496 0.014860389 -0.27158433 0.31034365
0002d0 87 94 17 bd 68 25 9f bd f7 a8 85 be ef e3 95 bd
       -0.03700688 -0.077708066 -0.26105472 -0.073188655
0002e0 93 96 b6 be 5a 60 b3 3e b9 cf 7e be c0 3a 8b be
       -0.35661754 0.35034448 -0.24883927 -0.2719326
0002f0 dc fe 5f 3c da ca 29 be bb 6b ca 3b 21 e7 1c be
       0.013671603 -0.16581288 0.0061773933 -0.15322544
000300 9d 9a 86 be 99 4b 18 bd 89 ee 85 3e 34 e1 38 be
       -0.26289836 -0.03718147 0.2615855 -0.18054658
000310 44 b0 32 3e b7 ca e3 3d 5b 4c bd 3e dd 64 98 be
       0.17450052 0.11122649 0.36972317 -0.29764453
000320 2b 79 72 3e 29 bc 5d be d8 42 49 3e 95 57 04 be
       0.23679034 -0.21653809 0.19654405 -0.12924035
000330 36 34 27 3e 20 81 e8 3d cc dd 43 ba 3f 9f 47 3d
       0.1632851 0.11352754 -0.000747171 0.048735853
000340 c2 77 8c 3d b3 c0 40 3e d1 76 3c 3d 25 f5 11 3e
       0.068587795 0.18823509 0.04601175 0.14253671
000350 03 30 b1 be b9 29 85 3e f7 b8 ae 3e ae 53 b0 3e
       -0.34606943 0.26008394 0.34125492 0.34438843
000360 61 9b 75 3e 3b dd 86 be 8f 8a 54 be 4f 75 9e 3e
       0.23985054 -0.2634066 -0.20755981 0.30948874
000370 3c 1f 8c be 91 8e aa 3e cb c4 99 be 09 2d 81 be
       -0.2736758 0.33311895 -0.30032954 -0.25229672
000380 6f 3d 97 3e 04 2b 88 be 5f b9 48 be f0 4f 5e 3e
       0.29539058 -0.26595318 -0.19601963 0.21710181
000390 35 3a 86 3e c5 d4 61 3e 6a 5d 2e be 0c 93 aa be
       0.26216283 0.22053821 -0.17027822 -0.33315313
0003a0 0d b9 b5 3e 59 69 ed bd 81 ee 58 be e6 b1 95 3d
       0.35492745 -0.11592359 -0.21184732 0.07309322
0003b0 a3 13 29 be d1 27 53 3e ea 51 ea 3d 7f 02 b9 be
       -0.16511397 0.20620658 0.11441405 -0.36134717
0003c0 dc 18 8f be c4 6f 0b 3d 9c a5 c6 3d f6 16 8f 3c
       -0.27948654 0.034042135 0.09699556 0.017467003
0003d0 66 a6 79 be 11 9d 3e bd 91 06 a0 be dd 8b 89 be
       -0.24379882 -0.04653651 -0.3125501 -0.2686452
0003e0 d6 62 8b be 48 16 8a 3e 8c 18 97 3e 47 34 82 bd
       -0.27223843 0.26970124 0.29510915 -0.06357627
0003f0 17 fb c1 bc ff dd e0 3d 84 24 12 3d bb 4f 53 be
       -0.0236793 0.109798424 0.035679355 -0.20635884

layer1.bias f4 [128]
000000 47 13 3b 3d 4a fe c5 bd d8 e5 0c 3e 49 9f 49 be
       0.04567268 -0.096676424 0.13759553 -0.19689669
000010 21 45 b5 be 36 dd 4b bd 7e 2d f6 bd df 29 93 bd
       -0.35404304 -0.04977151 -0.12020396 -0.07185721
000020 fa 93 93 3e 76 b4 63 3d d0 6a 12 3e 2d cd ca bb
       0.28823835 0.055592023 0.14298558 -0.0061890096
000030 75 8d b8 be b1 f4 93 bc ae 3b 55 be 62 bf 84 bd
       -0.36045423 -0.018061014 -0.20823547 -0.06481816
000040 2e 15 95 be 9a 2e 79 3e 26 6c 55 be 82 44 92 3e
       -0.2911772 0.24334183 -0.20842037 0.28567892
000050 cd 39 85 3e 73 58 70 3e 9e 30 4d 3e c5 f8 2b 3d
       0.2602066 0.2347124 0.20038077 0.041985292
000060 76 8f 12 bc 3e 7f bd bd f7 65 13 be f6 34 a1 be
       -0.008945337 -0.09252785 -0.14394365 -0.31485718
000070 19 30 8f 3e aa f9 99 3d 3e 71 5f 3e 5c c7 08 3d
       0.27966383 0.07518323 0.21820542 0.03339325
000080 8a 26 b7 3d 53 73 04 be 29 c1 84 be e3 78 8a 3e
       0.089428976 -0.12934618 -0.2592862 0.27045354
000090 d2 63 fa 3c cc 51 08 3e 54 a6 bc be 27 3f a0 3c
       0.030565176 0.13312453 -0.36845648 0.019561363
0000a0 0f ca cc be 2a 21 9f 3d 11 c4 7b 3c 49 94 84 be
       -0.39997908 0.077699974 0.01536657 -0.25894383
0000b0 33 c9 c7 be 8d d3 1a 3d b9 bc 9b 3e 99 7c b2 3e
       -0.3902069 0.037799407 0.3041742 0.34860685
0000c0 fc b5 12 be 36 10 53 3d 7e 2f d6 be 53 bd 89 be
       -0.14327234 0.05152913 -0.4183311 -0.26902255
0000d0 12 0b 0f be dc 9b aa 3e 5c 9e a4 bc 56 7b f4 3b
       -0.13969067 0.33322036 -0.020095043 0.007460992
0000e0 46 48 dd 3e 3d aa 5f be 64 c4 12 3e 5c 20 49 3e
       0.43219203 -0.21842285 0.1433273 0.1964125
0000f0 54 51 b9 3e dc 4e e3 3d 24 18 a5 be c1 6b 9f be
       0.3619486 0.110990256 -0.3224498 -0.31136897
000100 12 44 03 bf c0 f8 94 3e d6 9d 0e 3e d2 f1 99 3d
       -0.5127574 0.2909603 0.13927397 0.07516827
000110 4a 5f 92 be a6 ae ad be 83 2b a4 3e b5 b5 ce bd
       -0.28588325 -0.3392231 0.32064447 -0.100932516
000120 4a 1d b4 be 5a 15 08 3d e0 ac 96 bd b3 f1 a7 3c
       -0.35178596 0.033223487 -0.07357192 0.020500993
000130 08 80 5e 3e 42 ef 28 3e f8 89 86 be aa 4c 7b 3b
       0.21728528 0.1649752 -0.26277137 0.0038345256
000140 b1 ee 38 be 6a cd 96 3e e5 3f 31 3e 24 c3 55 3e
       -0.18059804 0.29453593 0.1730953 0.20875221
000150 42 61 92 3e b0 5a 98 3e 97 31 08 bf f8 f0 da 3d
       0.28589827 0.2975669 -0.5320067 0.106904924
000160 ce 34 20 be 0f 10 ef ba aa e4 36 bc 22 81 b1 3e
       -0.15645143 -0.0018239039 -0.011162916 0.34668833
000170 51 35 5c be 5a 9b 89 be 31 5b 15 be e0 c7 3c be
       -0.21504714 -0.26876336 -0.14585568 -0.18435621
000180 fc 75 8b 3e 98 03 72 3e 69 05 88 3e 38 6b e5 3d
       0.27238452 0.23634183 0.26566628 0.11202091
000190 a6 04 30 be a0 ea 86 be d9 8f 46 be 4d cf 27 3e
       -0.17189273 -0.2635088 -0.19390811 0.16387673
0001a0 33 a9 73 be 43 52 1c 3e c9 e8 95 3e bd a1 5a 3e
       -0.23795013 0.15265755 0.29279163 0.21350761
0001b0 08 82 62 be ea dd a4 3e 96 4e e7 bd f4 71 43 3c
       -0.22119915 0.32200557 -0.11294286 0.011929024
0001c0 3d f0 ad 3e 7d 73 26 3e 83 4b 13 be 2f c1 74 3e
       0.3397235 0.16254993 -0.14384274 0.23901819
0001d0 79 9c 52 be e4 7f 6b 3e b4 58 97 3e 59 9c 67 bd
       -0.20567502 0.22998005 0.29559863 -0.05654559
0001e0 4d f5 18 3d 57 1f 05 be 43 40 83 be f9 ae 72 be
       0.037343312 -0.13000236 -0.25634965 -0.2369956
0001f0 57 f0 1e bc c2 8f 36 be eb 95 78 be 3c 16 fb bd
       -0.009700856 -0.17828277 -0.24275939 -0.122601

layer2.weight f4 [128, 128]
000000 53 2d 54 bd 50 06 45 bd c1 4c 33 3c 45 b4 a5 bd
       -0.051801037 -0.048101723 0.0109435925 -0.08091024
000010 d7 17 a9 3d a8 31 19 bd 5b c1 1f bd f3 ea 57 bd
       0.082565 -0.03740087 -0.039002758 -0.0527143
000020 73 ce 8a bd df 3b 96 3c e6 f8 94 3d c8 af 19 bd
       -0.06777658 0.018339096 0.07274036 -0.037521154
000030 4e e8 3a bd 86 23 8a 3d 6d 6a 8b bd 1e f9 41 3d
       -0.0456317 0.06745057 -0.068074085 0.047356717
000040 a5 ff ce bd 67 63 98 bd 64 d1 6e bc 7e 23 8d bd
       -0.10107354 -0.074408345 -0.01457629 -0.06891535
000050 f9 ec a1 3d a1 c5 06 bd 04 cd d1 3c 2b 4d 0c bc
       0.07906527 -0.032903317 0.025610454 -0.00856332
000060 12 db 07 3d bb f9 b5 3d 3d 4d 1e bd 1c 81 59 bd
       0.033167906 0.08885523 -0.03864788 -0.053101644
000070 c2 9a a5 bd 77 1a bc 3d d4 53 88 3d 61 7a 45 3d
       -0.08086158 0.09184735 0.06656614 0.048212413
000080 24 53 08 bc 0c 50 82 3d 67 be 2f 3d 3a 4c 36 3d
       -0.0083206035 0.06362924 0.04290619 0.04450629
000090 42 7f 8e 3d b7 10 a3 39 a6 c3 97 3d 42 2b a9 3d
       0.06957866 0.00031102236 0.07410364 0.08260204
0000a0 27 a9 c2 b9 cd d8 5b bd db 11 92 bb 33 7d 8d 3d
       -0.00037128592 -0.053673554 -0.004457695 0.069086455
0000b0 dc b7 82 3d f7 2a 38 bd a0 ad d7 bc 66 52 1b 3d
       0.06382725 -0.04496285 -0.026327908 0.03792038
0000c0 ec 8f 1e 3d cf c9 a2 3d 05 41 3e 3d 26 6d 2e 3d
       0.038711473 0.07948648 0.046448726 0.04258456
0000d0 f5 74 37 ba 1a 49 80 bd f7 da 09 bd 7d e1 57 3d
       -0.0006998324 -0.06263943 -0.033656087 0.052705277
0000e0 a6 7d cc bd 4c df 5d bd 8b 11 72 3d 06 e8 2e 3d
       -0.09984903 -0.05416803 0.05909876 0.042701744
0000f0 9d a5 6d bd d1 45 d9 b9 99 fb 1c 3d fe 39 89 3d
       -0.05801927 -0.00041441483 0.03832588 0.06700514
000100 53 4f b4 3d d8 bf 78 bd ef 34 05 3d 4c 20 81 bd
       0.088041924 -0.06072983 0.032521185 -0.06304988
000110 1c ed 3a 3d 6e aa 81 bd b9 ab 18 bb 0f d9 37 3d
       0.04563628 -0.06331335 -0.0023295714 0.044884738
000120 71 97 53 3d f0 6a fc bc 42 81 6d bc 4b 18 d1 bc
       0.051658098 -0.03081271 -0.0144961495 -0.02552428
000130 5b 33 d2 bc 18 8d 42 bd 5e 25 99 3d 82 ed 68 3d
       -0.025659254 -0.04749784 0.0747783 0.05686713
000140 1b 97 7b 3d 47 be 51 bd ea a8 d2 3d cd 39 c6 ba
       0.061423402 -0.051206853 0.10286124 -0.0015123427
000150 00 3f 15 bc d8 ef c6 bc de 5f c7 3a 22 43 04 bd
       -0.009109259 -0.024284288 0.0015211066 -0.032290585
000160 6e 7d 92 3c a8 23 94 bd fc aa cc 3c dc fa ac bd
       0.017882075 -0.072333634 0.024983875 -0.08446285
000170 ca b0 1b bd d5 07 8c bd 9b 7e 8c 3d 56 20 b2 3d
       -0.038010396 -0.06837431 0.068600856 0.08697574
000180 15 76 47 bd 34 58 1d bd a5 7b be 3d d2 cd fb 3c
       -0.048696596 -0.038414195 0.09300927 0.030737791
000190 9e 15 96 3d fe 51 5b bd 04 63 2d 3c 10 27 4b 3d
       0.07328342 -0.05354499 0.010582689 0.0495978
0001a0 f1 28 56 bc db b9 b7 bc f8 9f 91 3d d0 7b 06 3d
       -0.013071285 -0.02242749 0.0711059 0.03283292
0001b0 92 ee 9b 3c b1 c4 47 bb ee 4a 33 bd ac 67 24 bd
       0.019034658 -0.0030482227 -0.04377263 -0.04013793
0001c0 28 77 f1 3d 55 b7 fd bc c3 ba a8 3d e2 b9 97 3d
       0.117903054 -0.030971209 0.08238747 0.07408501
0001d0 6b 3e 91 bd 68 2b ea 3b d1 4e 11 bd 44 19 8c bc
       -0.070919834 0.0071462877 -0.035475556 -0.017101891
0001e0 1a af ba 3d 20 82 22 3d 5a 54 64 bd b1 00 e4 bb
       0.09115429 0.039674878 -0.055744506 -0.0069580902
0001f0 f3 56 99 bd da 3f 72 bd c4 3e 45 3d 73 7d 24 bd
       -0.07487287 -0.059142925 0.04815556 -0.0401587
000200 00 2d 64 bc 8a 95 e5 3a 10 36 26 bb 8d 29 51 bc
       -0.013926744 0.001751588 -0.0025361814 -0.012766254
000210 ff cc 50 3d 35 0d 0d 3c cc 1b 7e 3d cb 72 83 bc
       0.05097675 0.008609106 0.062038228 -0.016045948
000220 21 0c 9a bc 3e 42 14 3d b8 27 97 3d 47 73 a1 3c
       -0.018804612 0.036195986 0.073806226 0.019708289
000230 ed 24 9f 3d 88 a6 b5 bc f6 2c 94 3c e7 28 a4 3d
       0.07770715 -0.022174135 0.018087845 0.08015614
000240 6a 5a 95 bd c4 08 aa 3c 91 7c c0 3d e8 94 f4 bc
       -0.07292636 0.020756133 0.09398759 -0.02985616
000250 9e 72 73 bc fc e0 1a bb 4f e0 eb 3c 9c b1 66 3d
       -0.01485887 -0.0023632636 0.028793482 0.056321725
000260 21 a8 88 3c b9 52 33 3d 6f f8 8b bd 4c b3 38 3d
       0.016681733 0.043780062 -0.06834494 0.045092866
000270 44 e3 93 bc 68 d2 59 3c 26 c0 6e bc 15 fa 6e bd
       -0.018052705 0.013294794 -0.014572179 -0.058343966
000280 e0 6c 42 3d 09 c2 59 3d eb e0 46 3b 60 5e 69 bc
       0.047467113 0.053163562 0.0030346464 -0.014243692
000290 a0 4f e0 3a 5a 2c 6c 3d 05 41 07 3c 0e e8 90 bd
       0.0017113574 0.057659484 0.008255248 -0.07075511
0002a0 21 3c 7f bd bd 3e 2a 3c f1 3a b6 bc 98 4f a8 3d
       -0.062313203 0.010390935 -0.022244902 0.08218306
0002b0 52 64 09 bd 68 8e ac 3d 42 8d b0 bd 11 dc af bd
       -0.03354294 0.08425599 -0.08620693 -0.08586896
0002c0 51 2f 2e bc 4e 72 82 bd 6a 85 e7 bc 58 65 5b 3a
       -0.010631398 -0.06369458 -0.028261859 0.00083692884
0002d0 4e a7 9c bd af 2c 99 3d c8 a4 f3 bc bc 15 d5 3d
       -0.07649098 0.07479226 -0.02974166 0.10404536
0002e0 21 63 a6 3c 93 13 57 bc 9e 33 7b bd 72 0c 99 bc
       0.02031094 -0.013127225 -0.061328523 -0.018682692
0002f0 ba 62 ad bc 80 cf c0 3d 9f 61 9e bd ee 23 c5 bc
       -0.02116524 0.094145775 -0.077334635 -0.024064984
000300 0b 2a 32 bd 98 a7 88 bd 27 22 34 bd e0 68 3a 3c
       -0.043497127 -0.06672591 -0.043977883 0.011377543
000310 ed b6 af 3c ac 5c a1 3c ae ce 7a 3d cc 9b 1c bd
       0.02144953 0.01969751 0.06123226 -0.038234517
000320 4a 15 51 bd d6 ce a2 bc 5d 68 ab 3d 31 29 10 bd
       -0.051045693 -0.019874018 0.08369515 -0.035195533
000330 60 1e a0 bd 38 1c 8d 3d 3f 0d c2 3c 79 de 9b 3c
       -0.078182936 0.06890148 0.023687957 0.019026982
000340 d1 f0 51 3d a2 03 92 3d 70 87 dd bc ef 7a 51 3d
       0.05125505 0.07129599 -0.02704212 0.05114263
000350 f2 2f a5 3d 42 a8 f8 bb 0d a5 5f 3d 4d a1 45 3c
       0.080657855 -0.0075884173 0.054600764 0.012062383
000360 a2 e4 89 3d 78 e5 24 bd af d0 f4 bc 6d 03 8b bd
       0.067330614 -0.0402579 -0.029884664 -0.06787763
000370 66 23 9f bd 2c 20 3e ba e5 9f a6 3d ac 8a b3 3d
       -0.077704236 -0.0007252719 0.08135966 0.08766684
000380 ec 57 7e 3c 9b d4 15 3c 51 85 f7 3c 72 c4 97 3d
       0.015523892 0.009144927 0.030214937 0.07410516
000390 25 ed 31 3d 4f 71 e1 bb f4 27 c0 3c 80 6e 49 3c
       0.04343905 -0.0068799625 0.023456551 0.012294412
0003a0 f0 8d 2e 3c 8e 36 47 bd c4 13 3b bd e4 5a e2 3d
       0.010653958 -0.04863601 -0.045673147 0.11052492
0003b0 67 b1 b9 3d 3f 4b 10 bd 96 e0 17 bd 40 68 d7 bc
       0.0906704 -0.03522801 -0.037079416 -0.026294827
0003c0 44 b9 dc bc 68 ee 5f 3d 94 f7 10 bd 7a 2f 53 3d
       -0.02694381 0.05467072 -0.03539236 0.05155895
0003d0 94 52 86 bd 69 e4 ce bd b7 d0 9a bd 3a b3 ba 3c
       -0.06558719 -0.101021595 -0.075593404 0.02279054
0003e0 3b a2 40 bc 5f 91 2e bd a0 8f 1b bd 28 30 2e bd
       -0.011757429 -0.042619105 -0.03797877 -0.042526394
0003f0 e3 76 66 bd 93 f8 6c bd 63 02 ed 3d 0f f8 3b bd
       -0.056265723 -0.057854246 0.11572721 -0.045890864

layer2.bias f4 [128]
000000 bb 5f 82 bd 62 28 cb bd b3 14 12 3d 98 bc 84 b9
       -0.063659154 -0.09919812 0.03566427 -0.00025317515
000010 ee 82 89 bd d6 97 c8 3d b4 66 68 bd dc f5 c5 3d
       -0.06714426 0.097945854 -0.05673857 0.096660346
000020 52 f9 7f bd 9a 9b ad 3d c0 40 1d 3d fb 70 7c 3d
       -0.06249363 0.08476944 0.03839183 0.061631184
000030 2f 1f 15 bb ce b3 dc bd 20 af 2d bc 0c d5 50 3c
       -0.0022754183 -0.107764825 -0.010600835 0.012746107
000040 20 98 23 bd 53 a7 bf ba 84 5a a1 bc 4a 6d f0 3d
       -0.03994 -0.001462201 -0.019696482 0.11739595
000050 a7 59 8a 3d 3e bf 5c 3c 88 12 98 bb ed f7 6c bd
       0.06755381 0.01347333 -0.004640881 -0.057853628
000060 d3 c9 a4 3d bd 2d 7f bc 89 f4 6e 3c 54 53 2e 3d
       0.080463074 -0.01557487 0.014584669 0.042559937
000070 26 76 80 bd b4 88 90 3d 59 d2 78 3d 47 0d b4 bd
       -0.06272535 0.07057324 0.06074748 -0.08791595
000080 4b f5 33 bc a2 7c 06 3d 36 32 1b 3d 70 61 3d bd
       -0.010983775 0.032833703 0.03788968 -0.0462355
000090 22 57 8e 3d d7 6b 65 3c 6d 1a 76 bd 7a 3f 92 bd
       0.06950213 0.014002762 -0.060083795 -0.071410134
0000a0 39 19 a1 bd 24 6c e6 3c ec ef 7a bd 73 c5 96 3c
       -0.07866139 0.028127737 -0.061263964 0.018404698
0000b0 78 ce 34 3d e0 0a 14 3d 70 8e 8a 3d ee c4 cc bc
       0.044142216 0.036143184 0.06765449 -0.024996247
0000c0 bc a2 94 3d 34 4b 2a 3c dc 26 c7 3d 9f d4 ce 3d
       0.072576016 0.010393906 0.09724209 0.10099148
0000d0 af f9 f6 3d bf 7d 87 3d 77 7d c9 3c b2 0d 77 bd
       0.12059342 0.06615781 0.02459596 -0.060315795
0000e0 c9 aa 21 3d 35 bb 9b bd ef ee a4 bb 7a 5e 14 3d
       0.039469514 -0.07604066 -0.005033366 0.036222912
0000f0 77 b8 01 bc d6 50 98 bb d0 a1 b3 bd 77 89 c0 3b
       -0.007917515 -0.0046483083 -0.08771098 0.005875762
000100 37 b7 1c bc 71 8c 81 bd c3 91 63 bc 7a ce 49 bc
       -0.009565166 -0.06325615 -0.013889733 -0.012317294
000110 58 9b 93 3c d2 fa a8 3d f8 96 0c 3b c3 23 40 bd
       0.01801841 0.08250965 0.002145229 -0.046909105
000120 30 27 8f 3d 1f 09 56 3d da 19 80 bc 83 32 31 bd
       0.06989896 0.052254792 -0.015637327 -0.043261062
000130 37 64 95 bd 0c cb 5e bd 8e b3 b0 bc ad d8 6b bd
       -0.07294505 -0.05439286 -0.021569993 -0.057579685
000140 56 d4 f9 3c ef e9 c9 bb 89 e9 94 3c ab 8e 8c bd
       0.030496757 -0.0061619203 0.018177764 -0.06863149
000150 49 a3 b9 bd 20 0c 61 bd 4a 5b 62 bd c9 54 d6 bd
       -0.09064347 -0.054943204 -0.05526284 -0.1046539
000160 52 48 06 bc d1 1b b2 bd 59 d7 b6 3d e9 69 af 3d
       -0.008195953 -0.08696712 0.08927793 0.08565123
000170 29 fe 82 39 de ec ad 3d 35 f0 7f 3d 0d 06 e1 3c
       0.00024984896 0.084924445 0.06248494 0.027468706
000180 aa 8d 98 bd fb b3 32 3d 83 5f 31 bc 52 c2 89 3a
       -0.07448895 0.043628674 -0.010825994 0.0010510182
000190 4a 86 3d 3d 03 a1 2f 3d 3f 06 7a 3c c2 82 f7 3d
       0.046270646 0.042878162 0.015260278 0.12085487
0001a0 b2 38 a8 3c 9f 8d ef 3d 64 57 09 3d 92 dd 05 3c
       0.020534847 0.11696934 0.033530608 0.008170502
0001b0 34 82 cc 3d 0a 15 d6 bd 37 bf f1 3c 17 b0 8c bd
       0.09985772 -0.10453232 0.029510124 -0.06869524
0001c0 ff ef b1 3d 73 2f ef 3b 11 36 20 bd 49 f5 19 3d
       0.08688354 0.0072993576 -0.03911406 0.037587438
0001d0 f2 9c a1 3d da b4 89 bd 5b d0 8f bd e1 78 1b 3d
       0.07891263 -0.06723948 -0.070221625 0.037957076
0001e0 ea ab 00 3c e1 29 9e bd 3b 9d d8 bc 5e cb 0a 3c
       0.0078534875 -0.077228315 -0.02644216 0.008471338
0001f0 48 db 8a bd d6 c0 82 bd aa ca cb bb a4 a2 33 bd
       -0.06780106 -0.06384437 -0.006219228 -0.043856278

layer3.weight f4 [128, 128]
000000 8d ce 15 bd c1 20 69 3d d2 27 26 bd 81 16 8c bc
       -0.036573935 0.056916002 -0.04056532 -0.017100574
000010 94 d2 83 bd 9f f8 49 bd f5 94 94 bd 5b 54 86 3d
       -0.06436649 -0.04930937 -0.07254974 0.06559058
000020 37 36 9d 3d 53 d4 6e 3d 21 a0 15 3d ef 28 76 3d
       0.07676356 0.058307957 0.036529664 0.06009763
000030 b2 30 8a bd 8b 84 3e bd fe bc b2 3d 7f 51 a4 3d
       -0.06747569 -0.04651312 0.08727454 0.08023357
000040 08 7d a5 3d 78 84 29 bc 97 e8 8d 3d 56 51 5d 3c
       0.080804884 -0.010346524 0.069291286 0.0135081615
000050 80 49 fa bc 8a ef 0f 3d 9a d7 83 bd f5 c2 b4 bd
       -0.030552626 0.03514055 -0.06437607 -0.088262476
000060 19 1d 31 bd 8e f2 e4 bc 58 c2 de 3c e8 bd 09 bd
       -0.04324064 -0.02794769 0.02719228 -0.033628374
000070 13 5c 2d bd 7f 96 bb 3c bf 29 05 3c cb ad 75 3c
       -0.042324137 0.02289891 0.008127629 0.014995049
000080 63 a0 5b 3d f2 2b 67 bd e5 ac a0 3c 37 ee 3d bd
       0.053619754 -0.056438394 0.019613693 -0.046369758
000090 af c4 51 bc 16 42 9a 3d 8f 05 06 3d 45 ae 23 3c
       -0.012803241 0.07532136 0.032720145 0.00999028
0000a0 71 f0 93 bd 40 7f 01 ba 29 c8 ae bc 1f 77 df bd
       -0.07223595 -0.0004939921 -0.021335678 -0.109113924
0000b0 8f d1 98 bd 46 fd ab bd c6 2b 01 3c 9a 9a 2b 3d
       -0.07461845 -0.083979174 0.007883972 0.041895486
0000c0 4c 16 52 bd 51 72 1c bd 5a b0 47 3d b5 4a 11 bd
       -0.051290795 -0.038194958 0.048752166 -0.035471637
0000d0 de 05 9f 3c 37 5f 1e 3d b3 09 30 bd a9 09 af 3d
       0.019411977 0.038665023 -0.042978 0.085467644
0000e0 93 ea c4 3b d7 18 24 3b f3 70 a0 3a 28 c0 a1 bd
       0.0060094087 0.002503922 0.0012240693 -0.07897979
0000f0 8d 1b 38 3d 62 53 98 bd fa 0f 8f 3d 41 7b 8e bd
       0.04494815 -0.07437779 0.06985469 -0.069571026
000100 05 76 21 bc d9 11 5d bd 25 a0 4b bd 37 70 fe 3b
       -0.009854798 -0.0539721 -0.049713273 0.007764842
000110 54 24 aa bd 2a 51 03 3d 58 9e 24 bd 80 23 75 bb
       -0.0830771 0.032059826 -0.04019007 -0.0037405193
000120 91 03 86 3d 3c 44 3a 3d fd fe d9 3c 86 bb 70 bc
       0.06543649 0.04547523 0.026610846 -0.014693147
000130 b2 5b 8f 3d 96 b9 c4 3c 96 57 8f bd 5e 91 65 bd
       0.06999911 0.024014276 -0.069991276 -0.056046836
000140 d7 4d 90 bd 8e 29 ff bc 32 e0 5d 3d 82 16 64 bd
       -0.07046097 -0.031147745 0.054168887 -0.055685528
000150 ab 53 0b 3d 38 ec 62 bd b0 e3 e3 3c 34 84 02 3d
       0.03401534 -0.055401057 0.02781853 0.03186436
000160 af 30 bf bc ae 0d 64 bb 4c 18 e4 3c bc 18 22 3d
       -0.023338644 -0.0034798193 0.027843617 0.03957437
000170 e7 8c e3 3b a9 61 1b bd 2b b6 18 3d 80 6a dc 3c
       0.006944287 -0.037934933 0.037283104 0.026906252
000180 c6 95 ab 3d 78 0b c1 3c e4 76 5b bd fa 84 04 bd
       0.083781764 0.023565039 -0.05358018 -0.03235338
000190 29 5e 18 3d 0c b6 7b 3c 6b 34 12 bd 79 8d 66 3c
       0.037199173 0.015363228 -0.03569452 0.014071816
0001a0 28 77 10 bd 67 0a cf 3d a5 b8 3e 3d fa 1c ea bc
       -0.035269886 0.10109406 0.04656281 -0.02857827
0001b0 10 07 35 3d 85 21 17 3d 3a 2e 73 bd f5 25 72 bd
       0.04419619 0.0368972 -0.059370257 -0.05911823
0001c0 b8 55 13 3d 9f 84 2b 3d 2d 1a 99 3d 8b fd 9b 3c
       0.03597042 0.041874524 0.07475696 0.019041797
0001d0 aa fa 33 3d c5 39 87 bc e4 89 c9 3d b2 87 78 bc
       0.043940224 -0.016507039 0.09840754 -0.015169071
0001e0 f0 8f 32 3c cd e4 24 3d e9 27 a9 bd b5 ec 24 bd
       0.010898575 0.040257264 -0.082595654 -0.040264804
0001f0 68 0b 7f bc 97 fb 24 3d a7 02 c7 ba 55 dc 4b 3c
       -0.015566684 0.040278997 -0.0015183286 0.012442668
000200 fb 8d 8d 3d 7c 3d 1f 3d ff 88 9c bc 1e 7a 08 3d
       0.06911846 0.038876995 -0.019108294 0.033319585
000210 44 8a 0a bd 12 7f ab bc 1a f1 c2 bd 0a 21 64 3d
       -0.033823267 -0.020934615 -0.09518643 0.05569557
000220 a5 cf 61 3d 78 4b b8 bb 39 58 b3 bd 93 80 32 bc
       0.055129666 -0.005624231 -0.087570615 -0.010894912
000230 a2 cb 8b bd 53 98 62 bd 70 2a ba bc 49 1d 21 3d
       -0.06825949 -0.05532105 -0.022725314 0.03933457
000240 4c 86 96 3d aa 59 9e bd 00 ba 57 bd e1 57 45 bd
       0.07349834 -0.07731946 -0.052667618 -0.04817951
000250 7b 05 00 3d 5a 4f 59 bc bb ec 13 3b a1 99 39 3c
       0.031255227 -0.013263548 0.0022571522 0.011328132
000260 40 f8 77 3b 8b d7 50 bd db 0c cf 3b 49 91 06 3d
       0.0037837178 -0.050986808 0.006318671 0.0328534
000270 dc f7 de 3b 05 ad 51 3d 13 05 84 3b a0 b6 84 bd
       0.0068044495 0.051190395 0.004028925 -0.064801455
000280 4c b9 9d 3d 76 6b 00 3d 5b 88 95 3d 1b d2 64 3a
       0.07701358 0.031352483 0.07301398 0.0008728818
000290 0f fe 2d 3d 5e 17 9b bc da 54 89 3b 17 9f 51 3d
       0.042478617 -0.01893204 0.0041910233 0.05117711
0002a0 ca 11 65 bd 0a 83 ad bd a3 8f 0a 3c a9 ab 6d 3d
       -0.055925168 -0.08472259 0.008457097 0.058025036
0002b0 cb d4 97 3d 42 91 91 bc 45 20 92 bb 95 2c 87 bd
       0.07413634 -0.01776946 -0.0044594132 -0.066003
0002c0 b7 87 b5 3d 76 dc 86 bc 01 ac de bc d3 dd 4d bd
       0.08863776 -0.016462546 -0.027181627 -0.050260376
0002d0 04 a6 b5 bc 8f 8a 88 3d de 7f 1a 3d fa 1c c1 bd
       -0.022173889 0.06667053 0.0377196 -0.09429355
0002e0 f3 e5 ed 3c 01 f4 d0 bc c2 5e 9c 3d 66 58 68 bd
       0.029040312 -0.025506975 0.07635261 -0.05672493
0002f0 ac e7 ef bb ce 13 38 3d 92 4d d9 bc 82 2c 82 bd
       -0.0073213186 0.044940762 -0.026526246 -0.063561454
000300 3e 6d ca bb af 41 05 3e 91 14 d0 bd bd 1f 19 3d
       -0.0061775735 0.13013338 -0.10160173 0.037383784
000310 2e 37 8d 3d 34 66 9b 3d bf 92 08 bc b6 64 78 bc
       0.0689529 0.07587853 -0.008335768 -0.01516073
000320 11 87 a5 bd da d1 cf 3d b2 00 6c ba 2c 1d 58 3b
       -0.080824025 0.10147448 -0.0009002789 0.0032976372
000330 2c 50 0b 3d fa 24 c3 bc e8 13 26 bc 44 b3 af 3c
       0.034012005 -0.023821343 -0.010136582 0.021447785
000340 81 f1 8e 3d a2 01 48 3d cc 09 bb bd b2 0f 2f bd
       0.06979657 0.048829682 -0.09132728 -0.042739578
000350 79 11 09 bc ef d3 0b 3d be 63 8f bd 48 60 39 bd
       -0.008365982 0.034137663 -0.07001446 -0.045257837
000360 ed d4 88 bd f4 33 9e bd a1 71 62 bb d0 c6 78 3d
       -0.06681237 -0.07724753 -0.0034552591 0.060736477
000370 06 9d bb 3c f5 68 66 bc e2 54 d5 3c fc d9 e7 bc
       0.022902023 -0.01406311 0.026041452 -0.028302185
000380 60 ce a8 3d 92 83 0b 3d 5b 3c 80 bd e5 36 fa bd
       0.08242488 0.034061022 -0.06261512 -0.122175016
000390 03 18 63 bd f7 f2 62 bd 9b a4 03 3c 93 47 4f bd
       -0.05544282 -0.05540749 0.0080348505 -0.050605368
0003a0 b7 4b 8b bd 34 53 b2 3b 15 5a 6c bd ce 56 40 bd
       -0.06801551 0.0054420475 -0.057703096 -0.046957783
0003b0 d4 92 38 3d f5 96 05 3c 4b 8a 92 bd e0 0b a8 bd
       0.0450619 0.008153667 -0.071552835 -0.0820539
0003c0 9e 13 ae 3d 03 4c 41 3c 31 96 3b bd 77 38 44 bb
       0.084998354 0.011797908 -0.04579753 -0.0029940882
0003d0 c4 c5 06 3d 60 f2 98 3d 82 6c ce bc f8 bd b7 bc
       0.032903448 0.07468104 -0.025198225 -0.022429451
0003e0 43 66 7e bd 54 d2 81 bd 3b 07 39 3d fb 43 04 bc
       -0.062109243 -0.06338945 0.04517291 -0.008072848
0003f0 00 0d d3 bc bb c9 85 3b 20 e3 04 3c 22 d7 7a 3d
       -0.025763035 0.004082886 0.008110791 0.061240323

layer3.bias f4 [128]
000000 11 d4 98 3d d8 3b d6 3b 5d 22 07 3d 2b 47 d3 bc
       0.074623235 0.0065378956 0.032991756 -0.025790771
000010 fc c8 e7 bc bb c1 cf 3d e1 71 4a 3c d2 c2 bb 3d
       -0.028294079 0.10144373 0.012356252 0.091680184
000020 74 55 a6 3c d0 ea 90 bd 34 bb 8d bd b2 3b 5f bc
       0.02030442 -0.07076037 -0.06920472 -0.013625072
000030 b5 74 0f bb bd 6e cb 3d fa 52 90 3a 22 78 9e bc
       -0.0021889631 0.09933231 0.0011011057 -0.019344393
000040 8c bb ce 3c ad 03 a5 bd ea 76 91 3d eb 52 97 bd
       0.025235914 -0.08057342 0.07102759 -0.07388862
000050 72 72 70 3c 7d e1 8d bd 61 d1 a5 3c 50 56 8f bd
       0.014675723 -0.06927774 0.020241441 -0.06998885
000060 9e 88 0a 3e ac ef 9c bd 29 64 60 bd d0 58 05 3e
       0.13528678 -0.07662901 -0.05478302 0.1302216
000070 d8 54 da 3c 36 81 e1 bd 55 10 88 3d 92 1c ff bb
       0.026651785 -0.11010973 0.0664374 -0.0077853883
000080 54 bf 8a bd ae 56 c4 bd 21 cd d4 bc b7 9c 44 3c
       -0.06774774 -0.09586845 -0.02597672 0.012000254
000090 6e 6b de bc 12 24 8f 3c 54 4f db 3c a4 69 81 3d
       -0.027150836 0.017473254 0.026771225 0.063189775
0000a0 29 29 24 3b 1b a0 83 bc a1 5c 74 bd a7 16 c1 3d
       0.0025048947 -0.016067555 -0.05965865 0.09428149
0000b0 eb 09 b3 bd c1 8c db bd 37 c9 83 3d 2c 79 81 3d
       -0.08742126 -0.10720206 0.06434863 0.0632194
0000c0 05 e0 65 3d 26 af 8d 3b 15 c1 1f 3d bf 1e 90 3c
       0.056121845 0.004323858 0.039002497 0.017592786
0000d0 50 e4 fb 3d 33 6d df bc c8 2e 15 3d 84 2e 73 bd
       0.122994065 -0.02727375 0.036421567 -0.059370533
0000e0 8b 75 81 3d e8 d2 67 bb 0e 94 5f 3d ca 4f be bd
       0.06321248 -0.0035373513 0.054584555 -0.09292562
0000f0 33 d8 2d bd c8 d6 e3 3d 8a 9d 9f 3d d6 50 37 bd
       -0.04244251 0.11124951 0.0779372 -0.044754826
000100 4e 79 0e bc 09 55 a4 3d 3d ee 8f 3d 6b 55 5f bd
       -0.0086959135 0.08024032 0.07027862 -0.05452482
000110 d0 d7 92 bd 80 b1 6c 3c 91 29 94 bc 53 9e 33 bd
       -0.07170069 0.014446616 -0.018086227 -0.04385216
000120 a9 ad 6f 3d 78 a5 7a 3d da 67 92 bc c4 0d d5 bc
       0.058515225 0.06119296 -0.017871786 -0.02600754
000130 40 5c ad 3d ae f0 5d 3d 79 10 ea 3c b3 9e 48 bd
       0.08464861 0.05418461 0.028572308 -0.048979472
000140 dd 21 4a 3c 79 4f b9 3c 5f a3 e8 3c f7 22 ff bc
       0.012337175 0.022620903 0.028398214 -0.031144602
000150 8a 3c a5 bd 25 2a cc 3c 8d 5b 05 3d 78 6f 89 bd
       -0.080681875 0.02492244 0.032558013 -0.06710714
000160 35 c7 e3 bb e7 83 3e 3d ed f5 b5 3d 19 c2 05 3d
       -0.0069512376 0.04651251 0.08884797 0.03265581
000170 0a 07 a3 bd 16 c6 61 3d 63 94 8e bd 0d d1 51 3b
       -0.07960327 0.05512055 -0.06961896 0.0032015473
000180 44 9f c4 3d 69 1c 03 bd 0e 57 9b 3d 22 69 51 bd
       0.0960069 -0.032009516 0.07584964 -0.051125653
000190 9c 96 87 bd 8e 5c 06 3e 29 aa 86 3d ea ef da bd
       -0.06620523 0.13121244 0.06575424 -0.10690291
0001a0 f7 7e e4 3d 78 91 89 3d 90 58 13 3e 7c 9b a7 bb
       0.11157029 0.06717199 0.14389253 -0.0051149707
0001b0 9a 23 ce 3c cf a1 11 bd a7 0f 09 3d 9e 54 9c bc
       0.02516346 -0.035554703 0.033462193 -0.019083317
0001c0 90 8a cd bd d4 ea b1 bd be cc 20 3d c9 b5 3e bc
       -0.10036194 -0.08687368 0.039257757 -0.011640021
0001d0 1f 19 a2 bd a1 e3 06 bd cb 2f 17 bd f9 fb 7d bd
       -0.07914948 -0.032931928 -0.036910813 -0.062007878
0001e0 99 4c 60 3d 6c c9 c9 3d e3 10 00 3d 10 18 62 bd
       0.05476055 0.09852871 0.031266104 -0.05519873
0001f0 16 27 94 bb ab 26 30 3d f0 4f 92 3b d9 bf 84 3d
       -0.004521261 0.043005627 0.0044650957 0.064819045

layer4.weight f4 [128, 128]
000000 1a ce 8f bd 01 97 b4 3d a9 ac 7d 3d 16 09 55 3d
       -0.07021733 0.08817864 0.06193224 0.05201062
000010 ac e2 8f 3c f2 4c 9e bd ef 72 9a bd 17 7e b3 bd
       0.01756414 -0.0772952 -0.07541453 -0.08764284
000020 8b 19 51 3c 09 7a 23 3d 10 ce 55 bd 80 58 b5 ba
       0.012762438 0.039911304 -0.05219847 -0.0013835579
000030 0d 45 18 bd f6 7c 32 3b 7a 31 08 bc 4f 0e 5b bd
       -0.037175227 0.0027235127 -0.008312577 -0.053480443
000040 40 72 0a 3d 20 fd 00 3c ab 28 cb 3b 4b d9 c9 3c
       0.033800364 0.00787285 0.0061999164 0.024639746
000050 b9 9a 3e 3c cc cf 18 bd 5a f6 bc bc 27 72 7b bd
       0.011633568 -0.037307546 -0.023066688 -0.06138816
000060 c0 0b 8f 3c 07 5c a3 3a 9f d4 75 3d f5 79 39 bd
       0.017461658 0.0012463339 0.060017224 -0.045282323
000070 55 e8 fd 3c 96 dd 89 3d 7c ca 60 bd a1 3a 65 3d
       0.030994574 0.06731717 -0.054880604 0.055964116
000080 55 a5 08 bc 7c 9f 14 bd 7c d4 05 bd 82 ef 23 bd
       -0.0083401995 -0.03628491 -0.032673344 -0.040023334
000090 53 ed 1c bd 05 a6 a7 3d 9b 89 62 bd 65 b2 d3 3c
       -0.038312268 0.081859626 -0.055307012 0.025841901
0000a0 97 ff 07 bd ac 22 c9 3c 7a 48 7e bd ea 56 a3 bd
       -0.033202734 0.024552666 -0.062080838 -0.07975562
0000b0 b9 43 a9 3d 27 bd 07 bd 7a ef 9e 3c 5a 08 59 3d
       0.0826487 -0.033139374 0.0194013 0.05298648
0000c0 87 c5 b0 3c 3f 44 0f 3c 00 fa 78 3c 5a cb 39 3c
       0.021578563 0.0087442985 0.015196323 0.011339987
0000d0 64 2d a0 bd 9f ed a3 bd 48 fe 39 3d 3b db 44 3d
       -0.078211576 -0.08004307 0.045408517 0.048060637
0000e0 2e fc 03 bd 85 38 3a bd 1e ff b0 3d 15 63 ce bc
       -0.03222292 -0.045464057 0.0864241 -0.02519373
0000f0 63 51 35 bd c1 f6 71 bc 97 43 35 bd 20 78 1d bb
       -0.04426707 -0.014768303 -0.04425391 -0.00240279
000100 a4 2c a8 bd 76 93 4d bd 76 26 f1 b9 e0 e9 36 3b
       -0.082116395 -0.050189458 -0.00045995758 0.0027910396
000110 90 ae c6 3c 96 c6 99 3d c2 69 66 bd 1c c3 ed 3c
       0.02425316 0.075085804 -0.056253202 0.0290237
000120 2c 5c 52 bd cf f5 80 bb cb d4 60 3b 0e 3f 9d bd
       -0.051357433 -0.0039355527 0.0034306522 -0.07678042
000130 e6 71 e6 3c db dd 0c bd 5b d1 a8 bd cc 37 b7 3b
       0.028130483 -0.034391265 -0.082430564 0.0055913683
000140 a7 65 b1 3c 56 b1 ea 3b 3a 20 ad bc a6 30 61 3d
       0.021654917 0.0071622534 -0.02113353 0.054978035
000150 69 32 14 3d d5 74 92 bd 0b 4c 78 3d 34 c0 8e bd
       0.036180887 -0.0715119 0.060619395 -0.069702536
000160 bc 06 9b 3d 62 d4 b0 bd 5f b8 7e 3d 16 09 1f 3d
       0.07569644 -0.08634259 0.06218755 0.038827024
000170 38 f3 8a bd b2 a6 62 3c a4 f5 56 3d a0 a3 1b bd
       -0.067846715 0.013833689 0.052480355 -0.03799784
000180 28 bb 9f 3d d5 f0 0d 3d 69 f7 5d bb 16 fe 3d 3d
       0.07799369 0.034653503 -0.0033869392 0.046384893
000190 73 11 d1 3c 42 43 ae 3d d8 af cc bb 35 f7 9c bd
       0.025521016 0.08508922 -0.006246548 -0.076643385
0001a0 36 f5 8b bd 61 3a 05 3c 17 e3 35 3d 82 25 9e bd
       -0.0683388 0.008131594 0.044406023 -0.07721998
0001b0 b3 a0 32 bb 96 53 15 3d 71 ae 9e bc fd a8 2f bd
       -0.0027256429 0.036456667 -0.01937029 -0.04288577
0001c0 76 05 06 3d 0e 21 b3 3c 93 ff 62 3d da 8d 86 bd
       0.03272005 0.021866348 0.055419516 -0.06570025
0001d0 e9 ba 21 bc d1 e9 96 bd 3a 03 e9 bc 73 35 60 3c
       -0.009871223 -0.07368816 -0.028443921 0.013684618
0001e0 86 37 9c bc 10 10 0c 3d 97 2d 6a 3d e5 81 b4 bd
       -0.019069444 0.034195006 0.057172384 -0.08813838
0001f0 23 4e 80 bd cf a1 b2 bd 9b 3f 70 bd 42 3d 2f 3c
       -0.062649034 -0.08722269 -0.05865441 0.010695757
000200 06 74 54 bd 00 78 e6 bd 55 24 41 3c 97 7e dc bd
       -0.05186846 -0.11253357 0.011788447 -0.107663326
000210 03 5d ec 3d 3a c6 10 3d 69 d0 dd bc c2 e2 31 3d
       0.11541178 0.035345294 -0.027076917 0.043429144
000220 58 78 1f 3e 95 1f b6 3d 97 46 46 bc 8f 2b 60 bd
       0.15573251 0.088927425 -0.012101791 -0.05472904
000230 0a c8 12 3e c0 a4 d2 bb fa c7 90 3d 71 f0 72 bd
       0.14334121 -0.006428331 0.070693925 -0.059311334
000240 38 3b 84 bd 90 b0 ed 3b 2b ef a0 3c 07 fd 0a 3e
       -0.064566076 0.007253714 0.019645294 0.13573085
000250 de 25 f3 3c ee db b1 3c bc c0 ea 3d 15 4d 09 3d
       0.029681142 0.021711316 0.114625424 0.033520777
000260 c9 8b 1d be fa 93 56 bd e6 00 2c bd c8 b6 8b bd
       -0.15385355 -0.052387215 -0.041993044 -0.06821972
000270 8d 9e 15 3e b9 89 ca 3d 26 81 38 bd 9f f8 ef bd
       0.14611264 0.0988955 -0.04504504 -0.117173426
000280 88 42 16 be 6d b3 2b bd 60 a0 db bc 51 1b ba 3d
       -0.14673817 -0.04191916 -0.026809871 0.090872414
000290 32 3a b3 bd b5 2b b4 bd cf 0e 18 3e 90 6f 91 bd
       -0.08751334 -0.08797399 0.14849399 -0.07101357
0002a0 80 cb 6c 3d f9 bf d5 3c 20 2c ba bb 08 5d d0 3d
       0.05781126 0.026092516 -0.0056815296 0.10173994
0002b0 d2 86 b2 3d f6 5c 11 bd f7 84 1d 3e 35 60 a9 bb
       0.08717121 -0.035489045 0.15382753 -0.0051689395
0002c0 a7 55 1f 3e d5 b3 ec bb 91 cb c4 bd fd f4 c7 3c
       0.15560018 -0.007223586 -0.0960914 0.024408812
0002d0 f7 b7 e4 bd 9a 39 9c bd 5d 4d 71 3d 72 52 c4 bc
       -0.11167901 -0.07628174 0.05891167 -0.023965094
0002e0 c8 4c 52 bd e6 d9 c6 3c f1 39 e5 bb 22 bc 08 be
       -0.051342756 0.024273824 -0.0069954325 -0.13353017
0002f0 57 df 72 3c 83 bf e7 bd 79 b0 35 3d 1d 12 e8 bc
       0.014823756 -0.11315825 0.04435775 -0.02832895
000300 08 41 de 3b 49 2c b2 3d d5 92 8f bd 3e 59 74 3b
       0.0067826547 0.08699853 -0.07010428 0.0037284638
000310 bf 70 76 3d 31 e6 24 3d 85 a4 27 3c 7a a6 a8 bd
       0.060166117 0.04025859 0.010232096 -0.08234878
000320 16 6c 57 3c 69 54 05 be cf 7b 0a 3d a8 0a 71 bb
       0.013148328 -0.13020481 0.03380948 -0.0036780033
000330 84 5c 32 bd 59 b1 80 bc e4 70 93 3d 28 d8 dd bd
       -0.04354526 -0.015709566 0.071992666 -0.10832244
000340 d9 8a c2 bc 83 62 e3 3d d9 60 bb bc da f0 8f 3d
       -0.023747848 0.11102774 -0.022873329 0.07028361
000350 88 3d fa 3d 8f 0d 1b be e4 91 13 3e aa af ca bc
       0.122187674 -0.15141891 0.14411122 -0.024741966
000360 8d b6 07 3e 28 68 01 3d bb ee 5c 3d f1 8f 86 bc
       0.13253231 0.03159347 0.05393861 -0.016426058
000370 a8 a4 1b bc 33 5c 57 bd db 81 15 be 46 08 4e bd
       -0.009499706 -0.052578162 -0.14600317 -0.05030086
000380 d6 34 ad 3d 89 8a 5a bd 55 14 29 3d 7e 6e a7 bc
       0.08457343 -0.053354774 0.041279156 -0.020438429
000390 99 93 50 3d 70 cb 5b bd 80 e9 97 3d 91 00 90 3c
       0.05092201 -0.05366081 0.074175835 0.017578395
0003a0 28 99 96 bd dd 30 90 bd 8b 5a b0 bc 9e ed 01 be
       -0.07353431 -0.0704057 -0.02152755 -0.126883
0003b0 c1 11 97 bd cb 68 e7 bd 0a 83 2f 3d 8f 93 54 3b
       -0.07376433 -0.112992845 0.042849578 0.0032436585
0003c0 d8 e2 4c 3d 53 ee 06 bd 26 e5 5b 3c 9b 4b f3 3d
       0.050021023 -0.032942127 0.013421332 0.11879655
0003d0 e3 23 5a bd ba 59 99 bd 5b 43 e4 3c d2 27 06 3e
       -0.05325688 -0.07487817 0.027864149 0.13101128
0003e0 b0 f9 82 3d 99 84 6f bd c0 f9 d9 bd 1a ec 8a 3d
       0.0639528 -0.058476064 -0.10643339 0.06783314
0003f0 86 3b 06 bd 84 bd e9 3b e1 38 e2 3c 34 43 9c 3c
       -0.03277161 0.0071331877 0.027615013 0.019075014

layer4.bias f4 [128]
000000 8c 4e 6c bd 2c f1 d6 3d d4 89 7a bd 2a fc 1b bb
       -0.057692096 0.10495219 -0.0611666 -0.0023801425
000010 72 68 d9 3c 66 c9 b7 ba 96 fb c4 3c fe 91 4d bd
       0.026539061 -0.0014021813 0.024045747 -0.050188057
000020 55 42 d7 bc a4 5d 54 3a a3 14 76 bd 29 1a 63 3d
       -0.026276747 0.0008101112 -0.060078274 0.05544487
000030 d0 73 4b bd 2a a6 bf 3d e8 79 24 3d 54 09 67 3d
       -0.049670994 0.09357865 0.04015532 0.05640538
000040 b4 0d b4 3d 5d 1a 84 bd 4f 16 8c 3d 21 68 a5 3c
       0.08791676 -0.06450341 0.068401925 0.020191254
000050 c3 27 83 bd fb 5c 00 bc 69 2f 21 3d 1c 59 35 bd
       -0.06404068 -0.007834668 0.039351854 -0.044274434
000060 04 e0 bf bd 69 48 07 be 2f 3a c4 bc f3 8c b0 bd
       -0.093688995 -0.13211216 -0.023953525 -0.08620634
000070 67 af da 3c ba 57 91 bd 77 46 9c bd 2c 36 38 bd
       0.026694966 -0.07096811 -0.076306276 -0.044973537
000080 6a 99 7e bc 3e a6 93 3d f9 bd 96 3d a5 11 df 3c
       -0.015539506 0.072094426 0.07360453 0.027230093
000090 c8 27 9e 3d a9 d0 07 be ff 5a a1 3c d2 5e a0 3d
       0.077224314 -0.13263191 0.01969671 0.078305855
0000a0 08 01 6d be f6 4d 01 bc 40 3a 47 bd 9e b5 5d 3d
       -0.23144925 -0.0078921225 -0.048639536 0.05412828
0000b0 be 61 c0 bc 4e 4a 09 3d e9 e4 c0 bc d8 6d 69 bd
       -0.023484107 0.033518128 -0.023546653 -0.05698952
0000c0 7f 71 bd 3d 6c 56 42 bd 5e f6 e8 3c 55 ae fa 3b
       0.09250163 -0.0474457 0.02843779 0.0076501765
0000d0 bd 0b e9 bb 89 ad 0e 3d 83 b4 56 bd 41 97 a2 bc
       -0.007111995 0.034833465 -0.052418243 -0.019847514
0000e0 37 7c a8 bd 09 db 20 bd 02 07 08 3d 08 44 82 3c
       -0.08226817 -0.03927139 0.03320981 0.01590158
0000f0 70 4a 26 3d 29 86 0c bd 99 d1 3f 3d 34 2f 9f bd
       0.040598333 -0.034307633 0.046830747 -0.07772675
000100 64 fd 29 3e fd d5 4c bd bf 69 76 3c f9 92 d5 ba
       0.16600567 -0.050008763 0.01503986 -0.0016294412
000110 e9 ff b2 3d 59 4b a6 3d 82 da 91 bd 81 d5 0e 3e
       0.08740217 0.0811984 -0.07121755 0.13948633
000120 da a8 70 3d b3 0e c2 bd 73 81 b5 bc 25 25 cc bc
       0.05875478 -0.0947546 -0.022156453 -0.024920056
000130 8d fd c2 3d 0c f1 7a 3d ad 5f 52 bd a2 f2 9d 3d
       0.09521017 0.061265036 -0.051360775 0.07712294
000140 24 63 5b bc 70 53 a1 bd 9e be d7 3d a6 0a 88 bc
       -0.013390336 -0.078772426 0.10534404 -0.01660664
000150 11 7b 3f 3d 00 36 0a 3b 8d dc c6 3d 40 0e 26 bd
       0.046748225 0.0021089315 0.097100355 -0.040540934
000160 f7 b5 da bc 0e 53 37 bd a6 7a 8e bd c9 7c 25 bd
       -0.026698096 -0.04475694 -0.06956987 -0.040402208
000170 2b d0 ad 3d 72 9c 73 bd 85 d0 43 3c 44 b5 a8 3d
       0.084869705 -0.05947537 0.01195157 0.08237699
000180 4d 39 ac 3d 55 33 0a bb f0 09 40 bd 14 a7 62 3d
       0.08409367 -0.0021087725 -0.046884477 0.05533512
000190 4e e6 07 3d b5 c9 17 3d b6 c8 c3 3d f0 16 96 bd
       0.03317862 0.037057597 0.09559767 -0.07328594
0001a0 85 f4 0e bb d8 3e 47 bc 3d c3 c0 bd d6 0f f1 3c
       -0.0021813225 -0.012160979 -0.09412239 0.029426496
0001b0 54 4b 8a 3d 56 49 96 3d c0 ae 02 bd b4 6e 3a bd
       0.06752649 0.073382065 -0.031904936 -0.04551573
0001c0 c8 ae 63 3b f9 93 77 3d c1 46 8b 3d 2f 42 85 bd
       0.003474163 0.060443852 0.068006046 -0.06506764
0001d0 31 0e 97 3c 79 f7 02 bc ec 0b b3 3c 08 f7 25 3d
       0.018439384 -0.007993572 0.02185627 0.04051879
0001e0 c6 eb a7 bc d0 0f dc 3d 65 91 8f 3d b7 5b b0 3b
       -0.020498168 0.107452035 0.07010154 0.005382027
0001f0 e1 11 bb 3d c2 8d 67 bc 61 c4 f5 3c 3f f0 87 3c
       0.091342695 -0.014132919 0.030000867 0.01659405

input_norm.weight f4 [8]
000000 6e 11 95 3f d1 fb 6d 3f 69 4c 69 3f 70 a8 7d 3f
       1.1645944 0.92962366 0.9113222 0.9908514
000010 91 56 44 3f e9 0b 79 3f ae 96 fe 3e 91 90 88 3f
       0.7669459 0.972838 0.49724334 1.0669118

input_norm.bias f4 [8]
000000 49 02 80 3e c2 dd fa 3d c0 5b 47 bd 71 2e 07 3f
       0.25001743 0.12249328 -0.048671484 0.5280524
000010 f5 30 0e 3e 0e 40 15 3d 28 7d ff 3d 5c 6f 60 3e
       0.13885863 0.03643804 0.124750435 0.2191748

input_norm.running_mean f4 [8]
000000 4c 68 74 40 1b ba db 3c 88 1d 06 c0 94 83 9d 40
       3.8188658 0.02682214 -2.0955524 4.922312
000010 5b 20 92 3b 82 95 00 3d 73 7c d8 3c c1 c5 a0 3e
       0.0044594235 0.03139258 0.02642653 0.31400874

input_norm.running_var f4 [8]
000000 f4 21 59 40 ad 66 3a 3b ac a3 00 40 98 c7 e1 40
       3.3926973 0.0028442547 2.0099897 7.0556145
000010 20 eb 03 3d 5e ac 13 3b 40 c6 10 3d 2f f8 5c 3e
       0.032206655 0.0022533159 0.035345316 0.2157905

norm.weight f4 [128]
000000 30 88 72 3f bb 39 bf 3f d6 1a 71 3f 79 cb 78 3f
       0.94739056 1.4939493 0.94181573 0.97185475
000010 44 88 73 3f 51 89 70 3f fe e1 6e 3f 0d 38 70 3f
       0.951298 0.9395953 0.93313587 0.93835527
000020 24 2c 7f 3f 68 fe 73 3f 2f cf 75 3f 0f c9 75 3f
       0.9967673 0.9531007 0.9601926 0.96009916
000030 35 07 78 3f 5e 8e 82 3f f3 c5 6f 3f 9e 5f 73 3f
       0.96886 1.0199697 0.9366142 0.95067775
000040 b8 08 76 3f d6 3a 73 3f b6 7c 6f 3f 23 97 74 3f
       0.96107054 0.9501165 0.9354967 0.95543116
000050 58 7d 71 3f 6f e8 72 3f 8e 9d 72 3f 1c 76 78 3f
       0.94331884 0.94885916 0.9477166 0.9705522
000060 e3 16 72 3f eb 21 83 3f 7c 50 71 3f 32 f7 6f 3f
       0.9456617 1.0244726 0.94263434 0.93736565
000070 c4 57 7d 3f 4f 32 75 3f bc e8 78 3f 11 d2 6c 3f
       0.98962045 0.9577989 0.97230124 0.92508036
000080 53 7f 72 3f ea c8 74 3f 6c 6f 81 3f 1f 2a 70 3f
       0.9472553 0.9561907 1.0112128 0.9381427
000090 40 e8 72 3f 3b f0 7a 3f 3b 2b 84 3f ee d2 77 3f
       0.94885635 0.9802281 1.0325693 0.9680623
0000a0 86 a0 8f 3f c1 03 72 3f 4f 73 71 3f 5b 2d 6e 3f
       1.1220863 0.9453698 0.9431657 0.93037957
0000b0 53 13 71 3f 98 b1 76 3f c5 59 81 3f 17 e6 7f 3f
       0.9417011 0.96364737 1.010552 0.99960464
0000c0 86 ae 7b 3f b8 8a 74 3f c4 5b 6e 3f 88 c1 7b 3f
       0.98313177 0.9552417 0.93108773 0.9834218
0000d0 08 52 79 3f 32 be 6d 3f c6 ef 74 3f 98 88 71 3f
       0.97390795 0.9286834 0.95678365 0.9434905
0000e0 26 25 70 3f 89 32 75 3f 94 d1 72 3f f8 19 73 3f
       0.93806684 0.95780236 0.9485104 0.949615
0000f0 fa d0 7a 3f 60 b9 79 3f 35 25 70 3f 99 3c 73 3f
       0.9797512 0.97548485 0.93806773 0.9501434
000100 a4 23 90 3f 35 79 6f 3f 2a d3 8a 3f 41 c4 76 3f
       1.1260877 0.9354432 1.0845692 0.9639321
000110 73 56 75 3f 1e bb 78 3f 05 9c 71 3f b2 68 8b 3f
       0.95835036 0.9716052 0.9437869 1.0891325
000120 48 af 76 3f ea 59 78 3f 32 34 6f 3f 66 30 76 3f
       0.9636121 0.970122 0.9343902 0.961676
000130 2d db 71 3f d6 78 7a 3f 0b ea 73 3f fd d8 78 3f
       0.9447506 0.9784063 0.95278996 0.972061
000140 fb 51 73 3f 67 51 6b 3f 01 41 6f 3f 5f 10 76 3f
       0.9504697 0.91921085 0.93458563 0.9611873
000150 0d a4 74 3f ef b4 77 3f 56 13 9d 3f ad 34 70 3f
       0.9556282 0.9676046 1.2271526 0.93830377
000160 0b bf 70 3f 61 46 77 3f 13 d8 6d 3f 0d 6d 73 3f
       0.9404151 0.96591765 0.9290783 0.95088273
000170 2c 48 79 3f 42 a5 68 3f cc 3c 7f 3f 7b ac 83 3f
       0.9737575 0.90877163 0.99702144 1.0287012
000180 5e 57 76 3f 33 63 77 3f f1 0f 72 3f b2 1b 80 3f
       0.9622706 0.9663574 0.94555575 1.0008452
000190 23 6c 75 3f 81 72 6d 3f 9f 3d 74 3f 93 a6 73 3f
       0.9586813 0.92752844 0.95406526 0.9517605
0001a0 58 4d 73 3f 0c 1f 78 3f 16 b4 73 3f 59 be 75 3f
       0.9503989 0.96922374 0.95196664 0.9599357
0001b0 a4 d2 75 3f 33 08 71 3f cd 94 6f 3f 78 46 6e 3f
       0.9602454 0.94153136 0.93586427 0.93076277
0001c0 a1 f6 75 3f c0 c1 6d 3f 9e 9d 70 3f c7 65 76 3f
       0.9607945 0.92873764 0.93990505 0.9624905
0001d0 45 ce 73 3f c9 45 6e 3f 70 52 7b 3f 3a 50 7e 3f
       0.9523662 0.93075234 0.98172665 0.99341166
0001e0 4a 05 6e 3f 91 90 93 3f f1 2c 70 3f e5 f8 7d 3f
       0.9297682 1.1528493 0.93818575 0.9920791
0001f0 9b 40 71 3f 92 ac 71 3f 29 1c 72 3f 3c c5 72 3f
       0.94239205 0.94403946 0.9457422 0.94832206

norm.bias f4 [128]
000000 36 05 2b 3e d4 d2 ef be ae e7 4e 3e 04 cf 2a 3e
       0.16701207 -0.46840537 0.20205566 0.16680533
000010 b9 6a ec bd cf ba 3e be 59 db 3a 3c 31 ce c2 bd
       -0.11543793 -0.1862595 0.011404836 -0.09511984
000020 f4 4f 04 bd 34 7d ed 3e 1c 39 6a be ef d9 53 3d
       -0.03230281 0.46384585 -0.22873348 0.05172151
000030 4b d9 44 be d5 30 f7 3e 52 05 83 3e 7e a8 53 be
       -0.19223516 0.48279443 0.25589997 -0.20669743
000040 b2 34 1a 3f af d5 62 bd 6a 27 cc 3c 90 01 56 3d
       0.60236657 -0.055379566 0.024921138 0.052247584
000050 c1 a4 64 3e d3 ae 01 3e a4 93 70 3e 90 51 99 be
       0.22328474 0.12664346 0.2349382 -0.2994504
000060 47 82 ae 3d cf eb 94 be 08 ce fa 3d 4c 75 21 be
       0.08520942 -0.29086158 0.122463286 -0.15767401
000070 4d 1b 01 be e1 58 34 be 45 c3 1c be b2 b1 2b 3e
       -0.1260807 -0.1761203 -0.15308864 0.16767004
000080 34 5e cb be c3 62 53 be 3f 4b c4 be a9 79 50 be
       -0.3972031 -0.20643143 -0.38338658 -0.2035891
000090 c5 0a 40 3d ce 1c 89 bd 10 42 9c 3e 3d 5a 3f 3e
       0.04688527 -0.06694947 0.30519152 0.18686767
0000a0 d5 ca f0 3d 1e 4a ba bd 00 30 c6 bd f2 a2 59 3d
       0.11757437 -0.09096168 -0.09677124 0.053133912
0000b0 be 70 82 bd a5 b8 e4 3c e1 4f e1 be bd c9 1e bf
       -0.0636916 0.027920077 -0.44006255 -0.6202658
0000c0 e8 9f 43 bc 70 13 d2 bd 10 08 6f 3d 8f 2b 9e 3d
       -0.01193998 -0.10257614 0.0583573 0.07723152
0000d0 f7 e2 f4 3e e4 76 06 bf 64 2e 8d 3d cb 4a a9 3d
       0.4782941 -0.5252516 0.06893614 0.08266219
0000e0 7d 9b dc 3d 3f a9 81 bd 35 d7 ab 3d 48 a3 a4 3d
       0.107718445 -0.06331109 0.08390657 0.08038956
0000f0 52 c6 b0 be 18 84 9a be c7 b7 00 be e2 88 ea bd
       -0.34526306 -0.30178905 -0.12570105 -0.114518896
000100 aa 9f 83 be b5 ca be be 6a b8 a4 3e b3 b5 a2 bd
       -0.25707752 -0.37264028 0.32171947 -0.079448126
000110 3a 4f 8e 3a 0d b7 29 be c2 b0 4c bc fd 3f 00 3e
       0.0010857352 -0.16573735 -0.012493314 0.1252441
000120 38 e0 1d 3e b6 f1 fa 3c a3 8e e4 3d 03 f9 22 3d
       0.15417564 0.030632835 0.11160018 0.039788257
000130 07 fa 5c be 60 0f b1 be da 67 13 bd 7c 0b cb be
       -0.21579753 -0.34582043 -0.035987712 -0.396572
000140 4b 30 4f 3e 84 f2 ea 3e 70 69 28 3d 40 ec 13 be
       0.20233266 0.4588815 0.041116178 -0.14445591
000150 51 15 71 3d 7d 42 89 be 05 64 ab 3e e1 e8 81 be
       0.05885822 -0.2680854 0.33474746 -0.25372985
000160 3a ba b8 be d8 30 aa 3e 69 fd 47 bd 5b c7 23 be
       -0.3607958 0.3324039 -0.048825655 -0.15994017
000170 e3 ec 9e be 14 7f cb 3e b5 07 ee 3e 56 b3 11 3e
       -0.31040105 0.3974539 0.46490255 0.14228567
000180 66 3d 24 bd 33 47 c2 3c 27 26 db bd 76 ab 49 be
       -0.040097617 0.023715591 -0.10700636 -0.19694313
000190 00 b9 0a be 3b f5 85 3d e6 39 cd 3e 74 36 2d be
       -0.13547134 0.065409146 0.40083236 -0.16915303
0001a0 72 53 46 3e aa b7 ed 3d 0d 2a 2e 3e 47 e6 b8 3e
       0.1936777 0.11607297 0.17008229 0.36113188
0001b0 4b 7d 9c 3d 8c 12 7d 3e 3c 57 69 3d 05 1e 51 3e
       0.07641085 0.24714106 0.05696796 0.20421608
0001c0 4e 62 06 be 84 4b 73 3e 83 1a e0 b9 1a 43 c9 be
       -0.13123438 0.23759276 -0.00042744362 -0.39309007
0001d0 2a 06 11 3d 71 ea f1 be 00 01 a3 3e cf 6f b3 3e
       0.03540627 -0.47249177 0.318367 0.3504624
0001e0 09 6c 8e 3e e9 d6 ec 3e 74 13 01 be d5 64 1f be
       0.278168 0.46257713 -0.12605077 -0.15565808
0001f0 b1 e7 97 bd 15 c2 6b 3e 57 9c 98 3e 57 92 9e bb
       -0.074172385 0.23023255 0.29806778 -0.0048392224
