final_models/our_model/agent_75_10k.pt (torch, 226913 bytes, 22 tensors)

layer1.weight f4 [128, 8]
00000000: b729 b63e 47d8 fabc ab76 0ebe cc6f 763e
00000010: e9f9 42be 3c61 783e 7963 acbd 2caa 623e
00000020: 665b 8f3c 6af4 cfbc 0046 acbc 2d4c 8cbb
00000030: 6346 efbb 406d 29bd facc ecbb 1178 87bd
00000040: 3bae 143d 6945 0e3d 4807 9c3e 1466 583e
00000050: 9c24 2abe 0df2 19be 3201 22be b8e8 2bbe
00000060: 6e92 32be 2653 28bc 3f80 613e 43af 3b3e
00000070: a651 d5be 7703 d33d a333 8a3d 09c1 b03e
00000080: 275e 113e 605d 94be b20d 9fbe 7714 8bbc
00000090: 49bd 893e 368d 05bd b16f 2f3e bf12 97be
000000a0: 7c45 a73e 472c b9bd 5461 863e 93cc d9bc
000000b0: c948 94be e0bf 613e b862 cdbd f639 b73b
000000c0: 5fff c2bd 93c4 4cbc 1533 e6bd 2bc0 7cbd
000000d0: 7cb5 87bc cf5a cdbd ee56 293e 1ded 093e
000000e0: afab 873d 5479 9dbe ba4b 293e c10c b33d
000000f0: 25eb dabe 4443 233e c782 e93d 37c7 bd3e
00000100: 626e 3abe 8c4d bf3c 0ec8 693c 0f27 36bd
00000110: f1bf b0be f476 b3be e9df 663e 4034 133d
00000120: fa2b 4e3e c0cb 6c3d d55b 6b3e d707 cc3d
00000130: 615e b63c e8e0 473d b73b 4bbe 851a e43d
00000140: 1c85 52be 2fca 41be 13d9 c93c 0f10 1ebe
00000150: bd38 553d b830 a8be b834 a0be d78d 913e
00000160: 56ef 38bd d1b6 c03d 11a3 353d 85ef e0bc
00000170: 4dd2 443d 9794 883d cbb0 8dbe 5f48 82bc
00000180: bf29 003d 5437 ef3d c073 b0bd 392b 953b
00000190: 4242 ce3e a867 4abc b9f6 1d3e 8054 893d
000001a0: 5394 7fbe 66ec bdbe ed53 e83e 1b9e fa3d
000001b0: ad92 233e d5f9 2ebd cad8 80bc 6ae2 653e
000001c0: 6630 e83d eba1 a93b ac32 a5bd 1004 9a3d
000001d0: c088 3b3d d88c b7bb 904d 823c 89c4 25be
000001e0: b1cf 2cbe 1789 993d 122b be3e 5256 59be
000001f0: 58c5 a03c 3713 9ebd 4428 ebbe 7423 f5bd
00000200: 032f 733d 743e fc3e 9a95 51be 6837 ae3e
00000210: b9aa c13e 690e 343e 29f5 b43e 525c 6f3e
00000220: c4ce f23e 194f 353e 9ac3 6dbe ab11 b6be
00000230: c7c1 1cbe e237 36bd 07fa 82be 0968 6b3d
00000240: c217 043d 00ee 9abc 733c c33d bff5 073e
00000250: ac19 f03d 6a90 0d3e cadb e1bc eefb 8d3e
00000260: 68df 32be a4fe 253d 94d5 f1be dda2 82be
00000270: ad42 4ebe cc04 28be e9b4 453e bb1b ddbc
00000280: 9b93 59be 3583 0a3e 9276 4b3e 42cb 993e
00000290: e55b 9fbe 386e cd3d 3e3b 23be de0d 1e3e
000002a0: f295 6dbe 1b91 abbe b06a 62be 77b0 473c
000002b0: a391 14bd 2139 a33d 2eaa 0c3f c49c b53e
000002c0: 0f12 563e f8f0 1b3e 5fb7 b6be b3dc 5b3e
000002d0: cd5a 1bbd f371 c5bd 4933 aebe 8e9f 27be
000002e0: 87de 05bf 301a aa3e fb60 81be 1a3b c1be
000002f0: 59f8 89bd 13b0 6dbe 0dd1 7f3d 0848 7fbd
00000300: 78c1 11be beb5 e7bd a38c b73e c017 75be
00000310: 47f6 9f3d 0aef fd3d adb1 853e 8d4d d6be
00000320: 6240 ad3c 8ff6 32be d727 5f3e d7b5 f4bd
00000330: b0cd 273e 3854 ebbd 9705 1fbc 4daf 523e
00000340: 8862 10bb ed72 ccbc 6963 eb3c 9f6a bf3d
00000350: 5b2b 55be 293b 733e 0cf4 be3e 2a45 d03e
00000360: d6c3 b73e 3721 70be 600e efbd 5425 7a3e
00000370: bbd9 1bbe 932a a33e d026 1abf 802c a1be
00000380: d026 3a3e 3b35 b7be acbf 24be fcbb 103e
00000390: f65a f23e 945b a73e 8f9e f43c 3906 ebbe
000003a0: cad0 8a3e 6e5f ad3b 07f1 bdbb 6749 0e3e
000003b0: 517c f7be dcf7 febb 1e22 393d 7cff e8be
000003c0: 6f61 12bf 2cc1 d7bd 6657 623d 0dbd 9b3b
000003d0: 66e0 5fbe 199f 6c3e 742c c0be ae1a 9dbc
000003e0: ea75 d0bd 5575 303e 7ef9 993e 513c 8f3c
000003f0: 6c0d 253d 0816 173e 069f 873c f1d4 e4bd
0.355787 -0.030620707 -0.13912456 0.24066085 -0.19040646 0.24255842 -0.084174104 0.22135228
0.017499637 -0.0253851 -0.021029472 -0.004281542 -0.007302092 -0.041363955 -0.0072265835 -0.06614698
0.03629897 0.034734163 0.30474305 0.2113269 -0.16615528 -0.15033741 -0.15820768 -0.16787994
-0.17438671 -0.01027373 0.22021578 0.18328576 -0.41663855 0.10303395 0.0674813 0.34522274
0.14196073 -0.2897749 -0.31065136 -0.016977532 0.26902226 -0.032605372 0.1713245 -0.2950649
0.326702 -0.09041648 0.2624613 -0.026586806 -0.2896178 0.22045851 -0.10028595 0.0055916263
-0.095213644 -0.012498039 -0.11240212 -0.061706703 -0.01656603 -0.10027086 0.16537067 0.13469358
0.06624543 -0.3075663 0.16532794 0.08742667 -0.42757526 0.15943629 0.11401897 0.3706605
-0.1820617 0.023352407 0.014268888 -0.044470843 -0.3452144 -0.35051692 0.22546352 0.0359385
0.20133963 0.0578115 0.2298425 0.09962433 0.0222618 0.04879847 -0.19846998 0.11137871
-0.2055859 -0.18924783 0.024639642 -0.15435813 0.052056063 -0.3284967 -0.3129022 0.28428528
-0.045150124 0.094098695 0.044344965 -0.027457962 0.04805212 0.06668966 -0.27673945 -0.01590365
0.031289812 0.11680475 -0.086158276 0.0045522717 0.40284926 -0.012353815 0.15426148 0.0670557
-0.24958925 -0.3709442 0.4537653 0.122371875 0.15973921 -0.042718727 -0.015728373 0.22449651
0.11337356 0.005176773 -0.080663055 0.07520306 0.04578471 -0.0056015067 0.015906125 -0.16188253
-0.16876103 0.07496851 0.37142235 -0.21224335 0.01962535 -0.07718509 -0.45929158 -0.11969653
0.059371006 0.49266398 -0.20467225 0.34026647 0.37825564 0.17583622 0.35343292 0.23375061
0.47423375 0.17705955 -0.23219147 -0.35560355 -0.15308295 -0.044486888 -0.2558138 0.057472263
0.03224922 -0.018912315 0.09533014 0.13277338 0.117236465 0.13824621 -0.027570624 0.2773127
-0.17468035 0.040526047 -0.4723326 -0.2551488 -0.20142622 -0.1640808 0.19307293 -0.026990762
-0.21247713 0.13526614 0.1986945 0.30037886 -0.31124797 0.10030788 -0.15940568 0.15434977
-0.23201731 -0.33509144 -0.2211101 0.012188069 -0.036271702 0.07969881 0.54947174 0.35471165
0.20905326 0.15228641 -0.35686776 0.21470909 -0.03792839 -0.09640875 -0.34023502 -0.16369459
-0.52292675 0.33223104 -0.25269303 -0.37740403 -0.06736822 -0.23211698 0.062455226 -0.062324554
-0.14233959 -0.113139614 0.35849485 -0.23934841 0.078106456 0.12399109 0.26112118 -0.41856042
0.021148864 -0.17476867 0.21792541 -0.11948746 0.16387057 -0.11490673 -0.009705923 0.20574684
-0.0022031385 -0.024957145 0.028733926 0.09346508 -0.2081732 0.23753037 0.37295568 0.40677768
0.35891598 -0.2345017 -0.11672664 0.24428302 -0.15219776 0.3186842 -0.60215473 -0.31479263
0.18178868 -0.357828 -0.16088742 0.1413421 0.47335023 0.32687056 0.029860763 -0.45903185
0.27112418 0.005290917 -0.005796555 0.13895188 -0.48337033 -0.007781012 0.045198552 -0.4550742
-0.5717992 -0.105348915 0.05525913 0.004752761 -0.21862945 0.23107566 -0.37533915 -0.01917776
-0.1017874 0.17232259 0.3007316 0.017484816 0.040296003 0.14754498 0.01655532 -0.11173428

layer1.bias f4 [128]
00000000: 8a38 41bd 33c9 e8bd 692b da3d a3bf 34be
00000010: 2ab8 a4be a2a6 6d3d 5726 a9be bb0e 1e3d
00000020: 9811 ac3e 9fa1 d63d 4c04 033e 7e26 873d
00000030: f789 2fbe af99 463d b173 e0bd af0f 023e
00000040: 5cb6 b3be ff90 303e aecc 2ebe 82ba 833e
00000050: b6ad 303e ff7f a33e ff7a 9d3d 72b9 6f3c
00000060: 673e eb3d 0835 00bc 3157 1cbe b175 81be
00000070: e933 563e 92bc 2b3e eb14 1d3e b0e7 dd3d
00000080: 802d a03d e0c5 77be bfaa babd d681 853e
00000090: 612a 913e 55de edbc 3ef8 abbe c947 65be
000000a0: ccf5 86be 6f9f 8cbe 2ba6 36be 917d 16be
000000b0: 7784 94be 76f4 18be 8c4d 903e 92ab 9a3e
000000c0: 86ad 38be 7030 97bc a7b2 f2be f521 94be
000000d0: 7870 b4bd 9757 e83e 58ea f23d fd6a 833d
000000e0: 5269 a93e 1982 cdbc 1e24 f53d 5f33 a73e
000000f0: 56cd 953e bfc7 8e3e a9e3 95be d6b7 12bf
00000100: aa09 c8bd 9d69 c03e 47c0 ec3d d846 3abc
00000110: 919d 7cbe 14f4 07be 0394 b83e 5dbb 9fbc
00000120: adef 98be 0974 5b3d 5f4b a2bb 26c4 f53d
00000130: 0296 b63d e733 af3d 297d 81be f5b8 bdbd
00000140: 8949 28bd 90da ba3e b746 8a3e e99a 6d3e
00000150: 7e78 a63e 48cb 623e e8b8 d1be dd48 323b
00000160: 0d9d f0bd 7f8c 6fbd 32d9 5d3d 8363 cb3e
00000170: 30b8 28be a295 8ebe ec18 89bd 70c7 0fbe
00000180: 2874 843e b692 723d ed28 873e 2911 133d
00000190: cc71 2fbe b47e b1bd 2905 8ebe ab0a 773d
000001a0: 29af 80be 5fdf e83d 9d1c 683e 7a5d 853e
000001b0: a29f dcbe 5abe 693e 7878 4fbe c436 0a3e
000001c0: d1b7 c83e 7b6e 853e 8cf1 59be de2d 663e
000001d0: b958 c7be b2c2 9c3e a949 c73e 249a 2dbe
000001e0: 0e26 15b9 305e aebd 0979 4dbe 2b70 e3be
000001f0: fc48 84bd b12c 4fbe 9a4c a3be 2a98 08be
-0.04717306 -0.11366501 0.10652811 -0.17651229 -0.32171756 0.05802024 -0.33037063 0.038588267
0.33607173 0.104800455 0.12794608 0.06599139 -0.17142473 0.048486408 -0.109595664 0.12701295
-0.35100067 0.17242812 -0.17070267 0.25728232 0.17253765 0.3193359 0.07689475 0.014631616
0.11486512 -0.007825144 -0.15267636 -0.25285104 0.2091824 0.16771153 0.15340011 0.108352065
0.078211784 -0.24196577 -0.091145985 0.2607562 0.28352645 -0.02903668 -0.3358783 -0.22390665
-0.26359403 -0.27465388 -0.17836826 -0.14696337 -0.29007313 -0.14937004 0.28184164 0.30209023
-0.18034944 -0.018455714 -0.47401926 -0.28932157 -0.08810514 0.45379326 0.11861104 0.06416891
0.33088166 -0.02508645 0.119697794 0.3265638 0.2925822 0.2788677 -0.29275253 -0.5731176
-0.09767468 0.37580577 0.115601115 -0.0113694295 -0.24669482 -0.13276702 0.36050424 -0.019498521
-0.29870358 0.053577457 -0.0049528326 0.12000303 0.089153305 0.085548215 -0.25290802 -0.092637934
-0.041085754 0.36494875 0.27007076 0.23203625 0.32513803 0.22147858 -0.40961385 0.0027204074
-0.11748705 -0.058483597 0.05416221 0.3972436 -0.16476512 -0.27848536 -0.066942066 -0.14040923
0.2586987 0.059221946 0.2639841 0.035905037 -0.17133254 -0.08666745 -0.27738312 0.06031291
-0.25133637 0.1137073 0.22667165 0.2604788 -0.4309054 0.2282652 -0.20260799 0.13497454
0.3920274 0.26060852 -0.21283549 0.22478434 -0.38934878 0.3061729 0.38923386 -0.16953331
-0.00014223924 -0.085140586 -0.20065702 -0.44421515 -0.06459233 -0.20231892 -0.3189438 -0.13339296

layer2.weight f4 [128, 128]
00000000: bc84 b0ba 4bfa 4dbd 651b 0c3d 6f29 c5bc
00000010: bf13 5a3d 2dcf 2ebc 47fe 1fbd eff9 99bb
00000020: 1aea 84bd c082 513c 6d92 993d d94e adbd
00000030: 0a57 16be 8b1b 9c3c ff87 ccbc 8497 c53d
00000040: 4c5b 69bd 8fb6 14be d2fc 103d bccd 94bd
00000050: af63 883d e25f 0c3d 5ed2 bd3b 5905 bdbb
00000060: 30c2 c13d 3a0c ab3d 4004 5d3d 2052 05bd
00000070: c5b9 89bd 3a6b aa3d 8229 16bd 1934 8d3d
00000080: 44d8 e9bc e16c 213d afe1 243d e19f b83c
00000090: eaab af3d 466b 073c 979c 0d3e 6189 12bc
000000a0: cc84 adbb 788c 12bd 9e49 343c 9a85 8f3d
000000b0: 88f0 ae3d 4503 a1bc 2647 81bd e8d1 1d3d
000000c0: f941 243d e5c5 ea3d 6685 733d 15e1 87bc
000000d0: 563a 3abc 6675 cfbd 8d18 6ebd 3311 873d
000000e0: 308b eebd 9502 87bd e67d 583d ffb0 d33d
000000f0: 328a 26be bbee 98bd 11f8 563d 2969 533d
00000100: c36c d23d 148d 8bbb 6cf5 9c3d e89c 7dbd
00000110: e7c3 d83c 0fa5 99bd 77f8 9fbc ff02 b63d
00000120: 6873 aa3d d3b6 063d 88de 843c 8454 23bd
00000130: 8e74 5dbd 6084 02bd 425e 003e 8824 813d
00000140: 294b 193d 265d cebc 0f2d af3d d080 91bd
00000150: 3f41 9abb ecb1 e5bd d2a9 f73b a9ef a839
00000160: 06ba 3d3d 0070 d3bd 8688 71bd 7b58 73bd
00000170: f0b2 52bd 152b 54bd 1b7e 623c e949 d33d
00000180: f6b0 5bbd 66f7 77bd 37e2 eb3d 097d 283d
00000190: 154e ce3d 748b 943b 5efe 5839 3723 be3d
000001a0: b91d 31bd d652 e2bc fc86 103e 8af6 273d
000001b0: eb08 ce3c 9965 0dbd 00a1 4abd 91e2 f6bc
000001c0: e563 bb3d c262 443d 8215 3a3d 3b4d 933c
000001d0: e909 98bd 8058 143d 4573 29bc 328b 7e3c
000001e0: a283 ff3d d277 553d 88c0 6dbc 0299 953b
000001f0: 7f21 c8bd fd64 1ebd e814 063d f406 6cbd
00000200: 71ce 9bbb c538 9e3a 7927 3d3b 30a5 43bc
00000210: e91d 093d b484 e23b ddec 783d 343b 613c
00000220: d164 d4ba debe bf3a 3689 a43d e3b9 853c
00000230: 9226 553d ffa0 333b 129c eabb b372 b33d
00000240: fd29 bbbd dd88 9b3b 3608 8c3d 1e01 88bd
00000250: 5859 0bbd 4b2f e6bc 011d cf3b d882 073d
00000260: acde 2a3d 9481 2a3d 4317 3cbd 8d64 1b3d
00000270: 85ba 2abd f90e 453d 3122 68bd 2782 97bd
00000280: 75cd 653b 1817 793d 1e61 a5bb 84c4 f2bb
00000290: 622c 863c 537b 3b3d eb8b 15bc fff0 cdbd
000002a0: a4b9 8abd 8fbf 763c 8265 41bc 177e 9b3d
000002b0: 8914 02bd c8d3 c73d 323a a8bd 4b23 b7bd
000002c0: 120f 2fbc f54c 37bd 5742 3cbd 997b 8d3b
000002d0: 3586 f7bd e09c 9a3d cb4c 39bd 0d4d 473d
000002e0: 40fc 1b3d ee48 fd3b e77e 96bd a8f5 13bc
000002f0: 988d 69bd 078d b03d 296f 8dbd c4fe 31bd
00000300: 5aea 96bd 82a1 4bbd f3f5 19bd 846f 3bbc
00000310: cd12 8c3b 7c66 b6bb c484 803d 4c2f 35bd
00000320: 6ec4 7bbd 5f8a 22bd f06b 993d 3d48 eebc
00000330: ee19 adbd 5779 4f3d 7771 813c 2d5c a73c
00000340: baf3 18bb a052 733d 10c4 94bd 956e 813d
00000350: 9846 793d 172c 63bc e904 4e3d 05a6 353d
00000360: 6813 5e3d f9ad c5bc f4f4 8fbd 8972 b0bd
00000370: 114d 8fbd c87f 0bbc 46d9 5d3d d379 d03d
00000380: 34f9 4b3d 4491 49b9 e04d a53c cf64 583d
00000390: 1653 233d fa9c 8c3c 2aa3 28bd 3c55 973c
000003a0: dda1 6d3c aa2e 65bd 72c8 3bbd 2f79 c63d
000003b0: 9554 803d c3cd ebbc d253 eabc 03c1 8dbd
000003c0: 6a9b a9bc 628c bb3d 3163 b9bd 0e92 143d
000003d0: 1742 aebd 4713 81bd 3f0f 1ebd 6360 cfbb
000003e0: 3b47 07bc e7ee 57bd aacc 32bd 4064 85bd
000003f0: f137 b7bd dc16 4fbd 72eb 863d 3dfe 2cbd
-0.0013467292 -0.050287526 0.034205813 -0.024067609 0.053241488 -0.010669512 -0.039060857 -0.004698984
-0.06489964 0.012787521 0.074986316 -0.084623046 -0.1468164 0.019056102 -0.024967192 0.0964804
-0.056971833 -0.14522766 0.03539736 -0.07265803 0.06659638 0.03427113 0.0057929 -0.0057684598
0.094608665 0.083519414 0.05395913 -0.032549024 -0.06724886 0.08321233 -0.03666068 0.068947025
-0.028545506 0.039410476 0.04025429 0.022537174 0.08577712 0.008265322 0.13829266 -0.0089438865
-0.0052953716 -0.035778493 0.01100388 0.07007904 0.085419714 -0.01965488 -0.063123986 0.03853026
0.04010198 0.11463527 0.05945339 -0.01658682 -0.011366447 -0.10129814 -0.058128882 0.06595077
-0.11647642 -0.06592289 0.05285444 0.10336494 -0.16263655 -0.07467409 0.05248267 0.05161396
0.10274651 -0.004258761 0.07663998 -0.061917216 0.026460601 -0.075021856 -0.019527657 0.0888729
0.08322793 0.0328892 0.016219392 -0.039875522 -0.054066233 -0.031864524 0.12535957 0.06305796
0.037425194 -0.025190901 0.08553516 -0.07104647 -0.004707485 -0.112155765 0.007558086 0.00032222018
0.046319984 -0.10324097 -0.05896809 -0.059410553 -0.05144018 -0.0517989 0.013824011 0.103168316
-0.05363556 -0.060538672 0.115177564 0.041134868 0.10073487 0.0045332257 0.00020694124 0.092840604
-0.043241236 -0.02762739 0.14113992 0.041006602 0.025150737 -0.03452072 -0.049469948 -0.030137332
0.09149913 0.047945745 0.045430668 0.017981162 -0.07423765 0.036217213 -0.010342424 0.015536116
0.12476279 0.052116223 -0.014511235 0.004565359 -0.09772014 -0.03867053 0.03273478 -0.05762382
-0.0047548343 0.0012071362 0.002886264 -0.011941239 0.03347579 0.006912792 0.060772765 0.013747025
-0.0016204362 0.0014629026 0.080339834 0.01632399 0.052038737 0.0027409194 -0.0071597183 0.087621115
-0.09138868 0.00474654 0.068375036 -0.06640838 -0.03402075 -0.028098723 0.006320596 0.033083767
0.041716263 0.04162748 -0.04592062 0.03793769 -0.041681785 0.048109982 -0.056673232 -0.073978715
0.003506509 0.06081304 -0.0050469777 -0.0074086804 0.016378585 0.045771908 -0.009127597 -0.10055732
-0.067736894 0.01506032 -0.0118039865 0.07592409 -0.031757865 0.09757191 -0.08214225 -0.089422785
-0.010684745 -0.044751126 -0.045961704 0.0043177125 -0.12086145 0.07549453 -0.04523925 0.048657466
0.03808236 0.007729641 -0.073484235 -0.009030737 -0.0570198 0.08620649 -0.06905968 -0.043455854
-0.07368918 -0.049714573 -0.03758807 -0.011440162 0.004274702 -0.0055664163 0.06275323 -0.04423456
-0.061466627 -0.039682742 0.074912906 -0.02908718 -0.08452211 0.050652828 0.015801175 0.020429695
-0.0023338632 0.05940497 -0.072639585 0.0631992 0.06085834 -0.013865492 0.05029765 0.04434778
0.054217726 -0.024130808 -0.07029143 -0.08615596 -0.06997121 -0.008514352 0.054162286 0.10179486
0.049798205 -0.0001922297 0.020178735 0.052830514 0.03987416 0.017164696 -0.04117123 0.01847326
0.014503923 -0.055952705 -0.045845456 0.09691083 0.06266133 -0.028784638 -0.028604422 -0.0692158
-0.02070399 0.09157635 -0.090521224 0.0362721 -0.085086994 -0.06302505 -0.03858876 -0.006328629
-0.008256729 -0.05271807 -0.043652214 -0.06513262 -0.08946217 -0.05055891 0.065878764 -0.042234648

layer2.bias f4 [128]
00000000: 1a3e aebd ef04 a3bd 6d28 d23d e5d1 cbbc
00000010: 669a 29be ac86 263d ec20 2c3d 226d f03d
00000020: 0a6e bcbc 5daa eb3c d060 133d c21f e23d
00000030: eea2 533d 2780 5fbe 96ad bf3d de8c 9bbd
00000040: 16c0 8fbd eb4a c437 b69a 643d 9cbd ad3d
00000050: ed2c 983d aad2 d3bc 0fd9 a33d 0d35 dabc
00000060: baff b43d cf97 09be 802d c53d 2958 16bd
00000070: 072e 0d3d a290 063e 448b 973d 5a1a c9bd
00000080: 741c aabd 699e 603d fcfb 02bc 9a3c 67bc
00000090: 2188 ac3d bbc2 b03d 8f89 95bc dff0 24bd
000000a0: 5eb9 eebd efd4 aa3d f2fb a23d 14cb 363d
000000b0: 50d7 e83c 8f1c 2d3d c623 923d a4ab a4bd
000000c0: 12f3 413e 8722 ba3d afe4 473c 8974 063d
000000d0: 0538 9d3d 2f9d 403d f025 8dbd a216 81bd
000000e0: caaf c33c 7ee7 b7bd 0b17 223b b31f db3d
000000f0: 0644 823c 64d5 9dbd 49f8 bdbd b3a2 143d
00000100: bcb0 cd3c 8112 3abe 94b1 b83d 6c50 04be
00000110: e7c4 ae3c 3c10 983c 6499 87bc db5b 97bd
00000120: 1f16 2f3e 7432 053d 4b01 96bc c3ec 4bbd
00000130: 74eb 4dbd dad5 a8bd 0a66 1abd fd92 bbbc
00000140: 64c3 58bc a677 76bd 5a00 2c3e a865 283c
00000150: da0e 27be 819f b6bd f51d b2bd 6f98 6dbd
00000160: df86 da3c 6bd8 9bbb 237c f93d 0fcd bcbc
00000170: 2226 293d 66e7 123d cf6f f93d ddd9 5f3c
00000180: 7ca7 9cbd b837 953c 7d74 94bd d8dc 813c
00000190: f468 9c3d e4b6 433d 411a 4ebd 2441 b73d
000001a0: 8b1d 0e3e 8665 e63c f6b2 643d 6f61 3d3d
000001b0: b9c3 a33d eba8 d1bd 43b5 23bc d14b a3bd
000001c0: 3819 ad3d 389b ff3c 2535 81bc 9e2a 403d
000001d0: e9f5 9b3d acc9 e93c ad37 cbbd 5301 c93c
000001e0: 394d aa3d c210 42bd 95fa d0bc e522 c83c
000001f0: b069 37be 0df6 39be 2102 553c c543 dabc
-0.08507939 -0.079599254 0.10261617 -0.024880359 -0.16562805 0.040655777 0.042023584 0.117395654
-0.02300169 0.028767759 0.035981 0.110412136 0.051669054 -0.2182623 0.09359281 -0.07595228
-0.07019059 2.3399907e-05 0.055811606 0.08483431 0.07430444 -0.025857288 0.08000385 -0.026636625
0.088378385 -0.13436817 0.09627819 -0.03670517 0.034467723 0.1314111 0.0739961 -0.09819479
-0.08306208 0.05483857 -0.007994648 -0.01411357 0.08424402 0.08630892 -0.01825407 -0.040268775
-0.1165645 0.08341395 0.07958211 0.044627264 0.028422982 0.042263564 0.071357295 -0.0804055
0.1894038 0.09088617 0.0122005185 0.03282598 0.076767005 0.047024902 -0.06892002 -0.06303145
0.023887534 -0.089797005 0.0024732973 0.106994055 0.015901577 -0.07706717 -0.09275872 0.036287975
0.025108688 -0.18171121 0.09018245 -0.12921304 0.021334125 0.018562429 -0.016552635 -0.07390567
0.17098282 0.03251882 -0.018311163 -0.04978634 -0.050273374 -0.08243914 -0.03769497 -0.022897238
-0.0132301785 -0.0601727 0.16797009 0.010278143 -0.16314259 -0.08917142 -0.0869712 -0.0580067
0.02667564 -0.0047560236 0.1218188 -0.023046998 0.041296132 0.03586521 0.12179529 0.0136627825
-0.076491326 0.018215045 -0.07248781 0.015852377 0.07637206 0.04778184 -0.050318006 0.089479715
0.13878457 0.028124582 0.055834733 0.046235498 0.079963155 -0.10237297 -0.009991947 -0.07973445
0.08452076 0.031201944 -0.015772412 0.046915643 0.07615263 0.028538547 -0.09922729 0.024536764
0.0831551 -0.047379263 -0.025510112 0.024430702 -0.1791141 -0.18160267 0.013000996 -0.026643643

layer3.weight f4 [128, 128]
00000000: a41c 27bd d092 8b3d 2076 25bd 185e 4a3c
00000010: 8975 22bd 9360 95bd 8698 2cbd 80f0 873d
00000020: 866a 433d 191f 273d b900 293d 8a7e 413d
00000030: 2bcb b8bd 66d1 34bd 6e59 9b3d a8c6 c23d
00000040: 964a 7d3d e34a 49bb 22a8 b53d ca14 af3d
00000050: dcd4 9abc c318 3d3d c4ef afbd 4bc7 d1bd
00000060: f1bf 35bd e3f2 5fbc def0 873c 5f52 7cbd
00000070: 288c 1fbd 511e 5f3c 2fe6 213d a5f5 343b
00000080: 2677 873d c2bc 20bd 5ab7 2ebb b5be bbbd
00000090: 1385 9bbc 1813 4d3d 6b59 653d 57c9 1d3d
000000a0: 11a7 4cbd b562 a73c 2051 56bd 8749 d1bd
000000b0: bc05 bdbd 1e4c 82bd cc47 273d 85e0 1a3d
000000c0: c9a8 1cbe 9c0d 2abd bc89 193d 8c42 84bd
000000d0: 5ccb 063d e7ea 513d e692 d8ba 4f07 e03d
000000e0: af98 233c 0de7 c73a be19 d13b 9cbd a1bd
000000f0: 9251 853d 1bf4 71bd 2c35 8a3d 0e6a 88bd
00000100: 9694 2ebc ec88 18be 8945 cdbb bad8 9fbc
00000110: 99e2 d2bd 8687 283d ccd3 41bd ebeb d0bc
00000120: e26a fb3d 94c3 003d e853 593c 4a80 c7bc
00000130: 1d80 953d 07ca 063d 9ad3 5fbd 861f aabd
00000140: f521 b7bd 4997 15bd 618f 6a3b ebd6 3cbd
00000150: 74fa 0f3d 1ff6 65bd 6999 8c3d e892 813d
00000160: 00a0 fabc ee49 c2bc aea3 ce3c b528 e63c
00000170: ce90 633a 345c 32bd 76e4 d43c 466c 553d
00000180: aa08 b33d 5dbe e13c bd61 7cbd 31ac bcbc
00000190: b936 433d fd43 3d3c 9ac1 3dbd 2166 193c
000001a0: 57b9 46bd e3f8 8e3d e294 083d 9780 57bd
000001b0: 1e0e 293d 7e7e be3b 6f41 51bd 8492 b2bd
000001c0: 1b8b 9b3c b555 123c e7d4 7d3d 3b12 a23c
000001d0: 8747 eb3c 99ac 3fbd 491d fa3d 27b0 353c
000001e0: 165c 8c3d 4186 fb3b f467 c4bd 67dc 15bd
000001f0: cbd3 543d e51e 793d 4fea fd3c bd92 513c
00000200: c504 043e 02c6 3a3d 6886 1cbd 2088 7f3c
00000210: f175 87bc 2e2f f33b 6400 f8bd 9a17 b43d
00000220: 5fe0 6b3d b4a0 2fbc 57fb afbd 759f abbc
00000230: df45 a3bd 68bc 91bd 04b7 bdbc d2da 293d
00000240: 5539 cd3d bec7 cebd 026d 9ebd 5bf4 f6bc
00000250: c170 d9bc 63c7 2cbc a987 ebbc 35a5 fd3b
00000260: 0fa4 9b3a ad84 e3bd 0067 193d d461 263d
00000270: 775d 463c 95d4 b83c 26b7 803d 1852 6cbd
00000280: 8a14 b23d 62a5 453d 9dff 963d 43d8 873c
00000290: 7fd8 913d 1f25 0fbc 2bd6 08bd c54d 873d
000002a0: b461 abbd 38f9 7dbd 8953 c53c da2d f53d
000002b0: ef5b 2d3d 1945 ffbc 18e3 0dbd 5d7a 8ebd
000002c0: bccb 113e 280f 97bd caa7 1cbd 797e aabd
000002d0: be10 6cbc 883b b63d 0503 193d 2757 91bd
000002e0: 81cf 5f3c 4a60 18bd f80a 873d 3cb8 9ebc
000002f0: 0c57 4bbd 7e0d 0b3d 91a1 f3bc 32e6 debd
00000300: 00da 253d 17e0 d43d 0d7b d2bd a97d 043d
00000310: b064 dd3d 0233 b43d 4899 573d 815d 93ba
00000320: 0bf3 94bd c0c8 843d 9bb1 823c a1c2 33bc
00000330: abd5 893d 31cf 1cbd d1fd 43bc 6029 353d
00000340: c444 823d df6a 4e3d 7f68 88bd e2b7 e2bc
00000350: 8046 133c d68e 613c 3185 a3bd c9a6 32bb
00000360: ed0b efbc 04e1 04be 6683 cb3c 9fb6 ac3d
00000370: 2c94 7d3d 7571 88bd d238 8f3c 6fd2 cfbd
00000380: 2740 b73d ee53 6c3d 453a dcbd ddf4 1ebe
00000390: ea9c b1bd 4730 9dbd 53fd 80ba c9a5 d6bd
000003a0: 0c33 9ebd 9aaf d2bc 3fb7 3ebd 2aaf 93bb
000003b0: 83b2 c33d 4c14 48bd 7ea5 5cbd 0a07 80bd
000003c0: e081 a43d e46c a8bb adcf f1bc 28f9 d6bb
000003d0: 47e0 803c 1a8e 7d3d c1ba 89bc b6cd d1bc
000003e0: d684 89bd 8c9a 9bbd 33cc e13b 32a6 cebc
000003f0: 9690 d8bc f4ce f43c af40 24bc 48d8 883d
-0.0407988 0.06815112 -0.040395856 0.012351535 -0.03966287 -0.07293811 -0.042137645 0.066376686
0.04770901 0.04080114 0.041260455 0.047239818 -0.09023126 -0.04414501 0.07585417 0.09510547
0.06183871 -0.0030714802 0.088699594 0.08548887 -0.018900327 0.046166193 -0.085906535 -0.1024309
-0.044372503 -0.013668749 0.016594347 -0.061601993 -0.038952023 0.013618068 0.03952616 0.0027612236
0.06614523 -0.039242513 -0.002665958 -0.09167234 -0.018984353 0.050067037 0.05599348 0.03852209
-0.049964014 0.02043281 -0.05232346 -0.10219102 -0.09229609 -0.063621745 0.040839955 0.037811775
-0.15298761 -0.041516885 0.03748487 -0.06458005 0.032908782 0.05124941 -0.0016523271 0.10938894
0.009985133 0.0015251354 0.0063812425 -0.07897493 0.06509699 -0.059070688 0.06748423 -0.06660853
-0.010655543 -0.14895982 -0.0062643928 -0.019512523 -0.10297126 0.04114487 -0.047321126 -0.02550312
0.12276246 0.031436518 0.013264634 -0.024353165 0.07299826 0.032907512 -0.05464516 -0.08306794
-0.08942024 -0.03652123 0.0035791027 -0.0461034 0.03515096 -0.056142922 0.06865198 0.06326848
-0.030593872 -0.023716893 0.025224533 0.028095583 0.00086809404 -0.043544963 0.025987845 0.05210521
0.08741887 0.027556593 -0.061616648 -0.023031326 0.04765961 0.011551854 -0.04632721 0.009362728
-0.048516598 0.06981065 0.03334511 -0.052612867 0.04127323 0.005813419 -0.051087793 -0.08719352
0.01898723 0.008931567 0.061970618 0.019784084 0.02872063 -0.04679546 0.12212617 0.011089361
0.068535015 0.0076759164 -0.0959014 -0.036587145 0.051959794 0.06082048 0.030995516 0.012791333
0.12892444 0.04559899 -0.038214117 0.01559642 -0.016535731 0.0074213957 -0.121094495 0.08793564
0.057587024 -0.010719467 -0.08592861 -0.020950058 -0.07972311 -0.07116014 -0.023158558 0.04146845
0.10020701 -0.100966915 -0.07735635 -0.030145815 -0.026543023 -0.010545584 -0.028751211 0.0077406415
0.0011874455 -0.1110929 0.037451744 0.04062064 0.012107245 0.022562305 0.06284933 -0.05769548
0.08695324 0.048253424 0.07372973 0.016582614 0.071213715 -0.008736878 -0.03340737 0.0660663
-0.08368245 -0.06200525 0.024087684 0.11971636 0.042324003 -0.031160878 -0.0346404 -0.06956933
0.14237875 -0.07375938 -0.038245954 -0.08324904 -0.0144082885 0.088980734 0.037356395 -0.07096701
0.013660313 -0.037201203 0.06593889 -0.01937496 -0.04964356 0.033948414 -0.029740127 -0.1088375
0.040491104 0.10394304 -0.10277376 0.0323464 0.1081022 0.087987915 0.052636415 -0.0011243076
-0.07272919 0.064836025 0.01595383 -0.010971696 0.06730207 -0.03828353 -0.01196237 0.04422891
0.06360772 0.05039489 -0.06660556 -0.027675573 0.0089889765 0.013766965 -0.079843886 -0.0027260056
-0.029180491 -0.12976462 0.02484293 0.0843327 0.061908886 -0.06662265 0.017483149 -0.10147559
0.08947783 0.05769723 -0.107533015 -0.15523095 -0.08672507 -0.07675224 -0.0009841122 -0.1048084
-0.0772458 -0.025718499 -0.046561476 -0.004506965 0.09555533 -0.04884748 -0.053868763 -0.062513426
0.08032584 -0.005139934 -0.029517973 -0.0065604635 0.015731944 0.061903097 -0.016812684 -0.025610786
-0.067147896 -0.07597837 0.0068907975 -0.025225732 -0.026436131 0.02988384 -0.010025187 0.066818774

layer3.bias f4 [128]
00000000: a43a a5bc dbc9 363d d6bf 96bd 06c1 e2bd
00000010: ab72 e43c a0b9 683e 6f9a 78bd 56ef 193e
00000020: 8b15 113d e399 25be ee66 2dbe e253 80bc
00000030: 181e 2e3d 0369 083e f601 9e3d 8a98 783d
00000040: 5ce9 3e3d 158d a4bd 1c7c 493d c4b6 7bbd
00000050: 8c60 743b 7702 99bd 43ee cd3d 2add d6bd
00000060: 94d5 c53d 45f9 4dbe 122c e2bd ce15 7f3e
00000070: e505 c43d 52e5 d73b a9da fe3c 2ae9 c63d
00000080: ce43 e4bc be40 0fbe 3bd4 1fbe 835f 20bc
00000090: 6273 803b 10e8 2a3d c417 a8bd d0e1 813d
000000a0: 594a 84bc 506c 57bd 0805 31be fe5b 043e
000000b0: eb1d 81bd 1dfc 33be 9d42 c63d 0d12 54bc
000000c0: 5f8c 983d 8968 c63d a5dd 953d f52c a93d
000000d0: c790 d33d 4bb1 02be 20ab 903c ba8e 5dbd
000000e0: f149 f83d cc5c eb3b bbb7 e13d da12 0bbe
000000f0: a58e f9bd 48b0 cb3d bac1 e93b 7dc3 46bc
00000100: bbe7 a43c e08e f93d c744 373e e077 02be
00000110: facc 593c 61f2 ea3b 8d5a 843d 8b9b a2bc
00000120: 0b69 903d ccce 383e 1e9b 81bd c07a c0bd
00000130: 89e6 bb3d 4659 a13d 658c 6a3b c2b4 d43d
00000140: 0a67 da3d 993e 8ebd c3ae b0bc c528 823d
00000150: e62c 34bd bf7b 4d3e b02b a43d f8f7 f8bd
00000160: 8b27 4d3e cc17 d63d bb06 933d 46bf 8e3d
00000170: bbea 7c3c 0cfe 8c3d b8b5 b2bd 5af8 5fbc
00000180: 7522 0d3e 839a 0ebd 2fdf 9e3d 184b c3bd
00000190: a64e 82bc ee5f 843d 35cd 11bc 7178 1bbe
000001a0: 9b34 5a3e 8e44 023e 4966 693e 3e16 013d
000001b0: 1387 67bc 4858 bebd 1f4a de3d 1132 00be
000001c0: f481 82bd 73c2 62bd 3dd8 9abd 703c d6bd
000001d0: aa50 a9bd 9143 d0bd ac0f 87bd 81c7 b2bd
000001e0: e30a 8b3d 4834 bf3d 9955 aabd 955c 0fbe
000001f0: d8ed 95bd c6a4 213d 33e1 0bbe 458b 103e
-0.020169564 0.044626098 -0.073608086 -0.110719725 0.02788671 0.2272706 -0.060694154 0.15032706
0.035420936 -0.16171984 -0.16933796 -0.015664998 0.04250917 0.13321309 0.07715218 0.060692348
0.046609268 -0.08034722 0.049190626 -0.061453596 0.0037288992 -0.07471173 0.100552104 -0.104914024
0.096598774 -0.2011462 -0.11043562 0.24910662 0.09571437 0.0065886164 0.031110125 0.09712441
-0.027864363 -0.13989541 -0.15608303 -0.009788397 0.0039200047 0.04172522 -0.08207658 0.063418984
-0.016148733 -0.05259353 -0.17287076 0.12925717 -0.063045345 -0.17576642 0.09680674 -0.012943757
0.07448649 0.09687907 0.07317666 0.08260528 0.103303485 -0.12762944 0.017659724 -0.054091193
0.12123478 0.007182693 0.11021372 -0.1358141 -0.121854104 0.09945732 0.0071336897 -0.012131569
0.020130029 0.12185454 0.1789733 -0.12741041 0.013293499 0.007170007 0.06462584 -0.01984956
0.07051285 0.18047637 -0.063284144 -0.09398413 0.091748305 0.07878356 0.0035789248 0.10386039
0.106641844 -0.06945533 -0.021567708 0.063554324 -0.04398813 0.20066737 0.08016145 -0.12156671
0.20034616 0.10453758 0.07179018 0.06970076 0.0154368235 0.06884393 -0.08726066 -0.0136700515
0.13782676 -0.034815323 0.07757413 -0.09535807 -0.015906643 0.0646361 -0.008899023 -0.15182664
0.2130913 0.12721464 0.22792925 0.031515352 -0.014131325 -0.09294182 0.10853981 -0.12519099
-0.06372443 -0.055361222 -0.075607754 -0.10460746 -0.082673386 -0.10169137 -0.06594786 -0.087294586
0.06789186 0.09336144 -0.08317108 -0.14000161 -0.07320756 0.03946378 -0.13660125 0.14115627

layer4.weight f4 [128, 128]
00000000: b4ef 3bbd 5351 aa3d 456f 843d 031f 663d
00000010: 7008 33bc 4167 e2bd 0033 9cbd 2627 bcbd
00000020: 2d50 ab3c 5059 333d 2491 4dbd c20e b7ba
00000030: 0148 3cbd e243 2bbc 3713 89bc e2e9 49bd
00000040: d8c0 103d 9203 013c 39af 873b 36c1 133d
00000050: 2132 81bc 18f2 b5bc 6a0d 5abc 196d 87bd
00000060: d583 2e3d ab6e 8dbc 9bf1 783d 2ebd 10bd
00000070: 38fc 893d b725 8b3d 542a 9fbd 2503 673d
00000080: cb74 e3bb d847 3ebd 9f74 07bd 89df 3dbd
00000090: 65f7 3dbd bd63 993d e103 4dbd 7de8 873d
000000a0: 7215 05bd 65c4 af3c e5c7 82bd 0178 cfbd
000000b0: dd19 b43d 8f54 bebc d50a 3d3c 5034 983d
000000c0: 9860 1c3c be20 0f3a 6abf 4fbc 901c 843c
000000d0: f19c 93bd e4ae b0bd 2499 783d 96b5 3f3d
000000e0: 8696 24bc d103 3abd 5ae5 163e 2dd8 55bc
000000f0: d035 37bd 554d c0bb c717 44bd 66ae 71bc
00000100: 9246 c8bd 8105 90bd 6e8f d03b 0f4d c63c
00000110: ebea a73d ef44 823d f843 84bd 337e d73c
00000120: 263c 82bd 67f1 5cbc a151 a73c 6f94 62bd
00000130: 5945 ef3c 2d8b 16bd 1cb5 a8bd 188f 0b3d
00000140: 0155 12ba 523b 133c 065b 17bd 7f12 c43d
00000150: 0049 0f3d 4864 e0bd ee57 1c3d 8a07 8ebd
00000160: cff9 c43d 5095 69bd 0d27 683d b23d 063d
00000170: 346c b0bd 7285 50bc e418 8e3d 63ad ccbc
00000180: e565 913d 2c8b ed3c 1b00 14bb 11cb f63c
00000190: f410 ed3c 831f ca3d 3f65 9dbb 7f35 7cbd
000001a0: 4bf3 6ebd 52d5 0c3b 1753 5e3d 74ac 53bd
000001b0: abe5 5fbb 8037 253d a076 1cbc fc56 22bd
000001c0: 0150 e63c 2ad4 263c f17b 773d fcc2 42bd
000001d0: b1be cebb edb9 7cbd 252f abbc e28e 3a3b
000001e0: 8c59 5fbd 5f37 073d eef9 873d 826d cabd
000001f0: e8a9 a8bd 40bb b6bd 9bfe 82bd 26e4 443d
00000200: 5869 0cbd dd4b ac3b a88d 02be fa9f 17be
00000210: 5465 063e 994e 0a3e 48f4 15be eec7 103e
00000220: 2c48 cb3d 1086 323e 00d0 0fbd 8f2b 60bd
00000230: 88f5 83bd 7e50 23bd e899 13be 8542 10be
00000240: 2ae2 89bd e7ad ed3b ab63 bbbd 63d0 4e3d
00000250: c999 49be 8cc6 43bd 0f35 ec3d 60a3 183d
00000260: 5171 cfbd 4e7f 32be b037 19be 59a0 87bd
00000270: dbfe 163e d826 ef3d 1d2e b2bc 7a4e c9bd
00000280: a8a1 abbe fc50 953e e650 6fbe 6dff 8d3d
00000290: 94e7 5c3b 9a10 4d3c c302 3c3d 615a acbb
000002a0: 7a03 3c3e 771d 00be fb06 22be 1962 793d
000002b0: f000 dd3c 4ae3 073e c247 c43d ef4e e2bc
000002c0: c57d bf3d 5eaf 6abb bfc4 68bb bc1b 32be
000002d0: a451 52be e389 8b3b 0274 1a3e 468a 683c
000002e0: 3406 48be 0bda 12be 1d12 22be c4fe abbd
000002f0: a665 d9bc 2fe7 503b 506b 5c3e 00ab 0bbe
00000300: 48a7 6c3d 2e8d 3b3b 61f9 34be 3ca7 aebd
00000310: d93f 9e3d 999f 48bd b4e5 7e3e b6b3 b5bd
00000320: 8daa 993d 0936 41be 1035 123e a8f2 043e
00000330: 1cad 063c f6a8 733c 0589 ac3d 4795 24be
00000340: 4d9c 3fbc 7aff 703e f629 8e3c ba64 8c3e
00000350: b630 d53d bb76 5d3d e88a a53d 9e74 6c3b
00000360: e0a9 013e 0750 b93c 5882 a63e 1c8f 8cbe
00000370: b9b0 f43b d723 873d ee52 0fbe 0f59 8f3d
00000380: 2336 313d 4f50 71bd 3a92 01be c599 dd3d
00000390: 29bc 0739 3303 2abe efe0 f43d 3f5a 963c
000003a0: 0d9f 763d 697d a3bd 0e32 a63c 5e95 95be
000003b0: 48e5 babd 4502 b7be e00c b4bd 0a94 1fbe
000003c0: f7e7 923d e0a2 96bd 84f8 733d 8596 343e
000003d0: 2630 a0bd 5104 09be b5bd 783d 50bd 193d
000003e0: 1454 c43d 8084 68be 854b 013c 4fb2 ae3d
000003f0: 16c1 e0bd 360f 303d c9ce 883e f090 953e
-0.045882896 0.083162926 0.064665355 0.05618192 -0.010927305 -0.1105485 -0.07626915 -0.091871545
0.020912254 0.043786347 -0.050187245 -0.001396619 -0.045967106 -0.010453196 -0.016732795 -0.049295314
0.03534016 0.007874386 0.004140761 0.036072932 -0.015770974 -0.022210166 -0.013308862 -0.066126056
0.042606194 -0.017264685 0.060777288 -0.035336666 0.0673756 0.06794303 -0.07771745 0.056399483
-0.006941413 -0.046455234 -0.033070203 -0.046355758 -0.046378512 0.07489727 -0.050052527 0.066361405
-0.032491155 0.021455953 -0.06385783 -0.10130311 0.087939955 -0.02323368 0.011538227 0.07431853
0.009544514 0.0005459896 -0.012679914 0.0161269 -0.072076686 -0.08627108 0.06069292 0.046804033
-0.010045653 -0.045413796 0.14735928 -0.013052029 -0.044729054 -0.0058685937 -0.04787424 -0.0147510525
-0.09779085 -0.070323 0.0063647544 0.024206666 0.08199104 0.06360804 -0.064582765 0.026305294
-0.06359129 -0.013485289 0.020424666 -0.05531734 0.029207872 -0.036753822 -0.08237669 0.03407201
-0.00055821246 0.008986311 -0.03695204 0.0957384 0.034981728 -0.10956627 0.038169794 -0.06935032
0.0961796 -0.05702716 0.056677867 0.03277368 -0.08614388 -0.012727128 0.06938341 -0.024985021
0.07099513 0.028997026 -0.002258307 0.030126126 0.028938748 0.09869292 -0.0048033292 -0.061574455
-0.05833749 0.0021489454 0.05427846 -0.051678136 -0.0034163992 0.040336132 -0.009549767 -0.039633736
0.02811432 0.01018242 0.060420934 -0.047549233 -0.0063093533 -0.06170075 -0.020896504 0.0028466512
-0.054528758 0.03301179 0.06639467 -0.09884168 -0.08235532 -0.08922434 -0.063962184 0.04806914
-0.03428015 0.005258067 -0.1274935 -0.1480712 0.13124591 0.13506545 -0.14643967 0.14138767
0.09925875 0.17433953 -0.035110474 -0.05472904 -0.06443316 -0.039871685 -0.1441418 -0.14087875
-0.067325905 0.007253397 -0.091498695 0.0504917 -0.1968757 -0.04779677 0.115335576 0.03726518
-0.10129035 -0.17431375 -0.1496265 -0.06622381 0.14745657 0.11677331 -0.021750504 -0.09829421
-0.3352177 0.2916335 -0.23370704 0.06933484 0.0033707367 0.012516165 0.04590107 -0.0052597974
0.18360701 -0.1251124 -0.15822975 0.06088457 0.026977986 0.13270298 0.09583999 -0.02762553
0.093501605 -0.0035810093 -0.003551766 -0.17393392 -0.20538956 0.0042583807 0.15083316 0.014193123
-0.19533616 -0.1434099 -0.15827222 -0.08398202 -0.026537728 0.0031876077 0.21525311 -0.1363945
0.05777672 0.0028618085 -0.17673256 -0.08527991 0.07727022 -0.04898033 0.24892312 -0.08872168
0.07503233 -0.18868269 0.14278054 0.12983191 0.008219983 0.014871826 0.08424572 -0.1607257
-0.01169498 0.23534957 0.017353993 0.27420598 0.104096815 0.05406831 0.08083135 0.0036080251
0.12662458 0.022621168 0.3252132 -0.27452934 0.007467356 0.06598633 -0.13996479 0.069994085
0.04326452 -0.05891448 -0.12653437 0.10820345 0.00012944698 -0.16602783 0.11956965 0.01835358
0.060210276 -0.079829045 0.02028754 -0.2921552 -0.09125763 -0.3574392 -0.08791518 -0.15583816
0.0717315 -0.07355285 0.059563175 0.17635544 -0.078216836 -0.13380553 0.060727794 0.037534058
0.09586349 -0.22706795 0.00789154 0.085301034 -0.10974328 0.042983256 0.26720265 0.2921214

layer4.bias f4 [128]
00000000: 6719 90bd 33e7 91bd 30ae 02be 7e1d 763c
00000010: 3eb1 9cba 2983 b13d 21e2 533d 97a6 e9bd
00000020: e175 153d 0e3d b6bc f572 5bbd 41e4 5a3d
00000030: 42c6 d23d 0fa2 283e b175 6e3e ed35 3f3d
00000040: 1aad 883d d6d1 94bd 3bfa d13d f5d7 58bb
00000050: dc33 8abd 073e 023a 3aa2 503c e2f9 83bd
00000060: dc98 85bd 90c4 5fbe a5a6 c23c 7a30 a9bd
00000070: 5ac8 813d 5dec 6bbd 7746 9cbd 8f26 a3bd
00000080: 9dd5 26bc 9990 183d db89 663e 181d e73d
00000090: dc96 bb3d 037f a7bd 79fe 33bd a85d 4a3e
000000a0: 37c6 a2bd 8630 8d3d a40e 02bc 8d88 b3bc
000000b0: 921e c9bc f5b7 d43d 9bc0 c5bd ed80 49bd
000000c0: 0ef2 6d3d 6e06 71bd efb7 42bc 1640 763d
000000d0: 7550 fc3c 0010 213e 746d 84bd d2fa ea3c
000000e0: 6dbb c4bd 970c d43d 12ea 9d3c dd06 363d
000000f0: 0ac2 0d3d ffc1 c1bc d8d8 a7bc f21a 81bd
00000100: 24b9 ef3d d4c7 2ebd 8164 c23d 4797 1ebc
00000110: 2bb0 4a3d 6dab 7e3d 30b5 27bd dcd4 943d
00000120: 2525 803d 7e23 0bbe 522b 09bb f6dd dcbc
00000130: 3a69 1e3d 7b65 8e3c cbf0 91bd ac35 943d
00000140: 800a 9f3a d0cc cdbd 7e60 c73d 5e4a d2bc
00000150: 7081 613d 5f48 1e3d 1358 373e 8a28 bbbd
00000160: d387 89bd 3e6b 3ebd b532 b1bc 9b9b a6bd
00000170: 5450 143e 12b0 1fbd 3440 fd3b c402 a93d
00000180: 9f3b e03d f357 a03d 4356 e4bd 83e1 6a3d
00000190: 466a 9d3c 04c0 183c 6990 bc3d dee3 b33b
000001a0: bc76 393c f894 7dbd abc6 debd 542a adbc
000001b0: fb1a 80bc d83c d43d 94b5 813d c347 bebd
000001c0: d17d 893d 3a63 af3d 8b1f ad3d 19ef bebd
000001d0: 1e88 303c 8ef6 bcbc 6ae5 9f3c 6030 1d3d
000001e0: 7849 c73c fba6 f83c 8032 a53d 0274 4bbd
000001f0: 801b 3a3d 0197 273d 221d 843d 36f1 603c
-0.07036095 -0.07124176 -0.1276176 0.01502168 -0.0011954678 0.08667595 0.051729325 -0.114087276
0.03648937 -0.02224591 -0.05357643 0.053440336 0.10291721 0.1646807 0.23287083 0.046682287
0.066736415 -0.072665855 0.10252806 -0.0033087705 -0.06748173 0.0004968349 0.01273399 -0.06444146
-0.06523296 -0.21852326 0.023761103 -0.08261199 0.06337042 -0.05759846 -0.076306276 -0.07966339
-0.010182765 0.037247274 0.22513525 0.11284846 0.091596335 -0.081785224 -0.043943856 0.1976229
-0.07947963 0.06894021 -0.007938061 -0.021915698 -0.02455071 0.103866495 -0.09655877 -0.04919522
0.05809217 -0.058844022 -0.0118846735 0.06011971 0.030800084 0.1572876 -0.06466189 0.028684054
-0.09606061 0.10353964 0.019276652 0.04444014 0.03460888 -0.023652075 -0.020489141 -0.063039675
0.11705235 -0.04267104 0.09491826 -0.009679622 0.049484413 0.062175203 -0.04094428 0.07267162
0.06257085 -0.13587758 -0.0020930362 -0.026961308 0.03867457 0.017382374 -0.07126006 0.072367996
0.0012133867 -0.100488305 0.09735201 -0.025670227 0.05505508 0.038643237 0.17904691 -0.091385916
-0.067153595 -0.046488993 -0.021630624 -0.08135148 0.14483768 -0.038986273 0.007728601 0.082524806
0.10948872 0.07829275 -0.111492656 0.05734397 0.019215714 0.009323124 0.092072316 0.0054898104
0.011319812 -0.061909646 -0.10877737 -0.021138348 -0.015637865 0.103631675 0.063334614 -0.09291031
0.06713451 0.08563848 0.08453282 -0.09322948 0.01077464 -0.023066785 0.019518573 0.038376212
0.024327025 0.03035306 0.08066273 -0.04967118 0.045436382 0.040915493 0.06450869 0.013729384

input_norm.weight f4 [8]
00000000: dd6f a03f f536 723f 7684 813f e53a 503f
00000010: 41ff 3b3f fbc0 843f bdd7 333f 2369 573f
1.2534138 0.9461511 1.0118549 0.81339866 0.7343636 1.0371393 0.70251065 0.841448

input_norm.bias f4 [8]
00000000: c28d 423e 7b0d 653e 27ca fb3e 6865 9a3e
00000010: aaa4 95bd b560 833e e114 9f3e 0104 acbc
0.18999389 0.22368424 0.49177667 0.30155492 -0.07306798 0.2565972 0.31070617 -0.020998003

input_norm.running_mean f4 [8]
00000000: d63b 5940 38c5 1e3d e17f 9dbf b2e2 6040
00000010: 2859 cc3c f780 e53c 7b2d afbd 9d32 633e
3.394277 0.0387623 -1.230465 3.5138364 0.024944857 0.028015597 -0.085535966 0.22187276

input_norm.running_var f4 [8]
00000000: 68d0 5440 ee03 5b3b 3d35 1040 26c4 a940
00000010: 3f15 f83d a75c 073b 62ab 1b3f 5fc5 303e
3.32522 0.003341909 2.2532494 5.305194 0.12113427 0.002065459 0.60808384 0.17262791

norm.weight f4 [128]
00000000: d0cf 503f 6911 a93f 543c 5b3f c9eb 4d3f
00000010: dcb0 563f 1cd7 593f 2e2c 653f b0f4 533f
00000020: b0ef 4d3f 54e2 553f aa98 613f 0ef3 633f
00000030: 872e 613f 92a0 673f fc10 653f 85f2 593f
00000040: 151e 473f f08c 583f 794b 683f 1cdd 643f
00000050: ee12 543f cc7f 613f 239b 743f 3a8c 5a3f
00000060: c579 5e3f bf35 603f 6df9 4c3f 3839 523f
00000070: ea1c 4c3f 3f7c 503f 1551 5a3f 7ec0 673f
00000080: 8228 513f 45d8 5b3f 9f67 6e3f 00f7 643f
00000090: e4a0 463f cfce 733f 1b6c 463f cacb 693f
000000a0: 938b 663f 6c30 5f3f df5a 6f3f 8c80 633f
000000b0: 9502 5b3f 5ba9 6b3f 3633 743f 8880 523f
000000c0: de22 583f 4ac0 623f 65a1 a63f 7238 5d3f
000000d0: b457 543f a345 613f dd2d 593f cb39 533f
000000e0: ae38 503f 7ab5 5c3f 5ad0 653f d617 553f
000000f0: 627b 603f 11c0 5d3f a8b8 5b3f 4f2c 713f
00000100: 3247 4d3f 9544 5c3f 8625 6e3f 42d0 633f
00000110: 4f34 423f d534 6b3f 71fa 633f 06d2 523f
00000120: ecb8 643f 1d37 513f 5616 583f 6edd 593f
00000130: 81a6 5f3f b569 5c3f 06ef 503f 6dd0 7e3f
00000140: d583 553f d124 5d3f e512 5b3f 89cf 583f
00000150: fd67 5d3f 18b5 513f 9869 623f 8cc0 593f
00000160: 27ea 5d3f 97c6 5c3f bbc7 483f e33b 633f
00000170: 4903 493f 3620 4d3f 2cf6 4d3f 4991 6c3f
00000180: 44da 583f 3a1f 653f 81cb 5e3f e9ec 6b3f
00000190: 5737 603f 5b90 623f 79d1 533f 99ac 4d3f
000001a0: 2d7e 5b3f 8bd5 643f 13ec 5b3f 6c48 673f
000001b0: 470d 7b3f 47da 5a3f c939 5d3f b0e4 5c3f
000001c0: a2d2 583f ded1 613f fb29 583f bbec 583f
000001d0: 904e 4c3f 5d9c 563f 4faa 583f 65ef 563f
000001e0: 0440 513f 9dd0 6e3f 62d3 5a3f 16af 4a3f
000001f0: 251c 5b3f 06c7 533f 5163 5d3f 5882 4e3f
0.81567097 1.3208438 0.8563893 0.80437905 0.83863616 0.85093856 0.8952054 0.8279524
0.8044386 0.83548474 0.8812357 0.8904275 0.8796162 0.90479386 0.8947904 0.8513568
0.77780277 0.84590054 0.9074016 0.89399886 0.82841384 0.8808563 0.9554922 0.8537022
0.86904556 0.8758201 0.80068094 0.8211856 0.7973162 0.81439584 0.8527997 0.90528095
0.81702435 0.85876876 0.93126863 0.8943939 0.7758925 0.9523744 0.77508706 0.9132658
0.90056723 0.8718326 0.93498033 0.8886802 0.85550815 0.9205529 0.9539064 0.82227373
0.84428203 0.8857466 1.3018004 0.86414254 0.82946324 0.8799688 0.84835607 0.8251006
0.81336486 0.8621441 0.89771044 0.83239496 0.8768827 0.86621195 0.8582864 0.94208235
0.8018676 0.8604215 0.93026006 0.8898965 0.75861067 0.9187749 0.8905402 0.8235172
0.8934467 0.8172472 0.8440908 0.851035 0.8736344 0.86098796 0.8161472 0.9953678
0.83404285 0.863843 0.85575706 0.84691674 0.864868 0.8191695 0.88442373 0.8505943
0.86685413 0.86240524 0.78429765 0.88763255 0.7852064 0.80127275 0.80453753 0.9240919
0.84708047 0.8950077 0.8702927 0.9215837 0.8758444 0.8850152 0.82741505 0.8034149
0.85739404 0.8938834 0.85907096 0.9034488 0.98067135 0.85489315 0.864163 0.8628645
0.846964 0.88210857 0.8443906 0.8473622 0.79807377 0.8383234 0.8463487 0.8395904
0.81738305 0.9328707 0.85478795 0.7917341 0.8558982 0.8272556 0.8647967 0.8066764

norm.bias f4 [128]
00000000: f67f 333d e1cf 29be ba3c e53d 31c2 0fbe
00000010: 9e23 363e 7881 60bd 6b49 b43b 29b6 afbd
00000020: 32c8 503e 925f 3d3e 6654 6a3e 6d3f 033d
00000030: 4f08 3a3c 02f9 783e 0cb3 913e 93e4 b8bd
00000040: 959d 133e 2bc4 ea3d 09e5 ae3d 7d57 31bd
00000050: b337 ac3d 193c 8d3d 5f67 893c 5ec8 573d
00000060: 23d1 ef3d 76cb 08be bdd4 363e c35b d4bd
00000070: 2ae1 8ebe 0956 01be ec26 86bd d76b 5e3e
00000080: e1b6 b6bd b9f8 a1bc 7c50 28be be58 2cbe
00000090: 45fa 92bd 67e2 4ebe b4b0 b43d 7fa5 aa3d
000000a0: a42d a83d ea2e 9b3e 525d d13d f04e 9dbc
000000b0: d66e 233d f426 d63d 27bf 683e bb94 aebe
000000c0: 8c32 003e 6276 a9be 0174 e2bc 70e9 c2ba
000000d0: f860 c03d f219 47be d744 4cbc 59b9 f6bc
000000e0: 8f9e eb3d e8b8 e3bc 6eb9 1f3e 86cc a13e
000000f0: 8e60 08be 1a7a 333d 0a36 60be 4529 6f3e
00000100: c37f 873d 9865 4bbe 54d0 f6bd 01ef 98bd
00000110: bc73 543e 07cc 43bd 4491 bd3e 47dd 563e
00000120: c3b1 4d3e 80da 3ebe b390 c13d ebdc 803e
00000130: 1e19 61be 904a a4be 2ea4 0abe e581 d4bd
00000140: a6b2 783d f233 123e eadd dfbd 039f 6abd
00000150: 35cb 903d 349d 113d 0d77 a43e 1168 7cbd
00000160: 524a 8bbe e4b4 c33d bb00 e53c 3d30 2e3d
00000170: 0abb bb39 8a73 6c3e b81b ee3c c3e9 7dbd
00000180: 0473 1d3d eea2 5ebe f72f 83be 0435 cd3d
00000190: d157 093e 683e 4e3c f854 c03d 8710 adbd
000001a0: 8b6f 16bd 208f e0bd 7fbc 813e d58a 90bc
000001b0: 4298 92bd 1a3f 923e a797 063d b356 533d
000001c0: ef2e 21bc b7b7 e3bc 61fd 40bd b52d 96bb
000001d0: 180d 65bd 3b8c 44be d4e0 293e 824f c6bd
000001e0: 5ed5 4e3e 25ab ea3d af82 49be 0ca5 293d
000001f0: 8db4 b9bc f859 4abd 89ac a83d 4946 7e3c
0.043823205 -0.16583206 0.11193223 -0.14038922 0.17787024 -0.05481097 0.005501916 -0.08579666
0.20388868 0.18493488 0.22883758 0.03204291 0.01135452 0.24313739 0.28456914 -0.09027972
0.14415582 0.11463197 0.08539779 -0.043296326 0.08409061 0.06896228 0.016772924 0.05268132
0.117098115 -0.13358864 0.1785459 -0.10369065 -0.27906162 -0.12630476 -0.065503925 0.21720825
-0.089216 -0.01977192 -0.16436952 -0.16830727 -0.071766414 -0.20203553 0.08822766 0.08332347
0.0821183 0.3030923 0.102228776 -0.01920268 0.039900623 0.104566485 0.22729169 -0.34097847
0.12519282 -0.3309813 -0.027643206 -0.0014870595 0.09393495 -0.19443491 -0.012467585 -0.030117678
0.11504852 -0.027798131 0.1559808 0.31601351 -0.13318083 0.043817617 -0.21895614 0.23355587
0.066161655 -0.19862974 -0.12051454 -0.074674614 0.20747274 -0.047801998 0.3702489 0.20982848
0.20087342 -0.18638039 0.09451427 0.25168547 -0.21982238 -0.32088137 -0.13539192 -0.10376338
0.060717247 0.14277628 -0.109309986 -0.05728055 0.07070009 0.03555031 0.3212208 -0.061622683
-0.2720514 0.095559865 0.02795445 0.042526472 0.00035806774 0.2309095 0.029065952 -0.06199051
0.038439766 -0.2174184 -0.25622532 0.100198776 0.13412406 0.012588121 0.093912065 -0.08450418
-0.03672747 -0.10964799 0.25339124 -0.017644325 -0.07157947 0.28563768 0.03285947 0.051596355
-0.00983785 -0.027797563 -0.04711664 -0.0045830854 -0.05592069 -0.19194119 0.16589671 -0.09683134
0.2019858 0.114584245 -0.19678758 0.041417167 -0.022669101 -0.049402207 0.082360335 0.015519687

norm.running_mean f4 [128]
00000000: 5cdb a83e d7f4 df3b b90d ae3e f20e 873e
00000010: 1c99 273e 9897 3c3f 7bf0 013e 74ae b43e
00000020: 9087 033f f432 ad3e 8665 193e 9595 143e
00000030: 4e9d 783e 2573 033f dc46 cd3e efae dc3e
00000040: 0007 883e 098d a13e accb a63e 4863 8f3e
00000050: 68bc d93e 3110 133f 6e8c 743e 3407 6c3e
00000060: e6b9 fc3e bdf7 fd3d 0301 a93e eebc e83d
00000070: 23ad df3e a4ff d03e 595b b43e a6df fe3e
00000080: c349 a93e ff59 c93d 80be b23e 60db 2a3f
00000090: 78a3 da3e b70a e73d 64e4 c93d 36ac 2a3e
000000a0: 6dba 063d 9160 363d 0c2f ae3d 3d2e 4b3e
000000b0: 2c69 163e 331f 343e 02d7 9a3e 83af 163f
000000c0: 2b6a 933e a2dd eb3e e9ec 153c 24c2 6a3e
000000d0: da81 d63e 785a 203f cdac aa3e 542a 6c3e
000000e0: fba3 f63e ddef 203e 6705 693e 9ab9 403f
000000f0: 40d6 c73e af4e d43e 56ea 0b3e 5adf 693c
00000100: b1f1 d33e 1a33 ec3e 5c76 be3e 8ad5 4b3e
00000110: 96fe 613e 1e03 803e 94fc d73e b830 b13e
00000120: 9447 283e a990 8c3e 5fd2 c53e d599 ec3e
00000130: dd5e 623e d01a fb3e 5eef 913e 6a19 1c3e
00000140: d031 ce3e f840 db3e d6ad 2d3f 0f78 f83e
00000150: 4c8e 1f3f f013 b93e ab22 9e3e 9abc aa3e
00000160: 2560 c13e 60b6 273e 7f82 dc3e 09b4 373f
00000170: b206 823e e016 ca3e 3b71 3e3e 5229 123e
00000180: 1614 303f 52ca 933e 6915 913e 5e69 db3e
00000190: b3bc e53e 1bc1 a43d 1356 f93e 0bf6 443e
000001a0: 9456 233d faa7 603e 915d 8d3e 1917 873e
000001b0: d563 253d 3226 c13e b188 873d 5782 f33e
000001c0: a1b4 163f 21d4 103f af37 693e 3167 a63e
000001d0: 55f9 6a3e bf89 0a3f aaf2 f83e 277f 893e
000001e0: 0e37 b33e 2797 1d3e c046 ab3e da63 043e
000001f0: c483 ca3e 8583 103d fcd4 f13e 4c41 163e
0.32979858 0.006834607 0.33994845 0.2637859 0.16367 0.73668814 0.12689392 0.35289347
0.51378727 0.33827937 0.14980134 0.14510186 0.24278757 0.5134757 0.40093124 0.43102214
0.2656784 0.31552914 0.32577264 0.28005433 0.42526555 0.5744658 0.23881695 0.23049623
0.4936058 0.12400768 0.33008584 0.113641605 0.4368678 0.40820038 0.35225943 0.49780005
0.33064088 0.098316185 0.34910965 0.6674099 0.42702842 0.112813406 0.09858015 0.16667256
0.032892633 0.044525687 0.08505067 0.19841857 0.14688557 0.17590027 0.30242163 0.5886156
0.28791937 0.4606753 0.009150722 0.22925621 0.41895944 0.62638044 0.33334962 0.23063022
0.48171982 0.157165 0.22755967 0.75283206 0.39030647 0.4146628 0.13663611 0.014274443
0.41395333 0.46132737 0.37199676 0.19905677 0.22069773 0.25002378 0.4218489 0.34607482
0.16433555 0.27454117 0.38637063 0.46211115 0.221065 0.49043894 0.28502935 0.1524407
0.4027238 0.42823005 0.6784338 0.48529097 0.623265 0.36148024 0.30885825 0.33347017
0.37768665 0.16378164 0.4306831 0.71759087 0.25395733 0.39470577 0.18597881 0.14273575
0.6878065 0.28865296 0.28336647 0.42853826 0.4487053 0.080446444 0.48698482 0.19234483
0.03987749 0.21939078 0.27610448 0.2638481 0.04037841 0.37724453 0.06617869 0.4756038
0.5886937 0.56573683 0.22775148 0.32500604 0.22946675 0.54116434 0.48622638 0.26854822
0.3500294 0.15389691 0.33452415 0.12928715 0.39553654 0.035281677 0.47232807 0.14673346
