final_models/v_start_noise/models/agent_75_10k.pt (torch, 226490 bytes, 22 tensors)

layer1.weight f4 [128, 8]
0.27650088 -0.27074707 -0.11550952 0.28751943 -0.2766029 0.2022669 -0.07774049 0.1756478
-0.037241694 -0.28591618 0.23427969 0.01012489 -0.007885084 -0.11524217 0.004066111 0.030767633
-0.102138504 -0.040771212 0.41917056 0.10963581 -0.12846367 -0.284333 -0.08006105 -0.11802414
-0.07940117 -0.059757628 0.23565474 0.31284845 -0.45703983 0.15280865 0.07643812 0.31097636
0.044806805 -0.17964421 -0.23127657 -0.017016375 0.1511848 -0.015834155 0.1717058 -0.13193317
0.19482008 -0.14012954 0.2348699 -0.11436342 -0.15733503 0.21095023 -0.1427963 -0.017566422
-0.011308887 0.019322047 -0.19573765 -0.118114784 0.071193054 -0.16117086 0.29946148 0.062952325
0.023001574 -0.4025773 0.15171051 0.106472574 -0.20765287 0.25140724 0.22573927 0.38304672
-0.16031633 -0.23321442 -0.05276007 -0.012462015 -0.28538534 -0.10227527 0.110702775 0.043144643
0.15597786 -0.12742071 0.15367089 -0.004901186 0.22897142 0.1739268 -0.24442387 0.106079586
-0.18748711 -0.349393 0.029980794 -0.0872694 0.14797638 -0.17850561 -0.32009825 0.15831469
-0.00038557439 0.08336937 0.03776864 -0.056695495 -0.014771071 0.08939528 -0.078569606 -0.13995786
0.22573835 0.20287879 0.022612687 -0.08145828 0.28810742 -0.09498798 0.19774319 0.17889142
-0.13628359 -0.36783695 0.3487008 0.11957918 0.43339986 -0.04461982 0.16956197 0.1876273
0.27932522 -0.085170746 -0.012477597 0.0728279 0.0101257805 -0.09748315 -0.047269177 -0.25534296
-0.2623447 0.025009269 0.31302118 -0.28377405 0.12916988 -0.15471144 -0.45752874 -0.0067347577
0.1557338 0.41219562 -0.2794399 0.33010992 0.3363409 0.2328432 0.28961796 0.32483637
0.5149383 0.11744622 -0.21441853 -0.2898157 -0.2788124 0.0058368808 -0.2619649 0.17135914
0.03477338 -0.0642087 0.09768091 0.07329269 0.12787652 0.11554588 0.01976864 0.35823202
-0.06506049 -0.016959967 -0.37452337 -0.20306836 -0.20066565 -0.10468002 0.21314792 -0.11559476
-0.47010902 0.061730403 0.10561821 0.50443476 -0.20750047 0.17699128 -0.19019377 0.028889995
-0.21461208 -0.2615439 -0.25083286 0.103710055 0.003598863 0.027080942 0.47582984 0.32295787
0.28342062 0.058936507 -0.45634767 0.16432396 -0.01723114 0.07804396 -0.39819655 -0.2182379
-0.30823794 0.200756 -0.33432004 -0.34171692 -0.021451864 -0.25367558 0.017828368 -0.08810348
-0.34726608 0.012982511 0.2791589 -0.20068538 0.21709399 0.10074011 0.3629043 -0.30792397
-0.002142781 -0.37301216 0.24351457 0.0068700016 -0.003413808 -0.2624102 -0.037387323 0.04571047
0.012566368 0.10203784 0.023250896 0.037265487 -0.24965635 0.2838352 0.3253385 0.4279835
0.019088386 -0.24065489 -0.0795224 0.041275095 -0.035714228 0.006015396 -0.057779547 -0.24860375
0.36310604 -0.27639216 0.010381173 0.30397582 0.48857227 0.25656208 -0.051354874 -0.46322244
0.2038497 0.07788787 -0.11572397 0.027225412 -0.37914315 0.16533203 0.23638625 -0.33912283
-0.47824746 -0.26544794 0.07382826 0.094498 -0.19958231 0.3091959 -0.35343432 -0.1320892
-0.12803504 0.2867445 0.30634084 0.024015382 0.06668506 0.08330886 0.09923035 -0.011500646
00000000: 8691 8d3e 5c9f 8abe 4190 ecbd bf35 933e
00000010: e59e 8dbe 0e1f 4f3e 6836 9fbd 04dd 333e
00000020: bf8a 18bd 9b63 92be 04e7 6f3e dee2 253c
00000030: 7030 01bc 1604 ecbd 033d 853b 670c fc3c
00000040: fe2d d1bd b7ff 26bd 869d d63e bd88 e03d
00000050: fb8b 03be 1894 91be 0cf7 a3bd a4b6 f1bd
00000060: 159d a2bd 6ac4 74bd 7a4f 713e ac2d a03e
00000070: 2001 eabe df79 1c3e 978b 9c3d 4b38 9f3e
00000080: 5787 373d a7f4 37be c4d3 6cbe ed65 8bbc
00000090: 30d0 1a3e a1b6 81bc a5d3 2f3e 7d19 07be
000000a0: ea7e 473e 1e7e 0fbe bc81 703e 5e37 eabd
000000b0: 6f1c 21be 5603 583e 3139 12be 75e7 8fbc
000000c0: e948 39bc 4549 9e3c 736f 48be 2ae6 f1bd
000000d0: aacd 913d f909 25be 0453 993e 26ed 803d
000000e0: cc6d bc3c 9d1e cebe 005a 1b3e 4b0e da3d
000000f0: f4a2 54be 73b8 803e 3228 673e b31e c43e
00000100: f729 24be c3cf 6ebe f11a 58bd 7b2d 4cbc
00000110: 071e 92be b275 d1bd 23b8 e23d 70b8 303d
00000120: a9b8 1f3e 937a 02be e75b 1d3e 219a a0bb
00000130: 7c77 6a3e de19 323e 404a 7abe 4140 d93d
00000140: 9ffc 3fbe a4e3 b2be 489a f53c 4dba b2bd
00000150: 1f87 173e 2dca 36be ebe3 a3be 3f1d 223e
00000160: eb26 cab9 8fbd aa3d 4ab3 1a3d 8939 68bd
00000170: 5d02 72bc df14 b73d 1ae9 a0bd 1d51 0fbe
00000180: f427 673e 75bf 4f3e 3e3e b93c 99d3 a6bd
00000190: d182 933e 0f89 c2bd 317d 4a3e 502f 373e
000001a0: ed8d 0bbe 2055 bcbe e988 b23e eee5 f43d
000001b0: 96e6 dd3e 46c3 36bd a7a1 2d3e 5f21 403e
000001c0: b703 8f3e 006e aebd d66e 4cbc cb26 953d
000001d0: 9ae6 253c 3fa5 c7bd 539d 41bd 50bc 82be
000001e0: 0b52 86be 3de0 cc3c 5044 a03e d54a 91be
000001f0: 1c45 043e ad6c 1ebe 3541 eabe 3eaf dcbb
00000200: ae78 1f3e 4e0b d33e bf12 8fbe 2b04 a93e
00000210: e034 ac3e 736e 6e3e ce48 943e f450 a63e
00000220: ffd2 033f a587 f03d 8890 5bbe b962 94be
00000230: 80c0 8ebe 4e43 bf3b 4320 86be c578 2f3e
00000240: 886e 0e3d da7f 83bd ee0c c83d 7a1a 963d
00000250: 10f2 023e 51a3 ec3d d8f1 a13c 306a b73e
00000260: 6f3e 85bd a1ef 8abc 87c1 bfbe 27f1 4fbe
00000270: 4c7b 4dbe 7a62 d6bd 7343 5a3e f2bc ecbd
00000280: 21b2 f0be 05d9 7c3d 5c4e d83d a322 013f
00000290: 017b 54be 343d 353e 28c2 42be b6aa ec3c
000002a0: 45c3 5bbe 15e9 85be 2a6d 80be f065 d43d
000002b0: e7da 6b3b dad8 dd3c f89f f33e bc5a a53e
000002c0: 821c 913e 6867 713d 67a6 e9be 8a44 283e
000002d0: 5228 8dbc 83d5 9f3d 6be0 cbbe c279 5fbe
000002e0: 5dd1 9dbe fb92 4d3e ff2b abbe 85f5 aebe
000002f0: d2bb afbc c4e1 81be cc0c 923c 996f b4bd
00000300: dccc b1be 99b4 543c eaed 8e3e 7880 4dbe
00000310: e34d 5e3e d550 ce3d 98ce b93e 36a8 9dbe
00000320: e66d 0cbb 73fb bebe e25b 793e c01d e13b
00000330: 32ba 5fbb a15a 86be 7323 19bd e73a 3b3d
00000340: 2be3 4d3c 37f9 d03d aa78 be3c b2a3 183d
00000350: eaa5 7fbe d952 913e c592 a63e a720 db3e
00000360: 3f5f 9c3c 3c6e 76be a4dc a2bd 1310 293d
00000370: 1549 12bd cd1c c53b 3faa 6cbd fb91 7ebe
00000380: 09e9 b93e 4683 8dbe cc15 2a3c b8a2 9b3e
00000390: 2526 fa3e 1b5c 833e 7d59 52bd 7e2b edbe
000003a0: fabd 503e ad83 9f3d b000 edbd d407 df3c
000003b0: 0d1f c2be cd4c 293e 3d0f 723e 82a1 adbe
000003c0: dadc f4be cbe8 87be 4533 973d 2b88 c13d
000003d0: 4e5f 4cbe ed4e 9e3e 58f5 b4be 6442 07be
000003e0: 9e1b 03be 2dd0 923e b5d8 9c3e e8bb c43c
000003f0: 2d92 883d d69d aa3d 4839 cb3d 356d 3cbc

layer1.bias f4 [128]
-0.012495156 -0.08621437 0.16085081 -0.10131194 -0.3058209 0.1345074 -0.19966085 -0.12783284
0.3459968 0.15549831 0.10302261 -0.010353673 -0.30757636 0.14586158 -0.26224667 0.015922438
-0.34645262 0.15695865 -0.1866731 0.3383669 0.16938598 0.35818425 0.007334075 0.012562607
0.17315292 -0.23844887 -0.16265921 -0.4430704 0.4284972 -0.026463754 0.12050641 0.02453735
0.14773434 -0.25115877 -0.21114808 0.281124 0.17219374 -0.021955289 -0.26326394 -0.11232442
-0.24692528 0.0034365996 -0.2786106 -0.29437652 -0.4164708 0.050375596 0.03047513 0.35605353
-0.34265798 -0.11262937 -0.18703434 -0.25951016 0.0076975366 0.38118693 0.071385495 -0.1068108
0.244547 -0.35735255 0.015527703 0.2525484 0.28211078 0.07616752 -0.19174404 -0.43813956
-0.16636051 0.17521866 0.26643392 0.0253229 -0.3010826 -0.04982497 0.11342214 0.010891717
-0.15451434 0.05208781 0.036195114 0.05473335 -0.055866085 0.20398307 -0.3946051 -0.13006824
0.0057211057 0.22916058 0.13979538 0.14414705 0.3863103 0.10836275 -0.36409917 0.14023887
-0.22248954 -0.0015604808 0.05936677 0.3405882 -0.13929315 -0.18995962 -0.13698104 -0.090659015
0.35822746 0.20924538 0.17928506 0.09599352 -0.09562238 -0.083425924 -0.27159828 0.11996202
-0.2389407 0.056477353 0.14930874 0.26862958 -0.35947615 0.41522336 -0.117698 -0.043690905
0.34004158 0.2924291 -0.26741847 0.25961035 -0.33068937 0.29261792 0.411338 0.011770975
0.02990485 -0.0069759944 -0.2790085 -0.31417525 -0.07711364 -0.37265316 -0.307909 -0.11617625
00000000: 7cb8 4cbc 2991 b0bd 13b6 243e a27c cfbd
00000010: 8f94 9cbe 4fbc 093e e573 4cbe 9de6 02be
00000020: 7e26 b13e f33a 1f3e 85fd d23d 74a2 29bc
00000030: a67a 9dbe bd5c 153e 3245 86be c66f 823c
00000040: 3d62 b1be c5b9 203e 3c27 3fbe 6d3e ad3e
00000050: 8573 2d3e ed63 b73e ae52 f03b 65d3 4d3c
00000060: 004f 313e f12b 74be 2390 26be 20da e2be
00000070: fc63 db3e 84ca d8bc 11cc f63d 8d02 c93c
00000080: ac47 173e e297 80be 3437 58be 7cef 8f3e
00000090: 8e53 303e 94db b3bc 88ca 86be 580a e6bd
000000a0: fbd9 7cbe 9338 613b 0ca6 8ebe 85b8 96be
000000b0: a93b d5be a456 4e3d fba6 f93c a64c b63e
000000c0: de70 afbe 3aaa e6bd ee85 3fbe 84de 84be
000000d0: 9e3b fc3b ef2a c33e 8f32 923d 9fbf dabd
000000e0: 876a 7a3e eaf6 b6be e867 7e3c 064e 813e
000000f0: d370 903e b7fd 9b3d 8d58 44be d453 e0be
00000100: 695a 2abe 856c 333e 076a 883e f871 cf3c
00000110: 8027 9abe 4515 4cbd de49 e83d 2c73 323c
00000120: 0239 1ebe 075a 553d 5441 143d 1430 603d
00000130: d6d3 64bd f0e0 503e ae09 cabe 9c30 05be
00000140: 1d78 bb3b 12a9 6a3e 8526 0f3e 499b 133e
00000150: 77ca c53e 4aed dd3d 356b babe c79a 0f3e
00000160: 4cd4 63be 0c89 ccba 922a 733d 9461 ae3e
00000170: dda2 0ebe c684 42be c244 0cbe 6fab b9bd
00000180: 9769 b73e 6c44 563e 8196 373e 4098 c43d
00000190: abd5 c3bd 36db aabd ee0e 8bbe a6ae f53d
000001a0: dfac 74be cc54 673d 64e4 183e d189 893e
000001b0: 420d b8be 2898 d43e a60b f1bd 3cf5 32bd
000001c0: ee19 ae3e 44b9 953e 13eb 88be a6eb 843e
000001d0: 1e50 a9be 04d2 953e e59a d23e 0cdb 403c
000001e0: 04fb f43c e296 e4bb 34da 8ebe 94db a0be
000001f0: c2ed 9dbd 65cc bebe 40a6 9dbe d0ed edbd

layer2.weight f4 [128, 128]
-0.041462988 -0.046617538 -0.05608829 0.02016303 0.09928218 0.0002074714 -0.037240937 0.020065524
-0.12118564 0.087414026 0.08121385 -0.042894 -0.05238207 0.13898264 -0.11201017 0.05665591
-0.061128113 -0.13203599 0.039819025 -0.09328793 0.097199954 0.0052254563 -0.0784941 -0.083990015
0.06462203 0.11970709 -1.751287e-05 -0.0597751 -0.10247568 0.04889004 -0.014667576 0.049967717
0.07698366 0.07928332 0.01998293 0.021618944 0.06633873 -0.0072680614 0.08020114 0.013789525
-0.0019327367 -0.05800944 0.007265053 0.08223903 0.0855281 -0.012668475 -0.035796672 0.0565683
0.06828968 0.17925878 0.026762785 -0.019626476 -0.024587482 -0.05306711 0.008998884 0.0037701814
-0.04563835 -0.06427409 0.03819456 0.006821473 -0.1557218 0.025037117 0.05351753 0.05091756
0.11612296 -0.048626162 0.09760226 -0.1037626 -0.009717778 -0.057092402 -0.02065345 0.09487895
0.094111644 0.012830013 -0.031884093 -0.050662205 0.0015495984 -0.025010956 0.057276048 0.05289522
0.0876908 -0.055014152 0.076249816 -0.029199008 -0.039681327 -0.04447541 -0.006427644 -0.05991951
-0.006296939 -0.08155582 0.037205998 -0.08144527 -0.011796763 -0.0541462 0.015028113 0.07448092
-0.07387738 -0.08399138 0.07045412 0.06489242 0.071640156 -0.07468066 0.07689152 0.070639215
0.044831816 -0.009890883 0.097762495 0.04314208 0.037474554 -0.022845669 -0.040907886 -0.04336573
0.10470535 0.04020053 0.0643015 0.06844724 -0.07707157 0.04177215 -0.064745955 0.0079603195
0.018618392 -0.013915906 -0.017973255 -0.028622009 -0.11431373 -0.07103185 0.07116862 -0.06385221
-0.021274092 -0.015573972 0.02262649 -0.025079902 0.051443838 -0.025676347 0.057481498 -0.017707108
0.004289519 -0.010681607 0.10536244 0.015088769 0.04038176 -0.039588604 0.012026379 0.12113687
-0.102230616 -0.022520987 0.06504876 -0.043601546 -0.029713225 -0.015831757 0.021360008 0.056037616
-0.020729983 0.040915262 -0.07114826 0.030208383 -0.061460435 0.0600495 -0.059954405 -0.08253831
-0.0009690022 0.042462982 -0.004045154 0.03774668 0.0038430714 0.05578167 -0.011928706 -0.1315353
-0.06364224 0.033232644 -0.012472976 0.07223962 -0.054563843 0.06920083 -0.047540087 -0.053228095
-0.020489315 -0.09759561 -0.013608878 0.020647392 -0.12240287 0.09329903 -0.08671753 0.046669383
0.027508011 0.0014206264 -0.061262805 0.0058301617 -0.04780339 0.08628232 -0.07847751 -0.038201276
-0.022347618 -0.0658359 -0.04217793 0.021429243 -0.018839626 0.007281901 0.08517532 -0.005614229
-0.06401364 -0.04449883 0.10597895 -0.023808172 -0.08479804 0.05163956 -0.009866629 0.018968329
0.005417794 0.129188 -0.060280137 0.016344411 0.15289307 0.019416723 0.043364182 0.0720666
0.119762145 -0.026801972 -0.09965649 -0.05751761 -0.09399821 0.016233832 0.065386154 0.07264677
0.029677112 0.01487533 0.040331792 0.064348444 0.07920225 0.010064894 -0.00714787 0.025152931
-0.00450548 -0.033318155 -0.012844428 0.09199447 0.062228695 -0.030665018 -0.033444095 -0.063095994
0.016976861 0.067520075 -0.07033272 0.085734285 -0.079265416 -0.099450305 -0.014764996 0.0054221363
-0.0066628614 -0.04495642 -0.052869186 -0.07329644 -0.057865936 -0.06923511 0.05883959 -0.07507407
00000000: 18d5 29bd 08f2 3ebd d6bc 65bd f02c a53c
00000010: 7554 cb3d ae8c 5939 f489 18bd 7460 a43c
00000020: 2d30 f8bd 2006 b33d 7253 a63d 9eb1 2fbd
00000030: 958e 56bd 7751 0e3e 9765 e5bd 0710 683d
00000040: 7961 7abd 7134 07be 4619 233d be0d bfbd
00000050: c510 c73d 4e3a ab3b 84c1 a0bd f502 acbd
00000060: 8e58 843d fe28 f53d 9ae8 92b7 bcd6 74bd
00000070: c5de d1bd ec40 483d 4650 70bc f3aa 4c3d
00000080: 9ca9 9d3d 4b5f a23d 3eb3 a33c 361a b13c
00000090: 9adc 873d eb28 eebb 7f40 a43d 76ed 613c
000000a0: e253 fdba 4e9b 6dbd af0f ee3b f06c a83d
000000b0: 5b29 af3d 6f8f 4fbc 889f 12bd 29b4 673d
000000c0: 76db 8b3d 9d8f 373e a13d db3c b4c7 a0bc
000000d0: b06b c9bc e65c 59bd 0e70 133c 2615 773b
000000e0: 47ef 3abd 22a2 83bd e671 1c3d aa86 df3b
000000f0: 8975 1fbe a41a cd3c 3335 5b3d ee8e 503d
00000100: e0d1 ed3d 3a2c 47bd b2e3 c73d 7c81 d4bd
00000110: 5137 1fbc b9d9 69bd 6d31 a9bc e54f c23d
00000120: 9bbd c03d fa34 523c e598 02bd 2c83 4fbd
00000130: e51b cb3a c7e3 ccbc 4a9a 6a3d a9a8 583d
00000140: 3c97 b33d 8556 61bd dd28 9c3d c232 efbc
00000150: e388 22bd d92b 36bd fc9e d2bb 296e 75bd
00000160: 8e56 cebb bd06 a7bd 5165 183d c7cc a6bd
00000170: 3647 41bc 68c8 5dbd 7938 763c 7489 983d
00000180: 064d 97bd ac03 acbd 404a 903d 51e6 843d
00000190: 13b8 923d 2df2 98bd 4d79 9d3d 4bab 903d
000001a0: 91a1 373d 5f0d 22bc b437 c83d c0b5 303d
000001b0: eb7e 193d d726 bbbc 078f 27bd 44a0 31bd
000001c0: c26f d63d 50a9 243d 81b0 833d 112e 8c3d
000001d0: b3d7 9dbd 4619 2b3d 8799 84bd 006c 023c
000001e0: 9985 983c 8aff 63bc a63c 93bc b478 eabc
000001f0: 511d eabd 2679 91bd dac0 913d f3c4 82bd
00000200: 0147 aebc f929 7fbc 305b b93c 5e74 cdbc
00000210: c6b6 523d 3457 d2bc b871 6b3d 7f0e 91bc
00000220: 188f 8c3b e801 2fbc 43c8 d73d e236 773c
00000230: 5867 253d a927 22bd 4a0a 453c 9b16 f83d
00000240: 495e d1bd ef7d b8bc 4938 853d 8997 32bd
00000250: 2669 f3bc 9ab1 81bc 2ffb ae3c b387 653d
00000260: edd1 a9bc c396 273d 2eb6 91bd 9277 f73c
00000270: f0bd 7bbd 77f6 753d c092 75bd d809 a9bd
00000280: a304 7eba aaed 2d3d 368d 84bb 439c 1a3d
00000290: 0adc 7b3b 527b 643d 9f70 43bc 31b1 06be
000002a0: dd56 82bd f41e 083d 745b 4cbc 5ef2 933d
000002b0: 567e 5fbd 2ab9 8d3d 65b9 42bd b405 5abd
000002c0: 35d9 a7bc 35e0 c7bd c5f7 5ebc b824 a93c
000002d0: 5bae fabd 9013 bf3d f698 b1bd 6528 3f3d
000002e0: 7b58 e13c 5034 ba3a b5ee 7abd f10a bf3b
000002f0: 7dcd 43bd c9b4 b03d d1b8 a0bd f178 1cbd
00000300: 5a12 b7bc f9d4 86bd c4c2 2cbd 618c af3c
00000310: 8f55 9abc 039d ee3b 6670 ae3d 91f7 b7bb
00000320: 9519 83bd 6844 36bd 7e0b d93d 5b09 c3bc
00000330: 98aa adbd 0184 533d a4a7 21bc 7863 9b3c
00000340: c087 b13b dc49 043e 4ee8 76bd b7e4 853c
00000350: 0090 1c3e d20f 9f3c a49e 313d a797 933d
00000360: db45 f53d cf8f dbbc b418 ccbd 9697 6bbd
00000370: 2282 c0bd d0fc 843c 2de9 853d d4c7 943d
00000380: 6a1d f33c a8b7 733c f332 253d 1ec9 833d
00000390: ca34 a23d 3ae7 243c ae38 eabb 850d ce3c
000003a0: b5a2 93bb 9e78 08bd 7071 52bc 9967 bc3d
000003b0: 84e3 7e3d 3435 fbbc adfc 08bd 7938 81bd
000003c0: 0f13 8b3c f747 8a3d 9a0a 90bd 7595 af3d
000003d0: e855 a2bd 9aac cbbd e2e8 71bc 2dac b13b
000003e0: 2254 dabb 3924 38bd 5c8d 58bd 721c 96bd
000003f0: d504 6dbd 23cb 8dbd c801 713d 6fc0 99bd

layer2.bias f4 [128]
-0.03873436 -0.043724872 -0.028731752 0.010702966 -0.13607737 0.06304372 -0.06694038 0.1928096
-0.022995442 0.010890265 0.037404224 0.10911077 -0.031013029 -0.25129378 0.023490625 -0.027731262
-0.093739614 -0.018665904 -0.01964447 0.1042431 0.13443066 0.079853706 0.047659017 0.010760619
0.08480091 -0.1505564 -0.024845693 -0.0011227586 0.041478846 0.038781833 0.17117111 -0.104685485
-0.059092406 0.053878263 0.0097933 0.06916356 0.1429593 0.0071790665 -0.067064516 -0.026298653
-0.14240232 0.08982209 0.028264368 -0.1043412 0.057119682 0.09589675 0.1565226 -0.0764005
0.12468195 0.02415467 0.035334803 -0.046103418 0.09149923 0.083029374 -0.0078832675 -0.08430096
0.064576484 -0.17040572 0.06827675 0.09430524 0.0280948 0.04691549 -0.08599724 0.024201533
0.0135790855 -0.07945172 0.0125142215 -0.03533285 0.014582597 0.006173279 -0.02665472 -0.04059261
0.15930428 0.1144528 -0.024333889 -0.044616092 0.025540078 -0.15030171 -0.052513916 -0.098332494
0.025575692 -0.023234118 0.08006226 -0.08562169 -0.082532614 -0.022998337 -0.107297055 -0.15134051
-0.065040484 -0.01773512 0.04280398 0.111053765 0.0011806563 0.18981497 0.09551668 -0.00395689
-0.09278164 -0.030590663 0.0020896094 0.01415971 0.06986659 0.15249999 -0.037446007 0.08913033
0.061333735 0.1086016 -0.03837322 0.018750848 0.10508849 -0.16420354 -0.047486253 -0.056573536
0.086391196 0.0061191143 0.010598571 0.02021378 0.08443631 -0.07441335 -0.1323235 -0.03844163
-0.037416033 -0.05336522 -0.02392086 0.00023191606 -0.15698335 -0.20587602 0.010324115 -0.06029929
00000000: eca7 1ebd da18 33bd da5e ebbc 7e5b 2f3c
00000010: de57 0bbe 111d 813d 0a18 89bd e16f 453e
00000020: f060 bcbc 156d 323c 2c35 193d 7875 df3d
00000030: 090f febc 94a9 80be 696f c03c ac2c e3bc
00000040: 8efa bfbd 3de9 98bc 71ed a0bc 687d d53d
00000050: 31a8 093e 578a a33d 1a36 433d 4f4d 303c
00000060: 19ac ad3d 752b 1abe 3289 cbbc 8729 93ba
00000070: b9e5 293d b3d9 1e3d 7b47 2f3e 5865 d6bd
00000080: e10a 72bd 74af 5c3d 1474 203c a0a5 8d3d
00000090: ec63 123e 603e eb3b 1f59 89bd 4670 d7bc
000000a0: ead1 11be a5f4 b73d ad8a e73c d7b0 d5bd
000000b0: 54f6 693d 8465 c43d 7647 203e de77 9cbd
000000c0: 4059 ff3d 04e0 c53c 3abb 103d f0d6 3cbd
000000d0: f363 bb3d 4e0b aa3d d228 01bc fba5 acbd
000000e0: ad40 843d d67e 2ebe aed4 8b3d 1b23 c13d
000000f0: 1127 e63c 752a 403d 521f b0bd 4b42 c63c
00000100: d07a 5e3c 95b7 a2bd 7308 4d3c 2eb9 10bd
00000110: d8eb 6e3c 3849 ca3b 005b dabc 7044 26bd
00000120: a920 233e 3b66 ea3d dd57 c7bc 5dbf 36bd
00000130: 6d39 d13c b1e8 19be d518 57bd 8c62 c9bd
00000140: 1d84 d13c 7a55 bebc aff7 a33d 6d5a afbd
00000150: dc06 a9bd 0267 bcbc 8fbe dbbd 02f9 1abe
00000160: f233 85bd 3e49 91bc 3a53 2f3d 2870 e33d
00000170: 40c0 9a3a db5e 423e 409e c33d cda8 81bb
00000180: 4d04 bebd 4599 fabc d4f1 083b 21fe 673c
00000190: 3716 8f3d f528 1c3e fc60 19bd f689 b63d
000001a0: 1539 7b3d 846a de3d 3d2d 1dbd 619b 993c
000001b0: a238 d73d f924 28be f280 42bd a7b9 67bd
000001c0: deed b03d da82 c83b a1a5 2d3c 5f97 a53c
000001d0: f2ec ac3d 0766 98bd d07f 07be f874 1dbd
000001e0: 8e41 19bd 7d95 5abd aef5 c3bc 7e2e 7339
000001f0: 3ec0 20be 2ad1 52be 7a26 293c 63fc 76bd

layer3.weight f4 [128, 128]
-0.07471677 0.07735426 0.0405065 -0.0061988533 -0.06199804 -0.059522342 -0.056219712 0.066007525
0.06786294 0.08229559 0.025619749 0.00012897328 -0.050673887 -0.05960313 0.07747407 0.07869741
0.10976599 0.0062649436 0.062455617 0.0029406748 -0.024447434 -0.022375196 -0.047924686 -0.08103116
-0.043078836 -0.030152908 0.08261617 -0.055180177 -0.024604784 0.023751076 0.017229278 0.013961385
0.051901508 -0.081387445 0.008200284 -0.109374665 -0.0006572895 0.06494529 0.05717968 0.02174374
-0.095079176 0.017273184 0.0029550563 -0.09928105 -0.10340081 -0.055162266 0.03591744 0.056984995
-0.11591874 -0.04866892 0.0326975 -0.044681 0.075302005 0.044141192 -0.02515959 0.11321908
-0.015118088 -0.02772898 0.00074887305 -0.06349938 0.054273594 -0.06374934 0.06983279 -0.031985916
0.004195304 -0.16860174 -0.047544323 0.02639284 -0.102055945 0.053061884 -0.030792836 -0.058778763
0.06174034 0.015777351 0.025582235 -0.020588493 0.015365336 0.033728734 -0.07427634 -0.06614383
-0.09064881 -0.007906224 0.04214522 -0.08419668 0.019558676 -0.053622853 0.022822255 0.079662025
-0.024227586 0.058992133 0.021805435 0.021683915 0.014362712 -0.055667464 0.062675364 0.056714542
0.08781667 0.02490694 -0.042825554 -0.027559515 0.058077604 -0.0019551492 -0.016656624 0.046157215
-0.0087058 0.13858245 0.04661131 -0.07452369 0.06920763 0.03262337 -0.09104893 -0.049133427
0.030425472 0.034675855 0.094804905 0.018575447 0.07049754 -0.060241077 0.07031919 0.041603047
0.029437056 -0.060855716 -0.111251414 -0.031181576 0.04425379 0.0034235697 0.012674413 0.0018087394
0.104771495 0.03832432 -0.053461187 0.030964823 -0.003036333 -0.014034177 -0.12771568 0.12441629
0.028540574 -0.03393258 -0.09217172 0.04012324 -0.025337188 -0.04363637 0.010967488 -0.0039701927
0.03279406 -0.118026555 -0.03830297 0.0001288557 0.08800929 -0.029681873 -0.036551062 0.018050412
0.0028296683 -0.07446172 0.00365605 0.04993891 0.04402742 -0.03268765 0.0616187 -0.0371206
0.08313684 0.05305109 0.08100846 0.014495731 0.046240762 -0.043090384 0.008002305 0.029499775
-0.09399917 -0.033247054 -0.01936711 0.10988659 0.058757182 0.006342887 -0.019402077 -0.0786403
0.13722076 0.019359173 -0.028207919 -0.05554317 -0.01574635 0.050493754 0.05604928 -0.12343101
-0.036214687 -0.038340613 0.14369474 -0.03444768 -0.037926722 0.06499127 -0.026378868 -0.08520501
0.03134432 0.13305746 -0.09729545 0.09219734 -0.004851908 0.10284116 0.02854319 -0.006714014
-0.038845584 0.1004923 -0.020131826 0.018232303 0.055244517 -0.03964961 -0.021941187 0.109504946
0.11128517 0.051447246 -0.05144383 -0.01256108 -0.020730315 -0.005929776 -0.058116052 0.02441511
-0.09351952 -0.057217676 -0.0068073017 0.023799988 0.029414695 0.00422288 0.0031106921 -0.18107903
0.0836479 0.11544893 -0.07020671 -0.12074894 -0.114215486 -0.08099173 0.028300766 -0.08070997
-0.13258138 -0.039696872 0.0006264992 -0.02798097 0.045546263 -0.06828355 -0.031580254 -0.044684958
0.0608692 -0.010588056 -0.04202598 -0.006965756 -0.016801625 0.046529733 -0.054492604 -0.049784504
-0.05274094 -0.09342426 0.098594196 -0.016621444 -0.021671413 0.033333242 -0.00066745427 0.08832652
00000000: 1b05 99bd e96b 9e3d 25ea 253d c01f cbbb
00000010: a8f1 7dbd b3cd 73bd a446 66bd f42e 873d
00000020: bafb 8a3d 978a a83d 82e0 d13c 003d 0739
00000030: 6c8f 4fbd 6922 74bd baaa 9e3d 1c2c a13d
00000040: fecc e03d 284a cd3b 76d1 7f3d 56b8 403b
00000050: fc45 c8bc 304c b7bc ad4c 44bd aaf3 a5bd
00000060: 6f73 30bd 3b03 f7bc ab32 a93d 9c04 62bd
00000070: f98f c9bc 9e91 c23c 6a24 8d3c 4bbe 643c
00000080: ad96 543d 76ae a6bd 7c5a 063c d3ff dfbd
00000090: f44d 2cba 0902 853d 3d35 6a3d ee1f b23c
000000a0: dfb8 c2bd 7e80 8d3c 9ea9 413b dd53 cbbd
000000b0: cec3 d3bd d4f1 61bd 2a1e 133d 1969 693d
000000c0: ce66 edbd 1059 47bd d0ed 053d 6d03 37bd
000000d0: f037 9a3d 65cd 343d 7c1b cebc 68df e73d
000000e0: dbb1 77bc e327 e3bc 0550 443a f70b 82bd
000000f0: fd4d 5e3d 048f 82bd 7e04 8f3d aa03 03bd
00000100: c378 893b efa5 2cbe d6bd 42bd cc35 d83c
00000110: b502 d1bd 6b57 593d 4241 fcbc 00c2 70bd
00000120: 70e3 7c3d 813f 813c d691 d13c 33a9 a8bc
00000130: e4be 7b3c 2427 0a3d 321e 98bd 6b76 87bd
00000140: 15a6 b9bd 1b89 01bc 77a0 2c3d 4f6f acbd
00000150: 8439 a03c a3a3 5bbd bdf5 ba3c d825 a33d
00000160: ee78 c6bc bca1 713d 50a1 b23c 77a2 b13c
00000170: 9551 6b3c 9103 64bd f15b 803d 824d 683d
00000180: 3ad9 b33d a409 cc3c d969 2fbd 7ec4 e1bc
00000190: c8e2 6d3d f621 00bb 7973 88bc 590f 3d3d
000001a0: c6a2 0ebc 8fe8 0d3e 80eb 3e3d e09f 98bd
000001b0: bbbc 8d3d 15a0 053d dd77 babd 2240 49bd
000001c0: d73e f93c 4508 0e3d 1329 c23d 892b 983c
000001d0: 0461 903d 59bf 76bd 8203 903d f567 2a3d
000001e0: fb25 f13c d843 79bd c8d7 e3bd 8170 ffbc
000001f0: 7643 353d f85d 603b 57a8 4f3c 3913 ed3a
00000200: 7092 d63d f6f9 1c3d 1efa 5abd f1a9 fd3c
00000210: 37fd 46bb 9bef 65bc e6c7 02be f8cd fe3d
00000220: eccd e93c e4fc 0abd 87c4 bcbd 4458 243d
00000230: ef8f cfbc 0dbc 32bd fbb0 333c 6418 82bb
00000240: 1053 063d e8b7 f1bd 93e3 1cbd 701d 0739
00000250: 373e b43d 6627 f3bc 91b6 15bd 75de 933c
00000260: f571 393b 637f 98bd 579a 6f3b be8c 4c3d
00000270: 1956 343d 7ce3 05bd e463 7c3d c50b 18bd
00000280: a643 aa3d 1a4c 593d c3e7 a53d 817f 6d3c
00000290: f466 3d3d 8b7f 30bd 1a1c 033c 83a9 f13c
000002a0: a382 c0bd 102e 08bd c6a7 9ebc 380c e13d
000002b0: 5fab 703d fed7 cf3b 1bf1 9ebc 2a0e a1bd
000002c0: 9983 0c3e 2197 9e3c 4b14 e7bc 3c81 63bd
000002d0: 7dfe 80bc 8ad2 4e3d ee93 653d 66c9 fcbd
000002e0: da55 14bd 0c0b 1dbd b724 133e 0319 0dbd
000002f0: 0d59 1bbd 251a 853d 7f18 d8bc f77f aebd
00000300: e762 003d 3740 083e d642 c7bd f6d1 bc3d
00000310: c1fc 9ebb 639e d23d 68d3 e93c 3b01 dcbb
00000320: 8c1c 1fbd e8ce cd3d 80eb a4bc e95b 953c
00000330: 1348 623d a167 22bd 01be b3bc 2144 e03d
00000340: 7be9 e33d 59ba 523d c4b6 52bd fdcc 4dbc
00000350: 9fd2 a9bc 914e c2bb 190b 6ebd 3202 c83c
00000360: 2987 bfbd 155d 6abd c90f dfbb 31f8 c23c
00000370: 16f7 f03c 1660 8a3b c1dc 4b3b c86c 39be
00000380: 974f ab3d 7d70 ec3d 89c8 8fbd 384b f7bd
00000390: cfe9 e9bd fede a5bd 02d7 e73c 454b a5bd
000003a0: 6ac3 07be 3099 22bd a63b 243a 5938 e5bc
000003b0: b88e 3a3d 3fd8 8bbd 4c5a 01bd 9307 37bd
000003c0: fb51 793d 8779 2dbc 6f23 2cbd ff40 e4bb
000003d0: 90a3 89bc f695 3e3d a333 5fbd d6ea 4bbd
000003e0: e206 58bd 3855 bfbd c1eb c93d b229 88bc
000003f0: 3f88 b1bc 7088 083d 19f8 2eba 89e4 b43d

layer3.bias f4 [128]
0.034354575 0.052393988 -0.0062813293 -0.05455585 0.023286644 0.20252028 -0.013776489 0.09800451
0.051069334 -0.12862235 -0.08316066 -0.014283001 0.02823279 0.054175932 0.05593853 0.04327979
-0.0066642067 -0.08136719 0.06218594 -0.077704705 -0.077960595 -0.087834656 0.05600066 -0.07474593
0.16382235 -0.1669167 -0.071802594 0.223589 0.16180742 -0.11124073 0.16408648 0.05330637
0.022373833 -0.1645658 -0.10726939 0.013623664 -0.1095736 0.06971271 -0.06415383 0.15857561
0.084304065 -0.069346994 -0.10188635 0.14692634 -0.13553333 -0.04460556 0.18687329 0.016475007
0.07043419 0.07575002 0.067922756 0.07310033 0.1233449 -0.1100806 0.16234767 0.039080624
0.09650741 0.115646675 0.20218228 -0.09614345 -0.053504333 0.10346199 0.07021236 -0.052094985
-0.08417805 0.08330937 0.09805196 -0.117566206 -0.06524472 0.07013609 -0.0121147195 -0.043310247
0.0719207 0.06294017 -0.13350688 -0.09517019 0.08220576 0.050999764 0.066308215 0.08240308
0.2236654 0.011454492 -0.06974719 -0.0675793 -0.103121996 0.08051437 0.1936702 -0.056738753
0.13850106 0.088549174 0.09837845 0.108984336 -0.1325087 0.010596071 -0.12932803 -0.040818226
0.17019494 -0.1841506 0.08672822 -0.104659796 -0.20670334 0.043830253 0.045926757 0.0151360845
0.14292838 0.046613418 0.20324129 0.0044434885 0.14336789 -0.13689658 0.13739559 -0.042599797
-0.057792768 -0.11198213 -0.09936066 -0.18338802 -0.13565238 -0.033971414 -0.046009745 -0.04377669
0.08868868 -0.010500677 -0.011316192 0.005512759 -0.035464883 -0.0845595 -0.11210567 0.09374487
00000000: 62b7 0c3d 149b 563d 9cd3 cdbb f475 5fbd
00000010: a2c3 be3c 7a61 4f3e c8b6 61bc 97b6 c83d
00000020: 142e 513d 94b5 03be 2350 aabd 4003 6abc
00000030: 7448 e73c 95e7 5d3d cd1f 653d 2646 313d
00000040: 6b5f dabb d7a3 a6bd afb6 7e3d a523 9fbd
00000050: cea9 9fbd a8e2 b3bd f360 653d 6514 99bd
00000060: 0cc1 273e 36ec 2abe 3d0d 93bd 84f4 643e
00000070: d8b0 253e 2ed2 e3bd 4906 283e c857 5a3d
00000080: 5449 b73c f083 28be 0eb0 dbbd ca35 5f3c
00000090: 2068 e0bd 8ac5 8e3d 1563 83bd a561 223e
000000a0: 9ca7 ac3d cc05 8ebd caa9 d0bd dc73 163e
000000b0: 40c9 0abe 52b4 36bd b65b 3f3e 98f6 863c
000000c0: cd3f 903d d422 9b3d 161b 8b3d a0b5 953d
000000d0: 409c fc3d f071 e1bd 783e 263e 0113 203d
000000e0: ada5 c53d 2ad8 ec3d df08 4f3e dbe6 c4bd
000000f0: 5c27 5bbd e1e3 d33d 7fcb 8f3d 8d61 55bd
00000100: 8b65 acbd 1a9e aa3d 77cf c83d 8dc6 f0bd
00000110: 069f 85bd 83a3 8f3d d17c 46bc 1666 31bd
00000120: 294b 933d c7e6 803d 07b6 08be 97e8 c2bd
00000130: 7e5b a83d 21e5 503d 9acc 873d f2c2 a83d
00000140: 8b08 653e 9fab 3b3c 9dd7 8ebd 0467 8abd
00000150: a031 d3bd b8e4 a43d 7b51 463e e566 68bd
00000160: 39d3 0d3e 4559 b53d a47a c93d 2e33 df3d
00000170: 5cb0 07be 259b 2d3c 916e 04be 0331 27bd
00000180: 9547 2e3e fa91 3cbe 919e b13d e057 d6bd
00000190: 0aaa 53be 5a87 333d b21d 3c3d 57fd 773c
000001a0: d15b 123e b6ed 3e3d 7c1e 503e af9a 913b
000001b0: 08cf 123e 9e2e 0cbe 6eb1 0c3e 207d 2ebd
000001c0: 1cb8 6cbd e356 e5bd 9a7d cbbd 12ca 3bbe
000001d0: 75e8 0abe 9c25 0bbd b774 3cbd 304f 33bd
000001e0: 69a2 b53d 080b 2cbc 8d67 39bc 60a4 b43b
000001f0: a043 11bd 882d adbd a897 e5bd 4ffd bf3d

layer4.weight f4 [128, 128]
-0.07076977 0.09456039 0.07999812 0.050770294 0.014067671 -0.0517459 -0.07769011 -0.07833508
0.022079727 0.038660478 -0.051161285 -0.0013835579 -0.035940237 0.005214509 -0.018597633 -0.036207236
0.049452044 0.007872773 0.0029552013 0.025198549 0.00663134 -0.035351124 -0.013201851 -0.0687154
0.048433192 -0.0075038127 0.052531857 -0.025414605 0.057043552 0.08285994 -0.059750505 0.047462713
-0.0048838076 -0.028419731 -0.030337444 -0.041145734 -0.03555883 0.08670306 -0.05001584 0.05448178
-0.020076571 0.020472594 -0.06744656 -0.06355846 0.09214705 -0.03994377 0.038660333 0.05221124
0.033047706 0.019919777 0.0020851775 0.025434498 -0.073823705 -0.077981435 0.05157331 0.060808755
-0.034805056 -0.042527422 0.10083773 -0.01838742 -0.03988955 -0.009314551 -0.035800423 -0.00240279
-0.08103516 -0.050543875 0.0113494685 0.006754617 0.03238612 0.08296993 -0.056732215 0.029032469
-0.07025936 -0.012650195 -0.0064819558 -0.06636028 0.03670695 -0.0398495 -0.082814895 0.027495831
0.028067915 0.012169549 -0.00634974 0.05899859 0.028671807 -0.06411554 0.083399825 -0.06711983
0.07749544 -0.08225232 0.053181525 0.037354145 -0.060512554 0.026345989 0.056293994 -0.05069287
0.10343871 0.032438993 0.009027265 0.04518905 0.017158756 0.09429372 -0.006437176 -0.07524547
-0.057117 0.01734335 0.06730379 -0.07340144 0.0073695304 0.034942813 -0.015978944 -0.040232684
0.049562037 0.032017082 0.069308124 -0.054113634 -0.008227348 -0.039150123 -0.012219307 0.023721242
-0.030484961 0.04587036 0.058700025 -0.10221076 -0.06119281 -0.08112189 -0.062292296 0.04806817
-0.122824125 0.07854312 -0.092653096 -0.024991767 0.2106837 0.20630369 -0.01758203 0.23318645
0.05249896 0.082526274 -0.17033796 -0.05472904 0.114102654 0.007538622 0.098567136 -0.19387828
-0.16098654 0.007005776 -0.15446776 0.03779889 -0.013512787 -0.023338908 0.07893216 0.043290194
-0.13471784 -0.167495 0.016432863 -0.20202893 0.1679498 0.15606199 0.056478187 -0.10954929
-0.09331341 -0.03251389 -0.1697416 0.15738817 -0.08918113 -0.016568912 0.06238248 -0.12805846
0.100654565 -0.113549374 0.17387094 0.028594319 0.2888267 -0.117071 0.16665365 0.08698338
0.16069427 0.054142594 -0.18943459 0.09816157 -0.10861018 -0.04824108 0.033536468 0.12522931
-0.22614227 -0.087769 0.14954843 -0.083580084 -0.008205126 0.023467097 0.1679787 -0.02788024
-0.10176383 0.07445917 -0.17493287 -0.09418276 0.13224255 0.01836634 0.028194802 -0.082336135
0.13045704 -0.045559276 0.2242003 -0.043518733 -0.15193069 -0.038784947 0.11517391 -0.08029043
-0.06944271 0.15595597 -0.019037792 0.111262254 0.19843727 -0.09429187 0.24050803 -0.107098944
0.12470282 0.0031107904 0.06377245 -0.025257844 0.101368055 0.1015996 -0.065773524 0.04588776
0.10297625 -0.20003314 0.066752814 -0.024286313 -0.008531884 -0.07883249 0.05786623 -0.04256832
0.00543596 0.0024744035 0.08885017 -0.049160015 -0.21282664 -0.14370267 -0.11598054 -0.14848687
-0.0777096 0.029470371 0.014052104 -0.014172799 -0.2505427 -0.0077910367 0.08271273 0.0033445475
0.03381159 -0.06743144 0.0133037325 0.27311036 -0.053999804 0.07719499 0.03599774 0.021078305
00000000: beef 90bd e1a8 c13d 0ed6 a33d 83f4 4f3d
00000010: 177c 663c 82f3 53bd fe1b 9fbd 246e a0bd
00000020: 8be0 b43c 735a 1e3d 7f8e 51bd 8058 b5ba
00000030: 1236 13bd 79de aa3b 105a 98bc 0a4e 14bd
00000040: 3a8e 4a3d cefc 003c 0dac 413b 306d ce3c
00000050: b64b d93b 57cc 10bd 944c 58bc a9ba 8cbd
00000060: e261 463d 8be2 f5bb a52b 573d 4a32 d0bc
00000070: 80a6 693d 79b2 a93d f2bc 74bd 4368 423d
00000080: 5908 a0bb 7fd0 e8bc 3b86 f8bc 6e88 28bd
00000090: 23a6 11bd 6091 b13d 69dd 4cbd 4928 5f3d
000000a0: 9f77 a4bc 24b6 a73c 6c21 8abd f02a 82bd
000000b0: 98b7 bc3d 149c 23bd 4c5a 1e3d 74db 553d
000000c0: 085d 073d cd2e a33c 79a7 083b 025c d03c
000000d0: e230 97bd bbb4 9fbd 893e 533d 9a12 793d
000000e0: bf8f 0ebd 3c31 2ebd 0384 ce3d 37a1 96bc
000000f0: 3a63 23bd 0f9c 18bc 77a3 12bd 2078 1dbb
00000100: c3f5 a5bd 1807 4fbd 1ff3 393c d655 dd3b
00000110: 4fa7 043d 23ec a93d 0a60 68bd 80d5 ed3c
00000120: 24e4 8fbd c342 4fbc 9666 d4bb e6e7 87bd
00000130: 075a 163d 3b39 23bd db9a a9bd f03e e13c
00000140: afee e53c ca62 473c 7b11 d0bb 81a8 713d
00000150: 23e1 ea3c 024f 83bd 87cd aa3d 1f76 89bd
00000160: eeb5 9e3d e873 a8bd dfd4 593d a900 193d
00000170: 03dc 77bd 8bd3 d73c 8894 663d 54a3 4fbd
00000180: add7 d33d c0de 043d 18e7 133c 2718 393d
00000190: 8590 8c3c 111d c13d f2ee d2bb 4c1a 9abd
000001a0: 84f3 69bd a413 8e3c 92d6 893d 7f53 96bd
000001b0: 1a7c f13b 3220 0f3d 46e6 82bc 07cb 24bd
000001c0: 9001 4b3d 5824 033d 6bf1 8d3d 42a6 5dbd
000001d0: 00cc 06bc e15b 20bd 7d33 48bc 0d53 c23c
000001e0: 99bb f9bc 8fe2 3b3d 706f 703d e053 d1bd
000001f0: 50a5 7abd 3c23 a6bd 3526 7fbd 21e3 443d
00000200: 378b fbbd 37db a03d e8c0 bdbd 89bb ccbc
00000210: 78bd 573e 4641 533e 3008 90bc 6ec8 6e3e
00000220: 2609 573d 8903 a93d 136d 2ebe 8f2b 60bd
00000230: a7ae e93d 8b06 f73b 91dd c93d 0788 46be
00000240: a8d9 24be b590 e53b cc2c 1ebe 02d3 1a3d
00000250: bd64 5dbc 3d31 bfbc 2fa7 a13d 0f51 313d
00000260: 79f3 09be cf83 2bbe 369e 863c ace0 4ebe
00000270: 08fb 2b3e b7ce 1f3e ac55 673d 615b e0bd
00000280: 1a1b bfbd 492d 05bd bed0 2dbe 5d2a 213e
00000290: 99a4 b6bd 87bb 87bc c584 7f3d c221 03be
000002a0: fb23 ce3d 938c e8bd 390b 323e a23e ea3c
000002b0: 18e1 933e ecc2 efbd 41a7 2a3e 5824 b23d
000002c0: 0a8d 243e a0c4 5d3d 24fb 41be ef08 c93d
000002d0: 046f debd 7098 45bd 895d 093d 1d3c 003e
000002e0: d791 67be 3cc0 b3bd 3923 193e 092c abbd
000002f0: cb6e 06bc 123e c03c 9c02 2c3e 1a65 e4bc
00000300: 8e69 d0bd 0d7e 983d 9a21 33be e4e2 c0bd
00000310: 976a 073e 0275 963c c9f8 e63c d99f a8bd
00000320: 8896 053e 5d9c 3abd c394 653e b340 32bd
00000330: b893 1bbe f7dc 1ebd 4de0 eb3d 4f6f a4bd
00000340: fb37 8ebd ecb2 1f3e 25f5 9bbc 77dd e33d
00000350: 2433 4b3e 191c c1bd bd47 763e b156 dbbd
00000360: 3164 ff3d 67de 4b3b 219b 823d 8ae9 cebc
00000370: 0e9a cf3d 7313 d03d 45b4 86bd cef4 3b3d
00000380: 36e5 d23d 7dd5 4cbe b3b5 883d 17f4 c6bc
00000390: 51c9 0bbc ee72 a1bd 2405 6d3d 1e5c 2ebd
000003a0: 2320 b23b 9a29 223b 14f7 b53d 035c 49bd
000003b0: 3aef 59be cb26 13be 3587 edbd f10c 18be
000003c0: 3626 9fbd d96b f13c cc3a 663c 0735 68bc
000003d0: 2247 80be f44b ffbb 4b65 a93d 3230 5b3b
000003e0: 067e 0a3d 7f19 8abd e6f7 593c 1fd5 8b3e
000003f0: e62e 5dbd 6818 9e3d 5e72 133d 69ac ac3c

layer4.bias f4 [128]
0.0021121432 0.25140902 -0.062340975 0.049224406 0.12169491 -0.0049817194 -0.00959969 -0.19114259
-0.00214359 -0.039358366 -0.029083755 0.2245809 0.09177392 0.10408668 0.19614698 0.0600832
0.08169598 -0.07675458 0.11652654 0.04102638 -0.058407743 0.028345898 0.11388095 -0.0689352
-0.096964456 -0.19615395 0.0033316927 -0.122055165 0.06461777 -0.054037247 -0.076306276 -0.0424525
0.0023337032 0.1535172 0.09276717 0.043564733 0.19792828 -0.034881264 -0.062285922 0.19769883
0.0047706366 0.13189659 -0.05235235 0.08726858 -0.08593177 0.023367252 -0.09552648 -0.055757158
0.09058657 -0.12828963 0.15277657 0.14088291 -0.11915384 0.050436206 -0.13877895 0.10424813
-0.07506857 -0.020313375 0.27652133 0.03422159 0.0650877 0.0013702039 -0.031044973 -0.054535463
0.11935652 -0.10361478 0.05760481 0.12043188 0.029073827 0.0913184 -0.095866635 0.17959969
0.07438865 -0.12397241 -0.05947673 -0.026533691 0.12075389 0.09400684 -0.116081916 0.0046956046
-0.03804664 -0.09280839 0.13796477 -0.023427092 0.038029213 0.014793208 0.3324972 -0.061901834
0.012341505 -0.0616807 0.05484634 -0.0549499 0.08285901 -0.04496895 -0.0058576767 0.026235087
0.12445127 -0.02651425 -0.048367206 0.046267614 0.0367932 0.046294454 0.12532447 -0.08917212
0.12514184 -0.030722221 -0.111915894 -0.101121254 0.10607172 0.13990942 0.05544102 -0.08803785
-0.046933655 0.10780662 0.03097005 -0.056515474 0.06959052 0.027084097 0.025214814 0.10658765
0.02786413 -0.016424334 0.024125703 -0.027653776 0.10655478 0.012169805 0.21142706 0.0134052085
00000000: e26b 0a3b afb8 803e 4059 7fbd 889f 493d
00000010: 2e3b f93d b13d a3bb 0548 1dbc e2ba 43be
00000020: 797b 0cbb 3d36 21bd 0e41 eebc 89f8 653e
00000030: f7f3 bb3d 662b d53d c1da 483e cd19 763d
00000040: 3950 a73d 8131 9dbd 77a5 ee3d 470b 283d
00000050: f53c 6fbd a835 e83c 6a3a e93d e62d 8dbd
00000060: 4d95 c6bd 95dc 48be 8758 5a3b 0ff8 f9bd
00000070: 5256 843d 2956 5dbd 7746 9cbd ace2 2dbd
00000080: 0bf1 183b 9d33 1d3e b7fc bd3d ef70 323d
00000090: b6ad 4a3e a8df 0ebd 861f 7fbd 9071 4a3e
000000a0: 0053 9c3b e60f 073e 6b6f 56bd dfb9 b23d
000000b0: fffc afbd ae6c bf3c 63a3 c3bd 9e61 64bd
000000c0: 7485 b93d 5b5e 03be 7671 1c3e 9c43 103e
000000d0: ee06 f4bd 3296 4e3d 121c 0ebe 0b80 d53d
000000e0: 8dbd 99bd 3c68 a6bc 3494 8d3e f02b 0c3d
000000f0: b34c 853d 6a98 b33a 0752 febc 9460 5fbd
00000100: 3171 f43d fc33 d4bd 05f3 6b3d fda4 f63d
00000110: 3c2c ee3c 2405 bb3d ba55 c4bd fbe8 373e
00000120: 1459 983d 3fe5 fdbd df9d 73bd 2f5d d9bc
00000130: d14d f73d a886 c03d 5bbc edbd 96dd 993b
00000140: cbd6 1bbd 5312 bebd a346 0d3e 2cea bfbc
00000150: 85c4 1b3d 365f 723c 133d aa3e c78c 7dbd
00000160: 0634 4a3c e7a4 7cbd 8ea6 603d 2513 61bd
00000170: fcb1 a93d 5d31 38bd c1f1 bfbb f7ea d63c
00000180: 4fe0 fe3d 6a34 d9bc b11c 46bd 1c83 3d3d
00000190: 77b4 163d 419f 3d3d 0f55 003e df9f b6bd
000001a0: 2f25 003e 2bad fbbc 2934 e5bd a918 cfbd
000001b0: 213c d93d 6a44 0f3e 1f16 633d 304d b4bd
000001c0: 813d 40bd b8c9 dc3d e7b4 fd3c c57c 67bd
000001d0: 7985 8e3d 78df dd3c 4c8f ce3c a04a da3d
000001e0: 5143 e43c 538c 86bc 44a3 c53c 2c8a e2bc
000001f0: 6439 da3d dd63 473c 5680 583e 85a1 5b3c

input_norm.weight f4 [8]
1.2418792 0.8881436 0.96176046 0.82443786 0.78102463 1.0398456 0.5837436 0.71853524
00000000: e6f5 9e3f 615d 633f ef35 763f 5c0e 533f
00000010: 3bf1 473f a919 853f 3870 153f edf1 373f

input_norm.bias f4 [8]
0.2584097 0.23390628 0.48727313 0.41070744 0.0875664 0.2776566 0.2843117 0.08441663
00000000: 474e 843e 2185 6f3e dd7b f93e 3f48 d23e
00000010: 0356 b33d 0229 8e3e 4e91 913e a0e2 ac3d

input_norm.running_mean f4 [8]
3.5188425 0.04311354 -1.1310959 3.5892618 0.040618174 0.028305568 -0.10076427 0.23782825
00000000: b734 6140 d397 303d c0c7 90bf 77b6 6540
00000010: 3e5f 263d 14e1 e73c 7f5d cebd 4089 733e

input_norm.running_var f4 [8]
3.6260066 0.0043275924 2.149642 4.937221 0.17831473 0.002091071 0.6300875 0.18147139
00000000: 7e10 6840 7ace 8d3b bc93 0940 b7fd 9d40
00000010: 2398 363e 5a0a 093b 6a4d 213f a3d3 393e

norm.weight f4 [128]
0.8081814 0.9990718 0.8611454 0.8120843 0.8212663 0.83129716 0.8558006 0.8307491
0.8583288 0.8060063 0.892193 0.8994644 0.79289246 0.8733122 0.894066 0.87404275
0.7850308 0.825425 0.91616374 0.8832379 0.8347943 0.89360696 0.90756875 0.8686734
0.87682724 0.8753301 0.80992025 1.1403699 0.775419 0.7882441 0.91305023 0.88239473
0.7872509 0.85175437 0.8691862 0.86992157 0.89709747 0.88110274 0.78454 0.937676
0.90293455 0.85040534 0.97131485 0.79636455 0.8601215 0.90949094 1.0630075 0.85031176
0.91432565 0.87936586 0.8834662 0.8542176 0.8372045 0.88428104 0.8022898 0.85681903
0.8341077 1.00367 0.87767184 0.8164113 0.85598755 0.802776 0.87547725 0.86701584
0.8279623 0.8532547 0.8593069 0.8553712 0.77247614 0.8810218 0.8872949 0.84187466
0.8517351 0.8155559 0.843825 0.86180794 0.9379733 0.8810096 0.83246267 1.0138725
0.86326224 0.8481537 0.84208375 0.8301681 0.8544147 0.8206908 0.9457225 0.8690829
0.85442203 0.8605102 0.80371404 0.8658925 0.78002644 0.79231066 0.8036774 0.88344336
0.90361273 0.86775947 0.8911828 0.9050873 0.84395665 0.8618978 0.80166733 0.7815429
0.83352286 0.90924317 0.83337814 0.88663787 1.0312393 0.8388328 0.8605059 0.8427782
0.806952 0.8720093 0.8191695 0.8417659 0.8450066 0.84655195 0.83990395 0.85724574
0.80439425 0.91390115 0.8576393 0.81977636 0.8835878 0.8655771 0.9714113 0.79388636
00000000: fae4 4e3f 2bc3 7f3f 0674 5c3f c2e4 4f3f
00000010: 823e 523f e4cf 543f c015 5b3f f9ab 543f
00000020: 70bb 5b3f 6e56 4e3f c366 643f 4d43 663f
00000030: 00fb 4a3f 6391 5f3f 82e1 643f 44c1 5f3f
00000040: c7f7 483f 0e4f 533f b589 6a3f e11b 623f
00000050: 14b5 553f 6dc3 643f 6d56 683f 6161 5e3f
00000060: c077 603f a215 603f ef56 4f3f a4f7 913f
00000070: dc81 463f 5eca 493f a9bd 693f 9fe4 613f
00000080: 4689 493f 930c 5a3f fd82 5e3f 2eb3 5e3f
00000090: 2ea8 653f f38f 613f 9dd7 483f 890b 703f
000000a0: b826 673f 2ab4 593f 17a8 783f 8cde 4b3f
000000b0: ec30 5c3f 66d4 683f a110 883f 08ae 593f
000000c0: 3f11 6a3f 1f1e 613f d72a 623f 01ae 5a3f
000000d0: 0953 563f 3e60 623f dd62 4d3f 7e58 5b3f
000000e0: 1588 553f 4278 803f 1aaf 603f 5500 513f
000000f0: 0022 5b3f ba82 4d3f 471f 603f c0f4 5d3f
00000100: 56f5 533f e66e 5a3f 89fb 5b3f 9bf9 5a3f
00000110: ffc0 453f a58a 613f c225 633f 1985 573f
00000120: 500b 5a3f 45c8 503f ea04 583f 729f 5c3f
00000130: 051f 703f d889 613f 461c 553f 93c6 813f
00000140: c1fe 5c3f 9a20 593f cd92 573f e685 543f
00000150: ecba 5a3f cb18 523f df1a 723f 387c 5e3f
00000160: 67bb 5a3f 654a 5c3f 34c0 4d3f 22ab 5d3f
00000170: d0af 473f dfd4 4a3f cdbd 4d3f 5829 623f
00000180: 2a53 673f 7c25 5e3f 8e24 643f cdb3 673f
00000190: 8b0d 583f 56a5 5c3f 123a 4d3f 3213 483f
000001a0: c161 553f 29c4 683f 4558 553f b3fa 623f
000001b0: a6ff 833f bfbd 563f 1d4a 5c3f 50c0 573f
000001c0: 6894 4e3f 003c 5f3f 18b5 513f f87d 573f
000001d0: 5a52 583f a1b7 583f f203 573f 7574 5b3f
000001e0: c8ec 4d3f 6df5 693f 408e 5b3f dddc 513f
000001f0: cf32 623f 7696 5d3f 69ae 783f 233c 4b3f

norm.bias f4 [128]
0.10307508 0.09176981 0.08133865 -0.119016 0.12196932 -0.113638595 -0.14438726 -0.11276527
0.22249047 0.12996575 0.20181242 0.13584 0.13476348 0.24014471 0.3103906 -0.09746737
0.1914411 0.10897491 0.16383193 0.008128803 0.044744212 -0.035410672 0.11844785 -0.063677795
0.061614472 0.008158472 0.13008033 -0.21403174 -0.36189863 -0.14261694 -0.0070668333 0.16912311
-0.018663457 -0.15028352 -0.0490663 -0.25511065 -0.0678348 -0.013645451 0.0643239 0.1960305
0.027359543 0.19715369 0.094251595 0.27981642 -0.034866486 -0.008011848 0.14366348 -0.28795183
0.12285654 -0.23414184 0.07450801 0.19167352 0.20383136 -0.20060982 -0.03989712 -0.06477669
0.098943 0.027115706 0.18109287 0.38382915 -0.13702172 0.13290632 -0.17382048 0.35119626
0.03234955 -0.24809217 -0.061705664 0.088730186 0.21258594 -0.03945333 0.32827446 0.11649094
0.13685574 -0.21821079 0.10511956 0.2314236 -0.08425693 -0.2978839 -0.087035716 -0.10100708
0.017828556 0.13786547 -0.13414149 -0.091361195 0.03271416 -0.03461047 0.3747348 0.04165293
-0.39688474 0.023964215 0.12791312 0.19236228 -0.00213772 0.22520852 0.020687567 0.062353518
0.061715387 -0.096006535 -0.31368294 0.13476287 0.05716985 -0.032928333 -0.015687875 -0.15177013
0.06107619 -0.13642068 0.13996677 0.03215104 -0.1076433 0.1220115 -0.083047874 0.20362121
-0.061153162 0.062109437 -0.08386268 -0.016896667 -0.046328083 -0.2149475 0.12902237 -0.0902995
0.10800725 0.067283094 -0.38912144 0.052770752 -0.10767301 -0.13251804 0.041727852 -0.022076385
00000000: 0719 d33d cff1 bb3d e194 a63d a9be f3bd
00000010: 0dcb f93d 5abb e8bd 41da 13be 7af1 e6bd
00000020: 8bd4 633e be15 053e eaa7 4e3e a419 0b3e
00000030: 70ff 093e 7fe8 753e 84eb 9e3e f99c c7bd
00000040: 2309 443e 3d2e df3d 8fc3 273e ac2e 053c
00000050: b545 373d c80a 11bd c994 f23d 8169 82bd
00000060: 755f 7c3d 1dab 053c c733 053e 232b 5bbe
00000070: c74a b9be 2d0a 12be e590 e7bb 9c2e 2d3e
00000080: 1be4 98bc ece3 19be bff9 48bd dd9d 82be
00000090: f9ec 8abd 2b91 5fbc 40bc 833d 38bc 483e
000000a0: 1f21 e03c a8e2 493e fb06 c13d 1944 8f3e
000000b0: 29d0 0ebd 2044 03bc 851c 133e 6c6e 93be
000000c0: 369c fb3d e1c2 6fbe a897 983d 1046 443e
000000d0: 2bb9 503e a96c 4dbe 2a6b 23bd a4a9 84bd
000000e0: a1a2 ca3d c221 de3c 6970 393e 4185 c43e
000000f0: 6c4f 0cbe 9818 083e fffd 31be ffcf b33e
00000100: f680 043d e00b 7ebe 14bf 7cbd 2cb8 b53d
00000110: 21b0 593e d199 21bd 9713 a83e cd92 ee3d
00000120: e923 0c3e a672 5fbe ed48 d73d 4ffa 6c3e
00000130: e68e acbd 3d84 98be c83f b2bd cddc cebd
00000140: 310d 923c 9b2c 0d3e 635c 09be 941b bbbd
00000150: 48ff 053d b5c3 0dbd 3ddd bf3e 439c 2a3d
00000160: 7a34 cbbe 9a50 c43c a8fb 023e 9efa 443e
00000170: fd18 0cbb 109d 663e f978 a93c 6766 7f3d
00000180: 46c9 7c3d 139f c4bd 0d9b a0be 47ff 093e
00000190: ef2a 6a3d dcdf 06bd dc83 80bc a169 1bbe
000001a0: 072b 7a3d ddb1 0bbe 7353 0f3e cfb0 033d
000001b0: 1774 dcbd 2ae1 f93d 0115 aabd 1482 503e
000001c0: bd7b 7abd 7766 7e3d 32c0 abbd e16a 8abc
000001d0: 84c2 3dbd 331b 5cbe 711e 043e f2ee b8bd
000001e0: e832 dd3d b8cb 893d ed3a c7be 2526 583d
000001f0: ab83 dcbd cfb2 07be d3ea 2a3d 89d9 b4bc

norm.running_mean f4 [128]
0.44739646 0.49650502 0.358397 0.49876735 0.18796311 0.46923244 0.05577544 0.25411642
0.40035415 0.3007597 0.12875666 0.29687512 0.36630243 0.5610575 0.35844702 0.35241255
0.33640707 0.3331772 0.25003648 0.40166 0.47297516 0.5194849 0.48060012 0.15847042
0.5234619 0.021876432 0.38634187 0.001960122 0.8981248 0.2269811 0.32131156 0.42721853
0.42875037 0.25178522 0.15142302 0.5989614 0.52962446 0.11660096 0.088959314 0.29731497
0.040238287 0.5544738 0.023022816 0.26195592 0.039231375 0.13152143 0.061644975 0.6930659
0.14452685 0.32846576 0.28416237 0.49285328 0.3240626 0.4287476 0.25367212 0.24676444
0.4362287 0.006684018 0.46380275 0.84481174 0.73299164 0.41903245 0.069864824 0.032129493
0.19866665 0.31757572 0.36868772 0.39919665 0.2099529 0.5210066 0.16419204 0.43545768
0.36416718 0.35720462 0.33936325 0.50567883 0.24416931 0.6532843 0.24659944 0.01761557
0.3986182 0.27287346 0.63163984 0.40974277 0.66273665 0.30024394 0.372002 0.48700643
0.4206779 0.14248309 0.5922237 0.74636775 0.21753474 0.45509365 0.22225179 0.15853849
0.67700714 0.20278318 0.26391625 0.45112544 0.5704237 0.10337065 0.45449704 0.17464143
0.26026148 0.2273581 0.18767844 0.2436439 0.0620567 0.4270035 0.34973538 0.40915978
0.35866192 0.668763 0.25149915 0.45662484 0.52164614 0.70441544 0.59196705 0.5283184
0.35445294 0.2413246 0.13408159 0.13129292 0.42769113 0.047531534 0.51373243 0.14453554
00000000: 2611 e53e e835 fe3e d07f b73e 6f5e ff3e
00000010: 6779 403e 3c3f f03e ca74 643d 8c1b 823e
00000020: 38fb cc3e 2dfd 993e c9d8 033e 0400 983e
00000030: fe8b bb3e 77a1 0f3f 5e86 b73e 6b6f b43e
00000040: 8c3d ac3e 3496 aa3e c804 803e 61a6 cd3e
00000050: cd29 f23e f6fc 043f 3811 f63e 1246 223e
00000060: 9901 063f 3436 b33c 9ace c53e 6475 003b
00000070: 82eb 653f bc6d 683e f382 a43e 63bc da3e
00000080: 2b85 db3e fee9 803e a30e 1b3e 8955 193f
00000090: 7895 073f 7ccc ee3d 4d30 b63d ab39 983e
000000a0: e7d0 243d fff1 0d3f 589a bc3c 161f 863e
000000b0: 14b1 203d 8ead 063e 717f 7c3d c46c 313f
000000c0: d9fe 133e aa2c a83e bb7d 913e 4457 fc3e
000000d0: 88eb a53e ce84 db3e 50e1 813e d1af 7c3e
000000e0: 5e59 df3e 9b05 db3b 8e77 ed3e 9545 583f
000000f0: 57a5 3b3f 6c8b d63e 4a15 8f3d 379a 033d
00000100: 456f 4b3e 4999 a23e a3c4 bc3e 8163 cc3e
00000110: e5fd 563e b060 053f f521 283e 4ff4 de3e
00000120: 1f74 ba3e 86e3 b63e 05c1 ad3e 2b74 013f
00000130: 8507 7a3e a43d 273f 9084 7c3e 874e 903c
00000140: af17 cc3e 12b6 8b3e 26b3 213f cec9 d13e
00000150: 1ca9 293f 93b9 993e 0c77 be3e e858 f93e
00000160: 1863 d73e 16e7 113e f99b 173f f511 3f3f
00000170: 6dc1 5e3e 0902 e93e f995 633e ea57 223e
00000180: 5750 2d3f 65a6 4f3e 0820 873e eaf9 e63e
00000190: 4a07 123f feb3 d33d d6b3 e83e 34d5 323e
000001a0: fe40 853e 90d0 683e c72e 403e c97d 793e
000001b0: 2b2f 7e3d 34a0 da3e 8410 b33e 647d d13e
000001c0: 89a2 b73e 0d34 2b3f 7fc4 803e bbca e93e
000001d0: 9a8a 053f 9254 343f 278b 173f e03f 073f
000001e0: db7a b53e cc1d 773e af4c 093e a771 063e
000001f0: 55fa da3e 6db0 423d f883 033f 2001 143e
