final_models/v_start_noise/models/best_model_episode_6870.pt (torch, 226638 bytes, 22 tensors)

layer1.weight f4 [128, 8]
0.3120713 -0.23229301 -0.12392714 0.23215996 -0.29176906 0.16871239 -0.07256948 0.22508755
-0.0116064325 -0.23366868 0.26728156 -0.050614364 -0.032827634 -0.106257424 -0.017713694 -0.007136116
-0.14808016 -0.05560655 0.38737026 0.15547404 -0.1448636 -0.2068404 -0.11077136 -0.15082249
-0.08214456 0.0069842865 0.19535252 0.26277748 -0.43210933 0.14108121 0.07432478 0.34966666
0.07194461 -0.2398597 -0.28136113 -0.019178687 0.18717907 -0.034829292 0.17187123 -0.18738128
0.20877941 -0.13224737 0.28165752 -0.13833778 -0.13000427 0.25934395 -0.121314384 0.027693126
-0.0031009542 0.021314187 -0.21656346 -0.17248285 0.097179264 -0.16299619 0.3234911 0.10431508
0.017382767 -0.34426877 0.1460996 0.07597107 -0.22486903 0.21102601 0.23552369 0.3611189
-0.20271936 -0.16789617 -0.046325643 0.026085904 -0.28482285 -0.101268016 0.12290003 0.030176025
0.17418565 -0.14689359 0.16380507 0.008566091 0.19962473 0.1762598 -0.2309753 0.12522614
-0.2406927 -0.32318598 0.028636891 -0.16301334 0.17696829 -0.19676897 -0.302812 0.1884865
-0.03873891 0.13474873 0.08793862 -0.12146502 -0.027015107 0.13575906 -0.12089988 -0.14173669
0.24850181 0.18720089 0.038604926 -0.10444716 0.33306998 -0.10621499 0.17390332 0.19313893
-0.124476664 -0.31419814 0.37472036 0.064746134 0.3891931 0.027429208 0.1924832 0.17502506
0.30611005 -0.12336676 -0.020232905 0.07649097 0.039358962 -0.087336525 -0.02882274 -0.2951282
-0.24385978 0.002292825 0.30391127 -0.26171023 0.15348968 -0.22877426 -0.40630564 -0.022897484
0.18180577 0.4233689 -0.24739419 0.274739 0.31588635 0.21239978 0.27138796 0.2924189
0.4534102 0.1412352 -0.17479731 -0.35487586 -0.25013626 0.027297625 -0.2753762 0.15301116
0.01772553 -0.06544061 0.11274825 0.07924421 0.15270784 0.122967996 -0.0329375 0.3717911
-0.085106485 -0.04632915 -0.3339547 -0.22014552 -0.22094835 -0.12902123 0.21997967 -0.12404867
-0.47646892 0.08666579 0.1265956 0.4867458 -0.20147978 0.1740679 -0.13238965 -0.007694972
-0.2502391 -0.22173338 -0.2335325 0.10832343 -0.03771986 -0.010712644 0.4135836 0.3335667
0.27829003 0.087782055 -0.44709566 0.14690416 -0.022673093 0.05766679 -0.40907454 -0.16454954
-0.32883728 0.1793748 -0.35341844 -0.31788915 -0.008792993 -0.25125837 0.048430614 -0.08532508
-0.31989342 0.030285094 0.2905456 -0.22136883 0.18460076 0.0865097 0.3854934 -0.30116493
-0.008316557 -0.3202266 0.25202832 -0.0123889595 0.03691159 -0.2804708 -0.03285195 0.039540917
0.0047163973 0.15300305 0.05861981 0.015074082 -0.25733164 0.3095295 0.30584437 0.42104447
0.018328028 -0.2555979 -0.14388558 0.09569731 -0.1297754 -0.020779697 -0.117153734 -0.2666808
0.37833023 -0.2054163 0.0042461623 0.26572078 0.49102703 0.28348988 -0.026881196 -0.39776582
0.18705226 0.05145325 -0.08958249 0.045002766 -0.39956126 0.20699044 0.25451538 -0.31559366
-0.43407935 -0.26268184 0.0978528 0.09410945 -0.21546721 0.27432 -0.341079 -0.19408208
-0.16722417 0.32011077 0.3150148 -0.023093715 0.06561542 0.117391005 0.08357556 -0.04970414
00000000: cfc7 9f3e 38de 6dbe 83cd fdbd 57bb 6d3e
00000010: c162 95be f1c2 2c3e 4f9f 94bd 5a7d 663e
00000020: e828 3ebc d846 6fbe 21d9 883e 0251 4fbd
00000030: 4576 06bd 7e9d d9bd 4f1c 91bc 14d6 e9bb
00000040: 53a2 17be b2c3 63bd 6555 c63e 9634 1f3e
00000050: 2057 14be f8cd 53be 18dc e2bd 3671 1abe
00000060: 683b a8bd 71dc e43b 7e0a 483e c58a 863e
00000070: 6f3d ddbe 9877 103e 9737 983d 8207 b33e
00000080: b257 933d c89d 75be 910e 90be 9f1c 9dbc
00000090: dfab 3f3e 29a9 0ebd 03ff 2f3e e1e0 3fbe
000000a0: 45ca 553e db6b 07be 6a35 903e 6ba8 0dbe
000000b0: d71f 05be bbc8 843e ad73 f8bd b2dc e23c
000000c0: 6139 4bbb 179b ae3c d0c2 5dbe 589f 30be
000000d0: ec05 c73d 79e8 26be a0a0 a53e 25a3 d53d
000000e0: 4e66 8e3c ff43 b0be 229b 153e b896 9b3d
000000f0: 1144 66be 3417 583e 1f2d 713e 94e4 b83e
00000100: aa95 4fbe f9ec 2bbe f5bf 3dbd 1bb2 d53c
00000110: 4dd4 91be 9b65 cfbd 03b3 fb3d b633 f73c
00000120: b95d 323e 466b 16be 84bc 273e ca58 0c3c
00000130: 6d6a 4c3e 737d 343e ca84 6cbe 483b 003e
00000140: 2678 76be a278 a5be ea97 ea3c f8ec 26be
00000150: 2d37 353e ce7d 49be 2d0a 9bbe 9b02 413e
00000160: b1ac 1ebd 92fb 093e 2a19 b43d a7c2 f8bd
00000170: c94e ddbc 6c04 0b3e 5b9a f7bd 6c23 11be
00000180: 4277 7e3e 97b1 3f3e 3320 1e3d 65e8 d5bd
00000190: 2688 aa3e 3f87 d9bd b613 323e 36c6 453e
000001a0: 9fed febd 94de a0be 59db bf3e 9f99 843d
000001b0: 5144 c73e 38b3 e03c 511a 453e c539 333e
000001c0: 75ba 9c3e b6a7 fcbd 7abf a5bc 4ca7 9c3d
000001d0: dd36 213d 7edd b2bd ab1d ecbc 0b1b 97be
000001e0: 61b6 79be 3843 163b 429a 9b3e e2fe 85be
000001f0: 662c 1d3e cd43 6abe 4b07 d0be 8193 bbbc
00000200: 4b2b 3a3e cfc3 d83e e754 7dbe 97aa 8c3e
00000210: dbbb a13e 547f 593e 5df3 8a3e eeb7 953e
00000220: 6225 e83e f69f 103e 11fe 32be 4ab2 b5be
00000230: dc11 80be 459f df3c 1cfe 8cbe f5ae 1c3e
00000240: 2135 913c ba05 86bd 8ee8 e63d ca4a a23d
00000250: 725f 1c3e a5d6 fb3d 79e9 06bd 675b be3e
00000260: 4f4c aebd a3c3 3dbd 1cfc aabe d46d 61be
00000270: 4940 62be 241e 04be 5a42 613e 3b0d febd
00000280: bcf3 f3be d57d b13d 47a2 013e bf36 f93e
00000290: b750 4ebe db3e 323e 2791 07be 1b26 fcbb
000002a0: 571f 80be 130e 63be 2523 6fbe add8 dd3d
000002b0: 2480 1abd 1684 2fbc 3bc1 d33e 41c9 aa3e
000002c0: 087c 8e3e 14c7 b33d b9e9 e4be 0b6e 163e
000002d0: ecbc b9bc 0334 6c3d 3872 d1be ad7f 28be
000002e0: 5c5d a8be 07ae 373e 43f3 b4be 5ec2 a2be
000002f0: 7c10 10bc f0a4 80be 2e5f 463d eabe aebd
00000300: 12c9 a3be 7218 f83c 65c2 943e 83ae 62be
00000310: fb07 3d3e ff2b b13d 645f c53e 4a32 9abe
00000320: 2b42 08bc bef4 a3be db09 813e 10fb 4abc
00000330: 9b30 173d de99 8fbe c48f 06bd a8f5 213d
00000340: 028c 9a3b d5ac 1c3e 531b 703d 48f9 763c
00000350: f9c0 83be a77a 9e3e a297 9c3e 2493 d73e
00000360: a924 963c badd 82be be56 13be f4fc c33d
00000370: d8e3 04be 2f3a aabc 4cee efbd 638a 88be
00000380: 80b4 c13e a758 52be 6423 8b3b 8e0c 883e
00000390: e567 fb3e 9625 913e f435 dcbc f6a7 cbbe
000003a0: a18a 3f3e a5c0 523d 0677 b7bd d254 383d
000003b0: 4b93 ccbe 4df5 533e d74f 823e 7e95 a1be
000003c0: a63f debe 3c7e 86be 0c67 c83d 75bc c03d
000003d0: 70a3 5cbe ac73 8c3e e8a1 aebe 74bd 46be
000003e0: d03c 2bbe 8fe5 a33e 9f49 a13e 082f bdbc
000003f0: 6161 863d b26a f03d aa29 ab3d 9196 4bbd

layer1.bias f4 [128]
-0.016763587 -0.05107548 0.116811946 -0.113396436 -0.36802822 0.14827713 -0.15782571 -0.09951197
0.35010484 0.15472828 0.14069435 0.011484296 -0.26899904 0.18682794 -0.18740533 0.033386897
-0.31066924 0.1782813 -0.19495516 0.3162501 0.15479672 0.35932532 0.050951365 -0.010395629
0.12436729 -0.18811908 -0.17148826 -0.40221393 0.39949813 0.007021714 0.1317207 0.0331706
0.15789017 -0.2655635 -0.17092249 0.2788309 0.17903954 -0.0035254532 -0.25898272 -0.05867037
-0.22873402 0.021981206 -0.25796226 -0.26677918 -0.40046155 -0.0007665655 0.14003564 0.3759522
-0.3247518 -0.10060138 -0.22019213 -0.26210594 -0.021479271 0.37295175 0.014851065 -0.07844471
0.2899635 -0.32333267 -0.018550506 0.2710221 0.269291 0.07941344 -0.1927422 -0.43605784
-0.15762115 0.21506983 0.25948033 0.05663731 -0.30893505 -0.06283351 0.1235422 0.028686738
-0.21767601 0.061319195 0.03707444 0.0861955 0.0031737161 0.18947975 -0.37715468 -0.12917802
-0.00055509305 0.22012791 0.17166801 0.15225853 0.3801564 0.12641749 -0.40356973 0.151422
-0.2219304 -0.009933763 0.061463907 0.3497978 -0.122769296 -0.21228707 -0.10289923 -0.06684678
0.33385414 0.20635226 0.19809754 0.09208529 -0.09078818 -0.06437773 -0.26107037 0.12134322
-0.24005476 0.041306056 0.1854038 0.24636914 -0.3605674 0.39173645 -0.15002109 -0.062437247
0.3093557 0.28660044 -0.29609865 0.22752795 -0.351826 0.32711187 0.41602594 0.0065386905
0.03492281 0.003728332 -0.31377763 -0.2316562 -0.04876725 -0.39953822 -0.31566095 -0.081946604
00000000: ca53 89bc 8634 51bd 1a3b ef3d 643c e8bd
00000010: 326e bcbe f6d5 173e 109d 21be efcc cbbd
00000020: f140 b33e 1771 1e3e 2e12 103e a128 3c3c
00000030: 3eba 89be d34f 3f3e 2fe7 3fbe b3c0 083d
00000040: 0a10 9fbe 608f 363e 53a2 47be 88eb a13e
00000050: 0883 1e3e 7df9 b73e 61b2 503d 6e52 2abc
00000060: 47b4 fe3d 4aa2 40be 9e9a 2fbe fcee cdbe
00000070: 058b cc3e 6816 e63b cbe1 063e e5dd 073d
00000080: f6ad 213e f0f7 87be 4e06 2fbe ecc2 8e3e
00000090: 2456 373e 4a0b 67bb 6299 84be 5850 70bd
000000a0: 4039 6abe ee11 b43c a113 84be 4897 88be
000000b0: 4c09 cdbe 57f3 48ba 8165 0f3e cf7c c03e
000000c0: de45 a6be 1908 cebd 0c7a 61be c032 86be
000000d0: 4cf5 afbc 88f3 be3e e251 733c 9fa7 a0bd
000000e0: 1976 943e dc8b a5be 3bf7 97bc 69c3 8a3e
000000f0: 83e0 893e 83a3 a23d 365e 45be f942 dfbe
00000100: 7067 21be 443b 5c3e 9bda 843e 86fc 673d
00000110: bc2c 9ebe dbae 80bd b103 fd3d 7300 eb3c
00000120: 76e6 5ebe d629 7b3d 5edb 173d 4487 b03d
00000130: 1ffe 4f3b fb06 423e 6b1a c1be 3e47 04be
00000140: aa83 11ba 3669 613e bdc9 2f3e a9e9 1b3e
00000150: dca3 c23e 9673 013e b1a0 cebe 5e0e 1b3e
00000160: b941 63be 39c1 22bc 94c1 7b3d b218 b33e
00000170: 786e fbbd c861 59be d5bc d2bd f7e6 88bd
00000180: eeee aa3e 024e 533e 15da 4a3e 3697 bc3d
00000190: 27ef b9bd 79d8 83bd 04ab 85be cb82 f83d
000001a0: ead0 75be 8a30 293d 7eda 3d3e 3148 7c3e
000001b0: 4a9c b8be ae91 c83e 219f 19be 33be 7fbd
000001c0: df63 9e3e 4bbd 923e 3e9a 97be 16fd 683e
000001d0: 8a22 b4be 357b a73e 5a01 d53e 8342 d63b
000001e0: 380b 0f3d 0857 743b 76a7 a0be 4837 6dbe
000001f0: 2bc0 47bd 4690 ccbe 509e a1be 9fd3 a7bd

layer2.weight f4 [128, 128]
-0.041024063 -0.041551337 -0.023741858 0.0072288034 0.096767336 -0.0038492193 -0.037350506 0.009951474
-0.10961879 0.07689805 0.08739817 -0.04379011 -0.046677824 0.1351987 -0.10847441 0.06760005
-0.0529687 -0.12349133 0.034725465 -0.09684165 0.07763045 -0.002235718 -0.059752125 -0.0713816
0.05958428 0.11241109 -0.0014530652 -0.05971673 -0.10842002 0.069884606 -0.018240789 0.061777
0.07146495 0.07920702 0.030558296 0.040296707 0.066136025 -0.0059463247 0.07661569 0.022953335
-0.0011534661 -0.039973382 0.008659463 0.076425925 0.08110509 -0.009249388 -0.037909523 0.07528799
0.05669434 0.17640187 0.028111834 -0.017729728 -0.021641092 -0.05816938 0.03180104 0.016156022
-0.070546255 -0.06443332 0.04271231 0.02763792 -0.12448606 0.045695633 0.052787494 0.050221257
0.11081376 -0.0379511 0.0833597 -0.08542277 -0.007389385 -0.053915545 -0.017852884 0.09962177
0.09549207 -0.0041076248 -0.04079974 -0.0299033 -0.003552724 -0.019822314 0.06211513 0.052895125
0.081052095 -0.040652256 0.07879911 -0.0052591837 -0.012444588 -0.035638835 -0.006264468 -0.05191742
-0.012421328 -0.08388423 0.057071578 -0.06021186 -0.020703472 -0.06252492 0.017737826 0.07312193
-0.06971542 -0.090351865 0.07404751 0.06708376 0.064102806 -0.05746075 0.07014594 0.062178988
0.037614327 -0.009511818 0.089509934 0.040810302 0.037399143 -0.020679457 -0.045270346 -0.057354804
0.118485816 0.02723044 0.06159434 0.062812135 -0.08136098 0.006512836 -0.04017016 0.010561414
0.04110471 0.023599207 -0.031237239 -0.02468266 -0.11512156 -0.07288116 0.066761374 -0.06493645
-0.014040925 -0.0032964381 0.019812549 -0.028845133 0.04152934 -0.012308735 0.059220098 -0.0069306414
0.018508067 -0.0030633549 0.099494405 0.009915905 0.0477916 -0.022483204 0.011407484 0.100155026
-0.100840025 -0.009360823 0.06922132 -0.04078275 -0.042677633 -0.0014269743 0.01746245 0.055442676
-0.0027150775 0.043553364 -0.066770814 0.029674312 -0.053285677 0.053201854 -0.045945667 -0.09136137
-0.0015194032 0.0447662 -0.0025119807 0.024805693 -0.0028358877 0.05284659 -0.009726546 -0.11523333
-0.064076714 0.02940571 -0.014085408 0.074056424 -0.047180366 0.0718352 -0.045646068 -0.05657853
-0.02170379 -0.07989328 -0.023471443 0.017121263 -0.12843058 0.09103076 -0.06854728 0.04711815
0.048522647 0.0021650903 -0.06065072 0.0017062232 -0.0478226 0.07851036 -0.08165791 -0.034510486
-0.032052457 -0.05240971 -0.036825355 0.013226543 -0.03106674 0.0040732846 0.072344 -0.008471818
-0.06123027 -0.032382615 0.09316601 -0.0055340114 -0.09195272 0.057456635 -0.005102756 0.018968258
-0.0048217047 0.11860161 -0.06721131 0.047655657 0.14696904 0.0063880663 0.045237243 0.06795711
0.09785748 -0.03368793 -0.0971541 -0.03920581 -0.09242952 -0.0026498174 0.0734382 0.072599076
0.037973393 0.012008468 0.024493942 0.058585986 0.053196587 0.002928764 -0.02645773 0.025538685
-0.00058038754 -0.03640339 -0.03002247 0.08736633 0.06485029 -0.03477587 -0.03327074 -0.07042042
0.0013083513 0.067131646 -0.095215805 0.071208715 -0.08241373 -0.077411644 -0.0029407996 -0.012255898
-0.019785931 -0.037572924 -0.051625554 -0.08272195 -0.064428836 -0.06890055 0.06326266 -0.072238185
00000000: d908 28bd bc31 2abd 497e c2bc 99df ec3b
00000010: f42d c63d 2f43 7cbb d8fc 18bd 820b 233c
00000020: d17f e0bd ba7c 9d3d d0fd b23d 425d 33bd
00000030: 3f31 3fbd 8771 0a3e d527 debd e571 8a3d
00000040: b5f5 58bd 06e9 fcbd 4a3c 0e3d ea54 c6bd
00000050: b7fc 9e3d 2085 12bb a5be 74bd 8430 92bd
00000060: a50e 743d c937 e63d c774 beba 8899 74bd
00000070: 510b debd a91f 8f3d b56d 95bc e109 7d3d
00000080: 375c 923d 4a37 a23d 6455 fa3c 290e 253d
00000090: 5372 873d 63d9 c2bb b0e8 9c3d a208 bc3c
000000a0: e62f 97ba 21bb 23bd 6ce0 0d3c 3285 9c3d
000000b0: 6d1a a63d bf8a 17bc 0447 1bbd 9730 9a3d
000000c0: 5338 683d b1a2 343e ca4a e63c ef3d 91bc
000000d0: a948 b1bc 0443 6ebd cf41 023d a259 843c
000000e0: 8e7a 90bd 9ef5 83bd 1af3 2e3d eb68 e23c
000000f0: 8cf2 febd 582b 3b3d b337 583d ceb4 4d3d
00000100: 53f2 e23d 9d72 1bbd 7eb8 aa3d 22f2 aebd
00000110: a722 f2bb 8cd6 5cbd 3640 92bc 8006 cc3d
00000120: 5991 c33d 4199 86bb a11d 27bd c4f7 f4bc
00000130: d1d4 68bb 6862 a2bc 6f6c 7e3d 8fa8 583d
00000140: a4fe a53d fb82 26bd 6e61 a13d 3b55 acbb
00000150: 63e4 4bbc 07fa 11bd 2b46 cdbb 5ca7 54bd
00000160: d382 4bbc 7fcb abbd e3c3 693d b6a0 76bd
00000170: 549a a9bc 110d 80bd eb4e 913c f3c0 953d
00000180: f5c6 8ebd 660a b9bd 39a6 973d 3663 893d
00000190: 5548 833d f75b 6bbd ada8 8f3d 65af 7e3d
000001a0: 7b11 1a3d 75d7 1bbc fc50 b73d b428 273d
000001b0: d82f 193d f767 a9bc 666d 39bd dfec 6abd
000001c0: b1a8 f23d 5f12 df3c 594a 7c3d a6a3 803d
000001d0: 96a0 a6bd a169 d53b 7789 24bd c809 2d3c
000001e0: 6a5d 283d 2053 c13c 3de5 ffbc 4a33 cabc
000001f0: dac4 ebbd b842 95bd 30ba 883d 67fd 84bd
00000200: e80b 66bc 0e09 58bb ed4d a23c a14c ecbc
00000210: ab1a 2a3d 94aa 49bc c690 723d 6f1a e3bb
00000220: 3b9e 973c 91c2 48bb b9c3 cb3d 5276 223c
00000230: 20c1 433d b22e b8bc 75e6 3a3c 141e cd3d
00000240: 3785 cebd 235e 19bc e8c3 8d3d d00b 27bd
00000250: bece 2ebd 5009 bbba 690d 8f3c dc17 633d
00000260: 71ef 31bb 0365 323d 23bf 88bd 8b17 f33c
00000270: 1542 5abd 30ea 593d 8631 3cbd ac1b bbbd
00000280: b626 c7ba c35c 373d 0ba0 24bb 4f35 cb3c
00000290: 4dda 39bb aa75 583d 175c 1fbc 74ff ebbd
000002a0: a73a 83bd 3ee4 f03c 7cc6 66bc e5aa 973d
000002b0: 3340 41bd 551e 933d 5ff7 3abd e4be 67bd
000002c0: 26cc b1bc 179f a3bd 2f47 c0bc e441 8c3c
000002d0: 4e83 03be 566e ba3d 8462 8cbd f6fe 403d
000002e0: afbf 463d 30e4 0d3b e46c 78bd 5aa3 df3a
000002f0: a1e1 43bd 0aca a03d 433c a7bd de5a 0dbd
00000300: 7049 03bd 90ab 56bd 2fd6 16bd 24b4 583c
00000310: ad7f febc 3079 853b 1729 943d 61cd 0abc
00000320: 97cc 7abd a2a3 04bd d2cd be3d a756 b5bb
00000330: b551 bcbd a657 6b3d 0535 a7bb 5263 9b3c
00000340: 64ff 9dbb 67e5 f23d 15a6 89bd 9432 433d
00000350: 0d7f 163e fc52 d13b b04a 393d 192d 8b3d
00000360: 8169 c83d 5bfc 09bd bbf8 c6bd 4596 20bd
00000370: b04b bdbd 8fa8 2dbb c466 963d d3ae 943d
00000380: fd89 1b3d 2abf 443c 85a7 c83c dcf7 6f3d
00000390: aae4 593d 82f0 3f3b e2bd d8bc 8136 d13c
000003a0: 2625 18ba b91b 15bd aff1 f5bc 1eed b23d
000003b0: 3bd0 843d 2571 0ebd e646 08bd 9538 90bd
000003c0: fc7c ab3a 517c 893d 8100 c3bd e0d5 913d
000003d0: 88c8 a8bd ff89 9ebd 6eba 40bb f6cc 48bc
000003e0: 1b16 a2bc 11e6 19bd 5175 53bd 206a a9bd
000003f0: 44f3 83bd bb1b 8dbd da8f 813d 9df1 93bd

layer2.bias f4 [128]
-0.0400661 -0.034229375 -0.009300306 0.0028296683 -0.10788419 0.061287943 -0.060078815 0.15104373
-0.011389547 0.0034835513 0.056300517 0.08363393 -0.020359697 -0.19512407 0.017346438 -0.011972106
-0.07685408 -0.002092958 -0.023169465 0.09487061 0.14162633 0.04755277 0.041528817 0.014163831
0.08274635 -0.12701635 -0.009785631 0.006494482 0.033806317 0.03525359 0.13817318 -0.106239
-0.05861198 0.05214095 0.0039790585 0.038017258 0.12215567 0.023690423 -0.0688182 -0.033296574
-0.16474046 0.07603004 0.029929053 -0.10546865 0.051994193 0.11369367 0.12965026 -0.06497499
0.114562556 0.021531941 0.03329726 -0.03345812 0.08303871 0.09498107 0.00331415 -0.081578925
0.068791956 -0.14582437 0.09012541 0.07168887 0.035056263 0.03608765 -0.08659562 0.015894692
0.0013621483 -0.057277948 0.008065665 -0.0047568833 0.0011553095 0.019712996 -0.040040076 -0.0496884
0.13577056 0.10085444 -0.028794713 -0.048545714 0.00422454 -0.12341436 -0.03474508 -0.09489983
0.046603065 -0.0071897935 0.07074357 -0.08345429 -0.06786321 -0.019204833 -0.10743551 -0.15131882
-0.053234447 0.004517706 0.054607768 0.11534241 -0.0045170914 0.17423719 0.10769945 0.004951316
-0.07220148 -0.008799636 0.001305488 0.0008302189 0.07273302 0.11767282 -0.031082053 0.08819321
0.08062463 0.10697383 -0.011564852 0.00574676 0.09790256 -0.13036418 -0.0453671 -0.08291748
0.08689963 0.012134135 0.016463863 0.038213074 0.07484116 -0.06785061 -0.110830575 -0.030825872
-0.019880872 -0.02863866 -0.012071261 -0.00018627135 -0.15644328 -0.1250599 0.008665676 -0.05794746
00000000: 5a1c 24bd 1a34 0cbd 5060 18bc f571 393b
00000010: 63f2 dcbd 1109 7b3d 3415 76bd 35ab 1a3e
00000020: 399b 3abc 4b4c 643b 5f9b 663d 4448 ab3d
00000030: 61c9 a6bc 9bce 47be 1e1a 8e3c a726 44bc
00000040: ac65 9dbd 022a 09bb e4cd bdbc 864b c23d
00000050: 7e06 113e b1c6 423d 1f1a 2a3d 6a0f 683c
00000060: eb76 a93d 9310 02be e953 20bc aacf d43b
00000070: 7e78 0a3d 1266 103d 457d 0d3e d593 d9bd
00000080: 1e13 70bd c091 553d c362 823b fcb7 1b3d
00000090: c02c fa3d 6b12 c23c 8ef0 8cbd fd61 08bd
000000a0: b9b1 28be a3b5 9b3d c62d f53c f3ff d7bd
000000b0: ddf7 543d 3ad8 e83d 0ac3 043e 9c11 85bd
000000c0: c69f ea3d c163 b03c b562 083d 620b 09bd
000000d0: 3310 aa3d 6f85 c23d 3632 593b da12 a7bd
000000e0: cce2 8c3d fc52 15be ac93 b83d 9dd1 923d
000000f0: 2897 0f3d a5d0 133d 0b59 b1bd 9635 823c
00000100: 1d8a b23a 489c 6abd da25 043c a1df 9bbb
00000110: c16d 973a 267d a13c 1001 24bd 1086 4bbd
00000120: 7007 0b3e c68c ce3d e4e2 ebbc dfd7 46bd
00000130: 036e 8a3b abc0 fcbd db50 0ebd d85a c2bd
00000140: dbe2 3e3d 5c98 ebbb 01e2 903d 15ea aabd
00000150: defb 8abd 7453 9dbc 2607 dcbd 52f3 1abe
00000160: 5d0c 5abd 4409 943b 65ac 5f3d a438 ec3d
00000170: 1c04 94bb 3c6b 323e 8791 dc3d a63e a23b
00000180: 5fde 93bd 592c 10bc e91c ab3a 0ca3 593a
00000190: 0df5 943d 73fe f03d ca9f febc a49e b43d
000001a0: 871e a53d 1815 db3d 817a 3dbc 514f bc3b
000001b0: 2381 c83d 307e 05be dad2 39bd a4d0 a9bd
000001c0: 6ff8 b13d 40ce 463c 39df 863c 5085 1c3d
000001d0: 5246 993d 43f5 8abd 24fb e2bd 8a86 fcbc
000001e0: 36dd a2bc a09b eabc 8ac6 45bc d651 43b9
000001f0: ab32 20be b40f 00be 7bfa 0d3c 515a 6dbd

layer3.weight f4 [128, 128]
-0.0688429 0.073348425 0.008234949 -0.006753021 -0.0637354 -0.058028385 -0.05594474 0.05882373
0.06608285 0.054046113 0.028102858 0.028132172 -0.054098807 -0.048300292 0.07963572 0.08574473
0.08417535 0.01103439 0.06888711 0.0137362415 -0.0029362123 0.004741112 -0.06250028 -0.0837436
-0.04297896 -0.049093895 0.06163181 -0.065767914 -0.013299166 0.022710072 0.026194822 0.0066098734
0.0520418 -0.0749296 0.011938559 -0.0921984 5.4282773e-05 0.07482286 0.057613097 0.0361625
-0.080581866 0.01853419 0.023720475 -0.09672333 -0.09327503 -0.0591311 0.029791882 0.054024275
-0.10099332 -0.046886038 0.032232832 -0.045286916 0.064954005 0.04487665 -0.03792111 0.10925059
-0.0005282598 -0.028113764 -0.0031593966 -0.063518204 0.057752956 -0.06775869 0.06985494 -0.03194006
-0.01597437 -0.16704756 -0.05135676 0.01798013 -0.10855119 0.05250908 -0.030476626 -0.04584245
0.05629657 0.035564832 0.00842633 -0.020171316 0.031185118 0.03505785 -0.07523422 -0.070755675
-0.076741345 -0.007886272 0.056492265 -0.076118335 0.033731762 -0.06201429 0.02372176 0.07001106
-0.025457392 0.055152304 0.022945726 0.034891434 0.029439863 -0.05287174 0.039031137 0.042802777
0.09267125 0.01842454 -0.045269664 -0.025288671 0.06350524 0.016146345 -0.016058786 0.045264445
-0.013106039 0.1192709 0.042301644 -0.071129195 0.06729397 0.03625407 -0.097880475 -0.051697373
0.019704618 0.03240801 0.08486503 0.011893659 0.06214582 -0.06586983 0.073851146 0.03509465
0.03358669 -0.050429817 -0.11051296 -0.031361 0.019517228 0.0070413104 0.010834354 0.0055591124
0.1223069 0.050018113 -0.06778602 0.037374757 -0.011532055 -0.0017197437 -0.116478525 0.09970259
0.03030774 -0.017947534 -0.09811902 0.034274872 -0.009590944 -0.042085897 0.005232411 0.02609266
0.023606967 -0.11475779 -0.048950337 -0.032297466 0.083755106 -0.019107366 -0.023193851 0.01194169
0.0029371106 -0.06888035 0.010363901 0.05192201 0.0060754674 -0.018915143 0.059141517 -0.03720656
0.08313684 0.058638368 0.07829493 0.02346842 0.050219182 -0.03799453 -0.008196901 0.029357588
-0.058226787 -0.035335876 -0.01813139 0.10941512 0.05337041 0.00037280467 -0.029157925 -0.075233534
0.12348482 0.012946606 -0.029488329 -0.054885227 -0.018378656 0.059099883 0.03188575 -0.09287974
-0.016877934 -0.014547403 0.115727246 -0.01236813 -0.02716284 0.045585252 -0.026546419 -0.07235997
0.020310335 0.14172436 -0.08530038 0.061586693 0.039977115 0.10370747 0.015869362 -0.00039281038
-0.057407435 0.074299335 -0.016104894 0.015275627 0.058163304 -0.04414626 -0.0072660763 0.0936103
0.10237045 0.04017245 -0.08239152 -0.0432657 -0.03736425 0.01794924 -0.03802566 0.021998744
-0.06553188 -0.072983116 0.0075822356 0.045071837 0.034199525 -0.009885655 0.012126073 -0.13886996
0.10058794 0.09292169 -0.07579118 -0.10613606 -0.101191476 -0.072029024 0.019521562 -0.09525405
-0.123885944 -0.055336062 -0.042515397 -0.04473571 0.028253151 -0.06437495 -0.041850466 -0.049900677
0.08882892 -0.016903605 -0.04592419 -0.017717637 -0.0013199891 0.07247395 -0.033684738 -0.042041745
-0.046353165 -0.072844625 0.082071364 -0.017011782 -0.012184987 0.027073005 0.008536626 0.11016053
00000000: 82fd 8cbd b337 963d e1eb 063c 7248 ddbb
00000010: b587 82bd 2caf 6dbd 5026 65bd 27f1 703d
00000020: 7256 873d 755f 5d3d f737 e63c 7175 e63c
00000030: b696 5dbd 87d6 45bd 0d18 a33d ef9a af3d
00000040: 2064 ac3d 96c9 343c af14 8d3d f90d 613c
00000050: 786d 40bb 545b 9b3b 2600 80bd c481 abbd
00000060: b50a 30bd ae16 49bd a371 7c3d 54b1 86bd
00000070: bfe4 59bc 790a ba3c 8696 d63c a397 d83b
00000080: c829 553d b174 99bd f299 433c 84d2 bcbd
00000090: afad 6338 ba3c 993d b6fb 6b3d 211f 143d
000000a0: 1b08 a5bd 03d5 973c 7151 c23c e216 c6bd
000000b0: fb06 bfbd 7433 72bd 1b0e f43c 8f48 5d3d
000000c0: 96d5 cebd 930b 40bd 9306 043d c67e 39bd
000000d0: 9b06 853d 94d0 373d 2a53 1bbd c6be df3d
000000e0: ea7a 0aba d64e e6bc e10d 4fbb d515 82bd
000000f0: 5d8e 6c3d 11c5 8abd 1b10 8f3d 95d3 02bd
00000100: afdc 82bc 840e 2bbe 775b 52bd 114b 933c
00000110: 1650 debd c313 573d 1eaa f9bc 4bc5 3bbd
00000120: 3b97 663d 6eac 113d 970e 0a3c 513e a5bc
00000130: ef77 ff3c d298 0f3d 6614 9abd 5ae8 90bd
00000140: 912a 9dbd 6c35 01bc 6f64 673d eee3 9bbd
00000150: 512a 0a3d b202 7ebd 2354 c23c f561 8f3d
00000160: 058c d0bc 62e7 613d adf8 bb3c 52ea 0e3d
00000170: de2b f13c 0a90 58bd 1ddf 1f3d f751 2f3d
00000180: 6dca bd3d 10ef 963c af6c 39bd 302a cfbc
00000190: 090f 823d 5745 843c b78d 83bc 3667 393d
000001a0: b6ba 56bc 4d44 f43d 7d44 2d3d 2fac 91bd
000001b0: 6cd1 893d 267f 143d 8f75 c8bd a0c0 53bd
000001c0: 946b a13c 43be 043d b8cd ad3d 9fdd 423c
000001d0: 9e8c 7e3d c3e6 86bd 453f 973d 68bf 0f3d
000001e0: 3292 093d 7f8f 4ebd 9e54 e2bd 6474 00bd
000001f0: 98e2 9f3c cbba e63b 9382 313c 3729 b63b
00000200: 0a7c fa3d cbdf 4c3d 66d3 8abd 4616 193d
00000210: f2f0 3cbc 0669 e1ba 4b8c eebd df30 cc3d
00000220: f047 f83c b506 93bc a0f2 c8bd cf63 0c3d
00000230: 5623 1dbc 4362 2cbd a574 ab3b 46c0 d53c
00000240: 6663 c13c 2206 ebbd 2680 48bd 594a 04bd
00000250: cc87 ab3d 0d87 9cbc 0801 bebc 14a7 433c
00000260: 8a7c 403b 2411 8dbd 5acd 293c 2cac 543d
00000270: b714 c73b eef3 9abc 603e 723d e865 18bd
00000280: a643 aa3d c92e 703d 1859 a03d d840 c03c
00000290: a1b2 4d3d 27a0 1bbd 4b4c 06bc 537f f03c
000002a0: 367f 6ebd 5abc 10bd 4888 94bc 0915 e03d
000002b0: ee9a 5a3d ff74 c339 9adc eebc 0a14 9abd
000002c0: 9ce5 fc3d 001e 543c 8291 f1bc 55cf 60bd
000002d0: d68e 96bc b812 723d a29a 023d bc37 bebd
000002e0: 9843 8abc 3b58 6ebc 6802 ed3d b2a3 4abc
000002f0: 9b84 debc 9ab7 3a3d e077 d9bc 7731 94bd
00000300: dc61 a63c 3120 113e f7b1 aebd 5442 7c3d
00000310: 0bbf 233d 9564 d43d 7700 823c 1ef2 cdb9
00000320: 0f24 6bbd 402a 983d 69ee 83bc a046 7a3c
00000330: a53c 6e3d b5d2 34bd 4418 eebb c2b6 bf3d
00000340: 99a7 d13d de8b 243d e3bc a8bd 6037 31bd
00000350: 410b 19bd 490a 933c cbc0 1bbd b636 b43c
00000360: 9435 86bd 2c78 95bd 6774 f83b 3f9d 383d
00000370: cd14 0c3d 71f7 21bc 70ac 463c ed33 0ebe
00000380: 0d01 ce3d ba4d be3d 6838 9bbd dd5d d9bd
00000390: 7a3d cfbd f483 93bd afeb 9f3c 8e14 c3bd
000003a0: eab7 fdbd 11a8 62bd a024 2ebd cb3c 37bd
000003b0: 2773 e73c 04d7 83bd 656b 2bbd a764 4cbd
000003c0: f0eb b53d 6e79 8abc 011b 3cbd 9424 91bc
000003d0: 7c03 adba 396d 943d 02f9 09bd f733 2cbd
000003e0: d1dc 3dbd 902f 95bd 0815 a83d 4b5c 8bbc
000003f0: 8aa3 47bc 35c8 dd3c 34dd 0b3c d89b e13d

layer3.bias f4 [128]
0.05988117 0.03699444 -0.008307556 -0.06343058 0.007241583 0.18838118 -0.007981486 0.1456273
0.04354751 -0.12166631 -0.08049042 -0.014283001 0.02061278 0.051758282 0.042932127 0.07045775
-0.0047238185 -0.08136719 0.05801175 -0.0782156 -0.0670619 -0.08493079 0.056128547 -0.05898313
0.13875365 -0.17619541 -0.063763805 0.20858006 0.14712995 -0.106071934 0.1451705 0.056987394
0.018803108 -0.14869535 -0.10560568 -0.0023968655 -0.10258087 0.093110465 -0.06929881 0.15879595
0.07467013 -0.072276 -0.13056289 0.15479302 -0.14692473 -0.04544433 0.19482526 0.034604516
0.050422516 0.058071863 0.07332132 0.06730675 0.15053047 -0.089026995 0.14122054 0.028575435
0.07117177 0.12366561 0.18177345 -0.11188278 -0.04305365 0.09508317 0.08903426 -0.052094985
-0.075570434 0.093734264 0.10525679 -0.112327114 -0.07942594 0.047426876 -0.0075417175 -0.043841302
0.06476813 0.05017484 -0.128766 -0.067592606 0.07916875 0.050153587 0.05912912 0.06008477
0.23460846 0.025721096 -0.036928196 -0.05108756 -0.112085424 0.0571721 0.15885225 -0.0634634
0.09429508 0.0851517 0.123219155 0.110985875 -0.10883121 0.018394707 -0.12747644 -0.03538386
0.13494305 -0.12596756 0.08546325 -0.103386775 -0.16529223 0.06439701 0.030364115 -0.00054755976
0.12137823 0.05251896 0.1583038 0.013310789 0.13834417 -0.14608358 0.11657073 -0.026852764
-0.0574243 -0.103797495 -0.09822461 -0.1496305 -0.06764787 -0.054930873 -0.04837257 -0.049119353
0.079251155 0.0031119245 -0.014846593 -0.006952862 -0.03481128 -0.0811652 -0.07614432 0.08220697
00000000: f545 753d 7b87 173d 6a1c 08bc e4e7 81bd
00000010: cd4a ed3b ffe6 403e c7c4 02bc 531f 153e
00000020: e05e 323d 302c f9bd 29d8 a4bd 4003 6abc
00000030: 22dc a83c 7e00 543d 99d9 2f3d 274c 903d
00000040: 43ca 9abb d7a3 a6bd bb9d 6d3d 802f a0bd
00000050: c057 89bd 32f0 adbd 0ce7 653d 4b98 71bd
00000060: 7015 0e3e 926c 34be 9996 82bd 0396 553e
00000070: 3ca9 163e 3e3c d9bd 93a7 143e 9d6b 693d
00000080: fa08 9a3c 9843 18be ca47 d8bd bb14 1dbb
00000090: eb15 d2bd b3b0 be3d 89ec 8dbd 689b 223e
000000a0: a7ec 983d 7105 94bd 47b2 05be 1082 1e3e
000000b0: 7073 16be d523 3abd 4680 473e 77bd 0d3d
000000c0: d787 4e3d c3dc 6d3d 7d29 963d 1fd8 893d
000000d0: a924 1a3e c953 b6bd 1e9c 103e 0817 ea3c
000000e0: 81c2 913d 6544 fd3d d222 3a3e cd22 e5bd
000000f0: 0659 30bd f7ba c23d 9857 b63d 8d61 55bd
00000100: acc4 9abd c0f7 bf3d df90 d73d c20b e6bd
00000110: 11aa a2bd af42 423d 8320 f7bb f092 33bd
00000120: 27a5 843d 2284 4d3d 3cdb 03be fe6d 8abd
00000130: 3a23 a23d d96d 4d3d 6031 723d 731b 763d
00000140: 333d 703e 0cb5 d23c 0542 17bd 3041 51bd
00000150: 0b8d e5bd 4b2d 6a3d 2aaa 223e 19f9 81bd
00000160: c71d c13d 0464 ae3d 535a fc3d 904c e33d
00000170: e6e2 debd 7fb0 963c 2f89 02be abee 10bd
00000180: 832e 0a3e a4fd 00be 5b07 af3d 72bc d3bd
00000190: 5e42 29be 94e2 833d 2abe f83c 1d8a 0fba
000001a0: 2695 f83d 1f1e 573d 641a 223e 7f15 5a3c
000001b0: 18aa 0d3e ef96 15be a3bc ee3d 54fa dbbc
000001c0: be35 6bbd c893 d4bd fc29 c9bd bd38 19be
000001d0: f78a 8abd 32ff 60bd 5122 46bd 6031 49bd
000001e0: 6e4e a23d 6ef1 4b3b 203f 73bc d5d4 e3bb
000001f0: 4696 0ebd f139 a6bd 8ef1 9bbd 215c a83d

layer4.weight f4 [128, 128]
-0.07020745 0.0961742 0.07130402 0.058925677 0.006025988 -0.05956202 -0.075660415 -0.08395688
0.022658138 0.03957177 -0.05100004 -0.0013835579 -0.041065946 0.0033087826 -0.01893827 -0.04020633
0.04603837 0.007872773 0.007185378 0.024658041 0.011506152 -0.034975216 -0.013781855 -0.069252424
0.03290804 -0.0054834965 0.05526793 -0.03290447 0.045576464 0.072970584 -0.055672757 0.040852904
0.0017582888 -0.033501413 -0.031852376 -0.0323801 -0.034345616 0.084970444 -0.051714525 0.043571375
-0.01946233 0.020788006 -0.068750076 -0.06919559 0.089387946 -0.03968993 0.032494333 0.056631252
0.031284746 0.015742429 0.0047127134 0.0059172967 -0.06752308 -0.0793101 0.04540575 0.049554024
-0.032165583 -0.04251166 0.09938312 -0.028302185 -0.036904942 -0.0123296 -0.0365371 -0.00240279
-0.081358925 -0.046844583 -0.0033679819 0.0031695606 0.03386499 0.074747935 -0.055354252 0.029023329
-0.06574421 -0.021328852 0.0024950267 -0.069986306 0.033943582 -0.03956876 -0.08190105 0.017939437
0.026755674 0.00752863 -0.009798257 0.057545558 0.044194423 -0.064941615 0.07120194 -0.06987054
0.0823791 -0.082101665 0.07047058 0.04586183 -0.06535215 0.027151603 0.052725043 -0.03973739
0.09354232 0.036266927 0.0060892757 0.047026612 0.021186184 0.09094766 -0.0064634997 -0.08042616
-0.04886593 0.014390319 0.0622 -0.08406091 0.0069029815 0.035036907 -0.013909807 -0.034359574
0.036227252 0.023463847 0.06459479 -0.054863602 -0.008414445 -0.049953155 -0.0159284 0.019052308
-0.029874537 0.051750943 0.06700175 -0.08851224 -0.061168246 -0.07959241 -0.05992917 0.026242645
-0.0870383 0.056479186 -0.06606843 -0.026752362 0.15601915 0.20845917 -0.008110929 0.2501936
0.060313497 0.09427181 -0.15399088 -0.05472904 0.14242503 -0.003349974 0.05125631 -0.15444279
-0.12460422 0.007005776 -0.117546774 0.03983829 -0.03127773 -0.017531026 0.08199595 0.05740018
-0.16301525 -0.17447142 0.0025530264 -0.18892723 0.19219501 0.1991721 -0.03418518 -0.097215526
-0.10825437 0.007637893 -0.15121141 0.13471915 -0.09190075 0.016797418 0.061400983 -0.102744885
0.13316798 -0.10739043 0.10582683 0.03631674 0.23724094 -0.11588505 0.17477538 0.115554444
0.13564415 0.06730138 -0.18567331 0.10286135 -0.06691279 -0.049372345 0.032747343 0.10888802
-0.21747759 -0.11350042 0.14404613 -0.086041704 -0.024480814 0.0008211428 0.17841281 -0.02788024
-0.098182306 0.07863618 -0.15452011 -0.072697915 0.1768489 0.013005939 0.030365406 -0.08235457
0.12601644 -0.098906964 0.22421904 -0.046167344 -0.16140854 -0.03281994 0.11599948 -0.062129438
-0.04178353 0.13170059 -0.013306317 0.12010646 0.19951648 -0.085937485 0.26602292 -0.09151368
0.12194028 0.0012915669 0.098193794 -0.018363584 0.11810214 0.09858862 -0.059382036 0.005406502
0.09456682 -0.17852691 0.042403284 -0.03257805 -0.023928083 -0.04262908 0.058317486 -0.049678273
-0.05344228 -0.021943372 0.11360347 -0.033535298 -0.21514167 -0.1545684 -0.1359056 -0.17545786
-0.083352424 0.037638057 0.036811847 -0.007471107 -0.20352992 -0.009738702 0.112739176 0.006499276
0.030046249 -0.102045335 0.006846234 0.23257868 -0.05390356 0.09705618 0.029464401 0.078785114
00000000: ecc8 8fbd fbf6 c43d d807 923d 0d5c 713d
00000010: a775 c53b 4ef7 73bd d9f3 9abd 96f1 abbd
00000020: 8f9d b93c 0216 223d 6be5 50bd 8058 b5ba
00000030: c434 28bd 29d8 583b 6e24 9bbc 65af 24bd
00000040: bb92 3c3d cefc 003c 5273 eb3b a9ff c93c
00000050: 4d84 3c3c 2c42 0fbd 4acd 61bc 37d4 8dbd
00000060: 95ca 063d e7ae b3bb a060 623d d6c6 06bd
00000070: 63ae 3a3d 9a71 953d 1e09 64bd 6055 273d
00000080: 6276 e63a c738 09bd a377 02bd ffa0 04bd
00000090: fdad 0cbd fc04 ae3d 9cd2 53bd e677 323d
000000a0: 776f 9fbc 9c4b aa3c d7cc 8cbd 6bb6 8dbd
000000b0: 0711 b73d e891 22bd c718 053d 2cf6 673d
000000c0: 6f24 003d 44f6 803c 1b6d 9a3b e2e5 c13b
000000d0: 8a49 8abd 556d a2bd 61fb 393d 29f9 4a3d
000000e0: 0fc0 03bd b520 2ebd 6189 cb3d fcd9 e7bc
000000f0: a329 17bd 1702 4abc eda7 15bd 2078 1dbb
00000100: 829f a6bd 1be0 3fbd 5cb9 5cbb 67b8 4f3b
00000110: 04b6 0a3d 7215 993d 24bb 62bd 55c2 ed3c
00000120: e6a4 86bd d8b9 aebc 9a83 233b fb54 8fbd
00000130: 6d08 0b3d da12 22bd bdbb a7bd baf5 923c
00000140: b72e db3c bab2 f63b de88 20bc e4b4 6b3d
00000150: 3605 353d 1c00 85bd 53d2 913d 4918 8fbd
00000160: 60b6 a83d eb24 a8bd e152 903d 9dd9 3b3d
00000170: 59d7 85bd 0a6d de3c 37f6 573d acc3 22bd
00000180: 1e93 bf3d a18c 143d 8c88 c73b fa9e 403d
00000190: a68e ad3c c442 ba3d c4cb d3bb 78b6 a4bd
000001a0: a427 48bd 5fc5 6b3c 6dc5 7e3d 2028 acbd
000001b0: 6832 e23b dc82 0f3d f6e5 63bc a0bc 0cbd
000001c0: 0763 143d 4137 c03c 464a 843d a8b8 60bd
000001d0: bedc 09bc ae9b 4cbd 477c 82bc 9613 9c3c
000001e0: 72bb f4bc ccf8 533d 3738 893d e845 b5bd
000001f0: 8e8b 7abd 5801 a3bd 4a78 75bd d1fa d63c
00000200: 2341 b2bd b856 673d e34e 87bd c527 dbbc
00000210: 7cc3 1f3e 5276 553e b4e3 04bc 6019 803e
00000220: 490b 773d 9411 c13d c9af 1dbe 8f2b 60bd
00000230: ded7 113e 3d8b 5bbb 23f2 513d 4026 1ebe
00000240: 7f30 ffbd b590 e53b 5dbc f0bd 7a2d 233d
00000250: 141d 00bd 3a9d 8fbc 7eed a73d 731c 6b3d
00000260: 78ed 26be a3a8 32be ad50 273b 2476 41be
00000270: c5ce 443e c5f3 4b3e c205 0cbd ef18 c7bd
00000280: 78b4 ddbd 4a47 fa3b 2ad7 1abe d1f3 093e
00000290: 7636 bcbd bd9a 893c 997f 7b3d e96b d2bd
000002a0: 305d 083e 84ef dbbd bdbb d83d ddc0 143d
000002b0: 4aef 723e 2455 edbd 51f8 323e cfa7 ec3d
000002c0: 4de6 0a3e 4ed5 893d 2521 3ebe f9a8 d23d
000002d0: 9309 89bd a83a 4abd 1422 063d af00 df3d
000002e0: 72b2 5ebe e872 e8bd d480 133e a236 b0bd
000002f0: fd8b c8bc f641 573a d9b1 363e 1a65 e4bc
00000300: ce13 c9bd 010c a13d 853a 1ebe a5e2 94bd
00000310: e117 353e dd16 553c dfc0 f83c 83a9 a8bd
00000320: 740a 013e bc8f cabd ad99 653e f819 3dbd
00000330: 4848 25be 346e 06bd 2391 ed3d 707b 7ebd
00000340: 3525 2bbd 85dc 063e bd02 5abc 60fa f53d
00000350: 0c4e 4c3e feff afbd 2834 883e 866b bbbd
00000360: d3bb f93d cb49 a93a d419 c93d 3a6f 96bc
00000370: 89df f13d d5e8 c93d 943a 73bd 0729 b13b
00000380: 40ac c13d c2cf 36be 11af 2d3d 9070 05bd
00000390: d404 c4bc d59b 2ebd 51de 6e3d 727b 4bbd
000003a0: 4be6 5abd 96c2 b3bc f0a8 e83d 4f5c 09bd
000003b0: 194e 5cbe 2e47 1ebe d62a 0bbe 3aab 33be
000003c0: adb4 aabd 5d2a 1a3d 05c8 163d 30d0 f4bb
000003d0: 266a 50be 148f 1fbc cce3 e63d e1f7 d43b
000003e0: 8d23 f63c 25fd d0bd 6056 e03b 1b29 6e3e
000003f0: fbc9 5cbd 64c5 c63d 545f f13c 175a a13d

layer4.bias f4 [128]
-0.016824713 0.19635658 -0.058509674 0.038870413 0.101440474 -0.0007306937 0.012243663 -0.18815154
-0.019027842 -0.019700672 -0.05457397 0.21060285 0.08564814 0.0895364 0.18429375 0.059986435
0.08157783 -0.06436714 0.11696896 0.02756567 -0.060239796 0.029189749 0.108781256 -0.08471333
-0.08591549 -0.18859914 0.00843698 -0.12697315 0.06780766 -0.082397595 -0.076306276 -0.037492022
0.015029737 0.16244553 0.080509745 0.037454017 0.21818334 -0.047425307 -0.045724794 0.2031755
-0.020200016 0.10265389 -0.053297732 0.07005364 -0.1238072 0.015286518 -0.06752571 -0.06776567
0.07288437 -0.10173675 0.12620245 0.14334056 -0.11987592 0.06714696 -0.13986464 0.08609597
-0.06711956 -0.0033328328 0.20786907 0.037298627 0.054223668 -0.0062132664 -0.034704782 -0.06787332
0.10581793 -0.09324739 0.04344734 0.08465537 0.0386408 0.070857316 -0.07798879 0.20195803
0.08045073 -0.124115795 -0.058702543 -0.025377233 0.10164822 0.07046791 -0.092951685 0.039991688
-0.04586303 -0.098501965 0.12377049 -0.023172507 0.047851052 0.00963966 0.2744767 -0.05166358
0.008521854 -0.061314482 0.051918563 -0.044340942 0.08351053 -0.060322426 0.0002738304 0.017751869
0.10712842 -0.048508156 -0.045179695 0.03955743 0.011033803 0.0270123 0.11392128 -0.08674693
0.13100505 -0.03312018 -0.10030506 -0.085818075 0.111675665 0.11958334 0.035124302 -0.10070958
-0.044153154 0.108629875 0.0061009214 -0.06788179 0.05696279 0.022170924 0.03171446 0.09767332
0.018267076 -0.013024281 0.018812722 -0.018554691 0.11090474 0.026450232 0.21909122 0.014523766
00000000: fbd3 89bc b311 493e d7a7 6fbd 9536 1f3d
00000010: 06c0 cf3d 068c 3fba a599 483c ccaa 40be
00000020: 47e0 9bbc 4e63 a1bc f588 5fbd 46a8 573e
00000030: 4b68 af3d dc5e b73d 80b7 3c3e 56b4 753d
00000040: 4712 a73d ebd2 83bd 6c8d ef3d 66d1 e13c
00000050: 01be 76bd 571f ef3c b5c8 de3d 2f7e adbd
00000060: 76f4 afbd 2220 41be 423b 0a3c 4005 02be
00000070: bede 8a3d 12c0 a8bd 7746 9cbd 3c91 19bd
00000080: 493f 763c 1f58 263e 4be2 a43d 6269 193d
00000090: 746b 5f3e 0a41 42bd ec49 3bbd 3d0d 503e
000000a0: 817a a5bc 343c d23d b94e 5abd 4878 8f3d
000000b0: a18e fdbd 4e74 7a3c eb4a 8abd bac8 8abd
000000c0: 6744 953d 5b5b d0bd 373b 013e dec7 123e
000000d0: 8281 f5bd 5884 893d ad38 0fbe 1553 b03d
000000e0: fb75 89bd a86b 5abb a1db 543e 72c6 183d
000000f0: a319 5e3d a898 cbbb 9a26 0ebd 2b01 8bbd
00000100: 12b7 d83d 7df8 bebd d7f5 313d cb5f ad3d
00000110: d145 1e3d a41d 913d 96b8 9fbd 16ce 4e3e
00000120: 5ac3 a43d 6c30 febd 1472 70bd eae3 cfbc
00000130: f12c d03d 7b51 903d 745d bebd 53ce 233d
00000140: dfda 3bbd 66bb c9bd 627b fd3d 45d4 bdbc
00000150: 77ff 433d aaef 1d3c 3688 8c3e 319d 53bd
00000160: 3f9f 0b3c e524 7bbd 8fa8 543d d99e 35bd
00000170: 9207 ab3d a614 77bd e590 8f39 5e6c 913c
00000180: 2566 db3d 7db0 46bd 580e 39bd f906 223d
00000190: 20c7 343c e648 dd3c 8f4f e93d 60a8 b1bd
000001a0: 3026 063e 07a9 07bd bd6c cdbd 63c1 afbd
000001b0: 36b6 e43d 1ce8 f43d 80de 0f3d d340 cebd
000001c0: f0d9 34bd 5779 de3d 3dea c73b 9c05 8bbd
000001d0: d151 693d cc9f b53c 06e7 013d f308 c83d
000001e0: d6a4 953c cb63 55bc 231d 9a3c 0200 98bc
000001f0: 0622 e33d 28ae d83c 7359 603e 17f5 6d3c

input_norm.weight f4 [8]
1.265599 0.7989704 0.9422692 0.82729924 0.76665014 1.0315648 0.61921865 0.7744894
00000000: 26ff a13f 5389 4c3f 8e38 713f e2c9 533f
00000010: 2f43 443f 510a 843f 1d85 1e3f f044 463f

input_norm.bias f4 [8]
0.27678618 0.1949266 0.49750483 0.4765632 -0.0065637664 0.2846721 0.2770716 0.12626879
00000000: ebb6 8d3e d79a 473e f4b8 fe3e 1700 f43e
00000010: dd14 d7bb 8bc0 913e 54dc 8d3e 9b4c 013e

input_norm.running_mean f4 [8]
3.6004114 0.03424931 -1.1185479 3.6200247 0.007514228 0.02756926 -0.11981726 0.2564102
00000000: 246d 6640 0149 0c3d 942c 8fbf 7cae 6740
00000010: ea39 f63b eed8 e13c c062 f5bd 3348 833e

input_norm.running_var f4 [8]
3.8938968 0.0025226914 2.140658 5.935195 0.20139717 0.0018378358 0.67559856 0.19082431
00000000: 9b35 7940 bd53 253b 8a00 0940 1eed bd40
00000010: 0f3b 4e3e 89e3 f03a 07f4 2c3f 7367 433e

norm.weight f4 [128]
0.8454126 1.0659848 0.8913954 0.85699993 0.862585 0.8751913 0.8695656 0.8886142
0.88924646 0.8592643 0.92821646 0.9210312 0.83633375 0.9183557 0.9085044 0.8928739
0.8373297 0.8665191 0.9374046 0.9056214 0.87595445 0.9124574 0.93516695 0.90149474
0.8992728 0.9332804 0.85326505 0.99584836 0.8236079 0.83717066 0.9353663 0.89510757
0.84239817 0.88153446 0.88566476 0.9052339 0.91376156 0.9036764 0.8189543 0.9635052
0.93831944 0.8740978 0.9826679 0.8620445 0.88002014 0.9287698 1.0321597 0.87078196
0.9360063 0.9141998 0.92344195 0.8912076 0.8841434 0.8886033 0.8641343 0.8825647
0.86834216 0.9877024 0.93368644 0.8420264 0.89324915 0.8645922 0.9068273 0.9100253
0.86175156 0.89514226 0.8909508 0.8745122 0.8080115 0.9236172 0.9079153 0.88751334
0.89226025 0.8555015 0.87896055 0.88795185 0.9376363 0.90725297 0.8901238 1.009773
0.8941391 0.8698681 0.8743583 0.8740313 0.87750113 0.8472806 0.986931 0.8926851
0.88876635 0.8824121 0.83391285 0.8956582 0.82195413 0.8268115 0.8476236 0.92473626
0.924683 0.8967737 0.91591686 0.93067807 0.8783797 0.8936017 0.83692086 0.8306036
0.87203336 0.93989474 0.8675493 0.9014147 1.0209695 0.8695432 0.8773098 0.8814578
0.86747694 0.8921731 0.87743443 0.86267924 0.88516533 0.8735747 0.86846155 0.87847406
0.8292026 0.943196 0.8904153 0.8478428 0.90721035 0.8960635 0.96865195 0.8470691
00000000: f66c 583f 3172 883f 7d32 643f 5964 5b3f
00000010: 5fd2 5c3f 890c 603f da9b 5e3f 387c 633f
00000020: a8a5 633f bff8 5b3f 989f 6d3f b3c8 6b3f
00000030: f819 563f 5c19 6b3f bf93 683f 6293 643f
00000040: 3d5b 563f 32d4 5d3f bff9 6f3f ced6 673f
00000050: 8d3e 603f cf96 693f 1a67 6f3f 5cc8 663f
00000060: be36 663f 77eb 6e3f 946f 5a3f ebef 7e3f
00000070: f8d7 523f d150 563f 2a74 6f3f c525 653f
00000080: 68a7 573f 3eac 613f edba 623f 69bd 673f
00000090: 47ec 693f 5657 673f fda6 513f 47a8 763f
000000a0: b435 703f e0c4 5f3f 2090 7b3f f3ae 5c3f
000000b0: 0049 613f dcc3 6d3f cf1d 843f 91eb 5e3f
000000c0: 1c9e 6f3f 0009 6a3f b166 6c3f 2e26 643f
000000d0: 3957 623f 827b 633f e837 5d3f c3ef 613f
000000e0: ac4b 5e3f 11da 7c3f 1306 6f3f 0b8f 573f
000000f0: faab 643f ea55 5d3f d525 683f 6bf7 683f
00000100: c09b 5c3f 0b28 653f 5a15 643f 08e0 5f3f
00000110: d7d9 4e3f 2d72 6c3f 236d 683f 1334 633f
00000120: 2b6b 643f 2502 5b3f 8f03 613f d050 633f
00000130: ef08 703f bb41 683f 27df 633f 3e40 813f
00000140: 4de6 643f adaf 5e3f f2d5 5f3f 84c0 5f3f
00000150: eaa3 603f 62e7 583f 83a7 7c3f 0387 643f
00000160: 3186 633f c2e5 613f 507b 553f db49 653f
00000170: 966b 523f eba9 533f dcfd 583f 84bb 6c3f
00000180: 06b8 6c3f f692 653f 8779 6a3f eb40 6e3f
00000190: 7edd 603f 15c3 643f 7240 563f 70a2 543f
000001a0: 943d 5f3f f19c 703f b617 5e3f 1dc3 663f
000001b0: 21af 823f 629a 5e3f 6097 603f 38a7 613f
000001c0: f812 5e3f 7565 643f 8b9f 603f 8cd8 5c3f
000001d0: 329a 623f 97a2 5f3f 7f53 5e3f ade3 603f
000001e0: 9f46 543f 4b75 713f 42f2 633f 3a0c 593f
000001f0: f03e 683f 6b64 653f 93f9 773f 85d9 583f

norm.bias f4 [128]
0.110716954 0.00587647 0.13181572 -0.10019607 0.19348693 -0.057898358 -0.1232973 -0.07763182
0.20112953 0.1140116 0.19747195 0.1751417 0.16854869 0.22142324 0.3169827 -0.11231742
0.14661664 0.10302674 0.21652782 -0.0099197645 0.04409975 -0.025583038 0.040000454 0.0013632445
0.04116145 -0.019409936 0.17216335 -0.1291319 -0.32600915 -0.13851137 -0.032737177 0.20820202
-0.019942658 -0.13616301 -0.06225155 -0.18996952 -0.03893566 0.007740362 0.06297118 0.1062915
0.11392824 0.20864007 0.13531837 0.21148488 -0.017542638 0.07419938 0.14528386 -0.27711955
0.14185351 -0.1995506 0.09540105 0.18280107 0.22743747 -0.26312566 -0.08710545 -0.050994754
0.07213236 0.09128545 0.11222499 0.38910255 -0.11345908 0.09364686 -0.16963077 0.307277
0.03446949 -0.20067064 -0.12962024 0.0010477725 0.28672227 -0.05345112 0.31372425 0.029063689
0.17219234 -0.18276861 0.11608995 0.19736308 -0.07699991 -0.2726841 -0.023347246 -0.041517545
0.0061000297 0.15949938 -0.14786263 -0.09386737 0.073633365 -0.0055667018 0.20949012 0.01178617
-0.37711886 0.056071643 0.14369646 0.19512157 -0.029243434 0.22930302 0.02420606 0.11025284
0.089434795 -0.13612688 -0.274978 0.1645975 0.076303184 0.0025560888 -0.04080852 -0.15375206
0.04649742 -0.14173695 0.12676927 -0.023738112 -0.052053783 0.13288991 -0.08750987 0.1769176
-0.056819882 0.06733919 -0.053123403 -0.0128475595 -0.0001959447 -0.28868118 0.14051485 -0.07454701
0.11493265 0.046855357 -0.3463334 0.08598797 -0.038455546 -0.08343414 -0.004829994 -0.006947599
00000000: 92bf e23d 678f c03b b3fa 063e 9933 cdbd
00000010: 7021 463e d426 6dbd 4b83 fcbd 6ffd 9ebd
00000020: e6f4 4d3e ea7e e93d 1636 4a3e 5958 333e
00000030: 0798 2c3e c6bc 623e 8e4b a23e ad06 e6bd
00000040: ac22 163e afff d23d 78b9 5d3e 8286 22bc
00000050: f1a1 343d 8593 d1bc 84d7 233d e5ae b23a
00000060: e998 283d 9601 9fbc 974b 303e 273b 04be
00000070: acea a6be edd5 0dbe 6b17 06bd e932 553e
00000080: c95e a3bc 516e 0bbe 7bfb 7ebd 5f87 42be
00000090: 007b 1fbd dda2 fd3b 09f7 803d 5caf d93d
000000a0: 3653 e93d bea5 553e e690 0a3e 7e8f 583e
000000b0: 94b5 8fbc d8f5 973d 4bc5 143e 9de2 8dbe
000000c0: 0c42 113e fe56 4cbe a061 c33d 3430 3b3e
000000d0: 5ee5 683e 68b8 86be 5864 b2bd e0df 50bd
000000e0: 21ba 933d def3 ba3d 37d6 e53d 7338 c73e
000000f0: 3c5d e8bd edc9 bf3d b0b3 2dbe 6953 9d3e
00000100: e12f 0d3d 9b7c 4dbe 2bbb 04be 6955 893a
00000110: 43cd 923e 90ef 5abd 77a0 a03e f916 ee3c
00000120: 3053 303e b227 3bbe 91c0 ed3d 8c19 4a3e
00000130: 21b2 9dbd 409d 8bbe b942 bfbc 4d0e 2abd
00000140: c2e2 c73b ce53 233e 4d69 17be 893d c0bd
00000150: 17cd 963d e168 b6bb 9484 563e c81a 413c
00000160: b915 c1be 61ab 653d 2a25 133e f3cd 473e
00000170: ed8f efbc 69ce 6a3e ca4b c63c 3ecc e13d
00000180: 9729 b73d d864 0bbe ebc9 8cbe 3f8c 283e
00000190: d844 9c3d 0e84 273b d626 27bd 2e71 1dbe
000001a0: 1474 3e3d 7e23 11be cecf 013e 6e76 c2bc
000001b0: 5936 55bd 4b14 083e 6038 b3bd e329 353e
000001c0: f7bb 68bd 21e9 893d ed97 59bd 927e 52bc
000001d0: 8176 4db9 05ce 93be 20e3 0f3e 1aac 98bd
000001e0: cf61 eb3d 67eb 3f3d 9d52 b1be 761a b03d
000001f0: 9083 1dbd 85df aabd ed44 9ebb afa8 e3bb

norm.running_mean f4 [128]
0.3911999 0.478861 0.32711518 0.42478448 0.23152612 0.51667976 0.07492296 0.28220674
0.4118808 0.3321082 0.16066849 0.29485032 0.37248155 0.5403731 0.32792073 0.2940533
0.33572978 0.31757224 0.268233 0.3646973 0.49234742 0.4490245 0.55000293 0.16897899
0.43043867 0.032152444 0.42770344 0.012014137 0.88900393 0.2724743 0.32797718 0.41150668
0.3999127 0.25442615 0.1512384 0.5519246 0.51087713 0.17426121 0.094199374 0.31505293
0.04852026 0.4452816 0.034598123 0.29026586 0.031249048 0.09209938 0.15278941 0.68724346
0.13914181 0.3818673 0.27560562 0.57742935 0.2981674 0.39743236 0.19576274 0.22565907
0.4833711 0.012583913 0.3949048 0.9453702 0.64295954 0.32371163 0.09251512 0.03435997
0.16907203 0.31248844 0.3204224 0.34676144 0.20428827 0.4320957 0.17643642 0.43529105
0.2976685 0.34670708 0.38010857 0.52833635 0.34304506 0.62097913 0.24651055 0.022533026
0.43283278 0.28574657 0.649105 0.40982178 0.6515283 0.26110503 0.31419563 0.5627639
0.39879286 0.12642482 0.5464025 0.8503661 0.19591554 0.42380753 0.25924194 0.15978014
0.6578968 0.1948061 0.2975229 0.43655416 0.53965664 0.08114439 0.48415422 0.17904752
0.1884489 0.19052003 0.20055553 0.25398934 0.09959872 0.39642742 0.26954347 0.35519043
0.33788335 0.67661744 0.19358185 0.37367073 0.50719327 0.81566787 0.58285064 0.5106622
0.32134312 0.22292249 0.106980175 0.12535909 0.40899643 0.052194044 0.4849677 0.16312791
00000000: 5a4b c83e 452d f53e a47b a73e 5a7d d93e
00000010: 2f15 6d3e 2045 043f 3571 993d 677d 903e
00000020: 0ae2 d23e 160a aa3e 4886 243e 9ff6 963e
00000030: e7b5 be3e e455 0a3f 3ae5 a73e 278e 963e
00000040: c6e4 ab3e d498 a23e d655 893e 9bb9 ba3e
00000050: f614 fc3e 8ae6 e53e fecc 0c3f d408 2d3e
00000060: 7562 dc3e 48b2 033d f2fb da3e f1d6 443c
00000070: c395 633f c081 8b3e a0ec a73e 01b1 d23e
00000080: 5bc1 cc3e 2544 823e 3dde 1a3e ee4a 0d3f
00000090: d8c8 023f 8871 323e 9aeb c03d 9e4e a13e
000000a0: 2ebd 463d f3fb e33e c3b6 0d3d ba9d 943e
000000b0: 01fe ff3c 9a9e bc3d d474 1c3e 30ef 2f3f
000000c0: 317b 0e3e 1c84 c33e 2e1c 8d3e 69d2 133f
000000d0: 66a9 983e 417c cb3e 0776 483e 2c13 673e
000000e0: 6b7c f73e c22c 4e3c f630 ca3e c803 723f
000000f0: ff98 243f 88bd a53e 9178 bd3d 0abd 0c3d
00000100: 3821 2d3e 7cfe 9f3e 680e a43e b78a b13e
00000110: f230 513e a63b dd3e c0ab 343e 78de de3e
00000120: 0168 983e 9783 b13e 979d c23e 0d41 073f
00000130: 9aa3 af3e 7df8 1e3f 436d 7c3e 2e97 b83c
00000140: 429c dd3e 604d 923e bf2b 263f 29d4 d13e
00000150: 8fca 263f 8faf 853e 40de a03e 4c11 103f
00000160: 942e cc3e 8275 013e 09e1 0b3f 98b1 593f
00000170: 159e 483e 4dfd d83e 5cbb 843e 689d 233e
00000180: ed6b 283f 407b 473e ec54 983e 0784 df3e
00000190: f026 0a3f 082f a63d 10e3 f73e 3c58 373e
000001a0: c0f8 403e af17 433e 6e5e 4d3e e40a 823e
000001b0: 6afa cb3d 89f8 ca3e 9a01 8a3e 85db b53e
000001c0: 0cff ac3e cd36 2d3f 523a 463e c551 bf3e
000001d0: 6bd7 013f 9ccf 503f b335 153f c2ba 023f
000001e0: 1687 a43e cb45 643e 6c18 db3d 225e 003e
000001f0: fb67 d13e 6cc9 553d b04d f83e 010b 273e
