final_models/v_start_noise/models/best_model_episode_6856.pt (torch, 226638 bytes, 22 tensors)

layer1.weight f4 [128, 8]
0.3122754 -0.23317705 -0.123539835 0.23240742 -0.29184866 0.1693142 -0.07328477 0.2259094
-0.008201077 -0.23112753 0.26382098 -0.05248538 -0.035795197 -0.11044951 -0.01934137 -0.0050982246
-0.1445036 -0.056992482 0.38768125 0.15566462 -0.14351712 -0.20723327 -0.11136064 -0.14795774
-0.08177833 0.0040856693 0.19502659 0.2639172 -0.4320599 0.14049418 0.07405 0.3495279
0.07510335 -0.23612203 -0.28097078 -0.018875282 0.19278547 -0.0349446 0.17230909 -0.18524158
0.2124691 -0.13145798 0.28034696 -0.14123061 -0.1274815 0.2584291 -0.12096552 0.029633235
-0.0045775445 0.021040505 -0.21520054 -0.1737899 0.09816397 -0.16285685 0.32313234 0.10367123
0.01618475 -0.34423164 0.14630283 0.07610671 -0.22681683 0.20985356 0.2347381 0.36029842
-0.20252703 -0.16818151 -0.045111462 0.023642056 -0.28546715 -0.103290014 0.1213353 0.03190519
0.17300922 -0.14433192 0.16373713 0.009808178 0.19959739 0.17637321 -0.23200212 0.12549564
-0.2404737 -0.3204715 0.029801827 -0.16384512 0.17898037 -0.19789924 -0.30401453 0.18833588
-0.03935992 0.13716602 0.08972878 -0.12414361 -0.021520516 0.1361963 -0.12122405 -0.13993393
0.24935403 0.1887636 0.038273234 -0.105501465 0.33395657 -0.10763696 0.1737656 0.19405924
-0.12539528 -0.3131682 0.37342164 0.061534245 0.3887954 0.026833512 0.19280389 0.17346545
0.3058849 -0.122985415 -0.02221977 0.07410904 0.04016424 -0.08761769 -0.028206263 -0.29568905
-0.2437356 0.0021714729 0.3025021 -0.26241297 0.15518786 -0.22913267 -0.4055274 -0.022933427
0.1814727 0.42383516 -0.24811536 0.27320328 0.31448948 0.21094084 0.27115405 0.2910454
0.45411304 0.13854402 -0.17515281 -0.3521999 -0.24986598 0.026500553 -0.27560228 0.15445898
0.016025446 -0.065643884 0.11229048 0.08012407 0.15418275 0.12275692 -0.03278277 0.37089938
-0.08634216 -0.04544779 -0.333159 -0.22010565 -0.22110486 -0.1276208 0.22140016 -0.124400906
-0.47541806 0.08842372 0.12703142 0.48690364 -0.20131111 0.17687431 -0.13291918 -0.009550007
-0.24952184 -0.22211513 -0.23344079 0.10707543 -0.03471968 -0.011032273 0.4134349 0.33459297
0.2782769 0.0882765 -0.4468857 0.1475724 -0.019893328 0.05879006 -0.40817696 -0.16562684
-0.32868543 0.1767465 -0.3544587 -0.31770912 -0.012420207 -0.25205353 0.046332102 -0.08646883
-0.3220927 0.030764375 0.2901763 -0.22027966 0.18646231 0.08626209 0.38578588 -0.30190736
-0.007230986 -0.31920162 0.25345635 -0.013558938 0.033554137 -0.2804977 -0.033253208 0.039041195
0.0029037797 0.15018721 0.06039915 0.015957542 -0.25823697 0.3096063 0.3062333 0.4202778
0.017495913 -0.25683314 -0.14698742 0.09683585 -0.13525681 -0.020982374 -0.117916875 -0.26725614
0.3791054 -0.20515488 0.0016337807 0.2624396 0.4913341 0.2835913 -0.027022718 -0.39605004
0.18416573 0.05032617 -0.08898693 0.046562865 -0.40296304 0.20672812 0.2549172 -0.316314
-0.4339915 -0.26078913 0.09914018 0.09178923 -0.21301094 0.27705514 -0.34074065 -0.19478329
-0.16768695 0.32156345 0.31544507 -0.022743853 0.06651102 0.117431246 0.08259515 -0.051171925
00000000: 90e2 9f3e f7c5 6ebe 7402 fdbd 36fc 6d3e
00000010: 306d 95be b460 2d3e 5316 96bd cb54 673e
00000020: cf5d 06bc b2ac 6cbe 8b13 873e e9fa 56bd
00000030: fc9d 12bd 5a33 e2bd cb71 9ebc 020f a7bb
00000040: c0f8 13be f370 69bd 287e c63e 8c66 1f3e
00000050: 27f6 12be f534 54be 0c11 e4bd 3c82 17be
00000060: 667b a7bd 14e1 853b 0db5 473e 2820 873e
00000070: f536 ddbe b5dd 0f3e 87a7 973d 52f5 b23e
00000080: c9cf 993d f9c9 71be 67db 8fbe 56a0 9abc
00000090: 8e69 453e 1222 0fbd cb71 303e f8af 3dbe
000000a0: 8091 593e ec9c 06be a389 8f3e c29e 10be
000000b0: 838a 02be d250 843e c5bc f7bd 66c1 f23c
000000c0: 3aff 95bb 235d ac3c 885d 5cbe fbf5 31be
000000d0: 310a c93d f2c3 26be 9a71 a53e 9551 d43d
000000e0: e195 843c 213f b0be 69d0 153e d6dd 9b3d
000000f0: ac42 68be dae3 563e 2f5f 703e 0979 b83e
00000100: 3f63 4fbe c637 2cbe ccc6 38bd fcac c13c
00000110: c028 92be b789 d3bd a47e f83d 04af 023d
00000120: 5429 313e bfcb 13be b5aa 273e 7bb2 203c
00000130: 4263 4c3e 2e9b 343e f791 6dbe ee81 003e
00000140: bd3e 76be d714 a4be f622 f43c 04c7 27be
00000150: a146 373e 19a6 4abe cba7 9bbe 1fdb 403e
00000160: de37 21bd 4075 0c3e b9c3 b73d 013f febd
00000170: cb4b b0bc 0b77 0b3e 5144 f8bd d74a 0fbe
00000180: aa56 7f3e 3f4b 413e 65c4 1c3d 2711 d8bd
00000190: 5bfc aa3e c470 dcbd 9cef 313e 77b7 463e
000001a0: 9f67 00be 9557 a0be 1f31 bf3e 550b 7c3d
000001b0: 3110 c73e f4d1 db3c 626e 453e eda0 313e
000001c0: f29c 9c3e c7df fbbd 3c06 b6bc 7bc6 973d
000001d0: 4283 243d e770 b3bd d210 e7bc 8e64 97be
000001e0: d395 79be 454f 0e3b 8ee1 9a3e fe5a 86be
000001f0: 91e9 1e3e c1a1 6abe 4aa1 cfbe e2de bbbc
00000200: fbd3 393e ec00 d93e f411 7ebe 4de1 8b3e
00000210: c404 a13e e000 583e b4d4 8a3e e703 953e
00000220: 8181 e83e 7cde 0d3e 425b 33be 8c53 b4be
00000230: dedc 7fbe b017 d93c be1b 8dbe 7f2a 1e3e
00000240: cc47 833c 4d70 86bd 8df8 e53d 1718 a43d
00000250: 15e2 1d3e fb67 fb3d 3a47 06bd 86e6 bd3e
00000260: 29d4 b0bd 7627 3abd d193 aabe 6063 61be
00000270: 5069 62be 07af 02be b9b6 623e e7c5 febd
00000280: ff69 f3be 7f17 b53d 8614 023e 6f4b f93e
00000290: 8024 4ebe 8a1e 353e f71b 08be a277 1cbc
000002a0: a782 7fbe 2672 63be 1a0b 6fbe 5d4a db3d
000002b0: 3936 0ebd b5c0 34bc bdad d33e c54f ab3e
000002c0: 4f7a 8e3e 4fca b43d 34ce e4be 381d 173e
000002d0: 55f7 a2bc d9cd 703d 92fc d0be 159a 29be
000002e0: 7549 a8be 09fd 343e 9c7b b5be c5aa a2be
000002f0: 207e 4bbc 290d 81be bbc6 3d3d 9216 b1bd
00000300: 56e9 a4be 9205 fc3c fd91 943e fe90 61be
00000310: faef 3e3e 2eaa b03d ba85 c53e 9a93 9abe
00000320: e8f1 ecbb 656e a3be 08c5 813e 4f26 5ebc
00000330: 1070 093d 659d 8fbe 8434 08bd a9e9 1f3d
00000340: 574d 3e3b adca 193e 1965 773d 64b9 823c
00000350: a337 84be b884 9e3e 9cca 9c3e a72e d73e
00000360: 9753 8f3c a27f 83be df83 16be e051 c63d
00000370: c380 0abe 3ae3 abbc 677e f1bd ccd5 88be
00000380: 1a1a c23e 1f14 52be 9524 d63a 7c5e 863e
00000390: 2590 fb3e e132 913e bf5e ddbc 12c7 cabe
000003a0: f195 3c3e d022 4e3d c83e b6bd b4b8 3e3d
000003b0: 2c51 cebe 89b0 533e 8284 823e e9f3 a1be
000003c0: 2234 debe 2786 85be 020a cb3d fefb bb3d
000003d0: 8a1f 5abe 2cda 8d3e 8f75 aebe 4575 47be
000003e0: 21b6 2bbe f7a3 a43e 0482 a13e 5151 babc
000003f0: ee36 883d cb7f f03d a527 a93d a799 51bd

layer1.bias f4 [128]
-0.017553544 -0.053125925 0.11671705 -0.11372181 -0.36722028 0.14801219 -0.15877564 -0.09942568
0.3487763 0.15424614 0.14081949 0.01241453 -0.267753 0.1875098 -0.1858805 0.033114742
-0.31050932 0.17762373 -0.19493392 0.31635496 0.156267 0.35933664 0.050712705 -0.010845666
0.12364427 -0.1870291 -0.17007977 -0.40088078 0.3988943 0.007682209 0.13294366 0.033418916
0.15868004 -0.265577 -0.17069055 0.27994233 0.18080716 -0.0036529999 -0.2583185 -0.05779336
-0.22904238 0.022020223 -0.25897002 -0.26785016 -0.40394306 0.0018725325 0.14199792 0.37493333
-0.32441673 -0.1000354 -0.22020534 -0.2631036 -0.020101814 0.3738612 0.015775317 -0.078488186
0.2879048 -0.32062316 -0.019648923 0.2707461 0.27046564 0.080487356 -0.19358425 -0.43799615
-0.15855348 0.21461183 0.26051542 0.05783277 -0.3102195 -0.06556402 0.124773525 0.031020286
-0.21643484 0.061611317 0.035892345 0.08584213 0.0037496951 0.1899362 -0.37590843 -0.12897168
0.00012421384 0.22010529 0.17272918 0.15336 0.37928534 0.12644728 -0.4039317 0.15161741
-0.22256532 -0.01052201 0.059862982 0.3502378 -0.12507308 -0.2128992 -0.102613665 -0.067361765
0.3346652 0.20627397 0.19822744 0.09203073 -0.091191605 -0.06369242 -0.2611499 0.120669216
-0.24098286 0.040804893 0.18579873 0.24490963 -0.35639206 0.39095202 -0.15065819 -0.062679
0.31013897 0.2868421 -0.29684722 0.22603466 -0.35191527 0.3284907 0.41578996 0.0052991137
0.034613796 0.004009622 -0.31348583 -0.2310831 -0.04839977 -0.39918283 -0.31535044 -0.08194933
00000000: 73cc 8fbc 929a 59bd 5909 ef3d fbe6 e8bd
00000010: 4c04 bcbe 8290 173e 1596 22be b19f cbbd
00000020: cf92 b23e b3f2 1d3e fc32 103e 5066 4b3c
00000030: ec16 89be 9202 403e 7557 3ebe 53a3 073d
00000040: 14fb 9ebe ffe2 353e c29c 47be 47f9 a13e
00000050: 7504 203e f9fa b73e 20b8 4f3d 05b2 31bc
00000060: 3539 fd3d 8e84 3fbe 6429 2ebe 3f40 cdbe
00000070: e03b cc3e 0abb fb3b 6222 083e 46e2 083d
00000080: 057d 223e b5f9 87be 81c9 2ebe 9a54 8f3e
00000090: 8325 393e 2b67 6fbb 5342 84be bbb8 6cbd
000000a0: 168a 6abe c163 b43c b897 84be a823 89be
000000b0: a0d1 cebe c46f f53a e767 113e 43f7 bf3e
000000c0: f319 a6be 5cdf ccbd 827d 61be 84b5 86be
000000d0: 8fac a4bc bc6a bf3e 3d3b 813c 6abe a0bd
000000e0: 4268 933e b828 a4be c7f6 a0bc 3c9f 8a3e
000000f0: 797a 8a3e 8ed6 a43d f33a 46be 0841 e0be
00000100: d85b 22be 34c3 5b3e 4762 853e 0ee2 6c3d
00000110: 17d5 9ebe 6e46 86bd 4389 ff3d 411e fe3c
00000120: 18a1 5dbe 265c 7c3d da03 133d 00ce af3d
00000130: 72bd 753b a37e 423e 1277 c0be 2711 04be
00000140: 663f 0239 4863 613e ebdf 303e 670a 1d3e
00000150: b031 c23e 657b 013e 23d0 cebe 9841 1b3e
00000160: 2ae8 63be 8264 2cbc e332 753d 5e52 b33e
00000170: 2813 00be 3f02 5abe 1d27 d2bd f7f4 89bd
00000180: 3d59 ab3e 7c39 533e 22fc 4a3e 9b7a bc3d
00000190: aac2 babd 2c71 82bd 71b5 85be 6c21 f73d
000001a0: 36c4 76be 0823 273d 0642 3e3e 97c9 7a3e
000001b0: 0579 b6be dd2a c83e 2446 1abe d95d 80bd
000001c0: 89ca 9e3e f8dc 923e 5cfc 97be a175 673e
000001d0: 3d2e b4be ef2f a83e 6ce2 d43e 30a4 ad3b
000001e0: 32c7 0d3d 2663 833b 3781 a0be 0ca1 6cbe
000001f0: d63e 46bd b161 ccbe 9d75 a1be 0dd5 a7bd

layer2.weight f4 [128, 128]
-0.042201627 -0.041725602 -0.023331713 0.0070191706 0.09694418 -0.005193239 -0.03701813 0.009193378
-0.10953892 0.07583292 0.08791349 -0.04374679 -0.046260078 0.13491128 -0.10822002 0.06813942
-0.053780608 -0.12424461 0.033819295 -0.09672282 0.07907567 -0.0020508068 -0.059760515 -0.071181506
0.059887134 0.112341836 -0.00257282 -0.05969247 -0.10926514 0.070238754 -0.017327422 0.06233947
0.070211835 0.07926359 0.030582327 0.04014894 0.06628773 -0.0057497653 0.076788045 0.023237625
-0.0011056315 -0.039415043 0.008702808 0.07644084 0.08125091 -0.008973816 -0.037879504 0.075630754
0.056462977 0.17548613 0.02814226 -0.017947717 -0.02093509 -0.05790687 0.032538455 0.016626384
-0.07003853 -0.06442029 0.04285184 0.027069481 -0.12412992 0.04706585 0.05287577 0.050376974
0.11064138 -0.038007397 0.08344545 -0.08494805 -0.005976426 -0.05349667 -0.017549517 0.09986895
0.094880335 -0.0056449855 -0.04137271 -0.03080965 -0.0032636807 -0.020083684 0.061492417 0.0528952
0.08048458 -0.040385205 0.07934507 -0.005544052 -0.011516954 -0.03435364 -0.006232115 -0.05274162
-0.011509266 -0.08383557 0.05727073 -0.060342412 -0.021001033 -0.06188099 0.017566666 0.07326417
-0.06866735 -0.09024493 0.07450244 0.06764138 0.06379356 -0.05710925 0.069689125 0.061832774
0.037899416 -0.009297221 0.08986085 0.04139987 0.037546832 -0.020802421 -0.04499693 -0.056853082
0.11905328 0.025553824 0.0618689 0.063109756 -0.08194269 0.0053204526 -0.040923227 0.010567025
0.041740205 0.023701197 -0.032042746 -0.024010621 -0.11563495 -0.072861895 0.06699077 -0.06498163
-0.013982941 -0.003118121 0.020528995 -0.0287111 0.04137557 -0.012032202 0.059134573 -0.0068113627
0.018770847 -0.0030417051 0.099636294 0.0102443965 0.04767114 -0.021934817 0.011451015 0.1010604
-0.10098964 -0.009330831 0.0692059 -0.04095661 -0.04151476 -0.001351539 0.017379057 0.055387583
-0.0017516443 0.04348727 -0.06671193 0.029610734 -0.05326616 0.05306301 -0.044942345 -0.09056815
-0.0016081878 0.044769056 -0.0024145232 0.025352895 -0.00255313 0.05267522 -0.009497346 -0.114719294
-0.064074814 0.029353922 -0.01413376 0.074075215 -0.04710624 0.07188804 -0.0457274 -0.055912685
-0.021704039 -0.07968874 -0.02312454 0.017026428 -0.12814464 0.0912622 -0.068400525 0.04723961
0.04898121 0.0021746114 -0.060683846 0.0014681579 -0.047891676 0.07847754 -0.08171321 -0.034310732
-0.03127928 -0.05177648 -0.036615204 0.0130506875 -0.030950444 0.0040067113 0.072157115 -0.008220238
-0.061342653 -0.03247362 0.09311935 -0.0058018756 -0.09145229 0.05787817 -0.005070911 0.018968143
-0.004618215 0.11853216 -0.06646679 0.04771488 0.14803323 0.0061046174 0.04528151 0.06782855
0.098497644 -0.033790957 -0.09705362 -0.038393203 -0.09266879 -0.0020324918 0.073490374 0.07274305
0.037936244 0.011754171 0.024163844 0.05901823 0.052921288 0.0033571906 -0.026721593 0.025294216
-0.00072033214 -0.036557548 -0.03000825 0.08703034 0.06491976 -0.034817025 -0.033347454 -0.07021011
0.0015717134 0.067103915 -0.09547082 0.07086154 -0.08244734 -0.07713339 -0.0029513752 -0.012527714
-0.0200519 -0.03732205 -0.05162019 -0.08220874 -0.06455704 -0.06885975 0.063330695 -0.07221509
00000000: 9ddb 2cbd 77e8 2abd 2622 bfbc 1201 e63b
00000010: ac8a c63d 0c2c aabb 53a0 17bd d29f 163c
00000020: f155 e0bd 4a4e 9b3d fd0b b43d d62f 33bd
00000030: 357b 3dbd 2f26 0a3e 75a2 ddbd ae8c 8b3d
00000040: 0e49 5cbd f573 febd 1a86 0a3d 9d16 c6bd
00000050: 6df2 a13d d466 06bb 71c7 74bd 9cc7 91bd
00000060: 364c 753d 7a13 e63d c29c 28bb 1780 74bd
00000070: 67c6 dfbd 56d9 8f3d 3df2 8dbc ac57 7f3d
00000080: 39cb 8f3d f354 a23d ca87 fa3c 3773 243d
00000090: ddc1 873d 8768 bcbb 0d43 9d3d d55c be3c
000000a0: d6ea 90ba ab71 21bd 3996 0e3c 048d 9c3d
000000b0: e166 a63d ea06 13bc 8a27 1bbd 4ce4 9a3d
000000c0: b945 673d a3b2 333e 998a e63c 1707 93bc
000000d0: 1180 abbc c12f 6dbd 0b47 053d 0e34 883c
000000e0: 5c70 8fbd c9ee 83bd 6985 2f3d d1c0 dd3c
000000f0: d437 febd 1fc8 403d 4394 583d 1658 4e3d
00000100: f397 e23d a5ad 1bbd 73e5 aa3d 3ef9 adbd
00000110: e5d5 c3bb 531f 5bbd 01c4 8fbc 1888 cc3d
00000120: 9f50 c23d 92f9 b8bb 6e76 29bd 8564 fcbc
00000130: 7ae3 55bb 8a86 a4bc 79df 7b3d a3a8 583d
00000140: 19d5 a43d f56a 25bd ab7f a23d e1aa b5bb
00000150: 9bb1 3cbc 67b6 0cbd c536 ccbb 9907 58bd
00000160: 5c91 3cbc fcb1 abbd b794 6a3d 9b29 77bd
00000170: 5c0a acbc ec76 7dbd f8e7 8f3c 860b 963d
00000180: 78a1 8cbd 55d2 b8bd bc94 983d 9087 8a3d
00000190: 33a6 823d 64eb 69bd 2cb9 8e3d 5d44 7d3d
000001a0: 6b3c 1b3d 5f53 18bc f708 b83d e992 293d
000001b0: b5ca 193d d769 aabc b34e 38bd c7de 68bd
000001c0: 35d2 f33d 4156 d13c 3e6a 7d3d b03f 813d
000001d0: 92d1 a7bd 3157 ae3b 1d9f 27bd 5121 2d3c
000001e0: c7f7 2a3d 0329 c23c 413f 03bd ecb1 c4bc
000001f0: 04d2 ecbd 9e38 95bd 7532 893d 1715 85bd
00000200: b518 65bc 6459 4cbb 6c2c a83c 8a33 ebbc
00000210: 6e79 293d b722 45bc 1837 723d da31 dfbb
00000220: 52c5 993c 5857 47bb 1d0e cc3d 1dd8 273c
00000230: d042 433d a5b0 b3bc 0a9d 3b3c c1f8 ce3d
00000240: a8d3 cebd 57e0 18bc d3bb 8d3d 1ec2 27bd
00000250: 620b 2abd 2026 b1ba 865e 8e3c 17de 623d
00000260: 6e97 e5ba b51f 323d 44a0 88bd 3692 f23c
00000270: 9e2d 5abd 9958 593d 7715 38bd cb7b b9bd
00000280: d4c9 d2ba c25f 373d fa3c 1ebb e0b0 cf3c
00000290: 6a52 27bb f9c1 573d c29a 1bbc f3f1 eabd
000002a0: a839 83bd a377 f03c 4991 67bc bfb4 973d
000002b0: 79f2 40bd 093a 933d a74c 3bbd b304 65bd
000002c0: abcc b1bc da33 a3bd ad6f bdbc 027b 8b3c
000002d0: 5938 03be ade7 ba3d 9315 8cbd 527e 413d
000002e0: 85a0 483d ed83 0e3b a08f 78bd 346f c03a
000002f0: 102a 44bd d5b8 a03d 4159 a7bd 6989 0cbd
00000300: b41e 00bd 9313 54bd d3f9 15bd 8dd2 553c
00000310: c98b fdbc bb4a 833b 1cc7 933d 2dae 06bc
00000320: 6f42 7bbd 0f03 05bd 5cb5 be3d a91d bebb
00000330: 574b bbbd a911 6d3d e229 a6bb 1463 9b3c
00000340: 6554 97bb fdc0 f23d be1f 88bd ae70 433d
00000350: 0696 173e 3e09 c83b 1b79 393d b2e9 8a3d
00000360: 22b9 c93d 6368 0abd 0cc4 c6bd 3142 1dbd
00000370: 22c9 bdbd 8e33 05bb 1f82 963d 4ffa 943d
00000380: 0963 1b3d 9194 403c 41f3 c53c 19bd 713d
00000390: fec3 583d 5004 5c3b 3ee7 dabc d135 cf3c
000003a0: acd4 3cba 5ebd 15bd ddd3 f5bc f73c b23d
000003b0: a7f4 843d 4c9c 0ebd 5797 08bd 51ca 8fbd
000003c0: f301 ce3a c76d 893d 3586 c3bd db1f 913d
000003d0: 27da a8bd 1cf8 9dbd dc6b 41bb 0a41 4dbc
000003e0: e243 a4bc 02df 18bd b16f 53bd 0e5d a8bd
000003f0: 7b36 84bd 5706 8dbd 86b3 813d 81e5 93bd

layer2.bias f4 [128]
-0.04030779 -0.03363798 -0.008485526 0.0027100116 -0.10762531 0.061197996 -0.0598243 0.15042858
-0.011726318 0.004588902 0.056498997 0.08292156 -0.021060003 -0.1947805 0.017595123 -0.011843984
-0.076441705 -0.001843448 -0.023554867 0.09611093 0.14166951 0.046577524 0.041250125 0.015572588
0.08272648 -0.1267328 -0.010539964 0.005393586 0.03329364 0.035115574 0.13701521 -0.10613412
-0.05861198 0.05130373 0.0046739196 0.03796119 0.12314532 0.0233983 -0.06945982 -0.03330131
-0.16492547 0.07565831 0.029456595 -0.10529138 0.05155037 0.113346905 0.12915285 -0.06390384
0.11430998 0.021598693 0.033543494 -0.03401517 0.084042504 0.09516707 0.004100678 -0.081104256
0.06753352 -0.14485988 0.090927176 0.07173331 0.03524282 0.03680322 -0.08659078 0.016085753
0.0011325007 -0.056901515 0.0077737677 -0.0043888455 0.002736141 0.01937815 -0.039208356 -0.050802816
0.13483112 0.10042377 -0.027973747 -0.04918041 0.0037851895 -0.12341704 -0.033301234 -0.09619788
0.04743396 -0.006386892 0.07057943 -0.083366916 -0.06768267 -0.018889068 -0.105467744 -0.15176435
-0.052705854 0.005444853 0.054852404 0.116244674 -0.0034381158 0.17444974 0.107151814 0.004970912
-0.07230971 -0.009108472 0.00033602543 0.0015657101 0.072583236 0.11782454 -0.03132962 0.089317836
0.08123982 0.10709427 -0.010951185 0.0058215866 0.09718818 -0.13092203 -0.04511013 -0.084126145
0.08662271 0.011214292 0.016482877 0.038634054 0.07572044 -0.066961244 -0.110311106 -0.030292552
-0.019857878 -0.029326778 -0.013383895 -0.00027238592 -0.15581292 -0.12419239 0.008303594 -0.058326583
00000000: c819 25bd fbc7 09bd e006 0bbc 739a 313b
00000010: a96a dcbd c0aa 7a3d 530a 75bd f309 1a3e
00000020: be1f 40bc 805e 963b 7e6b 673d c7d2 a93d
00000030: 0786 acbc 8a74 47be a623 903c 450d 42bc
00000040: 788d 9cbd da9f f1ba 23f6 c0bc cfd5 c43d
00000050: d011 113e 13c8 3e3d e4f5 283d 2b24 7f3c
00000060: 806c a93d 3ec6 01be d0af 2cbc aebc b03b
00000070: e95e 083d 59d5 0f3d b74d 0c3e d85c d9bd
00000080: 1e13 70bd dc23 523d ae27 993b 317d 1b3d
00000090: 9d33 fc3d cbad bf3c f340 8ebd f466 08bd
000000a0: 39e2 28be bef2 9a3d f54e f13c 02a3 d7bd
000000b0: 7b26 533d 6c22 e83d a540 043e 04e0 82bd
000000c0: 5a1b ea3d beef b03c e764 093d 7e53 0bbd
000000d0: 7a1e ac3d f4e6 c23d fb5e 863b fd19 a6bd
000000e0: 044f 8a3d 2656 14be 0738 ba3d eae8 923d
000000f0: c65a 103d f9be 163d 8256 b1bd 45c6 833c
00000100: 6b70 943a 9011 69bd 17bb fe3b 4ed0 8fbb
00000110: d450 333b edbe 9e3c f198 20bd 9d16 50bd
00000120: 2b11 0a3e faaa cd3d 3329 e5bc 6671 49bd
00000130: f110 783b 13c2 fcbd e066 08bd 6503 c5bd
00000140: 1d4a 423d 2249 d1bb f38b 903d 46bc aabd
00000150: 369d 8abd 3fbd 9abc 79ff d7bd 1d68 1bbe
00000160: 18e2 57bd bd6a b23b eaac 603d b011 ee3d
00000170: 0352 61bb f4a2 323e 6972 db3d 08e3 a23b
00000180: 1d17 94bd b33b 15bc 922c b039 8338 cd3a
00000190: 85a6 943d fe4d f13d 7d53 00bd 45ec b63d
000001a0: 1061 a63d 3e54 db3d 996c 33bc 02c3 be3b
000001b0: 990a c73d 6d10 06be 66c5 38bd 544a acbd
000001c0: 3f67 b13d 26bc 373c 1907 873c be3e 1e3d
000001d0: 5113 9b3d fa22 89bd caea e1bd 1628 f8bc
000001e0: fdac a2bc b63e f0bc 2048 5bbc 05cf 8eb9
000001f0: 6c8d 1fbe 9458 febd cc0b 083c dbe7 6ebd

layer3.weight f4 [128, 128]
-0.06895021 0.073275216 0.007253134 -0.0070205624 -0.0637071 -0.057957742 -0.05591154 0.05833496
0.06641817 0.05357196 0.027873268 0.028152917 -0.054113586 -0.04833307 0.079723254 0.085910074
0.08401272 0.010471953 0.06901378 0.01380026 -0.0030249965 0.0052032205 -0.06252983 -0.08312883
-0.042978976 -0.04964788 0.061075192 -0.06601996 -0.013821376 0.022732425 0.026420921 0.006488179
0.0520418 -0.07505832 0.011910563 -0.09190315 -0.00015753356 0.07502121 0.057066035 0.0359542
-0.08061542 0.018218894 0.023776725 -0.0964884 -0.09331552 -0.05906836 0.028988734 0.05393894
-0.10078998 -0.046879742 0.032232266 -0.045262188 0.06425609 0.044748537 -0.038073804 0.10896185
-0.00061379885 -0.028804172 -0.0032459002 -0.06336608 0.05713702 -0.068110816 0.06985494 -0.032248404
-0.016448831 -0.16697669 -0.05147221 0.017972725 -0.108486116 0.05203582 -0.030402314 -0.045585267
0.055848733 0.035589978 0.00800306 -0.020090036 0.031097744 0.0350583 -0.07511688 -0.071168885
-0.07642565 -0.007904699 0.05661324 -0.07610036 0.03360108 -0.062352333 0.022784615 0.06950457
-0.025628382 0.054530267 0.022549944 0.03421299 0.029610235 -0.05293859 0.03891032 0.041794416
0.09275349 0.018391544 -0.04545777 -0.025285928 0.063458726 0.016529566 -0.016218057 0.045048017
-0.013515478 0.1182208 0.042367022 -0.07129161 0.06668308 0.035955884 -0.0980346 -0.051966604
0.019657778 0.032233648 0.085320815 0.011855089 0.062009044 -0.066124775 0.07326286 0.03484009
0.033185255 -0.04998547 -0.11048647 -0.03128969 0.018322602 0.007292395 0.010292829 0.0056473035
0.1223079 0.049733642 -0.068290524 0.03734128 -0.012124551 -0.0024000255 -0.1167175 0.09841138
0.030205937 -0.018263781 -0.09905467 0.03400519 -0.009580765 -0.04226726 0.005257036 0.026151337
0.023651933 -0.11482268 -0.04883991 -0.032861672 0.08335683 -0.018514503 -0.024862919 0.011342494
0.0029385693 -0.068036385 0.0109513085 0.050897956 0.006159744 -0.019680468 0.057893164 -0.0372482
0.08313684 0.058095146 0.07814588 0.022948014 0.0493169 -0.037442878 -0.009041037 0.029656298
-0.057652596 -0.03603995 -0.018531943 0.10779094 0.052724157 -0.0012520885 -0.029997347 -0.075592324
0.12335177 0.012419294 -0.029454036 -0.054932054 -0.018263252 0.059307337 0.03017581 -0.0930922
-0.018016972 -0.015440391 0.11473123 -0.013743211 -0.02761059 0.04554289 -0.026556248 -0.073997594
0.019765189 0.14199112 -0.08598796 0.06034985 0.03925362 0.102814205 0.015672823 -9.2531154e-05
-0.058599986 0.07440691 -0.01738875 0.015007894 0.05981101 -0.044634312 -0.0071636103 0.092014946
0.10090277 0.040335275 -0.08289936 -0.04469601 -0.038023643 0.017921422 -0.037206996 0.022607485
-0.06516223 -0.073443964 0.0076512126 0.04548736 0.034057558 -0.010266997 0.011326845 -0.13880503
0.10069783 0.091704175 -0.07550255 -0.10740807 -0.101545736 -0.07150962 0.018373203 -0.09656521
-0.12497405 -0.055266183 -0.043203015 -0.045801524 0.027217017 -0.06447966 -0.043236688 -0.05107439
0.08893024 -0.01800426 -0.046836223 -0.018111989 -0.0023537443 0.07268193 -0.032210704 -0.04221441
-0.04623651 -0.07269461 0.081043236 -0.017203467 -0.010933098 0.02630976 0.008859689 0.11013792
00000000: c535 8dbd 5111 963d b3ab ed3b bf0c e6bb
00000010: de78 82bd 1965 6dbd 8003 65bd a4f0 6e3d
00000020: 4006 883d 466e 5b3d 7b56 e43c f2a0 e63c
00000030: 35a6 5dbd e6f8 45bd f245 a33d 9ff1 af3d
00000040: dc0e ac3d 8e92 2b3c 1957 8d3d 7c1a 623c
00000050: 053f 46bb c77f aa3b a40f 80bd 733f aabd
00000060: b90a 30bd 935b 4bbd fb29 7a3d 7935 87bd
00000070: 0d73 62bc 5a39 ba3c b070 d83c ca9a d43b
00000080: c829 553d 2db8 99bd 8624 433c b837 bcbd
00000090: 982f 25b9 b8a4 993d 13be 693d b644 133d
000000a0: b319 a5bd ca3f 953c 68c7 c23c b69b c5bd
000000b0: 351c bfbd aaf1 71bd c879 ed3c 14ef 5c3d
000000c0: fa6a cebd f904 40bd fb05 043d d864 39bd
000000d0: b298 833d 3e4a 373d 47f3 1bbd 6427 df3d
000000e0: 58e7 20ba baf6 ebbc 2bb9 54bb 13c6 81bd
000000f0: 8208 6a3d af7d 8bbd 1b10 8f3d e716 04bd
00000100: b3bf 86bc f0fb 2abe 86d4 52bd 893b 933c
00000110: f82d debd 8323 553d 460e f9bc 9eb7 3abd
00000120: a4c1 643d ccc6 113d 441f 033c dc93 a4bc
00000130: b2c0 fe3c 4b99 0f3d e1d6 99bd fec0 91bd
00000140: 0d85 9cbd b682 01bc 49e3 673d 81da 9bbd
00000150: 49a1 093d 2965 7fbd cda6 ba3c 6958 8e3d
00000160: 9df2 d1bc 215b 5f3d a9ba b83c ec22 0c3d
00000170: 2a91 f23c 23d6 58bd 6d60 1f3d 9f30 2b3d
00000180: 8bf5 bd3d dda9 963c ed31 3abd 6f24 cfbc
00000190: a6f6 813d 0369 873c bbdb 84bc 4584 383d
000001a0: 0670 5dbc bf1d f23d 0b89 2d3d 5601 92bd
000001b0: 2391 883d 7a46 133d 5dc6 c8bd efda 54bd
000001c0: 5909 a13c 6e07 043d aebc ae3d d93b 423c
000001d0: 32fd 7d3d 6d6c 87bd d70a 963d 7bb4 0e3d
000001e0: 43ed 073d 90bd 4cbd bb46 e2bd 9e29 00bd
000001f0: 4819 963c 0bf5 ee3b 41a3 283c 040d b93b
00000200: 907c fa3d 81b5 4b3d e7db 8bbd 2cf3 183d
00000210: 0ea6 46bc bf49 1dbb 9609 efbd e88b c93d
00000220: 7172 f73c ed9d 95bc 2ddd cabd 0749 0b3d
00000230: a4f8 1cbc 6f20 2dbd 3743 ac3b 543b d63c
00000240: b3c1 c13c 2728 ebbd 5c0c 48bd f699 06bd
00000250: fcb6 aa3d baab 97bc 52ad cbbc ded5 393c
00000260: 0395 403b a956 8bbd 1e6d 333c 607a 503d
00000270: aed7 c93b ef38 a1bc 6221 6d3d 9291 18bd
00000280: a643 aa3d 2df5 6d3d f20a a03d 79fd bb3c
00000290: 8500 4a3d b45d 19bd dc20 14bc c4f1 f23c
000002a0: 2125 6cbd a09e 13bd 4dd0 97bc 7fc1 dc3d
000002b0: 49f5 573d 1e1d a4ba ffbc f5bc 26d0 9abd
000002c0: da9f fc3d 4b7a 4b3c 9749 f1bc 6f00 61bd
000002d0: d19c 95bc 40ec 723d 4333 f73c 20a7 bebd
000002e0: 5498 93bc b2f9 7cbc 35f8 ea3d 342b 61bc
000002f0: 9b2f e2bc 2e8b 3a3d 7d8c d9bc 0d8c 97bd
00000300: 9bea a13c 1f66 113e 751a b0bd 6831 773d
00000310: 67c8 203d 4190 d23d 4b64 803c 490d c2b8
00000320: 8a06 70bd a662 983d da72 8ebc abe3 753c
00000330: 64fc 743d 78d2 36bd b8bc eabb 5572 bc3d
00000340: 1da6 ce3d 9a36 253d 24c7 a9bd 2a13 37bd
00000350: aebe 1bbd f2cf 923c 5d66 18bd 5533 b93c
00000360: c673 85bd ca69 96bd 06b7 fa3b f450 3a3d
00000370: f07f 0b3d e836 28bc 3b94 393c e822 0ebe
00000380: aa3a ce3d 66cf bb3d 15a1 9abd c3f8 dbbd
00000390: 36f7 cfbd a373 92bd 6683 963c fbc3 c5bd
000003a0: 65f2 ffbd cb5e 62bd a5f5 30bd 619a 3bbd
000003b0: 39f6 de3c e90d 84bd f418 31bd 6133 51bd
000003c0: 0f21 b63d ab7d 93bc 57d7 3fbd 985f 94bc
000003d0: 4741 1abb 44da 943d 5fef 03bd 04e9 2cbd
000003e0: 7f62 3dbd e9e0 94bd fff9 a53d 49ee 8cbc
000003f0: bd20 33bc 9187 d73c 3b28 113c fd8f e13d

layer3.bias f4 [128]
0.05982283 0.035164274 -0.008108025 -0.06384023 0.00857385 0.1879795 -0.007968588 0.14224017
0.043418918 -0.12236034 -0.0819806 -0.014283001 0.0214075 0.051834326 0.04405065 0.070287794
-0.0042897947 -0.08135967 0.05851626 -0.07832607 -0.0670867 -0.08449713 0.055757076 -0.058955178
0.13982522 -0.17726147 -0.063385785 0.20980175 0.14706251 -0.105186746 0.14623177 0.056869097
0.018796239 -0.14771608 -0.10654112 -0.0030361456 -0.1027396 0.094471306 -0.068848126 0.1581682
0.07578155 -0.07137504 -0.13162346 0.15588945 -0.14750981 -0.04729624 0.19378802 0.034925874
0.050874155 0.056791414 0.07329696 0.06756154 0.14950526 -0.088675335 0.1422395 0.025733452
0.06942857 0.12272271 0.1809164 -0.112088025 -0.04339705 0.09438715 0.09128935 -0.052094985
-0.07758035 0.09369865 0.10419009 -0.11143589 -0.0796003 0.048795745 -0.00783187 -0.043856997
0.06556303 0.04853321 -0.12851715 -0.066931285 0.080838785 0.04879441 0.05757719 0.057857435
0.23533735 0.026348151 -0.036541805 -0.05186475 -0.11072149 0.056458894 0.15741363 -0.0645299
0.09431065 0.08592362 0.12230739 0.111345984 -0.11001277 0.018657507 -0.12890616 -0.03619465
0.13541003 -0.1261488 0.08332972 -0.10302096 -0.16377555 0.06481509 0.03101617 -0.0018173103
0.12147133 0.05239552 0.15861969 0.013122857 0.13737305 -0.1462618 0.11804547 -0.025542676
-0.058376018 -0.104375355 -0.09844754 -0.14911743 -0.06550051 -0.055003166 -0.04850314 -0.04753561
0.07928245 0.0044623944 -0.015045511 -0.007528505 -0.03478847 -0.0809482 -0.07566318 0.082535185
00000000: c908 753d 6a08 103d 86d7 04bc abbe 82bd
00000010: 5579 0c3c b37d 403e ae8e 02bc 68a7 113e
00000020: 09d8 313d 0f98 fabd 72e5 a7bd 4003 6abc
00000030: c85e af3c 3b50 543d 746e 343d 0cf3 8f3d
00000040: 6891 8cbb e69f a6bd bfae 6f3d 6b69 a0bd
00000050: c064 89bd d50c adbd 8861 643d fc7a 71bd
00000060: 582e 0f3e 0884 35be 68d0 81bd 45d6 563e
00000070: 8e97 163e 266c d7bd c8bd 153e 92ef 683d
00000080: 92fa 993c e242 17be 3b32 dabd 12fa 46bb
00000090: 2469 d2bd 2c7a c13d 3f00 8dbd d8f6 213e
000000a0: 5b33 9b3d 142d 92bd 4dc8 06be 7ca1 1f3e
000000b0: d00c 17be b4b9 41bd 5e70 463e 6f0e 0f3d
000000c0: 6b61 503d 1d9e 683d b71c 963d b45d 8a3d
000000d0: e817 193e 6a9b b5bd 3ba7 113e f6ce d23c
000000e0: 9130 8e3d 0b56 fb3d 2642 393e 688e e5bd
000000f0: 1bc1 31bd 0d4e c13d e9f5 ba3d 8d61 55bd
00000100: 72e2 9ebd 14e5 bf3d 9d61 d53d 8038 e4bd
00000110: 7b05 a3bd 0cde 473d 3e51 00bc 65a3 33bd
00000120: e945 863d c2ca 463d 009a 03be 4513 89bd
00000130: ce8e a53d a6dc 473d 0fd6 6b3d ebfb 6c3d
00000140: 46fc 703e 14d8 d73c dcac 15bd 2270 54bd
00000150: f3c1 e2bd 7141 673d 0a31 213e 4128 84bd
00000160: f125 c13d b9f8 af3d 4c7c fa3d 5d09 e43d
00000170: 604e e1bd a1d7 983c faff 03be d740 14bd
00000180: eda8 0a3e 272d 01be c6a8 aa3d a7fc d2bd
00000190: c7b4 27be c6bd 843d 9f15 fe3c d132 eeba
000001a0: f6c5 f83d af9c 563d 336d 223e 4001 573c
000001b0: 85ab 0c3e a7c5 15be d3c1 f13d e03e d1bc
000001c0: b11b 6fbd bfc2 d5bd dd9e c9bd 3db2 18be
000001d0: 2225 86bd 004b 61bd 3bab 46bd b3b4 42bd
000001e0: d65e a23d 4739 923b 7281 76bc adb1 f6bb
000001f0: 5b7e 0ebd 2bc8 a5bd 4cf5 9abd 3508 a93d

layer4.weight f4 [128, 128]
-0.07003949 0.096067324 0.07128056 0.058829937 0.006004689 -0.0594652 -0.075661264 -0.08404855
0.022662185 0.039569754 -0.051017243 -0.0013835579 -0.041002113 0.0034042879 -0.018794069 -0.04022767
0.046020377 0.007872794 0.0071214973 0.024634006 0.011509198 -0.034966268 -0.013867807 -0.06924223
0.03258336 -0.0055421535 0.055210333 -0.032874275 0.04561956 0.072861455 -0.05590587 0.040872052
0.0018173555 -0.033404138 -0.03185753 -0.03245299 -0.034386177 0.08496742 -0.05172455 0.043293633
-0.019450359 0.020777581 -0.06879915 -0.06928231 0.08947724 -0.039710492 0.032397423 0.05660688
0.0310126 0.015705418 0.004660989 0.006266525 -0.06755924 -0.07942961 0.04528892 0.049574874
-0.03233683 -0.042613022 0.09937911 -0.028218392 -0.036899474 -0.0124541195 -0.036528975 -0.00240279
-0.081419736 -0.046798028 -0.0033250789 0.0030677433 0.034084044 0.0746539 -0.055100784 0.029023243
-0.06580376 -0.021275472 0.0023959815 -0.06998536 0.03380792 -0.039484255 -0.08190918 0.0178619
0.026594533 0.007572987 -0.009895619 0.057643782 0.043977596 -0.06483502 0.07125106 -0.06988739
0.08252209 -0.08211506 0.070351966 0.04597169 -0.06536545 0.027191622 0.052509226 -0.039667793
0.09336007 0.036262404 0.005872025 0.047043614 0.021244563 0.09097407 -0.0064522983 -0.0803374
-0.04881776 0.01448558 0.062022567 -0.08397358 0.0068470933 0.034897324 -0.013853462 -0.034500014
0.036350105 0.023281794 0.0644761 -0.054812364 -0.008460124 -0.050196927 -0.01594585 0.019054355
-0.029874705 0.051614914 0.06687694 -0.08849176 -0.061168265 -0.07962543 -0.060008395 0.02610808
-0.08726446 0.056203324 -0.06565182 -0.026946252 0.15469106 0.20771225 -0.008078146 0.25041616
0.060342662 0.09431003 -0.15398856 -0.05472904 0.14347123 -0.00386454 0.05039998 -0.1534028
-0.12289976 0.007005817 -0.1170588 0.040123805 -0.03166863 -0.017634952 0.0823018 0.05788215
-0.16439171 -0.17494917 0.0021797733 -0.1885244 0.1927171 0.19925053 -0.03385846 -0.09847396
-0.10836102 0.007433237 -0.15089782 0.13494484 -0.09155265 0.016051738 0.061679393 -0.1010564
0.1336683 -0.1073771 0.10489444 0.037141275 0.23649256 -0.11703506 0.17458828 0.11637919
0.13632621 0.06712426 -0.18553981 0.10162299 -0.06657488 -0.04831783 0.032337766 0.10839924
-0.21812883 -0.11364535 0.14387363 -0.08636355 -0.026020458 0.00021216279 0.1788057 -0.02788024
-0.09817057 0.07887547 -0.15584324 -0.07310353 0.17710473 0.012453447 0.029989311 -0.0823543
0.12607272 -0.09924718 0.22411175 -0.04651419 -0.16246094 -0.03296762 0.1159342 -0.061715785
-0.04037496 0.1315197 -0.013141157 0.11933741 0.19928269 -0.08598985 0.2657609 -0.09149799
0.12157123 0.0010785013 0.09791865 -0.018897368 0.1189156 0.099480756 -0.05870954 0.0053210096
0.09523019 -0.17838798 0.04406756 -0.033749323 -0.02468316 -0.042581357 0.05750597 -0.049069606
-0.05321357 -0.02256258 0.114258975 -0.034045145 -0.21519276 -0.15503375 -0.1362007 -0.17608431
-0.08221345 0.038263332 0.038143072 -0.0077283904 -0.20292842 -0.009253743 0.11278332 0.0069683273
0.028827429 -0.10153431 0.008097623 0.2325619 -0.053901635 0.09647737 0.029483339 0.07921756
00000000: dd70 8fbd f2be c43d 8bfb 913d a9f7 703d
00000010: fbc2 c43b c891 73bd 4bf4 9abd a521 acbd
00000020: 0ca6 b93c e513 223d 75f7 50bd 8058 b5ba
00000030: d5f1 27bd 791a 5f3b 05f6 99bc c5c5 24bd
00000040: dd7f 3c3d e4fc 003c 735b e93b 41cd c93c
00000050: 1391 3c3c ca38 0fbd cc35 63bc dfce 8dbd
00000060: 2176 053d f49a b5bb 3b24 623d 2da7 06bd
00000070: 93db 3a3d 6338 953d 8efd 64bd 7469 273d
00000080: 5534 ee3a c7d2 08bd 0b7d 02bd 6ded 04bd
00000090: 85d8 0cbd 6603 ae3d 1fdd 53bd aa54 313d
000000a0: 5c56 9fbc bf35 aa3c 92e6 8cbd e2e3 8dbd
000000b0: d83f b73d 78a7 22bd 29b3 043d 9edc 673d
000000c0: 230e fe3c a6a8 803c 36bb 983b 6c57 cd3b
000000d0: 805c 8abd feab a2bd e080 393d 060f 4b3d
000000e0: a073 04bd fe8a 2ebd 4687 cb3d 422a e7bc
000000f0: e723 17bd 5d0c 4cbc 689f 15bd 2078 1dbb
00000100: 64bf a6bd 4aaf 3fbd 91e9 59bb 310c 493b
00000110: b69b 0b3d 25e4 983d 5cb1 61bd 27c2 ed3c
00000120: 1fc4 86bd e649 aebc e605 1d3b 7c54 8fbd
00000130: 2c7a 0a3d 3eba 21bd 00c0 a7bd 1f53 923c
00000140: c7dc d93c d226 f83b 3c21 22bc e31b 6c3d
00000150: da21 343d 39c8 84bd 13ec 913d 1f21 8fbd
00000160: 5701 a93d f12b a8bd b114 903d d04c 3c3d
00000170: 52de 85bd f7c0 de3c ea13 573d b27a 22bd
00000180: 9033 bf3d e387 143d 1e6a c03b ceb0 403d
00000190: 1409 ae3c 9d50 ba3d cd6d d3bb ef87 a4bd
000001a0: 22f5 47bd ed54 6d3c 600b 7e3d 57fa abbd
000001b0: 955d e03b 7ff0 0e3d a2f9 62bc e34f 0dbd
000001c0: d9e3 143d 76b9 be3c 0c0c 843d ee82 60bd
000001d0: 559c 0abc 4b9b 4dbd dfa0 82bc e117 9c3c
000001e0: ccbb f4bc 296a 533d c7f6 883d 2b3b b5bd
000001f0: 938b 7abd a812 a3bd 5dcb 75bd 9de0 d53c
00000200: b6b7 b2bd 7535 663d 7674 86bd 63be dcbc
00000210: 5567 1e3e 85b2 543e 335a 04bc 8c36 803e
00000220: de29 773d 9e25 c13d 2daf 1dbe 8f2b 60bd
00000230: 1fea 123e 3944 7dbb 3670 4e3d a015 1dbe
00000240: dfb2 fbbd 0d91 e53b 86bc efbd dc58 243d
00000250: f7b6 01bd 2d77 90bc d98d a83d d515 6d3d
00000260: 4d56 28be e025 33be 87da 0e3b 8a0c 41be
00000270: a257 453e 5508 4c3e 2baf 0abd b7ac c9bd
00000280: 62ec ddbd 8392 f33b f584 1abe fb2e 0a3e
00000290: f57f bbbd ef7e 833c 88a3 7c3d a8f6 cebd
000002a0: 58e0 083e 86e8 dbbd e5d2 d63d 7321 183d
000002b0: 1b2b 723e 14b0 efbd 45c7 323e 3658 ee3d
000002c0: 1999 0b3e 7278 893d 26fe 3dbe b71f d03d
000002d0: 6958 88bd ebe8 45bd 9b74 043d 6c00 de3d
000002e0: 2a5d 5fbe e5be e8bd 9c53 133e 5fdf b0bd
000002f0: db28 d5bc 0478 5e39 d718 373e 1a65 e4bc
00000300: a70d c9bd 7689 a13d 5f95 1fbe 4eb7 95bd
00000310: f15a 353e 8b09 4c3c 25ac f53c 5fa9 a8bd
00000320: 3519 013e 1b42 cbbd 8d7d 653e aa85 3ebd
00000330: 295c 26be 0e09 07bd e96e ed3d b1c9 7cbd
00000340: 3760 25bd 1aad 063e 024e 57bc 2c67 f43d
00000350: c310 4c3e 721b b0bd d011 883e 4c63 bbbd
00000360: 56fa f83d 805c 8d3a 9389 c83d a7ce 9abc
00000370: 068a f33d 91bc cb3d 6a79 70bd dd5b ae3b
00000380: 0c08 c33d 57ab 36be 3080 343d bb3c 0abd
00000390: 5734 cabc ca69 2ebd 618b 6b3d 36fd 48bd
000003a0: 79f6 59bd 29d5 b8bc 9c00 ea3d ec72 0bbd
000003b0: 7e5b 5cbe 2bc1 1ebe 3278 0bbe 724f 34be
000003c0: 865f a8bd 03ba 1c3d e93b 1c3d 703e fdbb
000003d0: 78cc 4fbe 039d 17bc f1fa e63d 9156 e43b
000003e0: 8027 ec3c 38f1 cfbd e4ab 043c b524 6e3e
000003f0: f6c7 5cbd ed95 c53d 0b87 f13c d13c a23d

layer4.bias f4 [128]
-0.017057864 0.1965704 -0.05931955 0.03899392 0.10386853 -0.00033416785 0.01286117 -0.18817951
-0.018345268 -0.018356944 -0.054404005 0.20852256 0.08511628 0.09017395 0.18675348 0.060094118
0.08106358 -0.064844295 0.11646461 0.027685545 -0.05994358 0.029386755 0.10870629 -0.08497367
-0.08554195 -0.18488601 0.009375232 -0.12830642 0.067618 -0.08237657 -0.076306276 -0.037170723
0.01532158 0.16357678 0.08098101 0.037595358 0.2158924 -0.048113313 -0.046580717 0.20410438
-0.02019114 0.10185767 -0.053937882 0.06929681 -0.124927826 0.01562957 -0.06933073 -0.068123594
0.07279734 -0.10221657 0.12769786 0.1432654 -0.11967923 0.0674288 -0.1399763 0.086909056
-0.06803961 -0.0036772867 0.20635071 0.03743656 0.05414383 -0.0064706593 -0.033939272 -0.06831136
0.10539037 -0.0932543 0.04285011 0.084767945 0.039394084 0.07297052 -0.079196334 0.20260061
0.081193574 -0.124325775 -0.059503756 -0.025344325 0.10057777 0.07108949 -0.092413105 0.040591765
-0.0457464 -0.098503165 0.12399687 -0.023166953 0.047807842 0.011107465 0.27422017 -0.051903564
0.00840574 -0.06125184 0.051902607 -0.044490788 0.083062164 -0.0604696 0.00017727973 0.016643286
0.10782475 -0.04804876 -0.044018365 0.03922646 0.011178278 0.027672322 0.11395667 -0.086738005
0.13027474 -0.03318053 -0.10068403 -0.085365 0.109181635 0.1219234 0.035387937 -0.10152461
-0.044695232 0.10883646 0.0052956645 -0.06824363 0.056671046 0.022171061 0.032319732 0.097999506
0.018221559 -0.013863277 0.020355819 -0.018184181 0.11078754 0.027497843 0.21918614 0.014978088
00000000: efbc 8bbc c049 493e 0ef9 72bd 17b8 1f3d
00000010: 06b9 d43d 4033 afb9 a8b7 523c 21b2 40be
00000020: d148 96bc 4d61 96bc bcd6 5ebd f086 553e
00000030: 7251 ae3d 1fad b83d 4e3c 3f3e 4025 763d
00000040: aa04 a63d 16cd 84bd ff84 ee3d cccc e23c
00000050: 6687 75bd 7ebc f03c 67a1 de3d ad06 aebd
00000060: 9e30 afbd c252 3dbe 939a 193c c262 03be
00000070: 4e7b 8a3d 0cb5 a8bd 7746 9cbd 5440 18bd
00000080: 5d07 7b3c ac80 273e 5fd9 a53d 97fd 193d
00000090: e612 5d3e 7712 45bd 6ccb 3ebd bd00 513e
000000a0: e467 a5bc c19a d03d f8ed 5cbd 7ceb 8d3d
000000b0: 29da ffbd 9609 803c 45fd 8dbd 6284 8bbd
000000c0: c616 953d ec56 d1bd 3ac3 023e 2ab4 123e
000000d0: 621a f5bd 1c18 8a3d f255 0fbe 60fd b13d
000000e0: 5a58 8bbd a2fe 70bb 9a4d 533e 1457 193d
000000f0: ecc5 5d3d d307 d4bb e803 0bbd d4e6 8bbd
00000100: e8d6 d73d 1cfc bebd 9983 2f3d d19a ad3d
00000110: b15b 213d 9171 953d b031 a2bd 8976 4f3e
00000120: d148 a63d 839e febd 36ba 73bd e79e cfbc
00000130: b8fb cd3d 5e97 913d 1543 bdbd 8d43 263d
00000140: 9460 3bbd 07bc c9bd 12f2 fd3d 9fc8 bdbc
00000150: 28d2 433d 16fc 353c 9666 8c3e d598 54bd
00000160: 3bb8 093c 36e3 7abd d497 543d f93b 36bd
00000170: 7f1c aa3d f9ae 77bd 2ae4 3939 8057 883c
00000180: 39d3 dc3d c7ce 44bd 9a4c 34bd edab 203d
00000190: 1925 373c 11b1 e23c 1d62 e93d b2a3 b1bd
000001a0: be66 053e 4fe8 07bd 6e33 cebd d8d3 aebd
000001b0: 9f9a df3d fab2 f93d f1f2 103d 22ec cfbd
000001c0: 5912 37bd a6e5 de3d 4187 ad3b 51c3 8bbd
000001d0: e61f 683d 16a0 b53c b261 043d f7b3 c83d
000001e0: 6145 953c cc22 63bc 3fc1 a63c fef6 94bc
000001f0: 94e4 e23d 2843 e13c 5572 603e a866 753c

input_norm.weight f4 [8]
1.2615727 0.79745066 0.9420759 0.8330999 0.7684441 1.030225 0.6183142 0.7732204
00000000: 377b a13f ba25 4c3f e32b 713f 0946 553f
00000010: c1b8 443f 6ade 833f d749 1e3f c6f1 453f

input_norm.bias f4 [8]
0.27637482 0.19735943 0.49862006 0.47571105 -0.007407555 0.28800762 0.27566877 0.12838009
00000000: 0081 8d3e 9718 4a3e 214b ff3e 6690 f33e
00000010: 13bb f2bb bc75 933e 7524 8d3e 1276 033e

input_norm.running_mean f4 [8]
3.5830255 0.034832135 -1.1340095 3.61357 0.0016126987 0.026977012 -0.12555367 0.2517981
00000000: 4a50 6540 24ac 0e3d 3927 91bf bb44 6740
00000010: 3061 d33a e5fe dc3c 2491 00be aeeb 803e

input_norm.running_var f4 [8]
3.8752804 0.0025226974 2.1553285 6.0603576 0.19937426 0.0017004148 0.698887 0.18831444
00000000: 9804 7840 d753 253b e7f0 0940 73ee c140
00000010: c428 4c3e 74e0 de3a 42ea 323f 80d5 403e

norm.weight f4 [128]
0.8456127 1.0660386 0.89207923 0.8573325 0.8621591 0.8751188 0.8699244 0.88967
0.8901017 0.8597893 0.9283924 0.9208717 0.83723336 0.91895217 0.90793025 0.8929049
0.8378354 0.8668679 0.93761736 0.90596265 0.87624216 0.9133094 0.9354731 0.9013255
0.89984643 0.9326569 0.8528022 0.99446857 0.8240402 0.8378235 0.9354525 0.8952066
0.8429708 0.8821932 0.8860646 0.9056402 0.91329265 0.90322584 0.81900436 0.96405554
0.93881375 0.8746507 0.98262024 0.86257637 0.88100374 0.9285929 1.0323163 0.8712861
0.93598384 0.9142268 0.9229298 0.8920512 0.88498276 0.88824046 0.86434644 0.8832467
0.86898744 0.98707455 0.9344223 0.84232265 0.8932836 0.86489797 0.9072079 0.91020346
0.8622739 0.8953865 0.8906947 0.8752477 0.80836415 0.9229928 0.9082847 0.8864506
0.89315605 0.8557222 0.8798087 0.88803965 0.9375464 0.90759134 0.8907414 1.0094376
0.8937592 0.8704521 0.8748287 0.87416023 0.8771772 0.8475211 0.9856365 0.8926891
0.8891973 0.8825878 0.8347707 0.8959842 0.8231248 0.8274772 0.84840137 0.9253838
0.9244799 0.8970711 0.9164118 0.93103963 0.87895787 0.89347076 0.83735436 0.8309954
0.8725722 0.94066215 0.86780703 0.9019489 1.0205193 0.8700142 0.87749225 0.8811034
0.86785835 0.8926691 0.8778884 0.86281335 0.8857686 0.8742174 0.8684764 0.87890965
0.82942116 0.9442046 0.8904202 0.84799844 0.90748817 0.8961085 0.9680934 0.8475855
00000000: 137a 583f f473 883f 4e5f 643f 257a 5b3f
00000010: 75b6 5c3f c907 603f 5eb3 5e3f 6ac1 633f
00000020: b4dd 633f 271b 5c3f 20ab 6d3f 3fbe 6b3f
00000030: ed54 563f 7340 6b3f 1e6e 683f 6a95 643f
00000040: 617c 563f 0eeb 5d3f b107 703f 2bed 673f
00000050: 6851 603f a5ce 693f 2a7b 6f3f 45bd 663f
00000060: 565c 663f 9ac2 6e3f 3f51 5a3f 7e95 7e3f
00000070: 4cf4 523f 9a7b 563f d179 6f3f 422c 653f
00000080: efcc 573f 6ad7 613f 21d5 623f 09d8 673f
00000090: 8ccd 693f cf39 673f 45aa 513f 58cc 763f
000000a0: 1956 703f 1ce9 5f3f 008d 7b3f ced1 5c3f
000000b0: 7689 613f 44b8 6d3f f122 843f 9b0c 5f3f
000000c0: a39c 6f3f c40a 6a3f 2145 6c3f 785d 643f
000000d0: 3b8e 623f ba63 633f cf45 5d3f 751c 623f
000000e0: f675 5e3f ebb0 7c3f 4d36 6f3f 75a2 573f
000000f0: 3cae 643f f469 5d3f c73e 683f 1803 693f
00000100: fbbd 5c3f 0d38 653f 9104 643f 3c10 603f
00000110: f4f0 4e3f 4249 6c3f 5985 683f 6dee 623f
00000120: e0a5 643f 9c10 5b3f 253b 613f 9156 633f
00000130: 0a03 703f e857 683f a107 643f 4035 813f
00000140: 67cd 643f f3d5 5e3f c6f4 5f3f f7c8 5f3f
00000150: af8e 603f 25f7 583f ac52 7c3f 4687 643f
00000160: 6fa2 633f 46f1 613f 88b3 553f 385f 653f
00000170: 4fb8 523f 8cd5 533f d530 593f f4e5 6c3f
00000180: b7aa 6c3f 74a6 653f f799 6a3f 9d58 6e3f
00000190: 6203 613f 80ba 643f db5c 563f 1dbc 543f
000001a0: e460 5f3f 3ccf 703f 9a28 5e3f 20e6 663f
000001b0: 60a0 823f 40b9 5e3f 55a3 603f fe8f 613f
000001c0: f72b 5e3f f685 643f 4bbd 603f 56e1 5c3f
000001d0: bbc1 623f b6cc 5f3f 7854 5e3f 3900 613f
000001e0: f254 543f 65b7 713f 94f2 633f 6d16 593f
000001f0: 2551 683f 5e67 653f f8d4 773f 5dfb 583f

norm.bias f4 [128]
0.110680655 0.003926006 0.13268992 -0.09988658 0.19425496 -0.058050282 -0.12283518 -0.07647374
0.20193678 0.11429641 0.19722228 0.17603838 0.16952193 0.22085467 0.31792885 -0.112073384
0.1453761 0.103212096 0.21737508 -0.010691164 0.043532662 -0.025649577 0.038821258 0.0031402535
0.041450847 -0.019294964 0.17288539 -0.12835151 -0.32585448 -0.13881709 -0.032575894 0.20857327
-0.019524554 -0.13707149 -0.062159356 -0.18893267 -0.038744044 0.007442646 0.06265506 0.10502951
0.11437368 0.20867433 0.13643202 0.21033406 -0.016989222 0.07496172 0.1446241 -0.2776692
0.14167994 -0.19892764 0.09494632 0.18236 0.2279044 -0.26333734 -0.0877397 -0.050607976
0.07186889 0.092548236 0.11108897 0.38932246 -0.11260847 0.09284901 -0.16949002 0.30666012
0.03405127 -0.20024186 -0.1301181 0.00034150106 0.28678066 -0.053679004 0.3132084 0.028291991
0.17212269 -0.18272984 0.11729455 0.19765955 -0.077561766 -0.2729567 -0.022354588 -0.0414793
0.0055374485 0.16020359 -0.1478413 -0.09406757 0.07432079 -0.005187069 0.2076076 0.011460855
-0.37717658 0.056235027 0.14364816 0.19493991 -0.030118596 0.2296657 0.02488441 0.11084364
0.08937734 -0.13692099 -0.2739215 0.16524716 0.077057235 0.0031272487 -0.04055312 -0.15293323
0.04730538 -0.14141227 0.12634741 -0.02440036 -0.051757418 0.13211145 -0.08803925 0.17608912
-0.057267476 0.067605644 -0.053332474 -0.013114504 0.0005865615 -0.28973925 0.14040773 -0.0740969
0.11473544 0.045859467 -0.3463214 0.08628928 -0.038079225 -0.08247254 -0.0055143805 -0.006456246
00000000: 8aac e23d baa5 803b dedf 073e 5691 ccbd
00000010: c6ea 463e 22c6 6dbd 0391 fbbd 449e 9cbd
00000020: 84c8 4e3e 3c14 ea3d a3f4 493e 6843 343e
00000030: 2897 2d3e ba27 623e 92c7 a23e bb86 e5bd
00000040: 79dd 143e dd60 d33d 9397 5e3e fe29 2fbc
00000050: 4e4f 323d 101f d2bc 0a03 1f3d b6cc 4d3b
00000060: 5dc8 293d 7910 9ebc de08 313e 946e 03be
00000070: 66d6 a6be 1126 0ebe 4d6e 05bd 3b94 553e
00000080: f5f1 9fbc 785c 0cbe cf9a 7ebd 9177 41be
00000090: 13b2 1ebd 71e1 f33b 4c51 803d b619 d73d
000000a0: bf3c ea3d b9ae 553e d6b4 0b3e d061 573e
000000b0: fb2c 8bbc 8885 993d 5718 143e a82a 8ebe
000000c0: 8c14 113e b0b3 4bbe 3773 c23d 94bc 3a3e
000000d0: c55f 693e 27d4 86be dfb0 b3bd 4f4a 4fbd
000000e0: ff2f 933d ee89 bd3d 9d82 e33d 4655 c73e
000000f0: 459f e6bd 9f27 be3d cb8e 2dbe 8e02 9d3e
00000100: 5879 0b3d 340c 4dbe ae3d 05be 7f0b b339
00000110: ead4 923e 84de 5bbd da5c a03e 9bc4 e73c
00000120: ee40 303e 881d 3bbe 2038 f03d 4467 4a3e
00000130: b4d8 9ebd fbc0 8bbe f820 b7bc 33e6 29bd
00000140: 7c73 b53b 690c 243e b663 17be 80a6 c0bd
00000150: 8035 983d 4af8 a9bb 1697 543e 4fc6 3b3c
00000160: 4a1d c1be b356 663d 8118 133e 549e 473e
00000170: 46bb f6bc 7c2d 6b3e 64da cb3c fe01 e33d
00000180: 780b b73d 0435 0cbe 703f 8cbe 8d36 293e
00000190: 2fd0 9d3d 87f2 4c3b 071b 26bd 879a 1cbe
000001a0: 49c3 413d 61ce 10be 3761 013e 44e3 c7bc
000001b0: 96ff 53bd 3948 073e ec4d b4bd b550 343e
000001c0: 4d91 6abd d474 8a3d 2773 5abd 37de 56bc
000001d0: 7ac3 193a b458 94be 0bc7 0f3e 1ec0 97bd
000001e0: 6afa ea3d 23d7 3b3d 0a51 b1be 6fb8 b03d
000001f0: f6f8 1bbd 5de7 a8bd fab1 b4bb eb8e d3bb

norm.running_mean f4 [128]
0.38837442 0.47238195 0.3279903 0.42318046 0.23759277 0.5216759 0.07552415 0.27869374
0.40987015 0.33323434 0.16379441 0.28939313 0.37220156 0.5442124 0.34724364 0.29531187
0.33563387 0.31921923 0.26816377 0.36807173 0.49652892 0.4505877 0.5542829 0.1689067
0.43477952 0.035653118 0.43121934 0.011220461 0.8827809 0.27511743 0.32819414 0.4167722
0.40498307 0.2660324 0.14534193 0.55723965 0.49699616 0.17497057 0.09375519 0.31398937
0.047953766 0.44937602 0.035542976 0.28022414 0.031062536 0.09385405 0.15571867 0.6855668
0.14680621 0.3829735 0.2812237 0.58013105 0.30481476 0.3967196 0.19722156 0.23169118
0.48370215 0.013278969 0.38959146 0.9506333 0.6438067 0.32851753 0.095402345 0.034358174
0.17069457 0.31118092 0.31214726 0.35605434 0.20471016 0.43856314 0.17335042 0.4353404
0.31040546 0.34518394 0.38013542 0.5300488 0.34590924 0.623795 0.24995722 0.028700745
0.43516964 0.28727084 0.65184784 0.41269544 0.642359 0.25705156 0.3195144 0.5628547
0.3966994 0.12367266 0.54782397 0.85158604 0.19511972 0.42420927 0.25951034 0.15585922
0.66354644 0.19582328 0.30155697 0.43528774 0.5421629 0.08300196 0.48113462 0.17821506
0.18468839 0.19078054 0.20148298 0.25458336 0.097448625 0.4032611 0.27213204 0.36161217
0.3398106 0.67220956 0.19260658 0.37033638 0.50976044 0.82250243 0.5856383 0.51505685
0.31990874 0.22437248 0.10684637 0.1258883 0.41393057 0.0605387 0.48587483 0.16564704
00000000: 03d9 c63e 0cdc f13e 58ee a73e 1cab d83e
00000010: 854b 733e 8d8c 053f 68ac 9a3d f2b0 8e3e
00000020: 80da d13e b19d aa3e b9b9 273e 562b 943e
00000030: 3491 be3e 8151 0b3f ebc9 b13e 1e33 973e
00000040: 34d8 ab3e b470 a33e c34c 893e e673 bc3e
00000050: 0a39 fe3e 6eb3 e63e 7ce5 0d3f e1f5 2c3e
00000060: 6c9b de3e 0109 123d c8c8 dc3e 06d6 373c
00000070: eefd 613f 31dc 8c3e 1009 a83e 2a63 d53e
00000080: f159 cf3e 6635 883e 84d4 143e 42a7 0e3f
00000090: 4876 fe3e 7c2b 333e b902 c03d 37c3 a03e
000000a0: 2b6b 443d 9d14 e63e 8395 113d 8a79 8f3e
000000b0: dc76 fe3c 8d36 c03d b774 1f3e 4e81 2f3f
000000c0: 5e54 163e 1a15 c43e 8efc 8f3e 7883 143f
000000d0: ae10 9c3e d51e cb3e 73f4 493e 7440 6d3e
000000e0: cfa7 f73e 0890 593c 8878 c73e b45c 733f
000000f0: 84d0 243f 7333 a83e 4e62 c33d 28bb 0c3d
00000100: 8fca 2e3e 1b53 9f3e c4d1 9f3e c14c b63e
00000110: 8a9f 513e 598b e03e c682 313e f0e4 de3e
00000120: 77ed 9e3e f3bb b03e 1ca1 c23e 47b1 073f
00000130: 041b b13e 07b1 1f3f c9f4 7f3e d31d eb3c
00000140: 8ece de3e 2a15 933e 80df 263f d14c d33e
00000150: a471 243f 439c 833e 6497 a33e 3f17 103f
00000160: 2f1c cb3e 1748 fd3d 313e 0c3f 8b01 5a3f
00000170: 77cd 473e f531 d93e 8ade 843e 8f99 1f3e
00000180: 2ede 293f e685 483e ad65 9a3e 09de de3e
00000190: 30cb 0a3f eefc a93d 4757 f63e 027e 363e
000001a0: f41e 3d3e f95b 433e 8e51 4e3e c058 823e
000001b0: 2593 c73d 3d78 ce3e e454 8b3e 3b25 b93e
000001c0: a8fb ad3e ed15 2c3f a93a 453e bb9c bd3e
000001d0: a97f 023f 858f 523f 64ec 153f c4da 033f
000001e0: 14cb a33e e6c1 653e 45d2 da3d dde8 003e
000001f0: b5ee d33e 6ef7 773d 96c4 f83e 619f 293e
