final_models/v_start_noise/models/best_model_episode_8729.pt (torch, 226638 bytes, 22 tensors)

layer1.weight f4 [128, 8]
00000000: fcc4 933e b241 82be 5593 febd be87 863e
00000010: 7d1c 91be ef0d 3a3e 92a3 a2bd 03bd 4c3e
00000020: 0413 eebc ac5a 8dbe 2a14 773e 93a1 49bb
00000030: 0c47 4ebc 2f69 f2bd 34d6 2b3c 1d88 f33c
00000040: b14a f1bd 93a6 58bd b637 d33e dcd4 053e
00000050: 8d18 d1bd 59ae 87be 532c c3bd 65fe 02be
00000060: 91f8 babd 1289 14bd 7aad 653e fbc4 953e
00000070: 42c5 e6be 39b4 173e 26b6 a73d 04a8 a43e
00000080: 3601 453d fb17 45be 1884 7cbe 58ae ffbb
00000090: c07a 373e 7327 d6bc d4b4 323e 9cb7 1dbe
000000a0: d8f3 423e be7e 15be 5468 773e 3b76 e3bd
000000b0: ee85 26be 4ca3 5c3e 3715 0abe 5d53 17bc
000000c0: 8cc3 f2bb 5a8a 7a3c c426 50be 62cb 13be
000000d0: d702 b73d b057 27be 418f 9f3e a158 973d
000000e0: b8ff d23c e172 bebe 7f0c 193e de01 c13d
000000f0: 6f6a 5ebe f2f8 713e 32fc 603e 5614 c43e
00000100: db67 2abe 72f5 58be 5240 6bbd 2105 7a3c
00000110: 6e26 91be 467c 06be 7328 f33d a3ae 363d
00000120: c57e 293e 891c fdbd a503 243e 104f 9bbc
00000130: 7c46 683e e222 333e 0868 70be d61e de3d
00000140: 904b 5abe ff77 b2be 6fde 913c 4287 debd
00000150: 4d8e 243e 2341 40be 77c2 a1be 52d3 213e
00000160: faac a1bc 452d c03d 1063 553d 761c 92bd
00000170: 58f1 ecbb 8f57 ec3d 937b b3bd 0939 1dbe
00000180: deb9 6a3e b517 573e 61ee 153d 5661 b6bd
00000190: 9cbf 9b3e 147a a1bd dd79 4b3e d87e 313e
000001a0: afd6 13be 809b b9be 40a2 b23e 3a4b f93d
000001b0: b126 d73e c71b 08bd 3130 353e dcf0 383e
000001c0: 8304 943e de21 debd f946 2abc 993f 903d
000001d0: 656d 5d3c eebd c5bd 5c37 43bd 9017 85be
000001e0: 0010 7fbe 1d4f 203c feed a53e 62e0 8abe
000001f0: ff2b 033e d228 39be 0d0f e1be 9c4f f8bb
00000200: 35d8 183e ad7f d13e e9be 87be 270d 9e3e
00000210: 9ef7 ab3e b241 673e 5a19 913e a7a2 a13e
00000220: 1367 fe3e 7706 ea3d c6cd 56be fbf9 9fbe
00000230: 3412 7ebe fbab b73c 6451 8abe 9484 283e
00000240: b11f 2d3d b54f 6ebd 4799 db3d 1355 923d
00000250: af50 083e 2cef dc3d 61af dfbb 2378 bb3e
00000260: 72e9 81bd cd3f e8bc 2d74 b5be b7da 5bbe
00000270: 9240 51be 189d eebd 2c83 673e 9532 efbd
00000280: bf2b f2be 30df 6e3d 70e1 ec3d 54ab 023f
00000290: bc7a 5bbe c33f 2b3e f266 35be 7d80 af3c
000002a0: 17b5 5cbe bdde 84be 81f1 80be 8b15 023e
000002b0: 0dfc aebb 9564 fc3c 3bda e03e 9e48 a53e
000002c0: 1f57 8c3e 6542 943d 7fc5 ecbe ee4f 303e
000002d0: 7117 3ebb 07cc 9e3d a528 ccbe 58fe 54be
000002e0: 0591 9fbe 84c3 413e e431 aebe 0b33 afbe
000002f0: 0e90 efbc 44f7 86be 2b95 f13c 042b a2bd
00000300: 9b0d b1be 67f2 a03c 3a98 8c3e 6e20 45be
00000310: addc 5d3e 2ce0 c73d 0ed4 bc3e 12f8 a1be
00000320: 7a9b 0bbc 9900 b5be 49f3 813e 9f7f 083c
00000330: d401 9cbb 14a1 96be 1e7c 3cbd 289f 473d
00000340: 87a1 8b3c 2838 f43d 15f7 0c3d d85d ed3c
00000350: 5d33 86be 9176 943e 9611 a53e c583 da3e
00000360: c6ea 813c f818 78be 0bf6 aabd a50e 383d
00000370: 33c7 24bd 5d27 8f3b c14e 71bd 58fa 7fbe
00000380: a7c5 b73e ef23 89be d882 943b 9b08 9a3e
00000390: be69 ff3e fe48 813e d86f 41bd 8360 e2be
000003a0: 051d 4c3e 2a01 443d 947c d7bd 6480 fe3c
000003b0: d530 c3be e41f 393e 446d 7c3e adc6 a7be
000003c0: 6d9f eebe d151 8cbe 3ce4 a83d 4274 c03d
000003d0: e17e 4cbe 405c 973e dc24 b7be 7894 1cbe
000003e0: 2057 0ebe c509 9e3e f5fd a03e bff1 953c
000003f0: fee8 8c3d 3a63 cf3d b5cf c03d b0a9 a0bc
0.28861225 -0.25440747 -0.12430445 0.26275438 -0.28342047 0.18169378 -0.07941355 0.19993977
-0.029061802 -0.2760824 0.24128786 -0.0030766472 -0.012590181 -0.118364684 0.010488082 0.02972799
-0.117818244 -0.052893233 0.41253442 0.1306948 -0.10209761 -0.26500204 -0.095299385 -0.12792356
-0.091294415 -0.036263533 0.22429457 0.29251847 -0.4507237 0.14814843 0.08189039 0.32159436
0.048096858 -0.19247429 -0.24659765 -0.007802766 0.17917919 -0.026141858 0.17451793 -0.15402073
0.19038332 -0.1459913 0.24160892 -0.11106535 -0.16262028 0.21546668 -0.13484655 -0.009236184
-0.007408565 0.015291775 -0.20327288 -0.14433053 0.089360885 -0.16342044 0.31163982 0.073899515
0.025756702 -0.3719702 0.14946173 0.09424184 -0.21720289 0.23630121 0.21971205 0.38296765
-0.1664118 -0.2118738 -0.057434388 0.015260012 -0.28349632 -0.13133344 0.118729495 0.04460014
0.16552265 -0.12358958 0.16017015 -0.018958598 0.22683138 0.17493775 -0.23477185 0.10845725
-0.21317887 -0.34857175 0.01780626 -0.10865642 0.16069908 -0.18774848 -0.31593677 0.15803269
-0.019735802 0.093836345 0.052096426 -0.07134335 -0.007230919 0.11540138 -0.08763804 -0.15353788
0.22922465 0.21005137 0.03660429 -0.08905284 0.30419624 -0.07884613 0.19870706 0.17333543
-0.14437364 -0.3625145 0.34889412 0.121725515 0.42021707 -0.033229616 0.17694165 0.1806063
0.28909692 -0.108463034 -0.010392898 0.0704338 0.013514851 -0.09655367 -0.047660217 -0.2599454
-0.24908447 0.009784487 0.32408136 -0.27124316 0.12809752 -0.18081978 -0.43956795 -0.0075778496
0.14926226 0.4091772 -0.2651284 0.3086941 0.33587354 0.22583655 0.28339654 0.31569406
0.49688014 0.11427014 -0.20976934 -0.31245407 -0.24811631 0.022420874 -0.2701522 0.16456825
0.04226655 -0.058181483 0.10722595 0.07145133 0.13312028 0.10787806 -0.0068263267 0.36615095
-0.06343354 -0.028350735 -0.35440198 -0.21470152 -0.20434788 -0.11651057 0.22608632 -0.1167957
-0.47299 0.058318317 0.11566436 0.51042676 -0.21433538 0.16723542 -0.17715052 0.021423573
-0.21553455 -0.25951186 -0.25184253 0.1270353 -0.0053401054 0.03080968 0.43916497 0.32281965
0.27410218 0.07239226 -0.46244428 0.17217991 -0.0029005671 0.07753759 -0.3987476 -0.2080015
-0.3116533 0.1892224 -0.3402244 -0.3421863 -0.029243495 -0.26360524 0.029490074 -0.07918361
-0.34580693 0.019646836 0.2745989 -0.19250652 0.21666212 0.09759554 0.36880535 -0.31634575
-0.008520955 -0.35352018 0.25380924 0.0083312085 -0.00476096 -0.29419768 -0.046016805 0.048735768
0.017044796 0.119247735 0.034415323 0.028975412 -0.26211062 0.2899671 0.3223998 0.42678657
0.015859019 -0.24228275 -0.0834771 0.04493584 -0.040229034 0.004368706 -0.058912996 -0.24997842
0.35892984 -0.26785228 0.0045321994 0.3008469 0.49885362 0.25251 -0.047225803 -0.44214258
0.19932945 0.047852673 -0.10521808 0.03106708 -0.38123193 0.18078572 0.24651057 -0.32768765
-0.46606007 -0.2740617 0.08246657 0.093971744 -0.19970275 0.2956257 -0.3577031 -0.15291011
-0.13900423 0.3086683 0.31443754 0.01830375 0.06880377 0.10126348 0.09414617 -0.019612163

layer1.bias f4 [128]
00000000: 7718 bdbc 71b5 87bd da65 113e fbdd dbbd
00000010: cb85 a4be bbf9 1c3e 6cdd 32be 4b51 f9bd
00000020: 9acd af3e 034e 1e3e 8d50 f83d 19c3 7abc
00000030: 7293 91be 3f93 1c3e c12b 86be d489 b53c
00000040: ae49 aebe 68fd 253e 58e4 34be d13a a93e
00000050: c4b3 303e 44e9 b43e c15b ac3c 2b4e e63b
00000060: 1533 223e 0a8e 60be 27b5 2dbe 2be3 e0be
00000070: 7d1c d73e 5e4e 92bc 8862 033e b14d 0d3d
00000080: f4f4 213e 3edd 84be 9cb4 4ebe 1e70 8c3e
00000090: 4ded 303e 7c15 bfbc bd6c 85be ac12 bebd
000000a0: 3a98 70be 6fc9 893c ab98 8cbe 2250 95be
000000b0: 94ed d1be a91e 313d c761 a13d 4def bc3e
000000c0: 5861 aabe 507c e2bd 0a1b 49be e9dd 84be
000000d0: 164f 51bb 9090 c73e 44ec 843d fe0d d0bd
000000e0: 853a 873e 54c2 b6be 7aa6 0d3c fd1a 863e
000000f0: 9ebf 8a3e ec24 933d 2fa0 3bbe 6db6 debe
00000100: c5a6 1fbe a399 373e e787 853e 825b 073d
00000110: 12e4 9cbe c7cb 1cbd b80b f13d 633f 5e3c
00000120: b127 2bbe 916b 663d dc88 043d 5ace 893d
00000130: 68c7 0abd 94f4 4a3e e7c4 c2be 5d2e 05be
00000140: 372e b6bb 31fd 5e3e 67c0 1a3e 28e5 0e3e
00000150: 00d6 c13e f4f5 da3d 1974 bebe bb60 0f3e
00000160: a4a6 66be 0859 dfbb 3c68 663d c9bb b03e
00000170: 047b 06be cfbf 49be 188c 00be 2bc1 a4bd
00000180: d57b b43e f263 5b3e 2b64 473e 2b9d c73d
00000190: ea7d b3bd a99b 85bd b4e6 8abe bbfe eb3d
000001a0: 866b 6bbe b27c 743d f997 263e 57ca 833e
000001b0: d4ab babe 41e6 d03e 2067 01be 070d 44bd
000001c0: 6248 a63e ab9b 9c3e c2f8 8cbe 7be8 823e
000001d0: a44c aebe daaa 933e 1c0f d03e 9e12 c03c
000001e0: 6852 163d 83ed 6bbb a40b 92be a888 93be
000001f0: 7a10 80bd 16ef c1be 449a 9cbe 45fa d1bd
-0.023082955 -0.06626404 0.1419901 -0.10735699 -0.32133326 0.1532964 -0.17467278 -0.121737085
0.3433655 0.15459447 0.12124739 -0.015305304 -0.28432804 0.15290545 -0.26205257 0.022160448
-0.34040588 0.16209948 -0.17665231 0.33052686 0.17256075 0.35334218 0.021039845 0.0070283613
0.15839799 -0.21929184 -0.16963635 -0.43923315 0.42013922 -0.017859634 0.12830555 0.03449792
0.15816098 -0.25950044 -0.20186085 0.2742929 0.17278023 -0.023325674 -0.26059523 -0.09280905
-0.2349557 0.016819684 -0.27460226 -0.291627 -0.4100157 0.04324213 0.07879978 0.36901322
-0.33277392 -0.11058867 -0.19639221 -0.25950554 -0.0031938008 0.3897748 0.064903766 -0.10158919
0.26411834 -0.35695136 0.008645648 0.26192465 0.27099317 0.07184777 -0.18322824 -0.43498555
-0.15590961 0.17929702 0.26080248 0.033046253 -0.30642754 -0.038280275 0.11769813 0.013564917
-0.1671436 0.056254927 0.03235708 0.067288116 -0.033881575 0.19819862 -0.3804085 -0.13005967
-0.0055597085 0.21776272 0.15112458 0.13954604 0.37858582 0.10691443 -0.3719795 0.14001743
-0.22524506 -0.0068160333 0.05625175 0.3451827 -0.13132864 -0.19702075 -0.12553442 -0.08044656
0.35250726 0.21424845 0.19471805 0.09746774 -0.087642506 -0.065238304 -0.27129138 0.11523195
-0.22990236 0.05968923 0.1626891 0.2574031 -0.3645922 0.4080067 -0.12636995 -0.047863986
0.324771 0.30587515 -0.27533537 0.25567994 -0.34042847 0.28841287 0.40636528 0.023446377
0.036699682 -0.0035999722 -0.28524506 -0.28815198 -0.06253143 -0.3787772 -0.30586445 -0.10252813

layer2.weight f4 [128, 128]
00000000: 62b7 2ebd 441a 30bd b234 35bd 6892 533c
00000010: 43ef c93d d1b1 a13b 8e4f 1ebd 07ea a93c
00000020: 507a eebd f6a0 a93d 5eea ae3d 3868 2fbd
00000030: 35c4 6ebd 6172 083e 3043 e8bd 772b 733d
00000040: f927 6bbd d59f 05be 1fde 1c3d d0bd c4bd
00000050: 734d be3d 3b6e 7b3b 11f6 9abd cdfe b5bd
00000060: c246 853d e5a0 f03d 2d16 893b 1cd7 74bd
00000070: 2148 eabd 7c63 653d 2e3a 74bc 850a 653d
00000080: 3172 993d 93d8 a13d de90 ac3c 183b fd3c
00000090: ccb2 863d 217c e2bb 6de1 9a3d a6b3 8e3c
000000a0: 1155 a8ba 37f0 51bd 823d 033c 7090 a13d
000000b0: 8ef0 a63d bfb7 0cbc 0330 13bd eace 873d
000000c0: 3b58 843d 70d0 383e 8b6c d73c 1be3 b4bc
000000d0: b8b9 cbbc 0c1b 6fbd 21a2 6a3c c8d8 0e3c
000000e0: e121 7ebd 03af 83bd 0ba3 1c3d 358b b23c
000000f0: 8d83 15be 1667 d53c 56e2 583d f6f6 533d
00000100: 629d e53d 91f3 38bd a8d3 be3d 750b ccbd
00000110: e799 51bc 61b5 6fbd a8f7 9bbc a8d2 cc3d
00000120: 9013 c13d ff04 a73b e603 0bbd 1d3f 1abd
00000130: 4246 ba3a 9f1e 9cbc 929f 753d a8a8 583d
00000140: 54c0 a93d 2832 4abd b44e a83d 389e 8abc
00000150: 1824 edbc 1ffa 31bd eeb4 c7bb bd01 50bd
00000160: 9a06 39bc beaa a6bd 5d9b 313d 2f62 97bd
00000170: 638f 7cbc ba70 6fbd a6da 473c 210a 993d
00000180: 4473 91bd a7ed afbd 96c2 933d d254 863d
00000190: 4aec 8d3d 1d06 8dbd fc08 903d e342 873d
000001a0: ac19 2b3d 0404 06bc e829 c23d 4c13 2b3d
000001b0: 64dd 193d 2f3e aabc a5d7 3dbd aec1 54bd
000001c0: 1d00 ea3d dfe1 173d e594 723d fbda 8e3d
000001d0: 866d 9bbd 95ca e73c 8f08 4dbd 2a89 5c3b
000001e0: 3e6e cd3c 10fb 083b d2cd b5bc 7999 f0bc
000001f0: e425 ecbd 6a70 93bd 16e3 853d 981c 87bd
00000200: b61d a0bc 298c 3cbc 11b9 bd3c 34eb cfbc
00000210: 85fe 493d 99a5 aebc 33a3 6b3d ec97 42bc
00000220: e1d4 973b 4fa3 c1bb 0f52 d53d 642b 673c
00000230: d478 293d 6cb4 05bd b0b5 493c b148 eb3d
00000240: 2d64 d4bd 2206 a1bc 8564 873d 0da2 40bd
00000250: 9efd 03bd b673 3fbc f915 a53c ca51 673d
00000260: e7fd 87bc 141d 2e3d f16a 8ebd 0f78 f73c
00000270: 891b 6ebd ba8f 623d fa08 61bd 649f adbd
00000280: 8d0d 89bb 34ab 303d 96a3 74bb 5890 163d
00000290: e65d ac3a 0c2c 633d 206a 25bc d328 05be
000002a0: 970a 82bd 1797 063d a6c3 43bc ea31 943d
000002b0: b8d9 4bbd 7c4f 953d 133a 43bd 5311 5bbd
000002c0: a92f a7bc 3c96 bbbd 0a15 87bc a95a 913c
000002d0: 5940 ffbd 9ea6 bf3d 0a31 a7bd 6ee7 533d
000002e0: cbe4 1e3d a0a5 dc3a 4c95 78bd 7797 943b
000002f0: 9a3c 38bd 2591 ac3d 8b03 a1bd cf00 1abd
00000300: 4967 d2bc efd8 83bd 1c7f 25bd 5cfd 8b3c
00000310: d35e b4bc 9683 bc3b b1ff a83d c5a8 d7bb
00000320: 18f3 81bd 02e8 2ebd ad2f d03d fc96 97bc
00000330: 9685 b4bd cf54 5e3d 3889 f1bb 7863 9b3c
00000340: ffdb 893b 898e 003e 9774 84bd a1d2 e53c
00000350: e718 1a3e 5746 5f3c 5b93 353d d762 8f3d
00000360: c3b8 e83d 1eec fcbc 6ae8 c8bd f7c9 4fbd
00000370: c948 c4bd a891 433c 69ac 8c3d ea32 913d
00000380: d5f3 e53c 9afd 443c f2e3 163d 8ca8 843d
00000390: 4a7e 8e3d 2824 fc3b 8cf5 70bc b40a b13c
000003a0: 5301 2cbb d8c2 09bd f1d3 8fbc f3ad ba3d
000003b0: a6cb 803d 1e04 08bd d421 06bd f1d9 82bd
000003c0: cdd8 223c ea19 863d acad a2bd f551 a23d
000003d0: 8d00 a6bd 562b bdbd 2059 77bc b481 cbb9
000003e0: 6a3e 49bc d231 29bd 093d 57bd d474 99bd
000003f0: 0429 85bd baca 8dbd 49c8 803d 5e59 99bd
-0.042655356 -0.0429938 -0.044239707 0.012913324 0.09860089 0.0049345274 -0.038650088 0.020741476
-0.11644423 0.08282654 0.08540796 -0.042824 -0.058292586 0.13324882 -0.1134094 0.059367623
-0.057411168 -0.13049252 0.03829777 -0.09606516 0.09292116 0.0038365263 -0.07566465 -0.0888649
0.065076366 0.11749438 0.0041835518 -0.059775457 -0.11439539 0.05600308 -0.014906449 0.055918235
0.074924834 0.079026364 0.021065172 0.030911967 0.065770715 -0.00691177 0.07562528 0.017419647
-0.0012842735 -0.051254477 0.00801027 0.078888774 0.08151351 -0.00858873 -0.03593446 0.066312626
0.06462141 0.18048263 0.026296875 -0.022080949 -0.024868831 -0.058375403 0.014320881 0.008718677
-0.06204403 -0.06429865 0.038241427 0.021794895 -0.14600964 0.026050132 0.052950226 0.051749192
0.11211659 -0.045154158 0.09317714 -0.09963123 -0.012793041 -0.058522586 -0.01903899 0.10001117
0.094275594 0.005097031 -0.033939265 -0.037657846 0.0014211612 -0.01905757 0.05996663 0.052895218
0.08288637 -0.04936424 0.082181364 -0.016921148 -0.028947875 -0.043451425 -0.0060945665 -0.050782908
-0.011293078 -0.08138035 0.043361057 -0.07391774 -0.015415045 -0.058457114 0.012198126 0.07472635
-0.07102063 -0.085902505 0.07214849 0.06559147 0.06929834 -0.06885932 0.07032964 0.066045545
0.04177253 -0.008179668 0.09480649 0.04176645 0.03756465 -0.020781605 -0.046348233 -0.05194252
0.11425803 0.03708064 0.05922403 0.06975361 -0.07589249 0.02829484 -0.05005699 0.0033651092
0.025076982 0.0020901598 -0.02219287 -0.029370056 -0.115306646 -0.07199176 0.06537454 -0.06597251
-0.019545417 -0.011508026 0.023159536 -0.025380708 0.049314994 -0.021319197 0.057528686 -0.011877041
0.0046335314 -0.0059093605 0.10416042 0.014109466 0.041374996 -0.032642767 0.012311384 0.11488474
-0.103706695 -0.019656245 0.066109695 -0.047029544 -0.03222429 -0.0116853025 0.020152079 0.056474485
-0.016600562 0.0425082 -0.06953991 0.030208616 -0.05813173 0.05531285 -0.0549402 -0.08477667
-0.0041825236 0.043132022 -0.003732895 0.03675875 0.0013150543 0.05546193 -0.010096103 -0.13003854
-0.06349676 0.032858934 -0.011948502 0.07236083 -0.04976818 0.07290551 -0.047662806 -0.05348332
-0.020408468 -0.09159514 -0.016489524 0.017743425 -0.12463445 0.093579516 -0.0816365 0.05173438
0.038792413 0.0016834028 -0.060689256 0.0045346576 -0.04497967 0.084261216 -0.07862004 -0.037598427
-0.025684016 -0.06437861 -0.040404424 0.017088585 -0.022017872 0.005752991 0.08251894 -0.006581398
-0.063451946 -0.04270173 0.101653434 -0.018504612 -0.08814542 0.0542801 -0.007371094 0.018968329
0.004207134 0.12554373 -0.0646755 0.028054537 0.15048562 0.01362761 0.044329982 0.07001274
0.113633655 -0.030874308 -0.098099545 -0.050729718 -0.09584195 0.011936583 0.06868822 0.07089789
0.02807037 0.012023354 0.03683848 0.0647746 0.069576815 0.00769474 -0.01470698 0.021611549
-0.0026245906 -0.033633083 -0.017557116 0.091152094 0.06288843 -0.03320705 -0.032747105 -0.06389225
0.009939385 0.065479115 -0.079432815 0.07925788 -0.08105574 -0.09236781 -0.015096933 -0.00038815814
-0.012282947 -0.041307278 -0.052548442 -0.07492986 -0.06501964 -0.06923433 0.06288201 -0.074877486

layer2.bias f4 [128]
00000000: 9ef1 01bd 2c58 2cbd fb67 d4bc df52 1d3c
00000010: 0506 01be bc88 833d 251f 76bd 2b93 313e
00000020: eb7b ccbc 44bd 863b c3e6 1f3d 0a99 c83d
00000030: 8ef6 e1bc 63ff 73be 11e0 d53c 6b6d d4bc
00000040: d02c b5bd aa3d 48bc 1c84 91bc cb75 d23d
00000050: c96c 093e 2e89 8b3d e713 373d 74b4 4d3c
00000060: 113b ad3d 9d9f 11be d84e 7dbc dbcd 133a
00000070: 4181 1e3d c7fa 1c3d 5960 233e fb1a d9bd
00000080: ab0a 6fbd a018 503d 6067 d83b 5aec 6e3d
00000090: 6611 143e 6915 e13b 15b0 82bd 32d1 e6bc
000000a0: 5d7f 14be af4f ab3d 3f5f d93c 24ce d6bd
000000b0: c84d 5f3d 61ef cb3d 0cc3 133e be74 9ebd
000000c0: 9160 fc3d d15c c53c 58a8 0d3d 5172 2cbd
000000d0: efd0 b53d 7e5a ad3d 4da7 3abb b1b8 afbd
000000e0: 19a8 8a3d bc7e 21be 6670 903d 65f3 ac3d
000000f0: 7e3a fd3c f9de 313d 231e b3bd 7ad2 a73c
00000100: 037b d43b 8dd2 97bd 8d37 513c 926f bbbc
00000110: db2a 143c 123d 6d3c 2062 0abd e0f8 33bd
00000120: 31da 1a3e fdca de3d 9b2e a5bc 85bc 3ebd
00000130: c3c2 a63c c246 12be 8d76 41bd 9f79 bdbd
00000140: a55b 073d 5ffb aebc fa1b ad3d 957e aabd
00000150: 1f94 9dbd 069d a3bc 6cb9 d3bd ab3b 1abe
00000160: a522 78bd 3b93 e7bb 585c 443d 4ec8 e23d
00000170: 46b8 153a 089b 3b3e c965 d13d 69d5 263b
00000180: 6d75 adbd a9fa bcbc d852 f93b e64d df3b
00000190: bad9 983d 7b7e 123e 5cf4 0fbd 0a69 b73d
000001a0: 7c54 8a3d 6c6a cd3d 1a1c 03bd 7b6c 843c
000001b0: 5256 cc3d 8771 17be 435b 4cbd b892 6fbd
000001c0: 374b b83d 776a 1b3c bfde 593c 2478 b63c
000001d0: 7faf a43d 0e2c 93bd 2ef5 05be c261 02bd
000001e0: 2dbc 01bd 3cd0 60bd 3f2f c6bc 2bfe 0e3b
000001f0: 86e5 1ebe 5afb 41be 5410 4e3c 5853 81bd
-0.031724565 -0.042076275 -0.025928488 0.009602278 -0.12599953 0.064225644 -0.060088295 0.17341296
-0.024961432 0.0041119177 0.03903843 0.09794815 -0.027583387 -0.23827891 0.02610782 -0.02593108
-0.08846438 -0.012221733 -0.01776319 0.102763735 0.13420404 0.06813274 0.044696715 0.01255523
0.08458532 -0.14221044 -0.015460692 0.000563828 0.038697485 0.038325097 0.15954722 -0.10600849
-0.058359783 0.050804734 0.00660412 0.05833087 0.14459762 0.0068690074 -0.06381241 -0.028175924
-0.1450171 0.08364808 0.026534675 -0.10488537 0.054517537 0.09957767 0.14429873 -0.077371106
0.12323106 0.02409211 0.034584373 -0.042101208 0.088777415 0.08464526 -0.0028481067 -0.08580149
0.06770343 -0.15771002 0.07052688 0.08444861 0.03091168 0.043425534 -0.087459825 0.020486105
0.0064843907 -0.07413206 0.012769592 -0.02288035 0.009043421 0.014479892 -0.033784986 -0.043938518
0.15122296 0.10878561 -0.020163825 -0.046566505 0.020356541 -0.14284804 -0.0472322 -0.09251713
0.033046383 -0.021360097 0.08452602 -0.08324925 -0.076942675 -0.019972336 -0.10338101 -0.15061824
-0.060579915 -0.007067112 0.04793963 0.11073361 0.0005711358 0.18320858 0.10224492 0.0025456792
-0.08469663 -0.023068743 0.0076087527 0.006814706 0.07463403 0.14306061 -0.03514515 0.089555815
0.06754395 0.10030064 -0.03200922 0.016165009 0.09977402 -0.14789401 -0.04989172 -0.05848953
0.08998721 0.009485832 0.013297736 0.022274084 0.08041286 -0.07186137 -0.1308181 -0.03183151
-0.0316736 -0.054886088 -0.02419245 0.0021818976 -0.15517244 -0.1894354 0.012577135 -0.06314725

layer3.weight f4 [128, 128]
00000000: cf5e 97bd a36b 9d3d bed4 083d d50b d6bb
00000010: e686 7bbd 0459 73bd 1af4 69bd e709 853d
00000020: c1fe 853d e208 9b3d 2847 eb3c 1383 723c
00000030: 8227 3dbd d2bb 4dbd cfaa a03d 8127 a53d
00000040: 795c cb3d e23d 243c 4032 7b3d 7e52 bb3b
00000050: b23f 37bc 17b6 67bc d081 57bd 6bc5 a6bd
00000060: 5a31 30bd 692b 15bd a35b 9c3d 3d3f 61bd
00000070: ad00 a5bc e1ad c83c 4180 b13c 3aed 753c
00000080: 34c3 543d 5644 a1bd 27f3 013c 0fce d6bd
00000090: 8ed0 083a 71a5 8e3d 782b 6b3d e1b9 ed3c
000000a0: 9d34 afbd 5c09 963c f9a3 ee3a ff43 c6bd
000000b0: ebb5 c7bd 1433 66bd a52b 113d ed21 653d
000000c0: 5137 e1bd ad15 42bd 678d 033d f31e 3cbd
000000d0: d3a1 983d 5002 3a3d c3dd d5bc 4eeb e43d
000000e0: 2a60 55bc a91c d8bc 8ac9 a2bb e64d 67bd
000000f0: 8984 6c3d 5168 88bd 2d10 8f3d 2316 01bd
00000100: dbb0 71ba 56d1 30be c909 52bd 7773 d03c
00000110: ef96 dfbd d088 6e3d 2bd6 01bd 58e7 63bd
00000120: 93f3 833d 0581 7d3c d9d9 a63c 528f acbc
00000130: 0551 833c 6d58 0a3d c82c 9dbd f1bd 80bd
00000140: b996 aabd 362d 0fbc 1b0a 473d a175 a2bd
00000150: da26 a53c 5358 66bd f9fe a93c ce91 a73d
00000160: 413b cabc 811d 573d d796 b43c e59b da3c
00000170: 5bc2 af3c 73ec 5ebd b113 553d a05d 513d
00000180: 3deb b73d 6a82 ca3c 9be8 2abd 63eb e2bc
00000190: facd 773d 2930 d3ba 74a9 6bbc cd25 413d
000001a0: e2dd 42bc 6b4e 0a3e 8d41 3d3d bfec 93bd
000001b0: 8bc6 943d 3d39 063d 1148 bdbd 07c1 4bbd
000001c0: bf62 eb3c 7ae9 0c3d f243 b63d 8156 853c
000001d0: 862d 8c3d 463a 8dbd 0891 9a3d 1692 303d
000001e0: 07e7 ee3c 6456 8abd b632 e4bd 11cc 05bd
000001f0: fb08 2f3d d72e 4f3b 8079 4c3c 6097 d93a
00000200: 5f65 df3d b9d9 2b3d a1d7 63bd abcd cd3c
00000210: 68bd e3ba 7216 fdbb 1396 f9bd d0cc fd3d
00000220: f87d dc3c 4843 d8bc b598 b7bd b29d 003d
00000230: f3fc c5bc 00bc 2dbd cd2f f83b a029 ee3b
00000240: f5ee dd3c e71b f4bd 7096 32bd 4383 27bc
00000250: ee11 b93d 3ad5 08bd a0fd e2bc 2227 bd3c
00000260: 57c5 393b b738 95bd 62d7 d93b 1edb 393d
00000270: 954b c83c fc56 c9bc 8f78 713d 6b7d 24bd
00000280: a643 aa3d 99c5 5b3d 2704 a53d 940d b23c
00000290: 9ef7 433d 5b93 32bd 092c 01bb 5a42 d33c
000002a0: ef96 b2bd 15fa 0ebd c25d 8cbc c9b5 f63d
000002b0: c521 653d 8b70 ee3a 9067 abbc 2072 9fbd
000002c0: e31d 093e ae92 983c f581 ebbc a51c 60bd
000002d0: e60b 74bc 304d 5d3d 7241 5c3d e5a8 efbd
000002e0: 3b36 d2bc 447d eabc d5b8 033e 2865 ccbc
000002f0: bf52 fdbc 851b 7d3d da02 d8bc 2b82 a9bd
00000300: 044b 023d 93f6 053e 5d16 c0bd e6a7 a33d
00000310: 47e0 653c 7b1c d53d 5ef4 b33c 1247 98ba
00000320: 7e7f 3abd e34f bb3d 56d6 a9bc f784 843c
00000330: dbfb 673d 5fc1 25bd e0a9 93bc 40e4 d53d
00000340: 6844 da3d 74d7 573d 6bdc 82bd e2ce a4bc
00000350: 48aa c2bc 4250 9a3a 02de 5fbd 7c97 ec3c
00000360: 8184 b0bd 0117 7abd ac96 08bb 818b e73c
00000370: 3954 fc3c 6ef1 12bb 540d 923b cb6e 25be
00000380: fa31 b23d 64e0 df3d 76be 98bd 595a ecbd
00000390: 5a73 d9bd 554a a3bd 731f e33c f777 b1bd
000003a0: 02f0 02be e5bc 2fbd ceb0 2cbc 95d6 1cbd
000003b0: d473 583d 6901 95bd 6bbe 05bd 1109 4ebd
000003c0: e640 8f3d 655a 33bc 853b 23bd d8fb 2bbc
000003d0: 09ed 74bc 7a79 6b3d ded1 3abd 7fcc 42bd
000003e0: 52c9 43bd 39a8 b7bd 441e c33d 287f a5bc
000003f0: 26f2 8cbc 7e07 0a3d 94e7 54bb 8e84 bd3d
-0.0739113 0.07686546 0.03340601 -0.006532172 -0.061407946 -0.059411064 -0.05711756 0.06496029
0.06542731 0.07570054 0.028720453 0.014801758 -0.046180256 -0.050227948 0.07845079 0.080641754
0.09929747 0.01002452 0.06132722 0.005716621 -0.01118462 -0.014142535 -0.052614033 -0.08143123
-0.043015815 -0.036418352 0.07634666 -0.05499195 -0.020141924 0.024496974 0.021667602 0.0150101725
0.051943973 -0.07874362 0.007931507 -0.10488521 0.00052190654 0.06965149 0.057414502 0.029019298
-0.08554957 0.01831501 0.0018206827 -0.09680938 -0.09751495 -0.056201056 0.035442013 0.055940557
-0.10996879 -0.047383953 0.032117274 -0.045927953 0.074527405 0.04541236 -0.02610672 0.11177693
-0.013023416 -0.026380854 -0.004967873 -0.056470774 0.057743583 -0.06660522 0.06985507 -0.03151525
-0.0009219774 -0.17267355 -0.051278863 0.025445683 -0.1091746 0.058235943 -0.031698387 -0.05564055
0.064429425 0.015472655 0.02036755 -0.021064434 0.016029844 0.033775736 -0.07674557 -0.062862284
-0.08329529 -0.0087388065 0.04859362 -0.07932592 0.020160127 -0.056236576 0.020751463 0.08182107
-0.024686458 0.05251837 0.022044582 0.026685664 0.02145498 -0.054424714 0.052020732 0.05111468
0.08980415 0.02472039 -0.041725736 -0.027700132 0.06049917 -0.0016112375 -0.0143836625 0.04715519
-0.011893721 0.13506477 0.046205092 -0.0722289 0.072644316 0.03276943 -0.09242261 -0.049744632
0.02873361 0.034402348 0.08899678 0.0162766 0.068446204 -0.068958804 0.07547194 0.04310807
0.029162897 -0.06754759 -0.11142485 -0.032665316 0.042733174 0.0031613612 0.01248014 0.0016600899
0.10908007 0.041955683 -0.05562556 0.025122484 -0.0017375173 -0.007723623 -0.121868275 0.123925805
0.026915535 -0.02639927 -0.089646734 0.03140039 -0.024168467 -0.04241562 0.0075740577 0.0072681457
0.027091483 -0.119193844 -0.0436005 -0.010224166 0.09036623 -0.033406474 -0.027708828 0.023089949
0.0028346383 -0.07286208 0.00664799 0.045374982 0.024450103 -0.02457761 0.058952864 -0.04015867
0.08313684 0.05365524 0.080574326 0.02173499 0.047843568 -0.04359756 -0.0019710085 0.025788475
-0.087201945 -0.034906466 -0.017134551 0.120463915 0.05594041 0.0018191499 -0.020923406 -0.077854395
0.13390307 0.01862463 -0.028748492 -0.054714818 -0.014895415 0.05402869 0.05377335 -0.11702136
-0.025660625 -0.028624184 0.12863477 -0.024950579 -0.030923245 0.061793823 -0.026368547 -0.08276781
0.03180982 0.13082342 -0.093792655 0.079910085 0.014030523 0.10405823 0.02196711 -0.001161786
-0.045531742 0.091460966 -0.020732086 0.016176684 0.056636672 -0.040467616 -0.018025339 0.10443926
0.10657579 0.052695706 -0.06389698 -0.02011818 -0.023762837 0.0011773186 -0.054655083 0.028880827
-0.08619023 -0.061057094 -0.002084176 0.028264763 0.03080188 -0.0022421735 0.0044571552 -0.16155545
0.087009385 0.10931471 -0.074582025 -0.1154067 -0.10617705 -0.07973162 0.027724957 -0.086654596
-0.12786868 -0.042904753 -0.0105402 -0.03829058 0.052844837 -0.072756596 -0.0326523 -0.050301615
0.069948 -0.010946845 -0.039851684 -0.010497056 -0.014949092 0.057488896 -0.0456103 -0.047558304
-0.047799416 -0.08967633 0.09527257 -0.020202234 -0.01720531 0.03369855 -0.0032486664 0.092537984

layer3.bias f4 [128]
00000000: 3261 263d c865 3a3d e00e 4cbb 9a51 4ebd
00000010: a9f5 373c f369 4b3e 3a05 4ebc 7bc4 d83d
00000020: 338a 5d3d 3284 febd 7a8b b4bd 4003 6abc
00000030: 7f19 fa3c 45bd 593d 9157 593d 9b9a 5d3d
00000040: cd8b 96bc d7a3 a6bd 9eeb 6f3d a625 a0bd
00000050: 1f53 99bd 3b47 b0bd b70d 523d 2043 91bd
00000060: c634 243e eda4 31be cc7a 8fbd 3950 5e3e
00000070: f0c4 243e 2f04 debd ea5e 223e aae0 373d
00000080: 55a9 d53c fc30 20be 1771 ddbd b5b8 413c
00000090: c611 e3bd 3124 973d c916 8cbd 83cd 2d3e
000000a0: 755d ac3d 6d6c 92bd 4af4 debd 0780 1e3e
000000b0: ce29 0cbe 7070 64bd 463f 453e c78e a03c
000000c0: 7bbf 783d 8da2 863d b099 8f3d 47ca 933d
000000d0: 5934 043e 9483 dfbd 570e 203e 491e 0f3d
000000e0: cea1 b53d a002 f63d 8465 453e fb27 d4bd
000000f0: 6468 62bd b747 d73d c4f7 953d 8d61 55bd
00000100: 3b37 9dbd cb5b a83d 6f56 d03d d23c eebd
00000110: 35d8 87bd fec5 813d 89fb 5dbc 78dd 32bd
00000120: 4d1a 893d 82a7 823d 4645 00be 7d76 b0bd
00000130: b6e8 a83d 928e 433d 81e7 853d 46e2 893d
00000140: 309c 683e ae22 523c 0759 61bd 656e 82bd
00000150: a059 d5bd 64c3 953d 8a10 3b3e 0370 69bd
00000160: 5625 f53d d0d4 ae3d 333a d53d c063 f13d
00000170: 199a f6bd 17bc d33b 6aa0 05be ef5b 20bd
00000180: 0bc7 243e 3b24 2cbe 562b b73d 9947 dfbd
00000190: 9bce 40be 7e2e 4b3d 7536 223d 519b a93b
000001a0: 7149 143e 9bf0 373d 2885 443e e1d4 123b
000001b0: c427 113e 1be6 0cbe 6531 093e 2cc9 27bd
000001c0: 9edf 39bd 0576 e4bd fc1c bcbd ae2a 2cbe
000001d0: be0c 06be 32ee 04bd a174 37bd 1b5b 4cbd
000001e0: e2fe bf3d cedb 3abc 3dfc 00bc 4959 02bc
000001f0: 1d1b 12bd 3e2f b8bd 4d38 bdbd 9fa2 bd3d
0.040620036 0.045507222 -0.0031136796 -0.05037079 0.011228004 0.19864635 -0.012574488 0.10584351
0.054086875 -0.12427558 -0.088156655 -0.014283001 0.030529736 0.053159017 0.053062025 0.05410252
-0.01837721 -0.08136719 0.05857431 -0.07819681 -0.07486557 -0.08607336 0.05128261 -0.07092881
0.16035756 -0.1734807 -0.070058435 0.2171029 0.1609075 -0.10840642 0.1585652 0.04489199
0.02608172 -0.15643686 -0.10812586 0.011823823 -0.110873744 0.0737995 -0.068402834 0.16972928
0.08416263 -0.07149587 -0.10886438 0.15478526 -0.13687822 -0.05577129 0.19262418 0.019599332
0.060729485 0.06573973 0.070117354 0.07216316 0.12910594 -0.109137684 0.1563047 0.03494099
0.088687524 0.120122194 0.19277006 -0.10359188 -0.055275336 0.105117254 0.07322648 -0.052094985
-0.0767655 0.08220633 0.10172736 -0.11632694 -0.06633035 0.06336592 -0.01354874 -0.04366824
0.066944696 0.06379606 -0.12526426 -0.0861635 0.08247511 0.047743388 0.065382965 0.06732611
0.22715831 0.012825651 -0.055016544 -0.06368712 -0.10417485 0.073126584 0.18268028 -0.05699159
0.11970012 0.085366845 0.10411491 0.11786604 -0.120411105 0.006461631 -0.13049474 -0.039150175
0.16091554 -0.16810696 0.089438125 -0.10902328 -0.18828814 0.049604885 0.039602716 0.005175986
0.1448114 0.044907194 0.1919142 0.0022404718 0.14175326 -0.13759653 0.13397749 -0.040963337
-0.045379274 -0.11155323 -0.09185216 -0.16813156 -0.13090798 -0.032453723 -0.04478896 -0.049891572
0.09374787 -0.011404945 -0.007872638 -0.007955858 -0.03567039 -0.08993386 -0.09239254 0.09259533

layer4.weight f4 [128, 128]
00000000: 8d81 94bd c664 bf3d 5c0c 9f3d 7986 5b3d
00000010: 3d9f 1a3c d2e1 5dbd d0ae 9cbd c48b a8bd
00000020: 0ff6 af3c 5265 1f3d 0fae 4dbd 8058 b5ba
00000030: 451f 14bd 5ee7 163b 715c 99bc 3885 1cbd
00000040: c651 4b3d cefc 003c 0bdb 1a3b 7000 cd3c
00000050: a898 093c 0a1e 12bd 2701 49bc 0385 8dbd
00000060: 8e89 383d c42b 40bc d427 633d 5012 debc
00000070: 2117 633d f86a a03d ae79 6dbd f01b 2a3d
00000080: 1ad6 2fba eca6 00bd 80f0 fdbc a831 24bd
00000090: 4331 05bd afdb ab3d 3bc1 4dbd 63fb 583d
000000a0: 21cc 9dbc 4704 a13c f7d4 88bd f66d 88bd
000000b0: 6df3 ba3d db1a 28bd 1f11 0f3d 3ed9 513d
000000c0: e949 063d 7cae a03c 1c56 00ba 170f 973c
000000d0: bc71 96bd c919 9fbd 9cd3 413d 92bf 633d
000000e0: 3c5a 14bd 419c 36bd 7686 cb3d 44e8 c4bc
000000f0: 659a 25bd fff9 0cbc 98b1 1ebd 2078 1dbb
00000100: fa29 aabd 4d56 50bd 02f6 363b 03ec 313b
00000110: 092a 023d 22e1 9b3d ca63 6ebd 54cb ed3c
00000120: 58d3 90bd 766a 90bc 029c b0bb 9623 89bd
00000130: 69c1 0e3d 9f38 23bd 646a abbd 74f7 bd3c
00000140: 26f9 df3c 8c10 2f3c e4ff 0bbc 32de 6a3d
00000150: be78 de3c 8b18 84bd f0ac a13d f44e 8cbd
00000160: 5281 a03d 7d4a afbd e549 6c3d fae4 1a3d
00000170: 6566 7cbd cd0a e73c 7d73 653d a6c0 3cbd
00000180: 6c6d cf3d a22c 063d 8a02 223c 5429 343d
00000190: 3a9f 973c f8e0 c13d 1324 fcbb 2959 9dbd
000001a0: 88f2 5abd 8248 733c 7a25 8a3d ea8e a1bd
000001b0: d9c0 993b a751 123d 66ae 9bbc e298 12bd
000001c0: 3eac 393d eba5 ee3c 187a 8e3d 99f6 64bd
000001d0: 1ed3 f4bb 215c 2cbd 06d9 72bc 6fd8 ae3c
000001e0: d075 08bd d17b 403d 4fe8 7d3d d9de ccbd
000001f0: 679a 7abd 2b33 a6bd f698 7cbd 531a 213d
00000200: fc64 fabd 4e55 993d a7e5 bbbd 2c48 07bd
00000210: 440d 523e 75be 5a3e 0872 6abc 7488 773e
00000220: 4c70 683d 70d4 b13d 8eb7 23be 8f2b 60bd
00000230: 0caf f93d 6051 443c a7e3 b93d 1749 3dbe
00000240: a92c 1dbe b590 e53b 01ef 17be 6b5f 1b3d
00000250: 6498 96bc 27a4 84bc a49b a73d 6262 5d3d
00000260: 7fc6 0fbe f5e3 30be 0ef6 8c3c bb55 3cbe
00000270: 5226 373e 24ad 2b3e 5894 fd3c 1a4e e4bd
00000280: fece bcbd 0561 e1bc 55bb 23be 0d04 1d3e
00000290: f536 bebd 461b 85bb c9b9 6d3d 8e17 eabd
000002a0: ea19 d93d 643f e3bd e761 1b3e 29d4 023d
000002b0: 7b9f 8e3e 892b ddbd 1297 2b3e 2d2a cc3d
000002c0: 7032 203e 73f0 6b3d 2886 4ebe a98e ce3d
000002d0: cb73 d9bd ca08 67bd 41e1 103d 8f4b fe3d
000002e0: cc62 63be e041 cabd 591e 0c3e c3dd b5bd
000002f0: f0e2 42bc 5aa7 dd3c 2ed2 273e 1a65 e4bc
00000300: 3f1a d0bd c0b3 a13d 5166 2dbe 0a35 abbd
00000310: eebd 113e bf22 093c eaea 6d3c 469a a8bd
00000320: 01a3 023e b74d 81bd 239c 653e a3c7 41bd
00000330: 6583 1fbe af69 20bd 7659 f13d da48 a2bd
00000340: 5ba7 8fbd c022 1b3e 7f2a b5bc 5c0c d23d
00000350: d711 533e b3d0 b1bd aa0b 7b3e e1bc d1bd
00000360: ec1a ff3d 254e fcba bb75 9d3d 24fe 08bd
00000370: eb8d cd3d 84d4 b13d c367 88bd e5e9 023d
00000380: 7a60 bb3d 5224 48be 5209 763d 16fe f2bc
00000390: 4a51 63bc 841a 83bd 246b 683d 9b67 48bd
000003a0: 9c3f 07bb c52e 98bb bf57 b83d f72b 1fbd
000003b0: f13e 63be e265 1abe 0fe2 04be ecca 22be
000003c0: 1709 b0bd cb62 eb3c 8425 563c 6ec4 64bc
000003d0: ca8c 79be d3d9 4fbc 8272 b53d 270f e8bb
000003e0: 759b 283d 488a a1bd b236 c03b 4656 803e
000003f0: c5d3 5dbd 2555 a03d 3464 0d3d 32ab 113d
-0.07251272 0.09345393 0.07766029 0.05359504 0.009437379 -0.054170437 -0.0765053 -0.08229783
0.021479635 0.038914986 -0.050214823 -0.0013835579 -0.036162633 0.002302609 -0.018720837 -0.038212985
0.049638532 0.007872773 0.0023629095 0.025024623 0.0083982125 -0.03567318 -0.012268341 -0.069101356
0.045053057 -0.011729185 0.055457905 -0.027108341 0.05544198 0.07832903 -0.05797737 0.04153055
-0.0006707624 -0.03140919 -0.030998468 -0.04008642 -0.032517683 0.08391511 -0.050233107 0.052974116
-0.019262375 0.01965536 -0.06681245 -0.066615984 0.09128461 -0.041041236 0.034928437 0.05123257
0.03278533 0.01961445 -0.0004895644 0.018439813 -0.07345912 -0.0776859 0.047320947 0.055602618
-0.036218867 -0.04458261 0.09937756 -0.024036534 -0.040430445 -0.008604526 -0.038743585 -0.00240279
-0.08308788 -0.050863553 0.0027917628 0.002714873 0.03177837 0.076113 -0.058200635 0.029027618
-0.070715606 -0.01762889 -0.0053896913 -0.066962406 0.03485242 -0.03984892 -0.08369902 0.023189284
0.027340483 0.010685097 -0.008544896 0.05734081 0.027157184 -0.06449994 0.07894313 -0.068509966
0.07837166 -0.085591294 0.05768766 0.037816025 -0.06162109 0.028203392 0.05601834 -0.04608216
0.101282924 0.03275741 0.009888301 0.043984726 0.018508542 0.094667375 -0.00769473 -0.076830216
-0.053453952 0.01484883 0.06745429 -0.07888587 0.0046921787 0.0357224 -0.019004058 -0.03579033
0.04533028 0.02913185 0.06956881 -0.055899236 -0.007471456 -0.04208005 -0.01482225 0.021343438
-0.03331548 0.04699308 0.061989125 -0.10003442 -0.061182406 -0.08115228 -0.061669312 0.039331745
-0.122262925 0.07486974 -0.09174662 -0.033027813 0.20512873 0.21361716 -0.014309414 0.24173146
0.05674772 0.08683097 -0.1598799 -0.05472904 0.12191591 0.011982292 0.09076624 -0.18484913
-0.15349068 0.007005776 -0.14837267 0.037932795 -0.018383212 -0.016191555 0.08183983 0.054048903
-0.14040564 -0.17274459 0.017207172 -0.18392079 0.17885712 0.16765267 0.030954525 -0.11147709
-0.09219168 -0.027512083 -0.1598943 0.15333577 -0.09287826 -0.004062089 0.058038507 -0.11430274
0.10600646 -0.11096075 0.15174066 0.031940613 0.2785605 -0.10799319 0.16756848 0.09968982
0.1564424 0.057602357 -0.20168364 0.10085804 -0.10617789 -0.056404866 0.03537107 0.124167554
-0.22205657 -0.09875846 0.13683452 -0.08880188 -0.011894926 0.027057339 0.16388771 -0.02788024
-0.10161256 0.07895613 -0.16933562 -0.08359726 0.14232609 0.0083701005 0.01452134 -0.0823255
0.12757494 -0.06313651 0.22422843 -0.04730953 -0.15577467 -0.039163288 0.117846414 -0.079240516
-0.070143424 0.15149975 -0.02211499 0.102562636 0.20612274 -0.08682384 0.24516168 -0.10241104
0.12456307 -0.0019249363 0.07688471 -0.033445492 0.10036834 0.08683112 -0.06660416 0.03196134
0.09149261 -0.19545105 0.060067482 -0.029662173 -0.013874361 -0.06401542 0.056742802 -0.04892693
-0.002063728 -0.0046442472 0.09001111 -0.038860288 -0.22191979 -0.15077928 -0.1297686 -0.15897721
-0.08595484 0.028733632 0.013070468 -0.013962848 -0.24370113 -0.012686211 0.08859731 -0.0070818844
0.04116388 -0.07887703 0.005865895 0.2506582 -0.054157037 0.0782874 0.03451939 0.035563655

layer4.bias f4 [128]
00000000: 78f7 9fbb a48c 723e 5e9b 77bd dc9b 443d
00000010: 1b36 f43d 8b7c 96bb b43b aa3a b3f0 47be
00000020: fe31 06bc 910b 10bd 22c3 0bbd 4597 5b3e
00000030: 4d50 c03d 9a67 c73d bf7b 433e 4f1f 6f3d
00000040: 3690 9f3d 73fa 94bd 1ace ec3d 683f 133d
00000050: d814 6bbd 6118 db3c 95bc e13d fb6f 94bd
00000060: 08af c0bd ab78 4fbe 50a6 923b 38be 01be
00000070: cadc 823d 3786 6ebd 7746 9cbd 3545 37bd
00000080: b420 da3b 4ffe 223e 2cdb b93d 5e62 243d
00000090: bee8 573e 161d 1abd 0c77 83bd 2483 503e
000000a0: c010 18bc d427 013e cdff 41bd e44d a73d
000000b0: e1a6 bfbd eacf de3c dc95 94bd b76d 7dbd
000000c0: 971f b63d aeda fbbd 75be 183e e055 123e
000000d0: 8327 f1bd cdf7 5b3d ffab 0cbe 759d c33d
000000e0: 5029 8fbd 0add 90bc 6b55 823e a9f2 123d
000000f0: f81a 6d3d 6de7 fa3a e002 febc ce0d 71bd
00000100: b28b ef3d 12bf d1bd 3876 613d b47a ec3d
00000110: 8cd5 0f3d 14b8 a43d 9aa6 b9bd e1b8 3a3e
00000120: 4ff2 983d 1ca3 fbbd d9e2 73bd a9ee d3bc
00000130: eca1 f03d 83f9 b73d e905 eabd 1b26 0f3c
00000140: 9391 3bbd 9faa c3bd 5243 063e 2100 bdbc
00000150: b073 193d 7c35 553c 83b0 9f3e c0e6 78bd
00000160: e606 4e3c 6faa 7cbd 9308 4d3d 989a 57bd
00000170: 95b0 a13d eb53 3bbd be47 01bb b9f4 a23c
00000180: b977 f23d bff0 05bd c86c 4ebd f7f9 473d
00000190: b762 cd3c d278 3f3d 1d7f f23d e015 b0bd
000001a0: d7a6 043e ab03 0bbd a06e cebd 0d99 c0bd
000001b0: 63a5 e63d 0bc0 063e cf18 473d 9e15 b5bd
000001c0: 94c6 3fbd 2923 df3d 8601 5c3c f7d1 76bd
000001d0: 7efc 8a3d 8302 cc3c 7a66 c53c be97 d63d
000001e0: f715 cd3c 4b15 58bc ff97 ed3c da9b dcbc
000001f0: 8859 e03d d245 6b3c cb7b 583e d23b 803c
-0.0048817955 0.23686463 -0.060450904 0.0480002 0.11924382 -0.0045924834 0.0012987764 -0.19525413
-0.00819063 -0.03516728 -0.03412164 0.21444423 0.09390316 0.09736557 0.19090174 0.058379468
0.07791178 -0.07274332 0.11562748 0.03594914 -0.057392925 0.026745023 0.11022297 -0.07247921
-0.094083846 -0.20260875 0.0044753924 -0.12670219 0.063897684 -0.058233466 -0.076306276 -0.044743735
0.0066567305 0.15917324 0.09075007 0.040132873 0.21084878 -0.037625395 -0.06419191 0.20362526
-0.009281337 0.1261285 -0.04736309 0.08169153 -0.093580015 0.02719875 -0.07255146 -0.06187221
0.08892744 -0.12297569 0.14916404 0.14290571 -0.117751144 0.053703118 -0.13737486 0.09551517
-0.069903016 -0.017683525 0.25455794 0.03587595 0.057887048 0.0019142457 -0.03100723 -0.058851056
0.11696567 -0.10241522 0.055044383 0.11546841 0.035115764 0.080429226 -0.0906498 0.18234588
0.07468092 -0.1228697 -0.05954251 -0.025870638 0.11749634 0.089831375 -0.114269085 0.008737112
-0.045793127 -0.09554028 0.13111618 -0.02307135 0.037463844 0.01301324 0.31189355 -0.060766935
0.012574887 -0.061685976 0.050057005 -0.052637666 0.078950085 -0.045734327 -0.00197266 0.019892083
0.118392415 -0.032700296 -0.05039671 0.04882237 0.025071485 0.046746083 0.11840651 -0.08597922
0.1295427 -0.033939045 -0.10079694 -0.09404192 0.11262014 0.13159196 0.048607644 -0.08842014
-0.04682024 0.10895378 0.013428098 -0.06025883 0.0678644 0.024903541 0.024096716 0.10478161
0.025034888 -0.01318867 0.029003141 -0.026929785 0.10954577 0.014359908 0.21140973 0.015653525

input_norm.weight f4 [8]
00000000: 7e51 a13f aafd 5b3f 761a 743f b7c5 533f
00000010: 2742 4d3f 9622 833f 944f 173f 92f8 3a3f
1.2602994 0.85933936 0.95352876 0.82723564 0.80179065 1.024493 0.591058 0.7303554

input_norm.bias f4 [8]
00000000: 02b5 863e 28e8 5f3e 9311 fc3e 392b d53e
00000010: 3c19 b43d ac66 923e 44d3 8b3e 3397 cb3d
0.26309973 0.21865904 0.49232158 0.4163454 0.087938756 0.28593957 0.2730962 0.09940948

input_norm.running_mean f4 [8]
00000000: db86 6340 4786 333d 517e 91bf eabc 6040
00000010: 4c1d 3f3d d2be e83c 86cd ebbd 2099 7e3e
3.555106 0.04382923 -1.1366674 3.5115304 0.0466588 0.028411303 -0.1151381 0.248631

input_norm.running_var f4 [8]
00000000: 7f1c 7040 38e7 8f3b b022 0940 c882 af40
00000010: bed7 6a3e 962d 0c3b 4de5 2d3f 4d83 3f3e
3.7517393 0.004391577 2.1427422 5.4847145 0.22933862 0.0021389476 0.6792801 0.18702431

norm.weight f4 [128]
00000000: eeb8 513f 5659 833f 3272 5e3f 6438 523f
00000010: 03a5 553f 36b1 593f 0859 5b3f 9f93 593f
00000020: f4c3 5d3f cc98 523f 2d1c 673f d94d 663f
00000030: 9f93 4e3f d492 613f e2d4 653f f0d6 613f
00000040: 5bfe 4c3f 2069 553f 74bb 6b3f a1ac 643f
00000050: 6d0f 593f 7ae5 653f 941a 6a3f 7029 613f
00000060: 85f4 613f 5d77 663f 4a85 523f ef75 8d3f
00000070: a52e 4a3f 3e22 4d3f 8ae0 6b3f 6ffa 613f
00000080: 77d8 4d3f 76eb 5c3f 10c3 5e3f 35ee 623f
00000090: 2396 673f 8047 633f 7f61 4b3f 83c9 713f
000000a0: 7999 6a3f 48d2 5b3f 698e 783f d6a0 4f3f
000000b0: b9ed 5b3f e3cc 693f 246b 853f bd22 5b3f
000000c0: 65a6 6a3f 78a1 633f 0f17 653f 4230 5d3f
000000d0: 0e03 5a3f 9413 623f c44b 513f 12d0 5d3f
000000e0: bdf8 573f 16d1 803f 0403 643f 2a59 523f
000000f0: 308d 5d3f 6c6d 503f cbf9 623f 7a24 613f
00000100: 6ab7 563f d03f 5d3f 5a10 5d3f a7cb 5c3f
00000110: f1e0 483f c044 643f e351 643f 6636 5b3f
00000120: dd20 5d3f 3689 533f 268d 5a3f 2795 5e3f
00000130: 2e62 6e3f df38 633f 3714 593f 6e38 803f
00000140: 0161 5f3f 0026 5b3f 28c7 593f c6a5 573f
00000150: 0aba 5d3f 2c4d 533f 738a 753f 9a20 603f
00000160: 6928 5c3f 07e8 5d3f fa70 503f a6ca 5f3f
00000170: cf2f 4a3f f3b2 4d3f a0fb 503f f84b 653f
00000180: caa3 683f b73a 603f 43c8 653f 4de0 693f
00000190: ffe6 5a3f 9425 5f3f ef0c 503f 63c7 4b3f
000001a0: 8e4a 573f 80c1 6a3f fbf9 563f 3168 633f
000001b0: 513d 833f 8443 593f 5baf 5d3f 94e7 5a3f
000001c0: a91a 523f 9971 613f cb89 543f ceac 583f
000001d0: 7aaa 5a3f 7c0f 5c3f 246c 593f 7028 5d3f
000001e0: 4f10 4f3f 9245 6b3f 446d 5e3f 44df 523f
000001f0: 88d6 643f e059 5f3f 13e1 763f 502b 4f3f
0.81922805 1.0261638 0.86893 0.82117295 0.8345491 0.8503603 0.85682726 0.84990877
0.86627126 0.822644 0.9027737 0.89962536 0.80694 0.88114667 0.8977796 0.88218594
0.80075616 0.83363533 0.92082906 0.8932591 0.8478916 0.8980328 0.91446805 0.87953854
0.8826373 0.90025884 0.8223463 1.1051615 0.78977424 0.80130374 0.92139494 0.88272756
0.80408424 0.86296785 0.8701639 0.88644725 0.90463465 0.88780975 0.7944564 0.9444811
0.9164043 0.8586774 0.970923 0.8110479 0.8590961 0.9132826 1.0423322 0.8559988
0.9166015 0.88918257 0.8948831 0.8640176 0.8516091 0.88311124 0.81756234 0.86645615
0.8436392 1.0063808 0.890671 0.82167304 0.8654356 0.81416965 0.88662404 0.87946284
0.8387362 0.86425495 0.86353076 0.8624825 0.78468233 0.89167404 0.8918745 0.8562988
0.8637827 0.8263124 0.85371625 0.8694634 0.9311856 0.88758653 0.8479647 1.0017221
0.8725739 0.8560486 0.85069513 0.84237325 0.86612 0.8253963 0.9591438 0.87549746
0.8599916 0.8668217 0.8142239 0.8741859 0.789792 0.8035118 0.8163395 0.89569044
0.9087492 0.8758959 0.897587 0.9135788 0.8550872 0.87166715 0.81269735 0.79601115
0.84098136 0.9170151 0.8397519 0.8883086 1.0253087 0.84868646 0.86595696 0.8550961
0.8207193 0.8806396 0.83022755 0.8463868 0.85416377 0.8596113 0.84930634 0.8638983
0.8088426 0.9190303 0.86885476 0.82371926 0.8938985 0.87246513 0.96437186 0.80925465

norm.bias f4 [128]
00000000: 96ed d03d 6dea b43d e2c1 b53d 8e74 e6bd
00000010: 134e 093e 5778 d4bd d69b 0cbe b394 ddbd
00000020: af92 623e 71e6 023e 33f0 4f3e 3040 113e
00000030: 852f 0e3e e4c6 6d3e 863a 9c3e 9f75 c6bd
00000040: 1487 3d3e 6e31 e53d bcc9 2a3e 3593 9a3b
00000050: 9461 313d a842 0ebd 232e da3d d328 6bbd
00000060: 79a0 703d cef8 ef3a f734 093e 01f5 48be
00000070: 1608 b7be 9a43 0dbe 5658 17bc 84de 2f3e
00000080: 965d 75bc 80c0 1dbe 5f5c 4bbd 41f2 7dbe
00000090: f0f9 72bd 0eed 49bc b6da 853d 1592 3a3e
000000a0: 17dc 0e3d de47 4f3e 06a6 cc3d 0a27 8b3e
000000b0: 3984 13bd 87e0 ce3a 079d 173e 6c86 8fbe
000000c0: c52a 053e ebad 69be 0be1 9b3d 741e 443e
000000d0: 55e4 563e d8e9 4fbe 3b52 2dbd 2833 8abd
000000e0: f910 c33d 7af4 183d 1961 2d3e ac58 c43e
000000f0: 6377 0bbe 80d5 063e 575d 30be e767 b03e
00000100: 860f 023d 1011 79be d296 88bd fd4a 973d
00000110: 0b8b 673e 675d 38bd 81ac a33e f7f9 d43d
00000120: 92c6 0f3e fbd4 5abe 8a26 e53d 538e 653e
00000130: aa1f a6bd c736 96be 4503 9ebd 09e9 babd
00000140: db0b b13c e18d 123e bd83 02be 2936 b6bd
00000150: 01b1 113d 26ba 04bd df56 b53e e8f7 1c3d
00000160: ccea c5be 2a91 ea3c 39fc 023e 5b71 483e
00000170: 0050 26bc 5786 663e 82f9 9d3c c8cb 8a3d
00000180: 2882 8b3d 4e63 cebd 986f 9abe d68a 0d3e
00000190: f811 743d e76f e1bc 20e6 82bc a5dc 19be
000001a0: 782b 6c3d 6642 0bbe d97d 0f3e 3015 d23c
000001b0: 78d5 bfbd 88e1 003e bdcd abbd 0989 4d3e
000001c0: 5155 80bd 0fdf 813d a02d a2bd 21a2 70bc
000001d0: 6463 1abd fd53 5dbe f0cc 023e 9600 b2bd
000001e0: 21f2 e03d f0b4 7e3d 2e9e c1be 5053 6c3d
000001f0: 3d17 c9bd dec4 02be 48f5 113d 596f 9ebc
0.10201566 0.08833776 0.08874871 -0.112527 0.13408689 -0.103745155 -0.13731322 -0.10819378
0.22126268 0.12783219 0.20306472 0.14184642 0.13885315 0.23220402 0.305134 -0.09690403
0.1850856 0.111910686 0.16678518 0.0047172555 0.04330595 -0.034731537 0.10653331 -0.05741198
0.05874679 0.0018308403 0.1339911 -0.19624712 -0.35748357 -0.13795319 -0.0092373695 0.17174727
-0.014975926 -0.15405464 -0.04964864 -0.24799444 -0.05932039 -0.012324585 0.065358564 0.18219788
0.034877863 0.20242259 0.09992604 0.27178222 -0.03601477 0.0015783467 0.14805995 -0.28032243
0.13004597 -0.2282025 0.07611283 0.19152242 0.2098554 -0.20304048 -0.04231475 -0.067480385
0.09524722 0.037342526 0.16931571 0.383489 -0.13619761 0.13167381 -0.17223106 0.3445427
0.031753086 -0.24322915 -0.06669392 0.0738735 0.22611634 -0.04501095 0.31967548 0.103992395
0.14040592 -0.21370308 0.11188991 0.22417574 -0.08111508 -0.29338667 -0.07715467 -0.09126479
0.021612098 0.14311935 -0.12745567 -0.08897049 0.035569195 -0.032404087 0.3541784 0.03832236
-0.38655698 0.028633673 0.12791528 0.19574492 -0.010150909 0.22512184 0.019284014 0.067771494
0.06811935 -0.100775346 -0.30163264 0.13822493 0.05958745 -0.02751918 -0.015978873 -0.15025575
0.057658643 -0.13599548 0.14012851 0.025644869 -0.09366888 0.12586033 -0.08388851 0.20071806
-0.06266273 0.06341373 -0.079188585 -0.014687092 -0.037692443 -0.2161407 0.1277349 -0.08691518
0.109836824 0.062184274 -0.37815994 0.05769664 -0.098188855 -0.12770411 0.03563431 -0.019340204

norm.running_mean f4 [128]
00000000: 3b98 d23e 1dab f53e c176 af3e 2d51 eb3e
00000010: 157b 3f3e 28e3 f33e b3d4 8d3d 11e6 863e
00000020: b37f ce3e e66c a03e 74a2 143e 0985 9a3e
00000030: a894 cc3e 1fc9 073f c947 ae3e 41dc a63e
00000040: 1634 a43e f38c a93e ae96 823e dd5c c13e
00000050: 2d63 f53e 239d fa3e 5a29 023f 4225 213e
00000060: fcd8 013f 3eda ed3c 8e38 cc3e 4ed7 e53a
00000070: 509d 633f 837a 6d3e 33b2 a83e 7853 df3e
00000080: d117 dd3e 6f60 8a3e c539 203e 8dca 183f
00000090: 887a 0b3f c5ee 033e cab0 ae3d 6b1c 963e
000000a0: 4004 2b3d 5e41 0d3f 4340 eb3c 9ae6 8b3e
000000b0: 0468 243d faba f73d 7b9d d33d 0792 303f
000000c0: 0846 233e 99dc af3e fb94 9c3e 80b2 073f
000000d0: 9409 9d3e 9192 d73e e690 7c3e 42ff 513e
000000e0: 39eb e63e e865 a13b 7e55 de3e c4ad 5d3f
000000f0: dbc1 2c3f 7b72 d03e b25f 903d a51b 0d3d
00000100: b097 4b3e 5f76 a23e 5585 b93e d43a d53e
00000110: 5a0d 433e bba8 fa3e 0952 293e 58b8 dd3e
00000120: 1917 b43e 5ade b73e 02bf b53e 2cef 033f
00000130: 6c71 8f3e 827e 253f 57d7 743e 8c74 ad3c
00000140: 70f1 c63e e9f3 883e 420e 1e3f d0f4 cd3e
00000150: b902 1f3f a9c6 923e 3497 b93e 598a fe3e
00000160: 4630 d33e 30c9 0c3e 47c5 0d3f 2f10 453f
00000170: 54c5 4e3e 2d13 e13e 734d 773e 03bd 243e
00000180: 4e05 2a3f 32d8 473e 1e04 883e 9e87 f13e
00000190: 5989 073f 3eaa ce3d e903 ec3e 6bc6 293e
000001a0: 893b 833e 71e3 563e c7df 453e 6931 7d3e
000001b0: f429 8a3d 0aab d93e f50d a63e 7a1d cb3e
000001c0: 8ac5 aa3e 45cb 303f 55ef 683e 76a8 d93e
000001d0: 449a 053f 16c2 363f 0ddc 103f ee08 0b3f
000001e0: 45ff ad3e 2960 7a3e c5aa 073e ba3e 043e
000001f0: 97d7 da3e c142 613d 829b fd3e 848b 173e
0.41131768 0.47982112 0.3427029 0.4596037 0.18699296 0.47634244 0.06925335 0.26347402
0.40331802 0.31333083 0.14515096 0.30179623 0.39957166 0.5304126 0.34039143 0.32589915
0.32070988 0.33115348 0.25505584 0.37766162 0.47927228 0.4894801 0.5084435 0.15736869
0.50721717 0.02903473 0.39886898 0.0017535479 0.88911915 0.23191266 0.32948455 0.4361837
0.43182233 0.27026698 0.15647037 0.5968407 0.5448384 0.12884052 0.085298136 0.29318556
0.0417521 0.5517787 0.028717166 0.27324373 0.04013826 0.1209621 0.103327714 0.6897282
0.15944684 0.3434799 0.30582413 0.53006744 0.3067137 0.4210401 0.2466465 0.2050753
0.45101336 0.0049254782 0.434246 0.8659327 0.674833 0.40712342 0.070495024 0.034450192
0.19882083 0.31730935 0.36234537 0.41646445 0.19048062 0.48956856 0.165352 0.43304706
0.35173872 0.35911828 0.3549729 0.5153682 0.28016222 0.6464616 0.2391027 0.021173738
0.38856077 0.2674859 0.61740506 0.4022584 0.6211353 0.2866719 0.3624817 0.49714926
0.41247767 0.13748622 0.55379146 0.7697782 0.20192462 0.43959942 0.24150638 0.16087727
0.66414344 0.19516066 0.2656564 0.4717378 0.5294395 0.10091065 0.46096733 0.16579597
0.2563136 0.209852 0.19323646 0.2472588 0.06746283 0.42513305 0.32432523 0.39670926
0.33353835 0.69060165 0.22747548 0.42511338 0.52188516 0.713899 0.5658577 0.543105
0.33983818 0.24450745 0.13248737 0.12914553 0.42742607 0.054995302 0.49532706 0.14799315
