final_models/v_start_noise/models/best_model_episode_8731.pt (torch, 226638 bytes, 22 tensors)

layer1.weight f4 [128, 8]
0.28809404 -0.25441876 -0.12334367 0.26362327 -0.2829313 0.18277012 -0.07928335 0.19988447
-0.029507572 -0.27587783 0.2407928 -0.0046463953 -0.011840193 -0.11873329 0.009923752 0.030051554
-0.11884216 -0.052637115 0.41279823 0.13017255 -0.10124883 -0.26434267 -0.09522289 -0.12838227
-0.09020322 -0.03697022 0.22429654 0.29175895 -0.45096585 0.14853606 0.08212382 0.32207364
0.047055542 -0.19239193 -0.24640751 -0.008463815 0.17875695 -0.02605771 0.17444755 -0.15428366
0.1906878 -0.14592758 0.24204224 -0.11038184 -0.16285749 0.21561751 -0.13485213 -0.009348673
-0.007350118 0.013818646 -0.20352538 -0.14373356 0.08708456 -0.16336161 0.31135514 0.073664084
0.026149912 -0.37215945 0.1499767 0.0934946 -0.2170524 0.23593973 0.21945669 0.3832777
-0.16673152 -0.21250112 -0.057242222 0.014633795 -0.28393823 -0.13058053 0.118857756 0.044125516
0.16426712 -0.123060204 0.1603235 -0.017513636 0.22775686 0.17440446 -0.23487286 0.10781344
-0.21409665 -0.34798142 0.018916132 -0.1086241 0.16082948 -0.18797275 -0.31513762 0.1575262
-0.020664 0.09696324 0.05208626 -0.07251028 -0.006182904 0.11336302 -0.086769864 -0.15501149
0.22931853 0.20981124 0.036545202 -0.08839602 0.3039631 -0.07805597 0.1993006 0.1730733
-0.144672 -0.36323982 0.34806132 0.12124832 0.42062336 -0.033034746 0.17668179 0.18016584
0.2867223 -0.10916858 -0.010755634 0.06962048 0.013975221 -0.09786174 -0.04793807 -0.26141644
-0.24890138 0.0083514275 0.32336476 -0.27157488 0.12705277 -0.18068242 -0.4398649 -0.007235574
0.14950311 0.40890104 -0.2651632 0.30952454 0.33599404 0.22405855 0.28402433 0.3158586
0.4969057 0.11491032 -0.20905909 -0.31254265 -0.24825455 0.021700636 -0.26994458 0.16485411
0.04297618 -0.0582463 0.106636636 0.071446925 0.13241282 0.108862266 -0.0066304626 0.36606333
-0.063446924 -0.02659572 -0.35346746 -0.21459435 -0.20498365 -0.11523984 0.22667237 -0.11674423
-0.47251225 0.055021547 0.11425271 0.50999427 -0.21477363 0.16723655 -0.17748357 0.022113388
-0.21617793 -0.25905374 -0.25247157 0.12571566 -0.0050788424 0.031380378 0.43959674 0.3224945
0.27335304 0.07244111 -0.46224248 0.17402132 -0.004025417 0.07747896 -0.39803407 -0.20869464
-0.31146488 0.18740636 -0.34101266 -0.34232533 -0.029562553 -0.26331025 0.029517327 -0.07896598
-0.34504816 0.019202441 0.27452642 -0.19244209 0.21674518 0.099139206 0.36897534 -0.31625846
-0.007672993 -0.35341704 0.25364894 0.0091414265 -0.006138527 -0.2937891 -0.045989525 0.050315272
0.017771607 0.11935086 0.035445333 0.027587172 -0.26275536 0.29136887 0.322616 0.4271775
0.015859019 -0.24228275 -0.0834771 0.04493584 -0.040229034 0.004368706 -0.058912996 -0.24997842
0.35783064 -0.26770145 0.0043374393 0.30202404 0.4975742 0.25248605 -0.047913592 -0.44312245
0.19940542 0.04920585 -0.103775516 0.030713331 -0.3823601 0.181715 0.24610646 -0.3275943
-0.46512982 -0.27402574 0.0826245 0.09400664 -0.19928321 0.29801416 -0.35738546 -0.1529505
-0.13900293 0.3087784 0.31459287 0.017726474 0.068623036 0.10191475 0.09381039 -0.019680886
00000000: 1081 933e 2d43 82be 9b9b fcbd a1f9 863e
00000010: 5fdc 90be 1728 3b3e 4f5f a2bd 84ae 4c3e
00000020: ddb9 f1bc dc3f 8dbe 6392 763e ca40 98bb
00000030: 5efd 41bc 702a f3bd 3c97 223c ad2e f63c
00000040: 8563 f3bd 049a 57bd 4a5a d33e f44b 053e
00000050: 8c5b cfbd ec57 87be 3804 c3bd a476 03be
00000060: 77bc b8bd 166e 17bd fead 653e 6e61 953e
00000070: ffe4 e6be d619 183e 8930 a83d d6e6 a43e
00000080: 50bd 403d 6402 45be 4052 7cbe d0ab 0abc
00000090: 100c 373e fb76 d5bc 61a2 323e 89fc 1dbe
000000a0: aa43 433e 0a6e 15be ecd9 773e e00f e2bd
000000b0: 1dc4 26be d6ca 5c3e ad16 0abe 2d2b 19bc
000000c0: 42d9 f0bb 9a67 623c f568 50be e42e 13be
000000d0: 6459 b23d 4448 27be f169 9f3e 32dd 963d
000000e0: 5738 d63c af8b bebe 7e93 193e 197a bf3d
000000f0: fc42 5ebe 2f9a 713e 41b9 603e fa3c c43e
00000100: abbb 2abe e599 59be d276 6abd 96c2 6f3c
00000110: 5a60 91be e7b6 05be b26b f33d f5bc 343d
00000120: a435 283e fd06 fcbd d82b 243e c278 8fbc
00000130: 1839 693e 1597 323e 8382 70be 4bcd dc3d
00000140: 273c 5bbe 9f2a b2be 01f6 9a3c 5076 debd
00000150: 7cb0 243e ee7b 40be b859 a1be 8c4e 213e
00000160: 8d47 a9bc aa94 c63d 6758 553d 4580 94bd
00000170: f599 cabb df2a e83d 66b4 b1bd 55bb 1ebe
00000180: 7ad2 6a3e c2d8 563e 6cb0 153d f908 b5bd
00000190: 0da1 9b3e cfdb 9fbd 7515 4c3e 213a 313e
000001a0: e624 14be 92fa b9be 1835 b23e 0a51 f83d
000001b0: f25b d73e 714f 07bd 12ec 343e 657d 383e
000001c0: 44cd 923e c793 dfbd 6638 30bc 2f95 8e3d
000001d0: 53f8 643c bc6b c8bd b65a 44bd 60d8 85be
000001e0: 01e0 7ebe 6dd4 083c 1190 a53e dd0b 8bbe
000001f0: 1f1a 023e d004 39be f935 e1be 6518 edbb
00000200: 5817 193e 7a5b d13e 79c3 87be 007a 9e3e
00000210: 6907 ac3e 9b6f 653e a36b 913e 38b8 a13e
00000220: 6d6a fe3e 1a56 eb3d 9613 56be 9705 a0be
00000230: 7136 7ebe 88c5 b13c 2d36 8abe 84cf 283e
00000240: ca07 303d ac93 6ebd 4f64 da3d c452 923d
00000250: 3a97 073e 2ef3 de3d 5a44 d9bb a76c bb3e
00000260: 76f0 81bd 44df d9bc b0f9 b4be 9fbe 5bbe
00000270: 3ce7 51be dd02 ecbd cd1c 683e 9917 efbd
00000280: 20ed f1be 465e 613d 53fd e93d fc8e 023f
00000290: 9eed 5bbe 0f40 2b3e 41be 35be 2327 b53c
000002a0: bf5d 5dbe b1a2 84be f443 81be 9bbb 003e
000002b0: 6b6c a6bb b688 003d d312 e13e 001e a53e
000002c0: eef4 8b3e 015c 943d 0cab ecbe a532 323e
000002d0: a5e7 83bb 4aad 9e3d 1fcb cbbe 0cb4 55be
000002e0: 5378 9fbe 74e7 3f3e 3699 aebe 4445 afbe
000002f0: 2b2d f2bc 9ad0 86be 52ce f13c eab8 a1bd
00000300: 27aa b0be 704e 9d3c ba8e 8c3e 8a0f 45be
00000310: 73f2 5d3e 7f09 cb3d 56ea bc3e a1ec a1be
00000320: bb6d fbbb 14f3 b4be 46de 813e ecc5 153c
00000330: b225 c9bb 866b 96be 835f 3cbd 6317 4e3d
00000340: c395 913c 396e f43d 202f 113d 7efe e13c
00000350: df87 86be 4d2e 953e ed2d a53e 02b7 da3e
00000360: c6ea 813c f818 78be 0bf6 aabd a50e 383d
00000370: 33c7 24bd 5d27 8f3b c14e 71bd 58fa 7fbe
00000380: 9435 b73e 2a10 89be 1421 8e3b e5a2 9a3e
00000390: 0cc2 fe3e da45 813e 0b41 44bd f2e0 e2be
000003a0: ef30 4c3e 138c 493d 4288 d4bd 869a fb3c
000003b0: b4c4 c3be 7f13 3a3e 5503 7c3e 71ba a7be
000003c0: 7f25 eebe 1a4d 8cbe 0937 a93d 8e86 c03d
000003d0: e610 4cbe 5095 983e 3afb b6be 0e9f 1cbe
000003e0: c956 0ebe 3418 9e3e 5112 a13e 1c37 913c
000003f0: 3c8a 8c3d aeb8 d03d a91f c03d cf39 a1bc

layer1.bias f4 [128]
-0.022372758 -0.06663211 0.14208685 -0.10745454 -0.32147256 0.15336369 -0.17545971 -0.12141312
0.34285164 0.15454943 0.12182341 -0.015706133 -0.28406358 0.15229662 -0.26288188 0.021743389
-0.34030682 0.16197084 -0.17707752 0.33078712 0.17143701 0.3537333 0.02079047 0.006386492
0.15825553 -0.21953975 -0.16845697 -0.43923315 0.42055237 -0.0171834 0.12846218 0.034712262
0.15822744 -0.25872928 -0.2022013 0.27334252 0.17282124 -0.023665508 -0.26090524 -0.094452426
-0.23543647 0.016383857 -0.27471054 -0.29140157 -0.40880993 0.042534713 0.081597865 0.36871022
-0.33262542 -0.1109066 -0.196459 -0.25932482 -0.002509339 0.38991967 0.06493494 -0.10143847
0.26346666 -0.35714784 0.009104292 0.26192248 0.27104717 0.07161591 -0.1834765 -0.4348657
-0.1556602 0.1793739 0.26090875 0.032628063 -0.30612412 -0.038105063 0.11717762 0.013016663
-0.16673751 0.05630024 0.032784134 0.06689961 -0.034152195 0.19792427 -0.37939623 -0.13005967
-0.0059489207 0.2177537 0.15108328 0.13937443 0.37810233 0.1070069 -0.3714434 0.1401037
-0.22515652 -0.006950307 0.05709268 0.34475547 -0.13191023 -0.19752079 -0.12625115 -0.080425866
0.35285756 0.21425411 0.19502497 0.09789425 -0.087412104 -0.06515433 -0.27150872 0.11520027
-0.22989406 0.059256416 0.16231218 0.25715116 -0.3646544 0.4078844 -0.12676603 -0.04815484
0.32443815 0.30604586 -0.27513796 0.25598043 -0.34034887 0.28878212 0.4062045 0.024129227
0.036866542 -0.0035485413 -0.2848469 -0.28801614 -0.06314461 -0.37876514 -0.30609027 -0.102463484
00000000: 1347 b7bc 6a76 88bd 377f 113e 2011 dcbd
00000010: 0d98 a4be 5f0b 1d3e b6ab 33be 71a7 f8bd
00000020: 408a af3e 3542 1e3e 8d7e f93d 26aa 80bc
00000030: c870 91be a5f3 1b3e 7498 86be 311f b23c
00000040: b23c aebe afdb 253e cf53 35be ee5c a93e
00000050: 2f8d 2f3e 881c b53e c750 aa3c c745 d13b
00000060: bd0d 223e 07cf 60be fc7f 2cbe 2be3 e0be
00000070: a452 d73e 34c4 8cbc 978b 033e 722e 0e3d
00000080: 6006 223e 2a78 84be dc0d 4fbe 8df3 8b3e
00000090: 0df8 303e 2bde c1bc 5f95 85be 4670 c1bd
000000a0: 4216 71be 7037 863c dca6 8cbe 9632 95be
000000b0: 894f d1be e138 2e3d c81c a73d 96c7 bc3e
000000c0: e14d aabe 0023 e3bd 8c2c 49be 39c6 84be
000000d0: b973 24bb 8da3 c73e 9cfc 843d f9be cfbd
000000e0: 1ae5 863e 15dc b6be 2b2a 153c b41a 863e
000000f0: b2c6 8a3e 5dab 923d 43e1 3bbe b8a6 debe
00000100: 6365 1fbe cbad 373e d595 853e 01a5 053d
00000110: 4dbc 9cbe 0e14 1cbd d2fa ef3d d743 553c
00000120: 3dbd 2abe 159b 663d a848 063d aa02 893d
00000130: 2ce3 0bbd a9ac 4a3e 3940 c2be 5d2e 05be
00000140: 2aef c2bb d3fa 5e3e 93b5 1a3e 2cb8 0e3e
00000150: a196 c13e 6f26 db3d d42d bebe 5877 0f3e
00000160: 6e8f 66be 67bf e3bb 04da 693d ca83 b03e
00000170: 7a13 07be e442 4abe fb47 01be 51b6 a4bd
00000180: bfa9 b43e 6e65 5b3e a0b4 473e c87c c83d
00000190: 1e05 b3bd a26f 85bd 3103 8bbe 1fee eb3d
000001a0: 5969 6bbe dbb6 723d 2a35 263e 51a9 833e
000001b0: fbb3 babe 39d6 d03e f4ce 01be 023e 45bd
000001c0: c21c a63e 0bb2 9c3e e2de 8cbe de0f 833e
000001d0: 3542 aebe 40db 933e 09fa cf3e a8aa c53c
000001e0: 5f01 173d a58e 68bb 74d7 91be da76 93be
000001f0: f651 81bd 81ed c1be ddb7 9cbe 60d8 d1bd

layer2.weight f4 [128, 128]
-0.04277709 -0.043053746 -0.044584807 0.012590527 0.09859656 0.004276677 -0.038673826 0.020542443
-0.11652482 0.08234884 0.0853967 -0.043229252 -0.058467794 0.13331392 -0.11341072 0.05922906
-0.058206335 -0.13053344 0.038207047 -0.096000604 0.092249066 0.0038661226 -0.07574495 -0.0888794
0.064276405 0.117501475 0.0034958823 -0.059775457 -0.11509414 0.05544363 -0.0152159445 0.054775987
0.07370681 0.07902084 0.021165594 0.030665874 0.06508449 -0.0069051078 0.07552448 0.017004479
-0.0012840456 -0.051300343 0.008007447 0.07894113 0.0815806 -0.008611891 -0.035913255 0.065368004
0.06465972 0.18019627 0.026269672 -0.022127695 -0.026070187 -0.05867608 0.014085668 0.0084698675
-0.06191629 -0.06429938 0.03826552 0.020408886 -0.14619546 0.025683621 0.05298781 0.051733613
0.11209737 -0.045150463 0.09314218 -0.09970733 -0.013395006 -0.05852208 -0.019031912 0.09990908
0.0941159 0.004710393 -0.03409273 -0.03778006 0.0010767019 -0.019776192 0.05865072 0.052895218
0.08286383 -0.049374573 0.08051518 -0.01715871 -0.02946138 -0.04360492 -0.006092246 -0.0509305
-0.011508726 -0.08143438 0.042159922 -0.07405198 -0.015413 -0.059012193 0.012135034 0.07473566
-0.07142032 -0.08599548 0.07213923 0.06517173 0.06877566 -0.06884251 0.06938323 0.06607294
0.04177463 -0.008184117 0.09461172 0.041745774 0.037556645 -0.021167487 -0.046347003 -0.05264698
0.113790885 0.03688778 0.05848206 0.069522165 -0.07666171 0.027700815 -0.050358564 0.0019334265
0.024766082 0.0019798202 -0.022173395 -0.029350195 -0.115268245 -0.071996056 0.065438956 -0.06585425
-0.01946838 -0.011555375 0.022920506 -0.02540779 0.049270246 -0.02133645 0.0574232 -0.011863359
0.004228228 -0.0059690173 0.10391216 0.0141259525 0.041431025 -0.03296191 0.012326857 0.114830166
-0.10365809 -0.019779405 0.0661128 -0.047539208 -0.032608256 -0.012167232 0.020100996 0.05613799
-0.017037239 0.04249145 -0.06954001 0.030208616 -0.058469 0.055343483 -0.05532609 -0.08485601
-0.004141347 0.043133672 -0.0037580435 0.036605027 0.0011471539 0.055284176 -0.010120482 -0.13011527
-0.063513115 0.03262702 -0.011963726 0.07234593 -0.049807515 0.07277717 -0.04772466 -0.053639174
-0.020409232 -0.091658555 -0.0165528 0.017740507 -0.12475688 0.09322742 -0.081623875 0.051656064
0.038219627 0.0016836282 -0.06080132 0.00459814 -0.04510035 0.08429419 -0.07864248 -0.03764691
-0.025737608 -0.06485142 -0.040803283 0.016954526 -0.022054987 0.0057023484 0.0822094 -0.0066394345
-0.06342814 -0.042764828 0.10166932 -0.018550629 -0.08819188 0.054124806 -0.007330155 0.018968329
0.0040240865 0.12497969 -0.06470359 0.028090702 0.1498401 0.013671226 0.04431129 0.0699981
0.113367856 -0.031057449 -0.098077185 -0.051067717 -0.09585131 0.011642582 0.06864726 0.07074615
0.027686281 0.011614764 0.036325604 0.064623736 0.06955622 0.007535767 -0.0145868305 0.021532534
-0.0026435324 -0.03381101 -0.017747933 0.09072654 0.06288582 -0.033345897 -0.032832127 -0.064023726
0.009685014 0.06544993 -0.07935607 0.07910449 -0.08099373 -0.09253027 -0.015403979 -0.00032758035
-0.012719137 -0.041400187 -0.052548602 -0.07527849 -0.0650175 -0.069244355 0.06284992 -0.075005904
00000000: 0837 2fbd 2059 30bd 8f9e 36bd 7f48 4e3c
00000010: feec c93d 5e23 8c3b 7268 1ebd a048 a83c
00000020: 91a4 eebd 82a6 a83d 77e4 ae3d 2811 31bd
00000030: ed7b 6fbd 7283 083e e143 e8bd 2c9a 723d
00000040: c469 6ebd 8faa 05be fe7e 1c3d f79b c4bd
00000050: 14ed bc3d c65e 7d3b 2b20 9bbd 6706 b6bd
00000060: 59a3 833d 9da4 f03d 2c1b 653b 1cd7 74bd
00000070: 7ab6 ebbd dc18 633d 4c4c 79bc c95c 603d
00000080: 99f3 963d aed5 a13d 7863 ad3c 0037 fb3c
00000090: 044b 853d 3e44 e2bb 94ac 9a3d fa4c 8b3c
000000a0: 6c4d a8ba 4f20 52bd ab31 033c e3ab a13d
000000b0: bb13 a73d e418 0dbc c719 13bd a9df 853d
000000c0: 516c 843d 5f85 383e 7f33 d73c 2445 b5bc
000000d0: 2591 d5bc 5456 70bd 93c7 663c 33c5 0a3c
000000e0: f09b 7dbd 65af 83bd 4ebc 1c3d 8930 a73c
000000f0: 43b4 15be 7566 d23c bf09 593d a0e6 533d
00000100: 4e93 e53d b1ef 38bd 54c1 be3d 5b33 ccbd
00000110: ba76 5bbc d9b4 6fbd d0e8 9bbc 229d cc3d
00000120: d6bf c03d a459 9a3b d2a4 0bbd 44bf 1abd
00000130: 1f20 8d3a ae01 a2bc bd3b 703d a8a8 583d
00000140: 83b4 a93d fe3c 4abd 25e5 a43d 6c90 8cbc
00000150: fe58 f1bc 139b 32bd 77a1 c7bb 809c 50bd
00000160: 188f 3cbc 11c7 a6bd e2af 2c3d 91a8 97bd
00000170: cf86 7cbc c5b6 71bd 06d2 463c 020f 993d
00000180: d144 92bd 661e b0bd bcbd 933d c278 853d
00000190: 41da 8c3d 4dfd 8cbd cb18 8e3d 4051 873d
000001a0: e01b 2b3d ad16 06bc cac3 c13d 9efd 2a3d
000001b0: ffd4 193d 7067 adbc 5bd6 3dbd 5ca4 57bd
000001c0: 320b e93d a417 173d e28a 6f3d a361 8e3d
000001d0: d100 9dbd d2ec e23c c844 4ebd 076b fd3a
000001e0: 3de2 ca3c dfbf 013b fba4 b5bc d26f f0bc
000001f0: c211 ecbd ab72 93bd dc04 863d 98de 86bd
00000200: 277c 9fbc c152 3dbc c9c3 bb3c ff23 d0bc
00000210: 99cf 493d c7c9 aebc 9734 6b3d 895e 42bc
00000220: f28c 8a3b bf97 c3bb e6cf d43d 8a70 673c
00000230: 94b3 293d 1103 07bd 96f6 493c 142c eb3d
00000240: b14a d4bd 6b08 a2bc 2666 873d 79b8 42bd
00000250: 3c90 05bd 1259 47bc d8aa a43c f3f0 653d
00000260: ae91 8bbc 840b 2e3d fe6a 8ebd 0f78 f73c
00000270: 317d 6fbd d9af 623d 9c9d 62bd fdc8 adbd
00000280: 23b4 87bb efac 303d 8249 76bb 27ef 153d
00000290: 195c 963a a971 623d 61d0 25bc f03c 05be
000002a0: 2a13 82bd e9a3 053d 8103 44bc 1a2a 943d
000002b0: f702 4cbd 320c 953d ef7a 43bd c0b4 5bbd
000002c0: 4331 a7bc 7bb7 bbbd bd99 87bc 8a54 913c
000002d0: 8980 ffbd 04ee be3d 6b2a a7bd 4f95 533d
000002e0: 2f8c 1c3d 30ad dc3a ce0a 79bd feab 963b
000002f0: 25bb 38bd 6fa2 ac3d 4f0f a1bd a533 1abd
00000300: add7 d2bc d2d0 84bd 5821 27bd 38e4 8a3c
00000310: a9ac b4bc c4da ba3b 675d a83d 9d8f d9bb
00000320: 9de6 81bd 2c2a 2fbd 0138 d03d 7df7 97bc
00000330: f29d b4bd f9b1 5d3d cc31 f0bb 7863 9b3c
00000340: 7cdc 833b 5af5 ff3d 5183 84bd 791e e63c
00000350: af6f 193e 47fd 5f3c c17f 353d 2a5b 8f3d
00000360: 682d e83d 316c febc b1dc c8bd 622c 51bd
00000370: b14d c4bd 87c0 3e3c ef96 8c3d 5ce3 903d
00000380: 57ce e23c da4b 3e3c 28ca 143d 7359 843d
00000390: 7e73 8e3d 98ee f63b 9afd 6ebc ff64 b03c
000003a0: 1d3f 2dbb 6a7d 0abd 1d64 91bc d6ce b93d
000003b0: 48ca 803d b595 08bd fb7a 06bd df1e 83bd
000003c0: e5ad 1e3c 9d0a 863d 6f85 a2bd 8901 a23d
000003d0: 0ae0 a5bd 8380 bdbd f960 7cbc 17bf abb9
000003e0: ed63 50bc 3e93 29bd 343d 57bd 9c2b 9abd
000003f0: e527 85bd fccf 8dbd 75b7 803d b29c 99bd

layer2.bias f4 [128]
-0.03269709 -0.042816315 -0.026021035 0.009774488 -0.12576388 0.064009875 -0.05990588 0.17358923
-0.024431666 0.003798589 0.038599435 0.098114096 -0.02841396 -0.23731233 0.026735341 -0.026812542
-0.088109605 -0.012324341 -0.017461395 0.10260258 0.13444741 0.06866843 0.045136303 0.012255457
0.084583215 -0.14362565 -0.01550266 0.0009403878 0.038634293 0.037886884 0.15982981 -0.10584317
-0.058360934 0.051202606 0.006448071 0.058422934 0.14448847 0.0070987022 -0.064103566 -0.028036194
-0.1447045 0.08351329 0.02654213 -0.10455845 0.054607417 0.0991363 0.14501221 -0.077413216
0.123692416 0.024721958 0.03452637 -0.042406548 0.08921859 0.08525461 -0.00254045 -0.08566782
0.06826466 -0.157743 0.07002018 0.084169745 0.03080766 0.042976756 -0.08746816 0.020954644
0.006799658 -0.07435652 0.012456404 -0.023380686 0.009381906 0.015290063 -0.03397586 -0.04436483
0.15159217 0.10884606 -0.020759994 -0.046462685 0.020231023 -0.14319128 -0.047232714 -0.09296492
0.033452615 -0.02103805 0.08422011 -0.08322223 -0.07650989 -0.02098422 -0.10315027 -0.15048596
-0.0608304 -0.007801483 0.04772953 0.11127364 0.00044454643 0.18263681 0.102448404 0.0022744464
-0.08468289 -0.023239896 0.0078925835 0.006948012 0.075087205 0.14372978 -0.034587324 0.089969635
0.06763318 0.10074523 -0.03198445 0.016260292 0.10005917 -0.14771509 -0.050123572 -0.058976106
0.09000767 0.010478513 0.013134775 0.02235715 0.08099835 -0.07259499 -0.1303138 -0.031929296
-0.031262297 -0.054865897 -0.024494601 0.002429116 -0.154637 -0.18939225 0.013242125 -0.06289401
00000000: 62ed 05bd 2960 2fbd 112a d5bc 2d25 203c
00000010: 3fc8 00be 9c17 833d de5f 75bd 60c1 313e
00000020: eb24 c8bc c0f1 783b 711a 1e3d 0bf0 c83d
00000030: 65c4 e8bc 0102 73be 1304 db3c faa5 dbbc
00000040: cf72 b4bd 08ec 49bc 330b 8fbc 4d21 d23d
00000050: 95ac 093e 09a2 8c3d d8e0 383d 1dcb 483c
00000060: f739 ad3d 9a12 13be defe 7dbc 5b84 763a
00000070: fe3e 1e3d 472f 1b3d 6daa 233e 4ec4 d8bd
00000080: e00b 6fbd d3b9 513d 574a d33b e34c 6f3d
00000090: c9f4 133e 3b9c e83b bb48 83bd 29ac e5bc
000000a0: 6b2d 14be 0409 ab3d e26e d93c be22 d6bd
000000b0: 07ac 5f3d f907 cb3d 157e 143e d28a 9ebd
000000c0: 7352 fd3d b485 ca3c 866b 0d3d 7db2 2dbd
000000d0: 3cb8 b63d f899 ae3d ae7d 26bb 9c72 afbd
000000e0: 58ce 8b3d 6287 21be bd66 8f3d 3061 ac3d
000000f0: 5960 fc3c 6508 303d 8222 b3bd 13a9 ab3c
00000100: aacf de3b 3b48 98bd f215 4c3c da88 bfbc
00000110: 91b6 193c 2c83 7a3c 452a 0bbd e5b7 35bd
00000120: fa3a 1b3e afea de3d dd10 aabc a84f 3ebd
00000130: 88bb a53c bca0 12be 1777 41bd 6464 bebd
00000140: 9c05 093d fd57 acbc 987b ac3d 6b70 aabd
00000150: 38b1 9cbd 19e7 abbc 7340 d3bd fe18 1abe
00000160: 4c29 79bd 95a3 ffbb 0a80 433d 6fe3 e33d
00000170: 0312 e939 2505 3b3e 78d0 d13d e10e 153b
00000180: 396e adbd 9861 bebc e54f 013c 26ac e33b
00000190: 52c7 993d e62d 133e 70ab 0dbd 0042 b83d
000001a0: 4483 8a3d 8453 ce3d 2002 03bd 4e34 853c
000001b0: d2eb cc3d a042 17be 604e 4dbd ee90 71bd
000001c0: f155 b83d 12ae 2b3c 3d33 573c 5826 b73c
000001d0: 77e2 a53d afac 94bd fb70 05be 4bc8 02bd
000001e0: e50c 00bd 10bb 60bd e7a8 c8bc ce31 1f3b
000001f0: 2959 1ebe 0bf0 41be 7ff5 583c 93ce 80bd

layer3.weight f4 [128, 128]
-0.07416398 0.076841295 0.033517063 -0.006567079 -0.0614065 -0.05941224 -0.057122696 0.06492303
0.06563511 0.075518064 0.028732434 0.014401994 -0.04605283 -0.05032631 0.07846739 0.080671184
0.09941761 0.009950015 0.061339084 0.0054334207 -0.0113529 -0.014302711 -0.052547295 -0.081543215
-0.04301608 -0.036290847 0.07649101 -0.05506194 -0.020595942 0.024480356 0.021500733 0.015086845
0.05194405 -0.07891213 0.0080095185 -0.10506158 0.0004602178 0.06971033 0.05766319 0.028958416
-0.08571383 0.018302254 0.0014620317 -0.09680471 -0.09757892 -0.056275494 0.03527346 0.05592955
-0.11037066 -0.047387898 0.032111365 -0.04588257 0.07428097 0.045419864 -0.026101505 0.111774184
-0.013079564 -0.026168833 -0.005052601 -0.056631904 0.05789926 -0.06678605 0.06985507 -0.031174969
-0.001100734 -0.17253667 -0.051332112 0.025301987 -0.109010115 0.05834793 -0.03169338 -0.0556246
0.06431297 0.015124676 0.020308262 -0.02108187 0.015722543 0.03395014 -0.07680376 -0.06278084
-0.083337374 -0.008731808 0.048313327 -0.07921877 0.020089297 -0.05623354 0.020276763 0.08177765
-0.024509413 0.052437447 0.02208357 0.026113044 0.02142418 -0.054793533 0.052086867 0.051204357
0.089739844 0.024687618 -0.041798003 -0.027848339 0.060579896 -0.0016238268 -0.014354197 0.047362693
-0.011669538 0.13499919 0.046155654 -0.0721311 0.07259708 0.032848258 -0.092396386 -0.049426597
0.028737588 0.03444075 0.089030735 0.016244736 0.06848784 -0.06887062 0.07535209 0.043101985
0.029285673 -0.06733892 -0.11146999 -0.032528847 0.042435 0.0031495246 0.012160302 0.0017337009
0.10973914 0.042154245 -0.055688962 0.025391165 -0.0015651998 -0.007620766 -0.12174684 0.12499756
0.027105551 -0.026530763 -0.089100525 0.032460514 -0.023917314 -0.042461775 0.0075427466 0.007852045
0.027581342 -0.119023316 -0.04376148 -0.009708629 0.09169853 -0.03353405 -0.027649796 0.023191215
0.0028346507 -0.07267141 0.006693697 0.046151742 0.024942925 -0.024231726 0.05994777 -0.039624736
0.08313684 0.05407885 0.080619074 0.021866528 0.04822135 -0.04359956 -0.0014066232 0.026009608
-0.08751624 -0.034777537 -0.016811967 0.12078521 0.056016244 0.0017286006 -0.02037718 -0.07769439
0.13470958 0.018919034 -0.028746502 -0.054739513 -0.014560805 0.054306127 0.05440943 -0.11642601
-0.025064364 -0.027339416 0.12882458 -0.024202578 -0.03010882 0.06242679 -0.02636756 -0.08211904
0.03230029 0.13111155 -0.093624115 0.08002705 0.013876008 0.10489113 0.021997701 -0.0010232778
-0.04465926 0.09159729 -0.020329619 0.016268471 0.057013094 -0.04017869 -0.018116837 0.105343156
0.10617196 0.052773137 -0.06366083 -0.01918778 -0.024001798 0.0012163199 -0.054140363 0.029022334
-0.08581473 -0.060676593 -0.0018399832 0.029040003 0.030722126 -0.0015371088 0.00481709 -0.16113004
0.08728788 0.1089119 -0.07446297 -0.114826165 -0.10607471 -0.07955581 0.027706513 -0.08633241
-0.1276635 -0.041944645 -0.00970926 -0.037911333 0.054010093 -0.072538055 -0.03201859 -0.049767252
0.070214 -0.010428972 -0.03976701 -0.010475296 -0.014664362 0.057573505 -0.045072727 -0.047470342
-0.047436174 -0.0899002 0.09562474 -0.020206576 -0.016952166 0.033844884 -0.0028785071 0.09269759
00000000: 49e3 97bd f85e 9d3d 3049 093d a730 d7bb
00000010: 6285 7bbd 405a 73bd 7df9 69bd 5ef6 843d
00000020: b36b 863d 37a9 9a3d 4860 eb3c 57f6 6b3c
00000030: e4a1 3cbd f622 4ebd 83b3 a03d ef36 a53d
00000040: 769b cb3d 6305 233c b13e 7b3d d60a b23b
00000050: 8401 3abc eb55 6abc d53b 57bd 2100 a7bd
00000060: a131 30bd b6a5 14bd 52a7 9c3d a188 61bd
00000070: d2b8 a8bc 078b c83c 4e22 b03c d02e 773c
00000080: 49c3 543d af9c a1bd 5b3a 033c 872a d7bd
00000090: 6349 f139 4ac4 8e3d 3d30 6c3d 333a ed3c
000000a0: bc8a afbd 9cee 953c a5a1 bf3a 8c41 c6bd
000000b0: 75d7 c7bd 2281 66bd e77a 103d 6216 653d
000000c0: 030a e2bd d019 42bd 3587 033d 5def 3bbd
000000d0: 9f20 983d 2e0a 3a3d d3d2 d5bc dde9 e43d
000000e0: ab4b 56bc 0560 d6bc 4a90 a5bb dbf6 67bd
000000f0: c627 6d3d 20c7 88bd 2d10 8f3d a662 ffbc
00000100: 8146 90ba 74ad 30be 9f41 52bd 1d46 cf3c
00000110: b240 dfbd 3dfe 6e3d ebd0 01bd 9fd6 63bd
00000120: 85b6 833d 7dcd 773c 835d a63c e3b3 acbc
00000130: 90cc 803c 4d0f 0b3d 4a4b 9dbd 3e93 80bd
00000140: c9ac aabd db0f 0fbc 32e4 453d 733d a2bd
00000150: 4f92 a43c 2455 66bd 741b a63c 0a7b a73d
00000160: f7c7 c8bc a6c8 563d 9ae8 b43c 06eb d53c
00000170: c381 af3c 2f6f 60bd 0a59 553d a9bb 513d
00000180: 86c9 b73d b03d ca3c 6234 2bbd 3322 e4bc
00000190: a022 783d 96d6 d4ba de2d 6bbc 62ff 413d
000001a0: 9731 3fbc 3a3d 0a3e b60d 3d3d 78b9 93bd
000001b0: c7ad 943d e58b 063d 513a bdbd 8b73 4abd
000001c0: 176b eb3c be11 0d3d bf55 b63d ae13 853c
000001d0: 5a43 8c3d 0a0c 8dbd 3252 9a3d b58b 303d
000001e0: 82e8 ef3c fde8 89bd 614a e4bd f83c 05bd
000001f0: 53d0 2d3d 4168 4e3b 013c 473c 593d e33a
00000200: eabe e03d eea9 2c3d 1c1a 64bd 2201 d03c
00000210: 6427 cdba 9eb7 f9bb 6856 f9bd b9fe ff3d
00000220: 760c de3c 0b57 d9bc 567a b6bd 51f5 043d
00000230: 3eee c3bc 66ec 2dbd 2529 f73b dda5 003c
00000240: 44f2 e13c 7fc2 f3bd 3d3f 33bd f110 1fbc
00000250: 70cc bb3d 005b 09bd d381 e2bc 81fb bd3c
00000260: 8cc5 393b c0d4 94bd cd56 db3b 9c09 3d3d
00000270: 1b55 cc3c 9d81 c6bc cb8b 753d 8c4d 22bd
00000280: a643 aa3d c981 5d3d 9d1b a53d 6f21 b33c
00000290: c083 453d 7495 32bd 715e b8ba 1a12 d53c
000002a0: b73b b3bd e472 0ebd 40b9 89bc 3c5e f73d
000002b0: 4a71 653d 3692 e23a 0bee a6bc 3d1e 9fbd
000002c0: 4ff1 093e 17fc 9a3c c97d ebbc 8a36 60bd
000002d0: 7190 6ebc 1a70 5e3d 6cdc 5e3d c370 eebd
000002e0: c853 cdbc e9f6 dfbc 97ea 033e 7c44 c6bc
000002f0: c6a6 f6bc 3cb3 7f3d c800 d8bc 072e a8bd
00000300: 4f4d 043d 1b42 063e 00be bfbd 39e5 a33d
00000310: 3258 633c 29d1 d63d 8634 b43c 811f 86ba
00000320: a1ec 36bd 5c97 bb3d 4d8a a6bc 7545 853c
00000330: 9086 693d 6992 24bd c369 94bc 27be d73d
00000340: af70 d93d a528 583d 9c60 82bd b12f 9dbc
00000350: 6b9f c4bc ec6c 9f3a 49c2 5dbd 3fc0 ed3c
00000360: a2bf afbd 0588 78bd 972b f1ba 4de5 ed3c
00000370: f8ac fb3c d078 c9ba aed8 9d3b 46ff 24be
00000380: fdc3 b23d 340d df3d 0b80 98bd fb29 ebbd
00000390: b33d d9bd 28ee a2bd c5f8 e23c 0ccf b0bd
000003a0: 38ba 02be 26ce 2bbd 9713 1fbc ea48 1bbd
000003b0: b039 5d3d d58e 94bd ed25 03bd bfd8 4bbd
000003c0: 5ccc 8f3d 47de 2abc bbe2 22bd 93a0 2bbc
000003d0: cb42 70bc 32d2 6b3d 2e9e 38bd 4370 42bd
000003e0: 6f4c 42bd 991d b8bd e7d6 c33d 4388 a5bc
000003f0: 45df 8abc efa0 0a3d 56a5 3cbb 3cd8 bd3d

layer3.bias f4 [128]
0.0399126 0.04691703 -0.0025956924 -0.050567806 0.010456466 0.19907947 -0.012116015 0.104830205
0.053970966 -0.124254815 -0.0877469 -0.014283001 0.030255582 0.05327836 0.052180562 0.054362264
-0.017393585 -0.08136719 0.05838097 -0.07814308 -0.07524498 -0.086272426 0.05055697 -0.071017005
0.15945424 -0.17303751 -0.06940023 0.21639223 0.16023144 -0.108206645 0.15854332 0.044250496
0.025437683 -0.15686142 -0.107573174 0.011878816 -0.11029174 0.073886596 -0.068119414 0.16937073
0.08389613 -0.07108603 -0.10883682 0.155436 -0.13867131 -0.054238252 0.19224828 0.020208828
0.06199211 0.066397436 0.06919101 0.071974 0.13014117 -0.10951252 0.1564122 0.034266945
0.087370664 0.120032944 0.19312075 -0.1041169 -0.054151926 0.105543055 0.07294449 -0.052094985
-0.07728103 0.08275307 0.10183775 -0.1171337 -0.067006975 0.0642591 -0.013660534 -0.04366824
0.06651049 0.06345342 -0.12586907 -0.086539604 0.08165266 0.04713133 0.06508978 0.06787384
0.22708452 0.012371875 -0.055384435 -0.064601175 -0.10473996 0.07346883 0.18326728 -0.056379728
0.11955636 0.08547215 0.104401685 0.1173236 -0.12255389 0.00654726 -0.13006794 -0.038624104
0.1600057 -0.1684563 0.088866875 -0.1086644 -0.18787676 0.049688954 0.03999504 0.005869345
0.14378588 0.04509858 0.19070089 0.0027009319 0.14150892 -0.13809666 0.13370173 -0.040972207
-0.045703676 -0.111611806 -0.09095488 -0.16820022 -0.1309955 -0.031905413 -0.04384713 -0.049458925
0.094197944 -0.011279637 -0.007932583 -0.008285813 -0.035677303 -0.09014596 -0.0918457 0.09303043
00000000: 657b 233d 122c 403d 7e1c 2abb 3020 4fbd
00000010: 9951 2b3c 7ddb 4b3e 4082 46bc 38b1 d63d
00000020: a910 5d3d 4f79 febd a6b4 b3bd 4003 6abc
00000030: 8eda f73c 693a 5a3d 49bb 553d f7aa 5e3d
00000040: fe7c 8ebc d7a3 a6bd e220 6f3d 7b09 a0bd
00000050: 0a1a 9abd 99af b0bd d314 4f3d 5d71 91bd
00000060: f947 233e bf30 31be b521 8ebd ed95 5d3e
00000070: b613 243e 729b ddbd 2e59 223e 0240 353d
00000080: b062 d03c 48a0 20be 534f dcbd 5e9f 423c
00000090: a3e0 e1bd db51 973d 3182 8bbd 856f 2d3e
000000a0: bcd1 ab3d 8d95 91bd d7e5 debd 9d2a 1f3e
000000b0: daff 0dbe ee28 5ebd bcdc 443e fc8c a53c
000000c0: 70eb 7d3d 61fb 873d 04b4 8d3d 1b67 933d
000000d0: ba43 053e 1a48 e0bd 852a 203e 7f5b 0c3d
000000e0: 64ef b23d d5d3 f53d 72c1 453e 3e3b d5bd
000000f0: 69ce 5dbd f526 d83d ec63 953d 8d61 55bd
00000100: 8445 9ebd 717a a93d 4f90 d03d cbe3 efbd
00000110: f43a 89bd 469a 833d 6fd0 5fbc 78dd 32bd
00000120: a736 883d def3 813d d2e3 00be ad3b b1bd
00000130: 8339 a73d c80c 413d ca4d 853d 7101 8b3d
00000140: d888 683e 68b3 4a3c cada 62bd 9f4d 84bd
00000150: e781 d6bd d376 963d 6baa 3b3e 6eee 66bd
00000160: f7d9 f43d 060c af3d 8dd0 d53d 5b47 f03d
00000170: 89fd fabd 668a d63b 8830 05be 4f34 1ebd
00000180: 89d8 233e cf7f 2cbe d6ff b53d 718b debd
00000190: c462 40be a586 4b3d d7d1 233d a253 c03b
000001a0: 9b3c 133e 4ab9 383d 1847 433e 1e02 313b
000001b0: b7e7 103e 3669 0dbe 1be9 083e 79d2 27bd
000001c0: c733 3bbd bb94 e4bd 8d46 babd ae3c 2cbe
000001d0: af23 06be 40af 02bd 0c99 33bd 7195 4abd
000001e0: daea c03d 3ace 38bc aaf7 01bc 38c1 07bc
000001f0: 5d22 12bd 729e b8bd 9919 bcbd bd86 be3d

layer4.weight f4 [128, 128]
-0.07253585 0.09352569 0.077656165 0.053613383 0.0095467325 -0.054078307 -0.076504774 -0.08229014
0.021500783 0.038933083 -0.050207675 -0.0013835579 -0.0361632 0.0022898652 -0.01865334 -0.0382182
0.049620345 0.007872773 0.0023492945 0.02502624 0.008387171 -0.03567025 -0.012222172 -0.06909113
0.045072116 -0.01174205 0.05548922 -0.02698998 0.05540611 0.078378424 -0.05791137 0.041669272
-0.00065835856 -0.031424254 -0.031002305 -0.040075317 -0.03251593 0.084001854 -0.050224658 0.05300118
-0.019248769 0.019668378 -0.06687036 -0.06668432 0.09127097 -0.040872686 0.03498445 0.0512346
0.03279963 0.019648107 -0.0004048521 0.018507008 -0.073472135 -0.0777689 0.04728635 0.05557489
-0.036134697 -0.044548664 0.09942114 -0.023967966 -0.04042318 -0.00856141 -0.038751174 -0.00240279
-0.08309202 -0.05082385 0.002888846 0.002735102 0.031788163 0.07621287 -0.058057792 0.029027618
-0.07063289 -0.017502097 -0.005409031 -0.06695996 0.034954038 -0.039883103 -0.08367094 0.023194496
0.027534997 0.010751522 -0.008489353 0.05734895 0.02716401 -0.06447803 0.07901505 -0.06852195
0.07849239 -0.08548648 0.057686348 0.037887648 -0.061627347 0.028171636 0.056029487 -0.046101145
0.10138281 0.032767937 0.009944561 0.044028074 0.01848889 0.094664805 -0.0076897074 -0.0768486
-0.05348734 0.014889541 0.067458056 -0.078854166 0.004659302 0.035729 -0.018954651 -0.03587744
0.045415968 0.029115655 0.069515675 -0.055872403 -0.0074833687 -0.04209213 -0.014856146 0.02135447
-0.033207823 0.047044657 0.061946332 -0.10006457 -0.06118241 -0.08117127 -0.06167041 0.039389674
-0.12193725 0.07444957 -0.09156443 -0.03298725 0.20538168 0.21334837 -0.014343611 0.24173467
0.056868136 0.08670833 -0.16011904 -0.05472904 0.121961415 0.011569324 0.09109725 -0.18503082
-0.15344176 0.007005776 -0.14843464 0.037921842 -0.018490152 -0.016250124 0.08139139 0.054065377
-0.14088376 -0.17240353 0.017304067 -0.18429698 0.17863286 0.16690825 0.031065943 -0.111483134
-0.09252536 -0.027627623 -0.15995431 0.15327266 -0.0931023 -0.0048168856 0.05801993 -0.115434654
0.105614975 -0.11123746 0.15173909 0.032065302 0.2781864 -0.10820987 0.16770288 0.100089274
0.15631898 0.057599347 -0.201786 0.10143415 -0.105870426 -0.056715794 0.035291888 0.12394541
-0.2221873 -0.098353565 0.13703708 -0.08957075 -0.012320419 0.026343225 0.1642904 -0.02788024
-0.101691484 0.07909543 -0.16883631 -0.084109575 0.14213996 0.007591321 0.014703329 -0.0823255
0.12746575 -0.06296398 0.22417708 -0.047422815 -0.15606971 -0.039053723 0.11754344 -0.0786993
-0.070457734 0.15124184 -0.021970788 0.101973735 0.20645112 -0.087457664 0.24494292 -0.10216634
0.12410928 -0.00204813 0.076655574 -0.033259947 0.100542575 0.08676982 -0.06708571 0.032192346
0.09121188 -0.19578716 0.059703767 -0.029816095 -0.013822472 -0.06431234 0.056901336 -0.048306644
-0.0020304432 -0.004773279 0.08994959 -0.038911086 -0.22214468 -0.1508866 -0.12974393 -0.15956098
-0.086141996 0.028133867 0.012436471 -0.014317343 -0.24368685 -0.013166457 0.08819208 -0.007235624
0.04131833 -0.07965254 0.005190733 0.25084123 -0.05415757 0.078197695 0.03467857 0.034744043
00000000: ad8d 94bd 668a bf3d 320a 9f3d b599 5b3d
00000010: e669 1c3c 3781 5dbd 89ae 9cbd bc87 a8bd
00000020: 6922 b03c 4c78 1f3d 90a6 4dbd 8058 b5ba
00000030: dd1f 14bd 9011 163b e4ce 98bc b08a 1cbd
00000040: b43e 4b3d cefc 003c 9ff6 193b d403 cd3c
00000050: 586a 093c f81a 12bd 813f 48bc a67f 8dbd
00000060: 8a9d 383d ba61 40bc aa48 633d 171a ddbc
00000070: 84f1 623d de84 a03d 7934 6dbd 66ad 2a3d
00000080: b295 2cba b8b6 00bd 8cf8 fdbc 0426 24bd
00000090: 6c2f 05bd 2a09 ac3d 5fb8 4dbd c417 593d
000000a0: 98af 9dbc 941f a13c 54f3 88bd ca91 88bd
000000b0: 46ec ba3d 1e6a 27bd db4b 0f3d 5fdb 513d
000000c0: e858 063d 11f5 a03c 5442 d4b9 029c 973c
000000d0: 8f78 96bd 4d45 9fbd 55af 413d 7fa2 633d
000000e0: fa01 14bd a978 36bd 509d cb3d 7858 c4bc
000000f0: c792 25bd 2845 0cbc 8db9 1ebd 2078 1dbb
00000100: 262c aabd ab2c 50bd cb52 3d3b 663f 333b
00000110: 4e34 023d 7e15 9c3d 02ce 6dbd 54cb ed3c
00000120: faa7 90bd 8f60 8fbc 3e3e b1bb 4e22 89bd
00000130: f72b 0f3d 775c 23bd ab5b abbd 6202 be3c
00000140: 1391 e13c 2727 303c ed16 0bbc bce6 6a3d
00000150: 0f87 de3c 0f0d 84bd a4d2 a13d 3c55 8cbd
00000160: 9ec0 a03d 8913 afbd 8548 6c3d 1430 1b3d
00000170: f56c 7cbd 34c8 e63c 2d7f 653d 8ed4 3cbd
00000180: caa1 cf3d ac37 063d 83ee 223c c856 343d
00000190: 0376 973c 9fdf c13d f1f9 fbbb cc62 9dbd
000001a0: 8b15 5bbd 43f3 733c 7327 8a3d 4b7e a1bd
000001b0: 0fad 983b 9258 123d c946 9bbc 39f4 12bd
000001c0: 1806 3a3d f483 ee3c 3c5e 8e3d 76da 64bd
000001d0: 0c37 f5bb cc68 2cbd 3167 73bc 92ef ae3c
000001e0: ed04 08bd e6b1 403d 70bb 7d3d a7ee ccbd
000001f0: 689a 7abd 1f3d a6bd 1d9a 7cbd 1157 213d
00000200: 3dba f9bd 0479 983d 2286 bbbd a31d 07bd
00000210: 934f 523e ff77 5a3e 7701 6bbc 4b89 773e
00000220: 90ee 683d 2394 b13d 3ff6 23be 8f2b 60bd
00000230: e8c6 f93d 438d 3d3c 3291 ba3d b878 3dbe
00000240: d61f 1dbe b590 e53b 40ff 17be ef53 1b3d
00000250: a978 97bc fb1e 85bc 87b0 a63d a873 5d3d
00000260: d543 10be 8d8a 30be 42c1 8d3c 59b8 3cbe
00000270: 88eb 363e ffe9 2a3e 017e fe3c 4551 e4bd
00000280: f07d bdbd 5353 e2bc 10cb 23be 82f3 1c3e
00000290: 6bac bebd f7d6 9dbb 4ea6 6d3d 0169 ecbd
000002a0: aa4c d83d 77d0 e3bd 7e61 1b3e e856 033d
000002b0: 736e 8e3e 239d ddbd 4eba 2b3e 9bfb cc3d
000002c0: 1512 203e 4bed 6b3d fda0 4ebe b5bc cf3d
000002d0: 98d2 d8bd d24e 68bd 3a8e 103d 17d7 fd3d
000002e0: 1185 63be 986d c9bd 7353 0c3e df70 b7bd
000002f0: 95db 49bc bfcd d73c be3b 283e 1a65 e4bc
00000300: a043 d0bd c9fc a13d 6de3 2cbe a441 acbd
00000310: 238d 113e 9ec0 f83b 3be6 703c 469a a8bd
00000320: 6286 023e 42f3 80bd ad8e 653e 6d3e 42bd
00000330: bdd0 1fbe ccf6 1fbd 9dba f03d 192d a1bd
00000340: 254c 90bd 24df 1a3e 15fc b3bc 9bd7 d03d
00000350: ec67 533e 011d b3bd 51d2 7a3e 963c d1bd
00000360: 022d fe3d eb39 06bb 99fd 9c3d 953b 08bd
00000370: 44e9 cd3d 60b4 b13d 3c64 89bd 1fdc 033d
00000380: 4bcd ba3d 6e7c 48be f08b 743d e240 f4bc
00000390: a677 62bc 30b6 83bd 6011 693d 30dd 45bd
000003a0: 2f11 05bb 2b69 9cbb 7e37 b83d 3b61 1fbd
000003b0: e579 63be 0482 1abe 98db 04be f463 23be
000003c0: 376b b0bd ff78 e63c 57c2 4b3c 4a93 6abc
000003d0: 0c89 79be 20b8 57bc 0d9e b43d d018 edbb
000003e0: 693d 293d df20 a3bd 0617 aa3b 436e 803e
000003f0: 54d4 5dbd 1d26 a03d 1e0b 0e3d c54f 0e3d

layer4.bias f4 [128]
-0.004721566 0.23673832 -0.060823515 0.048172638 0.11949952 -0.0043416666 0.001998316 -0.19537583
-0.008268753 -0.03533445 -0.03409094 0.21517538 0.093999885 0.09747889 0.19144131 0.058346197
0.077657886 -0.072519735 0.115462594 0.03622199 -0.057461616 0.026723731 0.10992372 -0.07218477
-0.0938261 -0.20076555 0.0045317663 -0.124759436 0.06408081 -0.058085475 -0.076306276 -0.044673763
0.006259007 0.158298 0.09085305 0.040151864 0.21081841 -0.036508262 -0.06429997 0.20479603
-0.008864616 0.12567107 -0.047519945 0.08167473 -0.09522861 0.026723651 -0.07316408 -0.06197191
0.08832693 -0.1231081 0.1489261 0.14299452 -0.11767034 0.053409018 -0.13729641 0.09560628
-0.07015241 -0.01692777 0.25353208 0.035999544 0.057931893 0.0016716426 -0.030667618 -0.058448125
0.11713954 -0.102286436 0.055019073 0.11535848 0.035260003 0.08016723 -0.090358324 0.1821331
0.07476918 -0.12286087 -0.059824545 -0.025883256 0.11756849 0.08975431 -0.114264354 0.007200473
-0.04576062 -0.09553658 0.13103767 -0.023070052 0.03759312 0.013040834 0.31120452 -0.060417812
0.012733334 -0.061685976 0.050023276 -0.052521702 0.078158215 -0.04586044 -0.0020727087 0.019444406
0.11835119 -0.03246066 -0.050604954 0.04844253 0.025198188 0.046793196 0.11875281 -0.08615249
0.1291941 -0.034387395 -0.10072934 -0.09414763 0.11312211 0.1323755 0.04815802 -0.08799385
-0.04653927 0.108743206 0.013633448 -0.06043266 0.06780333 0.024869801 0.024137037 0.104694284
0.025156423 -0.012965516 0.029198103 -0.026924543 0.109427124 0.013633479 0.2113322 0.015775936
00000000: 5eb7 9abb 886b 723e 1422 79bd ac50 453d
00000010: 2abc f43d 8a44 8ebb 2ef6 023b 9a10 48be
00000020: aa79 07bc dbba 10bd f1a2 0bbd ef56 5c3e
00000030: 0383 c03d 03a3 c73d 3109 443e 6cfc 6e3d
00000040: 190b 9f3d 3a85 94bd a777 ec3d 825d 143d
00000050: df5c 6bbd baeb da3c b01f e13d 9cd5 93bd
00000060: e627 c0bd 7c95 4dbe 367f 943b e081 ffbd
00000070: cd3c 833d 09eb 6dbd 7746 9cbd d6fb 36bd
00000080: 5b18 cd3b df18 223e 2a11 ba3d 4876 243d
00000090: c8e0 573e b089 15bd b4af 83bd 0db6 513e
000000a0: e53c 11bc ebaf 003e 46a4 42bd 1545 a73d
000000b0: 3807 c3bd 8feb da3c 0dd7 95bd 42d6 7dbd
000000c0: c0e4 b43d 1920 fcbd 1580 183e 286d 123e
000000d0: 26fd f0bd 6ac3 5a3d 6e97 0cbe 3acd c33d
000000e0: 11ac 8fbd 1bac 8abc f5ce 813e 4274 133d
000000f0: fe49 6d3d 051b db3a a83a fbbc 4d67 6fbd
00000100: dbe6 ef3d 8d7b d1bd ae5b 613d 1141 ec3d
00000110: cb6c 103d b72e a43d c90d b9bd 1981 3a3e
00000120: 9520 993d 7b9e fbbd 950a 75bd 1f09 d4bc
00000130: c0c7 f03d 1cd1 b73d 6e03 eabd f2f1 eb3b
00000140: 7d6f 3bbd afa8 c3bd bd2e 063e 68fd bcbc
00000150: 3efb 193d 39a9 553c 3356 9f3e ab78 77bd
00000160: 799f 503c 6faa 7cbd 35e5 4c3d ff20 57bd
00000170: 6a11 a03d 28d8 3bbd 48d6 07bb e049 9f3c
00000180: 1c62 f23d 78f5 04bd 2447 4fbd ad6b 463d
00000190: 6e6c ce3c 39aa 3f3d ac34 f33d b770 b0bd
000001a0: 754b 043e ccd9 0cbd 2f4b cebd 79d0 c0bd
000001b0: 91ac e73d 718d 073e 5841 453d 1f36 b4bd
000001c0: f69f 3ebd c2b4 de3d d35e 5f3c 3d88 77bd
000001d0: 79dc 8a3d c1bb cb3c 09bb c53c f569 d63d
000001e0: d814 ce3c 516d 54bc dc30 ef3c dc90 dcbc
000001f0: 541b e03d f55e 5f3c 7867 583e 893c 813c

input_norm.weight f4 [8]
1.2583423 0.85798925 0.95212084 0.82934785 0.8034934 1.0265974 0.5917436 0.73147166
00000000: 5c11 a13f 2fa5 5b3f 31be 733f 2450 543f
00000010: beb1 4d3f 8b67 833f 827c 173f ba41 3b3f

input_norm.bias f4 [8]
0.26466754 0.22044957 0.49059814 0.41580114 0.08726997 0.28942454 0.27479857 0.09888363
00000000: 8182 873e 88bd 613e ae2f fb3e e3e3 d43e
00000010: 99ba b23d 742f 943e 66b2 8c3e 8083 ca3d

input_norm.running_mean f4 [8]
3.5584202 0.043334793 -1.083306 3.5356402 0.028712843 0.028704384 -0.10447039 0.2453522
00000000: 28bd 6340 d37f 313d c5a9 8abf ee47 6240
00000010: 3237 eb3c 7525 eb3c 92f4 d5bd 9b3d 7b3e

input_norm.running_var f4 [8]
3.8303425 0.0040915464 2.1014607 5.3320575 0.23918515 0.0020653259 0.63044196 0.18523255
00000000: 5524 7540 6112 863b 557e 0640 37a0 aa40
00000010: f4ec 743e 6b5a 073b a564 213f 9aad 3d3e

norm.weight f4 [128]
0.8190876 1.0257475 0.86899996 0.8212441 0.8341424 0.8503836 0.85669065 0.8498208
0.86641276 0.82289475 0.90279305 0.89935076 0.8067655 0.88109136 0.8980622 0.88196003
0.8009258 0.83345985 0.9211221 0.8931317 0.84788805 0.89776057 0.91462827 0.87956166
0.8826005 0.90044415 0.8222953 1.1056006 0.7895214 0.8011408 0.9215039 0.88238966
0.8042203 0.8625115 0.87020653 0.88667554 0.9042175 0.888205 0.79422873 0.9449604
0.9166165 0.8585034 0.97114015 0.8109143 0.8589254 0.9134051 1.0424144 0.85599524
0.91705865 0.8891381 0.8947833 0.863826 0.85150605 0.88304955 0.8176714 0.86639744
0.84356207 1.0067177 0.89007235 0.8214219 0.86539185 0.81474864 0.8864143 0.8792155
0.8385181 0.8639918 0.8637825 0.86213833 0.7845119 0.89149606 0.8917858 0.85592353
0.863905 0.8261422 0.85338545 0.86949354 0.9307897 0.8872354 0.8476864 1.0015507
0.8726654 0.8560923 0.85075575 0.8421811 0.8662495 0.8257018 0.95885706 0.8753277
0.85982466 0.86683875 0.81403315 0.87443423 0.7898631 0.8035435 0.81639177 0.8957488
0.9086956 0.87569773 0.8975092 0.913509 0.8552455 0.8715169 0.81267303 0.79570293
0.841002 0.91724086 0.8397648 0.8887065 1.0252166 0.8487107 0.86593497 0.8552959
0.8206355 0.8805913 0.8305672 0.8461924 0.85438997 0.8603471 0.8493223 0.863752
0.8087739 0.9190938 0.86887676 0.8239654 0.894053 0.8723518 0.96475357 0.80915153
00000000: baaf 513f b24b 833f c876 5e3f 0e3d 523f
00000010: 5b8a 553f bdb2 593f 1450 5b3f db8d 593f
00000020: 3acd 5d3f 3ba9 523f 721d 673f da3b 663f
00000030: 2f88 4e3f 348f 613f 68e7 653f 22c8 613f
00000040: 7909 4d3f a05d 553f a8ce 6b3f 47a4 643f
00000050: 310f 593f a3d3 653f 1425 6a3f f42a 613f
00000060: 1bf2 613f 8283 663f f281 523f 5284 8d3f
00000070: 131e 4a3f 9017 4d3f aee7 6b3f 4ae4 613f
00000080: 62e1 4d3f 8ecd 5c3f dbc5 5e3f 2bfd 623f
00000090: cc7a 673f 6761 633f 9352 4b3f ede8 713f
000000a0: 61a7 6a3f e1c6 5b3f a49c 783f 1498 4f3f
000000b0: 89e2 5b3f ebd4 693f d66d 853f 8122 5b3f
000000c0: 5bc4 6a3f 8e9e 633f 8510 653f b323 5d3f
000000d0: 4dfc 593f 890f 623f ea52 513f 39cc 5d3f
000000e0: aff3 573f 20dc 803f c8db 633f b548 523f
000000f0: 528a 5d3f 5e93 503f 0cec 623f 4414 613f
00000100: 1fa9 563f 912e 5d3f da20 5d3f 19b5 5c3f
00000110: c6d5 483f 1639 643f 134c 643f ce1d 5b3f
00000120: e128 5d3f 0e7e 533f 7877 5a3f 2197 5e3f
00000130: 3c48 6e3f dc21 633f fa01 593f d032 803f
00000140: 0067 5f3f dd28 5b3f 21cb 593f 2e99 573f
00000150: 87c2 5d3f 3161 533f a877 753f 7a15 603f
00000160: 781d 5c3f 25e9 5d3f 7a64 503f ecda 5f3f
00000170: 7834 4a3f 07b5 4d3f 0dff 503f cb4f 653f
00000180: 46a0 683f ba2d 603f 2ac3 653f badb 693f
00000190: 5ef1 5a3f bb1b 5f3f 570b 503f 30b3 4b3f
000001a0: e84b 573f 4cd0 6a3f d3fa 563f 4582 633f
000001b0: 4c3a 833f 1b45 593f eaad 5d3f acf4 5a3f
000001c0: 2b15 523f 6e6e 613f 0da0 543f 11a0 583f
000001d0: 4db9 5a3f b53f 5c3f 306d 593f da1e 5d3f
000001e0: ce0b 4f3f bb49 6b3f b56e 5e3f 65ef 523f
000001f0: a8e0 643f 7352 5f3f 17fa 763f 8e24 4f3f

norm.bias f4 [128]
0.10203367 0.08804259 0.08868367 -0.11267416 0.13398519 -0.10366203 -0.13736829 -0.10806161
0.22113158 0.12781282 0.20307548 0.1415952 0.13879082 0.23259524 0.30496943 -0.09693968
0.1852397 0.111696936 0.16720434 0.004806323 0.0435127 -0.034662448 0.10616541 -0.05720536
0.058757797 0.0018215631 0.13411304 -0.196089 -0.35732958 -0.13786308 -0.009421786 0.17222536
-0.014990514 -0.15365681 -0.04984213 -0.24794814 -0.059382726 -0.012101741 0.06548688 0.18215737
0.0352612 0.20245986 0.10033826 0.27164927 -0.036105625 0.001714264 0.14777243 -0.2804773
0.13029438 -0.22841161 0.076189294 0.19173431 0.20965928 -0.20381995 -0.042473014 -0.06737239
0.09511344 0.03744414 0.16935684 0.38346088 -0.13607539 0.13135391 -0.17215359 0.3443397
0.031842206 -0.24296321 -0.06693213 0.07398011 0.2261937 -0.04491076 0.31991062 0.10388285
0.14057954 -0.21367216 0.11139189 0.22433983 -0.08098365 -0.29322833 -0.07713803 -0.090984754
0.021393146 0.14302021 -0.12766324 -0.089180656 0.035627857 -0.032405768 0.353621 0.03814914
-0.3868225 0.028818332 0.12792873 0.19576843 -0.010036474 0.22507942 0.019128157 0.06794093
0.06823782 -0.10086232 -0.301959 0.13843071 0.059849404 -0.027679356 -0.01622696 -0.15051231
0.05762394 -0.13596368 0.14003715 0.025416447 -0.09383647 0.12618132 -0.08402126 0.20086285
-0.062290322 0.06360518 -0.07869329 -0.014524793 -0.03737587 -0.21662022 0.12796752 -0.087155275
0.109903306 0.062214833 -0.37818918 0.057765827 -0.098089896 -0.1276289 0.035502348 -0.019268231
00000000: 07f7 d03d ac4f b43d c99f b53d b6c1 e6bd
00000010: 6a33 093e c24c d4bd 46aa 0cbe 684f ddbd
00000020: 5170 623e 5de1 023e 05f3 4f3e 55fe 103e
00000030: 2e1f 0e3e 722d 6e3e f424 9c3e 5088 c6bd
00000040: 7aaf 3d3e 5dc1 e43d 9d37 2b3e 5c7e 9d3b
00000050: 5f3a 323d 36fa 0dbd 406d d93d 2b50 6abd
00000060: 04ac 703d 84c1 ee3a ee54 093e 8ecb 48be
00000070: e7f3 b6be fb2b 0dbe d65d 1abc d85b 303e
00000080: c69a 75bc 3658 1dbe 4327 4cbd 1ee6 7dbe
00000090: 4d3b 73bd 6146 46bc fc1d 863d 7687 3a3e
000000a0: 0c6e 103d a351 4f3e 257e cd3d 9d15 8b3e
000000b0: 7ee3 13bd 28b1 e03a a851 173e b89a 8fbe
000000c0: e46b 053e bce4 69be 2209 9c3d 0056 443e
000000d0: ecb0 563e 2db6 50be 2ff8 2dbd 89fa 89bd
000000e0: d6ca c23d 075f 193d e16b 2d3e fc54 c43e
000000f0: 5957 0bbe a481 063e 0849 30be 4b4d b03e
00000100: f96c 023d 59cb 78be b613 89bd e282 973d
00000110: 529f 673e 58f4 37bd 53cb a33e 88c0 d43d
00000120: 15f4 0f3e e0cc 5abe 6e21 e43d 57b9 653e
00000130: c2da a5bd 0622 96be 8bfa 9dbd 3756 babd
00000140: ae40 af3c e473 123e 27ba 02be 59a4 b6bd
00000150: 84ee 113d e9bb 04bd d00d b53e 4642 1c3d
00000160: 990d c6be 6c14 ec3c c0ff 023e 8577 483e
00000170: 0670 24bc 387b 663e a7b2 9c3c 9d24 8b3d
00000180: 45c0 8b3d e790 cebd 5f9a 9abe c8c0 0d3e
00000190: a624 753d d1bf e2bc 67ee 84bc e61f 1abe
000001a0: 1507 6c3d 103a 0bbe e665 0f3e 2736 d03c
000001b0: 562d c0bd ad35 013e 5713 acbd feae 4d3e
000001c0: 2324 7fbd 6f43 823d f329 a1bd 66f9 6dbc
000001d0: 7117 19bd b1d1 5dbe eb09 033e 777e b2bd
000001e0: fc14 e13d fbd4 7e3d 03a2 c1be dc9b 6c3d
000001f0: 5be3 c8bd 26b1 02be e96a 113d 69d8 9dbc

norm.running_mean f4 [128]
0.41558924 0.47019175 0.34159732 0.45224103 0.17514527 0.4769779 0.07081566 0.2628905
0.40130857 0.31309378 0.14502305 0.3136184 0.3923086 0.52993536 0.34134573 0.3272053
0.32046905 0.33348522 0.2523666 0.3738677 0.47904482 0.49357325 0.50565267 0.15752739
0.50860757 0.02908419 0.40342093 0.0022983833 0.89244425 0.23643151 0.32706222 0.44168586
0.43311492 0.2598804 0.15603118 0.59360594 0.5474313 0.13065669 0.08658567 0.30029485
0.03989812 0.54764503 0.026893098 0.26607993 0.03937382 0.11542356 0.10540785 0.68670994
0.16269149 0.34132585 0.30906758 0.5209648 0.30927327 0.41607636 0.24651173 0.20809834
0.45274478 0.0061033578 0.42940572 0.8697189 0.6706164 0.4057634 0.071911015 0.033848576
0.20225257 0.3116216 0.36403477 0.4171833 0.18962985 0.48589635 0.15850168 0.422701
0.3534567 0.36336136 0.35241592 0.51098377 0.28634438 0.6459008 0.24440502 0.023669748
0.3868369 0.26426378 0.6224513 0.4016105 0.6223963 0.28777048 0.35187665 0.4955458
0.4199121 0.13768323 0.55777466 0.7754621 0.19513866 0.43710536 0.24313198 0.15197413
0.65818125 0.19367978 0.25763914 0.48049098 0.52651405 0.10169583 0.45961317 0.1681044
0.25682682 0.20580557 0.1954133 0.2417178 0.07390919 0.42847854 0.31913823 0.40123183
0.33429322 0.69275033 0.23088676 0.4260384 0.51918626 0.7197891 0.57108074 0.55049115
0.3354407 0.24580193 0.13090345 0.12971893 0.43638468 0.053499352 0.4842114 0.15064654
00000000: 1dc8 d43e f9bc f03e d8e5 ae3e 238c e73e
00000010: 4859 333e 7336 f43e cd07 913d 9599 863e
00000020: 5178 cd3e d44d a03e ec80 143e 9792 a03e
00000030: acdc c83e d8a9 073f dec4 ae3e 7487 a73e
00000040: 8514 a43e 93be aa3e 3236 813e 966b bf3e
00000050: 5d45 f53e a2b5 fc3e 7472 013f dc4e 213e
00000060: 1b34 023f f841 ee3c 308d ce3e 79a0 163b
00000070: 3a77 643f 1a1b 723e b374 a73e a624 e23e
00000080: 3dc1 dd3e 0b0f 853e a3c6 1f3e 8ff6 173f
00000090: 7524 0c3f deca 053e d453 b13d 3fc0 993e
000000a0: 366c 233d 7732 0c3f ea4e dc3c a13b 883e
000000b0: 7146 213d 3063 ec3d 12e0 d73d 39cc 2f3f
000000c0: 9998 263e 43c2 ae3e 1b3e 9e3e f35d 053f
000000d0: 1159 9e3e f607 d53e 926d 7c3e bb17 553e
000000e0: 2ace e73e adfe c73b 11db db3e e6a5 5e3f
000000f0: 84ad 2b3f 38c0 cf3e 1546 933d cea4 0a3d
00000100: 4c1b 4f3e de8c 9f3e c462 ba3e 0d99 d53e
00000110: 542e 423e 68c7 f83e 444e 223e 446c d83e
00000120: 47f8 b43e 800a ba3e dc6f b43e d5cf 023f
00000130: bb9b 923e c159 253f 4f45 7a3e 0fe7 c13c
00000140: 7c0f c63e 954d 873e f858 1f3f e49f cd3e
00000150: 5d55 1f3f a756 933e 2d29 b43e 2eb8 fd3e
00000160: b8fe d63e d5fc 0c3e 52ca 0e3f af84 463f
00000170: 6ed2 473e 46cc df3e 97f7 783e 1b9f 1b3e
00000180: 917e 283f fe53 463e 47e9 833e ea02 f63e
00000190: a0c9 063f e745 d03d 6b52 eb3e 8f23 2c3e
000001a0: ce7e 833e b2be 523e 6d1a 483e df84 773e
000001b0: b45d 973d 8a61 db3e 1666 a33e 426e cd3e
000001c0: 7b28 ab3e 1658 313f 946d 6c3e b521 da3e
000001d0: 64e9 043f 1944 383f 5932 123f fdec 0c3f
000001e0: e2be ab3e 80b3 7b3e 8e0b 063e 0ad5 043e
000001f0: d06d df3e 2322 5b3d 8eea f73e 1643 1a3e
