final_models/v_start_noise/models/best_model_episode_6857.pt (torch, 226638 bytes, 22 tensors)

layer1.weight f4 [128, 8]
00000000: cbce 9f3e 2d92 6ebe c592 fcbd 6b05 6e3e
00000010: d45e 95be f5df 2d3e fbf1 95bd 3c15 673e
00000020: d0cc f1bb 0387 6cbe f1b2 873e aae9 51bd
00000030: 9895 16bd 74b8 e0bd f9b0 9abc ee1e a9bb
00000040: c7d3 14be 69a6 67bd 1227 c63e a231 1f3e
00000050: 83ec 12be 51d6 54be 4ef9 e4bd 52c6 17be
00000060: 3037 aabd fed0 9c3b 5605 483e 130f 873e
00000070: bf3b ddbe 6caa 0f3e 33d4 973d 4ddf b23e
00000080: 7bb5 9a3d 244f 72be ca0b 90be ed0e 9dbc
00000090: 8e09 453e 910f 0fbd 6f75 303e 6c9e 3dbe
000000a0: 0fb0 583e e1c9 05be fda9 8f3e 21d7 0fbe
000000b0: 9951 02be 002a 843e 48d5 f6bd c266 ef3c
000000c0: d901 76bb 2f77 b03c afb1 5cbe d2ed 31be
000000d0: ceb7 c83d 49d9 26be 0080 a53e c430 d53d
000000e0: e736 793c 7227 b0be 020c 163e 6820 9c3d
000000f0: 180e 68be a7d0 573e ba35 703e 1641 b83e
00000100: 28ce 4ebe 138a 2cbe e9cd 37bd 087f c93c
00000110: 7557 92be df13 d3bd 7b14 f93d 4c2c 033d
00000120: 60a6 313e bc4c 13be 981b 283e d33c 1f3c
00000130: f1a0 4c3e e6d8 343e 051a 6dbe 89ab 003e
00000140: c649 76be cb17 a4be 7c86 f53c fde6 27be
00000150: 8c73 373e 43a2 4abe b999 9bbe d4fe 403e
00000160: f20f 24bd d544 0c3e 31c1 b63d d310 ffbd
00000170: f02c b5bc 49fd 093e 9c85 f7bd 0c0a 10be
00000180: 0dc4 7f3e 9fbb 413e ac8b 1c3d 14f5 d7bd
00000190: 4616 ab3e fc8d dbbd 58ed 313e 3da6 463e
000001a0: 90f3 fcbd 222c a0be 3fb1 bf3e 17b6 813d
000001b0: e6eb c63e 2b3c e63c 4a1c 463e f87d 323e
000001c0: abee 9b3e 04c0 fdbd 9575 babc a452 953d
000001d0: 814b 273d 7a58 b6bd f146 e8bc bd9a 97be
000001e0: 66cc 79be f455 dd3a 97e0 9a3e 5e39 86be
000001f0: c142 1f3e b39b 6abe 31ad cfbe dd02 bdbc
00000200: 9ef6 393e 2abd d83e 24f8 7ebe abcb 8b3e
00000210: 3860 a13e f7cf 563e 07ab 8a3e bed3 943e
00000220: f5a6 e83e 9ed8 0d3e 680d 33be d148 b4be
00000230: b40f 80be b38a d93c 531a 8dbe 0754 1e3e
00000240: 3841 803c 22fc 85bd 0677 e53d 954d a33d
00000250: 2678 1e3e 44ab fc3d 9c96 06bd 01c5 bd3e
00000260: ecb0 b0bd 370c 3ebd ade6 aabe e7c9 60be
00000270: 04a0 61be d233 03be 5fc1 623e 2ca7 febd
00000280: 3e9e f3be 0050 b43d 6427 023e c658 f93e
00000290: a22d 4ebe a0f2 343e d9eb 07be 105d 18bc
000002a0: af0d 80be b0a0 63be f08c 6fbe 3426 db3d
000002b0: 4c7e 0ebd 0dee 3fbc 148b d33e e628 ab3e
000002c0: 7656 8f3e 7d37 b43d 75d0 e4be 91f6 163e
000002d0: b69e a8bc 846b 723d b60c d1be 91d7 28be
000002e0: 6738 a8be c4a1 363e ec34 b5be c0ad a2be
000002f0: 121a 45bc 100b 81be a8ee 3e3d 9ddc b0bd
00000300: 91d9 a4be 1084 f43c 539a 943e b031 61be
00000310: 5f52 3f3e da8c af3d 485c c53e 3889 9abe
00000320: 92b1 c6bb c182 a3be 1ac8 813e 94be 62bc
00000330: f4eb 083d 629b 8fbe d1f7 07bd a607 1f3d
00000340: c8e6 063b 2fa1 1a3e 2232 773d a03a 873c
00000350: ee2b 84be c80a 9e3e c7bb 9c3e 553a d73e
00000360: b4c4 893c f771 83be 2e19 16be 7d89 c53d
00000370: fe3c 0bbe a466 acbc de96 f2bd 19d8 88be
00000380: 1389 c23e b764 50be f1aa 2a3b d0a6 863e
00000390: b3de fb3e d96e 913e 7ce7 dabc 2593 cabe
000003a0: b8f1 3c3e de00 513d f5c2 b5bd 0c65 3f3d
000003b0: a130 cebe 980c 543e e3ab 823e 53df a1be
000003c0: a10b debe 88d2 85be dde2 c93d 5281 bc3d
000003d0: 7655 5abe 6eaf 8d3e 2f99 aebe bf53 47be
000003e0: 4ac9 2bbe 50a9 a43e 015c a13e d846 b8bc
000003f0: b5fe 873d f2e2 f03d 0de6 a93d 06b7 50bd
0.31212458 -0.23297949 -0.123326816 0.23244254 -0.2917391 0.16979964 -0.07321545 0.22566694
-0.007379152 -0.23098378 0.2650371 -0.05124823 -0.036763757 -0.10972682 -0.018883215 -0.005161158
-0.14533912 -0.056555185 0.38701683 0.15546277 -0.14348035 -0.2078488 -0.111803636 -0.14821747
-0.083113074 0.004785656 0.19533285 0.26378688 -0.43209645 0.14029855 0.07413521 0.3493599
0.07554146 -0.23663002 -0.28133994 -0.019172156 0.19241926 -0.034926955 0.17232297 -0.18517464
0.21160911 -0.13065292 0.28059378 -0.14046909 -0.1272644 0.25813293 -0.12052399 0.029223803
-0.0037537722 0.021541206 -0.21552156 -0.17375877 0.09800683 -0.16293825 0.3232422 0.10409692
0.015210844 -0.34405094 0.14653018 0.076233685 -0.22661626 0.21075688 0.23457995 0.35987157
-0.2019583 -0.16849546 -0.044874106 0.024596706 -0.2858235 -0.103065245 0.121621095 0.032024667
0.17348623 -0.1438474 0.16416776 0.0097190915 0.1998327 0.17660865 -0.23154457 0.12565435
-0.2405158 -0.32049403 0.029971354 -0.16396709 0.17915171 -0.1978846 -0.3039072 0.18847209
-0.04005427 0.13698132 0.08923567 -0.12454381 -0.022116154 0.13475527 -0.12086031 -0.14066333
0.24977131 0.18919228 0.03821914 -0.10544792 0.3341543 -0.10720441 0.17375696 0.19399352
-0.12351143 -0.3128367 0.37439916 0.06333559 0.3885185 0.028104862 0.19346729 0.17430866
0.30455527 -0.1239014 -0.022761146 0.07291153 0.04084349 -0.08903594 -0.02835414 -0.29610243
-0.24394378 0.0016886578 0.30249473 -0.26215643 0.15552808 -0.22910957 -0.40561822 -0.023072654
0.18160483 0.4233182 -0.24899346 0.27303824 0.31518722 0.2097777 0.27083609 0.29067796
0.45439878 0.13852164 -0.17485583 -0.35211805 -0.2501198 0.026555395 -0.27559146 0.15461741
0.015656099 -0.06542231 0.112043425 0.07973782 0.1547552 0.12337354 -0.032858476 0.37064365
-0.08627495 -0.046398368 -0.33379117 -0.2195202 -0.22033697 -0.12812737 0.22144078 -0.12434229
-0.47581667 0.08804321 0.12710339 0.4870054 -0.20134595 0.17670679 -0.13273562 -0.009299532
-0.2501044 -0.22229266 -0.23393607 0.10700646 -0.034788415 -0.011714471 0.41317046 0.3342964
0.27995652 0.08799646 -0.4469029 0.14742495 -0.020583492 0.059184566 -0.4083001 -0.16488482
-0.32855532 0.17835146 -0.3539194 -0.31773186 -0.012030141 -0.25203753 0.04661432 -0.08635829
-0.3219724 0.029848129 0.2902399 -0.2199161 0.18683766 0.08571787 0.38546968 -0.30182815
-0.0060636485 -0.31935695 0.25347978 -0.013839383 0.033428147 -0.28048235 -0.03319532 0.038825653
0.0020584334 0.15100549 0.060350545 0.016507447 -0.25814766 0.308676 0.30612013 0.4203669
0.016817428 -0.25672886 -0.14658043 0.096453644 -0.13597485 -0.021045037 -0.11845182 -0.2672737
0.37995204 -0.2035092 0.002604183 0.26299143 0.49193344 0.28404883 -0.026721708 -0.39565387
0.18451583 0.051026218 -0.08875076 0.046727225 -0.40271476 0.20707929 0.25521764 -0.31615695
-0.43368247 -0.26137185 0.09857724 0.092043534 -0.21321663 0.27672905 -0.34101245 -0.1946554
-0.16776004 0.32160425 0.31515506 -0.022494718 0.066403784 0.117620364 0.08295832 -0.050955795

layer1.bias f4 [128]
00000000: bdf8 8fbc 1bb4 53bd 7ea9 ed3d 0828 e9bd
00000010: 59f9 bbbe 01dd 173e 9039 22be c4ad cbbd
00000020: 9fc0 b23e 4e87 1e3e 4498 103e c49a 393c
00000030: 251c 89be 9176 403e 46e1 3ebe 702b 073d
00000040: 2942 9fbe 2448 363e 66b3 47be 71ec a13e
00000050: 1007 203e 66b3 b73e 7d6e 523d c653 2bbc
00000060: be6e fd3d a178 3fbe 9e89 2ebe 8429 cdbe
00000070: 39ab cc3e f7a3 013c ae25 083e 3810 083d
00000080: 9410 223e f1e1 87be ccc9 2ebe 0637 8f3e
00000090: a8b4 383e 798a 62bb 6c7c 84be 2124 6ebd
000000a0: 1c3c 6bbe 7b41 b43c f5a5 84be d727 89be
000000b0: 11f7 cebe 4379 b33a a366 123e 54ce bf3e
000000c0: c023 a6be b854 ccbd 4f76 61be c360 86be
000000d0: 3474 a2bc b33f bf3e f9f1 7f3c cd2b a1bd
000000e0: 6f9b 933e c265 a4be f59f 99bc 038a 8a3e
000000f0: 71ce 8a3e 42e6 a43d b74e 46be 0f35 e0be
00000100: 95e9 21be 9fc4 5b3e b2fb 843e 9988 6b3d
00000110: 32ed 9ebe 2337 84bd 7586 ff3d 4323 003d
00000120: 972c 5dbe 9d41 7c3d 4c1f 123d 548e b03d
00000130: 81ce 913b 19da 413e 5dad c0be 2711 04be
00000140: d931 d0b9 545f 613e 1afd 303e de58 1d3e
00000150: b5d6 c13e 291f 013e 2edb cebe 7f01 1b3e
00000160: 4be9 63be 102a 2abc 4df0 733d 9f65 b33e
00000170: db25 febd 8235 5abe f77b d1bd f429 8abd
00000180: 778e ab3e 780a 533e 0db8 4a3e 701d bc3d
00000190: 2467 bbbd e7cf 81bd afaa 85be a7e0 f63d
000001a0: 9557 76be 413b 263d d0ae 3d3e bade 7a3e
000001b0: 74a7 b6be 5a3d c83e 60fb 19be af52 81bd
000001c0: 11ce 9e3e 01d3 923e 97eb 97be 162f 673e
000001d0: a416 b4be 1e2f a83e 774c d53e a937 b03b
000001e0: c59e 0c3d 5e86 823b 8273 a0be 6cba 6cbe
000001f0: 9bbe 44bd 6e47 ccbe c192 a1be a0b4 a8bd
-0.017574662 -0.051685434 0.11604594 -0.113845885 -0.36713675 0.148304 -0.15842271 -0.099452525
0.34912583 0.15481302 0.14120585 0.011328403 -0.26779285 0.1879523 -0.18640622 0.03300041
-0.31105164 0.17800957 -0.19502029 0.31625703 0.15627694 0.35879058 0.0513749 -0.010456985
0.12374638 -0.1869836 -0.17044684 -0.40070736 0.39974383 0.007912627 0.13295624 0.033218592
0.15826637 -0.26539567 -0.17069167 0.27971667 0.18037665 -0.00345674 -0.25876176 -0.058139924
-0.22972149 0.02200388 -0.25907865 -0.26788208 -0.40422872 0.0013692755 0.14296965 0.37462103
-0.3244915 -0.09977096 -0.22017787 -0.26245698 -0.0198308 0.37353286 0.015621656 -0.078696825
0.28829524 -0.32108885 -0.018753031 0.2705842 0.27110627 0.08051731 -0.19365965 -0.4379048
-0.1581176 0.21461724 0.25973278 0.057503317 -0.3104034 -0.06455829 0.124768175 0.03128363
-0.21599041 0.06158601 0.03567438 0.08620897 0.004449666 0.18930854 -0.37632266 -0.12897168
-0.0003970999 0.22009021 0.1728405 0.15365931 0.3785912 0.12609543 -0.40401596 0.1513729
-0.22256963 -0.010386005 0.05955534 0.35038468 -0.12409564 -0.21309474 -0.102287225 -0.06746283
0.3350713 0.20609462 0.19796772 0.09185302 -0.09150532 -0.06338482 -0.26106784 0.12054568
-0.24056847 0.040583853 0.18523717 0.24499026 -0.35674632 0.39109308 -0.15037298 -0.06314599
0.3101659 0.28676608 -0.29671928 0.22576556 -0.35173523 0.32848448 0.416599 0.005377729
0.034331102 0.003983303 -0.31338125 -0.2311799 -0.048033338 -0.39898247 -0.31557277 -0.082375765

layer2.weight f4 [128, 128]
00000000: d584 2dbd 9cd1 2abd d093 c0bc 2fd5 d63b
00000010: 5393 c63d 06ca b2bb 6c9f 17bd bee8 133c
00000020: f197 e0bd 6a07 9b3d 830b b43d 784c 34bd
00000030: 1469 3ebd c825 0a3e 21a5 ddbd ed75 8b3d
00000040: 7e31 5ebd 5b8f ffbd 0026 0a3d 2932 c6bd
00000050: e8a0 a03d 93ee 0dbb c57c 75bd 02f3 91bd
00000060: d8ec 743d e813 e63d f482 4cbb b884 74bd
00000070: f70e e0bd 0306 8f3d 58d0 90bc 92de 7c3d
00000080: 6db8 8e3d e358 a23d 3093 f93c ab81 233d
00000090: f02d 873d 9e01 bdbb 19ca 9c3d 4271 bc3c
000000a0: c2c4 92ba 8678 21bd d760 0e3c 907f 9c3d
000000b0: c352 a63d a6da 12bc eb3c 1bbd e99c 993d
000000c0: 6708 673d 4fa3 333e f3a7 e63c 124d 93bc
000000d0: 75e0 b2bc 1718 6ebd aa25 043d b403 853c
000000e0: e882 8fbd 0cee 83bd 8e61 2f3d a662 d63c
000000f0: 2861 febd 8ae3 3f3d 4253 583d 4935 4e3d
00000100: 3946 e23d bc54 1bbd 3213 ab3d 02ff adbd
00000110: f271 dbbb d618 5bbd cbc9 8fbc 0e51 cc3d
00000120: dafd c13d 43dd bbbb a9a4 2abd dd74 fdbc
00000130: 02e3 6ebb d886 a7bc 3fab 793d a3a8 583d
00000140: 4e42 a43d 6ec3 25bd 5267 a03d 4bf3 c0bb
00000150: ea83 44bc 4a5a 0ebd af8f ccbb e192 58bd
00000160: 1f97 41bc b5e9 abbd 4cb6 683d 0873 78bd
00000170: 9165 acbc d631 7fbd 6b0e 8f3c 230b 963d
00000180: 96a0 8dbd 6ce1 b8bd ab97 983d b945 8a3d
00000190: 0c7d 813d a5db 69bd 6bd9 8d3d 14fc 7c3d
000001a0: 2445 1b3d 79b6 18bc 3128 b73d 47a8 293d
000001b0: aab4 193d 59c8 adbc d543 38bd 7d82 6abd
000001c0: 2ca1 f23d 019f cf3c 8e74 7c3d 7517 813d
000001d0: 4cfb a8bd 2f3b 9f3b d5f0 27bd 0c53 233c
000001e0: 82e3 2a3d 4010 c23c aa5c 03bd 5235 c7bc
000001f0: e9bf ecbd 893b 95bd 861f 893d 0e7d 85bd
00000200: f031 66bc 50ff 4fbb 60a4 a53c 327f ecbc
00000210: 028d 293d 9170 45bc 133c 723d d004 e1bb
00000220: d163 973c 3c72 46bb e028 cc3d d0f0 273c
00000230: c93e 433d d153 b5bc 0c74 3b3c 09ee ce3d
00000240: bbe5 cebd 1b88 16bc 32ba 8d3d 5619 28bd
00000250: 6dea 2bbd a04f cfba 982f 8f3c 37bc 623d
00000260: 07b6 01bb af0f 323d bcaa 88bd 5690 f23c
00000270: 945a 5abd 31a0 583d dbbb 38bd c4d9 b9bd
00000280: db9a cfba 545d 373d 6bf3 1bbb c5b6 ce3c
00000290: 2bca 26bb 63eb 573d 0939 1cbc b134 ebbd
000002a0: 3f29 83bd c672 ef3c fd13 67bc 98ac 973d
000002b0: 6215 41bd 9841 933d 3a58 3bbd dd6e 66bd
000002c0: b9d9 b1bc d95a a3bd f6b1 bdbc 571a 8b3c
000002d0: b45d 03be dbeb ba3d 7729 8cbd 2aa2 413d
000002e0: a777 473d a53f 0e3b fa7b 78bd 1483 9b3a
000002f0: 8a4b 44bd 0a8b a03d a62d a7bd d03f 0cbd
00000300: fd2e 00bd 430b 55bd 5bbe 15bd ce0e 563c
00000310: 406f febc 42eb 843b 5dff 933d 8df5 07bc
00000320: f742 7bbd f5f1 04bd b36b be3d 61ec c2bb
00000330: 4098 bbbd fd1d 6c3d 3a85 a8bb 1463 9b3c
00000340: 04f6 9bbb 6a5f f23d 2dae 88bd 9e09 433d
00000350: 9f04 173e b7e5 c93b 8491 393d ca86 8a3d
00000360: 5a45 c93d 0d31 0abd 4dcf c6bd 585e 1fbd
00000370: f30b bebd 7d49 16bb 8752 963d 8f04 953d
00000380: 0ac1 193d 953f 423c cc2d c73c 8f01 713d
00000390: c900 583d ce89 5b3b f5fe dabc 2428 ce3c
000003a0: 34a7 42ba b06c 15bd e46e f6bc 068b b23d
000003b0: 1dfd 843d d65f 0ebd 3912 09bd 491b 90bd
000003c0: 195a ac3a 5b6a 893d 5da8 c3bd b1cd 903d
000003d0: 0cd8 a8bd b85a 9ebd e3f3 43bb 97a3 4dbc
000003e0: 02f6 a2bc 321d 19bd 2d70 53bd 13cb a8bd
000003f0: c660 84bd e204 8dbd ec9f 813d 8af0 93bd
-0.042363007 -0.041703805 -0.023507982 0.006556175 0.096960686 -0.005456212 -0.03701727 0.009027658
-0.109664805 0.075697735 0.08791258 -0.04401824 -0.04648693 0.13490975 -0.108225115 0.06809602
-0.05424642 -0.12478515 0.033727646 -0.09677536 0.078431904 -0.0021657094 -0.059933443 -0.07126428
0.059796184 0.112342656 -0.0031205984 -0.059696883 -0.10940354 0.069835685 -0.017677471 0.061735697
0.0696877 0.0792711 0.030465692 0.039918583 0.06600559 -0.005768015 0.076557346 0.023003224
-0.0011197554 -0.03942158 0.008690081 0.07641518 0.08121254 -0.008963263 -0.037899893 0.07500631
0.056404497 0.17542766 0.028156256 -0.017981086 -0.021835545 -0.058128443 0.03226248 0.016237117
-0.0700739 -0.06441888 0.042817645 0.026170086 -0.12420875 0.046847858 0.052813776 0.050343785
0.1104855 -0.037922606 0.083532706 -0.084959045 -0.006696933 -0.053490482 -0.017552277 0.099763975
0.094722465 -0.0057331636 -0.04166094 -0.030939514 -0.0036451225 -0.02045004 0.06095433 0.0528952
0.08020459 -0.04046958 0.07832207 -0.005888378 -0.011994341 -0.034754075 -0.0062427144 -0.05287445
-0.011815815 -0.083941855 0.056814477 -0.060656577 -0.021044524 -0.062303387 0.01746293 0.07326343
-0.06915395 -0.09027371 0.07450803 0.0675158 0.06322679 -0.057094235 0.06926235 0.061763838
0.037907735 -0.009320849 0.08943213 0.041420247 0.03752581 -0.021213697 -0.044986565 -0.05725335
0.11847147 0.025344374 0.061634593 0.06303302 -0.08251056 0.00485935 -0.04100116 0.00996853
0.041720875 0.02368939 -0.032070793 -0.024317417 -0.115600415 -0.07286746 0.06695466 -0.06517993
-0.014049992 -0.0031737871 0.020219982 -0.028869245 0.04139424 -0.012050764 0.059139322 -0.006867029
0.018480213 -0.0030280491 0.09968734 0.010250285 0.0476673 -0.022134693 0.011441242 0.10103995
-0.10102411 -0.0091877235 0.069202796 -0.041039787 -0.041971613 -0.0015816577 0.01747875 0.055355277
-0.0019792335 0.04347199 -0.0667319 0.02960984 -0.05330904 0.052887145 -0.045101028 -0.090747386
-0.0015838997 0.04476674 -0.0023796211 0.025233636 -0.0025450091 0.052714717 -0.009535083 -0.114846595
-0.064043514 0.029229533 -0.014103887 0.074059665 -0.047139533 0.071902454 -0.045738436 -0.05625807
-0.021710264 -0.07976312 -0.023156147 0.016980333 -0.12828714 0.09127017 -0.06843846 0.047273792
0.048698094 0.0021705416 -0.06066511 0.0011864626 -0.047923602 0.078390196 -0.081630036 -0.034240544
-0.03129481 -0.052012693 -0.03655849 0.013065053 -0.031058908 0.004056365 0.07226441 -0.00829829
-0.06134316 -0.03245731 0.09297886 -0.0059485887 -0.09159899 0.057645787 -0.005142835 0.018968143
-0.004759552 0.11834605 -0.066738464 0.047616594 0.14747857 0.0061614173 0.04530479 0.0676399
0.09827681 -0.033738185 -0.09707508 -0.038908333 -0.09279623 -0.0022931986 0.073399596 0.0727626
0.037537612 0.011855979 0.02431383 0.058839377 0.052735124 0.0033498886 -0.026732901 0.025165625
-0.0007425428 -0.036480606 -0.030082174 0.08717923 0.0649359 -0.034759365 -0.033464644 -0.07036454
0.001314941 0.06709739 -0.09553597 0.070704825 -0.08244333 -0.07732147 -0.0029900006 -0.01255121
-0.019892696 -0.03738136 -0.05162065 -0.08241858 -0.064637706 -0.06885697 0.06329331 -0.072236136

layer2.bias f4 [128]
00000000: 91ea 26bd 8de7 0abd 9118 0cbc 1ea0 2f3b
00000010: 3492 dcbd efa4 793d 3c28 75bd 6d24 1a3e
00000020: f0cd 40bc 7752 9e3b bf7a 673d 7256 a93d
00000030: ada2 a8bc 1111 47be 71f1 933c efde 3dbc
00000040: 4b96 9cbd 9915 b6ba 5369 c1bc a40a c53d
00000050: c19c 103e 8f66 3f3d 5719 283d 4d5a 843c
00000060: 466c a93d 6ee0 01be 1469 25bc 9f3f a83b
00000070: 9ff7 083d e23f 103d f17f 0c3e e48e d9bd
00000080: 1e13 70bd e2c3 513d e6bc 9b3b 8953 1b3d
00000090: 4e73 fc3d c8e0 c13c d94c 8ebd 55f7 04bd
000000a0: d139 29be 873a 9b3d 8eef f63c 4f29 d8bd
000000b0: 3d23 543d 18df e83d 2395 033e 9427 83bd
000000c0: 3da3 e93d 55e4 ad3c cb83 093d 4d9f 0abd
000000d0: 0846 ab3d b80f c33d 796c 813b 2539 a6bd
000000e0: 6835 8b3d 22df 13be a7ff b93d 81b3 913d
000000f0: 3fb1 103d ecb3 163d c850 b1bd 1382 893c
00000100: 9482 ec39 a5c3 68bd 6d64 043c 03fb 8abb
00000110: a9c1 3b3b 7acc 9c3c 9b7f 22bd ba07 51bd
00000120: fb0a 0a3e 9792 ce3d d032 e3bc e756 49bd
00000130: e1b5 883b 6551 fcbd 08e7 09bd 3d84 c4bd
00000140: 9306 433d 368e d5bb a6e7 8f3d 640e aabd
00000150: 71da 8abd f335 97bc e87b d9bd 3d88 1bbe
00000160: ad81 5abd 0dbb be3b 3734 603d 6d09 ef3d
00000170: f165 5bbb 478b 323e 5b23 db3d 61cb a23b
00000180: 384d 94bd f9b9 0fbc 3e4c ed39 6dbb 5b3a
00000190: 6d09 953d faa1 f13d c98c fcbc 541f b73d
000001a0: 4a38 a63d 4146 db3d beb4 38bc fa77 bd3b
000001b0: f6ad c93d f231 06be 87cf 36bd 4c9e aabd
000001c0: d9b3 b13d 6379 363c 1adf 8b3c 2468 1e3d
000001d0: 4103 9b3d ceb2 89bd 752f e2bd 1c9c f6bc
000001e0: 4f1d a6bc ee0e f0bc 311e 5abc 0d43 d5b9
000001f0: 7ecc 1fbe 8c7e febd 74e0 0a3c 750d 6fbd
-0.040751044 -0.03391223 -0.008550779 0.0026798318 -0.107700735 0.06094831 -0.059852824 0.15052958
-0.011767849 0.004831608 0.056513544 0.08268441 -0.020585382 -0.19440104 0.018059464 -0.011588796
-0.076458536 -0.0013891935 -0.023609793 0.0962117 0.14122297 0.046728667 0.04103979 0.01615634
0.08272605 -0.1268327 -0.010095853 0.0051345374 0.033439275 0.035217173 0.13720681 -0.10622957
-0.05861198 0.0512122 0.004752743 0.037921462 0.1232668 0.023666754 -0.06948251 -0.032462437
-0.16525961 0.075795226 0.030143525 -0.10554754 0.05179142 0.11370677 0.1284986 -0.06404033
0.11408088 0.021227041 0.033572953 -0.033843327 0.08362967 0.095244825 0.0039496985 -0.08116368
0.06797296 -0.14440587 0.09081965 0.07114316 0.035325285 0.03679268 -0.08657986 0.016785657
0.00045110716 -0.056827206 0.008080584 -0.0042413487 0.0028649366 0.01914047 -0.039672475 -0.05103276
0.13480751 0.100865535 -0.02773419 -0.049155142 0.0041720723 -0.12320212 -0.033667594 -0.09595535
0.04761369 -0.006517197 0.07026605 -0.08303526 -0.06779946 -0.018458342 -0.10619336 -0.1518869
-0.053346325 0.005820638 0.054737296 0.1167172 -0.003347751 0.17435943 0.10700103 0.0049680923
-0.07241291 -0.008772367 0.00045260967 0.00083821156 0.072771885 0.11798473 -0.03082885 0.08941522
0.08116205 0.10706759 -0.011273561 0.0057821246 0.098476335 -0.1310499 -0.044631507 -0.08330974
0.08676881 0.011137339 0.017074157 0.038673535 0.0756898 -0.067235574 -0.11044208 -0.030103736
-0.020277647 -0.029303994 -0.013312862 -0.00040676483 -0.15605351 -0.12426481 0.008476365 -0.058362443

layer3.weight f4 [128, 128]
00000000: b62c 8dbd f923 963d 061a ec3b ca9c e5bb
00000010: d27b 82bd ea16 6dbd 3010 65bd e65c 6f3d
00000020: 852d 883d 01f7 5b3d fe6b e43c fd10 e83c
00000030: 709e 5dbd 8315 46bd 4d3c a33d d6fc af3d
00000040: e411 ac3d b059 2b3c 8b5b 8d3d 5663 633c
00000050: 0bac 46bb aaef aa3b 3310 80bd a053 aabd
00000060: b90a 30bd 8637 4bbd e9fc 793d fa30 87bd
00000070: 5b40 60bc 9207 ba3c f90d d93c 29db d33b
00000080: c829 553d e2a0 99bd f671 433c 860a bcbd
00000090: 7775 e9b8 b7aa 993d 57f3 693d 0659 133d
000000a0: 34fb a4bd bf68 953c 43a2 c23c 7f85 c5bd
000000b0: cf2e bfbd 8913 72bd d07b ed3c 20de 5c3d
000000c0: 511c cebd 4108 40bd a004 043d 0f4e 39bd
000000d0: 4bc3 833d 7c29 373d 4d10 1cbd 6524 df3d
000000e0: afe2 40ba 314d ecbc cf0b 4cbb 9fb5 81bd
000000f0: 86ce 693d 4699 8bbd 1b10 8f3d 8df6 03bd
00000100: 148a 85bc deee 2abe 6124 53bd 0394 933c
00000110: 3d67 debd 0454 553d 8128 f9bc eb76 3abd
00000120: acb0 643d b7ff 113d 3d59 033c eb5e a4bc
00000130: 00fd ff3c cdb9 0f3d dbbe 99bd 92ce 91bd
00000140: c9c2 9cbd b2fd 01bc 1d18 683d bd03 9cbd
00000150: b759 093d 41ad 7fbd 5278 bb3c ac5d 8e3d
00000160: 6be7 d1bc 1e61 5f3d a2ff b83c 8484 0c3d
00000170: fdbc f23c 3f33 58bd a57d 1f3d a008 2b3d
00000180: bdfc bd3d 96b4 963c c006 3abd 2e2d cfbc
00000190: c0c7 813d 6fda 873c 08a9 85bc 0926 383d
000001a0: df22 5ebc ed19 f23d 3140 2d3d f821 92bd
000001b0: 4c76 883d 08b1 133d dbc8 c8bd c8e5 54bd
000001c0: a526 a13c 9d1b 043d b47e ae3d ace0 423c
000001d0: b44c 7e3d 3374 87bd 432a 963d 3278 0e3d
000001e0: b6c4 073d e88b 4cbd 033e e2bd ad20 00bd
000001f0: 3101 973c abc7 ee3b 2c8e 293c 6ba1 b93b
00000200: 87b5 fa3d eba1 4b3d bb08 8cbd 4297 193d
00000210: b16b 46bc b42f 1ebb d706 efbd 7ef6 c93d
00000220: f6b3 f73c b9ad 96bc fbce cabd 1b14 0e3d
00000230: e591 1dbc da47 2ebd 82d9 ae3b cdbb d53c
00000240: dd71 c13c 1b43 ebbd 3285 47bd 3414 06bd
00000250: c34d ab3d 8ff9 94bc a26f cabc 14d9 3b3c
00000260: 0395 403b 5225 8bbd bf4b 323c 8103 513d
00000270: ab05 d03b 3cbe a1bc 3547 6e3d b540 18bd
00000280: a643 aa3d 2c8c 6e3d 3418 a03d b621 bc3c
00000290: 6fae 4a3d d1a9 19bd 0cf7 10bc e207 f43c
000002a0: 9f37 6cbd 026c 13bd 656c 9abc 83e5 dc3d
000002b0: f4b5 573d 73b8 9bba f22a f5bc 95c7 9abd
000002c0: d9c3 fd3d e01e 4b3c dc42 f1bc 2c08 61bd
000002d0: 3a26 96bc 8a18 733d 4263 f63c e8b6 bebd
000002e0: 4f67 94bc 8cb4 79bc 2da4 ea3d 14f1 5bbc
000002f0: 2ac8 e0bc 422b 3a3d 218f d9bc f71a 97bd
00000300: f7fa a13c 808a 113e 2b33 b0bd 814c 773d
00000310: 75c0 203d b881 d23d 6455 7f3c f67d b738
00000320: 076e 6fbd 91fe 973d fae3 8dbc ca6e 753c
00000330: ba69 753d 8090 36bd a089 eebb dc40 bd3d
00000340: 9c90 ce3d 0d3e 253d 7b21 a9bd 4219 37bd
00000350: 4e77 1cbd 7e76 933c 6eef 18bd ec84 b83c
00000360: f4e8 84bd aa18 96bd a5f7 ff3b 3dc9 3a3d
00000370: 2251 0c3d 3564 27bc 5e39 393c effb 0dbe
00000380: e431 ce3d c802 bc3d bba5 9abd c572 dcbd
00000390: 0211 d0bd d713 92bd 45c6 963c 718d c5bd
000003a0: 0073 ffbd 311c 62bd 2df3 30bd 0c88 3abd
000003b0: 1b30 e23c 625c 83bd 621d 31bd 3330 50bd
000003c0: 9e30 b63d 6067 93bc de19 3fbd 1ad9 94bc
000003d0: 9215 1dbb 4e5e 943d 02d4 04bd 94f2 2cbd
000003e0: 1526 3cbd 2695 94bd 5c08 a63d 19fa 8cbc
000003f0: 3f39 34bc f9c4 d63c fb85 123c 79a4 e13d
-0.068932936 0.0733108 0.0072052507 -0.007007216 -0.06371273 -0.05788318 -0.05592364 0.058438204
0.06649307 0.05370236 0.027883526 0.028328413 -0.054106176 -0.04836036 0.07970486 0.085931465
0.0840185 0.010458395 0.06902226 0.013878664 -0.0030314948 0.0052165585 -0.0625309 -0.083167315
-0.042978976 -0.0496135 0.06103221 -0.066011384 -0.013687219 0.022708688 0.02649592 0.006465335
0.0520418 -0.07501389 0.011929026 -0.09181695 -0.00011132185 0.075032644 0.057116833 0.03597357
-0.08055726 0.018238423 0.023759013 -0.09644603 -0.093351 -0.05910066 0.028989702 0.053922772
-0.10063995 -0.04688287 0.032230973 -0.045240458 0.064337336 0.044717297 -0.038101483 0.108956136
-0.0007357997 -0.028845401 -0.0031134968 -0.063334696 0.05708172 -0.06816344 0.06985494 -0.03221755
-0.016301192 -0.16692683 -0.051548366 0.018014913 -0.10859535 0.052082077 -0.030414822 -0.045523565
0.05583255 0.03564426 0.0080168815 -0.020064792 0.03124857 0.035089303 -0.07507106 -0.07119478
-0.0765434 -0.007934021 0.05666362 -0.076179005 0.033532824 -0.062421087 0.022884522 0.0695146
-0.025623044 0.054535978 0.022582833 0.034306064 0.029631132 -0.052783247 0.038938183 0.041756272
0.092767216 0.018396657 -0.045416594 -0.025290098 0.063369274 0.01658365 -0.016315952 0.04495815
-0.013558119 0.11821351 0.042297546 -0.07135385 0.06663188 0.036057502 -0.09803935 -0.05197695
0.019671747 0.032252897 0.085202605 0.011894386 0.06208487 -0.0661396 0.073322795 0.034782596
0.033146583 -0.049938112 -0.11046984 -0.031281162 0.018433185 0.007286986 0.010348838 0.0056649945
0.12241655 0.049714964 -0.06837603 0.037497766 -0.012110637 -0.002413732 -0.116712265 0.09861468
0.03023718 -0.018393384 -0.0990276 0.034687143 -0.0096173035 -0.04254899 0.0053359875 0.026090527
0.023613865 -0.11487409 -0.04871101 -0.03273411 0.08364441 -0.018185405 -0.024711434 0.01146533
0.0029385693 -0.06794228 0.010882317 0.051028732 0.006348332 -0.019744031 0.058173377 -0.037171084
0.08313684 0.058239147 0.078171164 0.022965293 0.04948276 -0.037515465 -0.008847963 0.029788915
-0.057670232 -0.035991676 -0.018850515 0.107859634 0.05266376 -0.0011880532 -0.029927704 -0.075575985
0.123908706 0.012397498 -0.029450826 -0.054939434 -0.018328775 0.059349574 0.030076627 -0.0931223
-0.018115668 -0.0152408 0.11457095 -0.013424177 -0.027439196 0.04545141 -0.026557507 -0.0737819
0.01977299 0.1421299 -0.086035095 0.060375694 0.03924604 0.10278648 0.015584324 8.749582e-05
-0.05845454 0.074216016 -0.017320622 0.014980027 0.05991528 -0.0445714 -0.00727959 0.092408866
0.10086176 0.04034238 -0.08258339 -0.044701822 -0.038199715 0.018000837 -0.037337713 0.02252432
-0.06489745 -0.07328923 0.007811504 0.045602072 0.03425706 -0.010216762 0.011305181 -0.13865636
0.1006811 0.09180218 -0.07551142 -0.10764078 -0.10159494 -0.071326904 0.01840509 -0.096461184
-0.124731064 -0.055202667 -0.04320066 -0.0455399 0.02761083 -0.06414105 -0.043240912 -0.050827216
0.08895992 -0.017993629 -0.04665553 -0.018169928 -0.0023969156 0.0724455 -0.03242875 -0.042223528
-0.045934755 -0.0725501 0.08107063 -0.0172091 -0.010999977 0.02621697 0.008943076 0.11017699

layer3.bias f4 [128]
00000000: 6353 753d 2927 113d 78ee 12bc b522 84bd
00000010: 37e3 043c bc61 403e 8bc7 04bc f285 113e
00000020: 0d21 323d 8199 fabd 5b1f a7bd 4003 6abc
00000030: e8db b13c 07b2 523d 1334 353d a374 8f3d
00000040: 9ca8 adbb e69f a6bd cbd6 6d3d e873 a0bd
00000050: fdb9 89bd 4e40 adbd e417 653d 5990 71bd
00000060: 640c 0f3e 413a 35be 0924 82bd 3561 553e
00000070: d575 163e b1e6 d8bd 0da6 153e f28a 6b3d
00000080: 3f24 9a3c 3847 18be 9ed7 d8bd d271 43bb
00000090: fbb8 d1bd 9f06 c23d 4486 8dbd f51a 223e
000000a0: 9a4d 9c3d c145 92bd 0db8 06be 74d9 1f3e
000000b0: acd1 16be 158c 41bd e710 463e be62 0e3d
000000c0: f918 4f3d 34b8 683d 67f3 963d b308 8b3d
000000d0: 1b26 193e d82b b5bd 16fa 113e 92f9 d83c
000000e0: 9acf 8d3d 45a0 fa3d 20fa 393e 1035 e6bd
000000f0: 8279 30bd 959a c13d 1ba5 b93d 8d61 55bd
00000100: 57e3 9ebd 58bb c03d 1c8c d33d 3f37 e4bd
00000110: 3412 a2bd c8db 453d de58 01bc 2ea3 33bd
00000120: 33da 853d cd90 473d c589 03be 9f57 89bd
00000130: 5f5d a53d ee42 493d d327 6e3d 05bd 6d3d
00000140: f539 703e ea8b d63c 011d 14bd 3dd8 52bd
00000150: 256e e3bd 702a 663d ffe7 213e 6086 83bd
00000160: aeb8 c13d 109d af3d acad fb3d ba81 e43d
00000170: 8eb9 e1bd 98a0 903c a772 04be 8025 15bd
00000180: 9123 0b3e f224 00be edd2 ab3d fe0a d4bd
00000190: 311c 27be 85bb 853d 59ab fc3c f437 00bb
000001a0: cd12 f93d 2947 553d 5bf0 213e fc28 523c
000001b0: 5d81 0c3e 5ed6 14be d3d8 f03d 3d24 cebc
000001c0: a393 70bd 7ccd d4bd e054 cabd e23b 18be
000001d0: 3b36 88bd d57c 60bd 32f7 46bd e520 43bd
000001e0: c8eb a23d adcc 973b 9508 79bc 006b f7bb
000001f0: 5a7f 0ebd e1c1 a6bd 1ef6 9abd 09ea a83d
0.059893977 0.035437737 -0.008967988 -0.06451932 0.008110813 0.18787283 -0.008104215 0.14211252
0.04348855 -0.1223631 -0.081602775 -0.014283001 0.021711305 0.05143931 0.044239115 0.070046686
-0.005299641 -0.08135967 0.05806617 -0.07834607 -0.067249276 -0.08459531 0.055930987 -0.05897555
0.1396957 -0.17698003 -0.063545294 0.20837863 0.14693387 -0.10590876 0.14614125 0.057505555
0.018816112 -0.14870918 -0.10588001 -0.002982248 -0.1024036 0.09473919 -0.06910375 0.15830596
0.07631989 -0.07142211 -0.13156147 0.15610296 -0.14728421 -0.047252733 0.19342385 0.034762137
0.050560925 0.056816295 0.07370644 0.067887686 0.14955942 -0.08846253 0.14255556 0.026486192
0.069243625 0.122376 0.18161821 -0.112405896 -0.04308463 0.09453312 0.090646945 -0.052094985
-0.077582054 0.09410733 0.10329458 -0.1114335 -0.07913628 0.048305303 -0.007894723 -0.043856792
0.06535759 0.048722077 -0.12845524 -0.067061655 0.0807445 0.049136095 0.058143448 0.05804159
0.23459609 0.026189763 -0.036160473 -0.051475752 -0.11104993 0.056192815 0.15811156 -0.06422114
0.09459053 0.08574879 0.12288985 0.11157556 -0.1102172 0.017654702 -0.12934361 -0.036412716
0.13587786 -0.12514094 0.0838984 -0.10353659 -0.16319348 0.06529907 0.030843424 -0.00195646
0.12161789 0.052069817 0.15814345 0.012827154 0.13721223 -0.145349 0.11760106 -0.025163764
-0.058734547 -0.103907555 -0.0987947 -0.14866593 -0.06650969 -0.05480655 -0.048575588 -0.047638793
0.07955128 0.0046325536 -0.0151998 -0.007550597 -0.03478942 -0.08142448 -0.075664744 0.08247764

layer4.weight f4 [128, 128]
00000000: 958b 8fbd d0ae c43d 1af1 913d 9de5 703d
00000010: 6fe3 c33b a5be 73bd 61f4 9abd 3d1e acbd
00000020: ac6a b93c 0a16 223d 1ff6 50bd 8058 b5ba
00000030: 51e7 27bd 91d8 623b 05d9 99bc 40c7 24bd
00000040: 4495 3c3d e4fc 003c 3575 e93b b5d3 c93c
00000050: 7eb1 3c3c 233a 0fbd b627 63bc 27ce 8dbd
00000060: 7de8 053d 6626 b5bb 7d33 623d 70b9 06bd
00000070: f412 3b3d 631b 953d dd0a 65bd 7660 273d
00000080: 2032 ee3a bfe3 08bd 846f 02bd 241e 05bd
00000090: b0b7 0cbd 3121 ae3d 41df 53bd f884 313d
000000a0: 6fa2 9fbc 764d aa3c c9de 8cbd dad7 8dbd
000000b0: 8d2d b73d e7e2 22bd 0d47 043d 8d96 673d
000000c0: 4128 fe3c 0145 803c 1e7f 993b 7db8 cb3b
000000d0: a06f 8abd a094 a2bd 8d85 393d cb3a 4b3d
000000e0: 6e9b 04bd b996 2ebd 646b cb3d 72f4 e6bc
000000f0: 5f57 17bd 0653 4bbc 0bee 15bd 2078 1dbb
00000100: 18cf a6bd 19a5 3fbd fb17 59bb d080 493b
00000110: 1a7d 0b3d aceb 983d c5f0 61bd 27c2 ed3c
00000120: f2ce 86bd bd73 aebc 27fc 1d3b 2251 8fbd
00000130: 506c 0a3d 22de 21bd 69c2 a7bd 73f8 913c
00000140: 8f1a d93c 0ece f83b 692d 23bc c806 6c3d
00000150: 4121 343d 21cb 84bd 7b0d 923d 7729 8fbd
00000160: 1be0 a83d 3139 a8bd 6cfc 8f3d 0ce7 3b3d
00000170: 41e4 85bd 827d de3c 3a2c 573d 8091 22bd
00000180: ed3e bf3d dd8a 143d b7fe be3b 3db3 403d
00000190: f5f0 ad3c 2352 ba3d 0417 d3bb 9a79 a4bd
000001a0: 5102 48bd 6a31 6d3c b6ff 7d3d 6900 acbd
000001b0: 9d0f df3b e9ec 0e3d b665 63bc f926 0dbd
000001c0: bae1 143d 2cbb be3c cb1b 843d 4d90 60bd
000001d0: 94bc 0abc f87d 4dbd 2855 82bc 8fee 9b3c
000001e0: 3da1 f4bc e068 533d 74fa 883d 3d39 b5bd
000001f0: 9d8b 7abd 7e1b a3bd 19c5 75bd c51c d63c
00000200: d77b b1bd 0316 673d 9a1a 86bd 6bd0 ddbc
00000210: 7df0 1e3e e4dd 543e 3c75 04bc f607 803e
00000220: 6a78 783d 0c18 c13d 64c5 1dbe 8f2b 60bd
00000230: ab09 133e 4ae1 79bb f585 4d3d 1e85 1cbe
00000240: 3ab2 fcbd 0d91 e53b 3fbc efbd 8d2f 243d
00000250: 78ec 01bd a41d 90bc e895 a73d d81b 6f3d
00000260: 1483 28be 7cb9 33be e45c 063b b248 41be
00000270: 85e6 453e 3ba4 4b3e 8987 0dbd 9172 c8bd
00000280: e27d debd 1450 ef3b cc91 1abe 28ee 093e
00000290: e9ae bbbd 3ac3 843c 4ba9 7c3d 3fef cebd
000002a0: fb1d 093e 14b1 dbbd 8725 d63d cd81 183d
000002b0: 80bf 713e 17e5 eebd 8e4f 333e b976 ee3d
000002c0: 3e1f 0b3e cda7 893d 73b8 3dbe 89ff d13d
000002d0: df82 87bd 5c3f 49bd c3f8 063d 0b48 de3d
000002e0: a50c 5fbe a541 e8bd add3 133e f2d7 b0bd
000002f0: 639a d3bc 8cae 8839 312d 373e 1a65 e4bc
00000300: 0db8 c8bd 96e5 a03d 8359 1fbe c3c5 95bd
00000310: 4227 353e 401d 543c 5038 fb3c 5fa9 a8bd
00000320: f6fb 003e ee5b cbbd 0489 653e ca0e 3ebd
00000330: cfc1 26be 8444 05bd 5fdf ed3d e0fb 7abd
00000340: a112 25bd 4ea2 063e 702c 59bc ffb9 f43d
00000350: acd2 4b3e 8bca afbd 8304 883e ff6f bcbd
00000360: f5a5 f93d b7d1 b73a 0029 c93d c3a3 98bc
00000370: 5118 f33d 15e2 ca3d af1a 71bd eb8a ae3b
00000380: 6890 c33d 99ac 36be caaa 323d 6f51 0bbd
00000390: 0f5d cabc ff3d 2ebd fd06 6b3d 9951 47bd
000003a0: 3dd9 5bbd a973 b4bc 8faf e93d f650 0abd
000003b0: eaca 5bbe 8d34 1fbe bbd8 0abe bb54 34be
000003c0: 3364 a8bd c7a9 1c3d 3359 1d3d b52e 00bc
000003d0: 6fad 4fbe d154 22bc 2150 e73d ebb5 de3b
000003e0: da29 ee3c fefd d0bd 9672 053c 2e03 6e3e
000003f0: 5fc8 5cbd f61e c53d 6044 f03c 2a9a a23d
-0.07009045 0.09603655 0.071260646 0.058812726 0.00597804 -0.059507985 -0.07566143 -0.08404205
0.022633873 0.0395718 -0.05101597 -0.0013835579 -0.040992085 0.0034613947 -0.01878024 -0.040229082
0.04604079 0.007872794 0.007124568 0.024637083 0.011516927 -0.034967553 -0.013864448 -0.06924086
0.03269242 -0.005528259 0.055224884 -0.03289169 0.045672372 0.07280614 -0.055918563 0.040863477
0.0018172897 -0.03342032 -0.03184463 -0.032499447 -0.034354866 0.085024245 -0.051726583 0.0433397
-0.019486634 0.02078889 -0.068784304 -0.06925936 0.08944235 -0.039767172 0.03229432 0.05654006
0.031025054 0.015657904 0.004684343 0.006217061 -0.06759572 -0.07938504 0.04529338 0.049616616
-0.03237479 -0.04262421 0.099325925 -0.028192732 -0.036948558 -0.012409931 -0.03660397 -0.00240279
-0.08144969 -0.04678831 -0.0033125866 0.0030746944 0.034054853 0.07466826 -0.055161256 0.029023243
-0.065824404 -0.021295423 0.0024106593 -0.06997897 0.0337947 -0.039518483 -0.08191378 0.017818665
0.026501922 0.007592923 -0.009959557 0.057623655 0.043977026 -0.06484056 0.071314774 -0.06990331
0.0824587 -0.082140334 0.070305675 0.04587464 -0.065376766 0.027159456 0.052532412 -0.03968954
0.09338174 0.036265243 0.005828704 0.047045935 0.021233061 0.090976976 -0.0064419527 -0.08031006
-0.048830334 0.014477113 0.062011443 -0.08398516 0.006807281 0.034893904 -0.01387923 -0.034460995
0.036348082 0.02328261 0.064506136 -0.054825116 -0.008467812 -0.05016896 -0.015909746 0.019034652
-0.02986204 0.05161369 0.06688395 -0.08848808 -0.0611683 -0.07964228 -0.06000242 0.026136765
-0.08666199 0.056417476 -0.065480426 -0.02707692 0.15521426 0.2078777 -0.0080845915 0.25006074
0.06066171 0.09428415 -0.1540733 -0.05472904 0.14359157 -0.0038128668 0.05017658 -0.15285155
-0.123386815 0.007005817 -0.11705827 0.04008441 -0.031719655 -0.017592259 0.08182889 0.058376163
-0.16456252 -0.17551225 0.0020502144 -0.18875387 0.19326217 0.19886868 -0.034553085 -0.09787477
-0.10863854 0.007303247 -0.1509468 0.13469756 -0.09164221 0.016206373 0.061684888 -0.10104226
0.13390343 -0.10727134 0.104563765 0.037233163 0.23608208 -0.11664789 0.17510816 0.11643738
0.13586137 0.067214586 -0.18527393 0.102538176 -0.066167586 -0.04913269 0.03295208 0.10853585
-0.21782167 -0.11340646 0.14436217 -0.08634938 -0.025830453 0.0002606999 0.17888333 -0.02788024
-0.0980073 0.0785629 -0.1556149 -0.07313111 0.17690757 0.012946427 0.0306665 -0.0823543
0.12596115 -0.099296436 0.22415549 -0.046400823 -0.1628487 -0.032536045 0.1161487 -0.061275363
-0.04030097 0.13147852 -0.013255224 0.119495384 0.19904584 -0.08583554 0.26565942 -0.09201049
0.12189857 0.0014024292 0.09822273 -0.018632775 0.11869872 0.09906403 -0.058863338 0.005326619
0.09549028 -0.17839278 0.04361991 -0.034013208 -0.024702577 -0.042539593 0.05737971 -0.048661802
-0.05367397 -0.022027807 0.11410438 -0.033768617 -0.21464124 -0.1554739 -0.13559239 -0.17610447
-0.082222365 0.03824785 0.038415145 -0.007823636 -0.20281003 -0.009907917 0.1129458 0.0067965887
0.02907269 -0.10204695 0.008144995 0.232434 -0.053902026 0.09625046 0.029329479 0.07939561

layer4.bias f4 [128]
00000000: 32f8 8bbc f278 493e e13f 71bd 5dea 1f3d
00000010: c545 d33d 8e7e 05ba 70cf 4c3c 72d7 40be
00000020: 1178 96bc 8cac 95bc 6f5a 60bd 6289 553e
00000030: 9ea6 ae3d 5f63 b93d f994 3f3e de1e 763d
00000040: 6811 a63d a8e6 84bd c335 ee3d 24ad e23c
00000050: 4a02 76bd d774 f13c 4dac de3d cb52 aebd
00000060: 94c3 aebd 9a28 3ebe 625e 163c 7d5d 02be
00000070: 2d70 8a3d df4b a8bd 7746 9cbd 915f 18bd
00000080: 34e5 7a3c d809 273e 7138 a73d 7b02 1a3d
00000090: 53c2 5c3e 4e10 46bd 3934 3fbd 13d3 503e
000000a0: d5aa a2bc df64 d03d 1863 5cbd 0c78 8e3d
000000b0: a118 ffbd 2a50 843c c6b9 8dbd 9257 8bbd
000000c0: 8354 963d 5a3d d1bd a75b 023e 01a6 123e
000000d0: 655e f5bd 22dd 893d c849 0fbe a917 b13d
000000e0: 3f1e 8bbd e272 6dbb c26a 533e a935 193d
000000f0: ecc5 5d3d a898 d1bb 7708 0dbd 0571 8bbd
00000100: 9dbb d73d 2ef7 bebd 3b99 303d d5ab ae3d
00000110: 8b5e 213d b965 953d 2f27 a0bd a987 4f3e
00000120: 242d a63d e397 febd 6c20 72bd c19d cfbc
00000130: 2155 ce3d cf15 923d 0ebf bdbd 2076 213d
00000140: f089 3cbd 25bc c9bd 86f1 fd3d 0ed7 bdbc
00000150: 8f5f 433d 2e69 363c 552a 8c3e 6348 54bd
00000160: 26af 113c 63e9 7abd 4b77 543d d4fa 35bd
00000170: f188 a93d dfc0 77bd 1398 e0b8 af07 8c3c
00000180: 6a58 dc3d 36f8 44bd 1b2a 34bd 366c 1f3d
00000190: 2228 373c 86e5 e13c 504a e93d 827b b1bd
000001a0: f857 053e 4983 07bd 9314 cebd 68de adbd
000001b0: aed2 df3d 521c f93d c19b 113d ded5 cfbd
000001c0: f99d 36bd b7d7 de3d 1cda b13b 95e3 8bbd
000001d0: ba44 683d e9d0 b53c 8590 043d 757f c83d
000001e0: 6e88 963c 3649 65bc f6b4 a23c 056e 95bc
000001f0: 598f e23d 8402 df3c f094 603e a200 753c
-0.017086122 0.19675043 -0.05889881 0.039041866 0.10316042 -0.00050924055 0.012500629 -0.18832186
-0.018367799 -0.018270753 -0.054773744 0.20853189 0.085278735 0.09052157 0.18709172 0.06008803
0.08108789 -0.06489307 0.11631348 0.02767045 -0.060060777 0.029474659 0.108727075 -0.08511885
-0.08533397 -0.18570176 0.009177776 -0.12730975 0.06759677 -0.08217596 -0.076306276 -0.037200514
0.015313435 0.16312349 0.08165062 0.03760002 0.21558504 -0.048355393 -0.046680663 0.20393018
-0.01985685 0.1017549 -0.05380544 0.06956491 -0.124558695 0.016151506 -0.06920199 -0.06803812
0.07340338 -0.1021678 0.12730275 0.14321138 -0.11980895 0.06731631 -0.13992989 0.08647091
-0.06792878 -0.0036231806 0.20646194 0.03740469 0.05414383 -0.006396372 -0.0344319 -0.06808666
0.10533831 -0.093244895 0.043114882 0.08528868 0.039396804 0.07294793 -0.07819974 0.20266594
0.08114079 -0.12431314 -0.05911295 -0.025343778 0.10074831 0.07133066 -0.092649564 0.039419293
-0.046029985 -0.09850339 0.123995826 -0.023173835 0.047698554 0.011133475 0.27376047 -0.051826846
0.008891856 -0.06125773 0.05187158 -0.04442866 0.082780726 -0.06048667 -0.000107094784 0.017093508
0.10759051 -0.048088275 -0.043985467 0.038921557 0.011179002 0.027575266 0.11391127 -0.08666135
0.13021839 -0.033084188 -0.10062518 -0.08489686 0.10928856 0.12163605 0.03554893 -0.10148214
-0.04458425 0.10880988 0.005427612 -0.06830517 0.056706168 0.022194343 0.032364387 0.097899355
0.018375602 -0.013994506 0.01986168 -0.018240938 0.11062498 0.02722288 0.21931815 0.014953764

input_norm.weight f4 [8]
00000000: 23a2 a13f c899 4b3f 7f8a 713f 2222 543f
00000010: 5d50 463f 449f 833f 096d 1e3f 8504 463f
1.2627605 0.79531527 0.94351953 0.8286458 0.77466375 1.0282979 0.61885124 0.77350646

input_norm.bias f4 [8]
00000000: 246e 8e3e 8ee2 473e 6176 ff3e 58fe f23e
00000010: fa8e edbb ecd6 923e c74e 8d3e 0c94 033e
0.27818406 0.19520018 0.49895003 0.47459674 -0.00724971 0.28679597 0.27599165 0.12849444

input_norm.running_mean f4 [8]
00000000: 737a 6140 d5e6 0f3d 3fbc 92bf 5f8c 6040
00000010: db22 04bc 77e5 e43c 07cd febd 5b93 783e
3.5230987 0.035132248 -1.1463698 3.5085676 -0.008064951 0.027941449 -0.124414496 0.24274962

input_norm.running_var f4 [8]
00000000: 08f5 7440 998e 2b3b c824 0b40 fc31 b740
00000010: cdb9 5b3e 9245 fb3a 6376 313f a03a 3c3e
3.8274555 0.0026177524 2.17412 5.7248516 0.21457596 0.0019170514 0.6932127 0.18381739

norm.weight f4 [128]
00000000: 6572 583f c67c 883f cc5b 643f ad7d 5b3f
00000010: 9db9 5c3f 3ce9 5f3f 6db7 5e3f 23c0 633f
00000020: 39d7 633f 2128 5c3f 62b2 6d3f 4ee9 6b3f
00000030: b54d 563f 5026 6b3f 3973 683f 3996 643f
00000040: c46e 563f fee5 5d3f 9a10 703f bc02 683f
00000050: 0049 603f 43d3 693f 538c 6f3f 429b 663f
00000060: fa5d 663f 90ca 6e3f d66e 5a3f 6da0 7e3f
00000070: 38eb 523f 0583 563f 9b7f 6f3f c42d 653f
00000080: 58e3 573f a5b8 613f aed6 623f 25cf 673f
00000090: 6ccc 693f d545 673f 28b7 513f c6b0 763f
000000a0: f74d 703f 85de 5f3f e077 7b3f 8cc7 5c3f
000000b0: cb80 613f 7ca6 6d3f 0023 843f c707 5f3f
000000c0: 07a4 6f3f e604 6a3f a352 6c3f 994c 643f
000000d0: d67f 623f 1952 633f ba39 5d3f e71e 623f
000000e0: b275 5e3f bdaf 7c3f 515b 6f3f aba9 573f
000000f0: 86b6 643f b37d 5d3f 1429 683f 9e17 693f
00000100: bbbe 5c3f 5835 653f b818 643f e308 603f
00000110: 5bf3 4e3f 4684 6c3f 5e8e 683f 29f2 623f
00000120: 0c7b 643f e1fb 5a3f 4f30 613f aa4c 633f
00000130: 12f6 6f3f be5e 683f a4fc 633f 9b2d 813f
00000140: a7e8 643f 6ec6 5e3f ccdc 5f3f 91ce 5f3f
00000150: 5a8e 603f b824 593f 7176 7c3f 539d 643f
00000160: d495 633f 4ae7 613f 30a7 553f b74b 653f
00000170: d5a6 523f f4c7 533f 6e29 593f 64d9 6c3f
00000180: 44b0 6c3f 26bf 653f 3986 6a3f 734c 6e3f
00000190: 1ae8 603f 63b8 643f 2869 563f 39b6 543f
000001a0: 7c60 5f3f 20b4 703f bd20 5e3f 45f0 663f
000001b0: 4f9b 823f 32a6 5e3f aeae 603f 999e 613f
000001c0: 0624 5e3f 5c80 643f 85aa 603f 35c2 5c3f
000001d0: 31c0 623f f5cd 5f3f 2a6a 5e3f 58fc 603f
000001e0: 9155 543f 74b7 713f b9f3 633f 3c1a 593f
000001f0: 1e54 683f 6d66 653f 30ce 773f 07f7 583f
0.8454955 1.0663078 0.8920257 0.8573864 0.86220723 0.8746526 0.86998636 0.8896505
0.8900028 0.8599873 0.92850316 0.9215287 0.8371232 0.91855335 0.90800816 0.8929172
0.83762765 0.86679065 0.9377533 0.9062917 0.8761139 0.91337985 0.9357349 0.90080655
0.89987147 0.93277836 0.8532537 0.9946354 0.82390165 0.8379367 0.93554085 0.8952296
0.84331274 0.8817237 0.88608825 0.9055045 0.9132755 0.9034093 0.819201 0.96363485
0.93868965 0.8744891 0.9822979 0.86241984 0.8808715 0.9283216 1.0323181 0.8712124
0.9360966 0.91413724 0.92313594 0.8917938 0.8847631 0.88797146 0.8641621 0.88328403
0.8689834 0.98705655 0.9349871 0.8424327 0.8934101 0.86519927 0.9068768 0.9105166
0.8622853 0.8953452 0.8910022 0.8751356 0.8084008 0.92389333 0.90842235 0.8865076
0.89250255 0.85540587 0.8796434 0.88788855 0.9373485 0.90769565 0.89057374 1.0092043
0.894175 0.8702153 0.87446284 0.8742457 0.8771721 0.84821653 0.9861823 0.8930256
0.88900495 0.88243544 0.8345823 0.89568657 0.82285815 0.8272698 0.8482884 0.9251921
0.9245646 0.89744794 0.9161106 0.930854 0.8785416 0.8934385 0.83754206 0.8309055
0.872566 0.9402485 0.86768705 0.9021037 1.0203646 0.86972344 0.8776654 0.88132626
0.8677372 0.8925836 0.8776019 0.86233836 0.8857451 0.8742364 0.86880744 0.87885046
0.82943064 0.9442055 0.89043766 0.84805655 0.9075335 0.89609414 0.9679899 0.84751934

norm.bias f4 [128]
00000000: fdea e23d 08f2 563b 7ce2 073e a9e8 cbbd
00000010: de1e 473e 0804 6dbd 22b6 fbbd 7392 9cbd
00000020: c262 4e3e a9e3 e93d d3ea 493e d934 343e
00000030: c179 2d3e ec54 623e 0a86 a23e ccbb e5bd
00000040: 3529 153e 1bd0 d23d 1c08 5e3e 175c 2abc
00000050: 85fe 313d b2fb d0bc 8a34 1f3d 35f4 573b
00000060: a21d 283d 32f8 9cbc dd22 313e fe6e 03be
00000070: fab8 a6be e93c 0ebe 80eb 06bd 6797 553e
00000080: 291e a2bc 6ff0 0bbe 3a1a 80bd 516d 41be
00000090: 862c 1ebd 8cdf f03b 4463 803d 80e2 d63d
000000a0: da78 eb3d ad07 563e 7162 0b3e ce1d 573e
000000b0: 846c 8cbc bfc7 993d bd16 143e fe11 8ebe
000000c0: 8ece 103e 4ba9 4bbe 1a78 c23d e318 3b3e
000000d0: b5dc 683e 49da 86be bb0e b4bd 095e 4fbd
000000e0: 3915 933d 946a bd3d bdca e23d 1c4d c73e
000000f0: 8325 e6bd 7579 be3d 8a20 2dbe a829 9d3e
00000100: cfac 0b3d 39f0 4cbe a54f 05be 1742 4839
00000110: a30b 933e 9752 5fbd 3087 a03e ffee e23c
00000120: daa9 303e 13d6 3abe e2d9 ee3d dd0a 4a3e
00000130: ff0d 9ebd c9bc 8bbe 1956 b8bc f136 29bd
00000140: ee6b b43b 5be9 233e 8870 17be 906d c0bd
00000150: 4b23 983d ced6 9fbb 9792 543e fd1c 3f3c
00000160: 9b13 c1be f606 673d c415 133e 0fa5 473e
00000170: e8b2 f3bc 1c23 6b3e d7af cc3c 1634 e33d
00000180: 340e b73d 7d81 0cbe 6383 8cbe 8123 293e
00000190: 5755 9d3d 7558 4a3b b4d4 26bd 8dfa 1cbe
000001a0: ae05 413d fcb4 10be b68d 013e 4597 c9bc
000001b0: 4c56 54bd a865 073e cfd7 b3bd 0290 343e
000001c0: 5b16 6cbd f89a 8a3d ca23 5abd 42fc 59bc
000001d0: 1628 393a 2aa5 94be 9a19 103e 4889 98bd
000001e0: f56a eb3d 3907 3d3d f22f b1be 74cb b03d
000001f0: c8eb 1abd 82d0 a8bd 2a42 abbb 4a30 d8bb
0.11079977 0.003279807 0.1326999 -0.09956486 0.19445369 -0.057865173 -0.122905985 -0.076451205
0.2015486 0.11420376 0.19718485 0.17598285 0.16940977 0.22102708 0.3174289 -0.1121746
0.145665 0.10293599 0.21682781 -0.0103979325 0.04345562 -0.025510643 0.038868465 0.0032951955
0.041043885 -0.019161317 0.17298456 -0.12835309 -0.32563 -0.13890423 -0.032939434 0.20858537
-0.019789772 -0.13665937 -0.06255002 -0.18889357 -0.03861668 0.0073508676 0.062689334 0.1049242
0.1149766 0.20901366 0.13611771 0.21007463 -0.017141588 0.07508802 0.14461799 -0.27748102
0.14141294 -0.19888799 0.09495564 0.18271212 0.22740443 -0.26338413 -0.08791872 -0.05062679
0.07181782 0.09248844 0.110738255 0.38926017 -0.112376235 0.0930051 -0.16906944 0.30695844
0.03410035 -0.20013513 -0.13018663 0.00019098107 0.28719816 -0.054522123 0.3135314 0.027701853
0.17252293 -0.18245725 0.116626516 0.19730707 -0.07717513 -0.2729247 -0.022501992 -0.04131216
0.0055060303 0.16006987 -0.14789021 -0.093958974 0.074286066 -0.0048779016 0.20759045 0.011664626
-0.3771027 0.056403123 0.14363772 0.19496559 -0.029748395 0.22962612 0.02498619 0.11093919
0.08938256 -0.13721271 -0.2744399 0.1651745 0.07682293 0.0030875478 -0.040730193 -0.15329953
0.047124557 -0.1413154 0.12651715 -0.024608264 -0.05184011 0.13222373 -0.087813966 0.1763306
-0.057638507 0.06767839 -0.053256787 -0.013304772 0.0007063163 -0.2903226 0.14072266 -0.07448059
0.1149501 0.046149466 -0.34606892 0.086325556 -0.037822515 -0.08242895 -0.005226393 -0.0065975534

norm.running_mean f4 [128]
00000000: 76c2 c63e 895d f83e d43f a73e e473 d73e
00000010: 782f 723e 815a 043f 4042 9e3d 5b8a 8e3e
00000020: 5e8d d23e 6369 aa3e 0cf3 213e 0dde 953e
00000030: faf7 bc3e 4e80 0b3f a1b1 b33e 0efa 963e
00000040: 22e2 a63e 277f a23e 794d 883e fd6e bb3e
00000050: 6ca2 fc3e 14ef e63e d598 0e3f e081 283e
00000060: c7d2 dd3e da88 143d 40bb da3e 5d19 283c
00000070: aff5 633f 61ac 893e 0bdf a53e 0aae d13e
00000080: a148 ce3e 73c8 863e 7f79 143e 593d 0f3f
00000090: 2e25 003f 1d57 2e3e 4cff ba3d 3098 a03e
000000a0: 8aea 423d a149 e43e 4c8a 0b3d 98d5 923e
000000b0: 6678 fd3c 416f c03d 6af0 1f3e 8625 2f3f
000000c0: 8b83 113e 7870 c23e 1221 8e3e 6030 143f
000000d0: 0bcd 993e 91a8 cc3e ccd5 473e 10ee 6a3e
000000e0: 4ae5 f93e 933d 523c fe85 c53e 1d53 723f
000000f0: 7f5e 243f 4b0e a83e 5e54 bc3d 7462 073d
00000100: 3153 2f3e 0b40 9d3e 034e a03e 1878 ba3e
00000110: 2109 503e 81bf df3e 7955 313e 4e7b e13e
00000120: e72c 9c3e 97f9 b13e b77a c13e 3bef 063f
00000130: 6735 b03e 05e2 1f3f fe1d 783e ef70 bc3c
00000140: 4fe8 dd3e 6c58 8f3e 25a1 273f ce35 d43e
00000150: eea8 243f 4a05 853e 592c a53e 8b79 0f3f
00000160: 37b9 ca3e 7b32 fc3d fbe9 0a3f 3364 583f
00000170: 899e 493e e89d d53e 8fa4 843e febc 213e
00000180: 5617 293f 2685 463e cda7 983e 8363 dd3e
00000190: e82a 093f babd a03d 45f8 f63e 5cd5 333e
000001a0: e66d 3f3e 91b6 413e 983c 4e3e 0e85 823e
000001b0: 0a9d be3d 72e1 cc3e 467c 8c3e a60c b53e
000001c0: 422b ac3e fa7b 2c3f 1fe8 403e 6d2d be3e
000001d0: 49df 003f a057 523f becc 163f e444 013f
000001e0: b1f9 a23e 9e8c 613e e41a de3d 1e1a fb3d
000001f0: 3cdd d53e 9ce2 713d 9936 fa3e 3943 273e
0.38820237 0.48508862 0.32665884 0.42080605 0.2365092 0.517006 0.0772748 0.27839932
0.4112348 0.3328353 0.15815371 0.29270974 0.3690794 0.5449265 0.35096458 0.29487652
0.325944 0.31737635 0.26621607 0.36608115 0.49342668 0.45104277 0.55701953 0.16455793
0.43324873 0.036263324 0.42720985 0.010259953 0.8904676 0.26889327 0.3239673 0.40953094
0.40289786 0.26324806 0.14499472 0.55952984 0.5005673 0.17025419 0.09130725 0.3136611
0.047586955 0.44587424 0.034067437 0.28678584 0.0309412 0.0939622 0.15619054 0.6841663
0.14210336 0.37976432 0.27759606 0.57886314 0.30039248 0.39972356 0.19515151 0.22942376
0.48807746 0.012832063 0.3857879 0.9465807 0.6420669 0.32823405 0.09195779 0.033052877
0.17121579 0.30712923 0.31309518 0.3641975 0.20315982 0.43700793 0.17317761 0.44039387
0.30503008 0.34760734 0.37788936 0.52708787 0.34415743 0.62454253 0.24230191 0.02300307
0.433413 0.27997148 0.6548026 0.414473 0.64320266 0.25980598 0.32260397 0.56044835
0.39594433 0.12314316 0.54263276 0.8452789 0.19689383 0.41722035 0.25906798 0.15794751
0.6605123 0.1938673 0.29815522 0.43239984 0.53581095 0.078486875 0.4823629 0.17561859
0.18694267 0.189173 0.20140302 0.25492138 0.093072966 0.4001575 0.27438563 0.35361212
0.33626753 0.67376673 0.18838547 0.37144032 0.50340706 0.82164955 0.5890616 0.50495744
0.31831124 0.22026297 0.10844973 0.12260841 0.4177035 0.059054002 0.4886978 0.16334237
