final_models/v_start_noise/models/best_model_episode_8728.pt (torch, 226638 bytes, 22 tensors)

layer1.weight f4 [128, 8]
00000000: a338 943e 7c15 82be 3570 fdbd 0c9c 863e
00000010: 50fb 90be 4e3a 3b3e a25d a2bd 5819 4d3e
00000020: fb6a f3bc bf50 8dbe 9f23 773e 932f a0bb
00000030: 62be 34bc 9c55 f2bd 4d2f 2c3c 5080 f03c
00000040: 7fa4 eebd 4cab 56bd 1331 d33e f83a 063e
00000050: bdbc d0bd 3d0d 88be 6f8b c4bd db47 02be
00000060: a5c2 babd b58e 13bd 7e2b 663e c118 963e
00000070: 7bbf e6be e420 183e 9832 a83d 14c2 a43e
00000080: 5055 443d 8c0a 45be 6b74 7cbe 0cd2 febb
00000090: fe7d 373e 8e0e d6bc 3ea6 323e 31af 1dbe
000000a0: 1f54 443e e167 14be 0a6d 773e ee68 e3bd
000000b0: 6e45 26be 53ca 5c3e 189e 09be 87a8 12bc
000000c0: 3325 febb 8492 7f3c bc16 50be 581e 14be
000000d0: 17b7 b53d 9849 27be 7381 9f3e 5de8 963d
000000e0: 0e33 ce3c 832e bebe 51e7 193e 3c63 c13d
000000f0: 9af4 5ebe c1ae 723e 7f33 613e e7e5 c33e
00000100: a2a5 2abe ab81 59be 0f09 6bbd d4ab 803c
00000110: 6601 91be 2279 06be 42a7 f23d 9003 373d
00000120: ead1 293e 81ea fabd fda7 243e d2c6 96bc
00000130: 7bf9 673e 7e25 333e ca90 70be 2262 de3d
00000140: 4d32 5abe 5f76 b2be 130c 953c b958 debd
00000150: 8562 243e 4b25 40be 15c0 a1be 921a 223e
00000160: 949e a0bc 89fb c43d 1b86 563d 6219 95bd
00000170: a501 d6bb 2c87 ea3d 14fe b3bd aa0e 1dbe
00000180: eb8d 6b3e 670f 583e a5c0 173d 5aee b4bd
00000190: e296 9b3e d531 a0bd a7bd 4b3e e400 323e
000001a0: c107 14be 268c b9be 9064 b23e c90b f93d
000001b0: b828 d73e 5c1b 09bd 23ad 343e cf6f 383e
000001c0: c505 943e eec6 debd 8a25 2cbc 9bde 903d
000001d0: 7ea7 573c 0271 c4bd 9a91 43bd 1d2f 85be
000001e0: 44ee 7ebe 47dc 253c bed8 a53e 2716 8bbe
000001f0: 18d8 023e 0757 39be bf28 e1be 77f6 f9bb
00000200: 6e04 193e 922b d13e 9022 88be e0d2 9d3e
00000210: d519 ac3e 9f34 663e dbf4 903e 36a9 a13e
00000220: 1b94 fe3e de9c e93d 43cc 56be 0b09 a0be
00000230: 8a1c 7ebe 9109 ba3c 4a0e 8abe 46e7 283e
00000240: c855 2c3d 5b88 70bd 31e3 da3d 98f1 923d
00000250: cd6b 083e 97c1 db3d f2cc e8bb 6d83 bb3e
00000260: 3a62 80bd 421d e5bc da41 b5be d277 5cbe
00000270: d04a 51be 21b3 edbd f9c4 673e 0478 eebd
00000280: 03af f1be bd8e 683d 63c1 eb3d 3ed8 023f
00000290: bdf4 5bbe ce83 2a3e fb9b 35be 5b7e b63c
000002a0: c472 5bbe ced6 84be dcfc 80be 3e6a 023e
000002b0: 3f86 a5bb 677f fb3c 37cd e03e 907d a53e
000002c0: 840a 8d3e da8c 943d 0db8 ecbe 1e77 303e
000002d0: 0105 32bb 9699 9f3d 0c16 ccbe 7426 54be
000002e0: 2766 9fbe a168 433e 3be9 adbe fa37 afbe
000002f0: 19d5 e8bc 3ef7 86be 63c9 f23c 9425 a2bd
00000300: a874 b1be f98a 993c 777a 8c3e ede3 44be
00000310: 020f 5d3e d190 c73d f0d3 bc3e fe03 a2be
00000320: 249c 13bc a9f0 b4be 81a4 813e 17e7 063c
00000330: b1ab b3bb 30b1 96be 142c 3dbd 4034 473d
00000340: 969c 843c 0de9 f33d a6e4 0c3d 2275 e83c
00000350: 1181 86be 9188 943e 7a04 a53e b515 da3e
00000360: c6ea 813c f818 78be 0bf6 aabd a50e 383d
00000370: 33c7 24bd 5d27 8f3b c14e 71bd 58fa 7fbe
00000380: 60c6 b73e 4292 88be f375 9d3b d0d7 993e
00000390: 3fd9 ff3e a286 813e 67a3 42bd 3e9e e2be
000003a0: 63f2 4b3e 5156 443d 9f0e d7bd d963 fd3c
000003b0: c74a c3be 9b58 3a3e 62ab 7c3e 7beb a7be
000003c0: ae95 eebe 9f10 8cbe 2ecd a83d c1ca c03d
000003d0: 1f3d 4cbe d7a9 973e a602 b7be ada5 1cbe
000003e0: 7d4b 0fbe 52d1 9d3e 9ffb a03e 19d3 923c
000003f0: 5505 8b3d 9aa4 cf3d 5877 c03d 95b2 a5bc
0.2894946 -0.25407016 -0.123749174 0.2629093 -0.28316736 0.1828396 -0.07928015 0.20029199
-0.029714098 -0.27600667 0.24134682 -0.004888484 -0.011031719 -0.11832735 0.010509324 0.02935806
-0.11652469 -0.052409455 0.41248378 0.13108432 -0.10192249 -0.265726 -0.09596907 -0.12722723
-0.09119157 -0.036024768 0.22477528 0.2931576 -0.45067963 0.14856297 0.08212775 0.3217932
0.047932923 -0.19242305 -0.24653785 -0.0077765044 0.17919156 -0.026129987 0.17446229 -0.15398861
0.19172715 -0.14492752 0.24162689 -0.11103998 -0.16237423 0.21561556 -0.13439214 -0.008951313
-0.0077558993 0.015598897 -0.20321172 -0.144647 0.08872812 -0.16336668 0.3115345 0.073685385
0.02517083 -0.3714486 0.15029646 0.094427556 -0.21772996 0.23699476 0.219923 0.3826134
-0.16664746 -0.2124087 -0.057381686 0.015706934 -0.2832138 -0.13132146 0.11848308 0.04468113
0.16583982 -0.12251759 0.16079707 -0.018405352 0.22653763 0.17494771 -0.23492733 0.10858561
-0.2130825 -0.34855935 0.018194234 -0.10856766 0.16053207 -0.18764226 -0.3159186 0.15830448
-0.019606866 0.09618289 0.052373987 -0.07280232 -0.0065309578 0.11451563 -0.08788696 -0.15337625
0.23003356 0.21099626 0.037048955 -0.088345245 0.30388552 -0.07822005 0.19896565 0.17383152
-0.14456083 -0.36239737 0.34842348 0.12160451 0.42023253 -0.033473358 0.17644171 0.18011402
0.28910652 -0.108777866 -0.010506997 0.070737086 0.013162492 -0.09591867 -0.04774628 -0.26012507
-0.24895579 0.010123319 0.32391924 -0.27165338 0.12777746 -0.18099605 -0.439764 -0.007628258
0.14943096 0.40853554 -0.2658887 0.30824947 0.33613458 0.22481011 0.2831181 0.3157441
0.4972237 0.11406873 -0.20976357 -0.312569 -0.24815574 0.02270964 -0.26964027 0.16494474
0.042073995 -0.05872379 0.106878646 0.071749866 0.13322373 0.10730284 -0.0071045095 0.36623707
-0.06268735 -0.027968053 -0.35401803 -0.21530083 -0.20438695 -0.11606432 0.22633733 -0.11643985
-0.47203836 0.05677675 0.11511495 0.5111121 -0.21480079 0.16651842 -0.17735283 0.022277048
-0.21430498 -0.25945133 -0.25192916 0.1273584 -0.005051404 0.030700399 0.43906567 0.3232236
0.27547085 0.07253428 -0.4623417 0.1723294 -0.0027163627 0.07792966 -0.3986057 -0.20717794
-0.31132624 0.19082882 -0.33967003 -0.34222394 -0.028421925 -0.26360506 0.029637044 -0.07917324
-0.34659314 0.018743025 0.27437183 -0.19227572 0.21587756 0.097444184 0.36880445 -0.3164367
-0.009009395 -0.3533986 0.2532082 0.008233807 -0.0054831137 -0.29432058 -0.046184614 0.048633814
0.016187947 0.11909685 0.034397744 0.028376166 -0.26270345 0.29010442 0.32229978 0.42594686
0.015859019 -0.24228275 -0.0834771 0.04493584 -0.040229034 0.004368706 -0.058912996 -0.24997842
0.35893536 -0.26674086 0.0048053204 0.30047464 0.49970433 0.2529803 -0.047519114 -0.44261354
0.19916682 0.04793388 -0.105008356 0.0309314 -0.38142988 0.18197863 0.24674752 -0.32796845
-0.46598572 -0.2735643 0.0824226 0.09413672 -0.19945191 0.29621765 -0.35744208 -0.15297575
-0.1399364 0.3082376 0.31441972 0.017922925 0.067881264 0.10138817 0.09397763 -0.020226756

layer1.bias f4 [128]
00000000: b591 babc 2eb2 87bd 29ed 113e ec27 dbbd
00000010: f69e a4be 0ac4 1d3e 5110 33be 402c f8bd
00000020: 6daa af3e 67a8 1e3e 2219 f83d 5958 6cbc
00000030: da47 91be 20d1 1b3e a936 86be 082d b43c
00000040: ee83 aebe 7bd3 253e 6b2f 35be 8366 a93e
00000050: 3d83 303e 23e2 b43e 8836 ad3c 7f88 ea3b
00000060: 525c 213e d114 61be 8b18 2ebe 2be3 e0be
00000070: 2756 d73e deac 8ebc 509c 033e eca0 0c3d
00000080: 79cb 213e 949e 84be d40e 4fbe b9c4 8c3e
00000090: 6d84 303e c736 bdbc 8f80 85be 091e bfbd
000000a0: f77c 70be 8a9b 8a3c 13a8 8cbe 7d23 95be
000000b0: a2a9 d1be f9cb 303d 7df4 a23d 4db7 bc3e
000000c0: c1b9 aabe cb21 e2bd 237b 49be 35bd 84be
000000d0: b036 7dbb 7a0a c83e 9525 863d de6b d1bd
000000e0: 32c9 863e c9b0 b6be 84c7 063c 5811 863e
000000f0: e8d3 8a3e 1257 933d 97ad 3bbe 3aab debe
00000100: cfca 1fbe a08a 373e 1d9e 853e 1df7 073d
00000110: c1dc 9cbe 958e 1ebd 8516 f13d a791 573c
00000120: 51fb 2abe 79a3 653d 97b6 073d f95f 8a3d
00000130: 413f 0cbd 7ae7 4a3e fe28 c3be 5d2e 05be
00000140: cd9b bdbb cb0c 5f3e ba66 1a3e baf1 0e3e
00000150: 82cb c13e e12d db3d 135d bebe f749 0f3e
00000160: ecd7 66be fc98 ddbb 6d9e 673d a0e6 b03e
00000170: 9e83 06be fecb 49be ec91 00be 446d a4bd
00000180: 4ab3 b43e dc6d 5b3e 3445 473e 446a c73d
00000190: 945f b4bd a25a 85bd a814 8bbe acf3 ec3d
000001a0: 3d9a 6bbe b9df 733d 8002 263e a6b4 833e
000001b0: 40c4 babe 3934 d13e 11af 01be 5fb2 45bd
000001c0: 5cfa a53e 9471 9c3e da6e 8dbe bed9 823e
000001d0: 6f77 aebe 39bd 933e ae02 d03e 08b9 bb3c
000001e0: 6f88 173d 28e4 5cbb 3cfd 91be c86d 93be
000001f0: 4d12 80bd cc25 c2be 0fc0 9cbe 6165 d1bd
-0.022774557 -0.06625782 0.14250626 -0.10700974 -0.32152528 0.15406814 -0.17486693 -0.12117815
0.34309712 0.15493928 0.12114169 -0.014425361 -0.2837513 0.15216494 -0.26213577 0.021994129
-0.3408503 0.16193955 -0.1769387 0.33086023 0.17237563 0.3532878 0.021144167 0.007157385
0.15757874 -0.21980597 -0.1700155 -0.43923315 0.42057917 -0.017416414 0.12852597 0.034333155
0.15800275 -0.25902236 -0.202205 0.27493837 0.17238016 -0.023097409 -0.26074645 -0.093319006
-0.2348517 0.01691987 -0.2747198 -0.29128638 -0.40949732 0.043163273 0.07956789 0.36858597
-0.33344844 -0.11041602 -0.19675879 -0.25925604 -0.0038637333 0.39070493 0.06550137 -0.10225652
0.26325375 -0.3568175 0.008226279 0.26185107 0.27114797 0.07194342 -0.18327938 -0.4349001
-0.15604709 0.17923975 0.26097193 0.03319465 -0.30637172 -0.038710196 0.117718734 0.013157285
-0.16697432 0.056064103 0.033133116 0.067565866 -0.03424001 0.19814864 -0.38117212 -0.13005967
-0.005786395 0.21782224 0.1507825 0.13959399 0.37850577 0.1070211 -0.37180385 0.13993059
-0.22543305 -0.006762622 0.05654757 0.34550953 -0.13136145 -0.19706723 -0.12555665 -0.08028653
0.35293037 0.21428627 0.19459993 0.097370654 -0.088072926 -0.065114275 -0.27164197 0.11569914
-0.23008056 0.05953953 0.16211891 0.2572376 -0.36477852 0.40860155 -0.12664439 -0.04826581
0.32417572 0.30555403 -0.27623636 0.2555675 -0.34075496 0.28855303 0.40627044 0.022915378
0.036995348 -0.0033705328 -0.28513515 -0.28794694 -0.062534906 -0.37919462 -0.3061528 -0.102244146

layer2.weight f4 [128, 128]
00000000: 1cf3 2fbd 2a13 30bd b53f 35bd f86f 513c
00000010: 15e9 c93d ac32 953b 4461 1ebd 5589 a73c
00000020: 2236 eebd dcc6 a83d d2f7 ae3d b79d 30bd
00000030: e7f4 70bd cd42 083e 8848 e8bd 2268 723d
00000040: c0f0 6ebd ceed 05be 99e0 1b3d c7a5 c4bd
00000050: 4f1d be3d dd94 783b 3527 9bbd 8329 b6bd
00000060: e3e6 833d 6d9c f03d 2214 703b 1cd7 74bd
00000070: b184 ebbd 816d 643d a5a5 72bc c21f 613d
00000080: 4f25 973d 4ed8 a13d ac05 ad3c 7913 fc3c
00000090: 2e82 853d d0fa e1bb ac9a 9a3d 4040 8e3c
000000a0: b64b a6ba 1fa2 51bd 8f6d 033c 869c a13d
000000b0: 9df8 a63d bd8d 0cbc 983f 13bd 9ead 853d
000000c0: db48 843d d76a 383e d458 d73c ecbd b5bc
000000d0: 4b40 d0bc ddd8 70bd 8f1d 633c d909 0d3c
000000e0: d848 7ebd 09af 83bd 2b95 1c3d 86ab a93c
000000f0: b0b1 15be 2350 cf3c fe19 593d d815 543d
00000100: 995e e53d 9afb 38bd 7ec6 be3d fefc cbbd
00000110: 2ae9 54bc b5d6 6fbd 03bc 9bbc 036a cc3d
00000120: 9d77 c03d 57a9 953b 3c47 0bbd 385f 1bbd
00000130: a684 a83a 665b a1bc 2be2 713d a8a8 583d
00000140: 967c a93d cc3f 49bd 0d5d a63d 30a8 8ebc
00000150: c39e eebc 3680 34bd 0b3a c7bb 4951 50bd
00000160: cb33 39bc 71c5 a6bd 1bc7 2c3d a23c 97bd
00000170: 77f9 7bbc 8200 71bd f9ae 433c fe15 993d
00000180: 20aa 91bd 2ade afbd a6ce 933d 4496 853d
00000190: ab4c 8d3d 2ff4 8cbd fedd 8d3d e640 873d
000001a0: a7f5 2a3d e953 05bc 68f0 c13d 441f 2b3d
000001b0: c8e3 193d 78f3 acbc 690a 3ebd b44d 56bd
000001c0: 28c8 e93d 781f 163d f293 6f3d df67 8e3d
000001d0: 80e9 9cbd 70c2 e33c dc62 4ebd 3272 083b
000001e0: 5187 cc3c 6014 053b e4ed b6bc d61f efbc
000001f0: 7335 ecbd a979 93bd 51e6 853d 0bb8 86bd
00000200: 03aa a0bc 7883 3cbc b9ba bd3c 396f d0bc
00000210: 3ad6 493d 808a aebc 4a76 6b3d 53ef 42bc
00000220: ef54 953b 2ff0 c3bb 61d2 d43d b025 673c
00000230: f585 293d 1e07 06bd 3ba9 493c ff14 eb3d
00000240: 9a81 d4bd 4ca9 a1bc 6d64 873d e63d 41bd
00000250: e463 04bd bc3e 42bc 840c a33c c8c8 663d
00000260: 71ac 87bc 7a16 2e3d c56a 8ebd 0f78 f73c
00000270: f05e 6fbd 518a 623d b06a 61bd 037e adbd
00000280: 861d 8bbb b1ad 303d 6afb 74bb a531 163d
00000290: fb5a a33a a895 623d 43aa 26bc 6918 05be
000002a0: 552c 82bd 4f15 063d 36ad 44bc fb3c 943d
000002b0: 23fc 4bbd 1dff 943d d55b 43bd 2c0a 5bbd
000002c0: 9f2e a7bc 1d9b bbbd 1a4d 87bc 30e3 903c
000002d0: 6205 ffbd 7256 bf3d 2937 a7bd 786c 533d
000002e0: 15d4 1d3d 1ec6 dc3a 4bd6 78bd ea87 913b
000002f0: 3c2e 39bd 8f85 ac3d dc4b a1bd b46a 1abd
00000300: e72f d2bc 19ed 83bd fe59 26bd 1534 8a3c
00000310: ed07 b5bc 7183 b83b e671 a83d 4573 d6bb
00000320: e5f5 81bd 9e2f 2fbd 3ddb cf3d 350b 98bc
00000330: f978 b4bd 1523 5e3d b0e0 f3bb 7863 9b3c
00000340: 7a93 863b 9d4a 003e 4b44 84bd 6237 e73c
00000350: 771a 1a3e de7e 5d3c 4960 353d af2f 8f3d
00000360: 8197 e83d a942 febc a4ee c8bd 0874 50bd
00000370: 0d39 c4bd ea1f 423c 217a 8c3d 11e4 903d
00000380: 8495 e53c 229e 413c f930 153d 0aa1 843d
00000390: 7f2e 8e3d 9579 f83b 163f 71bc a9e0 b03c
000003a0: b687 2cbb 0e0f 0bbd 6efd 90bc c8f1 b93d
000003b0: 24c2 803d f196 08bd e89b 06bd cf13 83bd
000003c0: 3888 213c 620c 863d cdda a2bd adcf a13d
000003d0: adf7 a5bd cb65 bdbd f80c 79bc 16c9 e4b9
000003e0: 685e 4dbc e34e 29bd 3d3d 57bd 8377 99bd
000003f0: 8587 85bd 3ec6 8dbd 81bb 803d 7b6d 99bd
-0.042956457 -0.042987026 -0.04425021 0.012783043 0.0985891 0.0045531597 -0.03866698 0.020451227
-0.11631419 0.082410544 0.08543362 -0.04311916 -0.058827307 0.13306732 -0.11341959 0.05918134
-0.058335066 -0.13078997 0.03805599 -0.09601932 0.09282934 0.0037930526 -0.075758375 -0.088946365
0.064405225 0.11748586 0.0036633094 -0.059775457 -0.11499918 0.055768494 -0.014810001 0.054961927
0.07380163 0.07902585 0.021120869 0.030771004 0.065189704 -0.0068963543 0.075490326 0.017364621
-0.0012687359 -0.05118 0.008021726 0.078911826 0.08152888 -0.008578715 -0.03594932 0.065272555
0.064592086 0.18009506 0.026287474 -0.022185288 -0.025421282 -0.058800567 0.013862028 0.008608305
-0.062081188 -0.0642987 0.038228195 0.020711672 -0.14618564 0.025306767 0.053003304 0.051778644
0.11199684 -0.04516182 0.09315203 -0.09960364 -0.012995044 -0.05855437 -0.01901055 0.09981158
0.093978144 0.004567306 -0.03400348 -0.037932605 0.0012856915 -0.019696902 0.05905358 0.052895218
0.08275716 -0.049133107 0.08123217 -0.017414182 -0.029128438 -0.044067584 -0.0060799173 -0.05085877
-0.011303852 -0.08143128 0.04218207 -0.07384612 -0.015379301 -0.058838375 0.011943572 0.07474898
-0.07112527 -0.08587296 0.072171494 0.065228015 0.06899389 -0.06882512 0.06927107 0.06604175
0.04173818 -0.0081376815 0.09469682 0.041777864 0.037570745 -0.021112189 -0.046396647 -0.052320197
0.1141513 0.036651105 0.0584907 0.069534056 -0.07661724 0.027802676 -0.05038725 0.0020820019
0.024966868 0.0020306334 -0.022330232 -0.029189985 -0.11533632 -0.07200939 0.0653807 -0.06578072
-0.019612318 -0.011505954 0.023160325 -0.02544366 0.049276568 -0.021306276 0.057485856 -0.01189788
0.004557244 -0.00597956 0.10391689 0.0141081065 0.041387517 -0.03272163 0.012308414 0.11478614
-0.10376282 -0.019734047 0.066109516 -0.04717817 -0.032321826 -0.011855777 0.019903429 0.056343824
-0.016561719 0.042501904 -0.069539584 0.030208616 -0.05844015 0.05530769 -0.055033386 -0.084713005
-0.004245463 0.043134395 -0.00373813 0.03666844 0.0012463027 0.055318505 -0.0101724295 -0.12997593
-0.06356112 0.032735165 -0.012004187 0.072381936 -0.049801003 0.072752215 -0.047695 -0.053476498
-0.020407973 -0.09160445 -0.016516257 0.017686456 -0.124521986 0.0934266 -0.08164818 0.051617116
0.038532335 0.0016843711 -0.06075124 0.004441251 -0.04521011 0.08423912 -0.07875797 -0.037699416
-0.025657607 -0.06441707 -0.040613167 0.016870538 -0.022098506 0.0056309034 0.082248494 -0.006544503
-0.06345729 -0.04277002 0.10149238 -0.018560031 -0.08812136 0.054232676 -0.0074425563 0.018968329
0.004106936 0.12528463 -0.06458338 0.02822465 0.15049158 0.013519017 0.044281278 0.06991517
0.11357022 -0.031037645 -0.09811142 -0.050891906 -0.09581194 0.011848429 0.06859232 0.0707475
0.028025396 0.011817487 0.036423657 0.06476028 0.06942462 0.007582853 -0.0147245135 0.021591501
-0.0026326007 -0.033949904 -0.01769897 0.09079319 0.062870294 -0.033347074 -0.032863528 -0.064002626
0.009859137 0.065453306 -0.07951889 0.07900939 -0.08103881 -0.09247931 -0.015200846 -0.0004363737
-0.012534715 -0.041334998 -0.052548636 -0.07493498 -0.06519989 -0.06922577 0.062857635 -0.07491585

layer2.bias f4 [128]
00000000: c11d 05bd 6596 2dbd 94cd d5bc d295 173c
00000010: 08c9 00be 1288 833d 6dad 75bd a8db 323e
00000020: cd7f c9bc 65f0 8e3b cf10 203d 0ac7 c53d
00000030: 7ead e1bc 535b 74be ee48 d33c 9133 d7bc
00000040: 2e0c b5bd 8d0c 4ebc e66d 8fbc 272b d23d
00000050: 29b2 093e eef9 8b3d cfcb 373d 51a2 533c
00000060: 113b ad3d d965 11be 0f0d 78bc 9527 033a
00000070: cfa5 1e3d 116c 1c3d 7cf1 223e 57d0 d8bd
00000080: ddfe 6ebd 9448 4f3d 5322 d13b 3841 6e3d
00000090: c1ed 133e 7b1b f13b bb60 82bd 73d2 e2bc
000000a0: 6b37 14be 6f79 aa3d deed e23c 07ef d6bd
000000b0: 77be 5c3d 0f11 cc3d 0a0f 143e 5e7c 9ebd
000000c0: e056 fc3d c5e7 c63c bc8a 0d3d 6ea5 2cbd
000000d0: 546f b63d 67ed ad3d 55c1 39bb c773 afbd
000000e0: a9d8 8b3d f532 21be f050 8f3d 1400 ad3d
000000f0: b25a fe3c 4a77 313d 001e b3bd 2bc6 ab3c
00000100: bafa d93b 2bb0 97bd 1db4 4d3c 24e7 bbbc
00000110: 809a 173c c553 703c c0e1 0bbd e210 36bd
00000120: 2ed7 1a3e 0036 e03d e9e8 a7bc c244 3ebd
00000130: f31b a63c 41f4 11be 074b 41bd f8dd bcbd
00000140: 2c4c 063d 2fdc adbc b533 ad3d b648 abbd
00000150: e3a9 9dbd b722 a4bc 5661 d2bd 1869 1abe
00000160: d650 79bd ec53 dabb 7510 443d 04ad e23d
00000170: c0de d339 1904 3b3e c93c d23d c8b4 083b
00000180: dcee adbd 8caa bbbc 445d f23b 2554 df3b
00000190: 486e 993d 687c 123e 55a0 0fbd 2997 b83d
000001a0: dd78 8b3d 4eda cd3d c594 04bd 716a 873c
000001b0: 55ff cb3d 0364 17be 1939 4cbd fe1a 6fbd
000001c0: 4126 b83d 2dbf 1f3c eb81 553c abbb b63c
000001d0: ef8e a43d e2b4 92bd b22b 06be d7d0 02bd
000001e0: d84d 01bd deaf 5ebd 6bf7 c7bc f48f 1c3b
000001f0: 043d 1fbe d61e 42be f2f6 483c 9770 80bd
-0.03249908 -0.042379756 -0.026099004 0.009252029 -0.12576687 0.06422438 -0.059979845 0.17466605
-0.024597073 0.0043621534 0.03907853 0.09657104 -0.027548548 -0.23862962 0.025791612 -0.026269706
-0.08840214 -0.0125762345 -0.017508458 0.10262137 0.13446869 0.0683478 0.0448721 0.012917117
0.08458532 -0.14199008 -0.015139832 0.00050031516 0.038732346 0.038188998 0.15912431 -0.10586613
-0.058348525 0.050606325 0.0063822656 0.058167666 0.14446165 0.0073580123 -0.06366106 -0.02768824
-0.14474265 0.08323943 0.027701315 -0.104948096 0.05389258 0.09964191 0.14458862 -0.07738565
0.123212576 0.024280438 0.034556136 -0.042149954 0.08907953 0.084925465 -0.0028343995 -0.08567005
0.06828434 -0.15742095 0.069978595 0.084472805 0.031049106 0.043326654 -0.087459564 0.020968517
0.0066522034 -0.07406648 0.012555149 -0.022937365 0.009253144 0.01466841 -0.03415084 -0.044449694
0.15121147 0.109478 -0.020496802 -0.04645229 0.020277 -0.14253332 -0.047190692 -0.09222025
0.032787487 -0.021223156 0.08457128 -0.08363478 -0.07698419 -0.020036085 -0.102724716 -0.15079153
-0.060868107 -0.0066628363 0.047867257 0.11068156 0.00040411018 0.18263282 0.102655 0.0020859707
-0.084928244 -0.022908472 0.007396372 0.0068154507 0.074917376 0.1430527 -0.035065014 0.090132065
0.06810162 0.10051404 -0.03236844 0.016530247 0.0996081 -0.14784245 -0.04985914 -0.05837535
0.08991671 0.00975017 0.013031463 0.022306284 0.08035075 -0.07163407 -0.13102606 -0.031937446
-0.03156838 -0.05436694 -0.02440997 0.0023889514 -0.1555062 -0.18957075 0.012265908 -0.06271475

layer3.weight f4 [128, 128]
00000000: 0c52 97bd 392c 9d3d 77c5 073d 2175 d6bb
00000010: 286c 7bbd efb8 73bd 6cf8 69bd cd18 853d
00000020: ddf6 853d 16f1 9a3d 1e88 eb3c 87cd 713c
00000030: bc90 3dbd 939f 4dbd 00a8 a03d 0d10 a53d
00000040: 8927 cb3d 212e 223c 2b47 7b3d 71ec b83b
00000050: 3552 35bc 3e7d 67bc bf58 57bd 44bd a6bd
00000060: 5a31 30bd 842b 16bd 2f17 9c3d 490b 61bd
00000070: 9678 a7bc ab58 c93c f200 b13c 76b4 763c
00000080: fdc3 543d 8321 a1bd a1e7 013c cb04 d7bd
00000090: 5995 e139 6296 8e3d 9357 6b3d 97a8 ed3c
000000a0: 012e afbd f18a 953c ce97 d03a 0f85 c6bd
000000b0: 1cc5 c7bd 6ded 66bd f5e1 0f3d ccfe 643d
000000c0: e208 e1bd 3311 42bd e789 033d 160d 3cbd
000000d0: ad2f 983d f912 3a3d da66 d4bc 059a e43d
000000e0: 6119 57bc 471a d6bc 9efe a9bb 344b 67bd
000000f0: a4b5 6c3d d39a 88bd 2d10 8f3d e6a5 00bd
00000100: c736 94ba ff05 31be f2dd 51bd cac9 cf3c
00000110: 7ce6 dfbd 8cca 6e3d 53d3 01bd 8334 64bd
00000120: f113 843d 6e3e 7b3c cd13 a73c d31b adbc
00000130: b91a 823c b912 0b3d 8355 9dbd 136d 80bd
00000140: 07af aabd 6a36 0fbc 0924 473d ff87 a2bd
00000150: 1d7c a43c 0cee 66bd a8e2 a73c 0a54 a73d
00000160: 37b7 cabc 2390 553d 23da b43c b658 d83c
00000170: 5a77 af3c 50fe 5fbd be0e 543d 1857 503d
00000180: aaf6 b73d 027f ca3c 5c0b 2bbd 6d0a e3bc
00000190: 049b 773d 5496 d8ba 12df 6abc 9bc1 413d
000001a0: 4ce2 45bc 8a0f 0a3e 85cf 3d3d e5de 93bd
000001b0: f30d 953d 62b9 053d e553 bdbd 20f2 4abd
000001c0: 8613 eb3c 470a 0d3d 6f87 b63d ee9d 843c
000001d0: 0efc 8b3d 0d75 8dbd 784c 9a3d c05d 303d
000001e0: c91d ef3c 6a78 8abd fa14 e4bd 387b 05bd
000001f0: fe89 2e3d 8e33 503b c42d 4b3c 70c6 ce3a
00000200: eb75 df3d 6a7c 2c3d 2cc6 63bd 6166 d03c
00000210: 359e edba ad3f fabb 43a5 f9bd 9c91 fe3d
00000220: d3f7 db3c 9219 d7bc 8d7a b7bd 8467 033d
00000230: 9fe3 c6bc f5ab 2dbd 2c97 f83b 4d5d f53b
00000240: 8a9a dd3c 00fb f3bd 4a87 32bd 1679 1fbc
00000250: 6c5d b93d d4a8 08bd 0b1d e6bc 75e1 bd3c
00000260: 57c5 393b 0c5c 95bd 0c25 da3b ab92 393d
00000270: 48e6 c83c e8da cabc 8a48 743d b717 24bd
00000280: a643 aa3d b9a2 5b3d e10f a53d 422d b23c
00000290: fc4e 443d 4b26 33bd 54e3 edba c45b d53c
000002a0: fabe b2bd bbc3 0ebd e01d 8dbc 3f3b f63d
000002b0: 4411 643d 373b e43a 1256 abbc 836c 9fbd
000002c0: 2c0b 093e 6ff0 963c 6184 ebbc 00fd 5fbd
000002d0: 7bd9 70bc 0b4b 5d3d 505f 5a3d 9244 efbd
000002e0: 2d32 d2bc acc0 e9bc 04d6 033e 80fd cabc
000002f0: b891 fbbc c8bf 7b3d 2503 d8bc 6489 a9bd
00000300: 31f5 013d 156c 053e 0490 c0bd 308f a33d
00000310: abee 593c 1254 d53d 919b b33c f2bb cfba
00000320: 8c58 39bd 2917 bb3d 86b5 aabc c219 853c
00000330: 4066 673d 23ab 25bd cf1b 93bc 421d d63d
00000340: 1679 d93d d82b 583d dc49 82bd 82b4 a7bc
00000350: 3f5f c4bc 306b a13a 0acf 5fbd a138 ec3c
00000360: 9991 b0bd 7ad6 79bd 342f 04bb fa1e ea3c
00000370: 6967 fb3c 85f1 1cbb d8c7 8c3b 9e5d 25be
00000380: 666a b23d f187 df3d 8092 98bd 2fd2 ecbd
00000390: c276 d9bd fe2b a3bd a059 e33c 136c b1bd
000003a0: 34cc 02be 56c5 2fbd cf38 34bc 4615 1cbd
000003b0: b731 593d 84eb 94bd 448b 05bd cccb 4dbd
000003c0: d7bc 8f3d 7c83 31bc ff07 24bd 4bf9 2bbc
000003d0: fb9a 79bc c757 6a3d b785 3bbd 9eac 42bd
000003e0: c34c 43bd ca32 b8bd c0e6 c23d e03d a5bc
000003f0: b79e 8bbc 38b6 093d 4219 4abb bcfa bd3d
-0.07388696 0.076744504 0.0331473 -0.0065447246 -0.061382443 -0.05950254 -0.05712168 0.06498871
0.06541226 0.07565515 0.02875143 0.014758474 -0.046280608 -0.05020101 0.078445435 0.08059702
0.0991965 0.009898693 0.061347168 0.0056434204 -0.011066963 -0.014128981 -0.05257487 -0.08141568
-0.043015815 -0.036662593 0.076216094 -0.054942403 -0.020443242 0.024578413 0.021606896 0.015057674
0.05194472 -0.0786772 0.00792876 -0.10498961 0.00043026617 0.06962277 0.057456564 0.029011054
-0.085536964 0.018254729 0.0015914382 -0.09693348 -0.097543925 -0.05637877 0.0351276 0.055907056
-0.109880224 -0.047379684 0.032113936 -0.045910917 0.074309684 0.04542825 -0.02592795 0.111621894
-0.013128609 -0.026135577 -0.0051878234 -0.056468204 0.057790413 -0.066701554 0.06985507 -0.031408213
-0.0011307829 -0.17287444 -0.051237054 0.025364775 -0.10932633 0.058298633 -0.031695675 -0.05571414
0.06449116 0.015334709 0.020395184 -0.021131432 0.015881883 0.033953402 -0.07682326 -0.06270804
-0.08334165 -0.008741001 0.04861835 -0.079360954 0.020078713 -0.056379363 0.02049382 0.08170326
-0.024745567 0.052139413 0.022076672 0.026409488 0.021419216 -0.05468589 0.05177187 0.05086431
0.08982594 0.024718765 -0.04175888 -0.027714932 0.06045057 -0.0016524293 -0.014335411 0.047303777
-0.012077879 0.1348249 0.046340484 -0.07220248 0.07278051 0.032647498 -0.09244517 -0.049547315
0.028695833 0.03443363 0.08912551 0.016188588 0.06835185 -0.06907091 0.075341165 0.043058157
0.029189007 -0.067612484 -0.111368135 -0.032588214 0.04261207 0.003176901 0.012401048 0.0015775692
0.10911163 0.042110838 -0.055608913 0.025439443 -0.0018128814 -0.0076369853 -0.12189724 0.124301165
0.02685157 -0.02625731 -0.089589216 0.032081142 -0.02427846 -0.04240032 0.0075863805 0.007487929
0.027051229 -0.11913109 -0.043586053 -0.009733459 0.09051022 -0.033364132 -0.02809002 0.023178795
0.0028346383 -0.07292947 0.0066572484 0.04530589 0.02452387 -0.024762586 0.05963949 -0.04006168
0.08313684 0.05362198 0.08059669 0.021750096 0.047926888 -0.04373769 -0.0018149414 0.026044734
-0.08727832 -0.034854632 -0.01722616 0.12023019 0.05568053 0.0017412667 -0.020915065 -0.07784369
0.13383168 0.018425195 -0.028749647 -0.05468464 -0.014700289 0.054026645 0.053313553 -0.116830006
-0.025658691 -0.028534256 0.12874609 -0.024779081 -0.030709133 0.061462194 -0.026368687 -0.08278158
0.031727973 0.13029511 -0.09402469 0.07986295 0.013301532 0.10416426 0.021924766 -0.0015848859
-0.04525046 0.09135277 -0.02083851 0.016247634 0.056493998 -0.04044641 -0.017957596 0.10454799
0.106187984 0.052776188 -0.06361744 -0.020471815 -0.023971198 0.001231527 -0.054640807 0.028835597
-0.086215205 -0.060995556 -0.0020169737 0.028579224 0.030688958 -0.0023947668 0.004296284 -0.16148993
0.087117 0.10914601 -0.07449818 -0.11563527 -0.106183544 -0.07967375 0.027752697 -0.08663192
-0.1277321 -0.042912804 -0.010999872 -0.038106225 0.053025927 -0.072714835 -0.032603517 -0.050243184
0.0701844 -0.010834571 -0.04004669 -0.010496448 -0.015234704 0.057212617 -0.045781817 -0.0475279
-0.047680628 -0.08994062 0.09516668 -0.020171106 -0.017043455 0.033621043 -0.0030837809 0.092763394

layer3.bias f4 [128]
00000000: 450b 253d c742 3a3d 68ce 44bb cab0 4ebd
00000010: bd5f 3e3c 1e63 4b3e c7c1 4cbc ac91 da3d
00000020: 6003 5c3d 2780 febd 8999 b4bd 4003 6abc
00000030: e6a9 fd3c 938f 5b3d d7e6 563d f339 5d3d
00000040: 0cde 93bc d7a3 a6bd b167 6d3d 0538 a0bd
00000050: 0d43 99bd 2e3e b0bd a1fe 503d 0e4b 92bd
00000060: 0e31 243e 7395 31be 19b7 8ebd 6b1a 5e3e
00000070: 337d 243e f0ae ddbd f183 223e 59bb 363d
00000080: 208c d23c 4985 1fbe 3151 ddbd b128 3b3c
00000090: 5413 e3bd 2830 983d e623 8cbd 232b 2d3e
000000a0: 29ae ac3d 4a63 92bd c738 dfbd 68a7 1e3e
000000b0: 3916 0ebe 287b 65bd d348 443e 7389 9d3c
000000c0: c484 783d 10b1 873d 8c1e 8f3d ab17 953d
000000d0: 70a9 043e 174b debd 783f 203e b661 113d
000000e0: e74b b63d 2dca f53d ead2 453e 4bc0 d5bd
000000f0: 348f 62bd 9f8a d73d 16f2 963d 8d61 55bd
00000100: bb4e 9dbd a15a a93d d8dc cf3d 7b57 eebd
00000110: 347e 88bd d168 823d 88a0 55bc 78dd 32bd
00000120: 1a0b 893d 9bc4 823d feea 00be f72d b0bd
00000130: 00ce a73d 1040 433d 6bed 843d 7af8 883d
00000140: d21e 6a3e 4cf3 503c 8951 60bd 2627 83bd
00000150: 8bce d6bd 5883 953d 4830 3b3e c8a7 68bd
00000160: 31ea f43d ca66 af3d 5899 d53d 9832 f33d
00000170: 740d f9bd fde0 c63b 759e 05be 4e14 21bd
00000180: f3ee 243e 0cd3 2bbe 77d1 b63d 3ed9 dfbd
00000190: b7a4 40be a166 4a3d 568a 233d 997e a23b
000001a0: 0efd 133e 161a 363d 1f2b 443e dfe8 313b
000001b0: a428 113e 36e7 0cbe 59cb 083e 21ee 29bd
000001c0: db52 39bd b878 e4bd 0453 bbbd fd10 2cbe
000001d0: 3568 06be 106e 00bd c0b7 35bd 1048 4cbd
000001e0: 5ea5 bf3d 22b5 45bc 848f fcbb 696c 03bc
000001f0: 812c 12bd e807 b8bd 4408 bdbd 0b74 be3d
0.04029395 0.04547384 -0.0030030254 -0.050461568 0.0116195055 0.19862029 -0.012497372 0.10672316
0.053714156 -0.12426787 -0.08818347 -0.014283001 0.030964803 0.05360372 0.05246624 0.054010343
-0.018050216 -0.08136719 0.057960216 -0.07823185 -0.07483492 -0.0860561 0.051024083 -0.07143222
0.16034338 -0.17342167 -0.06968517 0.21689765 0.16063385 -0.10824382 0.15870644 0.044612262
0.025701582 -0.15578188 -0.10806502 0.011423276 -0.11087671 0.0743106 -0.068427846 0.16910987
0.08431656 -0.07147844 -0.10899501 0.15493548 -0.13875665 -0.056025654 0.19168405 0.01923058
0.06067349 0.06625569 0.06988248 0.07279905 0.1295526 -0.10854166 0.15649211 0.035493575
0.08901196 0.120014526 0.19318739 -0.104370676 -0.05531235 0.10524487 0.07370393 -0.052094985
-0.07681032 0.08269239 0.101495445 -0.11637779 -0.06664696 0.063676484 -0.013038762 -0.04366824
0.066915706 0.06385156 -0.12589642 -0.08602517 0.08193588 0.047668517 0.064905964 0.06688018
0.2286332 0.012753319 -0.054765258 -0.06403951 -0.10488614 0.073004425 0.18280137 -0.056800634
0.11958731 0.08564527 0.104296386 0.11874884 -0.12160769 0.006069301 -0.13048728 -0.039326005
0.16106777 -0.16779727 0.08926671 -0.109301075 -0.18812834 0.04941428 0.03992685 0.0049589393
0.14452001 0.04445847 0.19157074 0.0027146859 0.1417566 -0.13760075 0.13358821 -0.041486863
-0.045245033 -0.11155838 -0.09146693 -0.16803356 -0.1312569 -0.031354964 -0.04436469 -0.04987341
0.09357713 -0.012067111 -0.007707538 -0.008021452 -0.035686973 -0.08985883 -0.09230092 0.09299477

layer4.weight f4 [128, 128]
00000000: bb94 94bd 545a bf3d 9e06 9f3d 2d66 5b3d
00000010: 487c 1b3c 0005 5ebd 70af 9cbd 44b3 a8bd
00000020: cfbb af3c e864 1f3d 48b7 4dbd 8058 b5ba
00000030: 3c1f 14bd e996 0d3b 467e 99bc 1eec 1cbd
00000040: 8b7a 4b3d cefc 003c e0eb 1a3b 6efd cc3c
00000050: f5f1 083c 471b 12bd 86ae 48bc 0a7b 8dbd
00000060: 22da 373d 653a 41bc 030d 633d e367 debc
00000070: c36c 623d c37a a03d fbfb 6dbd dfbb 293d
00000080: c9c4 2eba 0c9a 00bd 9b06 febc 4e31 24bd
00000090: 7329 05bd c1af ab3d b0cd 4dbd 7d58 583d
000000a0: 0d85 9ebc ddb6 a03c ffd4 88bd f189 88bd
000000b0: e905 bb3d 4931 28bd d6c3 0e3d 79a9 513d
000000c0: 686e 063d 1299 a03c fb2e 25ba 5ff9 963c
000000d0: b9a4 96bd 0c1a 9fbd b57d 413d e364 633d
000000e0: ae52 14bd aed2 36bd 284f cb3d 07da c5bc
000000f0: 19bb 25bd 2209 0ebc ee25 1fbd 2078 1dbb
00000100: de49 aabd 118e 50bd 553f 353b 8fee 303b
00000110: 1eea 013d c3b4 9b3d 83ba 6ebd 54cb ed3c
00000120: 44c7 90bd 3517 90bc 8f4f b2bb 572c 89bd
00000130: bde9 0e3d 6062 23bd 7270 abbd 314c bd3c
00000140: 6fd6 df3c 0c9b 2e3c 9fbf 0dbc 62cd 6a3d
00000150: aa51 de3c 6e1a 84bd 5ba4 a13d 0e50 8cbd
00000160: 1984 a03d 247c afbd 4a22 6c3d 89ad 1a3d
00000170: 595d 7cbd 8513 e73c 291b 653d e5e9 3cbd
00000180: 0e55 cf3d df28 063d 3df4 213c 2922 343d
00000190: a22e 973c adb2 c13d 2298 fcbb 2a6a 9dbd
000001a0: 7304 5bbd d93e 723c 82d8 893d 9db4 a1bd
000001b0: 9edc 963b a52e 123d be2e 9cbc f2b6 12bd
000001c0: 3389 393d 869c ee3c 4f5a 8e3d 2e09 65bd
000001d0: 5bcd f4bb fb64 2cbd b586 73bc a77c ae3c
000001e0: 3896 08bd 929e 403d 34b6 7d3d 41db ccbd
000001f0: 669a 7abd 1b2f a6bd bab7 7cbd d9b9 203d
00000200: 6986 f9bd e543 983d cc02 bcbd 92d7 07bd
00000210: c7ed 513e a7b2 5a3e b2de 6abc a6d4 773e
00000220: 114f 683d ffc8 b13d 72c8 23be 8f2b 60bd
00000230: 23e7 f93d ef22 4d3c 11a8 b93d 6ba5 3dbe
00000240: 25ad 1dbe b590 e53b 51a7 17be 5869 1b3d
00000250: a261 96bc 4cee 82bc 0545 a73d b939 5d3d
00000260: 0f21 10be 9410 31be 629a 8c3c 05b2 3cbe
00000270: 225d 373e e347 2b3e a293 fa3c 3c53 e4bd
00000280: 7dca bcbd b24e e2bc 26b4 23be bba6 1c3e
00000290: d6b9 bebd 5d86 85bb 2bdc 6d3d 5e4f ebbd
000002a0: e9d0 d93d c935 e3bd 9617 1b3e f1d0 023d
000002b0: 2478 8e3e 0f3b ddbd e656 2b3e 4f1e cc3d
000002c0: f8c2 1f3e ea12 6a3d 9b34 4ebe 7f9f cf3d
000002d0: b8c8 d8bd 6f10 68bd 5a68 123d d078 fe3d
000002e0: 1665 63be ac72 cabd 136b 0c3e 7faa b5bd
000002f0: abb5 49bc 635e d93c a80d 283e 1a65 e4bc
00000300: 0fbd d0bd 0ffa a13d 7aac 2dbe a009 abbd
00000310: b8fd 113e b6e0 013c 9fc6 6d3c 469a a8bd
00000320: 1c24 023e 66cc 81bd e468 653e 3dae 41bd
00000330: cd02 20be 548d 1fbd bb3b f13d e064 a2bd
00000340: 5094 90bd b7f4 1a3e 2e31 b4bc 74d4 d23d
00000350: 2f13 533e ff2e b3bd 2334 7b3e 5933 d2bd
00000360: 2e4d fe3d a018 f9ba bb75 9d3d 6efd 08bd
00000370: 9fda cc3d 86a6 b13d 29f9 88bd f73f 033d
00000380: b9c8 ba3d 2df8 47be 195c 733d 0411 f7bc
00000390: 5f09 65bc 4083 82bd 2b29 683d f71c 48bd
000003a0: 9071 d7ba 5011 90bb fb3d b83d 303b 1ebd
000003b0: 7920 63be 068a 1abe 2efc 04be 65b3 22be
000003c0: a2d6 b0bd 11e8 e83c 5e06 593c b3ea 61bc
000003d0: 9785 79be 2d51 51bc 1d8c b53d 54ae e2bb
000003e0: fc9c 283d 4548 a2bd 0877 ba3b f054 803e
000003f0: c3d3 5dbd 5323 a03d 1681 0d3d bf79 113d
-0.072549306 0.093434006 0.07764934 0.05356424 0.00949008 -0.054203987 -0.076506495 -0.08237317
0.021451859 0.03891459 -0.05022362 -0.0013835579 -0.0361626 0.0021604842 -0.01873697 -0.038311116
0.049677413 0.007872773 0.0023639128 0.025023188 0.008358468 -0.035670545 -0.012248641 -0.069082335
0.044885762 -0.0117937075 0.05543233 -0.027149146 0.055279505 0.07835915 -0.058101635 0.041438933
-0.00066668965 -0.03139691 -0.03100901 -0.040086083 -0.032510232 0.08383132 -0.050244987 0.052818764
-0.019350553 0.019618446 -0.06681251 -0.06666935 0.09131987 -0.041062627 0.034854732 0.051187012
0.032820135 0.01960424 -0.0006301251 0.018429456 -0.07355637 -0.0776864 0.047239024 0.055516135
-0.036211662 -0.044634514 0.09927207 -0.024151815 -0.040461633 -0.00866917 -0.038854532 -0.00240279
-0.0831487 -0.050916735 0.0027656157 0.002699766 0.031717412 0.07602837 -0.05828334 0.029027618
-0.07069257 -0.017589191 -0.005441613 -0.0669791 0.03489088 -0.03988874 -0.083710566 0.02310762
0.02732393 0.010657083 -0.008651643 0.057324775 0.02713855 -0.064503536 0.078926764 -0.06851207
0.07837696 -0.085686 0.057649888 0.037763152 -0.06161246 0.02820755 0.055934105 -0.046121497
0.10123645 0.03275382 0.009884891 0.04397789 0.018454853 0.09457908 -0.0077085653 -0.07686265
-0.05347104 0.014785492 0.06730749 -0.078957774 0.0046039363 0.035689015 -0.019065257 -0.035819
0.04529686 0.02912737 0.06950819 -0.055916958 -0.0074707693 -0.04208849 -0.01486366 0.021299673
-0.033346385 0.047026224 0.06194134 -0.10002757 -0.061182402 -0.081144534 -0.061698653 0.039239738
-0.1218384 0.07434825 -0.09180221 -0.03316457 0.20500861 0.21357213 -0.014335321 0.24202213
0.05671603 0.08680915 -0.15994433 -0.05472904 0.12202289 0.012520536 0.09065259 -0.18520133
-0.1539808 0.007005776 -0.1480992 0.03794226 -0.018357102 -0.01598277 0.08167461 0.054010127
-0.14075111 -0.1729148 0.01716346 -0.18427284 0.17906621 0.16726641 0.030587975 -0.11148688
-0.09218309 -0.027625415 -0.1598669 0.15297978 -0.09312789 -0.0040748552 0.058071297 -0.114897475
0.106355496 -0.11094243 0.15145716 0.031937543 0.27826035 -0.1080228 0.16732368 0.099667184
0.15601718 0.057146944 -0.20137255 0.10137843 -0.10585159 -0.056656297 0.03574405 0.12425387
-0.2220653 -0.09885153 0.1371272 -0.0887041 -0.012311379 0.026534265 0.1641146 -0.02788024
-0.1019231 0.07909023 -0.16960326 -0.08351445 0.14256942 0.00792711 0.014512687 -0.0823255
0.12709087 -0.06337814 0.22403294 -0.047285307 -0.15626068 -0.03895314 0.11778971 -0.07929397
-0.07059538 0.15132414 -0.021996107 0.102944285 0.20612787 -0.08749198 0.24531607 -0.102637
0.124170646 -0.0019004531 0.07688471 -0.033444814 0.10002636 0.0867434 -0.066881485 0.032043424
0.09120316 -0.19528265 0.059414003 -0.03015948 -0.013979285 -0.0637269 0.056679886 -0.048855748
-0.0016437043 -0.004396595 0.08996197 -0.038630664 -0.22180356 -0.15091714 -0.12986824 -0.15888746
-0.08634688 0.02843097 0.013246147 -0.013788867 -0.24367367 -0.0127757015 0.08864615 -0.006917754
0.041165337 -0.079239406 0.005690459 0.25064802 -0.05415703 0.078192376 0.034546934 0.035516497

layer4.bias f4 [128]
00000000: 4660 a7bb a80c 723e c35a 77bd 0579 443d
00000010: 904f f63d 3591 9fbb 2ec9 893a 9892 47be
00000020: 558e 03bc 280a 10bd 4f8b 0dbd 40fd 5a3e
00000030: 3cac c03d 0d6e c73d d983 433e bb40 6f3d
00000040: 6fc2 9f3d a213 95bd a305 ed3d f71b 133d
00000050: 5cfd 6abd 2411 dd3c 2b43 e23d eb50 94bd
00000060: 3b86 bfbd 345e 4ebe 3c40 913b 080b fdbd
00000070: d708 833d ce08 6fbd 7746 9cbd 1a44 39bd
00000080: f4f0 dd3b 45a2 223e b9f7 ba3d e288 243d
00000090: 05b9 573e e59e 1abd 7ea3 83bd 8c7f 503e
000000a0: 7698 04bc 6264 013e 4cdb 42bd 0b70 a73d
000000b0: 7152 c0bd 1808 e03c 4681 96bd df76 7dbd
000000c0: f9c5 b63d 55e7 fbbd dbbf 183e 0132 123e
000000d0: 1545 f1bd 1056 5c3d 3993 0cbe a89e c33d
000000e0: 911b 8fbd f3ff 93bc c69a 823e 4848 133d
000000f0: 9845 6d3d 9286 f33a f9f2 fbbc 4b12 71bd
00000100: 8cd7 ef3d 5c5a d1bd 02d7 613d 3f8a eb3d
00000110: daba 103d 9675 a43d c4b4 b9bd c3a3 3a3e
00000120: cbdf 983d f89a fbbd fff5 73bd d9e8 d3bc
00000130: 73ad ef3d 72e8 b73d 8d1b eabd 57c4 e43b
00000140: a901 3cbd 6bab c3bd 9d21 063e 1900 bdbc
00000150: 0ff8 193d 2460 553c b4b4 9f3e e45d 79bd
00000160: 9fc4 4d3c 6faa 7cbd d7b1 4c3d ea06 58bd
00000170: 5496 a13d 6026 3bbd 5aca 0ebb d3cc a23c
00000180: 785a f23d f193 08bd 6ded 4ebd 693d 483d
00000190: 2e89 cd3c 9494 403d 413b f23d 992e b0bd
000001a0: f84e 043e 7313 0bbd c137 cebd 83cf c0bd
000001b0: 42d9 e33d 2c29 063e f31b 473d 0202 b5bd
000001c0: 5561 3fbd fb1d df3d 4160 5c3c 23aa 76bd
000001d0: aafb 8a3d e10f cc3c 17d4 c43c 4f87 d63d
000001e0: 2f02 cd3c 4d00 60bc 4880 ef3c 8197 dcbc
000001f0: e443 e03d 1548 6d3c 0c7d 583e c80b 803c
-0.0051079122 0.2363764 -0.06038929 0.047966976 0.12026894 -0.004869605 0.0010512227 -0.19489515
-0.00802954 -0.035165936 -0.034556683 0.2138567 0.09407851 0.097377874 0.19093265 0.05841134
0.07800757 -0.07279135 0.11573341 0.03591534 -0.05737053 0.026985712 0.110479675 -0.072419964
-0.09351774 -0.20153123 0.004432706 -0.1235562 0.063981704 -0.058358006 -0.076306276 -0.045230962
0.0067731086 0.15882213 0.091292806 0.040169604 0.21066673 -0.03774919 -0.06427668 0.20361155
-0.00809299 0.12635949 -0.04757242 0.081756674 -0.093907245 0.02734761 -0.07348876 -0.061880942
0.08924479 -0.122999825 0.14916937 0.14276887 -0.117807545 0.053793013 -0.13728036 0.09551746
-0.0698768 -0.018066382 0.25508708 0.035957605 0.057927698 0.0018579534 -0.030755507 -0.058855336
0.11711034 -0.10222313 0.055136688 0.11500978 0.035334446 0.0803024 -0.090676814 0.18226533
0.0746456 -0.12285417 -0.059560772 -0.025867866 0.11703005 0.08979882 -0.11431036 0.0069814133
-0.04590002 -0.0955418 0.1309876 -0.023071336 0.037590083 0.01302341 0.31192553 -0.060880557
0.012559085 -0.061685976 0.04997429 -0.05274097 0.07890001 -0.045690894 -0.0021788091 0.019873058
0.11833662 -0.033344213 -0.050519396 0.04888669 0.025089826 0.047016695 0.11827708 -0.08602638
0.12920749 -0.033954095 -0.10069228 -0.0941458 0.11125423 0.13101643 0.04861064 -0.088382736
-0.046723682 0.1089439 0.013450683 -0.06022085 0.06786282 0.024909915 0.024026914 0.10475027
0.025025455 -0.013671947 0.029235974 -0.026927711 0.10950449 0.014482518 0.21141452 0.015630618

input_norm.weight f4 [8]
00000000: 6147 a13f d2fc 593f 1d3c 743f b0cc 543f
00000010: 2643 4e3f b301 833f 440c 173f ca5e 3b3f
1.2599908 0.851514 0.95404226 0.8312483 0.8057121 1.0234894 0.5900309 0.7319151

input_norm.bias f4 [8]
00000000: 8592 873e dfe5 5d3e fc6d fc3e 7253 d43e
00000010: f696 b13d 94a1 913e e5a9 8b3e aad8 ca3d
0.26478973 0.2166972 0.4930266 0.41469914 0.08671372 0.28443587 0.27278057 0.09904607

input_norm.running_mean f4 [8]
00000000: 68b3 6240 ee72 303d dac8 91bf 9a89 6440
00000010: 1c1f 2d3d b472 ea3c e47d b5bd cd9f 763e
3.5422 0.043078355 -1.138942 3.5708985 0.042265996 0.028619148 -0.08861902 0.24084397

input_norm.running_var f4 [8]
00000000: 7033 6c40 10ad 8b3b 5ce1 0940 3330 ae40
00000010: f555 723e 4ecc 063b b0fc 193f 7c6d 3b3e
3.6906395 0.004262574 2.1543798 5.4433837 0.23665603 0.0020568552 0.60151196 0.18303484

norm.weight f4 [128]
00000000: c0ac 513f d958 833f f076 5e3f 3c46 523f
00000010: 3cb0 553f 87ad 593f fd5c 5b3f 999c 593f
00000020: 51cc 5d3f 90a6 523f 6028 673f ab24 663f
00000030: 6e8c 4e3f 8f8a 613f 55d0 653f e4d3 613f
00000040: b006 4d3f 7f6f 553f bbb6 6b3f 98ab 643f
00000050: 5509 593f 60e8 653f f525 6a3f 6739 613f
00000060: 9ae9 613f e97b 663f b377 523f 1c77 8d3f
00000070: 472f 4a3f 8729 4d3f 4ada 6b3f 94e3 613f
00000080: f1e5 4d3f 5df5 5c3f 89ae 5e3f 30eb 623f
00000090: 9fae 673f c451 633f c85e 4b3f ffc7 713f
000000a0: c48d 6a3f 15cc 5b3f 66a2 783f 32a1 4f3f
000000b0: e1e8 5b3f 7bcd 693f 1179 853f 611d 5b3f
000000c0: bca3 6a3f 51a8 633f be23 653f 2126 5d3f
000000d0: cf03 5a3f 1002 623f 4454 513f 78da 5d3f
000000e0: c5f0 573f ffda 803f 8815 643f 924e 523f
000000f0: 148e 5d3f e986 503f d811 633f a422 613f
00000100: fcab 563f 4738 5d3f 9c25 5d3f aad7 5c3f
00000110: 1ae0 483f 883c 643f c643 643f 222e 5b3f
00000120: ae1b 5d3f 497a 533f 548d 5a3f 7698 5e3f
00000130: c54e 6e3f 3e35 633f 8e0d 593f 0b28 803f
00000140: 416e 5f3f 4920 5b3f aac7 593f 1e9d 573f
00000150: 73cc 5d3f c553 533f 457f 753f 051e 603f
00000160: 131f 5c3f 25e7 5d3f 0f5c 503f 55b7 5f3f
00000170: 5a2a 4a3f 24b5 4d3f e1eb 503f d84a 653f
00000180: 6cb0 683f 9a40 603f 63c4 653f 46d2 693f
00000190: aee5 5a3f fb24 5f3f f80a 503f f1cc 4b3f
000001a0: 0b35 573f 81b8 6a3f 89fd 563f f76b 633f
000001b0: 8345 833f 395c 593f 1eaf 5d3f 36e2 5a3f
000001c0: 5017 523f b470 613f 98a1 543f 91b6 583f
000001d0: f5a8 5a3f e90a 5c3f 396f 593f 4a19 5d3f
000001e0: 510d 4f3f 3f48 6b3f b86d 5e3f ffcf 523f
000001f0: 54e4 643f 5464 5f3f 1ed9 763f 772a 4f3f
0.8190422 1.0261489 0.86900234 0.8213842 0.8347204 0.85030407 0.85688764 0.85004574
0.8663989 0.82285404 0.9029598 0.898997 0.8068303 0.8810205 0.89771014 0.88213944
0.8008833 0.83373255 0.920757 0.8932433 0.84779865 0.898077 0.9146417 0.87978214
0.8824707 0.9003282 0.82213897 1.1051974 0.7897839 0.8014149 0.9212996 0.8823788
0.8042899 0.86311895 0.8698507 0.8864012 0.90500826 0.8879664 0.794415 0.94445795
0.9162257 0.8585828 0.971228 0.8110534 0.8590222 0.91329163 1.0427572 0.85591704
0.9165609 0.88928705 0.89507663 0.86386305 0.8516206 0.882844 0.81769204 0.8666148
0.8435176 1.0066832 0.89095354 0.8215114 0.8654492 0.81455857 0.886991 0.8794348
0.8385618 0.86414 0.8638551 0.8626658 0.7846695 0.89154863 0.89165914 0.8561727
0.8637036 0.8260847 0.853719 0.86951387 0.9308894 0.88753116 0.8478631 1.001222
0.8727761 0.8559614 0.8507029 0.84224117 0.8664009 0.825497 0.9589732 0.87545806
0.85984915 0.86680824 0.8139047 0.8738912 0.78970873 0.80354524 0.8160992 0.8956733
0.908942 0.87598574 0.8975279 0.91336477 0.85506713 0.871658 0.81266737 0.7960959
0.8406531 0.9168778 0.83980614 0.88836616 1.0255588 0.84906346 0.8659533 0.8550142
0.8206682 0.88062596 0.8305907 0.84653574 0.8541406 0.8595415 0.8493534 0.86366713
0.80879694 0.91907114 0.8688617 0.82348627 0.894109 0.87262464 0.96425045 0.8092417

norm.bias f4 [128]
00000000: a96d d13d 8071 b53d 500e b53d b061 e6bd
00000010: 87dc 083e ff2e d5bd 478c 0cbe 82ea ddbd
00000020: a5c5 623e e53a 033e 67cc 4f3e 3472 113e
00000030: 7ae3 0d3e 3abc 6d3e 1536 9c3e b8e6 c6bd
00000040: 41a3 3d3e 3d1f e53d 35de 2a3e 0393 983b
00000050: 5213 323d 53dc 0fbd 3c0c da3d 8f55 6bbd
00000060: 1192 703d f77f e93a 8357 093e 7ea0 48be
00000070: 102c b7be 0af4 0cbe 3280 17bc 87c5 2f3e
00000080: 68a0 74bc a2e9 1dbe ad9c 4bbd 5f24 7ebe
00000090: 2566 73bd 2976 4abc 16f9 853d 2cc0 3a3e
000000a0: 557c 0e3d 37e2 4e3e a8a3 cc3d 4677 8b3e
000000b0: 7b2c 13bd cc29 bb3a 8077 173e 5584 8fbe
000000c0: 746b 053e e0a7 69be 27e3 9b3d 0c4f 443e
000000d0: 32d3 563e 16cc 4fbe 8c71 2cbd 3d06 8abd
000000e0: 7223 c33d 2e3c 193d 79d9 2d3e 6f59 c43e
000000f0: ff67 0bbe 53b6 063e 639d 30be ce64 b03e
00000100: e0db 013d 7809 79be 5341 88bd a3a2 973d
00000110: ca37 673e 986b 37bd 74ab a33e 3200 d63d
00000120: 5572 0f3e 3fc4 5abe 7ebb e43d 5f93 653e
00000130: d84d a6bd 6d45 96be 0e91 9ebd a7c4 babd
00000140: 9998 af3c f9a3 123e a344 02be a665 b6bd
00000150: c7ae 113d 9815 05bd 937b b53e f8be 1d3d
00000160: cbd9 c5be 4851 e93c cbf4 023e 3c7f 483e
00000170: 81d2 24bc ec95 663e 7a67 9d3c 61d6 8a3d
00000180: 4ed3 8a3d c93a cebd e592 9abe 2974 0d3e
00000190: 9fee 733d e3a2 e1bc c4f0 80bc 6d09 1abe
000001a0: e67d 6c3d bf02 0bbe 569a 0f3e f0f2 d43c
000001b0: acdb bfbd f3c1 003e 79ba abbd 87d8 4d3e
000001c0: 7b25 80bd 8cc3 813d 2e79 a1bd f7f1 6ebc
000001d0: e18c 1abd 72b3 5cbe f4e6 023e c80c b2bd
000001e0: 61d8 e03d b9cc 7d3d ecb4 c1be 151b 6c3d
000001f0: d0ce c9bd 42ee 02be d184 113d 41ca 9dbc
0.10225994 0.08859539 0.088406205 -0.11249101 0.13365375 -0.104093544 -0.13725387 -0.108357444
0.22145708 0.12815435 0.20292817 0.14203721 0.13856307 0.23216334 0.3051001 -0.09711975
0.18519308 0.11187599 0.16686328 0.004656197 0.043475457 -0.035122227 0.10646865 -0.057454642
0.05873305 0.0017814626 0.1341229 -0.19592473 -0.35775805 -0.13764969 -0.009246873 0.17165194
-0.014930822 -0.15421155 -0.049709965 -0.24818562 -0.059423584 -0.012357273 0.0654165 0.1823737
0.03478654 0.20203482 0.099921525 0.27239436 -0.03593109 0.0014279424 0.1479168 -0.2803065
0.13029271 -0.22817945 0.07611685 0.19170779 0.20979002 -0.20292696 -0.042100474 -0.06739471
0.09528245 0.037410907 0.1697749 0.38349482 -0.1361389 0.13155489 -0.17247538 0.34451908
0.03170383 -0.24320018 -0.066530846 0.07404067 0.22579876 -0.044780344 0.31966746 0.10449256
0.14008458 -0.21363924 0.11168574 0.22419499 -0.08120316 -0.29349843 -0.07742511 -0.0911954
0.021435069 0.14320363 -0.12721495 -0.08906107 0.03556707 -0.032491297 0.35445842 0.0385122
-0.38642725 0.02848114 0.12788694 0.19579786 -0.010059954 0.22518128 0.01921438 0.06779171
0.067785844 -0.10069806 -0.30190197 0.13813843 0.05955374 -0.02754349 -0.015739806 -0.15042658
0.057737254 -0.13575266 0.14023718 0.025994748 -0.09368071 0.12573986 -0.08385176 0.2010213
-0.06257149 0.06336126 -0.07884441 -0.014584056 -0.03773201 -0.21552828 0.12783414 -0.08693844
0.10978771 0.061962817 -0.37833345 0.057643015 -0.098538995 -0.127862 0.035527054 -0.019261481

norm.running_mean f4 [128]
00000000: c135 d23e b801 f63e a2ae ae3e 7958 e93e
00000010: 42c7 433e 35d3 f33e 45c6 8b3d 010f 843e
00000020: 86f2 cf3e 0421 a13e 769b 153e 5aa5 983e
00000030: 3d35 cb3e 2a61 073f e3a1 ad3e 0ba7 a63e
00000040: 826e a33e 7a27 aa3e e93f 823e ab1b c23e
00000050: 6f27 f53e 313e fb3e 5b7f 033f c8aa 1f3e
00000060: 29e7 013f 89eb e83c 23b1 c93e 036e 433b
00000070: daa3 623f 9200 713e 2982 a53e 956e e03e
00000080: c9f4 dc3e 6647 883e 4014 203e 0dab 173f
00000090: f859 0a3f b646 073e 2255 ae3d d5e5 983e
000000a0: b667 2d3d ccc7 0d3f a7fb dc3c baf8 8d3e
000000b0: 7fde 243d 1e94 f63d 7c83 d23d c55c 303f
000000c0: 549d 283e 9eac ae3e 8b70 9b3e 448b 053f
000000d0: 8461 9c3e 6c1c d73e b012 7d3e 1df3 4d3e
000000e0: 27bb e73e a8da b03b 22b9 df3e 3a91 5e3f
000000f0: 4aab 2c3f 13d1 ce3e d487 8d3d ca07 093d
00000100: d6ca 463e 7fac a23e fa34 bb3e 5d0f d43e
00000110: aa3c 433e 7ccf fb3e fce8 273e 5bb7 dd3e
00000120: 55a0 b23e 9ad3 b63e d7c8 b43e f0f3 023f
00000130: a05e 8d3e 0691 243f 233c 793e 6279 933c
00000140: 954b c83e 2987 883e 8571 1d3f 62a4 cc3e
00000150: 63b1 1e3f 9d09 943e 5ab7 b43e 65e3 fd3e
00000160: 527d d33e bc1a 0d3e 89f8 0e3f 3cf8 453f
00000170: 69c8 4f3e 8925 e13e 8539 7a3e dd28 223e
00000180: e64e 2a3f 0f71 453e 18f6 853e 0cd9 f33e
00000190: 08e4 063f d4a5 d03d 4c33 ec3e ab40 2e3e
000001a0: ce7d 7f3e 519c 553e c6af 413e 9074 793e
000001b0: 54e8 7b3d 0471 da3e 0aff a33e a6b6 cc3e
000001c0: 701b a93e 8bae 303f 290e 6b3e c624 db3e
000001d0: 3e3e 053f 46b8 353f 3829 123f 5cb7 0b3f
000001e0: bd31 ab3e c382 7b3e 73a5 053e 7e6a 043e
000001f0: 88e1 db3e 23bd 6d3d 20bf fa3e bf67 133e
0.41056636 0.48048186 0.3411761 0.45575312 0.1911898 0.47622076 0.06824926 0.25792697
0.40614718 0.314705 0.14610085 0.29813653 0.39689055 0.52882636 0.33912572 0.3254932
0.31920248 0.33233243 0.25439385 0.37911734 0.47881648 0.49070886 0.51366204 0.15592492
0.5074335 0.028432624 0.39392957 0.002982021 0.8853127 0.23535374 0.32325867 0.43834367
0.43155506 0.26616973 0.15632725 0.5924538 0.5404353 0.13210568 0.085123315 0.29862848
0.042335235 0.5538299 0.026975466 0.27728826 0.04025125 0.1203997 0.10278985 0.68891555
0.16466266 0.3411607 0.303593 0.5216563 0.3054315 0.42013872 0.2471416 0.20112272
0.45259973 0.0053971596 0.43695933 0.8694035 0.67448866 0.40393886 0.06910673 0.033454694
0.19413313 0.3177223 0.36563855 0.4141797 0.1906611 0.49181736 0.1639747 0.43303952
0.3488795 0.35708314 0.3530948 0.5115347 0.27611256 0.6428379 0.24339347 0.018002216
0.39120165 0.2666562 0.6150134 0.39969164 0.6198942 0.28913584 0.35296136 0.4958755
0.4130655 0.1377973 0.55847985 0.773319 0.20291294 0.4397395 0.24436004 0.158359
0.6652664 0.1928141 0.26164317 0.4762653 0.526917 0.10187879 0.46132886 0.17016856
0.24950334 0.20860411 0.18914708 0.24360871 0.061500862 0.4266435 0.32030517 0.399831
0.33028746 0.6901633 0.2295462 0.42801493 0.520481 0.70984304 0.57094145 0.5457666
0.33436385 0.245616 0.13051395 0.12931249 0.42945504 0.058041703 0.48973942 0.14395045
