final_models/v_start_noise/models/best_model_episode_6871.pt (torch, 226638 bytes, 22 tensors)

layer1.weight f4 [128, 8]
0	0x3ea06613	0.31327876
1	0xbe6dcae5	-0.2322193
2	0xbdfd8013	-0.12377944
3	0x3e6e3f41	0.23266317
4	0xbe952da2	-0.29136378
5	0x3e2be33c	0.16785902
6	0xbd94d728	-0.072676
7	0x3e67248f	0.2257254
8	0xbc24f660	-0.010068506
9	0xbe703946	-0.23459348
10	0x3e8929ee	0.26789802
11	0xbd4ee67e	-0.050512783
12	0xbd09bbd0	-0.033626378
13	0xbdd88fb5	-0.10574285
14	0xbc8e324e	-0.017357972
15	0xbbbc8911	-0.0057536443
16	0xbe176c9b	-0.14787523
17	0xbd5f2636	-0.0544798
18	0x3ec6894e	0.3877663
19	0x3e1f04fa	0.15529242
20	0xbe13750a	-0.14400116
21	0xbe53a553	-0.20668535
22	0xbde2779b	-0.11057969
23	0xbe1a940f	-0.15095542
24	0xbda5a364	-0.08087805
25	0x3be64ed3	0.0070284395
26	0x3e485bd9	0.19566287
27	0x3e870f9a	0.2637909
28	0xbedcde50	-0.4313836
29	0x3e0fc4a4	0.14039856
30	0x3d9815a1	0.074260004
31	0x3eb34f0e	0.3502125
32	0x3d932966	0.071856305
33	0xbe7556f2	-0.23958948
34	0xbe8fa88f	-0.28058288
35	0xbc9d23ed	-0.01918217
36	0x3e3f7f11	0.18700816
37	0xbd0d2a8f	-0.034464415
38	0x3e2fa4d0	0.17152715
39	0xbe3fa5d2	-0.18715599
40	0x3e56c610	0.20973992
41	0xbe07695c	-0.13223785
42	0x3e9085c1	0.28227046
43	0xbe0d1374	-0.13776952
44	0xbe05639c	-0.13026279
45	0x3e83c388	0.25735116
46	0xbdf8c6cc	-0.121472925
47	0x3ce9747d	0.028497929
48	0xbb743b69	-0.0037266857
49	0x3ca67db0	0.020323604
50	0xbe5dc49e	-0.21657035
51	0xbe30e843	-0.17276101
52	0x3dc57828	0.096420586
53	0xbe26d30c	-0.16291445
54	0x3ea5b010	0.32360888
55	0x3dd4be15	0.10387818
56	0x3c95382a	0.018215258
57	0xbeb00074	-0.34375346
58	0x3e15928a	0.14606681
59	0x3d9c12bf	0.07620763
60	0xbe65b93a	-0.2243394
61	0x3e58ab1e	0.21159026
62	0x3e714d88	0.23564732
63	0x3eb91b94	0.36153853
64	0xbe508d56	-0.20366415
65	0xbe2be01f	-0.16784714
66	0xbd3d15bc	-0.046163306
67	0x3ccdaf75	0.025108078
68	0xbe921a17	-0.2853553
69	0xbdcbf561	-0.09958912
70	0x3dfbcf6a	0.122954205
71	0x3cf42f0e	0.029807594
72	0x3e31dd01	0.17369463
73	0xbe1639dc	-0.14670509
74	0x3e27b697	0.16378246
75	0x3c0903a6	0.008362686
76	0x3e4cd42e	0.20002815
77	0x3e348b14	0.17631179
78	0xbe6cc24f	-0.23120998
79	0x3e000908	0.12503445
80	0xbe768d08	-0.24077237
81	0xbea58c80	-0.32333755
82	0x3ceae0d5	0.028671661
83	0xbe26fd6b	-0.16307609
84	0x3e3478d7	0.17624222
85	0xbe49689b	-0.1966881
86	0xbe9b4b35	-0.30330816
87	0x3e41040f	0.18849204
88	0xbd1d8f5a	-0.03846679
89	0x3e09e1e4	0.13465077
90	0x3db60e60	0.088894606
91	0xbdf8f6ed	-0.12156472
92	0xbcd25d97	-0.025679393
93	0x3e0ba8a8	0.13638556
94	0xbdf71c3c	-0.12065932
95	0xbe1137c2	-0.14181426
96	0x3e7e8973	0.2485712
97	0x3e3f60cd	0.1868927
98	0x3d1b9dcc	0.037992284
99	0xbdd6b5fb	-0.10483929
100	0x3eaa8bf4	0.333099
101	0xbdd922fe	-0.10602377
102	0x3e321d23	0.17393927
103	0x3e457497	0.19282757
104	0xbdff41ba	-0.12463708
105	0xbea0d3a0	-0.31411457
106	0x3ebff247	0.3748953
107	0x3d84f897	0.06492727
108	0x3ec758b0	0.3893485
109	0x3cdcee09	0.026968973
110	0x3e452b76	0.1925486
111	0x3e333e0a	0.17504135
112	0x3e9c6844	0.30548298
113	0xbdfbe4d1	-0.12299503
114	0xbc9f8afc	-0.019475453
115	0x3d9ba6f1	0.07600201
116	0x3d280511	0.041020457
117	0xbdb2ddec	-0.087337345
118	0xbcec4cbb	-0.028845182
119	0xbe974f39	-0.2955263
120	0xbe79a130	-0.24377894
121	0x3aeb0f94	0.001793372
122	0x3e9b539a	0.3033722
123	0xbe86004a	-0.26172096
124	0x3e1c6cdd	0.15275903
125	0xbe6a64a5	-0.22889955
126	0xbed03e0c	-0.40672338
127	0xbcbba767	-0.022906972
128	0x3e3a5d2c	0.18199605
129	0x3ed8d52f	0.42350146
130	0xbe7ceb16	-0.24699053
131	0x3e8cba5f	0.2748594
132	0x3ea17041	0.31530955
133	0x3e59ec97	0.21281658
134	0x3e8affc3	0.27148256
135	0x3e95c4be	0.29251665
136	0x3ee83fd8	0.4536121
137	0x3e100c59	0.1406721
138	0xbe33b1c7	-0.17548285
139	0xbeb5af82	-0.35485464
140	0xbe800273	-0.2500187
141	0x3cd547f7	0.026035292
142	0xbe8d612e	-0.27613205
143	0x3e1cf309	0.15327086
144	0x3c8b58ee	0.017010178
145	0xbd85725b	-0.06515952
146	0x3de6945d	0.11258767
147	0x3da255dc	0.079265326
148	0x3e1c509e	0.15265128
149	0x3dfcfabd	0.12352512
150	0xbd0751e8	-0.033037096
151	0x3ebe4546	0.37162226
152	0xbdad3cd9	-0.084588714
153	0xbd3f7eb0	-0.046751678
154	0xbeab5d64	-0.3346969
155	0xbe61650d	-0.22011204
156	0xbe620f0e	-0.22076055
157	0xbe050029	-0.12988342
158	0x3e607f2e	0.21923515
159	0xbdfdbcf6	-0.12389557
160	0xbef3895b	-0.4756573
161	0x3db2e595	0.087351955
162	0x3e029721	0.12752964
163	0x3ef9b84c	0.4877342
164	0xbe4e2213	-0.20130186
165	0x3e34cacd	0.17655487
166	0xbe06ccd4	-0.13164073
167	0xbbf0cb42	-0.007348449
168	0xbe801939	-0.25019243
169	0xbe636d45	-0.22209652
170	0xbe6fa809	-0.23403944
171	0x3dde2c1c	0.10848257
172	0xbd187f05	-0.03723051
173	0xbc289788	-0.010290034
174	0x3ed3e61e	0.41386503
175	0x3eaac48e	0.33353084
176	0x3e8f2c5e	0.27963537
177	0x3db49a2b	0.08818468
178	0xbee4b355	-0.4466807
179	0x3e172321	0.14759494
180	0xbcbe0839	-0.02319728
181	0x3d71c079	0.059021447
182	0xbed14fa8	-0.40881085
183	0xbe27ab00	-0.16373825
184	0xbea82e3c	-0.32847774
185	0x3e37057f	0.1787319
186	0xbeb4f54d	-0.353434
187	0xbea30768	-0.31841588
188	0xbc052992	-0.008127587
189	0xbe80a88d	-0.25128594
190	0x3d47bdd6	0.048765026
191	0xbdae1cc1	-0.08501578
192	0xbea3beac	-0.3198141
193	0x3cf138e9	0.029446082
194	0x3e94c659	0.29057577
195	0xbe62f510	-0.22163796
196	0x3e3c7541	0.18404104
197	0x3db1a09d	0.08673213
198	0x3ec54ed8	0.38536716
199	0xbe9a14d2	-0.3009401
200	0xbbf1f2b6	-0.0073836697
201	0xbea4215d	-0.32056704
202	0x3e80bcf0	0.25144148
203	0xbc49c444	-0.01231486
204	0x3d179829	0.037010346
205	0xbe8f9b33	-0.28048095
206	0xbd05fb28	-0.032710224
207	0x3d22865e	0.039678924
208	0x3baf5810	0.005351074
209	0x3e1c418d	0.1525938
210	0x3d6fb226	0.058519505
211	0x3c82c74c	0.015964173
212	0xbe83cf2b	-0.25743994
213	0x3e9ddc1c	0.30831993
214	0x3e9c944d	0.30581895
215	0x3ed7cdb4	0.42149127
216	0x3c941a5d	0.018078977
217	0xbe82fcef	-0.25583598
218	0xbe13d7b6	-0.14437756
219	0x3dc1f5fc	0.09470746
220	0xbe050c38	-0.12992942
221	0xbcad0d7d	-0.021124596
222	0xbdf2b6ec	-0.11851296
223	0xbe88af0b	-0.26696047
224	0x3ec1aa7e	0.37825388
225	0xbe521ac7	-0.20518027
226	0x3b8d73be	0.004316776
227	0x3e881d03	0.26584634
228	0x3efb3657	0.49064896
229	0x3e9123d2	0.2834764
230	0xbcdf2473	-0.02723906
231	0xbecbb90f	-0.39789626
232	0x3e3f587b	0.18686096
233	0x3d50a794	0.050941065
234	0xbdb81c2a	-0.08989747
235	0x3d374aad	0.04474895
236	0xbecd00fe	-0.4003982
237	0x3e52023d	0.20508666
238	0x3e8245c2	0.25443846
239	0xbea19076	-0.31555527
240	0xbede771f	-0.43450257
241	0xbe868243	-0.26271257
242	0x3dc92f2d	0.09823451
243	0x3dbfb598	0.09360808
244	0xbe5ca07c	-0.21545595
245	0x3e8cea64	0.27522576
246	0xbeae46d1	-0.34038404
247	0xbe46d0e8	-0.19415629
248	0xbe2ac063	-0.16674952
249	0x3ea43353	0.32070407
250	0x3ea1564c	0.31511152
251	0xbcb7a2bd	-0.022416467
252	0x3d868d1a	0.06569882
253	0x3df0a2a3	0.117497705
254	0x3dab2887	0.08357339
255	0xbd4b705b	-0.049667697

layer1.bias f4 [128]
0	0xbc8882c5	-0.016663918
1	0xbd4debdb	-0.050273757
2	0x3dee7425	0.116432466
3	0xbde7fa4b	-0.113270365
4	0xbebcd7b3	-0.36883315
5	0x3e182e50	0.14861417
6	0xbe2170a7	-0.1576563
7	0xbdcbf7d2	-0.09959377
8	0x3eb2f45c	0.34952056
9	0x3e1e422d	0.15454932
10	0x3e0fe9f2	0.14054087
11	0x3c48411c	0.012222555
12	0xbe89b9ae	-0.26899475
13	0x3e3f60e8	0.1868931
14	0xbe401401	-0.18757631
15	0x3d084799	0.033271406
16	0xbe9f142a	-0.3107007
17	0x3e36653b	0.17812054
18	0xbe47cecc	-0.1951248
19	0x3ea1fadd	0.31636706
20	0x3e1f4166	0.15552291
21	0x3eb829af	0.35969302
22	0x3d534098	0.051575273
23	0xbc2d6382	-0.010582807
24	0x3dfde83c	0.12397811
25	0xbe410217	-0.18848453
26	0xbe2f9b4b	-0.17149083
27	0xbecd808f	-0.40137145
28	0x3ecc1c3d	0.39865294
29	0x3be9885f	0.0071268524
30	0x3e073bec	0.13206452
31	0x3d0849ff	0.033273693
32	0x3e21b532	0.15791777
33	0xbe87d6ce	-0.2653107
34	0xbe2e8f29	-0.17046799
35	0x3e8edd56	0.2790324
36	0x3e378005	0.1791993
37	0xbb6add29	-0.0035837388
38	0xbe84980d	-0.25897256
39	0xbd719de1	-0.058988456
40	0xbe6a12cc	-0.22858733
41	0x3cb293ef	0.021799056
42	0xbe8434cf	-0.2582154
43	0xbe89107f	-0.26770398
44	0xbeccd177	-0.4000356
45	0xba358d38	-0.0006925645
46	0x3e1055e0	0.14095259
47	0x3ec065cd	0.37577668
48	0xbea5c2bb	-0.3237513
49	0xbdcdc8cd	-0.10048065
50	0xbe616081	-0.2200947
51	0xbe86530d	-0.26235238
52	0xbcb08943	-0.021549826
53	0x3ebf10f0	0.3731761
54	0x3c7c3dcd	0.015395594
55	0xbda00a56	-0.078144714
56	0x3e94964c	0.29020917
57	0xbea65cb5	-0.32492605
58	0xbc936c74	-0.01799605
59	0x3e8acff1	0.27111772
60	0x3e89a20a	0.26881438
61	0x3da1c968	0.07899743
62	0xbe4669b9	-0.19376267
63	0xbedf4b6b	-0.43612227
64	0xbe217ffd	-0.1577148
65	0x3e5c2215	0.21497376
66	0x3e84cdb2	0.25938183
67	0x3d6699ff	0.056299206
68	0xbe9e1dcf	-0.30882117
69	0xbd840d9d	-0.06447909
70	0x3dfd7b50	0.123770356
71	0x3ce8a71b	0.028399995
72	0xbe5de8af	-0.21670793
73	0x3d7c2970	0.061562955
74	0x3d1870b9	0.037216876
75	0x3daf3188	0.08554369
76	0x3b592753	0.0033135011
77	0x3e424305	0.18970878
78	0xbec0e1bd	-0.37672225
79	0xbe044879	-0.12918271
80	0xba786a26	-0.00094762666
81	0x3e612d02	0.21989825
82	0x3e300fd8	0.17193544
83	0x3e1bc22c	0.1521079
84	0x3ec28c8b	0.3799785
85	0x3e01a346	0.1265994
86	0xbeceb2ad	-0.40370694
87	0x3e1b6950	0.15176892
88	0xbe63162e	-0.2217643
89	0xbc20b317	-0.009808323
90	0x3d7a05ba	0.061040618
91	0x3eb35961	0.35029128
92	0xbdfaf5b3	-0.12253895
93	0xbe593158	-0.2121023
94	0xbdd3847a	-0.10328002
95	0xbd89b7e8	-0.067245305
96	0x3eab3e75	0.33446088
97	0x3e5332e5	0.20624883
98	0x3e4af4fd	0.19820018
99	0x3dbca1b0	0.09210527
100	0xbdbab294	-0.09116092
101	0xbd8462ce	-0.06464158
102	0xbe85b3f2	-0.2611385
103	0x3df6844e	0.12036954
104	0xbe75f2ff	-0.24018477
105	0x3d29c88a	0.041451015
106	0x3e3dccd9	0.18535174
107	0x3e7d0463	0.24708705
108	0xbeb8af42	-0.3607121
109	0x3ec8f8ef	0.3925242
110	0xbe198ce7	-0.14995156
111	0xbd805e9b	-0.062680446
112	0x3e9e5040	0.309206
113	0x3e92da9d	0.28682414
114	0xbe97a8ce	-0.29620975
115	0x3e688e48	0.22710526
116	0xbeb423ff	-0.35183713
117	0x3ea7fae7	0.3280861
118	0x3ed510ff	0.4161453
119	0x3bcbb896	0.0062170727
120	0x3d0f3457	0.034962025
121	0x3b644d6d	0.0034836188
122	0xbea0ad1e	-0.31382078
123	0xbe6d6935	-0.23184665
124	0xbd49c2f6	-0.049258195
125	0xbeccdd9a	-0.4001282
126	0xbea187ba	-0.31548864
127	0xbda76fbd	-0.08175609

layer2.weight f4 [128, 128]
0	0xbd27cdb8	-0.040967673
1	0xbd2a66da	-0.041601993
2	0xbcc2a0da	-0.02375834
3	0x3bf7ef01	0.0075663333
4	0x3dc6217b	0.09674355
5	0xbb805fc3	-0.0039176657
6	0xbd191064	-0.037369147
7	0x3c24a54b	0.010049175
8	0xbde09f9a	-0.109679416
9	0x3d9d31ef	0.0767554
10	0x3db29e2c	0.08721575
11	0xbd33f7bb	-0.043937426
12	0xbd3f9172	-0.046769567
13	0x3e0a4137	0.1350144
14	0xbdde31c8	-0.10849339
15	0x3d89ef56	0.06735103
16	0xbd58e16d	-0.052949358
17	0xbdfd3ca2	-0.123650804
18	0x3d0e49fa	0.03473852
19	0xbdc67638	-0.09690517
20	0x3d9f2191	0.07770074
21	0xbb0e1e06	-0.0021685376
22	0xbd75c174	-0.059998944
23	0xbd925a13	-0.071460865
24	0x3d72bf63	0.05926455
25	0x3de6374c	0.11241016
26	0xbaa47b0c	-0.0012548878
27	0xbd749f83	-0.059722435
28	0xbddea1a6	-0.10870676
29	0x3d8f27e0	0.069900274
30	0xbc96fb3c	-0.018430345
31	0x3d7cad8f	0.061688956
32	0x3d91c9e3	0.07118585
33	0x3da22d2f	0.07918774
34	0x3cf9dd12	0.030500922
35	0x3d25711c	0.040391073
36	0x3d86face	0.06590806
37	0xbbc4da4e	-0.0060074693
38	0x3d9ca797	0.07649153
39	0x3cbba35b	0.022905042
40	0xba9b3d24	-0.0011843783
41	0xbd23d61c	-0.039999112
42	0x3c0d6b6c	0.008631568
43	0x3d9c834c	0.076422304
44	0x3da600f9	0.08105654
45	0xbc19d0fd	-0.009388206
46	0xbd1b342a	-0.037891544
47	0x3d9a721e	0.075412974
48	0x3d6881a1	0.05676425
49	0x3e349225	0.17633875
50	0x3ce5d621	0.028056206
51	0xbc90cd80	-0.017676115
52	0xbcb13048	-0.021629468
53	0xbd6f5c61	-0.05843771
54	0x3d0207e7	0.031745818
55	0x3c8429bc	0.016133182
56	0xbd911ad8	-0.07085198
57	0xbd83f5a7	-0.06443339
58	0x3d2eb67d	0.042654503
59	0x3ce4e2e4	0.027940221
60	0xbdfef779	-0.124495454
61	0x3d3a9748	0.04555443
62	0x3d57eb8e	0.052714877
63	0x3d4d6cdd	0.05015265
64	0x3de2ba85	0.11070732
65	0xbd1c3f48	-0.038146287
66	0x3daa4222	0.08313395
67	0xbdaf0566	-0.085459515
68	0xbbef4ff1	-0.007303231
69	0xbd5d177e	-0.053977482
70	0xbc937f0a	-0.018004913
71	0x3dcbd88a	0.09953411
72	0x3dc3873e	0.0954728
73	0xbb8b481c	-0.0042505395
74	0xbd25c94f	-0.040475186
75	0xbcf2497c	-0.029576056
76	0xbb61f7a2	-0.0034479876
77	0xbca16a37	-0.019703967
78	0x3d7e39db	0.062066894
79	0x3d58a88f	0.052895125
80	0x3da634c4	0.08115533
81	0xbd2701c6	-0.040773176
82	0x3da154e8	0.07877523
83	0xbbab07cc	-0.0052194353
84	0xbc4d13c9	-0.012516924
85	0xbd11e39a	-0.03561745
86	0xbbce01e6	-0.0062868474
87	0xbd5313da	-0.051532604
88	0xbc4c7024	-0.012477908
89	0xbdac04b5	-0.08399335
90	0x3d686981	0.05674124
91	0xbd7550b6	-0.059891425
92	0xbca93d6e	-0.020659175
93	0xbd7f880e	-0.06238561
94	0x3c8fd206	0.017556202
95	0x3d95911c	0.07303068
96	0xbd8e8301	-0.06958581
97	0xbdb953ce	-0.090491876
98	0x3d973557	0.07383221
99	0x3d89152b	0.066934906
100	0x3d841508	0.06449324
101	0xbd6bf8c1	-0.057610277
102	0x3d8f57f8	0.069992006
103	0x3d7eec3c	0.06223701
104	0x3d19d6ad	0.037558246
105	0xbc1d78f0	-0.009611353
106	0x3db7491a	0.0894949
107	0x3d264885	0.040596504
108	0x3d191c43	0.037380468
109	0xbcaa97ab	-0.020824274
110	0xbd397deb	-0.0452861
111	0xbd6b1610	-0.057394087
112	0x3df2976e	0.11845289
113	0x3cdf3cd1	0.02725068
114	0x3d7baefc	0.061446175
115	0x3d811664	0.06303099
116	0xbda68ebd	-0.08132694
117	0x3bd77e84	0.006576361
118	0xbd24b319	-0.040209863
119	0x3c29ca14	0.010363121
120	0x3d27a820	0.04093182
121	0x3cc0247d	0.023454899
122	0xbcffa716	-0.031207602
123	0xbcc9b809	-0.024623888
124	0xbdebbcb7	-0.11510604
125	0xbd954dba	-0.07290216
126	0x3d889612	0.06669249
127	0xbd8554d1	-0.06510318
128	0xbc6695d0	-0.014073804
129	0xbb5c1efc	-0.0033587804
130	0x3c9f0d6b	0.019415578
131	0xbcedc4eb	-0.029024562
132	0x3d2a3f41	0.04156423
133	0xbc4a235e	-0.012337534
134	0x3d72b321	0.059252862
135	0xbbe44877	-0.0069666463
136	0x3c96404c	0.018341206
137	0xbb47929b	-0.0030452374
138	0x3dcc13c2	0.09964706
139	0x3c22cf97	0.009937189
140	0x3d43d9ef	0.04781526
141	0xbcb9ffbe	-0.022704955
142	0x3c3a5ff5	0.011375417
143	0x3dcd4906	0.10023694
144	0xbdceab46	-0.100912616
145	0xbc1501f3	-0.009094703
146	0x3d8dbefd	0.06921194
147	0xbd26c426	-0.040714405
148	0xbd31019c	-0.043214425
149	0xbad33643	-0.0016114194
150	0x3c911212	0.017708812
151	0x3d6341d6	0.055482708
152	0xbb40b48d	-0.0029404492
153	0x3d324473	0.04352231
154	0xbd88c34b	-0.06677874
155	0x3cf34271	0.029694768
156	0xbd5a9aeb	-0.053370398
157	0x3d59aca0	0.053143144
158	0xbd3c6cc1	-0.046002153
159	0xbdbb9cd6	-0.091607735
160	0xbac12b33	-0.0014737606
161	0x3d376096	0.044769846
162	0xbb1c7ab2	-0.0023876843
163	0x3cc99d52	0.024611149
164	0xbb386524	-0.0028136456
165	0x3d58e328	0.052951008
166	0xbc1ec2e7	-0.009690023
167	0xbdec1877	-0.11528104
168	0xbd831e84	-0.06402305
169	0x3cefd36a	0.029275615
170	0xbc658ee1	-0.014011116
171	0x3d97b75d	0.07408021
172	0xbd41887f	-0.047249313
173	0x3d935b40	0.07195139
174	0xbd3ad21e	-0.04561054
175	0xbd69c7a3	-0.057075154
176	0xbcb1e4ee	-0.021715607
177	0xbda3c41a	-0.07996388
178	0xbcc032eb	-0.02346178
179	0x3c8b759a	0.01702385
180	0xbe03934a	-0.12849155
181	0x3dbac5dc	0.0911977
182	0xbd8c5cf8	-0.0685367
183	0x3d418529	0.047246132
184	0x3d453726	0.048148297
185	0x3b0de27f	0.0021649895
186	0xbd7830ea	-0.060593523
187	0x3aa4f582	0.0012585374
188	0xbd444170	-0.04791397
189	0x3da0b6e3	0.07847383
190	0xbda6d6e8	-0.08146459
191	0xbd0d1183	-0.03444053
192	0xbd02b821	-0.03191388
193	0xbd57493c	-0.052560076
194	0xbd166092	-0.03671319
195	0x3c5ad44f	0.013356282
196	0xbcff6efd	-0.031180853
197	0x3b8836d9	0.004156929
198	0x3d948ebd	0.07253788
199	0xbc0cc2a6	-0.00859133
200	0xbd7accb0	-0.06123036
201	0xbd0473dd	-0.03233706
202	0x3dbe49d6	0.09291427
203	0xbbbf3161	-0.005834744
204	0xbdbc9db4	-0.09209767
205	0x3d69d6f2	0.057089753
206	0xbbaaf69e	-0.0052173873
207	0x3c9b6352	0.018968258
208	0xbba7b5ac	-0.0051180925
209	0x3df305e6	0.118663594
210	0xbd8a319f	-0.06747746
211	0x3d430b91	0.047618452
212	0x3e15f13b	0.14642803
213	0x3bd28ca6	0.006425458
214	0x3d396c2c	0.045269176
215	0x3d8a7ebe	0.067624554
216	0x3dc7aa46	0.09749274
217	0xbd094fbb	-0.033523303
218	0xbdc70692	-0.0971805
219	0xbd2371d7	-0.039903488
220	0xbdbd50f6	-0.09243958
221	0xbb4ade13	-0.003095512
222	0x3d96352c	0.073343605
223	0x3d94d75b	0.07267638
224	0x3d1a6a51	0.037699047
225	0x3c480b3a	0.012209708
226	0x3ccae2df	0.024766384
227	0x3d6eaf3f	0.058272596
228	0x3d586953	0.05283482
229	0x3b440da5	0.002991536
230	0xbcd97917	-0.026546998
231	0x3cd0f8b6	0.02550922
232	0xba166399	-0.0005736887
233	0xbd141480	-0.036152363
234	0xbcf51ba8	-0.029920414
235	0x3db373c7	0.08762317
236	0x3d84d0a4	0.064851075
237	0xbd0da845	-0.034584302
238	0xbd08b3b6	-0.03337451
239	0xbd90cf60	-0.07070804
240	0x3aa64dc0	0.0012687966
241	0x3d89c0cd	0.06726227
242	0xbdc35398	-0.095374286
243	0x3d917067	0.07101517
244	0xbda8c9f0	-0.082416415
245	0xbd9f00c3	-0.07763817
246	0xbb3ed142	-0.0029116427
247	0xbc4986be	-0.012300191
248	0xbca0cd92	-0.019629274
249	0xbd1a60cd	-0.037689973
250	0xbd5378b2	-0.051628776
251	0xbda9cf07	-0.082914405
252	0xbd83f2ae	-0.06442772
253	0xbd8d1f2c	-0.06890711
254	0x3d817bcc	0.063224405
255	0xbd937cdd	-0.0720155

layer2.bias f4 [128]
0	0xbd249c3f	-0.04018807
1	0xbd0cf7b9	-0.034415934
2	0xbc1e713f	-0.009670555
3	0x3b65b465	0.003505015
4	0xbddcd594	-0.10782924
5	0x3d7c0d0d	0.061535884
6	0xbd75fd4c	-0.060056016
7	0x3e1a609f	0.1507592
8	0xbc3c6e82	-0.0115009565
9	0x3b6bf66e	0.0036005038
10	0x3d63b1db	0.055589538
11	0x3daac395	0.083380856
12	0xbca622e9	-0.020280318
13	0xbe4836ad	-0.19552107
14	0x3c8a6e1b	0.016898206
15	0xbc4340be	-0.011917291
16	0xbd9ddd84	-0.077082664
17	0xbb0a24fc	-0.0021079173
18	0xbcbbdec8	-0.022933379
19	0x3dc2404c	0.0948492
20	0x3e107ee1	0.141109
21	0x3d435b52	0.04769451
22	0x3d27a10e	0.040925078
23	0x3c68ca73	0.014208424
24	0x3da976b2	0.082745925
25	0xbe015133	-0.12628631
26	0xbc1a759a	-0.009427452
27	0x3bd15323	0.0063880845
28	0x3d0b542a	0.034015812
29	0x3d104292	0.035219736
30	0x3e0d926c	0.13825387
31	0xbdd9be77	-0.106320314
32	0xbd70131e	-0.05861198
33	0x3d538388	0.05163911
34	0x3b8b9060	0.004259154
35	0x3d1ced99	0.03831253
36	0x3dfa6049	0.12225396
37	0x3cc98448	0.02459921
38	0xbd8d7d19	-0.06908626
39	0xbd08a050	-0.03335601
40	0xbe286462	-0.16444543
41	0x3d9bad66	0.076014325
42	0x3cf651a5	0.030068228
43	0xbdd855f7	-0.105632715
44	0x3d53f555	0.05174764
45	0x3de911d2	0.11380352
46	0x3e04d2d4	0.1297105
47	0xbd850f12	-0.06497015
48	0x3de9422d	0.11389575
49	0x3cb17d59	0.021666216
50	0x3d0801e9	0.033204947
51	0xbd09ccbd	-0.03364252
52	0x3daa7f1b	0.08325025
53	0x3dc235b5	0.094829
54	0x3b6331f0	0.0034667216
55	0xbda6824b	-0.0813032
56	0x3d8d2f58	0.06893796
57	0xbe152064	-0.14563137
58	0x3db78e47	0.08962684
59	0x3d91b92c	0.07115397
60	0x3d10a9f8	0.035318345
61	0x3d1413bf	0.036151644
62	0xbdb160f6	-0.08661072
63	0x3c798a3a	0.01523071
64	0x3ab7b3d1	0.0014015381
65	0xbd68c376	-0.05682703
66	0x3bfeb429	0.0077729416
67	0xbb9c3025	-0.0047664815
68	0x3aef84c3	0.0018273819
69	0x3ca2271e	0.019794043
70	0xbd254e2d	-0.040357757
71	0xbd49fbbd	-0.049312342
72	0x3e0aaa9c	0.13541645
73	0x3dcdfc3b	0.10057875
74	0xbcefaeca	-0.02925815
75	0xbd47d761	-0.048789386
76	0x3b9a893c	0.0047160666
77	0xbdfcdfa4	-0.123473436
78	0xbd0dc671	-0.034613077
79	0xbdc30340	-0.09522104
80	0x3d3e4c5b	0.046459537
81	0xbbef41bb	-0.007301537
82	0x3d912661	0.07087398
83	0xbdaaa504	-0.083322555
84	0xbd8ac8e8	-0.06776601
85	0xbc9db9fc	-0.019253723
86	0xbddb48ff	-0.10707282
87	0xbe1b0364	-0.15138012
88	0xbd5ba9d1	-0.053628746
89	0x3b89dbe7	0.0042071226
90	0x3d5dec69	0.054180536
91	0x3decdadf	0.11565184
92	0xbb716379	-0.0036832972
93	0x3e32f9e2	0.17478135
94	0x3ddcc01b	0.10778829
95	0x3bab5765	0.005228924
96	0xbd942979	-0.07234473
97	0xbc1aa171	-0.009437905
98	0x3a7968e0	0.0009514224
99	0x39572286	0.00020516859
100	0x3d957ca0	0.07299161
101	0x3df25356	0.11832301
102	0xbd000cd1	-0.031262223
103	0x3db4e25d	0.08832238
104	0x3da58fae	0.08084045
105	0x3ddaf4bb	0.1069121
106	0xbc4975a1	-0.012296111
107	0x3bae8522	0.0053259293
108	0x3dc8c6a9	0.098035164
109	0xbe0595a6	-0.13045368
110	0xbd3ba5d8	-0.045812458
111	0xbdaa69d1	-0.08320964
112	0x3db155c4	0.086589366
113	0x3c4a5358	0.012348972
114	0x3c89c0eb	0.016815623
115	0x3d1cdfc7	0.03829935
116	0x3d988c31	0.074486144
117	0xbd8a99f8	-0.067676485
118	0xbde46ba4	-0.11153343
119	0xbcfd5c2e	-0.030927744
120	0xbca2d8c0	-0.019878745
121	0xbceb5036	-0.028724771
122	0xbc47940e	-0.012181295
123	0xb920710b	-0.00015300901
124	0xbe20aef8	-0.15691745
125	0xbe002c31	-0.12516858
126	0x3c13ae28	0.00901369
127	0xbd6bdc51	-0.057583157

layer3.weight f4 [128, 128]
0	0xbd8cc9ea	-0.068744496
1	0x3d963a8d	0.073353864
2	0x3c0786e3	0.008271906
3	0xbbdb4768	-0.006691862
4	0xbd827f34	-0.06371918
5	0xbd6d85b3	-0.057988834
6	0xbd651bd4	-0.055934742
7	0x3d71c333	0.059024047
8	0x3d874dcb	0.06606635
9	0x3d5da5e4	0.054113284
10	0x3ce68efa	0.028144348
11	0x3ce7aac7	0.028279675
12	0xbd5d6a8c	-0.05405669
13	0xbd45a612	-0.04825408
14	0x3da31396	0.0796272
15	0x3dafbfad	0.08581481
16	0x3dac7b90	0.08422005
17	0x3c346d83	0.011012438
18	0x3d8d0562	0.06885792
19	0x3c62c62e	0.013841195
20	0xbb3d108d	-0.0028848976
21	0x3b99626d	0.0046809227
22	0xbd7fc946	-0.06244781
23	0xbdabb878	-0.08384794
24	0xbd300ab5	-0.04297896
25	0xbd49149c	-0.04909192
26	0x3d7c7535	0.061635215
27	0xbd868ed3	-0.0657021
28	0xbc59e532	-0.013299273
29	0x3cba5587	0.02274586
30	0x3cd7c9bf	0.026341317
31	0x3bd840ad	0.006599507
32	0x3d5529c8	0.0520418
33	0xbd995045	-0.07486013
34	0x3c436979	0.011927002
35	0xbdbce692	-0.09223665
36	0x39194c99	0.00014619752
37	0x3d993703	0.07481196
38	0x3d6c7864	0.057732
39	0x3d144e16	0.03620728
40	0xbda50f20	-0.080595255
41	0x3c982cee	0.018576112
42	0x3cc212fe	0.023690697
43	0xbdc613bd	-0.096717335
44	0xbdbef5fb	-0.09324261
45	0xbd7273bc	-0.059192404
46	0x3cf46a9d	0.029835993
47	0x3d5d3fd6	0.054015957
48	0xbdceec19	-0.10103626
49	0xbd400cc1	-0.046887163
50	0x3d0406b2	0.032232948
51	0xbd3960d5	-0.04525836
52	0x3d852abf	0.06502294
53	0x3d37b5f8	0.044851273
54	0xbd1b31cc	-0.037889287
55	0x3ddfb7d7	0.109237365
56	0xba0b280e	-0.0005308398
57	0xbce4e3f6	-0.027940731
58	0xbb48fba2	-0.0030667563
59	0xbd81d438	-0.06339306
60	0x3d6ce0b3	0.057831477
61	0xbd8ad215	-0.06778351
62	0x3d8f101b	0.06985494
63	0xbd024fb5	-0.031814296
64	0xbc82b769	-0.015956597
65	0xbe2b0dae	-0.16704437
66	0xbd52160c	-0.051290557
67	0x3c933e90	0.017974168
68	0xbdde686e	-0.10859762
69	0x3d56fc2a	0.052486576
70	0xbcf9c2ad	-0.030488336
71	0xbd3c4724	-0.045966282
72	0x3d66c897	0.05634364
73	0x3d116885	0.03550007
74	0x3c0c976d	0.008581025
75	0xbca5542e	-0.020181742
76	0x3cfe9014	0.031074561
77	0x3d0fc713	0.03510196
78	0xbd9a0528	-0.07520515
79	0xbd909dcf	-0.070613496
80	0xbd9d3b80	-0.07677364
81	0xbc013cc2	-0.007888021
82	0x3d672eda	0.056441166
83	0xbd9bf754	-0.076155335
84	0x3d09e421	0.033664826
85	0xbd7ded0a	-0.061993636
86	0x3cc39384	0.023874052
87	0x3d8f6c1a	0.070030406
88	0xbcd11844	-0.025524266
89	0x3d62197d	0.05520009
90	0x3cbc9039	0.02301799
91	0x3d0efa17	0.034906473
92	0x3cf120cf	0.02943459
93	0xbd58bb71	-0.052913133
94	0x3d1fcc82	0.039013393
95	0x3d2f615d	0.042817462
96	0x3dbdda54	0.092701584
97	0x3c96ff54	0.018432297
98	0xbd396d21	-0.04527009
99	0xbccee012	-0.02525333
100	0x3d81e4c8	0.06342465
101	0x3c835810	0.016033202
102	0xbc830a91	-0.01599625
103	0x3d3980eb	0.04528896
104	0xbc56a828	-0.013101615
105	0x3df43851	0.11924804
106	0x3d2d6e97	0.042341795
107	0xbd91a2e3	-0.07111146
108	0x3d8a2d2d	0.06746898
109	0x3d147025	0.03623976
110	0xbdc8312f	-0.09775006
111	0xbd538982	-0.05164481
112	0x3ca1ba79	0.019742237
113	0x3d04dfa7	0.032439854
114	0x3dadadfb	0.0848045
115	0x3c429387	0.011875994
116	0x3d7e987e	0.062157147
117	0xbd86dab3	-0.06584682
118	0x3d974f17	0.07388132
119	0x3d0f6ac0	0.035013914
120	0x3d09b424	0.03361906
121	0xbd4efded	-0.05053513
122	0xbde24415	-0.11048142
123	0xbd006709	-0.031348262
124	0x3ca0cfe9	0.01963039
125	0x3be5e203	0.007015468
126	0x3c327aaf	0.010893508
127	0x3bb7e8ab	0.005612453
128	0x3dfa6958	0.12227124
129	0x3d4c95c6	0.049947523
130	0xbd8b0876	-0.06788723
131	0x3d18c55d	0.037297595
132	0xbc3c271c	-0.011483934
133	0xbae7cb56	-0.00176845
134	0xbdee81fc	-0.11645886
135	0x3dcb790e	0.09935199
136	0x3cf6c4fe	0.03012323
137	0xbc90f091	-0.017692836
138	0xbdc8f302	-0.09811975
139	0x3d0a8aae	0.03382366
140	0xbc1aa801	-0.009439469
141	0xbd2abd58	-0.04168448
142	0x3ba98caf	0.0051742415
143	0x3cd43e71	0.02590868
144	0x3cc0400d	0.023468042
145	0xbdeb284e	-0.11482297
146	0xbd48e898	-0.049049944
147	0xbd05ac92	-0.03263528
148	0x3dab475c	0.0836322
149	0xbc9e555c	-0.019327812
150	0xbcbde4db	-0.023180416
151	0x3c406afb	0.011744256
152	0x3b407c69	0.002937103
153	0xbd8d352e	-0.06894909
154	0x3c2a87ef	0.010408386
155	0x3d5407a3	0.051765095
156	0x3bc2a0a6	0.005939561
157	0xbc993b94	-0.018705167
158	0x3d708d10	0.058728278
159	0xbd18ab2f	-0.03727263
160	0x3daa43a6	0.08313684
161	0x3d70473f	0.058661696
162	0x3da05f03	0.07830622
163	0x3cbf6fc5	0.023368726
164	0x3d4d9ed9	0.050200317
165	0xbd1b18c9	-0.037865434
166	0xbc08c902	-0.008348705
167	0x3cef4e0c	0.02921202
168	0xbd6d9162	-0.057999976
169	0xbd110fa3	-0.035415303
170	0xbc94a6ad	-0.018145883
171	0x3de02141	0.10943843
172	0x3d5a736d	0.053332735
173	0x398553d1	0.00025430185
174	0xbcef351f	-0.029200135
175	0xbd9a1fb2	-0.07525577
176	0x3dfc8567	0.12330132
177	0x3c559a62	0.013037296
178	0xbcf17c43	-0.029478198
179	0xbd60e72f	-0.054907974
180	0xbc95bd8f	-0.018278865
181	0x3d71fabb	0.059077006
182	0x3d03db3a	0.032191493
183	0xbdbed48b	-0.09317883
184	0xbc8aa188	-0.016922727
185	0xbc6f61d2	-0.0146107245
186	0x3decf304	0.11569789
187	0xbc4ec499	-0.012620115
188	0xbcdfd9ba	-0.0273255
189	0x3d3a94b9	0.04555199
190	0xbcd976e6	-0.026545953
191	0xbd942f14	-0.07235542
192	0x3ca51881	0.020153286
193	0x3e11181a	0.1416935
194	0xbdae3d8e	-0.085078344
195	0x3d7d0dda	0.061780788
196	0x3d240672	0.04004521
197	0x3dd46eb2	0.10372676
198	0x3c82e690	0.015979081
199	0xba24d351	-0.0006287592
200	0xbd6b767a	-0.057486035
201	0x3d986914	0.07441917
202	0xbc846bbc	-0.016164653
203	0x3c7a2fd5	0.015270193
204	0x3d6e31bb	0.058152895
205	0xbd34b622	-0.044119008
206	0xbbee2c3b	-0.0072684563
207	0x3dbfa1c8	0.09357029
208	0x3dd1982b	0.10234102
209	0x3d244277	0.04010245
210	0xbda8f2d5	-0.082494415
211	0xbd319298	-0.043352693
212	0xbd18db85	-0.037318725
213	0x3c9335db	0.017970016
214	0xbd1b713e	-0.037949793
215	0x3cb4fd60	0.022093475
216	0xbd8675bd	-0.065654255
217	0xbd95cc56	-0.073143646
218	0x3bf69259	0.00752477
219	0x3d37fad9	0.04491696
220	0x3d0c63a6	0.03427472
221	0xbc251574	-0.010075916
222	0x3c44a9f6	0.0120034125
223	0xbe0e3bdb	-0.1389002
224	0x3dcde868	0.100540936
225	0x3dbe82de	0.09302305
226	0xbd9af603	-0.07566454
227	0xbdd90ea9	-0.10598499
228	0xbdcf3233	-0.101169966
229	0xbd93b9cb	-0.072131716
230	0x3c9f8f7b	0.019477597
231	0xbdc2db27	-0.09514456
232	0xbdfdcbee	-0.12392412
233	0xbd628a7f	-0.05530786
234	0xbd2d64ef	-0.042332586
235	0xbd376067	-0.04476967
236	0x3ce514bb	0.027963987
237	0xbd84802b	-0.064697586
238	0xbd2b5ba3	-0.04183544
239	0xbd4c3aa7	-0.049860623
240	0x3db5b012	0.08871473
241	0xbc8a0da9	-0.016852217
242	0xbd3d03ca	-0.04614619
243	0xbc91d249	-0.017800467
244	0xbaaa0e47	-0.0012974226
245	0x3d947a1d	0.07249854
246	0xbd0997f9	-0.033592198
247	0xbd2c487b	-0.04206131
248	0xbd3ea2e5	-0.046542067
249	0xbd959f13	-0.073057316
250	0x3da85590	0.08219445
251	0xbc8bfd52	-0.017088566
252	0xbc45ad82	-0.012065293
253	0x3cdd79f6	0.027035695
254	0x3c0b75d8	0.008511983
255	0x3de16691	0.11005891

layer3.bias f4 [128]
0	0x3d757ac1	0.05993152
1	0x3d161a46	0.03664615
2	0xbc07eade	-0.008295743
3	0xbd8128c5	-0.06306604
4	0x3be1bc52	0.0068889046
5	0x3e4152aa	0.1887919
6	0xbc0231f5	-0.007946481
7	0x3e145db5	0.14488871
8	0x3d317a19	0.043329332
9	0xbdf9b2f1	-0.121923335
10	0xbda55d1e	-0.08074401
11	0xbc6a0340	-0.014283001
12	0x3ca879bb	0.020565858
13	0x3d525fa7	0.051360752
14	0x3d303c05	0.04302599
15	0x3d90d0aa	0.070710495
16	0xbbb36c1b	-0.0054755337
17	0xbda6a3d7	-0.08136719
18	0x3d6b706f	0.057480272
19	0xbda030e5	-0.07821826
20	0xbd88e95e	-0.06685136
21	0xbdae30e0	-0.08505416
22	0x3d6539e5	0.055963416
23	0xbd701fab	-0.05862395
24	0x3e0d9b4c	0.13828772
25	0xbe343b52	-0.17600754
26	0xbd84685e	-0.06465219
27	0x3e54efab	0.20794551
28	0x3e16d352	0.1472905
29	0xbdd9fb19	-0.10643596
30	0x3e14913b	0.14508526
31	0x3d6b08be	0.057381384
32	0x3c98ccca	0.018652339
33	0xbe17e7b8	-0.14834487
34	0xbdd7ffd5	-0.10546843
35	0xbafa3c85	-0.0019091523
36	0xbdd21fd8	-0.1025998
37	0x3dc0438d	0.09387884
38	0xbd8d43cd	-0.068976976
39	0x3e228c68	0.15873873
40	0x3d9939cc	0.07481727
41	0xbd93c579	-0.07215399
42	0xbe0659ed	-0.13120241
43	0x3e1ee96f	0.15518735
44	0xbe16e184	-0.14734465
45	0xbd3af587	-0.04564431
46	0x3e4862f3	0.19568996
47	0x3d0f5e70	0.035002172
48	0x3d506184	0.05087425
49	0x3d68fe00	0.05688286
50	0x3d977bfd	0.07396696
51	0x3d89a38c	0.06720647
52	0x3e19a25c	0.15003341
53	0xbdb6f820	-0.08934045
54	0x3e10eb37	0.14152227
55	0x3ceb20b2	0.028702114
56	0x3d9127f6	0.070877
57	0x3dfbf2ad	0.12302146
58	0x3e3a3a35	0.18186267
59	0xbde589ae	-0.11207901
60	0xbd2e538e	-0.042560153
61	0x3dc32719	0.09528942
62	0x3db540e0	0.088502645
63	0xbd55618d	-0.052094985
64	0xbd9959f6	-0.07487862
65	0x3dbf37ea	0.09336837
66	0x3dd7f0cf	0.105439775
67	0xbde5791e	-0.11204742
68	0xbda2ebf0	-0.07955158
69	0x3d41d0a4	0.047318116
70	0xbc036d0e	-0.008021606
71	0xbd339305	-0.04384138
72	0x3d85833d	0.06519172
73	0x3d50388c	0.050835177
74	0xbe039c73	-0.1285265
75	0xbd8a22fa	-0.067449525
76	0x3da1a20c	0.07892236
77	0x3d4b0d6b	0.049573343
78	0x3d728be9	0.05921546
79	0x3d75cfc8	0.06001261
80	0x3e6fe86b	0.23428504
81	0x3cd220ad	0.025650347
82	0xbd1a9d52	-0.03774769
83	0xbd553541	-0.05205274
84	0xbde66279	-0.11249251
85	0x3d6b69e9	0.05747405
86	0x3e2367ca	0.15957561
87	0xbd833b10	-0.0640775
88	0x3dc06e0e	0.09395991
89	0x3dae2810	0.08503735
90	0x3dfb9824	0.12284878
91	0x3de22b5a	0.11043425
92	0xbde00e07	-0.109401755
93	0x3c98872d	0.018619144
94	0xbe02e77a	-0.12783614
95	0xbd0fd54d	-0.03511553
96	0x3e09ddeb	0.13463561
97	0xbe014201	-0.12622835
98	0x3daee325	0.08539418
99	0xbdd3e839	-0.10347027
100	0xbe2963f6	-0.16542038
101	0x3d850234	0.06494561
102	0x3cf9d085	0.030494938
103	0xb9817feb	-0.00024700104
104	0x3df7cb8d	0.12099371
105	0x3d59cf4c	0.05317621
106	0x3e21c8fc	0.15799326
107	0x3c5e95a1	0.013585479
108	0x3e0d590e	0.13803503
109	0xbe153bff	-0.14573668
110	0x3dee853b	0.116465054
111	0xbcdc5e8b	-0.02690055
112	0xbd6a1ea6	-0.057158135
113	0xbdd4c73d	-0.10389564
114	0xbdca5e43	-0.0988126
115	0xbe19270f	-0.14956306
116	0xbd8a7492	-0.06760515
117	0xbd5fd6e8	-0.05464831
118	0xbd4433a5	-0.047900815
119	0xbd48f6cd	-0.049063493
120	0x3da42544	0.0801492
121	0x3b3ea925	0.0029092517
122	0xbc7c2d7f	-0.0153917065
123	0xbbedf252	-0.007261553
124	0xbd0e8f37	-0.03480455
125	0xbda7258b	-0.08161458
126	0xbd9a9edc	-0.07549831
127	0x3da7ed0f	0.08199512

layer4.weight f4 [128, 128]
0	0xbd8fd665	-0.070233144
1	0x3dc4fce5	0.09618548
2	0x3d920d32	0.07131423
3	0x3d7187a9	0.058967266
4	0x3bc756f7	0.006083365
5	0xbd73ba6c	-0.059503958
6	0xbd9af405	-0.07566074
7	0xbdabef58	-0.083952606
8	0x3cb92c1d	0.022604043
9	0x3d2215c0	0.039571524
10	0xbd50ebcc	-0.051006123
11	0xbab55880	-0.0013835579
12	0xbd284029	-0.041076813
13	0x3b5b34cc	0.0033448217
14	0xbc9aeeed	-0.018912757
15	0xbd24ecc5	-0.040264864
16	0x3d3c544b	0.045978826
17	0x3c00fcce	0.007872773
18	0x3beaec46	0.0071692793
19	0x3cc9fe42	0.024657372
20	0x3c3d0174	0.011535991
21	0xbd0f3f47	-0.034972455
22	0xbc621c98	-0.013800763
23	0xbd8deb60	-0.0692966
24	0x3d0703c0	0.03296256
25	0xbbb1fd64	-0.005431818
26	0x3d629c83	0.055325042
27	0xbd06d31f	-0.032916185
28	0x3d3b175b	0.04567657
29	0x3d95765d	0.07297967
30	0xbd64088e	-0.05567222
31	0x3d27b3a5	0.040942807
32	0x3ae40176	0.0017395455
33	0xbd0920a4	-0.033478394
34	0xbd02736b	-0.031848352
35	0xbd04affc	-0.032394394
36	0xbd0c9a22	-0.03432668
37	0x3dae057d	0.084971406
38	0xbd53d57b	-0.051717263
39	0x3d325b3b	0.043544035
40	0xbc9f1221	-0.019417824
41	0x3caa3b1d	0.02078014
42	0xbd8cb2e3	-0.068700574
43	0xbd8db391	-0.06919015
44	0x3db70c31	0.08937872
45	0xbd220ae6	-0.039561175
46	0x3d054563	0.032536875
47	0x3d681a0e	0.056665473
48	0x3d001695	0.031271536
49	0x3c80af0a	0.015708465
50	0x3b9cc7d9	0.004784566
51	0x3bc40962	0.005982564
52	0xbd8a3ad7	-0.06749504
53	0xbda27fbf	-0.07934522
54	0x3d39f11d	0.04539596
55	0x3d4b2154	0.04959233
56	0xbd039fd6	-0.032134853
57	0xbd2e12b5	-0.04249831
58	0x3dcbbbf6	0.0994796
59	0xbce757dc	-0.028240137
60	0xbd16f064	-0.036850348
61	0xbc494569	-0.012284615
62	0xbd15693a	-0.036477305
63	0xbb1d7820	-0.00240279
64	0xbda69925	-0.08134679
65	0xbd3fa8e4	-0.046791926
66	0xbb5dd090	-0.0033846237
67	0x3b52e063	0.0032177202
68	0x3d0afa13	0.033929896
69	0x3d991771	0.07475174
70	0xbd628c6e	-0.055309705
71	0x3cedc255	0.029023329
72	0xbd869647	-0.06571632
73	0xbcae827d	-0.021302456
74	0x3b26eb9b	0.0025470022
75	0xbd8f458c	-0.06995687
76	0x3d0b02e1	0.033938292
77	0xbd220d89	-0.03956369
78	0xbda7c716	-0.081922695
79	0x3c932a26	0.017964434
80	0x3cdb84a7	0.026796652
81	0x3bf63d59	0.0075146374
82	0xbc1ea339	-0.00968247
83	0x3d6c00f0	0.05761808
84	0x3d34f453	0.04417832
85	0xbd8517ba	-0.06498666
86	0x3d91c265	0.07117156
87	0xbd8f141b	-0.06986257
88	0x3da8bb49	0.08238847
89	0xbda8161c	-0.08207342
90	0x3d905da4	0.070491105
91	0x3d3c1efc	0.045927987
92	0xbd85dbed	-0.06536088
93	0x3cde457a	0.027132738
94	0x3d581c0a	0.052761115
95	0xbd22d222	-0.03975118
96	0x3dbf7af0	0.0934962
97	0x3d14a419	0.03628931
98	0x3bc67167	0.006055999
99	0x3d407af2	0.04699225
100	0x3cadb0ba	0.021202434
101	0x3dba5733	0.09098663
102	0xbbd436e2	-0.006476269
103	0xbda4d0c7	-0.080476336
104	0xbd48530d	-0.04890733
105	0x3c6b46dd	0.014360157
106	0x3d7f1af3	0.06228156
107	0xbdabfc97	-0.08397787
108	0x3be38494	0.006943295
109	0x3d0f84c0	0.03503871
110	0xbc6384e9	-0.013886669
111	0xbd0c7722	-0.0342933
112	0x3d145748	0.03621605
113	0x3cc04b0a	0.023473281
114	0x3d844977	0.06459325
115	0xbd608ff0	-0.05482477
116	0xbc09b1e5	-0.00840423
117	0xbd4c754c	-0.04991655
118	0xbc822bf3	-0.015890097
119	0x3c9c592f	0.019085495
120	0xbcf47f47	-0.029845847
121	0x3d53f18a	0.05174402
122	0x3d893707	0.06699949
123	0xbdb540c7	-0.08850246
124	0xbd7a8bae	-0.061168365
125	0xbda2f977	-0.07957738
126	0xbd7576a6	-0.059927605
127	0x3cd766f2	0.026294205
128	0xbdb1936d	-0.08670697
129	0x3d6520f5	0.055939633
130	0xbd8767a9	-0.066115685
131	0xbcdad6ce	-0.026713755
132	0x3e1fa5f7	0.15590654
133	0x3e557e44	0.20848948
134	0xbc0535c9	-0.008130499
135	0x3e802012	0.25024468
136	0x3d75e411	0.060031954
137	0x3dc105d6	0.09424941
138	0xbe1db69a	-0.15401688
139	0xbd602b8f	-0.05472904
140	0x3e121318	0.14265096
141	0xbb45e805	-0.003019811
142	0x3d549493	0.051899504
143	0xbe1e7418	-0.15473974
144	0xbdff5c6a	-0.124687985
145	0x3be590b5	0.007005776
146	0xbdf07038	-0.11740154
147	0x3d2315a3	0.039815556
148	0xbcffbe8e	-0.031218793
149	0xbc8fe579	-0.017565476
150	0x3da806b0	0.082044005
151	0x3d6a5648	0.05721119
152	0xbe26fa19	-0.16306342
153	0xbe32949f	-0.17439507
154	0x3b217c4b	0.0024640735
155	0xbe417547	-0.18892394
156	0x3e44fac0	0.19236279
157	0x3e4ba772	0.19888094
158	0xbd0c9ffc	-0.03433226
159	0xbdc695ea	-0.096965626
160	0xbddd5e30	-0.108089805
161	0x3bee857c	0.007279096
162	0xbe1b0338	-0.15137947
163	0x3e0a2b2e	0.13493034
164	0xbdbc8a48	-0.092060626
165	0x3c882124	0.016617365
166	0x3d7b7758	0.061393112
167	0xbdd33bdf	-0.10314154
168	0x3e0845c3	0.13307862
169	0xbddc1291	-0.10745729
170	0x3dd81ae8	0.10552007
171	0x3d12819c	0.035768136
172	0x3e7261cb	0.23670118
173	0xbded3111	-0.11581624
174	0x3e32f349	0.17475618
175	0x3debab1f	0.11507248
176	0x3e0b3325	0.13593729
177	0x3d89211c	0.06695768
178	0xbe3e2622	-0.18569234
179	0x3dd431ac	0.10361037
180	0xbd88e168	-0.06683618
181	0xbd486d0f	-0.04893213
182	0x3d0433df	0.03227603
183	0x3dde8653	0.10865464
184	0xbe5e9d86	-0.21739778
185	0xbde8360c	-0.113384336
186	0x3e13456c	0.14381951
187	0xbdafb572	-0.0857953
188	0xbcc796fb	-0.024363985
189	0x3a42e7ea	0.00074350706
190	0x3e36d128	0.17853224
191	0xbce4651a	-0.02788024
192	0xbdc8c80a	-0.098037794
193	0x3da1728a	0.07883175
194	0xbe1dd492	-0.1541312
195	0xbd94c52d	-0.07264171
196	0x3e3516ba	0.17684451
197	0x3c55c275	0.01304685
198	0x3cfb0a16	0.030644458
199	0xbda8a982	-0.08235456
200	0x3e009f6c	0.12560815
201	0xbdc9eaf6	-0.09859268
202	0x3e658e49	0.22417559
203	0xbd3e15ae	-0.046407394
204	0xbe251359	-0.16120662
205	0xbd05b41e	-0.032642476
206	0x3dedd5ca	0.11613043
207	0xbd7c3954	-0.06157811
208	0xbd2a6d47	-0.04160812
209	0x3e06de2c	0.1317069
210	0xbc57dc69	-0.0131751085
211	0x3df6bbbd	0.12047527
212	0x3e4c930e	0.19977972
213	0xbdb028b1	-0.08601511
214	0x3e884757	0.26616928
215	0xbdbb8d02	-0.091577545
216	0x3df95e96	0.12176244
217	0x3a9f028b	0.0012131495
218	0x3dc8bae8	0.098012745
219	0xbc94b997	-0.018154902
220	0x3df0f656	0.11765735
221	0x3dc94073	0.09826746
222	0xbd7454ba	-0.059651114
223	0x3bb15922	0.005412237
224	0x3dc1debf	0.094663136
225	0xbe36e46b	-0.17860572
226	0x3d2cf6c7	0.042227533
227	0xbd0639b0	-0.03276986
228	0xbcc3bbfa	-0.023893345
229	0xbd3001e2	-0.042970546
230	0x3d6e7f21	0.05822671
231	0xbd4a88a1	-0.049446706
232	0xbd59575f	-0.05306184
233	0xbcb24c53	-0.02176491
234	0x3de8e4dc	0.113717765
235	0xbd0927f5	-0.03348537
236	0xbe5c3d7c	-0.2150783
237	0xbe1df6c8	-0.15426171
238	0xbe0b2b40	-0.13590717
239	0xbe33fd0d	-0.17577
240	0xbdab6276	-0.08368389
241	0x3d1b95c1	0.037984613
242	0x3d161383	0.0366397
243	0xbbf9e36e	-0.0076259887
244	0xbe5069e9	-0.20352902
245	0xbc19f53f	-0.00939685
246	0x3de72777	0.11286824
247	0x3bdb4348	0.00669137
248	0x3cf727fb	0.030170431
249	0xbdd1865e	-0.10230707
250	0x3bcb0d77	0.0061966735
251	0x3e6e25f1	0.23256661
252	0xbd5cc97b	-0.053903084
253	0x3dc65ce6	0.09685688
254	0x3cf2e302	0.029649261
255	0x3da15a4f	0.07878553

layer4.bias f4 [128]
0	0xbc898efc	-0.016791813
1	0x3e496f4e	0.19671366
2	0xbd6ff276	-0.05858084
3	0x3d20a2aa	0.03921763
4	0x3dcef564	0.10105398
5	0xb9dc2cfe	-0.00041995192
6	0x3c4e9945	0.0126097845
7	0xbe405cc1	-0.18785383
8	0xbc9dba90	-0.019253999
9	0xbc9f2145	-0.019425044
10	0xbd5dcf23	-0.05415262
11	0x3e574140	0.21020985
12	0x3daf444d	0.08557949
13	0x3db74e6f	0.08950507
14	0x3e3d5047	0.18487655
15	0x3d75b691	0.059988562
16	0x3da684fa	0.08130832
17	0xbd83ba9c	-0.06432077
18	0x3def9dff	0.11700057
19	0x3cdf3896	0.027248662
20	0xbd76bf14	-0.06024082
21	0x3cf0bfe7	0.029388381
22	0x3ddf8ebf	0.109158985
23	0xbdae45ca	-0.08509405
24	0xbdaf6d51	-0.08565772
25	0xbe404300	-0.18775558
26	0x3c0a898e	0.008455647
27	0xbe03d821	-0.12875415
28	0x3d8aebc8	0.06783253
29	0xbda88388	-0.082282126
30	0xbd9c4677	-0.076306276
31	0xbd1a194a	-0.037621774
32	0x3c769952	0.015051203
33	0x3e267693	0.1625617
34	0x3da3f0ef	0.08004939
35	0x3d186f66	0.037215613
36	0x3e5fa6f6	0.21841034
37	0xbd407c6f	-0.04699367
38	0xbd3bcb88	-0.0458484
39	0x3e4fef13	0.20306043
40	0xbcaa2dbe	-0.020773765
41	0x3dd2297b	0.10261818
42	0xbd57ae49	-0.052656446
43	0x3d8e9f44	0.06963971
44	0xbdfd2fd9	-0.12362642
45	0x3c73eb6c	0.014887672
46	0xbd88dbf8	-0.06682581
47	0xbd8a9e21	-0.06768442
48	0x3d947075	0.07248012
49	0xbdd0a668	-0.101879895
50	0x3e00e9dc	0.1258921
51	0x3e12c14f	0.14331554
52	0xbdf5d7c0	-0.12004042
53	0x3d89eb10	0.06734288
54	0xbe0f4b6d	-0.13993616
55	0x3dafe6be	0.085889325
56	0xbd888516	-0.06666009
57	0xbb3a94fc	-0.002847015
58	0x3e550013	0.2080081
59	0x3d18ae86	0.037275814
60	0x3d5e16c1	0.05422092
61	0xbbc7e03e	-0.00609973
62	0xbd0d206d	-0.03445475
63	0xbd8ae76a	-0.0678242
64	0x3dd88427	0.10572081
65	0xbdbf0071	-0.09326256
66	0x3d2f359d	0.04277574
67	0x3daca9a8	0.08430797
68	0x3d1d67dd	0.03842913
69	0x3d92334f	0.071386926
70	0xbda0f7b7	-0.07859748
71	0x3e4df731	0.20113827
72	0x3da4abc8	0.08040577
73	0xbdfe3e89	-0.124142714
74	0xbd708671	-0.058721963
75	0xbccf84ca	-0.025331873
76	0x3dcfe796	0.101515934
77	0x3d9001ca	0.07031591
78	0xbdbeb2d9	-0.09311456
79	0x3d28177b	0.041038018
80	0xbd3d91ce	-0.04628163
81	0xbdc9bb68	-0.09850198
82	0x3dfd6b4c	0.12373981
83	0xbcbdfb27	-0.023191048
84	0x3d43a8b1	0.0477683
85	0x3c1dd320	0.009632856
86	0x3e8cfa44	0.27534688
87	0xbd539a08	-0.051660568
88	0x3c0f77ec	0.008756619
89	0xbd7b27d3	-0.061317276
90	0x3d54d075	0.051956613
91	0xbd35d9e1	-0.04439724
92	0x3dac6416	0.084175274
93	0xbd76ff01	-0.060301784
94	0x38ab6de5	8.174385e-05
95	0x3c93e979	0.018055664
96	0x3ddb4538	0.10706562
97	0xbd472a82	-0.048624523
98	0xbd39c4d3	-0.04535372
99	0x3d216135	0.039399344
100	0x3c385625	0.011251007
101	0x3cddf3d2	0.027093802
102	0x3de91880	0.11381626
103	0xbdb1af63	-0.086760305
104	0x3e05959c	0.13045353
105	0xbd0858f5	-0.03328796
106	0xbdcd3d49	-0.10021455
107	0xbdafd0d6	-0.08584754
108	0x3de593e6	0.1120985
109	0x3df5d724	0.120039254
110	0x3d0f8338	0.03503725
111	0xbdcded06	-0.10054974
112	0xbd33dd0e	-0.043911986
113	0x3dde707a	0.10861297
114	0x3bcba86f	0.006215147
115	0xbd8b7598	-0.068095386
116	0x3d69319c	0.056932077
117	0x3cb56029	0.02214058
118	0x3d00ac98	0.0314146
119	0x3dc810e6	0.09768848
120	0x3c96755b	0.018366506
121	0xbc582933	-0.013193416
122	0x3c96a9d8	0.018391535
123	0xbc96d6bc	-0.01841294
124	0x3de37959	0.111071296
125	0x3cd271c7	0.025689019
126	0x3e605209	0.21906294
127	0x3c70908a	0.014682898

input_norm.weight f4 [8]
0	0x3fa20c7d	1.2660061
1	0x3f4c96d6	0.7991766
2	0x3f718914	0.9434979
3	0x3f54503f	0.82934946
4	0x3f42d5ce	0.7610749
5	0x3f83be37	1.0292424
6	0x3f1eb238	0.6199069
7	0x3f465a4e	0.77481544

input_norm.bias f4 [8]
0	0x3e8d327b	0.27577576
1	0x3e482167	0.19543992
2	0x3efea117	0.49732277
3	0x3ef4351a	0.47696763
4	0xbc092209	-0.008369931
5	0x3e934eba	0.28771
6	0x3e8de270	0.2771182
7	0x3e0287ef	0.12747167

input_norm.running_mean f4 [8]
0	0x40655750	3.5834541
1	0x3d11f3b1	0.035632793
2	0xbf8e181e	-1.110111
3	0x40693697	3.643957
4	0x3ba0fb69	0.004912783
5	0x3cedac6f	0.029012887
6	0xbde51d66	-0.11187248
7	0x3e82c11f	0.25537965

input_norm.running_var f4 [8]
0	0x4075f1a2	3.842873
1	0x3b2b508e	0.0026140544
2	0x40089c33	2.1345336
3	0x40b6d60b	5.7136283
4	0x3e42bd6b	0.1901757
5	0x3b040402	0.002014399
6	0x3f2d1a50	0.67618275
7	0x3e42ac48	0.19011033

norm.weight f4 [128]
0	0x3f5859a0	0.84511757
1	0x3f886868	1.0656862
2	0x3f6437f1	0.8914786
3	0x3f5b4925	0.85658485
4	0x3f5cce30	0.8625212
5	0x3f5ff2de	0.8747996
6	0x3f5e7f04	0.8691256
7	0x3f639226	0.8889488
8	0x3f63c444	0.8897135
9	0x3f5bf9ae	0.85927856
10	0x3f6d9d15	0.92817813
11	0x3f6be62a	0.9214808
12	0x3f5612ba	0.83622324
13	0x3f6b103a	0.91821635
14	0x3f68851e	0.9082812
15	0x3f6488d2	0.8927127
16	0x3f5664cb	0.8374755
17	0x3f5dd0dd	0.86646825
18	0x3f6fff36	0.93748796
19	0x3f67bd15	0.9052289
20	0x3f60449f	0.8760471
21	0x3f698282	0.91214764
22	0x3f6f5890	0.9349451
23	0x3f66d1e6	0.9016403
24	0x3f664a6c	0.8995731
25	0x3f6eddc1	0.9330712
26	0x3f5a5bf2	0.8529655
27	0x3f7ef23f	0.9958839
28	0x3f52d60a	0.8235785
29	0x3f5643d9	0.8369728
30	0x3f6f808e	0.93555534
31	0x3f651c05	0.8949588
32	0x3f57bec2	0.8427545
33	0x3f61cb8b	0.88201207
34	0x3f62c0a4	0.88575196
35	0x3f67c089	0.9052816
36	0x3f69d510	0.9134073
37	0x3f674a4f	0.9034776
38	0x3f519c60	0.81879234
39	0x3f76b59b	0.9637086
40	0x3f702da9	0.9381967
41	0x3f5fbe40	0.87399673
42	0x3f7b993b	0.98280686
43	0x3f5cba15	0.8622144
44	0x3f614bb1	0.8800612
45	0x3f6dc466	0.92877805
46	0x3f842629	1.0324146
47	0x3f5eee69	0.87082535
48	0x3f6f9a7b	0.93595093
49	0x3f6a0414	0.9141247
50	0x3f6c5895	0.92322665
51	0x3f6413b4	0.89092565
52	0x3f626fe7	0.88452
53	0x3f6372f0	0.88847256
54	0x3f5d4934	0.86439824
55	0x3f61f29c	0.8826082
56	0x3f5e489f	0.8682956
57	0x3f7cb58f	0.98714536
58	0x3f6f09f1	0.93374544
59	0x3f579400	0.84210205
60	0x3f64aa69	0.89322525
61	0x3f5d5c2d	0.86468774
62	0x3f682126	0.9067558
63	0x3f68ef98	0.9099059
64	0x3f5c94f9	0.86164814
65	0x3f6538d8	0.8953986
66	0x3f63f6df	0.8904857
67	0x3f5fec85	0.87470275
68	0x3f4eaac4	0.8072932
69	0x3f6c6d76	0.92354524
70	0x3f686f70	0.9079504
71	0x3f62fb16	0.88664377
72	0x3f6436e4	0.89146256
73	0x3f5ae80a	0.85510314
74	0x3f610198	0.87893057
75	0x3f6349c2	0.8878442
76	0x3f6fe702	0.93711865
77	0x3f683ca2	0.9071752
78	0x3f63cea3	0.8898718
79	0x3f812f08	1.0092478
80	0x3f64efd4	0.8942845
81	0x3f5ebf67	0.87010807
82	0x3f5fb714	0.8738873
83	0x3f5fc43f	0.8740882
84	0x3f60af32	0.87767327
85	0x3f58ecd0	0.8473635
86	0x3f7cc2d1	0.98734766
87	0x3f648562	0.89266026
88	0x3f636270	0.8882208
89	0x3f61e63b	0.8824193
90	0x3f5582ec	0.83402896
91	0x3f653f34	0.89549565
92	0x3f5260f4	0.8217919
93	0x3f53ad6f	0.82686514
94	0x3f590a6f	0.84781545
95	0x3f6cbb34	0.9247315
96	0x3f6cb1b8	0.9245868
97	0x3f658f33	0.8967163
98	0x3f6a6fb9	0.91576725
99	0x3f6e427e	0.9307021
100	0x3f60f30f	0.8787088
101	0x3f64c2c2	0.89359677
102	0x3f56522a	0.8371912
103	0x3f54a1ce	0.83059394
104	0x3f5f30f2	0.8718406
105	0x3f70a1c0	0.9399681
106	0x3f5e0cfe	0.86738575
107	0x3f66d367	0.90166324
108	0x3f82ad92	1.020922
109	0x3f5e9e27	0.8696007
110	0x3f609c7e	0.8773879
111	0x3f61ac96	0.8815397
112	0x3f5e24de	0.86775005
113	0x3f646b3d	0.8922613
114	0x3f609383	0.87725085
115	0x3f5cc43b	0.86236924
116	0x3f629a00	0.88516235
117	0x3f5f9f40	0.8735237
118	0x3f5e51c5	0.8684352
119	0x3f60e038	0.8784213
120	0x3f543e24	0.8290732
121	0x3f717904	0.9432528
122	0x3f63f8b1	0.8905135
123	0x3f590a7f	0.8478164
124	0x3f6855a6	0.9075569
125	0x3f656518	0.8960738
126	0x3f77e7d6	0.9683813
127	0x3f58d455	0.8469899

norm.bias f4 [128]
0	0x3de25924	0.110521585
1	0x3bb26302	0.0054439316
2	0x3e074ce2	0.13212922
3	0xbdcd4df6	-0.100246355
4	0x3e45c612	0.19313839
5	0xbd6bbd71	-0.057553712
6	0xbdfc6154	-0.12323251
7	0xbd9efb59	-0.077627845
8	0x3e4df32e	0.20112297
9	0x3de99106	0.11404614
10	0x3e4a4557	0.19753014
11	0x3e3303f8	0.17481983
12	0x3e2cc2df	0.16871212
13	0x3e634518	0.22194326
14	0x3ea292e0	0.31752682
15	0xbde54698	-0.11195105
16	0x3e164511	0.14674784
17	0x3dd2e854	0.10298219
18	0x3e5e299a	0.21695557
19	0xbc221ed5	-0.009895046
20	0x3d3528f0	0.044228494
21	0xbccf81fe	-0.02533054
22	0x3d24cbfa	0.04023359
23	0x3ab82f10	0.0014052112
24	0x3d289466	0.04115715
25	0xbc9e0a46	-0.019292008
26	0x3e305702	0.17220691
27	0xbe043343	-0.1291018
28	0xbea71674	-0.32634318
29	0xbe0e3443	-0.13887124
30	0xbd053722	-0.032523282
31	0x3e557cd4	0.208484
32	0xbca778b7	-0.020443304
33	0xbe0b5726	-0.13607463
34	0xbd80753b	-0.0627236
35	0xbe42e291	-0.1903174
36	0xbd1f3414	-0.038868025
37	0x3bf27ab2	0.0073998803
38	0x3d808bcd	0.06276665
39	0x3dda0add	0.10646603
40	0x3deb12fe	0.11478232
41	0x3e55c876	0.20877251
42	0x3e0a0e5e	0.13482043
43	0x3e5870bd	0.21136756
44	0xbc90589c	-0.017620377
45	0x3d975d0d	0.07390795
46	0x3e14dcc4	0.1453734
47	0xbe8def43	-0.27721605
48	0x3e112ff7	0.14178453
49	0xbe4c1dc5	-0.19933231
50	0x3dc27277	0.09494489
51	0x3e3b0b6f	0.1826608
52	0x3e68d920	0.22739077
53	0xbe86dc5f	-0.26340005
54	0xbdb1bd4e	-0.08678685
55	0xbd511fad	-0.0510556
56	0x3d943b87	0.072379164
57	0x3dbae641	0.09125949
58	0x3de574be	0.112039074
59	0x3ec7605f	0.38940713
60	0xbde72928	-0.11287147
61	0x3dbe5278	0.092930734
62	0xbe2e243b	-0.17006008
63	0x3e9d8a5d	0.30769625
64	0x3d0cdfbd	0.03439306
65	0xbe4d6765	-0.20058973
66	0xbe04f2c8	-0.12983239
67	0x3a6b0e4e	0.000896667
68	0x3e92d1dc	0.28675735
69	0xbd5843e7	-0.05279913
70	0x3ea1023c	0.31447017
71	0x3cefefc4	0.029289134
72	0x3e3029cd	0.17203446
73	0xbe3b768d	-0.18306942
74	0x3dee37c7	0.116317324
75	0x3e49ffcb	0.19726484
76	0xbd9f15b4	-0.077678114
77	0xbe8bf31b	-0.27333912
78	0xbcbee41b	-0.023302129
79	0xbd2ba2d3	-0.04190333
80	0x3bca7368	0.0061783083
81	0x3e2340f0	0.1594274
82	0xbe17a50c	-0.14809054
83	0xbdc04866	-0.09388809
84	0x3d9713ed	0.073768474
85	0xbbb7ec6b	-0.0056129
86	0x3e559fec	0.20861787
87	0x3c416e52	0.011806088
88	0xbec12615	-0.37724367
89	0x3d65544f	0.055988606
90	0x3e134115	0.14380296
91	0x3e47b083	0.19500928
92	0xbcf0704d	-0.029350424
93	0x3e6b18e0	0.22958708
94	0x3cca96ae	0.024730053
95	0x3de1cd77	0.110255174
96	0x3db72e58	0.08944386
97	0xbe0b5f5a	-0.13610592
98	0xbe8cf24f	-0.27528617
99	0x3e28805c	0.16455215
100	0x3d9c6f55	0.076384224
101	0x3b3a2128	0.002840111
102	0xbd2630b3	-0.040573787
103	0xbe1d25cb	-0.15346448
104	0x3d3d2a08	0.046182662
105	0xbe11246e	-0.14174053
106	0x3e01b251	0.12665679
107	0xbcc6d11d	-0.024269635
108	0xbd550704	-0.052008644
109	0x3e08cad0	0.13358617
110	0xbdb39393	-0.08768382
111	0x3e34c5f8	0.17653644
112	0xbd677a27	-0.056512978
113	0x3d8973c6	0.06711535
114	0xbd5a36b6	-0.053274833
115	0xbc50edfc	-0.012752052
116	0xb9bcd7af	-0.0003601885
117	0xbe93c348	-0.28859925
118	0x3e0ff0af	0.14056657
119	0xbd98701a	-0.07443257
120	0x3deb9217	0.11502474
121	0x3d40498a	0.046945132
122	0xbeb17a02	-0.34663397
123	0x3db0bd45	0.0862985
124	0xbd1d60b2	-0.038422294
125	0xbdab4903	-0.08363535
126	0xbb9e276b	-0.0048264763
127	0xbbd91bc3	-0.006625624
