final_models/our_model_varying_speed/checkpoint_models/best_model_episode_8730.pt (torch, 226638 bytes, 22 tensors)

layer1.weight f4 [128, 8]
0.28735152 -0.2545026 -0.1236783 0.26339495 -0.28334144 0.18226309 -0.07914228 0.19937582
-0.027473817 -0.27560663 0.24145569 -0.0036017138 -0.012017157 -0.11830338 0.010291455 0.030554412
-0.117738366 -0.05301185 0.4132922 0.13139139 -0.10192872 -0.26414043 -0.09476266 -0.12820823
-0.09084048 -0.03757268 0.22315444 0.29168114 -0.45063558 0.1469886 0.081455596 0.3216323
0.047794424 -0.19217926 -0.24615699 -0.007952341 0.17878543 -0.025967825 0.17427965 -0.15391116
0.18966848 -0.14546008 0.2420599 -0.11084507 -0.16243576 0.21636514 -0.13518313 -0.0098106805
-0.0073475307 0.013530609 -0.20368575 -0.1436574 0.08777819 -0.16329728 0.31143793 0.07372401
0.026388926 -0.37219268 0.14961742 0.09362295 -0.21690492 0.23588733 0.21961124 0.38312736
-0.16604672 -0.21217962 -0.05720313 0.015732868 -0.2836916 -0.13117748 0.1189074 0.04450476
0.16536345 -0.122702725 0.16024859 -0.017920049 0.22785093 0.17452449 -0.23494607 0.10814464
-0.21377409 -0.3482414 0.018432854 -0.10789098 0.16047612 -0.18793963 -0.31584653 0.15784739
-0.018464144 0.09488569 0.051822416 -0.07047108 -0.0067003896 0.1145622 -0.08775775 -0.15365951
0.22969203 0.20918573 0.036481928 -0.08866645 0.30370355 -0.078493625 0.19895747 0.17367834
-0.14420173 -0.3636663 0.34804812 0.12149744 0.42027462 -0.03284356 0.17694137 0.18035246
0.28815585 -0.10847439 -0.010582695 0.07125521 0.013452376 -0.09671761 -0.04767914 -0.2604663
-0.24928038 0.009339046 0.32451406 -0.27158797 0.12740752 -0.18049513 -0.43946385 -0.0074475645
0.1488378 0.41002035 -0.26490146 0.30824745 0.33630565 0.22535935 0.2837566 0.31557262
0.49661773 0.1137638 -0.20953587 -0.31223512 -0.24841318 0.022158517 -0.27043235 0.16469242
0.042804867 -0.05877751 0.10639233 0.071032025 0.1323277 0.107682854 -0.0066614277 0.36645243
-0.06350359 -0.027710857 -0.35431686 -0.21459596 -0.2043914 -0.11615337 0.22602941 -0.11669014
-0.47322902 0.056013785 0.113646485 0.5092303 -0.21472129 0.16496369 -0.17787637 0.021964023
-0.21581532 -0.25968477 -0.25250497 0.12593023 -0.005645392 0.030370284 0.43915156 0.32270882
0.2741005 0.07325102 -0.46259713 0.1720178 -0.0030444202 0.07681396 -0.39870083 -0.20805182
-0.31145626 0.1879066 -0.3406648 -0.3425127 -0.029819021 -0.26342082 0.029598612 -0.07909368
-0.34531227 0.01793822 0.27419147 -0.19192334 0.2158865 0.09958824 0.36916032 -0.31616217
-0.008437547 -0.35371038 0.2538042 0.009179865 -0.0056219213 -0.29375577 -0.045790154 0.049323883
0.016661022 0.118737824 0.034857806 0.028385695 -0.2629208 0.29061422 0.32254976 0.4264141
0.015859019 -0.24228275 -0.0834771 0.04493584 -0.040229034 0.004368706 -0.058912996 -0.24997842
0.36024213 -0.26490393 0.005926222 0.30274355 0.49942738 0.25392085 -0.04673981 -0.44230667
0.19850282 0.048393685 -0.10426478 0.031246522 -0.3813323 0.18188837 0.24646536 -0.32811493
-0.46459487 -0.27574477 0.08150098 0.094420716 -0.1995511 0.29552498 -0.35777956 -0.15265267
-0.13966054 0.30764943 0.31392047 0.017337898 0.0678937 0.10128889 0.0938539 -0.019754274
00000000: bd1f 933e 2a4e 82be 0c4b fdbd b4db 863e
00000010: 2112 91be 2da3 3a3e 5915 a2bd 2d29 4c3e
00000020: c510 e1bc 501c 8dbe 2940 773e bb0a 6cbb
00000030: 9ce3 44bc 0b49 f2bd 7e9d 283c 3f4d fa3c
00000040: d020 f1bd f422 59bd 099b d33e 778b 063e
00000050: 01c0 d0bd 6a3d 87be ed12 c2bd 0549 03be
00000060: 930a babd cfe5 19bd 9982 643e 3b57 953e
00000070: b5b9 e6be 2e84 163e 31d2 a63d fdac a43e
00000080: 16c4 433d a4ca 44be 9410 7cbe 894a 02bc
00000090: 8713 373e 7aba d4bc 5d76 323e e39a 1dbe
000000a0: 7438 423e 7df3 14be 8dde 773e bd02 e3bd
000000b0: 8f55 26be d38e 5d3e 726d 0abe fabc 20bc
000000c0: 8ec3 f0bb 7daf 5d3c ff92 50be ed1a 13be
000000d0: 0dc5 b33d 6737 27be cb74 9f3e 9dfc 963d
000000e0: 972d d83c 0a90 bebe 4f35 193e 64bd bf3d
000000f0: 531c 5ebe 738c 713e c5e1 603e 4529 c43e
00000100: 2708 2abe 9d45 59be d44d 6abd 37e2 803c
00000110: 0740 91be 6453 06be b985 f33d a04a 363d
00000120: 0955 293e 914b fbbd 3518 243e 11cd 92bc
00000130: c151 693e 8cb6 323e b495 70be f07a dd3d
00000140: 98e7 5abe b24c b2be 7f00 973c f2f5 dcbd
00000150: da53 243e 3f73 40be a3b6 a1be bfa2 213e
00000160: 1e42 97bc 6e53 c23d be43 543d 2453 90bd
00000170: f18e dbbb 969f ea3d 56ba b3bd eb58 1dbe
00000180: 6334 6b3e c934 563e 136e 153d c196 b5bd
00000190: 087f 9b3e 44c1 a0bd 82bb 4b3e bcd8 313e
000001a0: 9ea9 13be 7832 babe 5d33 b23e a6d3 f83d
000001b0: 3c2e d73e f886 06bd 1e30 353e 51ae 383e
000001c0: 2a89 933e d227 debd 0a63 2dbc 40ee 913d
000001d0: 5b67 5c3c e213 c6bd 344b 43bd d75b 85be
000001e0: 5b43 7fbe cc02 193c b526 a63e 940d 8bbe
000001f0: 1e77 023e b7d3 38be 6801 e1be b30a f4bb
00000200: f068 183e 30ee d13e 2aa1 87be 9cd2 9d3e
00000210: 4130 ac3e 9ac4 663e 8c48 913e bc92 a13e
00000220: ae44 fe3e fffc e83d 9290 56be 48dd 9fbe
00000230: 0660 7ebe c785 b53c 1c76 8abe 21a5 283e
00000240: 2854 2f3d b0c0 70bd 39e4 d93d 3d79 913d
00000250: ea80 073e d488 dc3d 1b48 dabb a79f bb3e
00000260: 2c0e 82bd e101 e3bc 0569 b5be 0bbf 5bbe
00000270: fb4b 51be d1e1 edbd 4174 673e 3dfb eebd
00000280: 134b f2be b66e 653d 7dbf e83d eb5c 023f
00000290: e6df 5bbe 3eec 283e 3925 36be e5ed b33c
000002a0: b1fe 5cbe 67f5 84be 5548 81be dbf3 003e
000002b0: fbfc b8bb 1acb f83c 79d8 e03e 173a a53e
000002c0: e756 8c3e a104 963d 88d9 ecbe 6f25 303e
000002d0: e584 47bb a350 9d3d 8422 ccbe 890b 55be
000002e0: 3277 9fbe 966a 403e 9e6b aebe d35d afbe
000002f0: 0547 f4bc 18df 86be ca78 f23c defb a1bd
00000300: c5cc b0be 2df3 923c d362 8c3e 8d87 44be
00000310: 5a11 5d3e ebf4 cb3d 9502 bd3e 02e0 a1be
00000320: a33d 0abc 8719 b5be a0f2 813e 2567 163c
00000330: 1838 b8bb 2867 96be 758e 3bbd d707 4a3d
00000340: b27c 883c d12c f33d 0fc7 0e3d 1e89 e83c
00000350: 8e9d 86be 63cb 943e 3e25 a53e f352 da3e
00000360: c6ea 813c f818 78be 0bf6 aabd a50e 383d
00000370: 33c7 24bd 5d27 8f3b c14e 71bd 58fa 7fbe
00000380: a871 b83e 7da1 87be c130 c23b 3401 9b3e
00000390: f2b4 ff3e ea01 823e 3e72 3fbd 0576 e2be
000003a0: 5344 4b3e 7538 463d c688 d5bd b5f8 ff3c
000003b0: fd3d c3be f240 3a3e 6a61 7c3e aefe a7be
000003c0: 61df edbe 6b2e 8dbe fce9 a63d a65f c13d
000003d0: 2057 4cbe 0d4f 973e e22e b7be fb50 1cbe
000003e0: 2c03 0fbe 3a84 9d3e 2fba a03e 3508 8e3c
000003f0: da0b 8b3d 8d70 cf3d 7936 c03d b7d3 a1bc

layer1.bias f4 [128]
-0.022760132 -0.06594348 0.14248754 -0.10837891 -0.32193145 0.15337841 -0.17533714 -0.12165197
0.34346062 0.15486397 0.12157858 -0.015497811 -0.28431556 0.15254457 -0.2622572 0.022324886
-0.34033036 0.16191341 -0.17709918 0.33045456 0.17066316 0.3533023 0.021205962 0.0066504152
0.15787445 -0.21940055 -0.16932379 -0.43923315 0.42209616 -0.017497266 0.12751691 0.03400128
0.15776463 -0.25941083 -0.20242621 0.2742573 0.17264219 -0.02348225 -0.26087293 -0.09391294
-0.2353917 0.016957844 -0.2742362 -0.2916657 -0.4091775 0.042566992 0.082481325 0.36858207
-0.3329854 -0.11079083 -0.19672182 -0.25895825 -0.0043462776 0.38962385 0.06483758 -0.10158802
0.26393872 -0.35696045 0.008835023 0.2620124 0.27200782 0.07232815 -0.18359616 -0.4350264
-0.156093 0.17901264 0.26091346 0.033354938 -0.30662987 -0.037889432 0.11761965 0.013292849
-0.16711879 0.055867378 0.03338274 0.06784447 -0.035174277 0.1978745 -0.37972438 -0.13005967
-0.00545589 0.21770918 0.15041596 0.13986655 0.3782642 0.10769218 -0.3721024 0.14035961
-0.22453229 -0.006942148 0.05664223 0.3446671 -0.13171746 -0.19777401 -0.12558544 -0.08021037
0.35185263 0.21426417 0.19483684 0.09821767 -0.08736165 -0.06527863 -0.2709657 0.11495904
-0.22988652 0.059557114 0.16248706 0.25709942 -0.36452812 0.40796137 -0.12638281 -0.047677938
0.3245481 0.3055309 -0.27420676 0.25619888 -0.3402033 0.28813502 0.40713876 0.023914685
0.03651422 -0.0038793818 -0.28492606 -0.2878251 -0.061892733 -0.37950388 -0.30613244 -0.102691926
00000000: 7573 babc 600d 87bd 41e8 113e c3f5 ddbd
00000010: 33d4 a4be 3b0f 1d3e 948b 33be ab24 f9bd
00000020: 12da af3e a994 1e3e 31fe f83d 88ea 7dbc
00000030: cf91 91be a534 1c3e 9346 86be aee2 b63c
00000040: c83f aebe a1cc 253e 7d59 35be 5731 a93e
00000050: 53c2 2e3e 0ae4 b43e 20b8 ad3c baeb d93b
00000060: d7a9 213e 8aaa 60be 3763 2dbe 2be3 e0be
00000070: fd1c d83e 6d56 8fbc cb93 023e ed44 0b3d
00000080: 0d8d 213e 7fd1 84be d148 4fbe 746b 8c3e
00000090: 1dc9 303e d95d c0bc 2391 85be 6d55 c0bd
000000a0: 860a 71be 2deb 8a3c b068 8cbe 3555 95be
000000b0: b77f d1be ba5a 2e3d f8eb a83d cab6 bc3e
000000c0: 107d aabe 4de6 e2bd 7271 49be 2d96 84be
000000d0: 386b 8ebb c77c c73e 91c9 843d 610d d0bd
000000e0: fa22 873e 85c3 b6be c6c0 103c 7d26 863e
000000f0: 9c44 8b3e c820 943d a200 3cbe c8bb debe
00000100: d8d6 1fbe 174f 373e 7396 853e 309f 083d
00000110: 97fe 9cbe f331 1bbd 92e2 f03d 40ca 593c
00000120: 3021 2bbe 31d5 643d 57bc 083d 0bf2 8a3d
00000130: e712 10bd 9d9f 4a3e 3c6b c2be 5d2e 05be
00000140: 53c7 b2bb 28ef 5e3e a406 1a3e 2d39 0f3e
00000150: d8ab c13e b88d dc3d 3584 bebe 6eba 0f3e
00000160: cbeb 65be f57a e3bb af01 683d 3578 b03e
00000170: f1e0 06be 4585 4abe 7899 00be 5645 a4bd
00000180: 0726 b43e 1168 5b3e 4f83 473e 5926 c93d
00000190: aaea b2bd cdb0 85bd 04bc 8abe a56f eb3d
000001a0: 5f67 6bbe 29f2 733d 0263 263e 89a2 833e
000001b0: 6ea3 babe 50e0 d03e 7f6a 01be f149 43bd
000001c0: 2b2b a63e 8c6e 9c3e d464 8cbe 802c 833e
000001d0: 202f aebe 6f86 933e 7e74 d03e bbe8 c33c
000001e0: ef8f 153d 3a3d 7ebb d4e1 91be d05d 93be
000001f0: 3c83 7dbd 554e c2be 64bd 9cbe 2550 d2bd

layer2.weight f4 [128, 128]
-0.04286938 -0.043007344 -0.044490308 0.012519393 0.09859972 0.004415119 -0.038650785 0.020480826
-0.11645613 0.08254167 0.08547183 -0.042960647 -0.058299035 0.13327433 -0.11342464 0.059410073
-0.057831157 -0.13057268 0.03823758 -0.09598884 0.09237066 0.0038054788 -0.07563718 -0.08869339
0.06482732 0.11750343 0.0037128464 -0.059775457 -0.11499186 0.05555898 -0.015088569 0.055392217
0.07439822 0.07902098 0.021176012 0.030636568 0.06552834 -0.006870649 0.07556989 0.017174507
-0.0012694472 -0.051265627 0.008021577 0.07892203 0.081556566 -0.00855084 -0.03591866 0.06574839
0.06464071 0.18030694 0.026370404 -0.022191161 -0.025340488 -0.05831901 0.014317099 0.008709321
-0.061929297 -0.06429914 0.038291737 0.020532897 -0.1462364 0.025983715 0.053009205 0.051770788
0.11230008 -0.045075886 0.09324228 -0.0996509 -0.013209772 -0.058470637 -0.018975057 0.09998502
0.094264954 0.004881925 -0.034243174 -0.03794633 0.0012671294 -0.019630902 0.059133045 0.052895218
0.08272071 -0.0492746 0.08126009 -0.017143013 -0.029095344 -0.043442942 -0.0060803983 -0.051083572
-0.011473065 -0.081369154 0.04285331 -0.07440595 -0.015389774 -0.05884115 0.012127646 0.074778065
-0.07141996 -0.08592054 0.07224066 0.0652619 0.0687643 -0.06875473 0.06988908 0.06609745
0.041778427 -0.0081353085 0.09490083 0.041846212 0.037571542 -0.02103159 -0.04636352 -0.052487746
0.11414944 0.036812276 0.058827262 0.06958946 -0.07618989 0.027713958 -0.050416403 0.0026933216
0.025089117 0.0019412678 -0.022196043 -0.029166594 -0.11532875 -0.07198625 0.06540708 -0.06586597
-0.019508224 -0.011548296 0.023198178 -0.02539528 0.04929439 -0.021305667 0.057456132 -0.01188805
0.0043723234 -0.005922521 0.1040633 0.014173645 0.041412458 -0.032805786 0.012307643 0.11509731
-0.10364984 -0.019648785 0.06611088 -0.047384202 -0.032250583 -0.012044196 0.020179199 0.056261998
-0.016728276 0.042486835 -0.069538176 0.030208616 -0.058307856 0.055314213 -0.055065747 -0.084650695
-0.0041124835 0.043133635 -0.0037112662 0.03682789 0.0012835513 0.055362564 -0.010045782 -0.13005301
-0.06349316 0.032727513 -0.011944209 0.07235593 -0.049806885 0.07286636 -0.047706936 -0.05338873
-0.020407997 -0.09163931 -0.016459003 0.01772512 -0.12470285 0.09352354 -0.0815553 0.05174524
0.03838766 0.0016838125 -0.06075359 0.0046241367 -0.04499564 0.0843994 -0.0785944 -0.03758332
-0.025491318 -0.06463927 -0.04058645 0.017043674 -0.022022381 0.005747475 0.08236138 -0.0064768414
-0.06343517 -0.04271497 0.10167676 -0.018535683 -0.088098645 0.05427556 -0.007341281 0.018968329
0.004124355 0.1252468 -0.06453625 0.028211458 0.15030286 0.013704152 0.04433215 0.070024356
0.11358779 -0.03097007 -0.09799554 -0.050870787 -0.09586522 0.011865533 0.06865175 0.070836864
0.027776122 0.011762879 0.036554307 0.06482017 0.06962187 0.007684705 -0.014618278 0.021529088
-0.0026348578 -0.033696838 -0.017584804 0.09091076 0.062892884 -0.03319561 -0.032817334 -0.0639338
0.009974287 0.06545073 -0.07937067 0.079182856 -0.08100794 -0.09252012 -0.015326465 -0.00030065063
-0.012548782 -0.04128131 -0.052549414 -0.07506971 -0.065017775 -0.069228604 0.06285175 -0.07488813
00000000: ce97 2fbd 7828 30bd 783b 36bd 241e 4d3c
00000010: a6ee c93d b4ac 903b 4950 1ebd 68c7 a73c
00000020: 8d80 eebd 9b0b a93d db0b af3d 81f7 2fbd
00000030: f8ca 6ebd 1179 083e 2d4b e8bd fa57 733d
00000040: 5de0 6cbd d8b4 05be 029f 1c3d cc95 c4bd
00000050: d42c bd3d 5765 793b aae7 9abd e1a4 b5bd
00000060: 30c4 843d a3a5 f03d 3a53 733b 1cd7 74bd
00000070: da80 ebbd d091 633d 0c36 77bc f3e2 623d
00000080: 185e 983d c0d5 a13d 5179 ad3c 8af9 fa3c
00000090: b933 863d 2e23 e1bb 63c4 9a3d 8db1 8c3c
000000a0: 9463 a6ba e8fb 51bd ef6c 033c e0a1 a13d
000000b0: 2107 a73d d318 0cbc 721f 13bd 18a7 863d
000000c0: 5962 843d 62a2 383e bf06 d83c 3dca b5bc
000000d0: db96 cfbc eadf 6ebd 4492 6a3c 8ab1 0e3c
000000e0: 93a9 7dbd 44af 83bd ccd7 1c3d 9b34 a83c
000000f0: ffbe 15be cddb d43c 2e20 593d 9b0d 543d
00000100: 96fd e53d 7ea1 38bd cff5 be3d c515 ccbd
00000110: cd6d 58bc e87e 6fbd 9471 9bbc f2c4 cc3d
00000120: fc0d c13d 8ef8 9f3b 9242 0cbd 9c6d 1bbd
00000130: cf15 a63a fcd0 a0bc 7e35 723d a8a8 583d
00000140: 7a69 a93d 2ad4 49bd b16b a63d 816f 8cbc
00000150: 5c59 eebc 3af1 31bd 143e c7bb 023d 51bd
00000160: 86f9 3bbc dfa4 a6bd f486 2f3d 2662 98bd
00000170: 6425 7cbc 6b03 71bd 09b3 463c 3e25 993d
00000180: a144 92bd 1cf7 afbd e9f2 933d 08a8 853d
00000190: 4cd4 8c3d 48cf 8cbd 0222 8f3d 1a5e 873d
000001a0: db1f 2b3d f549 05bc 5e5b c23d ef66 2b3d
000001b0: 9ee4 193d 714a acbc ade7 3dbd 64fd 56bd
000001c0: 2ec7 e93d 78c8 163d dbf4 703d eb84 8e3d
000001d0: 7209 9cbd 6208 e33c 6e81 4ebd 7082 303b
000001e0: b187 cd3c 2372 fe3a 7ad4 b5bc c8ee eebc
000001f0: 7b31 ecbd 876d 93bd 26f4 853d bde4 86bd
00000200: b6cf 9fbc 1035 3dbc 1b0a be3c c309 d0bc
00000210: eae8 493d 3989 aebc 1f57 6b3d 18c6 42bc
00000220: b545 8f3b b511 c2bb 241f d53d 9338 683c
00000230: 1ca0 293d 5c5f 06bd ffa5 493c 23b8 eb3d
00000240: 5e46 d4bd 7df6 a0bc 2465 873d f015 42bd
00000250: 3019 04bd 0555 45bc d94e a53c fb72 663d
00000260: bd09 89bc ad06 2e3d 086a 8ebd 0f78 f73c
00000270: 38d4 6ebd 2891 623d 9f8c 61bd 585d adbd
00000280: 03c2 86bb e5ac 303d b738 73bb d7d8 163d
00000290: d63c a83a dbc3 623d 1097 24bc 9e2c 05be
000002a0: b408 82bd 490d 063d a5b1 43bc 592f 943d
000002b0: 4e02 4cbd f53a 953d 5968 43bd 24ae 5abd
000002c0: ac2e a7bc 64ad bbbd 08d5 86bc 4534 913c
000002d0: 3564 ffbd 4589 bf3d 7706 a7bd d1f2 533d
000002e0: 613c 1d3d 5fb3 dc3a c2d8 78bd 1286 973b
000002f0: 594d 38bd 98d9 ac3d 1af6 a0bd f8f0 19bd
00000300: 2bd3 d0bc 9861 84bd fa3d 26bd 2d9f 8b3c
00000310: 4868 b4bc 5155 bc3b 15ad a83d af3b d4bb
00000320: 4cea 81bd e4f5 2ebd e83b d03d 25d8 97bc
00000330: 106d b4bd 0d50 5e3d 218f f0bb 7863 9b3c
00000340: 9925 873b b240 003e 952b 84bd b71b e73c
00000350: fee8 193e 6187 603c a195 353d ee68 8f3d
00000360: b7a0 e83d f2b4 fdbc e3b1 c8bd e35d 50bd
00000370: fc54 c4bd a767 423c 4a99 8c3d eb12 913d
00000380: c08a e33c 17b9 403c f8b9 153d 70c0 843d
00000390: e995 8e3d facf fb3b 8081 6fbc c55d b03c
000003a0: 94ad 2cbb b205 0abd 020e 90bc 6c2f ba3d
000003b0: fccd 803d 1ff8 07bd 786b 06bd b9ef 82bd
000003c0: 316b 233c 080b 863d 178d a2bd 9f2a a23d
000003d0: 7ee7 a5bd 307b bdbd da1b 7bbc a5a0 9db9
000003e0: 6899 4dbc 9716 29bd 0e3e 57bd 26be 99bd
000003f0: 0a28 85bd bac7 8dbd 6bb8 803d f35e 99bd

layer2.bias f4 [128]
-0.032426063 -0.042342626 -0.02595681 0.009475267 -0.12590647 0.064143956 -0.059638347 0.17435007
-0.024941247 0.003954565 0.038809676 0.09842442 -0.027812839 -0.23797378 0.026483921 -0.026289484
-0.08847404 -0.01249281 -0.018060744 0.102896824 0.13453235 0.06881702 0.04535811 0.012732749
0.084583215 -0.14350535 -0.015844181 0.00088581746 0.038046524 0.03803022 0.16040315 -0.10591437
-0.05835992 0.051200163 0.0067820917 0.057894405 0.14448431 0.007013752 -0.063538074 -0.027975589
-0.14474472 0.08341954 0.026668105 -0.104801096 0.05434458 0.09924985 0.14421397 -0.077385284
0.1239153 0.02430365 0.03457515 -0.0422056 0.08875158 0.084679 -0.0027557472 -0.08611541
0.06790668 -0.15668306 0.070779264 0.08509917 0.030771976 0.043157384 -0.08746272 0.022038985
0.0064451606 -0.074121475 0.012593293 -0.022990735 0.008745219 0.014554437 -0.0340234 -0.043936905
0.15122667 0.10841303 -0.020473726 -0.04646773 0.01957377 -0.14288078 -0.047505498 -0.092617705
0.033328794 -0.021417474 0.08432145 -0.08303682 -0.07697506 -0.020534582 -0.10454516 -0.1505453
-0.06087596 -0.0072069583 0.048032135 0.11061182 0.0005955816 0.18255544 0.10226077 0.0020559144
-0.084542364 -0.023197636 0.008202792 0.0071290815 0.074972644 0.14334536 -0.03503103 0.08946652
0.06806308 0.100487106 -0.031773504 0.01628539 0.10052592 -0.14786805 -0.049827036 -0.058538225
0.08983382 0.010163641 0.013770513 0.022475544 0.081114635 -0.07303681 -0.13024905 -0.0318697
-0.031386927 -0.055090617 -0.02432509 0.002278265 -0.15516065 -0.18973024 0.012388508 -0.06298747
00000000: 31d1 04bd 766f 2dbd 60a3 d4bc 263e 1b3c
00000010: a0ed 00be e85d 833d 5747 74bd d388 323e
00000020: 9651 ccbc 4c95 813b e5f6 1e3d be92 c93d
00000030: c0d7 e3bc 66af 73be cff4 d83c 0b5d d7bc
00000040: e131 b5bd a5ae 4cbc 20f4 93bc 92bb d23d
00000050: d9c2 093e f0ef 8c3d 6dc9 393d 059d 503c
00000060: f739 ad3d 11f3 12be a8cb 81bc 3436 683a
00000070: acd6 1b3d 93c5 1b3d b940 243e a2e9 d8bd
00000080: d00a 6fbd 43b7 513d 4f3c de3b af22 6d3d
00000090: b2f3 133e 9ed3 e53b 4020 82bd 102d e5bc
000000a0: f637 14be ddd7 aa3d 1277 da3c f5a1 d6bd
000000b0: 6c98 5e3d 8143 cb3d d4ac 133e 2d7c 9ebd
000000c0: 4ec7 fd3d 7318 c73c ac9e 0d3d c7df 2cbd
000000d0: 63c3 b53d 2f6c ad3d c499 34bb 475d b0bd
000000e0: a812 8b3d 8671 20be b8f4 903d 7948 ae3d
000000f0: 8315 fc3c ccc5 303d a81f b3bd 1a8b b43c
00000100: ed31 d33b 00cd 97bd 1954 4e3c 1157 bcbc
00000110: 1b48 0f3c bc75 6e3c 1f5c 0bbd 2ff7 33bd
00000120: 2adb 1a3e a707 de3d 84b8 a7bc f254 3ebd
00000130: 2c59 a03c 574f 12be 2095 42bd 5aae bdbd
00000140: c683 083d b373 afbc b9b0 ac3d 350f aabd
00000150: 1aa5 9dbd 2438 a8bc c61b d6bd 8c28 1abe
00000160: 1259 79bd 5928 ecbb 58bd 443d 7388 e23d
00000170: ce20 1c3a d0ef 3a3e 186e d13d 85bc 063b
00000180: 8c24 adbd f808 bebc 0165 063c 129b e93b
00000190: 428b 993d 20c9 123e b37c 0fbd 393a b73d
000001a0: a864 8b3d 2fcc cd3d ef24 02bd f068 853c
000001b0: 89e0 cd3d b96a 17be 6f17 4cbd c7c5 6fbd
000001c0: cbfa b73d 6685 263c b89d 613c a21e b83c
000001d0: 6e1f a63d 5394 95bd 0260 05be cd89 02bd
000001e0: 948f 00bd b3a6 61bd 6945 c7bc f24e 153b
000001f0: 6fe2 1ebe a548 42be 2bf9 4a3c 93ff 80bd

layer3.weight f4 [128, 128]
-0.07408143 0.07681859 0.033414654 -0.006556776 -0.061404053 -0.059425987 -0.057121366 0.064896576
0.06558154 0.075577475 0.028722944 0.01445844 -0.04606235 -0.050281428 0.07844916 0.08065112
0.099359415 0.009933389 0.061350025 0.005508694 -0.011324727 -0.014268841 -0.052575123 -0.08152685
-0.04301608 -0.036342204 0.07643579 -0.055027068 -0.020478347 0.024494905 0.02151392 0.015083556
0.051943973 -0.07884916 0.007986685 -0.10499408 0.0004742674 0.06970503 0.0575831 0.028959034
-0.08560198 0.01831138 0.0014898897 -0.09682562 -0.09758566 -0.056240506 0.03527939 0.055918183
-0.11020544 -0.04739028 0.032107506 -0.04592686 0.07433194 0.04541739 -0.02607573 0.111720964
-0.013118786 -0.026288144 -0.0050835684 -0.056665678 0.057812143 -0.066750266 0.06985507 -0.0313388
-0.0011043437 -0.17259692 -0.051314063 0.02533761 -0.1091047 0.05830804 -0.031682685 -0.055595398
0.06437127 0.015207862 0.020282645 -0.021091951 0.015847653 0.033886146 -0.0767792 -0.06281232
-0.08335586 -0.00875609 0.048404362 -0.07922137 0.02008949 -0.05630627 0.020340694 0.081807345
-0.024567682 0.052357122 0.022061938 0.026249345 0.02143675 -0.054684658 0.05202304 0.05113056
0.089746505 0.024711493 -0.04175762 -0.027855653 0.060596332 -0.0015699075 -0.014349383 0.04727595
-0.011764356 0.13501677 0.0461827 -0.07219398 0.07257549 0.032800507 -0.09243433 -0.04957158
0.028714659 0.034451485 0.089031704 0.016223684 0.06842172 -0.06894025 0.07544835 0.04310953
0.029242756 -0.06740509 -0.11143022 -0.032573245 0.04255446 0.0031755194 0.012261441 0.0016884614
0.10932751 0.042072322 -0.055569597 0.02518455 -0.0017075351 -0.007607406 -0.1219291 0.12422285
0.026866812 -0.02672157 -0.089588985 0.031823847 -0.024095442 -0.042630017 0.0075418213 0.007274981
0.02757487 -0.11908677 -0.04370497 -0.009932993 0.09095154 -0.033521727 -0.027644042 0.023321766
0.0028346507 -0.072651595 0.0066641774 0.045405325 0.024959937 -0.024670506 0.05932349 -0.040072322
0.08313684 0.05368907 0.08060604 0.021653336 0.047862798 -0.043694448 -0.0016434342 0.025860496
-0.08765261 -0.034827907 -0.016904319 0.12040089 0.056080148 0.0020717403 -0.02032899 -0.07776822
0.13420472 0.01868244 -0.028746644 -0.05472256 -0.014505448 0.054139797 0.05348557 -0.11684653
-0.025524719 -0.028490938 0.12888406 -0.024528217 -0.03064629 0.062105887 -0.026367754 -0.08257062
0.032387894 0.13108023 -0.09386479 0.08000982 0.014154935 0.10412782 0.02192917 -0.000922388
-0.045284018 0.09158207 -0.020653486 0.016226778 0.0569723 -0.040347964 -0.01810829 0.10455755
0.10648514 0.052788977 -0.06359716 -0.019603314 -0.02379513 0.0013567745 -0.054069422 0.028936865
-0.0858034 -0.060438678 -0.0019865362 0.028718444 0.030770635 -0.0015991867 0.0047492054 -0.16111799
0.08715932 0.10928246 -0.07464979 -0.11538003 -0.106118776 -0.07957667 0.027768362 -0.08654534
-0.12774757 -0.042193014 -0.010251704 -0.03819204 0.053388607 -0.07236149 -0.032510594 -0.05023991
0.07008642 -0.010810997 -0.03961356 -0.010449891 -0.014661749 0.057650063 -0.04538031 -0.047503475
-0.04760485 -0.08971482 0.09510213 -0.020207878 -0.017164933 0.033687957 -0.0031888844 0.092540294
00000000: 01b8 97bd 1153 9d3d cedd 083d 39da d6bb
00000010: d182 7bbd aa68 73bd 18f8 69bd 7fe8 843d
00000020: 9d4f 863d 5dc8 9a3d 614c eb3c 18e3 6c3c
00000030: e0ab 3cbd e6f3 4dbd f4a9 a03d 6a2c a53d
00000040: f37c cb3d a7bf 223c 2a4a 7b3d 4682 b43b
00000050: 598b 39bc dbc7 69bc 0359 57bd 8df7 a6bd
00000060: a131 30bd 90db 14bd 5e8a 9c3d 1064 61bd
00000070: 35c2 a7bc 8aa9 c83c f63d b03c 0521 773c
00000080: 34c3 543d ab7b a1bd 96da 023c 2307 d7bd
00000090: 18a7 f839 83c1 8e3d 42dc 6b3d 7f3b ed3c
000000a0: 1750 afbd bf01 963c 6748 c33a 834c c6bd
000000b0: feda c7bd 725c 66bd 1f81 103d 770a 653d
000000c0: 64b3 e1bd 4f1c 42bd 2983 033d ce1d 3cbd
000000d0: 583b 983d 9607 3a3d c59c d5bc f6cd e43d
000000e0: 2df0 56bc 3c5a d7bc 1094 a6bb 451a 68bd
000000f0: 6dcc 6c3d 5db4 88bd 2d10 8f3d 1d5d 00bd
00000100: a0bf 90ba 3fbd 30be b22e 52bd d290 cf3c
00000110: 4972 dfbd 69d4 6e3d b4c5 01bd 00b8 63bd
00000120: 16d5 833d 652a 793c ca27 a63c 07c9 acbc
00000130: f0d2 813c 33cc 0a3d 6a3e 9dbd bfa3 80bd
00000140: 7ab6 aabd b475 0fbc a743 463d d03e a2bd
00000150: b792 a43c 67a1 66bd 87a1 a63c 9c8a a73d
00000160: 2a42 c9bc 6c74 563d 3dbb b43c de08 d73c
00000170: 209c af3c 05fd 5fbd 1c16 553d 476e 513d
00000180: 04cd b73d c26f ca3c 0a0a 2bbd 8a31 e4bc
00000190: dc33 783d 5bc5 cdba ad19 6bbc 6da4 413d
000001a0: 49bf 40bc d641 0a3e 122a 3d3d 70da 93bd
000001b0: 75a2 943d d359 063d 364e bdbd 920b 4bbd
000001c0: 013b eb3c 001d 0d3d 4156 b63d 88e7 843c
000001d0: b020 8c3d 8c30 8dbd aa84 9a3d 9e93 303d
000001e0: 818e ef3c ae0b 8abd 8735 e4bd 866b 05bd
000001f0: 964d 2e3d 601c 503b 36e4 483c 5d4f dd3a
00000200: 1ae7 df3d 0754 2c3d f29c 63bd d44f ce3c
00000210: 5fcf dfba 8c47 f9bb f7b5 f9bd 8d68 fe3d
00000220: ca17 dc3c 32e7 dabc 6e7a b7bd b959 023d
00000230: ce63 c5bc d09c 2ebd 6221 f73b f762 ee3b
00000240: b2e4 e13c c4e3 f3bd fc03 33bd febd 22bc
00000250: cd44 ba3d 144e 09bd c275 e2bc 4a0d bf3c
00000260: 8cc5 393b 5cca 94bd 2c5f da3b effa 393d
00000270: c878 cc3c cd19 cabc 30fd 723d e022 24bd
00000280: a643 aa3d 12e9 5b3d c814 a53d 5662 b13c
00000290: c80b 443d f3f8 32bd 8068 d7ba 64d9 d33c
000002a0: 3683 b3bd b5a7 0ebd ed7a 8abc be94 f63d
000002b0: 4cb4 653d 09c6 073b fb88 a6bc f244 9fbd
000002c0: f66c 093e eb0b 993c 157e ebbc c324 60bd
000002d0: 42a8 6dbc b1c1 5d3d af13 5b3d 3c4d efbd
000002e0: 3719 d1bc d465 e9bc 2ffa 033e 66ef c8bc
000002f0: ee0d fbbc be62 7e3d 3001 d8bc c91a a9bd
00000300: 2ba9 043d e539 063e 2f3c c0bd 30dc a33d
00000310: 1aea 673c f740 d53d cda4 b33c 69cc 71ba
00000320: bc7b 39bd 618f bb3d 8031 a9bc 05ee 843c
00000330: c95b 693d e843 25bd d657 94bc 4522 d63d
00000340: e214 da3d 4139 583d 3a3f 82bd 2197 a0bc
00000350: 01ee c2bc ccd5 b13a e677 5dbd 010d ed3c
00000360: b1b9 afbd 8c8e 77bd 8c30 02bb f142 eb3c
00000370: b312 fc3c cd9b d1ba 399f 9b3b 1dfc 24be
00000380: 9680 b23d 7bcf df3d fde1 98bd 5d4c ecbd
00000390: cd54 d9bd 18f9 a2bd 7a7a e33c af3e b1bd
000003a0: 42d0 02be 95d2 2cbd c3f6 27bc 426f 1cbd
000003b0: 03ae 5a3d 4332 94bd d429 05bd 5dc8 4dbd
000003c0: 7889 8f3d 9c20 31bc d441 22bd 0536 2bbc
000003d0: d537 70bc 7922 6c3d b4e0 39bd 0193 42bd
000003e0: 4efd 42bd 67bc b7bd e8c4 c23d fe8a a5bc
000003f0: 799d 8cbc 62fc 093d 9afc 50bb c485 bd3d

layer3.bias f4 [128]
0.040082697 0.04620858 -0.0031634911 -0.050647 0.011140392 0.19888572 -0.012411662 0.10574721
0.053484026 -0.12427629 -0.08811069 -0.014283001 0.03057214 0.053164493 0.05263276 0.053795543
-0.017988726 -0.08136719 0.058573194 -0.07815884 -0.07523626 -0.08607224 0.051239107 -0.07109974
0.16007116 -0.17301948 -0.06957953 0.21638004 0.16062005 -0.10813924 0.15819032 0.04445428
0.026517166 -0.15613529 -0.107562594 0.012058747 -0.11113483 0.07383769 -0.06826047 0.16927363
0.08406361 -0.071288615 -0.109010816 0.15563273 -0.13804193 -0.054820213 0.19181688 0.019746656
0.061759055 0.06680073 0.069145456 0.072180584 0.12968154 -0.10936474 0.15617265 0.034721095
0.08789964 0.11990862 0.19266999 -0.104196034 -0.054940965 0.10551308 0.07306711 -0.052094985
-0.077908546 0.0826853 0.101156056 -0.11663342 -0.06630911 0.0633766 -0.013239995 -0.04366824
0.06631178 0.0630803 -0.12616208 -0.08655409 0.081921086 0.047607858 0.065244995 0.06741263
0.22723141 0.01241945 -0.055501334 -0.06429897 -0.10516145 0.07319497 0.18220206 -0.056231417
0.11936128 0.08518555 0.10410628 0.11671423 -0.12080253 0.006844157 -0.13033225 -0.03759107
0.16045243 -0.1677845 0.0891501 -0.10915424 -0.1885817 0.050224196 0.039711583 0.005916948
0.14511788 0.044743594 0.19155426 0.0028991448 0.14243692 -0.13775651 0.13384688 -0.04085541
-0.046190366 -0.11134096 -0.09138539 -0.16795485 -0.13118447 -0.03151184 -0.04410689 -0.049824346
0.09369586 -0.011211366 -0.0077806665 -0.008425025 -0.03566053 -0.09048049 -0.09232775 0.09291026
00000000: c12d 243d 3545 3d3d 9352 4fbb 3b73 4fbd
00000010: 3186 363c b3a8 4b3e 495a 4bbc fe91 d83d
00000020: 1112 5b3d 9184 febd 6173 b4bd 4003 6abc
00000030: 6d72 fa3c 03c3 593d 7395 573d b758 5c3d
00000040: 185d 93bc d7a3 a6bd 72ea 6f3d be11 a0bd
00000050: 7815 9abd a446 b0bd 19e0 513d be9c 91bd
00000060: b2e9 233e 052c 31be b67f 8ebd bb92 5d3e
00000070: 9579 243e 1b78 ddbd a5fc 213e b115 363d
00000080: 873a d93c eee1 1fbe c749 dcbd 0d92 453c
00000090: a89a e3bd 3738 973d 25cc 8bbd 1156 2d3e
000000a0: 8b29 ac3d c4ff 91bd 1041 dfbd 305e 1f3e
000000b0: dd5a 0dbe 298b 60bd a56b 443e bdc3 a13c
000000c0: 10f7 7c3d d2ce 883d 229c 8d3d 6ad3 933d
000000d0: 3dcb 043e 9ffa dfbd b9eb 1f3e b537 0e3d
000000e0: ba04 b43d a792 f53d 484b 453e bb64 d5bd
000000f0: c709 61bd 3e17 d83d 35a4 953d 8d61 55bd
00000100: 848e 9fbd e956 a93d e82a cf3d 81dd eebd
00000110: 12cd 87bd 97cb 813d 90ec 58bc 78dd 32bd
00000120: 78ce 873d 3f30 813d a230 01be 4543 b1bd
00000130: 3ec6 a73d 7500 433d 2b9f 853d a20f 8a3d
00000140: 5aaf 683e f37a 4b3c 5e55 63bd 2eaf 83bd
00000150: e35e d7bd 3fe7 953d 2d93 3a3e ea52 66bd
00000160: b073 f43d c375 ae3d ac35 d53d df07 ef3d
00000170: 5167 f7bd f344 e03b d175 05be 18f9 19bd
00000180: a44d 243e b3cf 2bbe 5494 b63d 428c dfbd
00000190: 901b 41be e3b7 4d3d 9da8 223d f5e2 c13b
000001a0: c899 143e 0f45 373d cd26 443e 94ff 3d3b
000001b0: fcda 113e 0b10 0dbe 280f 093e 0158 27bd
000001c0: 1c32 3dbd bb06 e4bd 4328 bbbd 5bfc 2bbe
000001d0: 3955 06be 8f12 01bd 6da9 34bd 9d14 4cbd
000001e0: 9de3 bf3d e1af 37bc f6f4 febb 1e09 0abc
000001f0: c710 12bd d64d b9bd 5516 bdbd bc47 be3d

layer4.weight f4 [128, 128]
-0.072545364 0.09356053 0.0776667 0.053532287 0.009465411 -0.054141227 -0.07650404 -0.08233449
0.021500789 0.03892122 -0.05021324 -0.0013835579 -0.036178008 0.0021904423 -0.01875171 -0.03822642
0.049592447 0.007872773 0.0023283444 0.025024902 0.008373677 -0.035664786 -0.012251855 -0.06911215
0.045025256 -0.011814479 0.055461686 -0.027008563 0.05538895 0.07832902 -0.05796322 0.04152372
-0.00065966323 -0.031444807 -0.031004233 -0.040076755 -0.032508653 0.0839083 -0.050229173 0.05298544
-0.019276956 0.019647427 -0.06685077 -0.06666512 0.091267206 -0.041022275 0.034963883 0.051204145
0.032803018 0.019668609 -0.0005244356 0.018430442 -0.073467515 -0.07777864 0.047289316 0.055586543
-0.036164626 -0.044591647 0.09935958 -0.024081865 -0.040449265 -0.008590504 -0.038823746 -0.00240279
-0.08311302 -0.05088028 0.002828435 0.0027505115 0.031743754 0.07611117 -0.058185045 0.029027618
-0.07071014 -0.017633595 -0.0054224012 -0.06696747 0.034858245 -0.039867464 -0.083693504 0.023134345
0.027381565 0.0107056135 -0.0085714655 0.057355065 0.02708513 -0.06449771 0.07891885 -0.06853447
0.07837822 -0.08561647 0.057679255 0.03779983 -0.061625935 0.028140418 0.055987384 -0.046107233
0.10132779 0.032773744 0.009899387 0.044003535 0.018439343 0.09461418 -0.007697492 -0.07683795
-0.053478222 0.014838914 0.06743829 -0.07896077 0.00468801 0.035703175 -0.01899426 -0.035854187
0.04530986 0.029137747 0.06953859 -0.055883456 -0.007489633 -0.042080354 -0.014867768 0.02130875
-0.03332261 0.047018208 0.061949287 -0.10008538 -0.061182406 -0.08118933 -0.061673623 0.03928197
-0.12207604 0.07443506 -0.09171418 -0.032868918 0.20511481 0.21349221 -0.014303145 0.24179773
0.05693213 0.08676653 -0.1598696 -0.05472904 0.12147513 0.01186821 0.091132745 -0.18494952
-0.1536858 0.007005776 -0.14838715 0.03792696 -0.018433783 -0.016225867 0.08139623 0.0532763
-0.14059359 -0.17251472 0.01709576 -0.1843031 0.17870548 0.16712053 0.030900905 -0.11142652
-0.09241163 -0.02750962 -0.15988474 0.15336815 -0.09319825 -0.0044596693 0.05813069 -0.11499775
0.105731465 -0.11110306 0.15176363 0.032315902 0.2783278 -0.10809126 0.1673237 0.09958902
0.15588646 0.057320487 -0.20156497 0.10046124 -0.10593898 -0.056869768 0.035445675 0.12389454
-0.22241718 -0.09860256 0.13730207 -0.08944114 -0.012223889 0.026633259 0.16413185 -0.02788024
-0.101941295 0.07919715 -0.16976812 -0.08413033 0.1422336 0.007316992 0.014961717 -0.0823255
0.12721857 -0.063455924 0.22438972 -0.047365915 -0.15634327 -0.03910294 0.11786936 -0.07914965
-0.0701275 0.1512336 -0.022045124 0.10205759 0.20641237 -0.08729638 0.24514696 -0.10234192
0.12397918 -0.002191863 0.07680269 -0.03361683 0.100329846 0.08673944 -0.0670468 0.032145325
0.091243014 -0.19570735 0.05969505 -0.030399503 -0.013809485 -0.06388261 0.056835264 -0.048986863
-0.0022711323 -0.004499709 0.09020826 -0.039227914 -0.2221344 -0.15094183 -0.12949768 -0.15949234
-0.086437754 0.028362323 0.01267548 -0.014264843 -0.2437128 -0.013208852 0.08828718 -0.0069615976
0.040871188 -0.079192586 0.005572514 0.25092536 -0.054157082 0.078081645 0.0346471 0.03489501
00000000: aa92 94bd aa9c bf3d b80f 9f3d ac44 5b3d
00000010: d014 1b3c 31c3 5dbd 26ae 9cbd fc9e a8bd
00000020: 6c22 b03c db6b 1f3d 66ac 4dbd 8058 b5ba
00000030: 642f 14bd 868d 0f3b 309d 99bc 4e93 1cbd
00000040: 7321 4b3d cefc 003c 2397 183b 0601 cd3c
00000050: bf31 093c 3d15 12bd 01bc 48bc ac8a 8dbd
00000060: 676c 383d 8491 41bc cb2b 633d 1041 ddbc
00000070: 86df 623d f76a a03d d76a 6dbd c714 2a3d
00000080: 40ed 2cba 45cc 00bd 97fc fdbc 8627 24bd
00000090: cb27 05bd 1dd8 ab3d 1bbd 4dbd 4307 593d
000000a0: b5ea 9dbc a4f3 a03c 0ee9 88bd b987 88bd
000000b0: 4dea ba3d f906 28bd 4a36 0f3d 70bb 513d
000000c0: 755c 063d 1020 a13c 477a 09ba 70fb 963c
000000d0: 2376 96bd 684a 9fbd 71b2 413d b7ae 633d
000000e0: 5c21 14bd bba5 36bd 097d cb3d 5547 c5bc
000000f0: 21ae 25bd 2fbf 0cbc a605 1fbd 2078 1dbb
00000100: 2937 aabd d767 50bd 445d 393b ed41 343b
00000110: bd05 023d 2ce0 9b3d 7153 6ebd 54cb ed3c
00000120: 7ad0 90bd 5474 90bc 66ae b1bb 3e26 89bd
00000130: 85c7 0e3d 114c 23bd 8067 abbd 3d84 bd3c
00000140: 4e4f e03c 9966 2f3c 556f 0cbc 25ed 6a3d
00000150: a2e1 dd3c 6017 84bd 35a0 a13d cd5b 8cbd
00000160: c384 a03d b057 afbd 1541 6c3d ffd3 1a3d
00000170: 7a6b 7cbd bc86 e63c 0753 653d f0da 3cbd
00000180: f284 cf3d c33d 063d 0a31 223c 0d3d 343d
00000190: 1b0e 973c 14c5 c13d 3e3b fcbb 375d 9dbd
000001a0: fb0b 5bbd eb1e 733c 161d 8a3d 2fb6 a1bd
000001b0: e19d 993b 7e3d 123d da99 9bbc d7db 12bd
000001c0: d596 393d 49b2 ee3c 406a 8e3d 0de6 64bd
000001d0: 986b f5bb 735c 2cbd f097 73bc b08f ae3c
000001e0: 4a7d 08bd 2a96 403d 89be 7d3d 90f9 ccbd
000001f0: 679a 7abd 9746 a6bd 7b9d 7cbd 22e6 203d
00000200: 0103 fabd 6971 983d a5d4 bbbd 8fa1 06bd
00000210: 9e09 523e b49d 5a3e bd57 6abc d399 773e
00000220: aa31 693d a7b2 b13d dbb4 23be 8f2b 60bd
00000230: f4c7 f83d e172 423c cea3 ba3d 6863 3dbe
00000240: cf5f 1dbe b590 e53b cdf2 17be 4d59 1b3d
00000250: 7202 97bc 1cec 84bc 11b3 a63d 4038 5a3d
00000260: c4f7 0fbe b3a7 30be 680c 8c3c f4b9 3cbe
00000270: 92fe 363e a521 2b3e e523 fd3c 9633 e4bd
00000280: 4f42 bdbd db5b e1bc d3b8 23be 8a0c 1d3e
00000290: b9de bebd 6b22 92bb 721a 6e3d f183 ebbd
000002a0: bd89 d83d 008a e3bd ed67 1b3e ae5d 043d
000002b0: fb80 8e3e f35e ddbd e756 2b3e 54f5 cb3d
000002c0: b3a0 1f3e e3c8 6a3d 0c67 4ebe 9fbe cd3d
000002d0: 89f6 d8bd 46f0 68bd 7c2f 113d 6cbc fd3d
000002e0: 54c1 63be 24f0 c9bd ea98 0c3e eb2c b7bd
000002f0: b546 48bc fe2d da3c 2e12 283e 1a65 e4bc
00000300: 99c6 d0bd 1e32 a23d b2d7 2dbe 864c acbd
00000310: afa5 113e 61c3 ef3b fd21 753c 469a a8bd
00000320: 9645 023e 2ef5 81bd 6bc6 653e c302 42bd
00000330: 7318 20be 682a 20bd 7e65 f13d 3619 a2bd
00000340: 029f 8fbd fbdc 1a3e fa97 b4bc 9203 d13d
00000350: c45d 533e 72c8 b2bd ce07 7b3e a498 d1bd
00000360: cce8 fd3d 5ca5 0fbb bb4a 9d3d cdb1 09bd
00000370: bc79 cd3d 73a4 b13d d54f 89bd d1aa 033d
00000380: 9edd ba3d 8267 48be cc82 743d 6108 f9bc
00000390: 2e41 62bc e3d4 82bd 18cc 683d 73a6 48bd
000003a0: 47d7 14bb 4b72 93bb 1cbf b83d 73ad 20bd
000003b0: 3377 63be 7f90 1abe 0a9b 04be f651 23be
000003c0: 4706 b1bd 1a58 e83c d1ac 4f3c 17b7 69bc
000003d0: d98f 79be f169 58bc e9cf b43d 1d1e e4bb
000003e0: 8c68 273d b92f a2bd a399 b63b 4a79 803e
000003f0: d1d3 5dbd 45e9 9f3d 1eea 0d3d 12ee 0e3d

layer4.bias f4 [128]
-0.004909054 0.2364684 -0.060612433 0.04819471 0.119082056 -0.004265046 0.0019355895 -0.19545147
-0.008205192 -0.035326395 -0.034606256 0.21502669 0.09392656 0.09753881 0.19133522 0.0583498
0.07779682 -0.072804056 0.11560344 0.036367808 -0.057419058 0.026769599 0.11032372 -0.07247396
-0.094256155 -0.200561 0.004684001 -0.12413565 0.06391679 -0.05831879 -0.076306276 -0.044701874
0.0064608175 0.15884931 0.0911523 0.040062517 0.21142808 -0.037564617 -0.06415842 0.20417911
-0.009229509 0.12584801 -0.047961526 0.082623295 -0.09470532 0.026948502 -0.074816205 -0.06190587
0.08885421 -0.12304339 0.14886585 0.14290005 -0.11772024 0.053203203 -0.13738148 0.09557826
-0.070040844 -0.015020882 0.2543945 0.035998475 0.0578289 0.0017313765 -0.030316487 -0.05853777
0.11722464 -0.10229344 0.055233702 0.11530015 0.035076965 0.08028742 -0.09036101 0.18260391
0.07453416 -0.12286907 -0.059662018 -0.025864748 0.11713318 0.08968891 -0.114380874 0.006419583
-0.04534511 -0.095536135 0.13109976 -0.023070052 0.03763613 0.013057756 0.31105468 -0.060652506
0.012717316 -0.061685976 0.05012933 -0.05260862 0.078501776 -0.04575399 -0.0020220166 0.0196081
0.11834844 -0.03222452 -0.05073623 0.048529126 0.0252315 0.046768762 0.11871215 -0.08599711
0.12935871 -0.03427068 -0.100702606 -0.09418983 0.113009885 0.1318293 0.04816304 -0.088182494
-0.04691823 0.108776145 0.013376026 -0.060305595 0.06781011 0.02487167 0.024020195 0.10483806
0.02506187 -0.013142284 0.029061036 -0.02695674 0.109433144 0.014571386 0.21130358 0.015701743
00000000: 21dc a0bb c624 723e be44 78bd d167 453d
00000010: 4be1 f33d cdc1 8bbb 9bb3 fd3a 6e24 48be
00000020: 126f 06bc 69b2 10bd 4abf 0dbd f52f 5c3e
00000030: 915c c03d 6dc2 c73d 61ed 433e 3300 6f3d
00000040: f053 9f3d 4b1a 95bd 7fc1 ec3d 69f6 143d
00000050: 3f30 6bbd eb4b db3c 67f1 e13d 3a6d 94bd
00000060: 5f09 c1bd dd5f 4dbe 407c 993b d53a febd
00000070: cee6 823d afdf 6ebd 7746 9cbd 5019 37bd
00000080: 44b5 d33b 65a9 223e 0fae ba3d 9818 243d
00000090: 9a80 583e 5bdd 19bd 7d65 83bd 5414 513e
000000a0: 5e37 17bc 4dde 003e 4e73 44bd 6736 a93d
000000b0: ddf4 c1bd 1bc3 dc3c 3d39 99bd 0291 7dbd
000000c0: 32f9 b53d 2cfe fbbd 4a70 183e 6454 123e
000000d0: 4f17 f1bd 9aeb 593d bbad 0cbe 89be c33d
000000e0: 9371 8fbd 251a 76bc ff3f 823e 2373 133d
000000f0: ffdd 6c3d 5bef e23a 485a f8bc 4dc5 6fbd
00000100: 7913 f03d 397f d1bd bc3c 623d 7c22 ec3d
00000110: ddac 0f3d bb6d a43d 310f b9bd 85fc 3a3e
00000120: 5ea5 983d c7a2 fbbd 2960 74bd 4fe2 d3bc
00000130: 85e3 ef3d d2ae b73d 8540 eabd 5e5b d23b
00000140: cbbb 39bd 73a8 c3bd 043f 063e 68fd bcbc
00000150: 5828 1a3d 33f0 553c 8f42 9f3e c36e 78bd
00000160: 4a5c 503c 6faa 7cbd 6a54 4d3d 237c 57bd
00000170: 8ac5 a03d 8968 3bbd cf83 04bb 2ba1 a03c
00000180: ab60 f23d dcfd 03bd cbd0 4fbd 7ac6 463d
00000190: 4ab2 ce3c 9a90 3f3d 5b1f f33d 411f b0bd
000001a0: 9c76 043e 6a5f 0cbd 2b3d cebd 99e6 c0bd
000001b0: ba71 e73d 43fe 063e 9c46 453d 0699 b4bd
000001c0: 542d 40bd 07c6 de3d 1f27 5b3c 0003 77bd
000001d0: 07e0 8a3d acbf cb3c 00c6 c43c 56b5 d63d
000001e0: 8d4e cd3c bc52 57bc 6911 ee3c 62d4 dcbc
000001f0: 7c1e e03d d3bc 6e3c f75f 583e f1a0 803c

input_norm.weight f4 [8]
1.2590107 0.8602699 0.9540201 0.82536787 0.80270153 1.022868 0.59177727 0.73153895
00000000: 4327 a13f a63a 5c3f a93a 743f 4f4b 533f
00000010: d97d 4d3f 57ed 823f b77e 173f 2346 3b3f

input_norm.bias f4 [8]
0.26937982 0.21891122 0.49202275 0.4183116 0.09292627 0.2830148 0.27274382 0.09749323
00000000: 27ec 893e 432a 603e 68ea fb3e f02c d63e
00000010: 2150 be3d 51e7 903e 14a5 8b3e 88aa c73d

input_norm.running_mean f4 [8]
3.5438902 0.04277275 -1.1454289 3.5677078 0.045559566 0.026993878 -0.1222352 0.2440761
00000000: 19cf 6240 7b32 2f3d 6a9d 92bf 5355 6440
00000010: ab9c 3a3d 4422 dd3c 7356 fabd 16ef 793e

input_norm.running_var f4 [8]
3.871514 0.004181047 2.1678038 5.380987 0.27185982 0.0018880952 0.66081285 0.18465674
00000000: e3c6 7740 2a01 893b 4cbd 0a40 0c31 ac40
00000010: 3631 8b3e f679 f73a 082b 293f a816 3d3e

norm.weight f4 [128]
0.8192979 1.0262825 0.8688144 0.8214595 0.83462656 0.8505882 0.85650563 0.849797
0.8660969 0.82277274 0.9028986 0.89894193 0.806834 0.8809991 0.8978579 0.8821811
0.80086285 0.8337258 0.92099047 0.8931673 0.84788895 0.89782774 0.9142541 0.8796049
0.8822065 0.90022385 0.8222752 1.1054759 0.7896844 0.8012055 0.9214586 0.88238233
0.80427796 0.86260736 0.87020475 0.8865376 0.9046825 0.8880996 0.7943063 0.9447065
0.9163181 0.8582816 0.9710524 0.8107922 0.85905826 0.91325074 1.0425156 0.8560247
0.91664445 0.88902473 0.89501 0.86407477 0.8515347 0.88306606 0.81765574 0.86634815
0.84357154 1.0063453 0.89011943 0.8214532 0.8652709 0.8147277 0.8865544 0.8793221
0.8385158 0.86419564 0.8638645 0.8623832 0.7846939 0.89169157 0.8918353 0.85631293
0.86389613 0.8262885 0.8535779 0.86933905 0.9311894 0.8874197 0.8478496 1.0019505
0.8727462 0.85593724 0.85086155 0.842346 0.8661073 0.8255404 0.9591749 0.87536174
0.86008155 0.86674196 0.81428695 0.87420446 0.7895329 0.8034192 0.81620777 0.8957117
0.90894425 0.8758807 0.89742815 0.9131023 0.8550704 0.8717226 0.8125146 0.7961014
0.8408582 0.91708547 0.83985263 0.8885106 1.0251613 0.84858996 0.86621785 0.85514075
0.8205597 0.8806588 0.8302931 0.84632427 0.8543125 0.859559 0.84933096 0.8636579
0.8087953 0.9193953 0.8688759 0.8237104 0.8940647 0.87230206 0.96475583 0.8091405
00000000: 82bd 513f 3a5d 833f 9f6a 5e3f 2b4b 523f
00000010: 16aa 553f 26c0 593f f443 5b3f 4c8c 593f
00000020: 87b8 5d3f 3ca1 523f 5d24 673f 0f21 663f
00000030: ac8c 4e3f 2889 613f 04da 653f 9fd6 613f
00000040: 5905 4d3f 0e6f 553f 08c6 6b3f 9da6 643f
00000050: 400f 593f 0ad8 653f 8f0c 6a3f c92d 613f
00000060: 49d8 613f 1275 663f a180 523f 3c80 8d3f
00000070: c228 4a3f ce1b 4d3f b6e4 6b3f cfe3 613f
00000080: 29e5 4d3f d6d3 5c3f bdc5 5e3f 21f4 623f
00000090: 4699 673f 7f5a 633f a857 4b3f 49d8 713f
000000a0: d393 6a3f 58b8 5b3f e496 783f 1490 4f3f
000000b0: 3eeb 5b3f cdca 693f 2771 853f 6f24 5b3f
000000c0: 36a9 6a3f 2097 633f 601f 653f 0134 5d3f
000000d0: 2efe 593f 9e10 623f e351 513f fec8 5d3f
000000e0: 4ef4 573f eccf 803f dede 633f c24a 523f
000000f0: 6582 5d3f ff91 503f 3bf5 623f 411b 613f
00000100: f9a8 563f ed3b 5d3f 3926 5d3f 25c5 5c3f
00000110: b3e1 483f e645 643f 514f 643f 5337 5b3f
00000120: 4c28 5d3f a587 533f 1584 5a3f 018d 5e3f
00000130: 6e62 6e3f f02d 633f ac0c 593f ea3f 803f
00000140: 4c6c 5f3f b41e 5b3f 10d2 593f fda3 573f
00000150: 35b9 5d3f 9e56 533f 7c8c 753f b517 603f
00000160: 4e2e 5c3f cde2 5d3f 1c75 503f ddcb 5f3f
00000170: d41e 4a3f e1ac 4d3f fef2 503f 5d4d 653f
00000180: 92b0 683f b839 603f dabd 653f 13c1 693f
00000190: e5e5 5a3f 3629 5f3f f500 503f 4dcd 4b3f
000001a0: 7c42 573f 1dc6 6a3f 9500 573f 6e75 633f
000001b0: 7c38 833f 313d 593f 74c0 5d3f 81ea 5a3f
000001c0: 3310 523f db72 613f 178e 543f b5a8 583f
000001d0: 39b4 5a3f 0f0c 5c3f c16d 593f af18 5d3f
000001e0: 350d 4f3f 7e5d 6b3f a76e 5e3f afde 523f
000001f0: 6de1 643f 304f 5f3f 3dfa 763f d523 4f3f

norm.bias f4 [128]
0.102044225 0.088198796 0.08869652 -0.11266823 0.134106 -0.10361815 -0.1374153 -0.10798567
0.22098014 0.1277137 0.20288938 0.14157993 0.13878028 0.23242584 0.30467576 -0.09689996
0.18523833 0.11160021 0.16680278 0.0048563974 0.04336131 -0.034735814 0.10636084 -0.057291344
0.058445625 0.0017820894 0.13414365 -0.1961116 -0.3572984 -0.13784115 -0.00949685 0.1722038
-0.014928472 -0.15361454 -0.049761757 -0.24815024 -0.059248827 -0.012230639 0.065529466 0.18211323
0.03517318 0.20278248 0.100053415 0.27171773 -0.03613619 0.0018717754 0.14791813 -0.2804832
0.13018495 -0.22836854 0.076187685 0.19189611 0.20963061 -0.20349622 -0.04241186 -0.067553625
0.094987765 0.03770665 0.16934657 0.38347897 -0.13633476 0.13160378 -0.17201282 0.34451115
0.03182537 -0.24305703 -0.06681791 0.07391129 0.22630903 -0.045562405 0.31989905 0.10371545
0.14053455 -0.21346875 0.11138514 0.22422004 -0.08061562 -0.2932299 -0.07722853 -0.09100607
0.021591594 0.14309426 -0.12756565 -0.089093834 0.0356655 -0.03231834 0.3540925 0.038344912
-0.3864826 0.028770415 0.12793718 0.19591478 -0.009877683 0.22505307 0.018999534 0.067849174
0.06817717 -0.10087546 -0.3018937 0.13828972 0.059677564 -0.027664054 -0.01608765 -0.15055528
0.057604354 -0.13595338 0.14019004 0.025620436 -0.093640454 0.12607779 -0.08375031 0.20073068
-0.062654585 0.063722596 -0.07898785 -0.014614347 -0.037417915 -0.21662705 0.1280379 -0.087124996
0.1098969 0.062287617 -0.3782273 0.057637013 -0.09810324 -0.12776284 0.035609644 -0.019410776
00000000: 90fc d03d 92a1 b43d 85a6 b53d 9abe e6bd
00000010: 1553 093e c135 d4bd 99b6 0cbe 9727 ddbd
00000020: 9e48 623e 61c7 023e 3cc2 4f3e 54fa 103e
00000030: 6b1c 0e3e 0a01 6e3e 76fe 9b3e 7c73 c6bd
00000040: 1eaf 3d3e a78e e43d 59ce 2a3e 6a22 9f3b
00000050: a19b 313d 2447 0ebd b6d3 d93d 54aa 6abd
00000060: ae64 6f3d ff94 e93a f45c 093e 7bd1 48be
00000070: d1ef b6be 3b26 0dbe ad98 1bbc 3156 303e
00000080: 8d96 74bc 214d 1dbe fcd2 4bbd 191b 7ebe
00000090: e6ae 72bd 0563 48bc 5034 863d e47b 3a3e
000000a0: c111 103d 36a6 4f3e cee8 cc3d 961e 8b3e
000000b0: 8b03 14bd 5c56 f53a da77 173e 7e9b 8fbe
000000c0: 344f 053e 71d9 69be 4a08 9c3d 6a80 443e
000000d0: 68a9 563e 5061 50be 0fb8 2dbd 8e59 8abd
000000e0: f288 c23d 4a72 1a3d 3069 2d3e 5b57 c43e
000000f0: 579b 0bbe 24c3 063e 2124 30be c463 b03e
00000100: 525b 023d f1e3 78be d4d7 88bd cd5e 973d
00000110: 8ebd 673e a59f 3abd cfc9 a33e c468 d43d
00000120: 4ae8 0f3e 8d97 5abe e41d e43d f099 653e
00000130: cd19 a5bd 3b22 96be fe29 9ebd 6461 babd
00000140: dbe0 b03c 4d87 123e 92a0 02be d476 b6bd
00000150: fd15 123d 3c60 04bd 9d4b b53e 8e0f 1d3d
00000160: 0ce1 c5be efaf eb3c f701 033e e29d 483e
00000170: 01d6 21bc 5074 663e e9a4 9b3c 82f4 8a3d
00000180: 79a0 8b3d cb97 cebd d091 9abe d29b 0d3e
00000190: 7670 743d ba9f e2bc 3fca 83bc 2a2b 1abe
000001a0: 8bf2 6b3d 5d37 0bbe fa8d 0f3e f3e1 d13c
000001b0: 91c6 bfbd 891a 013e 4885 abbd 588c 4d3e
000001c0: 0c51 80bd fe80 823d 62c4 a1bd 0471 6fbc
000001d0: 8743 19bd 7bd3 5dbe 5e1c 033e 976e b2bd
000001e0: a011 e13d 4d21 7f3d 02a7 c1be ca14 6c3d
000001f0: 5aea c8bd 43d4 02be 6bdb 113d 5903 9fbc

norm.running_mean f4 [128]
0.40985885 0.4772051 0.3401062 0.45445335 0.17192091 0.47360733 0.069218226 0.261637
0.40231234 0.31273055 0.14436972 0.30675444 0.39478782 0.52510625 0.33440694 0.33099517
0.31914306 0.32871938 0.25451708 0.3752474 0.47962108 0.48650822 0.504549 0.15624654
0.50248116 0.027046641 0.39851034 0.002444067 0.8938305 0.2326673 0.32602355 0.44061887
0.43338072 0.2685181 0.15601352 0.59487087 0.5482098 0.12788194 0.08389799 0.296989
0.039472427 0.54371506 0.027170345 0.27167997 0.03856065 0.11749557 0.10501734 0.6856223
0.1640115 0.34110844 0.30511877 0.51699257 0.3002193 0.4147469 0.24900423 0.20670848
0.45100364 0.0070479554 0.43576142 0.8660328 0.66740656 0.40594152 0.07141185 0.03446077
0.19920124 0.31140536 0.36367947 0.4140779 0.19076386 0.48143265 0.16117589 0.4272343
0.35057837 0.3600517 0.35158786 0.51129377 0.28280324 0.64368117 0.24267359 0.023125313
0.38771158 0.2646641 0.6207524 0.39819402 0.62393993 0.28894886 0.36169854 0.4892749
0.41853416 0.13880783 0.5532362 0.7726159 0.1954307 0.43779868 0.24082807 0.15660843
0.65762264 0.1944899 0.261302 0.47772592 0.52913195 0.09915036 0.46593347 0.16605888
0.25631866 0.20882386 0.18987195 0.24349383 0.0732373 0.42633206 0.31953102 0.39888307
0.33155075 0.68982804 0.22954376 0.42448166 0.5166226 0.71674937 0.56909436 0.5481893
0.3345828 0.2419802 0.13202614 0.1269614 0.43361944 0.05839953 0.48462725 0.14258814
00000000: 05d9 d13e 3a54 f43e 6622 ae3e 1cae e83e
00000010: 090c 303e a97c f23e 49c2 8d3d 49f5 853e
00000020: e2fb cd3e 381e a03e a8d5 133e eb0e 9d3e
00000030: a121 ca3e 5d6d 063f 6337 ab3e 3378 a93e
00000040: b866 a33e e84d a83e 1050 823e 6d20 c03e
00000050: e590 f53e 9b17 f93e 202a 013f 18ff 1f3e
00000060: 9ba2 003f eb90 dd3c 8c09 cc3e a42c 203b
00000070: 13d2 643f 5640 6e3e 8fec a63e cc98 e13e
00000080: 14e4 dd3e 347b 893e 02c2 1f3e 7549 183f
00000090: 7a57 0c3f 7cf3 023e b6d2 ab3d f10e 983e
000000a0: d7ad 213d e930 0b3f 5894 de3c a319 8b3e
000000b0: c6f1 1d3d 84a1 f03d 5513 d73d f184 2f3f
000000c0: a1f2 273e c4a5 ae3e 8738 9c3e a059 043f
000000d0: 58b6 993e b559 d43e f7fa 7e3e 63ab 533e
000000e0: f3e9 e63e 89f2 e63b 1f1c df3e 53b4 5d3f
000000f0: 28db 2a3f 91d7 cf3e 6040 923d bd26 0d3d
00000100: 69fb 4b3e 8670 9f3e 3234 ba3e 0502 d43e
00000110: 9a57 433e 577e f63e 4b0b 253e 74be da3e
00000120: 027f b33e b258 b83e 5303 b43e 26e4 023f
00000130: 96cb 903e 4ac8 243f 6d7f 783e 4c71 bd3c
00000140: 2282 c63e 0e82 873e a1e9 1e3f 16e0 cb3e
00000150: 87ba 1f3f 1bf1 933e 8d30 b93e 3d82 fa3e
00000160: 1c4a d63e a423 0e3e e3a0 0d3f 28ca 453f
00000170: fc1e 483e 2627 e03e a29b 763e f65d 203e
00000180: f559 283f 5c28 473e 60c9 853e 7e98 f43e
00000190: 3175 073f 580f cb3d d58e ee3e 570b 2a3e
000001a0: 333c 833e ecd5 553e cb6d 423e 7256 793e
000001b0: 70fd 953d 3248 da3e 9299 a33e 673a cc3e
000001c0: 05c1 a93e 9298 303f 850d 6b3e a955 d93e
000001d0: 6141 043f e37c 373f 2bb0 113f 2256 0c3f
000001e0: 704e ab3e a8c9 773e dc31 073e 2b02 023e
000001f0: 5e03 de3e 5834 6f3d 1021 f83e a002 123e
