final_models/our_model_varying_speed/checkpoint_models/best_model_episode_8364.pt (torch, 226638 bytes, 22 tensors)

layer1.weight f4 [128, 8]
000000 f9 3c 97 3e 7d 24 7f be 34 6a 02 be 1f b7 80 3e
       0.29538706 -0.24916263 -0.12735826 0.2513971
000010 3b a2 90 be 16 c6 36 3e 70 a3 9c bd 68 88 51 3e
       -0.28248772 0.17849001 -0.07648361 0.20462191
000020 f5 ca e9 bc 88 c2 8d be b6 27 73 3e 59 93 53 bc
       -0.02853916 -0.27687478 0.23745617 -0.012913548
000030 d6 57 72 bc ce 1e f9 bd 44 f8 2d 3c 17 fd 9a 3c
       -0.0147914495 -0.12164079 0.010618273 0.01891951
000040 51 49 e7 bd f2 86 39 bd 8e 55 d4 3e cd 96 19 3e
       -0.11293281 -0.04529471 0.41471523 0.14998932
000050 1c 9e d4 bd 7a b7 81 be 52 cb c2 bd 19 b4 02 be
       -0.103817195 -0.25335294 -0.095114365 -0.12764014
000060 68 22 ba bd fe 3b fa bc 34 70 5e 3e 9b 68 93 3e
       -0.09088594 -0.030546185 0.2172249 0.28790745
000070 98 7b e4 be 20 6b 1b 3e e3 49 b2 3d 80 22 a7 3e
       -0.44625545 0.15177584 0.08705499 0.3264351
000080 ba 70 46 3d d5 d5 4b be 6a 52 82 be fe 6c d3 3a
       0.04844735 -0.19905789 -0.25453502 0.0016130505
000090 0a 4b 44 3e 9e 77 06 bd bc 8c 35 3e 92 09 27 be
       0.1916925 -0.03282892 0.17729467 -0.16312245
0000a0 0c a6 3e 3e b8 bf 1c be 84 1c 77 3e 14 dc f2 bd
       0.1861803 -0.1530751 0.24131972 -0.11858383
0000b0 b1 9c 22 be e6 b1 5f 3e a1 f6 09 be 23 f0 1c bc
       -0.15880086 0.21845207 -0.13472988 -0.009578737
0000c0 a2 e8 42 bc 24 8b 49 3c 8c 1e 57 be ef ac 12 be
       -0.011896284 0.01230124 -0.21007746 -0.14323781
0000d0 84 da bb 3d b5 58 25 be dc f5 a0 3e 3f a5 a0 3d
       0.09172538 -0.1614712 0.31437576 0.07844018
0000e0 0d f5 c3 3c b5 53 ba be bd 57 1a 3e 22 16 b6 3d
       0.02392056 -0.36391988 0.15072532 0.0889094
0000f0 41 92 5f be 3c e3 6c 3e cf b9 61 3e 7f 9e c3 3e
       -0.21833135 0.23133558 0.22043537 0.3820686
000100 82 16 32 be 34 2d 5a be 06 b6 90 bd 05 2c ad 3c
       -0.17391399 -0.21306306 -0.07065968 0.021139154
000110 f2 be 8f be 76 5b 07 be 0c 15 f6 3d fb 8b 20 3d
       -0.28075367 -0.13218483 0.12015733 0.039195996
000120 46 7f 29 3e a5 ce 09 be f3 61 21 3e 96 f2 a3 bc
       0.16552457 -0.13457735 0.15760021 -0.020013135
000130 6f 28 63 3e 5a 43 36 3e 9d 4e 6c be 79 0f e3 3d
       0.22183393 0.1779913 -0.23076864 0.110869355
000140 8a b4 62 be 8b 12 b3 be c2 38 57 3c e5 1c e9 bd
       -0.22139183 -0.34975085 0.013136091 -0.11382464
000150 4a 45 1f 3e a1 9d 43 be 27 54 a1 be 4d 89 20 3e
       0.15553775 -0.191031 -0.31509516 0.15677376
000160 a6 5a de bc a0 db ce 3d 58 1e 7a 3d 84 08 a3 bd
       -0.027142834 0.10100484 0.061064094 -0.079606086
000170 2f 8c 11 bc 90 b6 ec 3d 74 07 b7 bd 6b cb 1e be
       -0.00888352 0.115582585 -0.089369684 -0.15507285
000180 52 95 6a 3e e3 8a 5a 3e 5f eb 30 3d fd 4d af bd
       0.22908524 0.21342044 0.043193217 -0.08559797
000190 06 ac 9d 3e 0f 40 91 bd 89 dc 4c 3e 82 be 2f 3e
       0.30795306 -0.07092296 0.20006002 0.17162517
0001a0 05 3c 18 be d2 3c bc be dd 08 b1 3e ac d7 f5 3d
       -0.14866646 -0.36765152 0.34577075 0.12004027
0001b0 de a1 d2 3e 32 b0 c8 bc e4 d6 33 3e 65 3d 38 3e
       0.4113912 -0.024498079 0.17562443 0.1799217
0001c0 a4 7c 94 3e 5e d1 f6 bd 9f 85 a7 bb 76 82 99 3d
       0.29001343 -0.12051652 -0.0051123644 0.074955866
0001d0 a2 fc 45 3c 19 0b c8 bd 53 c9 35 bd a6 fa 87 be
       0.012084158 -0.09767742 -0.04438145 -0.26558417
0001e0 3f c3 7e be de 69 fb 3a 20 d2 a4 3e 6e 67 87 be
       -0.24879168 0.0019181331 0.32191563 -0.26446098
0001f0 52 1f 09 3e fc 1a 46 be 22 2a dc be 8f 69 40 bc
       0.13390854 -0.19346231 -0.43000895 -0.011743917
000200 68 8c 20 3e bd 0c d1 3e 1c d8 86 be e4 6e 99 3e
       0.1567856 0.4083003 -0.26336753 0.29967415
000210 5e b1 ad 3e c0 77 68 3e 76 cc 8f 3e eb 39 a0 3e
       0.33924383 0.22701931 0.2808568 0.31294188
000220 94 80 f8 3e 65 f4 e5 3d 85 99 50 be a0 00 a5 be
       0.48535597 0.11228255 -0.20371063 -0.3222704
000230 75 b6 80 be 14 ba 7a 3c 47 5b 8b be c4 61 28 3e
       -0.25139204 0.015303154 -0.27218077 0.16443545
000240 9c 9a 27 3d 75 e5 86 bd 9f e6 dd 3d 7c a4 8e 3d
       0.04091893 -0.06586734 0.10835003 0.06964967
000250 45 a7 04 3e be 73 e1 3d 99 91 0f bc ae c4 bc 3e
       0.12954433 0.11008404 -0.0087627405 0.36868805
000260 3c 48 7a bd 44 ed 12 bd 7c b2 b1 be 9e 3b 5c be
       -0.061104044 -0.035870805 -0.34706485 -0.21507117
000270 ee 78 53 be 5f bb f1 bd e2 9c 6b 3e bf c6 ef bd
       -0.206516 -0.11803316 0.23009065 -0.1170783
000280 13 00 f2 be 32 55 5a 3d ea 1e e9 3d 7c 9e 02 3f
       -0.47265682 0.053303905 0.113828495 0.5102308
000290 e2 92 5d be b0 0b 27 3e 47 1f 2f be 11 73 96 3c
       -0.21638063 0.16313052 -0.17101775 0.018365415
0002a0 c5 76 65 be 7c cb 7e be b9 1f 7e be 1c d4 02 3e
       -0.22408588 -0.2488231 -0.24816789 0.12776226
0002b0 cb 37 86 bc 3d ef 23 3d 52 24 de 3e af af a3 3e
       -0.016384026 0.040023077 0.43387085 0.31969973
0002c0 ba 33 87 3e ef 24 a0 3d 27 b4 ef be 49 69 2d 3e
       0.26406652 0.078195445 -0.46817133 0.16934694
0002d0 a3 34 75 bb 5f 9b 9b 3d 41 2f ce be 3d ef 51 be
       -0.0037415407 0.07597994 -0.40270427 -0.20501418
0002e0 4d 15 9e be 4c 1c 48 3e 96 5e af be 31 7e ae be
       -0.30875626 0.19542044 -0.3425185 -0.3408065
0002f0 54 60 88 bc 4e 8b 87 be 98 13 0b 3d 63 70 9c bd
       -0.016647495 -0.2647347 0.033954233 -0.076386236
000300 8e 52 ad be 83 0d f6 3c d4 f2 8c 3e 46 59 3f be
       -0.33852047 0.03003574 0.27529013 -0.18686399
000310 a4 bb 5e 3e 63 c6 d1 3d dd ad bf 3e 49 80 a1 be
       0.21751267 0.102429174 0.37437335 -0.31543186
000320 c7 62 2b bc f3 78 b4 be 03 5b 82 3e 9b cf 0b 3a
       -0.010460562 -0.35248527 0.2546006 0.0005333365
000330 0e bb 46 bb d6 20 97 be 38 7c 2c bd 8e de 3d 3d
       -0.0030323896 -0.2951724 -0.04211065 0.046354823
000340 e6 5f 4f 3c e2 d7 02 3e 62 65 22 3d da e6 e4 3c
       0.012657141 0.12777665 0.039647467 0.02794211
000350 1b c8 87 be a6 97 98 3e c6 b8 a3 3e 0b 52 d8 3e
       -0.26519856 0.298032 0.31976908 0.42250094
000360 de 33 77 3c 8d 3c 78 be 7f a8 ab bd ba 43 33 3d
       0.01508805 -0.24241848 -0.083817475 0.04376576
000370 e8 55 32 bd 98 f2 89 3b 92 ed 72 bd 46 11 80 be
       -0.043538958 0.0042098276 -0.059308596 -0.2501318
000380 9a 6d b9 3e fb 53 87 be 21 92 93 3b c0 41 9b 3e
       0.36216432 -0.2643126 0.004503504 0.303236
000390 75 ff ff 3e 78 e9 80 3e 8a d9 3e bd 00 1f de be
       0.49999586 0.25178123 -0.04659418 -0.43383026
0003a0 d8 11 45 3e a2 3d 37 3d 8c 87 d6 bd 14 72 00 3d
       0.19245088 0.044736512 -0.10475072 0.031358793
0003b0 3d bc c1 be 3d d6 40 3e 35 6a 7d 3e e7 8a a6 be
       -0.37838927 0.18831725 0.24747546 -0.3252785
0003c0 90 83 e9 be 9d f9 8e be 5e 71 a3 3d 82 90 ba 3d
       -0.45608187 -0.27924815 0.079806075 0.09109594
0003d0 5d de 4f be a0 50 96 3e 25 c6 b5 be eb a1 22 be
       -0.20299669 0.29358387 -0.35502735 -0.1588208
0003e0 b1 24 19 be d5 11 9f 3e a6 88 a0 3e cd 96 53 3c
       -0.14955403 0.31068292 0.31354254 0.012914372
0003f0 c4 91 9d 3d 88 fe e3 3d 61 25 b7 3d 5b b1 d6 bc
       0.07693818 0.11132532 0.08942676 -0.026207617

layer1.bias f4 [128]
000000 37 f0 bc bc d8 e4 82 bd ae 91 12 3e dd 11 df bd
       -0.023063762 -0.06391305 0.14313385 -0.10892079
000010 70 24 a4 be f0 01 20 3e 12 f3 2e be 72 19 f4 bd
       -0.3205905 0.15625739 -0.17084911 -0.11918916
000020 89 fa ad 3e d7 64 1d 3e 09 db f7 3d c8 a0 7d bc
       0.33980206 0.15370499 0.121023245 -0.015480228
000030 4b 76 8d be 79 6c 1f 3e 94 1d 83 be d8 c9 bd 3c
       -0.27629313 0.15568723 -0.25608504 0.023167536
000040 1d 51 ac be e3 0c 26 3e db 21 33 be 3d 27 a9 3e
       -0.33655635 0.16215853 -0.17493384 0.3303775
000050 e5 e5 28 3e 50 69 b5 3e e8 a2 a4 3c 13 7a b1 3b
       0.16493948 0.3543191 0.020097211 0.0054161637
000060 c9 9a 1c 3e 5f c1 5a be 41 85 2f be 77 ad e0 be
       0.15293421 -0.21362828 -0.17140676 -0.43882343
000070 a8 91 d4 3e 21 d5 7c bc 03 db 02 3e 59 c3 0b 3d
       0.41517377 -0.015431673 0.12778859 0.034121845
000080 2c 94 1e 3e 29 45 86 be 3e e4 4e be 08 6b 8a 3e
       0.1548621 -0.2622464 -0.20204255 0.27034783
000090 1d 7f 37 3e b3 7e ce bc f4 97 85 be 25 3f a6 bd
       0.17919584 -0.0252069 -0.26092494 -0.081175126
0000a0 d0 e1 6c be 36 00 c1 3c 23 4b 8a be e7 2f 95 be
       -0.23133016 0.02355967 -0.2701045 -0.2913811
0000b0 e3 76 d0 be 86 3e 3e 3d f3 72 bc 3d a8 18 bd 3e
       -0.40715703 0.046446346 0.09201612 0.36932874
0000c0 c0 de a7 be 9f b7 e5 bd 32 18 4b be 5f 91 83 be
       -0.32787132 -0.112166636 -0.19833449 -0.25696847
0000d0 15 fc fe ba b2 66 ca 3e d3 6b 71 3d c0 9b cf bd
       -0.0019453788 0.39531475 0.05894072 -0.10137129
0000e0 9a 50 87 3e 72 fb b6 be 38 72 40 bb da 58 87 3e
       0.26428682 -0.35738713 -0.0029364955 0.26434976
0000f0 a5 52 89 3e be d6 91 3d b2 0a 39 be 75 0e de be
       0.26820865 0.07121037 -0.18070486 -0.43370405
000100 26 e4 18 be 2c 7e 36 3e 4c af 87 3e 93 bc 09 3d
       -0.14930782 0.17821568 0.26500928 0.033627104
000110 23 8a 9b be 0f 78 1c bd 6e 5e ed 3d 18 3f 44 3c
       -0.30378827 -0.038200434 0.11590277 0.011977933
000120 bf ea 2c be f5 d3 71 3d 73 68 f6 3c 94 db 97 3d
       -0.16886424 0.05904003 0.030079102 0.07414928
000130 22 46 df bc 9a 72 44 3e ea c0 c0 be 83 1c 05 be
       -0.027255122 0.19184342 -0.37647182 -0.12999158
000140 75 b1 0b bc d0 e8 59 3e 3b 9d 1b 3e ff e3 0c 3e
       -0.008526196 0.21280217 0.15196697 0.13758849
000150 93 c9 c0 3e 31 4a e6 3d 0a a4 bd be 69 ea 11 3e
       0.3765379 0.1124462 -0.37039214 0.14249577
000160 42 9b 64 be f0 23 e1 bb 5e e5 7a 3d a8 32 af 3e
       -0.22324851 -0.006870739 0.061253898 0.34218335
000170 c0 58 06 be 98 ea 49 be e0 42 f1 bd 54 24 9e bd
       -0.13119793 -0.19718397 -0.117803335 -0.07721773
000180 3b 64 b5 3e e5 25 59 3e ac 6f 49 3e a8 ef c8 3d
       0.35428032 0.21205862 0.19671506 0.09811336
000190 eb b1 b0 bd 60 e5 80 bd 51 ea 8a be 85 ba ed 3d
       -0.08627685 -0.0629375 -0.27131894 0.116078414
0001a0 26 9b 68 be 81 e8 7d 3d c4 30 2c 3e 7f 2b 82 3e
       -0.22715434 0.06198931 0.16815478 0.2542381
0001b0 03 22 be be b1 4e ce 3e 9c 5d fc bd 88 50 46 bd
       -0.37135324 0.40294412 -0.12322542 -0.048416644
0001c0 5a 6d a4 3e 4b 63 9e 3e 54 fd 8d be a6 e4 82 3e
       0.3211468 0.3093513 -0.27732337 0.2556507
0001d0 01 84 b1 be 8f e1 96 3e b6 9f cd 3e 37 8a d9 3c
       -0.34671023 0.29468963 0.40160912 0.026555164
0001e0 f2 7d 1f 3d 98 a7 b4 bb 3e 30 94 be 04 eb 8e be
       0.03893847 -0.005513143 -0.28943056 -0.27913678
0001f0 1b 4c 73 bd a8 e5 c5 be d0 17 9d be 33 0e ca bd
       -0.05939875 -0.38651776 -0.3068223 -0.098659895

layer2.weight f4 [128, 128]
000000 d7 66 2a bd 54 5b 2d bd 71 83 1f bd f6 af 60 3c
       -0.041601982 -0.042323425 -0.03894371 0.013713827
000010 18 d7 c8 3d c5 57 b8 3b d7 20 20 bd cf 3b aa 3c
       0.09806651 0.0056256973 -0.03909382 0.020780472
000020 35 f1 ea bd 28 ef a4 3d b6 44 ad 3d 0a 7c 31 bd
       -0.11471788 0.08053428 0.08460371 -0.043331183
000030 37 f6 72 bd 3b 2d 08 3e e6 e9 e7 bd a4 c9 7a 3d
       -0.05931684 0.13298504 -0.113239095 0.061227456
000040 77 2a 6e bd 43 49 04 be ed 68 18 3d c2 dd c6 bd
       -0.058145966 -0.12918572 0.03720944 -0.09710266
000050 d7 98 bf 3d e0 ed 7d 3b 76 41 97 bd 3e e0 b2 bd
       0.09355324 0.003874652 -0.073855326 -0.08734177
000060 03 94 83 3d 7c 41 ef 3d f7 37 9f 3b 9c d6 74 bd
       0.06424715 0.11682412 0.0048589665 -0.05977498
000070 52 e7 ed bd da 77 6f 3d 94 f9 53 bc e5 67 68 3d
       -0.116163865 0.05846391 -0.012937922 0.056739707
000080 1a 59 93 3d c7 57 a1 3d eb 4e bc 3c 9a 4c 08 3d
       0.07194729 0.0787807 0.02298685 0.033276178
000090 0a 07 85 3d 99 6d f1 bb 1d 09 9d 3d e1 0a 9e 3c
       0.06495483 -0.0073678014 0.07667754 0.019292297
0000a0 3c f1 ca ba 2c 5a 49 bd 19 d2 00 3c fb b9 9f 3d
       -0.001548327 -0.04915826 0.007862591 0.07799145
0000b0 fd 31 a5 3d a9 c0 18 bc 0b d5 14 bd a5 8e 8a 3d
       0.08066175 -0.0093232775 -0.036335986 0.067654885
0000c0 f9 d7 81 3d b3 2d 36 3e 19 59 da 3c 2b 8d b4 bc
       0.06340022 0.1779087 0.026653813 -0.02203997
0000d0 ae 05 c6 bc f2 d7 74 bd a5 8f 7a 3c b2 e7 41 3c
       -0.02417263 -0.059776254 0.015293037 0.011835026
0000e0 a5 c6 87 bd e1 b6 83 bd 2c 29 1e 3d c0 50 d5 3c
       -0.06629685 -0.06431366 0.038613483 0.026039481
0000f0 29 6c 13 be 92 eb d9 3c 38 9b 54 3d 6e 24 50 3d
       -0.14396729 0.026601586 0.05190584 0.050815992
000100 c5 3b e5 3d 3f 04 32 bd 37 79 ba 3d 5b 8d c9 bd
       0.11193041 -0.04346108 0.09105151 -0.098414145
000110 cb 8a 37 bc 7c 5a 72 bd 3c 47 a5 bc 4e fe ce 3d
       -0.011202524 -0.059168324 -0.020175569 0.101070985
000120 12 36 be 3d bf bb 27 3b 3b 7e 0c bd 5d ee 0d bd
       0.09287657 0.0025594083 -0.03430007 -0.03465115
000130 b0 05 ab 3a 37 ce 9a bc dd 0d 78 3d a8 a8 58 3d
       0.001304796 -0.018897159 0.060560096 0.052895218
000140 d3 70 a7 3d 02 7b 46 bd 2e 51 ab 3d c1 d1 76 bc
       0.081758164 -0.048457153 0.08365093 -0.015064658
000150 ea 7e be bc 6a b0 2f bd 9c 87 d1 bb d9 14 46 bd
       -0.023253877 -0.04289285 -0.0063943397 -0.048359726
000160 2c f0 30 bc f3 9d a7 bd 33 3a 31 3d 61 64 8b bd
       -0.010799449 -0.08184423 0.043268394 -0.06806255
000170 e8 f3 84 bc c4 fb 6f bd 84 6c 39 3c 9c 99 96 3d
       -0.016229585 -0.05858971 0.011317376 0.073535174
000180 3c 49 8d bd 98 37 b4 bd f5 95 90 3d b8 f4 86 3d
       -0.06898734 -0.08799666 0.07059852 0.06589645
000190 42 05 8e 3d fd 99 88 bd 26 c8 87 3d 9e 79 85 3d
       0.069345966 -0.06669996 0.06629972 0.06517337
0001a0 68 c2 24 3d da 79 19 bc 30 af c0 3d 32 28 21 3d
       0.040224463 -0.009367431 0.09408414 0.039344974
0001b0 4f c3 18 3d 95 68 a5 bc 39 96 46 bd 6d 5e 57 bd
       0.037295636 -0.02019147 -0.048483107 -0.052580286
0001c0 ed 24 ef 3d 44 1b 14 3d 91 45 69 3d 95 47 8d 3d
       0.11676965 0.036158815 0.05695111 0.06898419
0001d0 35 d5 9c bd 91 90 d1 3c 21 86 3e bd 10 69 ef 3a
       -0.076578535 0.02558163 -0.046514634 0.0018265564
0001e0 36 59 d3 3c a9 d4 ce 3b 1d 3f bf bc 8a cd e2 bc
       0.025799375 0.006311972 -0.023345524 -0.0276859
0001f0 7b f2 eb bd 8c bb 94 bd 45 db 83 3d de f1 86 bd
       -0.11520859 -0.07262334 0.06438307 -0.06589101
000200 73 da a2 bc d6 17 28 bc 1a 2d c0 3c ca 4b de bc
       -0.019879555 -0.010259589 0.023459006 -0.027135748
000210 57 cd 46 3d 5d c1 a6 bc 7c 81 6c 3d 0c 2b 33 bc
       0.04853567 -0.020355875 0.057740673 -0.010935556
000220 3b 78 9c 3b 9f 77 8a bb e9 a6 d5 3d f2 68 6a 3c
       0.004775075 -0.0042256857 0.10432226 0.0143072475
000230 cc 95 30 3d fb d8 fb bc 6e 2b 47 3c 1e b5 e8 3d
       0.043111607 -0.030743113 0.012156351 0.1136267
000240 5d 47 d3 bd 86 67 8f bc 51 83 88 3d f5 f7 43 bd
       -0.10316346 -0.017505419 0.066656716 -0.047843892
000250 69 51 07 bd fe 5e 40 bc dc 46 9f 3c 13 e7 6e 3d
       -0.033036623 -0.011741398 0.019442968 0.05832584
000260 7c 57 57 bc ff 06 30 3d b5 fe 8d bd db 7a f7 3c
       -0.0131434165 0.042975422 -0.06933347 0.03020995
000270 ef d4 65 bd 33 75 58 3d 3c d1 56 bd 08 5f ab bd
       -0.056111272 0.052846145 -0.052445635 -0.08367735
000280 d9 de 89 bb 3e c6 31 3d 2c 37 3c bb f8 cd 15 3d
       -0.0042074737 0.04340195 -0.0028719408 0.03657338
000290 bb 72 ec 3a a1 e6 62 3d 64 97 27 bc 34 ef 02 be
       0.0018039563 0.055395726 -0.010228965 -0.12786561
0002a0 48 f5 81 bd c7 4c 02 3d c2 57 41 bc 59 50 94 3d
       -0.06345612 0.0318115 -0.011800708 0.072418876
0002b0 2b 68 46 bd 8e a7 97 3d 0a 12 44 bd ef d7 55 bd
       -0.048439186 0.074050054 -0.047868766 -0.052207883
0002c0 7c 32 a7 bc 0b fc b7 bd 21 d1 84 bc a4 5f 8e 3c
       -0.020409815 -0.0898362 -0.016213002 0.01737959
0002d0 bd e1 fd bd 46 14 c2 3d 98 d0 a2 bd a8 1b 59 3d
       -0.12396572 0.09476523 -0.07949942 0.05300489
0002e0 9f 23 25 3d 56 19 e4 3a 2b 05 77 bd de be 4e 3b
       0.040317174 0.001740257 -0.060307663 0.0031546871
0002f0 31 a5 38 bd 7d 76 ad 3d 29 1c a1 bd 31 0d 18 bd
       -0.045079414 0.084698655 -0.07866699 -0.037121955
000300 89 1c c7 bc 35 9d 80 bd ad 33 23 bd ee 22 82 3c
       -0.024305599 -0.06279985 -0.039844204 0.015885796
000310 e5 7f ca bc a3 a9 ac 3b 33 22 a8 3d 36 09 d9 bb
       -0.024719188 0.0052692457 0.08209648 -0.0066234125
000320 2f 52 81 bd b5 76 2a bd d5 ed cb 3d 58 d5 8f bc
       -0.063145034 -0.041617114 0.09957472 -0.017557785
000330 db 1b b5 bd bd 74 61 3d 58 46 f0 bb 77 63 9b 3c
       -0.08843204 0.05504297 -0.0073326044 0.018968327
000340 fc 17 83 3b 92 e0 fe 3d 35 42 83 bd 6b 74 ff 3c
       0.004000662 0.12445177 -0.06409112 0.031183442
000350 f3 da 1a 3e d3 36 4d 3c 59 eb 36 3d 6d dc 8b 3d
       0.15122585 0.012525278 0.04465804 0.06829152
000360 13 9d e6 3d 60 d3 03 bd f4 b8 c5 bd 40 be 4f bd
       0.11260428 -0.032184005 -0.09654418 -0.050718546
000370 3d 05 c6 bd 14 c1 39 3c 0c cb 8f 3d 6e 15 92 3d
       -0.09668968 0.011337537 0.0702115 0.07132994
000380 d6 02 d8 3c 34 3c 42 3c 30 14 15 3d 10 89 85 3d
       0.02636854 0.011855174 0.036396205 0.06520283
000390 62 bb 87 3d 39 7e 00 3c c9 99 71 bc 8c ff a3 3c
       0.06627537 0.007842594 -0.014746138 0.020019315
0003a0 89 f1 08 bb bf fd 0b bd d5 b8 91 bc 73 a6 bb 3d
       -0.002089592 -0.034177538 -0.01778833 0.09162607
0003b0 11 70 81 3d 4b 40 08 bd 7e 15 04 bd 48 61 83 bd
       0.06320203 -0.03326444 -0.03224706 -0.06415039
0003c0 84 99 16 3c e5 3e 84 3d 5f 69 a5 bd 8a 29 9c 3d
       0.009191874 0.06457309 -0.080767386 0.076251104
0003d0 fc 41 a4 bd e8 4c bb bd 7b 06 7b bc c6 1a 2c ba
       -0.08020398 -0.09145528 -0.015321369 -0.0006565269
0003e0 60 17 5a bc c2 c7 26 bd 72 e0 56 bd 72 81 9b bd
       -0.013311237 -0.040717848 -0.05246014 -0.07593049
0003f0 b7 ec 8b bd 95 4f 8d bd dd e1 82 3d 39 fa 96 bd
       -0.06832259 -0.06899945 0.06390736 -0.07371945

layer2.bias f4 [128]
000000 b7 ea 02 bd ee e7 28 bd b3 1c c0 bc 86 b6 1c 3c
       -0.031962123 -0.04123681 -0.023451185 0.009565001
000010 c7 87 f9 bd 65 cb 8b 3d 69 d8 6f bd d7 55 2e 3e
       -0.121841006 0.06825904 -0.058555994 0.17024933
000020 ba bc ca bc 22 d1 71 3b 64 b2 22 3d af 29 bc 3d
       -0.024748195 0.0036898335 0.039720908 0.09187638
000030 be 98 c1 bc 1f a8 6e be 00 88 e3 3c 57 54 d3 bc
       -0.023632403 -0.2330632 0.02777481 -0.025797052
000040 b0 fe b2 bd c9 ee 53 bc d3 24 97 bc fe 94 d2 3d
       -0.08739984 -0.012935349 -0.018450176 0.10282324
000050 cf 06 0b 3e 7f a3 8a 3d 85 19 2e 3d b9 59 6b 3c
       0.13576816 0.06769466 0.042504806 0.014364653
000060 f6 b8 ac 3d f2 07 12 be 9a 45 68 bc 88 10 1b bb
       0.08433716 -0.14260843 -0.014176751 -0.0023660976
000070 1a b9 11 3d fe 54 0c 3d e8 c9 1c 3e 2d 8e d5 bd
       0.035576917 0.034260742 0.15311396 -0.104275085
000080 c9 3e 6f bd 17 d5 45 3d 01 d5 9e 3b d1 28 57 3d
       -0.058409486 0.04829892 0.0048471694 0.05252916
000090 2d 3b 11 3e d5 5e 31 3c 06 c6 88 bd 78 9a de bc
       0.1418273 0.010825832 -0.06678395 -0.027173266
0000a0 f0 8e 17 be 3b e0 a8 3d bb 8c cb 3c d4 47 d7 bd
       -0.1480062 0.082458936 0.024847379 -0.10511747
0000b0 5f bb 57 3d fd 60 ce 3d 45 fa 0e 3e c2 e2 9a bd
       0.052668925 0.10077093 0.13962658 -0.07562782
0000c0 13 2f fd 3d f4 9a d6 3c bb 6a 0d 3d 72 8f 2b bd
       0.12362494 0.026196934 0.034525614 -0.041884847
0000d0 92 c3 af 3d 6d 05 b2 3d 2d e8 e0 ba 36 73 ac bd
       0.08582224 0.08692441 -0.0017159038 -0.08420412
0000e0 b0 30 8c 3d 8e 7d 1d be f6 a4 93 3d 09 ff a4 3d
       0.06845224 -0.15379927 0.07209198 0.080564566
0000f0 d9 cc 05 3d ea c1 33 3d 22 34 b3 bd 35 e6 a0 3c
       0.03266606 0.043886103 -0.08750178 0.019641021
000100 ca 0d 66 3b 11 b9 8e bd 69 f1 41 3c ad 40 ad bc
       0.0035103434 -0.06968892 0.011837342 -0.021149004
000110 c6 17 fb 3b c9 ea 8c 3c 4a c3 18 bd 30 9b 3e bd
       0.007662746 0.017201798 -0.037295617 -0.046534717
000120 be 2d 17 3e e1 fe d8 3d 4a fc 98 bc 7e 55 3e bd
       0.14763543 0.10595489 -0.018674988 -0.04646825
000130 68 89 9a 3c 92 31 10 be 83 a6 37 bd 07 b8 bd bd
       0.018864349 -0.1408141 -0.044836532 -0.09263616
000140 d7 9f 0c 3d 16 2f 9b bc 16 dd a9 3d 6e 35 a7 bd
       0.034332123 -0.01894335 0.08294122 -0.08164488
000150 e4 9b 99 bd 38 f9 9e bc 65 18 d7 bd d6 2f 1a be
       -0.07500437 -0.019405946 -0.105027 -0.1505731
000160 79 06 6f bd 17 b4 46 bb 34 52 4a 3d 90 db e0 3d
       -0.058355782 -0.0030319744 0.0493948 0.10979378
000170 69 6e ab b8 67 e6 38 3e 62 be d5 3d c0 af 8d 3b
       -8.174481e-05 0.18056642 0.10436703 0.0043239295
000180 2f fb a9 bd 5d bc cb bc 2b d6 de 3b 0d c2 3c 3b
       -0.082998626 -0.024870092 0.006800433 0.0028802187
000190 76 cb 9b 3d 62 cd 0e 3e 21 30 0d bd 5b 88 be 3d
       0.076071665 0.13945535 -0.034469727 0.093033515
0001a0 db 45 95 3d 0a 27 d1 3d 9d cb ee bc 50 34 82 3c
       0.072887145 0.10212524 -0.029149825 0.015894085
0001b0 94 c9 ca 3d e2 51 14 be 49 bd 48 bd 1f 7f 75 bd
       0.09901729 -0.14484361 -0.04900864 -0.059935685
0001c0 ae 2e ba 3d da cf dd 3b 2a 28 65 3c ed 78 c6 3c
       0.09090935 0.0067691626 0.013986627 0.024227584
0001d0 71 59 a2 3d 69 b1 91 bd 5e 99 03 be d2 9d fe bc
       0.07927216 -0.071139164 -0.12851474 -0.031081114
0001e0 f2 c1 08 bd 72 e0 51 bd df e9 bb bc 5e 9a 6c 3b
       -0.033388086 -0.05123944 -0.022938667 0.0036102752
0001f0 5b 94 1f be fa aa 3d be 68 ee 26 3c 1b f6 89 bd
       -0.15583937 -0.18522254 0.010188676 -0.06736394

layer3.weight f4 [128, 128]
000000 66 e3 98 bd 67 6e 9d 3d 98 db e9 3c de d7 f1 bb
       -0.07465248 0.07687073 0.028547093 -0.0073804697
000010 86 00 7c bd 4a 5a 72 bd de 11 6a bd d5 ce 85 3d
       -0.061523937 -0.059168138 -0.057145946 0.06533591
000020 79 4b 83 3d 1a 0c 93 3d d7 18 f5 3c da ef a9 3c
       0.0641088 0.071800426 0.029919071 0.020744253
000030 1e 71 3f bd c4 ad 50 bd e3 d6 a0 3d 30 0d a7 3d
       -0.046738736 -0.050946966 0.078534864 0.08156812
000040 bd 20 c6 3d 74 1a 22 3c c2 3e 79 3d f1 69 d0 3b
       0.09674213 0.009894002 0.060850866 0.0063602854
000050 56 c0 ca bb 86 8b 10 bc 05 8b 62 bd b5 9f a6 bd
       -0.006187479 -0.0088223275 -0.05530836 -0.081359304
000060 51 1d 30 bd 46 98 1e bd 92 cb 96 3d 2e ee 61 bd
       -0.04299671 -0.038719438 0.07363047 -0.055158786
000070 b6 24 9d bc 66 4e cc 3c 21 4b b0 3c a3 7f 72 3c
       -0.019182544 0.024939727 0.0215202 0.014800939
000080 ed cd 54 3d ea 6e a0 bd 54 db dc 3b 95 57 d7 bd
       0.0519542 -0.07833655 0.006740013 -0.10514752
000090 72 75 ab b9 35 11 90 3d 8f 5e 72 3d 15 0d fc 3c
       -0.00032703165 0.07034532 0.05917221 0.030767957
0000a0 f6 ad ae bd 8f 04 96 3c 7e 83 bd 3a 17 f3 c3 bd
       -0.08529274 0.01831272 0.0014458743 -0.0956785
0000b0 00 28 c6 bd 02 d6 6c bd b3 92 0d 3d 4b cd 63 3d
       -0.09675598 -0.05782128 0.03456373 0.055615705
0000c0 ec f5 d7 bd 9e c7 41 bd 57 71 03 3d 17 51 3d bd
       -0.10544953 -0.04730951 0.03209051 -0.04621991
0000d0 ed 9a 98 3d 86 07 3d 3d 1d 3e de bc 05 2b e3 3d
       0.07451425 0.046149753 -0.027129227 0.1109219
0000e0 ce d2 55 bc ef 0c c6 bc 32 63 c5 bb e9 02 5f bd
       -0.013050748 -0.02417609 -0.006023788 -0.054446135
0000f0 0a a5 6d 3d f1 5b 8a bd 6d 10 8f 3d dc 8e 02 bd
       0.05801872 -0.06755818 0.06985555 -0.031874523
000100 46 a9 a3 ba d3 3e 30 be df a4 5c bd 0e 68 c5 3c
       -0.001248636 -0.17211466 -0.05386817 0.024097469
000110 df bd e3 bd b2 bf 6b 3d 43 92 05 bd b3 97 59 bd
       -0.111201994 0.05755586 -0.03261019 -0.053123187
000120 df 5e 81 3d b4 12 85 3c a7 63 91 3c 9b 41 ad bc
       0.06316923 0.01624427 0.017747713 -0.021149447
000130 6d 6f 96 3c b9 a5 07 3d 00 ce 9c bd 3e 56 7e bd
       0.018363679 0.03311703 -0.07656479 -0.062093966
000140 45 e5 a7 bd d9 71 12 bc cc 67 51 3d ae 1c 9e bd
       -0.081980266 -0.008938276 0.05112438 -0.07720314
000150 2d 12 aa 3c 58 2d 6a bd 2e 4c a3 3c ed 1a a1 3d
       0.02076062 -0.05717215 0.019933786 0.07866464
000160 e1 b5 d5 bc 45 1b 54 3d 07 7e ba 3c 6a 06 de 3c
       -0.026087703 0.05178382 0.022765173 0.027102668
000170 36 f6 bd 3c 99 a5 55 bd ae dc 4b 3d 51 09 41 3d
       0.023188692 -0.05215988 0.049771003 0.047128025
000180 33 2e ba 3d a3 4f ca 3c 19 56 2d bd 04 90 e4 bc
       0.09090843 0.024696177 -0.042318437 -0.027900703
000190 f1 59 70 3d 22 ef 32 ba af 01 76 bc 9e 07 3c 3d
       0.058679525 -0.00068257947 -0.01501505 0.0459057
0001a0 04 c3 51 bc 94 dc 08 3e 5f c5 3d 3d 67 a9 92 bd
       -0.012802843 0.13365394 0.046330806 -0.07161217
0001b0 b2 c9 97 3d ed 76 0d 3d 95 a3 bc bd 29 2b 4f bd
       0.07411517 0.034537245 -0.09210888 -0.05057827
0001c0 44 ea e1 3c a9 bb 05 3d 15 d8 af 3d d8 7b 80 3c
       0.027577527 0.03264967 0.08586136 0.015684053
0001d0 ae 49 8a 3d fd 8d 8f bd 75 e5 9a 3d d4 f9 2a 3d
       0.067523345 -0.07009504 0.07563297 0.04174216
0001e0 23 6d e6 3c 20 62 89 bd 6e f0 e3 bd 00 5d 0c bd
       0.028128212 -0.06708169 -0.11129843 -0.03426838
0001f0 47 b1 20 3d 96 c4 3b 3b e4 d4 32 3c f2 c0 d8 3a
       0.039231565 0.002865111 0.010915015 0.0016536994
000200 0b 49 db 3d 37 75 30 3d 9b 34 6d bd 6d ac b9 3c
       0.10707291 0.043080535 -0.057911497 0.022665227
000210 38 00 cf ba 90 a8 c3 bb cc 6b f4 bd a1 18 00 3e
       -0.0015792912 -0.005971022 -0.11934623 0.12509395
000220 e3 c9 f0 3c fa 8c e1 bc ed f8 b7 bd 08 8d f7 3c
       0.029393142 -0.027533043 -0.08983026 0.030218616
000230 fe 16 ba bc ad 07 40 bd 02 79 bc 3b 57 a8 50 3c
       -0.022716042 -0.04688232 0.00575173 0.012735448
000240 6f dc d1 3c 03 a0 f2 bd ee 3f 2e bd e4 70 57 bc
       0.025617806 -0.11846926 -0.042541437 -0.013149474
000250 5a ca bb 3d dd 98 07 bd c2 f5 e7 bc 43 95 d8 3c
       0.09169455 -0.033104766 -0.028315429 0.026438361
000260 3a 5f 3a 3b a3 20 8e bd 2d cc f5 3b 23 84 27 3d
       0.0028438107 -0.06939819 0.0075011463 0.0408975
000270 46 32 96 3c 23 ff d0 bc d1 8d 71 3d b4 82 26 bd
       0.01833452 -0.025512284 0.058973137 -0.040651992
000280 a6 43 aa 3d bb 5e 5a 3d 8c 23 a4 3d 5a c1 b1 3c
       0.08313684 0.053313 0.080145925 0.021698643
000290 1d 25 46 3d 15 d2 35 bd 79 36 1b bb 26 0a bd 3c
       0.048375238 -0.044389803 -0.0023683591 0.023076128
0002a0 01 19 af bd a2 fd 10 bd 62 e3 71 bc f0 df fa 3d
       -0.08549691 -0.035398133 -0.014763685 0.12249744
0002b0 94 69 61 3d 27 6b 60 3a 3a 07 b7 bc e3 c0 9e bd
       0.055032328 0.0008560889 -0.022342313 -0.07751634
0002c0 4c 2d 09 3e 2b 87 8f 3c b6 51 ed bc fe 1f 60 bd
       0.13396186 0.017520508 -0.028969627 -0.05471801
0002d0 ed e2 73 bc a2 5d 68 3d a7 2b 46 3d d3 d2 ea bd
       -0.014885646 0.05672992 0.048381474 -0.11465993
0002e0 06 44 ad bc 2f 0a c6 bc 00 13 01 3e 49 a3 92 bc
       -0.0211506 -0.024174778 0.12604904 -0.017900126
0002f0 37 d7 dd bc 22 02 7b 3d 42 1c d8 bc c9 02 ab bd
       -0.027080161 0.06128133 -0.026380662 -0.083501406
000300 15 0e fe 3c 2c 5d 03 3e 41 13 c4 bd b3 36 9a 3d
       0.031012574 0.12828511 -0.09573985 0.07529964
000310 ca 11 7e 3c ea 95 ce 3d a5 1b b3 3c f9 82 f2 b9
       0.015507171 0.100871876 0.021863768 -0.0004625542
000320 78 df 52 bd ba 78 b5 3d 3e f1 c3 bc 55 bb 81 3c
       -0.051482648 0.088609174 -0.023918744 0.015836397
000330 6f 99 6a 3d f0 59 1f bd 7b 84 74 bc 84 36 d3 3d
       0.057275232 -0.03890413 -0.014924164 0.103131324
000340 42 2a db 3d 1b 26 5e 3d 27 c8 8d bd 6f 39 dc bc
       0.107014194 0.05423556 -0.06922942 -0.026882855
000350 5c c8 c8 bc b9 cd 38 3b ac a6 56 bd 1c ba ef 3c
       -0.024509601 0.0028198792 -0.052405044 0.029263549
000360 d1 78 aa bd b9 b5 7a bd 9c 9c 92 37 11 a1 eb 3c
       -0.08323825 -0.06120846 1.7477483e-05 0.028763326
000370 f4 27 07 3d d2 54 17 bb 7b fa 7e 3b c9 5d 20 be
       0.032997087 -0.0023091328 0.0038906622 -0.15660776
000380 a8 db b5 3d a7 10 da 3d 24 62 9c bd f0 9b ec bd
       0.08879787 0.106477074 -0.07635906 -0.1155318
000390 a5 95 d4 bd 54 d6 9e bd f5 b3 f7 3c d5 8d b8 bd
       -0.10380105 -0.077557236 0.030237177 -0.09011427
0003a0 23 8b fe bd c2 45 37 bd a6 da 6e bc fd 13 37 bd
       -0.12428882 -0.04474426 -0.014578497 -0.044696797
0003b0 bd b3 68 3d 90 71 90 bd 10 95 07 bd 5d ba 5b bd
       0.056812037 -0.0705291 -0.03310114 -0.053644527
0003c0 cd a9 94 3d 95 97 25 bc c5 03 1f bd 01 a0 4b bc
       0.072589494 -0.010106941 -0.038821954 -0.012428285
0003d0 a0 11 86 bc f2 30 74 3d 51 dd 2f bd c7 6e 3f bd
       -0.016365826 0.05961699 -0.042935673 -0.046736505
0003e0 48 bb 45 bd ad 5b ac bd 0b 32 bb 3d fc a1 a5 bc
       -0.04827431 -0.08415923 0.09140404 -0.020218842
0003f0 c2 c8 a2 bc af 1d 0c 3d 56 92 fd bb 47 fd bd 3d
       -0.01987112 0.034207996 -0.007738392 0.092768244

layer3.bias f4 [128]
000000 9e 6c 2f 3d 5d 1f 2c 3d e2 a3 92 bb 8d 36 4f bd
       0.042828195 0.042022098 -0.0044751028 -0.050589133
000010 8f ec 30 3c 15 eb 4c 3e f8 46 36 bc 9a 24 df 3d
       0.010798587 0.20011552 -0.011125319 0.10895653
000020 ef 3f 60 3d 49 2e 00 be e6 09 ab bd 40 03 6a bc
       0.05474847 -0.12517656 -0.08351497 -0.014283001
000030 e5 03 02 3d 8d 03 5f 3d 94 47 58 3d 0d 1f 69 3d
       0.031741995 0.054446746 0.052802637 0.056914378
000040 d0 b4 95 bc d7 a3 a6 bd 57 5c 6d 3d 5c f7 a1 bd
       -0.018274695 -0.08136719 0.05794939 -0.07908508
000050 80 64 93 bd bf 6c ae bd 30 53 50 3d 7a 59 8e bd
       -0.07196903 -0.085168354 0.050860584 -0.0695066
000060 67 73 20 3e 24 a6 32 be 4f 53 8e bd 3f 95 59 3e
       0.15669023 -0.1744619 -0.069494836 0.21248339
000070 a4 68 23 3e 85 b5 d5 bd 57 e8 1e 3e c5 3f 37 3d
       0.15957886 -0.10435013 0.15518318 0.04473855
000080 9c 21 e2 3c 21 03 1b be 71 8e dd bd 41 65 20 3c
       0.027603917 -0.15137912 -0.10818184 0.009789766
000090 fd cf e4 bd ec 12 a2 3d a4 fd 8a bd 15 8e 2c 3e
       -0.11172483 0.07913765 -0.06786659 0.16851075
0000a0 6b 97 a9 3d ee 84 90 bd 31 df e8 bd aa 60 1f 3e
       0.08280834 -0.07056604 -0.113706954 0.15564218
0000b0 a9 de 0c be f3 59 5b bd d3 69 46 3e dd 8d a8 3c
       -0.13756813 -0.05355258 0.19376306 0.020575458
0000c0 83 10 64 3d 96 7d 81 3d 77 a6 8e 3d 58 58 94 3d
       0.05567981 0.06322782 0.069653444 0.07243413
0000d0 12 8d 05 3e 9d e1 df bd 2a de 1c 3e 80 6e 15 3d
       0.13042095 -0.10931704 0.15319124 0.036482334
0000e0 c4 e7 ac 3d 7f 9b f3 3d d2 c5 41 3e b5 d5 d6 bd
       0.08442643 0.11894893 0.18923119 -0.1048998
0000f0 73 a9 69 bd a6 75 d8 3d 75 5a 95 3d 8d 61 55 bd
       -0.057046365 0.10569315 0.07292644 -0.052094985
000100 b7 bf 9c bd 68 06 aa 3d fa 63 d3 3d 0a 4d ea bd
       -0.07653754 0.08302003 0.103218034 -0.11440475
000110 c3 f5 91 bd e4 aa 7f 3d e1 1d 78 bc e5 ab 32 bd
       -0.071269535 0.062418833 -0.015143842 -0.043620963
000120 ee b1 81 3d 81 5b 82 3d c1 81 00 be 6a 9c aa bd
       0.063327655 0.06365109 -0.12549497 -0.08330615
000130 4b 98 a9 3d d3 2c 3a 3d 1f 19 77 3d 2b 2d 82 3d
       0.08281001 0.045452904 0.06032669 0.06356271
000140 ff 70 69 3e 3e cb 45 3c 24 8a 3f bd 59 26 7f bd
       0.22797011 0.0120723825 -0.0467626 -0.06229243
000150 e2 fc d9 bd 47 05 90 3d 4f 4d 38 3e f7 3f 78 bd
       -0.10643937 0.070322566 0.17998241 -0.060607877
000160 91 26 ef 3d 23 c5 ac 3d 46 bc de 3d 03 b5 f4 3d
       0.11677278 0.08436038 0.10875754 0.11948588
000170 27 f7 ea bd d6 76 0b 3c 7d b2 05 be 62 ef 19 bd
       -0.11472922 0.008512219 -0.13056369 -0.03758181
000180 d3 34 24 3e 56 c7 24 be 4b 61 b7 3d 5a c1 de bd
       0.16035776 -0.16091666 0.08954104 -0.10876723
000190 e1 06 3d be d6 c0 5a 3d 90 c1 1a 3d d9 ca b4 3a
       -0.18459655 0.05340656 0.03778225 0.0013793363
0001a0 62 b4 13 3e cd c2 3a 3d a9 f8 3f 3e ca 63 c7 3a
       0.1442428 0.045595933 0.187472 0.0015212235
0001b0 7c 78 11 3e 92 1b 0c be 0c 80 09 3e b4 06 26 bd
       0.14206117 -0.13682392 0.13427752 -0.040533736
0001c0 a9 4e 29 bd 6f 2a e7 bd d8 8e ba bd bd 66 2c be
       -0.04133478 -0.112873904 -0.091092765 -0.16836067
0001d0 c5 cf ff bd 17 ff 16 bd db f2 3b bd be be 56 bd
       -0.12490801 -0.036864366 -0.045885902 -0.052428
0001e0 f9 0d bf 3d 22 17 2c bc 94 2e 1a bc 86 88 07 bc
       0.09328837 -0.010503562 -0.009410519 -0.008272296
0001f0 ba fd 0c bd 90 84 b5 bd e5 91 b4 bd ab 01 bd 3d
       -0.03442166 -0.08863175 -0.0881689 0.09228834

layer4.weight f4 [128, 128]
000000 48 3a 94 bd 0d be c1 3d bc ea 9d 3d 5b 28 64 3d
       -0.07237679 0.094600774 0.07710788 0.05570255
000010 08 2a 12 3c 2b ed 5e bd cb 45 9c bd ea b0 a9 bd
       0.008921154 -0.0544254 -0.076304995 -0.08285697
000020 5f 5f b6 3c af 7d 1f 3d 55 e6 4c bd 80 58 b5 ba
       0.022262273 0.03893822 -0.05002435 -0.0013835579
000030 0c 5d 15 bd aa fd bd 3a d8 c6 9b bc b6 76 1c bd
       -0.03646569 0.0014495153 -0.019015715 -0.03819915
000040 db f1 4e 3d ce fc 00 3c 00 cf 43 3b 10 82 cc 3c
       0.05052362 0.007872773 0.002987802 0.024964362
000050 4f 5e 10 3c ee a1 11 bd 26 e5 43 bc 0d 9d 8c bd
       0.008811547 -0.03555482 -0.011956489 -0.068658926
000060 0e 6c 2f 3d 9c fd 3b bc d2 a6 65 3d ef d1 de bc
       0.04282766 -0.011474039 0.056067295 -0.027199714
000070 f1 24 5c 3d b7 25 a2 3d 96 c4 63 bd ed 5a 28 3d
       0.053746168 0.0791735 -0.0556074 0.04110234
000080 8f 28 28 3a 6e bb ff bc bd 79 ff bc 33 96 1a bd
       0.0006414735 -0.031217303 -0.031185979 -0.037740897
000090 bf 89 04 bd 7b db ab 3d a3 d8 4d bd 12 34 5c 3d
       -0.032357927 0.08391472 -0.05025543 0.053760596
0000a0 15 21 9a bc 6c 61 a1 3c b5 ff 88 bd 3a 6f 89 bd
       -0.018814603 0.019699775 -0.06689397 -0.06710668
0000b0 17 2d ba 3d 44 db 26 bd a0 e0 0e 3d 91 8d 55 3d
       0.090906315 -0.04073645 0.034882188 0.05213696
0000c0 d3 2b 0a 3d 8b b1 a7 3c 70 49 9e ba 75 44 8a 3c
       0.0337332 0.020470401 -0.001207633 0.016878346
0000d0 b6 82 94 bd 77 8c 9c bd d6 41 3f 3d 83 b3 5a 3d
       -0.07251494 -0.07643979 0.046693645 0.053393852
0000e0 61 74 12 bd e5 80 35 bd ee 88 cb 3d d1 ec c7 bc
       -0.03575552 -0.044312377 0.09938227 -0.024404915
0000f0 78 29 20 bd 0f 75 0c bc 74 ab 1d bd 20 78 1d bb
       -0.039102048 -0.008572831 -0.03849359 -0.00240279
000100 bf 29 a8 bd 5c f6 4e bd 20 e2 d9 3a 1c 97 38 3b
       -0.082110874 -0.050527915 0.0016623177 0.002816624
000110 02 31 02 3d 1f 51 9b 3d 53 a1 6d bd f8 ca ed 3c
       0.03178502 0.07583832 -0.05801518 0.029027447
000120 67 4e 8f bd 3c 45 8f bc 68 c8 8c bb ae 43 8a bd
       -0.06997376 -0.017489068 -0.004296351 -0.0675119
000130 7e df 11 3d fa b0 22 bd 5a f0 aa bd 1d d2 bb 3c
       0.03561353 -0.03971956 -0.08346625 0.022927338
000140 67 14 e0 3c 00 db 21 3c dc b5 08 bc 85 e9 6b 3d
       0.027353479 0.009878874 -0.00834414 0.05759575
000150 ab c9 ee 3c ff 28 81 bd 78 e1 a0 3d b6 70 8c bd
       0.029148897 -0.063066475 0.07855505 -0.068574354
000160 c3 f0 a3 3d 43 88 af bd 63 dd 79 3d 96 53 22 3d
       0.08004906 -0.08570912 0.061002146 0.039630495
000170 75 81 7d bd 31 da ef 3c 03 14 63 3d 2c c8 35 bd
       -0.061891038 0.029278846 0.055439007 -0.044380352
000180 f4 a8 ce 3d 3b 57 08 3d 5b b9 42 3c 8a 8c 37 3d
       0.10090819 0.033286314 0.0118850125 0.044811763
000190 fa c5 a1 3c 19 43 c2 3d 03 4c f7 bb fd e0 9d bd
       0.019747723 0.09485454 -0.007546903 -0.07708929
0001a0 a5 52 52 bd c6 12 71 3c c6 26 8a 3d a8 bf a3 bd
       -0.051348347 0.014713949 0.06745677 -0.0799554
0001b0 10 74 ae 3b 38 ec 12 3d 56 fd 9b bc a1 95 0d bd
       0.0053238943 0.035869807 -0.019041698 -0.034566525
0001c0 8d c5 39 3d 96 5a f0 3c b6 2e 8e 3d 8d e8 63 bd
       0.045354415 0.02934007 0.06942503 -0.0556417
0001d0 20 70 ed bb c3 1e 2d bd 70 40 71 bc 8f ce ae 3c
       -0.0072460324 -0.042265665 -0.014724836 0.02133873
0001e0 df 36 07 bd b6 c5 47 3d 1c 0b 84 3d c5 16 c9 bd
       -0.033011314 0.048772536 0.064474314 -0.09818796
0001f0 63 97 7a bd 5b ba a4 bd 72 c4 7c bd 42 34 1a 3d
       -0.06117953 -0.08043357 -0.061710782 0.037647493
000200 4b f3 f2 bd 73 3d 93 3d 7c 4e ba bd 7d ef 0a bd
       -0.11862811 0.07189455 -0.09097001 -0.0339198
000210 36 b1 4e 3e e0 60 5d 3e aa 8d 5a bc 6d 24 77 3e
       0.20184788 0.21618986 -0.013339439 0.24134989
000220 3f 0a 78 3d d3 df b4 3d 75 c0 21 be 8f 2b 60 bd
       0.060556646 0.088317536 -0.15796073 -0.05472904
000230 05 d7 00 3e 28 89 39 3c 61 22 b7 3d 32 d8 38 be
       0.12582023 0.0113242045 0.08942104 -0.18051222
000240 be 81 1a be b5 90 e5 3b 23 43 14 be 13 71 1a 3d
       -0.15088555 0.007005776 -0.14478736 0.037705492
000250 1a d2 96 bc 37 5c 6b bc e3 b8 ab 3d 8f ef 58 3d
       -0.018410731 -0.014365247 0.08384874 0.052962836
000260 40 1d 0f be 4f d1 30 be e4 26 82 3c bc 7c 36 be
       -0.13976002 -0.17267345 0.015887685 -0.1782102
000270 9e fe 3e 3e af bb 31 3e 31 10 bd 3c 8f 6d de bd
       0.18651816 0.17356752 0.02307901 -0.108607404
000280 ac bb be bd 90 bb c1 bc a8 87 21 be b3 21 1d 3e
       -0.09313139 -0.023649007 -0.15774405 0.15344886
000290 63 e8 bf bd 6d 05 05 3a 1f 89 69 3d 4a 4b e1 bd
       -0.09370496 0.0005074356 0.057015534 -0.110006884
0002a0 7d eb e5 3d 2f 0b e1 bd b4 46 13 3e 72 23 e5 3c
       0.112265565 -0.10988461 0.1438244 0.027971003
0002b0 56 66 8b 3e 2d 4d d6 bd 3d c7 2e 3e 43 fd d0 3d
       0.27226514 -0.10463939 0.17068191 0.10204556
0002c0 bc 96 1d 3e a7 20 73 3d 49 cc 50 be 8b ad d6 3d
       0.15389532 0.05935731 -0.20390429 0.104823194
0002d0 b8 d0 d5 bd ae ca 6c bd 7e 8c 0b 3d 0e 8f fb 3d
       -0.104402006 -0.057810478 0.03406953 0.12283145
0002e0 30 37 60 be 71 59 d0 bd 0e 7d 08 3e c5 e5 b3 bd
       -0.21896052 -0.101733096 0.13328955 -0.087840594
0002f0 8f 41 2b bc 62 89 ed 3c 0b 7e 27 3e 1a 65 e4 bc
       -0.010452642 0.028996173 0.16356675 -0.02788024
000300 dc 65 cd bd 68 3a a1 3d 34 6a 2a be b0 40 a1 bd
       -0.10029194 0.07872468 -0.16642076 -0.07873666
000310 6e c7 16 3e ce d6 fc 3b df 2a 5e 3c e9 99 a8 bd
       0.14724514 0.0077160364 0.013560026 -0.08232481
000320 6c 38 01 3e e1 5f 88 bd d6 3a 67 3e f4 44 3d bd
       0.1261918 -0.066589125 0.22581038 -0.046208337
000330 8d f1 1d be c6 98 1c bd 68 9d f1 3d 90 b0 92 bd
       -0.15424176 -0.038231634 0.11797601 -0.07162583
000340 b4 b1 88 bd 8a 24 18 3e 00 72 a9 bc 48 68 d4 3d
       -0.06674519 0.14857689 -0.020684242 0.103714526
000350 56 ab 54 3e bb 6e aa bd 56 6e 7d 3e 99 d3 cc bd
       0.20768484 -0.083219014 0.24749121 -0.100012966
000360 88 d4 fc 3d 0f c5 61 bb f1 1e a7 3d cd 9a 06 bd
       0.123452246 -0.0034449731 0.081601985 -0.032862473
000370 d4 4b cd 3d 07 8d ad 3d dc c4 89 bd 4a 8a d0 3c
       0.10024229 0.084741645 -0.06727001 0.025456566
000380 02 cc b3 3d 02 87 47 be 6e b5 63 3d 6a c4 fc bc
       0.08779146 -0.19485095 0.055592947 -0.030855376
000390 a3 68 38 bc 47 52 6d bd 7c a5 6f 3d 9f 5b 59 bd
       -0.011255416 -0.057939794 0.058507428 -0.053065892
0003a0 12 84 fd bb 32 4b ae bb 24 8d c3 3d 0c 4b 09 bd
       -0.0077366913 -0.0053190226 0.09548405 -0.033518836
0003b0 c2 5f 64 be 3f 03 1d be 36 05 09 be 42 94 25 be
       -0.22302154 -0.1533327 -0.13380894 -0.16169837
0003c0 1e 27 af bd 2d f1 ef 3c a4 83 97 3c 06 35 75 bc
       -0.08552383 0.029289806 0.018495388 -0.014966255
0003d0 f1 e3 75 be 12 f7 31 bc d9 b2 c4 3d b4 81 0e bc
       -0.24012734 -0.010862129 0.09604425 -0.008697916
0003e0 3f d4 2d 3d c2 74 b0 bd 94 ba 4d 3b 63 46 7b 3e
       0.04243874 -0.0861602 0.0031391727 0.24538569
0003f0 b1 c9 5d bd ef 18 a2 3d 1b 0e 12 3d 7d ef 27 3d
       -0.054147426 0.07914912 0.035657983 0.04099988

layer4.bias f4 [128]
000000 07 45 8c bb 9b be 72 3e dd 4c 80 bd e2 58 49 3d
       -0.0042806896 0.23705523 -0.062646605 0.04915703
000010 66 1e fc 3d ac f9 d8 bb 6c 39 b2 3b 3a 87 46 be
       0.123104855 -0.00662156 0.005438974 -0.19387522
000020 e7 38 23 bc 21 11 05 bd a1 0f 08 bd 70 bc 59 3e
       -0.009962297 -0.03248704 -0.03321803 0.2126329
000030 36 27 bf 3d eb 7d c2 3d b9 74 46 3e fe 1f 72 3d
       0.09333651 0.09496673 0.19380464 0.05911254
000040 e5 99 a1 3d 85 f8 96 bd a8 95 ec 3d 1b 2c 01 3d
       0.07890681 -0.0737162 0.11551982 0.031536203
000050 e2 2a 6e bd 8b 75 d4 3c a3 1a e3 3d 02 67 93 bd
       -0.058146365 0.025934955 0.11089065 -0.071973816
000060 45 79 bb bd a7 d4 4c be a3 a2 75 3b 0b 73 fc bd
       -0.0915399 -0.20002995 0.0037480972 -0.1232663
000070 bd fd 82 3d 7d 2c 79 bd 77 46 9c bd 1d 7e 32 bd
       0.06396053 -0.060833443 -0.076306276 -0.043577302
000080 55 ed 20 3c 53 85 24 3e 9b 04 b9 3d 7c c8 14 3d
       0.009822209 0.16066484 0.090340815 0.03632401
000090 57 8a 5c 3e df 04 2b bd 04 a1 7f bd 34 36 53 3e
       0.21537147 -0.041752692 -0.062409416 0.20626146
0000a0 5e 45 25 bc db 76 01 3e 07 39 41 bd 6a 95 9f 3d
       -0.010087339 0.12642996 -0.047173526 0.0779217
0000b0 1f 84 c3 bd 0f c6 e2 3c 5e e4 8d bd 89 c6 81 bd
       -0.095466845 0.027682332 -0.06928323 -0.06336696
0000c0 ec df b5 3d 8e 24 f8 bd 0b 6c 16 3e dd 80 12 3e
       0.088806 -0.12116347 0.14689653 0.1430697
0000d0 36 a5 f1 bd a6 a5 62 3d 64 c2 0b be 8e c7 bc 3d
       -0.117990896 0.055333756 -0.13648373 0.092177495
0000e0 60 89 8f bd 52 3b 71 bc 7a 51 7b 3e 37 60 18 3d
       -0.07008624 -0.014723616 0.245428 0.037201133
0000f0 ce a7 63 3d aa 6d 3c 3b 66 f7 02 bd 20 bb 7e bd
       0.055579953 0.0028751888 -0.03197422 -0.062190175
000100 89 fc ef 3d df 74 d0 bd b7 f8 5f 3d 2b 36 dc 3d
       0.11718089 -0.101785414 0.054680552 0.10752519
000110 e4 e7 13 3d 3b 08 9e 3d 92 c3 b3 bd e6 1f 3a 3e
       0.03610982 0.077164136 -0.087775365 0.18176231
000120 af e9 9c 3d ce 07 fc bd c6 8a 74 bd dd 5f d4 bc
       0.07661759 -0.12306176 -0.059702657 -0.025924617
000130 e6 df e7 3d 8b e2 b2 3d 6a ec e5 bd 33 8e 50 3c
       0.11322002 0.08734616 -0.11226733 0.012729215
000140 3f 50 43 bd 7d 9a c5 bd 12 9f 04 3e 11 fa bc bc
       -0.04768395 -0.09648607 0.12951306 -0.02306846
000150 ec 42 21 3d 41 61 42 3c 81 0b 9c 3e 71 85 73 bd
       0.039370462 0.011864007 0.30477527 -0.05945343
000160 48 09 55 3c 6f aa 7c bd 69 8c 46 3d 2e 86 4d bd
       0.013002701 -0.061685976 0.04847375 -0.05017679
000170 81 58 9f 3d e2 68 46 bd ff 5b 93 ba bc 6c a0 3c
       0.07780553 -0.048439868 -0.0011242627 0.019583099
000180 4b 16 ed 3d ab 1c 0b bd 9b 9d 4d bd 1d 50 40 3d
       0.11576518 -0.033962887 -0.050199132 0.046951402
000190 c0 62 b3 3c 5c 7a 38 3d 51 68 ef 3d 77 8e ab bd
       0.021897674 0.045038566 0.11689819 -0.083767824
0001a0 cd 77 02 3e b7 fe 0f bd 77 13 cb bd af 30 c0 bd
       0.12741013 -0.035155024 -0.09915822 -0.09384286
0001b0 fa 7f e8 3d fc 2c 06 3e ca ea 3d 3d 9f cd b5 bd
       0.113525346 0.13103098 0.04636649 -0.0887711
0001c0 7d 92 42 bd 9a f0 d9 3d 7d 5e 00 3c b2 35 7a bd
       -0.047502983 0.10641594 0.007835028 -0.061086364
0001d0 f8 49 87 3d 7c 75 c7 3c e0 1d c4 3c 4b 16 d5 3d
       0.06605905 0.024348013 0.023940027 0.10404643
0001e0 20 1d d0 3c 3b 7d 3e bc 7c 29 d7 3c 6e 1d d6 bc
       0.025404513 -0.011626537 0.026264898 -0.02613708
0001f0 66 83 e5 3d 9c 69 8b 3c 8d 4f 59 3e e2 07 80 3c
       0.11206703 0.017018132 0.21221752 0.015628759

input_norm.weight f4 [8]
000000 9d c0 a0 3f f1 5a 59 3f e7 91 71 3f e5 15 54 3f
       1.2558781 0.8490439 0.94363254 0.8284591
000010 8b 39 50 3f 01 b6 84 3f a8 a4 17 3f e8 c8 3b 3f
       0.81337804 1.0368043 0.5923562 0.73353434

input_norm.bias f4 [8]
000000 63 68 89 3e fb ea 5c 3e 29 1b fc 3e 00 72 db 3e
       0.26837453 0.21574013 0.49239472 0.42860413
000010 5f cf af 3d 69 2c 93 3e f3 6e 8d 3e 63 a2 d1 3d
       0.08584475 0.2874482 0.2762371 0.10236051

input_norm.running_mean f4 [8]
000000 e8 d0 60 40 66 fb 26 3d 05 90 90 bf 61 eb 63 40
       3.5127506 0.040767096 -1.1293951 3.5612414
000010 6b d2 07 3d 20 31 e0 3c 2d 86 cc bd 10 cb 6e 3e
       0.033159655 0.027367175 -0.099865295 0.2331965

input_norm.running_var f4 [8]
000000 53 9d 6b 40 d0 59 7e 3b 4a 3f 0a 40 7a d9 a5 40
       3.6814773 0.0038810857 2.1601129 5.1827974
000010 4b df 81 3e 5d 1d fd 3a 5a 22 1f 3f 88 e5 36 3e
       0.25365672 0.0019311119 0.6216179 0.17860997

norm.weight f4 [128]
000000 24 f0 52 3f f9 24 84 3f 41 23 5f 3f 3a 49 53 3f
       0.82397676 1.0323783 0.8716317 0.8253361
000010 d3 87 56 3f c3 9b 5b 3f 16 31 5b 3f 6c 01 5b 3f
       0.83801 0.8578455 0.85621774 0.85549045
000020 75 c4 5e 3f 1d e6 53 3f ae 43 68 3f 4f 53 66 3f
       0.8701852 0.82773 0.9072827 0.8997087
000030 8b 6e 4f 3f 34 ae 62 3f 13 aa 66 3f 33 1c 62 3f
       0.8102805 0.8854706 0.9010326 0.8832428
000040 55 65 4e 3f 30 4f 56 3f b7 66 6c 3f 13 64 65 3f
       0.8062337 0.8371458 0.9234423 0.89605826
000050 4d 5a 5a 3f 7e 31 66 3f 81 d6 6a 3f c2 04 62 3f
       0.8529404 0.8991927 0.91733557 0.8828851
000060 8d 40 62 3f 5c c9 67 3f 9b 6a 53 3f 0a 46 8b 3f
       0.88379747 0.90541625 0.8258454 1.0880749
000070 c2 12 4b 3f fc 73 4e 3f b9 5e 6c 3f c4 12 62 3f
       0.793255 0.8064573 0.92332035 0.88309884
000080 c7 2f 4f 3f 3e 95 5d 3f 97 f7 5e 3f 36 2b 64 3f
       0.8093228 0.8655585 0.8709654 0.89128435
000090 c5 b4 67 3f 3d c3 63 3f c1 56 4c 3f 7d cf 72 3f
       0.9051021 0.88969785 0.79819876 0.9484785
0000a0 ed 3e 6c 3f 3c 1e 5c 3f 8d d8 78 3f d8 db 51 3f
       0.9228352 0.85983634 0.9720543 0.8197608
0000b0 a9 fe 5b 3f 07 48 6a 3f 4f f9 84 3f 6c d8 5b 3f
       0.85935456 0.91516155 1.0388583 0.8587711
0000c0 3a 10 6b 3f 53 9e 64 3f e0 02 66 3f 82 51 5e 3f
       0.91821635 0.89304084 0.89848137 0.8684312
0000d0 8d 5d 5b 3f e6 c3 61 3f 99 bf 52 3f f8 82 5e 3f
       0.8568962 0.8818954 0.82323605 0.8691859
0000e0 a6 b6 58 3f 0e 50 80 3f 55 b3 64 3f 1e 1a 53 3f
       0.846537 1.0024431 0.8933614 0.82461727
0000f0 c8 05 5f 3f 15 06 52 3f 65 20 64 3f c5 09 62 3f
       0.87118196 0.8204053 0.8911193 0.8829616
000100 55 69 57 3f e2 40 5e 3f 11 df 5d 3f d9 56 5d 3f
       0.841451 0.86817753 0.866685 0.86460644
000110 f1 e2 49 3f ec 49 65 3f f8 39 65 3f 9b 29 5d 3f
       0.7886191 0.8956592 0.8954158 0.8639161
000120 71 90 5d 3f 49 a1 54 3f 9d 7e 5b 3f 3f 64 5f 3f
       0.86548525 0.830586 0.8574007 0.8726234
000130 44 57 6e 3f 83 08 64 3f af 9c 5a 3f 8b 48 80 3f
       0.93101907 0.8907549 0.8539533 1.0022138
000140 bb 00 60 3f a3 1b 5c 3f f2 a5 5a 3f 53 cd 58 3f
       0.87501115 0.8597967 0.8540946 0.846883
000150 36 7c 5e 3f d9 da 53 3f 68 32 76 3f d2 bf 60 3f
       0.8690828 0.8275581 0.96170664 0.87792695
000160 ee d7 5c 3f 31 53 5e 3f 5f 20 51 3f 15 91 60 3f
       0.8626698 0.8684569 0.8169002 0.8772138
000170 13 70 4b 3f fc 97 4e 3f a4 04 52 3f ba 3e 66 3f
       0.79467887 0.8070066 0.8203833 0.89939463
000180 d4 36 69 3f f4 1f 61 3f 93 06 66 3f 72 70 6a 3f
       0.91099286 0.8793938 0.8985378 0.9157783
000190 ca 6a 5b 3f 88 c2 5f 3f 1c 35 51 3f ca 38 4d 3f
       0.8570982 0.87406206 0.81721663 0.8016478
0001a0 4a e1 57 3f 7c 6e 6b 3f cd d9 57 3f 6a 5b 64 3f
       0.8432814 0.9196546 0.8431671 0.89201987
0001b0 ec e1 82 3f de 6d 5a 3f ab 8b 5d 3f 1d ec 5b 3f
       1.0225196 0.85323894 0.8654124 0.85907155
0001c0 5e 96 53 3f c2 dd 61 3f 26 bc 55 3f 57 30 59 3f
       0.8265132 0.88229 0.83490217 0.84839386
0001d0 75 d9 5b 3f 5b 84 5c 3f ca 2c 5a 3f 37 94 5d 3f
       0.8587869 0.8613946 0.8522459 0.8655428
0001e0 e1 6c 4f 3f cc 6a 6b 3f eb ae 5f 3f 22 67 53 3f
       0.8102551 0.91959834 0.8737628 0.82579243
0001f0 7b 9e 65 3f 1a 88 60 3f 1a 00 76 3f a3 6d 50 3f
       0.89694947 0.87707675 0.96093905 0.8141729

norm.bias f4 [128]
000000 c6 78 cf 3d 8b b7 af 3d 8e 02 bd 3d fd 0f e2 bd
       0.101304576 0.0857993 0.09229003 -0.11038206
000010 26 92 0f 3e a1 53 ca bd 9a 33 09 be a7 b6 d5 bd
       0.14020595 -0.09879232 -0.1339859 -0.10435229
000020 53 97 60 3e 7e 34 ff 3d 6a 55 52 3e e9 fe 14 3e
       0.21932726 0.12461184 0.20540395 0.14550366
000030 56 fa 0f 3e a1 70 69 3e 5b b8 99 3e d4 86 c7 bd
       0.1406034 0.22796871 0.30023465 -0.09742513
000040 0d 2b 3b 3e b5 75 e5 3d 7b d3 2f 3e d1 b4 8a 3b
       0.18278141 0.112040915 0.17170517 0.004232981
000050 f3 3a 32 3d 38 f9 0d bd cd 69 cc 3d 88 1b 55 bd
       0.04351325 -0.0346615 0.099811174 -0.05202821
000060 6d 42 60 3d 3b 7a 56 bb f1 c4 0c 3e 57 1e 3d be
       0.05475085 -0.0032726664 0.13747002 -0.18468605
000070 48 4e b5 be fd 8e 0b be 66 35 54 bc 6c 64 34 3e
       -0.35411286 -0.13628764 -0.012952184 0.17616433
000080 df 22 6d bc 5d 8e 1b be d5 16 52 bd 57 ad 79 be
       -0.014473646 -0.15191026 -0.051291306 -0.2438253
000090 f9 1e 63 bd 07 ce 2b bc d0 34 89 3d e5 29 31 3e
       -0.05544946 -0.010486132 0.06699526 0.17301138
0000a0 54 e7 24 3d af b8 51 3e a9 cd d1 3d 91 68 88 3e
       0.040259674 0.20480607 0.10244305 0.26642278
0000b0 8c 34 14 bd 1c 28 e9 3b 50 6b 18 3e 42 6b 8e be
       -0.036182925 0.007115377 0.14884686 -0.27816206
0000c0 13 5e 09 3e ec ec 66 be 1a db a1 3d e3 0a 41 3e
       0.13414793 -0.22551316 0.079031184 0.18851809
0000d0 82 47 5a 3e b4 34 55 be 2d 6d 3e bd cf c4 8a bd
       0.2131634 -0.20820886 -0.046490837 -0.067758195
0000e0 e1 a4 bc 3d 71 59 37 3d a0 fc 26 3e 16 1a c5 3e
       0.09211136 0.044763032 0.16307306 0.38496464
0000f0 9c 85 0a be 26 88 05 3e 8b 9d 2e be 21 99 ae 3e
       -0.1352753 0.13040218 -0.17052285 0.34101203
000100 a6 3c 03 3d 1c ec 74 be 29 5f 90 bd 07 ce 89 3d
       0.03204026 -0.23918194 -0.070494 0.0672875
000110 48 0b 6f 3e 59 4a 44 bd f5 d8 a2 3e b9 af c7 3d
       0.23344147 -0.047922466 0.3180615 0.09750313
000120 95 6c 13 3e 30 e7 57 be 45 39 e6 3d b2 44 62 3e
       0.1439689 -0.21084285 0.11241392 0.22096518
000130 51 47 a0 bd 34 cb 94 be d8 33 94 bd e7 8d aa bd
       -0.078261025 -0.29061282 -0.07236451 -0.08327847
000140 11 73 b5 3c b6 61 14 3e a4 f2 00 be 96 b1 b7 bd
       0.022149595 0.14490399 -0.1259256 -0.08969419
000150 1d 59 19 3d 75 e0 01 bd 9e fb ad 3e 8b 86 10 3d
       0.0374385 -0.0317082 0.3398103 0.03528456
000160 3f 5b c3 be 03 0c 03 3d fe e8 03 3e e6 a4 4a 3e
       -0.38155553 0.031993877 0.12881848 0.19789466
000170 ef 7f 54 bc ee 17 66 3e 20 0f 99 3c 1a dd 93 3d
       -0.012969955 0.22470066 0.01868397 0.07219906
000180 58 94 91 3d 8a d2 d2 bd 4c 0d 98 be 69 b3 10 3e
       0.071083724 -0.102940634 -0.29697645 0.1413094
000190 75 9b 7a 3d 06 4b cb bc c3 d4 90 bc 17 67 19 be
       0.06118341 -0.024816047 -0.017679578 -0.14980732
0001a0 dd 99 66 3d cf c5 0c be 0c 1c 0f 3e 8b 96 a1 3c
       0.05629908 -0.13747333 0.13975543 0.019725105
0001b0 bb d7 b2 bd e4 60 02 3e ca 4c ac bd 3a 7a 4c 3e
       -0.087325536 0.12732273 -0.08413084 0.199685
0001c0 9b 64 7f bd 1f e1 84 3d 77 ba 9b bd 62 46 4f bc
       -0.062351804 0.06488251 -0.07603925 -0.012651058
0001d0 47 4f 06 bd 12 4c 60 be 2c 54 03 3e a6 c3 ad bd
       -0.03279045 -0.21904019 0.12825078 -0.084845826
0001e0 0c ec e2 3d 12 1f 76 3d ae df be be 27 b5 74 3d
       0.110801786 0.060088225 -0.3728003 0.059743073
0001f0 24 36 ba bd 19 4f fd bd 53 af f3 3c 03 ea 95 bc
       -0.09092358 -0.12368602 0.029746687 -0.018300062
