final_models/our_model_varying_speed/checkpoint_models/best_model_episode_6869.pt (torch, 226638 bytes, 22 tensors)

layer1.weight f4 [128, 8]
000000 8e c9 9f 3e 58 39 6e be ab f1 fd bd 6a e0 6d 3e
       0.31208462 -0.23264062 -0.1239961 0.23230138
000010 41 52 95 be d8 16 2d 3e 05 72 94 bd eb 77 66 3e
       -0.29164317 0.16903245 -0.0724831 0.22506683
000020 4a dd 45 bc 25 be 6e be 08 67 88 3e 86 6e 55 bd
       -0.012076685 -0.23314722 0.26641107 -0.052107356
000030 91 f7 08 bd 5e 34 dc bd 04 f0 94 bc ce 7f f7 bb
       -0.033439223 -0.10752176 -0.018180855 -0.0075530773
000040 88 06 18 be 81 b2 61 bd c0 ed c5 3e d7 42 1d 3e
       -0.14846241 -0.055101875 0.3865795 0.15357529
000050 f4 fc 13 be 28 8e 54 be 16 b5 e2 bd 93 b7 1a be
       -0.14451963 -0.20757353 -0.11069696 -0.1510909
000060 ad 4d a7 bd 3d 99 00 3c d9 ca 48 3e af 52 86 3e
       -0.08169112 0.007849035 0.1960863 0.26234958
000070 bd 43 dd be d1 e9 10 3e 62 cd 98 3d 54 30 b3 3e
       -0.43215743 0.14151694 0.07461049 0.3499781
000080 2e 43 96 3d 0a da 74 be 69 fc 8f be f4 ef 9b bc
       0.07337032 -0.239113 -0.2812226 -0.019035317
000090 fa 4c 41 3e 3b 17 0f bd 75 e7 2f 3e 19 db 3e be
       0.1887702 -0.034934264 0.17178138 -0.18638267
0000a0 75 3f 57 3e f5 77 07 be e0 cd 8f 3e ca ad 0d be
       0.210203 -0.13229354 0.28086758 -0.13835827
0000b0 65 1e 04 be ee a5 84 3e d0 eb f8 bd 73 02 e7 3c
       -0.1290222 0.25907844 -0.12154353 0.02819941
0000c0 8d 20 48 bb a1 bc b6 3c c0 56 5d be e3 ba 30 be
       -0.003053698 0.022306742 -0.21615124 -0.17258792
0000d0 86 4b c7 3d c8 0a 27 be 13 94 a5 3e 00 f2 d5 3d
       0.09731202 -0.16312706 0.32339534 0.104465485
0000e0 54 51 8c 3c 49 2b b0 be 98 7c 15 3e 96 e4 9b 3d
       0.017128624 -0.34408024 0.1459831 0.07611959
0000f0 1c 6c 66 be 79 20 58 3e ff 11 71 3e 50 00 b9 3e
       -0.22502178 0.21106137 0.23542021 0.3613305
000100 44 88 4f be 0a 99 2b be 32 5c 3b bd a5 ce ce 3c
       -0.20266825 -0.16757599 -0.04574222 0.02524502
000110 b3 54 92 be de 0a cd bd 4c 1d fc 3d ac aa f9 3c
       -0.28580245 -0.100118384 0.123102754 0.03047689
000120 a3 40 31 3e 50 2c 16 be 6e 76 27 3e ab 09 0d 3c
       0.17309813 -0.14665341 0.16353771 0.008608262
000130 aa 3b 4c 3e e9 9c 34 3e 7d 9f 6c be 05 e3 ff 3d
       0.19944635 0.17637981 -0.23107715 0.124944724
000140 31 bd 75 be b4 2e a5 be b3 52 eb 3c aa c1 27 be
       -0.23997952 -0.32262194 0.028725957 -0.1638247
000150 ab 1f 36 3e 7b 9b 49 be 20 2d 9b be 3e 27 41 3e
       0.17785518 -0.19688217 -0.30307865 0.18862626
000160 d3 96 24 bd ab a1 0a 3e 75 19 b7 3d 33 72 f7 bd
       -0.0401829 0.13538234 0.089404024 -0.12082329
000170 a6 c4 da bc ce a1 0b 3e 17 6a f5 bd 00 a0 11 be
       -0.026705097 0.13635942 -0.11983126 -0.14221191
000180 4e 57 7d 3e 57 3a 3f 3e ce e0 1b 3d 5e 4d d7 bd
       0.24740335 0.18674599 0.038056187 -0.105128035
000190 62 af aa 3e 26 10 da bd 34 cc 31 3e eb 58 45 3e
       0.3333693 -0.10647611 0.17363054 0.19272201
0001a0 8c 12 ff bd 13 99 a0 be 27 f0 bf 3e c7 5f 83 3d
       -0.124547094 -0.31366786 0.3748791 0.064147525
0001b0 9e 7c c7 3e ba 40 e9 3c cd 23 45 3e b1 3f 33 3e
       0.38962263 0.028473247 0.19251938 0.17504765
0001c0 2f 81 9c 3e 61 ac fc bd 22 de a5 bc d7 16 99 3d
       0.3056731 -0.12337566 -0.020247523 0.074750595
0001d0 b0 a9 16 3d c9 c6 b3 bd ab 8a ec bc 61 22 97 be
       0.03678292 -0.0877815 -0.028874716 -0.29518417
0001e0 43 61 79 be f6 ee 2e 3b 3c 9e 9b 3e 50 40 86 be
       -0.24353509 0.0026692725 0.3039416 -0.26220942
0001f0 17 48 1d 3e 6f 7d 6a be 56 f5 cf be 57 0e ba bc
       0.15359531 -0.22899412 -0.40616864 -0.022711916
000200 ce 5d 3a 3e 87 a5 d8 3e f2 13 7d be 18 42 8d 3e
       0.18199846 0.42313787 -0.2471464 0.27589488
000210 5d 97 a1 3e ca cc 59 3e 3e ff 8a 3e 10 9d 95 3e
       0.31560794 0.21269527 0.2714786 0.29221392
000220 95 d0 e7 3e 7c b8 0f 3e 78 bb 32 be 5c d2 b5 be
       0.45276323 0.14035219 -0.17454326 -0.35512054
000230 33 69 80 be 40 72 e0 3c f4 1e 8d be d6 45 1c 3e
       -0.2508026 0.027398229 -0.27562678 0.15261015
000240 89 dd 8a 3c e1 fb 83 bd 27 a6 e7 3d 8f ed a1 3d
       0.01695134 -0.064445265 0.11310988 0.07906639
000250 6f d5 1c 3e cf 5f ff 3d d2 a8 07 bd 84 28 be 3e
       0.15315793 0.12469446 -0.033119984 0.37140286
000260 09 20 ad bd 08 ca 3d bd a5 e2 aa be 65 d6 61 be
       -0.08453376 -0.04633525 -0.3337604 -0.22054441
000270 08 fe 61 be a5 5f 04 be 15 73 61 3e 6d 81 fd bd
       -0.22069561 -0.1292711 0.22016557 -0.12378202
000280 e3 f4 f3 be 06 6c b4 3d 25 b7 02 3e c3 6c f9 3e
       -0.4764777 0.08809666 0.12765177 0.4871579
000290 7f 51 4d be 4d 4d 35 3e 0f 88 06 be d9 48 06 bc
       -0.2005062 0.17705269 -0.1313784 -0.008196079
0002a0 3f dd 7f be a9 9c 62 be 4e 19 6f be 37 cf dc 3d
       -0.24986742 -0.22130074 -0.23349497 0.107817106
0002b0 f9 72 19 bd dd b4 14 bc 4a 0a d4 3e f5 a5 aa 3e
       -0.037463162 -0.009076324 0.414141 0.3332974
0002c0 63 08 8e 3e bc ed b3 3d fd f9 e4 be 2c 8f 16 3e
       0.27740774 0.087855786 -0.44721976 0.14703053
0002d0 36 d1 bb bc c0 67 6d 3d dd 79 d1 be 73 74 29 be
       -0.022926908 0.05796027 -0.40913287 -0.16548328
0002e0 00 8e a8 be 65 21 39 3e eb a6 b4 be 7a 72 a2 be
       -0.32920837 0.18079145 -0.35283598 -0.31727964
0002f0 77 60 11 bc ec 9e 80 be 59 b5 46 3d c5 00 af bd
       -0.008873097 -0.25121248 0.04851279 -0.08545069
000300 98 91 a3 be 7e 35 fe 3c e0 2b 95 3e 84 dc 61 be
       -0.31947017 0.031031366 0.29135036 -0.22056776
000310 37 f1 3c 3e d2 24 b4 3d 2c a3 c5 3e 84 44 9a be
       0.18451391 0.087960854 0.38601053 -0.30130398
000320 49 36 08 bc 56 dd a3 be e7 bb 80 3e 0c 4d 4d bc
       -0.008313724 -0.32004803 0.25143358 -0.012530576
000330 0b ae 15 3d 67 6d 8f be 46 b2 07 bd b4 7b 27 3d
       0.036542933 -0.28013155 -0.033129 0.040889457
000340 14 2e b2 3b f0 6d 1c 3e 4c 81 6f 3d 37 f5 82 3c
       0.005437622 0.15276313 0.058472916 0.015986068
000350 66 b5 83 be 68 84 9e 3e 23 9e 9c 3e 22 e3 d7 3e
       -0.25724334 0.30960393 0.305894 0.42165476
000360 1e 8f 99 3c 3f f9 82 be a6 d3 13 be 80 ed c7 3d
       0.018745001 -0.25580785 -0.14436206 0.097620964
000370 8a 43 03 be 51 ec a8 bc 64 de ee bd 04 82 88 be
       -0.12818733 -0.020620497 -0.116635114 -0.26661694
000380 dd 76 c1 3e 2d 7b 53 be eb 7a 4e 3b e8 5d 87 3e
       0.37785998 -0.20652457 0.003150637 0.26438832
000390 30 20 fb 3e 50 76 90 3e 7e bd e1 bc 40 89 cb be
       0.49047995 0.28215265 -0.027556177 -0.3975315
0003a0 0c ec 3e 3e 29 93 51 3d 89 96 b8 bd 8d 0a 38 3d
       0.18644732 0.051165733 -0.09013087 0.044931937
0003b0 f9 c3 cc be 77 46 52 3e c7 32 82 3e 56 98 a1 be
       -0.39993265 0.20534693 0.25429365 -0.31561536
0003c0 72 5e de be 42 c8 85 be 18 aa ca 3d ee 61 c1 3d
       -0.4343143 -0.26129347 0.09895724 0.09442507
0003d0 9c 16 5c be 31 da 8d 3e f6 1f ae be e2 16 47 be
       -0.21493 0.2770553 -0.3400876 -0.19442323
0003e0 3c c9 2a be 0d 6d a4 3e e2 4a a1 3e 08 79 b7 bc
       -0.16678327 0.3211445 0.31502444 -0.02239658
0003f0 21 35 88 3d 34 11 f0 3d c3 a3 aa 3d 37 5d 4a bd
       0.066507585 0.11722031 0.08332016 -0.049405303

layer1.bias f4 [128]
000000 d1 88 8b bc bf 00 54 bd c8 6c ed 3d 9f 9d e7 bd
       -0.017033013 -0.051758524 0.11593014 -0.11309361
000010 25 80 bc be bd 6c 17 3e 6d c4 21 be 90 03 cc bd
       -0.36816517 0.14787574 -0.15797587 -0.09961617
000020 cd 2f b3 3e 6b 25 1e 3e 00 d0 0f 3e d2 77 43 3c
       0.34997407 0.15443961 0.1404419 0.011930423
000030 13 f9 89 be c7 70 3f 3e 13 42 40 be 44 bc 08 3d
       -0.2694784 0.18695365 -0.18775205 0.03338267
000040 6d e1 9e be 7a 67 36 3e 33 8f 47 be a1 02 a2 3e
       -0.3103136 0.1781291 -0.1948822 0.3164263
000050 5d 8d 1f 3e 32 4b b8 3e 48 9f 52 3d 38 5d 25 bc
       0.1558127 0.3599487 0.051421434 -0.010093026
000060 c7 f4 fe 3d 6e 25 41 be 64 9c 2f be df fb cd be
       0.12449031 -0.18861935 -0.17149502 -0.40231225
000070 c6 e9 cb 3e a7 9a d6 3b be c6 07 3e 2c 46 08 3d
       0.39826792 0.0065491977 0.13259408 0.033270046
000080 d3 a7 21 3e 36 05 88 be 78 f1 2e be 1f a8 8e 3e
       0.15786676 -0.26566476 -0.170843 0.2786264
000090 8a 4f 37 3e 27 a5 81 bb 66 60 84 be 4d 71 6a bd
       0.17901435 -0.0039564553 -0.25854796 -0.05723696
0000a0 d8 83 6a be ad b6 b4 3c 71 d2 83 be 03 b9 88 be
       -0.22901857 0.022059763 -0.25746492 -0.26703653
0000b0 40 5d cd be c6 1f b2 39 a0 34 0f 3e 70 5c c0 3e
       -0.40110207 0.0003397448 0.13984919 0.37570524
0000c0 cd 45 a6 be 14 dd cd bd 39 54 61 be bc c4 86 be
       -0.3247513 -0.10051933 -0.22004785 -0.2632197
0000d0 9a 46 a3 bc 00 d4 be 3e eb 3a 6f 3c 25 03 a0 bd
       -0.019931126 0.37271118 0.0146014495 -0.078131
0000e0 6f 68 94 3e 58 40 a5 be 91 df 92 bc 4c 3e 8a 3e
       0.28985927 -0.32275653 -0.01792887 0.27000654
0000f0 42 a2 89 3e 9c 22 a2 3d fd 85 45 be c3 2f df be
       0.26881605 0.079167575 -0.19289394 -0.43591127
000100 22 5f 21 be c0 22 5c 3e f8 5a 85 3e d1 86 67 3d
       -0.15758947 0.21497631 0.26045966 0.056525055
000110 29 bc 9d be 6b ae 81 bd 53 22 fe 3d ed d9 e6 3c
       -0.30807617 -0.06332096 0.124088906 0.028180087
000120 e6 5a 5f be b6 21 7d 3d 6c e7 17 3d c6 c8 af 3d
       -0.21812019 0.061799727 0.037085935 0.08583216
000130 14 67 75 3b 6f d0 41 3e ef 2f c1 be b9 3b 04 be
       0.0037445473 0.18927167 -0.37731883 -0.12913407
000140 54 99 50 ba 00 32 61 3e 30 8e 30 3e 1d d9 1b 3e
       -0.0007957418 0.2199173 0.1724174 0.15219541
000150 20 aa c2 3e 71 5b 01 3e aa 8e ce be 97 98 1a 3e
       0.3802042 0.12632538 -0.4034322 0.15097271
000160 24 dc 63 be 57 16 1e bc e9 fd 78 3d 48 3b b3 3e
       -0.22251946 -0.009648881 0.060789023 0.35006166
000170 26 1a fc bd b8 3d 59 be 7a bd d3 bd 07 6a 88 bd
       -0.12309675 -0.2121495 -0.10338874 -0.06660848
000180 c5 54 ab 3e b8 a4 53 3e 8d 97 4a 3e d4 2b bc 3d
       0.33463112 0.20668304 0.19784375 0.09188047
000190 92 c7 b9 bd 0f ec 83 bd d5 fc 85 be 96 23 f7 3d
       -0.09071268 -0.06441509 -0.26169458 0.12067334
0001a0 22 99 75 be 31 f2 28 3d 38 d5 3d 3e ca 69 7c 3e
       -0.23984197 0.041246597 0.18538368 0.2464973
0001b0 16 19 b8 be b1 83 c8 3e fb be 19 be c4 30 80 bd
       -0.3595664 0.39162973 -0.1501426 -0.06259301
0001c0 a9 90 9e 3e 79 99 92 3e df f8 97 be 0a f4 68 3e
       0.30969742 0.28632715 -0.2968206 0.22749344
0001d0 65 46 b4 be 53 e2 a7 3e 42 84 d4 3e 6a c3 d5 3b
       -0.35209957 0.3278986 0.41507155 0.0065235393
0001e0 dc 2f 10 3d b2 40 78 3b be 90 a0 be 87 ae 6d be
       0.035201892 0.0037880358 -0.3136043 -0.23211108
0001f0 15 a8 47 bd 2c 39 cc be bf 80 a1 be 22 5e a8 bd
       -0.04874428 -0.3988737 -0.31543538 -0.082210794

layer2.weight f4 [128, 128]
000000 07 f6 28 bd f4 3a 2a bd 05 29 c1 bc 4a 56 ec 3b
       -0.041250255 -0.04156013 -0.02357913 0.007212435
000010 4c 2f c6 3d 09 68 82 bb bf ca 18 bd cc bb 1e 3c
       0.0967699 -0.003979687 -0.03730273 0.009688329
000020 14 54 e0 bd b7 28 9d 3d 68 f8 b2 3d 5b ba 32 bd
       -0.10953537 0.07673781 0.08738786 -0.043634754
000030 c8 4f 3e bd ec 5e 0a 3e cb 1f de bd 27 72 8a 3d
       -0.046462804 0.13512772 -0.10845908 0.06760054
000040 ee 7d 57 bd 74 d1 fc bd f2 a2 0d 3d 58 19 c6 bd
       -0.05261033 -0.123446375 0.034579225 -0.09672803
000050 10 a1 9f 3d ba f9 15 bb 81 ac 74 bd 60 35 92 bd
       0.07794392 -0.0022884444 -0.059734825 -0.07139087
000060 68 bb 74 3d a2 2a e6 3d 68 49 cb ba 07 9d 74 bd
       0.059749037 0.112386 -0.0015509548 -0.059720065
000070 20 e2 dd bd ba 6c 8f 3d 28 b4 94 bc 39 e0 7e 3d
       -0.108341455 0.0700316 -0.018152311 0.062225554
000080 c4 6e 92 3d 32 3a a2 3d a7 cd fa 3c 5a 06 25 3d
       0.07150033 0.07921256 0.03061564 0.04028926
000090 cd e2 87 3d 27 60 c3 bb c9 11 9d 3d 00 1c bd 3c
       0.06635056 -0.00596239 0.07669408 0.02308464
0000a0 34 d7 98 ba 50 6d 23 bd 2e a5 0d 3c 04 9b 9c 3d
       -0.0011660815 -0.03989917 0.008645339 0.076467544
0000b0 35 1c a6 3d e0 de 17 bc c6 53 1b bd f2 32 9b 3d
       0.08110849 -0.009269446 -0.03792169 0.075780764
0000c0 50 15 68 3d 25 76 34 3e 7f fc e5 3c a8 7c 91 bc
       0.05666095 0.17623194 0.028074501 -0.017759636
0000d0 2a 18 af bc 8c 6c 6d bd f3 f2 02 3d 5b f4 85 3c
       -0.021373827 -0.057964846 0.031969976 0.01635187
0000e0 e8 48 90 bd a4 f5 83 bd c2 dd 2e 3d 8e 57 e5 3c
       -0.07045156 -0.064433366 0.042691953 0.02799585
0000f0 7f 2c ff bd 91 d2 3c 3d 3a 36 58 3d 39 a2 4d 3d
       -0.12459659 0.04609925 0.05278609 0.050203536
000100 1d 1f e3 3d 84 17 1b bd 23 b4 aa 3d 03 d0 ae bd
       0.11089919 -0.037864223 0.083351396 -0.08535769
000110 ba da e8 bb 8b bd 5c bd 62 85 92 bc 56 30 cc 3d
       -0.0071061524 -0.0538917 -0.017885868 0.09970157
000120 59 4c c3 3d 4f 18 8f bb a1 cc 26 bd 07 5b f6 bc
       0.095360465 -0.0043669115 -0.040722493 -0.030072702
000130 cf 67 5e bb d6 58 a1 bc 51 5c 7f 3d 8f a8 58 3d
       -0.0033936386 -0.01969568 0.0623439 0.052895125
000140 ca d2 a5 3d a0 6c 26 bd 53 73 a2 3d be 9f a7 bb
       0.080968454 -0.040630937 0.079321526 -0.0051154783
000150 f2 f1 46 bc b9 2a 10 bd 97 9c cd bb 4f 19 55 bd
       -0.012142645 -0.035196993 -0.0062747705 -0.05202609
000160 c0 6f 48 bc 72 c3 ab bd 95 92 6b 3d d7 ef 76 bd
       -0.0122336745 -0.083868876 0.05751284 -0.060287323
000170 fc 27 a9 bc aa c8 7e bd 8a d6 91 3c 31 be 95 3d
       -0.020648949 -0.062203087 0.017802496 0.07311667
000180 cb 4f 8e bd 48 05 b9 bd 88 8c 97 3d 0d ed 89 3d
       -0.06948813 -0.090342104 0.07399851 0.06734667
000190 6b b6 83 3d 47 55 6b bd f8 60 90 3d a1 e7 7e 3d
       0.06431278 -0.057454374 0.07049745 0.062232617
0001a0 b5 2c 1a 3d 90 84 1c bc c2 bb b7 3d 81 5c 27 3d
       0.037640292 -0.00955309 0.08971359 0.040859703
0001b0 ed 48 19 3d db 7a a8 bc e2 2c 39 bd 7f d9 69 bd
       0.037423063 -0.020566395 -0.04520882 -0.057092186
0001c0 46 26 f3 3d 16 0c dd 3c dc 5f 7e 3d 1f 2c 81 3d
       0.118725345 0.026983302 0.062103137 0.063072436
0001d0 8b 2d a6 bd ba 23 ce 3b 93 00 25 bd 6e e3 34 3c
       -0.081141554 0.00629088 -0.04028375 0.011040552
0001e0 5d c5 28 3d a2 67 c1 3c 78 6f 00 bd 33 58 c9 bc
       0.041203845 0.023608986 -0.031356305 -0.02457819
0001f0 ce ed eb bd ca 42 95 bd 49 c1 88 3d 7d 82 84 bd
       -0.11519967 -0.0728813 0.06677491 -0.06470201
000200 44 f1 66 bc f5 03 56 bb be bc a3 3c 09 ec eb bc
       -0.014095608 -0.0032656167 0.01998746 -0.028799074
000210 7f f8 29 3d 9b 5c 49 bc 58 38 72 3d 06 42 e3 bb
       0.04149675 -0.012290145 0.059135765 -0.006935361
000220 07 91 97 3c 80 9d 45 bb ed f3 cb 3d d1 1d 23 3c
       0.018501772 -0.0030153692 0.099586345 0.009955839
000230 5d a9 43 3d 97 1b b7 bc f5 8d 3a 3c 14 8d cd 3d
       0.04776894 -0.022352023 0.011386384 0.10036674
000240 65 a9 ce bd e6 0f 19 bc 65 c3 8d 3d 5a 87 27 bd
       -0.10090903 -0.009342169 0.06922034 -0.040900566
000250 3c 1c 2e bd 39 03 ca ba 9e 98 8f 3c ad b5 62 3d
       -0.042507395 -0.0015412337 0.017528828 0.05534904
000260 03 79 32 bb 17 74 32 3d a8 bd 88 bd 50 eb f2 3c
       -0.0027232773 0.043567743 -0.06676799 0.029653221
000270 65 35 5a bd 4a bc 59 3d ee 43 3b bd 40 e4 ba bd
       -0.053273577 0.053158082 -0.04571908 -0.091255665
000280 c9 9d cb ba 5f 57 37 3d 97 05 22 bb 48 36 cd 3c
       -0.0015534695 0.044761058 -0.002472257 0.025050297
000290 dc 05 38 bb 20 58 58 3d e3 4f 20 bc 2f 00 ec bd
       -0.0028079664 0.052818418 -0.0097846715 -0.115234725
0002a0 59 22 83 bd ef c2 f0 3c 00 5d 66 bc c9 a9 97 3d
       -0.06403036 0.029389827 -0.014060259 0.07405431
0002b0 82 4b 41 bd ec 59 93 3d b5 21 3b bd e6 25 67 bd
       -0.04719115 0.071948856 -0.045686442 -0.056432627
0002c0 d0 c5 b1 bc af 94 a3 bd 3b bc bf bc 4a e9 8b 3c
       -0.02170077 -0.079873435 -0.023405185 0.017079014
0002d0 c0 7d 03 be 1a 5a ba 3d 28 77 8c bd 42 2c 41 3d
       -0.12840939 0.09099217 -0.06858665 0.04716135
0002e0 dd e1 46 3d f5 cf 0d 3b b5 82 78 bd 16 bc e7 3a
       0.048555244 0.0021638845 -0.060671527 0.0017679955
0002f0 61 42 43 bd 55 c8 a0 3d 38 fb a6 bd b1 16 0d bd
       -0.047670726 0.0785071 -0.08153385 -0.03444547
000300 2e a4 02 bd fa e7 56 bd e0 92 16 bd e9 ec 58 3c
       -0.031894855 -0.052467324 -0.036761165 0.0132400775
000310 a9 50 fe bc 0a bd 85 3b 8a 40 94 3d 59 15 09 bc
       -0.031044321 0.004081373 0.07238872 -0.008366906
000320 62 d3 7a bd a3 e0 04 bd 89 d7 be 3d aa 73 b3 bb
       -0.061236747 -0.032440793 0.09318454 -0.0054764347
000330 a9 35 bc bd 63 d5 6b 3d 46 82 a9 bb 4c 63 9b 3c
       -0.09189922 0.05757655 -0.0051730005 0.018968247
000340 d8 e2 9a bb aa 0f f3 3d f2 73 89 bd 2c cd 42 3d
       -0.004726749 0.11868222 -0.06711568 0.04755895
000350 96 a2 16 3e 1f 12 cf 3b 7a 71 39 3d f6 51 8b 3d
       0.14710459 0.006319299 0.045274235 0.06802742
000360 0e c2 c8 3d 2c 02 0a bd bb 11 c7 bd 12 d9 1f bd
       0.09802638 -0.033693478 -0.09720179 -0.039025374
000370 f0 78 bd bd 57 1e 22 bb fc 3a 96 3d 15 b8 94 3d
       -0.092515826 -0.0024737322 0.07335469 0.07261673
000380 2c 20 1b 3d 73 56 44 3c f8 08 c9 3c 2e 89 70 3d
       0.03787248 0.011983502 0.02454041 0.058724575
000390 e5 08 5a 3d 13 81 43 3b 04 d1 d8 bc e8 39 d0 3c
       0.05323114 0.0029831573 -0.026466854 0.025418237
0003a0 18 08 1a ba 45 07 15 bd cc 69 f5 bc fe f4 b2 3d
       -0.000587584 -0.036383886 -0.029957674 0.08738135
0003b0 3b d8 84 3d 11 5a 0e bd 97 5c 08 bd 18 1a 90 bd
       0.06486555 -0.034753863 -0.033291426 -0.07036227
0003c0 00 05 ba 3a 8b 77 89 3d 6b 0f c3 bd 41 b5 91 3d
       0.0014192164 0.06712254 -0.09524425 0.071146496
0003d0 0b cd a8 bd 49 80 9e bd 13 87 49 bb 0c 49 49 bc
       -0.08242234 -0.07739312 -0.0030750677 -0.012285482
0003e0 51 81 a2 bc 8d 66 19 bd fd 78 53 bd 7b 5d a9 bd
       -0.019837053 -0.037451316 -0.051629055 -0.08269783
0003f0 87 31 84 bd 88 21 8d bd ea 89 81 3d 7f eb 93 bd
       -0.06454759 -0.06891161 0.06325133 -0.07222652

layer2.bias f4 [128]
000000 bd bb 23 bd 11 c0 0b bd e3 70 16 bc c7 f9 3c 3b
       -0.039973963 -0.034118716 -0.009182188 0.0028835402
000010 24 5d dd bd 87 4f 7a 3d 18 1e 77 bd 2c 0d 1a 3e
       -0.10808781 0.061111 -0.060331434 0.15044087
000020 14 79 37 bc a3 63 76 3b ff ae 62 3d ce 91 a8 3d
       -0.011198301 0.003759601 0.05534267 0.08230935
000030 a1 11 a5 bc ae 0b 48 be 10 11 8f 3c 82 25 47 bc
       -0.020150008 -0.19535705 0.01746419 -0.012154939
000040 a3 e8 9d bd ba 0c 0a bb ef 51 bf bc 5b bd c2 3d
       -0.077103876 -0.0021064715 -0.023354499 0.09508773
000050 7c db 10 3e a8 77 40 3d d9 ac 26 3d 7d c4 5f 3c
       0.14146227 0.046989113 0.040692184 0.013657686
000060 28 77 a9 3d 6f 47 01 be 37 0c 20 bc 38 db d0 3b
       0.082746804 -0.12624906 -0.009768537 0.006373789
000070 b9 bc 09 3d 93 99 12 3d 18 67 0d 3e 82 74 d9 bd
       0.033627246 0.03579099 0.13808858 -0.10617925
000080 1e 13 70 bd 02 e0 53 3d 49 cc 85 3b 98 b9 1a 3d
       -0.05861198 0.051727302 0.0040831906 0.037774652
000090 49 1a fa 3d d0 6b c5 3c a5 89 8d bd 05 d8 07 bd
       0.12212045 0.02409926 -0.06911019 -0.033164997
0000a0 19 5f 29 be 09 23 9c 3d 12 6c f7 3c f0 3e d8 bd
       -0.16540183 0.0762387 0.0302029 -0.105588794
0000b0 4e 9f 54 3d 37 66 e9 3d 3e a9 04 3e ad ba 84 bd
       0.051909737 0.11396449 0.12955186 -0.06480918
0000c0 eb 52 ea 3d 66 a2 ae 3c 54 8d 08 3d 74 91 09 bd
       0.114415966 0.021317672 0.033337906 -0.03358598
0000d0 61 ed aa 3d db d3 c2 3d 90 80 5c 3b 78 25 a7 bd
       0.08346058 0.095130645 0.0033645965 -0.081614435
0000e0 c4 0c 8c 3d fd 87 15 be 9a 1d b9 3d ef 2a 92 3d
       0.06838372 -0.14602657 0.09038849 0.07137095
0000f0 c4 b5 10 3d 2e 93 16 3d 15 59 b1 bd ce a0 80 3c
       0.035329595 0.036761455 -0.08659569 0.015701678
000100 ad bc c2 3a 5c 93 6c bd 20 f7 01 3c 0d a4 a2 bb
       0.0014857255 -0.05775772 0.007932454 -0.004963404
000110 4c 50 ac 3a bf 43 a3 3c 7e 23 23 bd b0 7c 4c bd
       0.0013146489 0.019929765 -0.03982877 -0.0499236
000120 89 c3 0a 3e e2 aa ce 3d 42 15 ea bc fa 5a 47 bd
       0.13551153 0.10091187 -0.02857459 -0.048670746
000130 f3 5c 88 3b c4 14 fd bd fe 65 0e bd 55 13 c2 bd
       0.004161471 -0.12357476 -0.034765236 -0.094763435
000140 62 60 3f 3d ca 5f ec bb 43 e5 8f 3d 48 64 a9 bd
       0.046722777 -0.0072135674 0.0702615 -0.0827108
000150 4d 30 8a bd 1e 4d 99 bc 78 23 d9 bd 83 cb 1a be
       -0.06747494 -0.01871353 -0.10602468 -0.15116696
000160 0f 4d 59 bd ab 1c 9b 3b ab dc 5d 3d 74 77 ec 3d
       -0.053052004 0.004733642 0.054165523 0.115462214
000170 8f c7 6f bb f8 7d 32 3e 2d 7b dc 3d 35 84 af 3b
       -0.0036587452 0.17430866 0.107656814 0.0053563365
000180 c2 19 93 bd 5c 6c 1b bc 72 d6 9a 3a 29 2f a9 3a
       -0.07182647 -0.009486284 0.0011813177 0.0012907732
000190 69 95 95 3d 12 c5 f0 3d f4 74 fc bc e8 f7 b3 3d
       0.07303888 0.11756338 -0.030817486 0.08787519
0001a0 c1 94 a4 3d 9d c7 db 3d c6 95 35 bc 75 f6 b6 3b
       0.08036185 0.107314326 -0.011083072 0.005583579
0001b0 be 3d c6 3d 55 4d 05 be c3 bf 3d bd 81 42 aa bd
       0.09679745 -0.13017781 -0.046325456 -0.08313466
0001c0 8d 13 b2 3d c2 0e 48 3c f0 7d 82 3c 32 df 1b 3d
       0.08695135 0.01221055 0.015929192 0.038054653
0001d0 fc 40 9b 3d 37 c2 8a bd 18 c8 e3 bd 76 ff fa bc
       0.07580754 -0.06775325 -0.11122149 -0.030639391
0001e0 de 5e a0 bc c8 ee ea bc 8b c7 4e bc 4c b7 86 b9
       -0.019576486 -0.028678313 -0.012620817 -0.00025695038
0001f0 7e a5 1f be d1 31 ff bd 07 8a 0d 3c 39 94 6d bd
       -0.15590474 -0.124606736 0.008638865 -0.058002684

layer3.weight f4 [128, 128]
000000 35 03 8d bd d2 5a 96 3d aa 07 07 3c 93 aa de bb
       -0.06885377 0.07341541 0.008241573 -0.0067952364
000010 97 7c 82 bd b5 59 6d bd 52 13 65 bd 20 78 71 3d
       -0.0637142 -0.05794688 -0.05592663 0.05895245
000020 ff b4 87 3d 58 71 5d 3d 1d 9a e6 3c 89 af e7 3c
       0.06626319 0.05406317 0.028149659 0.028281944
000030 66 1d 5d bd 9e f3 45 bd 6e 1a a3 3d 33 d1 af 3d
       -0.053983115 -0.048328035 0.079640254 0.085848235
000040 60 61 ac 3d 8e 77 35 3c a6 14 8d 3d 7e 64 62 3c
       0.0841701 0.011075867 0.06888704 0.0138179045
000050 65 73 49 bb 9a 2e 9f 3b 2c b5 7f bd 41 63 ab bd
       -0.0030738947 0.0048578503 -0.06242864 -0.083685406
000060 b5 0a 30 bd 5a 37 49 bd e5 23 7c 3d a6 80 86 bd
       -0.04297896 -0.049125053 0.06155767 -0.065675065
000070 d7 e3 56 bc 5d 1a ba 3c dd de d7 3c e9 e5 d8 3b
       -0.013115845 0.02271765 0.026351387 0.0066192043
000080 c8 29 55 3d d2 71 99 bd 58 73 43 3c 8f 80 bc bd
       0.0520418 -0.074924126 0.011929356 -0.09204208
000090 cc e3 fc 38 f2 45 99 3d 1f 35 6c 3d db 05 14 3d
       0.00012058727 0.07484044 0.057667848 0.036138397
0000a0 e0 0e a5 bd 07 18 98 3c a9 02 c4 3c ee ce c5 bd
       -0.08059478 0.018566145 0.02392705 -0.09658609
0000b0 e7 04 bf bd 24 fe 71 bd 07 8e f3 3c 68 5d 5d 3d
       -0.09327107 -0.059080258 0.02973081 0.054044157
0000c0 cf b6 ce bd b5 18 40 bd ad 06 04 3d 14 60 39 bd
       -0.10093462 -0.046898562 0.03223293 -0.045257643
0000d0 fb 0a 85 3d 0d cc 37 3d d3 31 1b bd e9 f5 df 3d
       0.06496235 0.044872332 -0.037889313 0.109355755
0000e0 4a 35 10 ba ca 61 e6 bc c1 40 40 bb 9a fc 81 bd
       -0.0005501105 -0.028122801 -0.0029335471 -0.06347008
0000f0 21 6a 6c 3d bb 9b 8a bd 1b 10 8f 3d cf 14 02 bd
       0.0577184 -0.067679845 0.06985494 -0.031758126
000100 a1 bd 82 bc 58 da 2a be df 6d 52 bd 4c 2d 94 3c
       -0.015959563 -0.16684854 -0.051374312 0.018088005
000110 a8 1a de bd 1a 53 57 3d 6c c3 f9 bc b5 55 3b bd
       -0.10844928 0.052569486 -0.030488692 -0.045736033
000120 60 49 66 3d 1c 0c 12 3d 29 15 0a 3c e0 e7 a4 bc
       0.05622232 0.03565608 0.008427897 -0.020130098
000130 59 8a ff 3c 6c b5 0f 3d bf f1 99 bd c0 00 91 bd
       0.031193899 0.035085127 -0.075168125 -0.07080221
000140 ae f2 9c bd 2b fa 00 bc 75 3a 67 3d 0e c0 9b bd
       -0.07663475 -0.007872145 0.056452233 -0.07604991
000150 72 4e 0a 3d 5d 3c 7e bd 88 62 c2 3c 8c 58 8f 3d
       0.033766218 -0.062069286 0.023728624 0.06999311
000160 8a 02 d1 bc b5 4c 62 3d d0 a5 bb 3c e0 46 0f 3d
       -0.025513906 0.055248935 0.022906214 0.0349797
000170 3f 91 f1 3c e7 cd 57 bd 61 5b 20 3d 5a f3 2e 3d
       0.029488204 -0.0526866 0.039149646 0.042712547
000180 0b ad bd 3d 11 00 97 3c 85 7f 39 bd da cb ce bc
       0.09261521 0.018432649 -0.045287628 -0.025243688
000190 c8 f8 81 3d a0 db 84 3c 06 7a 83 bc b5 6d 39 3d
       0.063462794 0.016218007 -0.016049396 0.04527064
0001a0 01 aa 55 bc fd 35 f4 3d 9b 4c 2d 3d eb b2 91 bd
       -0.01304102 0.1192436 0.042309385 -0.07114204
0001b0 38 c7 89 3d 78 f3 14 3d 6d 47 c8 bd 7d 85 53 bd
       0.06727451 0.036365002 -0.097792484 -0.051640976
0001c0 b3 9f a1 3c b0 f7 04 3d 2f e4 ad 3d 68 cf 43 3c
       0.01972947 0.032462776 0.08490788 0.011951305
0001d0 f4 11 7f 3d 05 d9 86 bd 46 55 97 3d da cc 0f 3d
       0.06227298 -0.06584362 0.073893115 0.03510747
0001e0 24 18 09 3d b4 03 4e bd 4c 45 e2 bd 5b 47 00 bd
       0.033470288 -0.0502965 -0.110483736 -0.03131805
0001f0 c1 7e 9f 3c 0c d8 e7 3b eb dd 31 3c 3f fe b7 3b
       0.01946962 0.0070753153 0.010856132 0.0056150253
000200 82 0e fa 3d a5 d3 4c 3d cd 77 8a bd f7 dc 18 3d
       0.122097984 0.050006527 -0.067611314 0.037320103
000210 56 2f 3c bc 4a 0d da ba 02 9b ee bd c9 fa cb 3d
       -0.011485895 -0.001663604 -0.11650659 0.09959943
000220 f7 e2 f8 3c 92 49 96 bc 78 2f c9 bd 01 68 0c 3d
       0.030381663 -0.018345628 -0.09823507 0.034278873
000230 d4 2e 1e bc db 22 2d bd 00 ad ac 3b 45 5e d5 3c
       -0.009654719 -0.04226957 0.0052696466 0.026045928
000240 f7 8d c1 3c 97 bc ea bd 32 ed 47 bd 4b 88 04 bd
       0.023627264 -0.11461752 -0.04881019 -0.03235654
000250 51 92 ab 3d a8 42 9b bc 25 9b be bc 2f 68 42 3c
       0.08377517 -0.018952683 -0.023267338 0.01186566
000260 61 7c 40 3b 28 b2 8c bd bc b2 2a 3c a1 10 54 3d
       0.002937101 -0.06869918 0.01041859 0.05177367
000270 58 a1 cd 3b 7a 40 9c bc f5 19 72 3d ed 6b 18 bd
       0.006275337 -0.019073714 0.059106786 -0.0372123
000280 a6 43 aa 3d 8b 24 70 3d 12 54 a0 3d 9d 84 c0 3c
       0.08313684 0.0586286 0.07828535 0.023500735
000290 30 28 4d 3d 21 89 1b bd c1 b8 07 bc 05 5c f0 3c
       0.050087154 -0.037972573 -0.008283795 0.029340753
0002a0 6e d9 6e bd f0 b5 10 bd bb 9f 91 bc bb 29 e0 3d
       -0.058312826 -0.03532976 -0.01777636 0.109454595
0002b0 b9 fc 5a 3d ab a0 c1 39 ab 48 ed bc af e2 99 bd
       0.05346367 0.00036931536 -0.028965315 -0.075139396
0002c0 ea 4c fd 3d 08 54 52 3c 2a 9a f1 bc 39 02 61 bd
       0.12368186 0.012837417 -0.029492456 -0.05493376
0002d0 0b 64 96 bc d0 72 72 3d 40 91 01 3d 9d d8 bd bd
       -0.018358251 0.059191525 0.03163266 -0.09269831
0002e0 6e 5d 89 bc 28 ec 6f bc fa 03 ed 3d 41 a9 46 bc
       -0.016768184 -0.014643706 0.11573024 -0.012125314
0002f0 ef c3 dd bc 4d b7 3b 3d 73 78 d9 bc 78 aa 94 bd
       -0.027070967 0.045829106 -0.026546692 -0.07259077
000300 22 18 a8 3c f7 26 11 3e 52 d8 ae bd 2e 46 7c 3d
       0.02051932 0.1417502 -0.085373536 0.061590366
000310 77 7d 24 3d d0 50 d4 3d 51 e3 80 3c 00 c1 7e b9
       0.040158715 0.10366976 0.015733393 -0.00024295226
000320 94 ce 6b bd db 8f 98 3d eb 95 85 bc 7f 14 7a 3c
       -0.057570055 0.07449313 -0.016306838 0.015263676
000330 8d 89 6f 3d 9b 04 35 bd 8a 5a ee bb 6a 45 bf 3d
       0.058480788 -0.044193845 -0.0072739767 0.093394116
000340 2b 3a d2 3d 19 76 24 3d 08 c2 a8 bd 88 b3 31 bd
       0.10265001 0.04015169 -0.082401335 -0.043384105
000350 84 ae 17 bd 44 b3 93 3c d1 b8 1b bd fa 3a b4 3c
       -0.037031665 0.018029816 -0.03801805 0.022000778
000360 9c f4 85 bd 5a e9 94 bd 4f ed f7 3b c8 72 39 3d
       -0.06540796 -0.07271071 0.007566131 0.04527548
000370 99 d6 0b 3d dd 71 1e bc 07 00 48 3c dd 2d 0e be
       0.034140203 -0.009670702 0.012207038 -0.13884683
000380 1c 2c ce 3d ee aa be 3d 54 5d 9b bd 58 4a d9 bd
       0.10067007 0.09309946 -0.0758616 -0.10609883
000390 d6 06 cf bd 33 21 93 bd 47 5b a1 3c 79 17 c3 bd
       -0.10108726 -0.071840666 0.019696845 -0.095259614
0003a0 6a 55 fd bd 2a dd 61 bd a9 20 2e bd d3 bd 37 bd
       -0.12369807 -0.05514256 -0.042511616 -0.044858765
0003b0 84 08 e7 3c 6f 33 83 bd 30 c8 2b bd 9f 27 4d bd
       0.028202303 -0.064062946 -0.04193896 -0.050086614
0003c0 4c f0 b5 3d 0f 8a 8b bc 0a 52 3b bd 6f 7b 90 bc
       0.088837236 -0.017033605 -0.045732535 -0.017636983
0003d0 49 c9 b9 ba 34 e0 94 3d 19 19 0a bd 5f f2 2b bd
       -0.0014174368 0.07269326 -0.03371534 -0.04197919
0003e0 3d c0 3d bd ca 7c 94 bd 2f d9 a7 3d 4e 5a 8b bc
       -0.04632591 -0.07250364 0.08195721 -0.017010834
0003f0 5a d0 4a bc a6 69 e0 3c 25 6c 0a 3c ea 78 e1 3d
       -0.012378776 0.027394127 0.008448635 0.11009391

layer3.bias f4 [128]
000000 93 a9 76 3d a4 dd 19 3d e4 64 05 bc ed 80 82 bd
       0.060220312 0.03756489 -0.00814173 -0.06372247
000010 56 ae f4 3b 8f a9 41 3e 61 f8 02 bc 72 89 14 3e
       0.0074670715 0.18912338 -0.007993788 0.14505556
000020 8a f9 30 3d cf b0 f8 bd 0d 18 a5 bd 40 03 6a bc
       0.04320673 -0.121430986 -0.08061228 -0.014283001
000030 ac 64 a6 3c ee fe 56 3d 82 3a 2f 3d 63 4a 90 3d
       0.020311676 0.052489214 0.042780407 0.07045438
000040 bc ab a1 bb d0 a3 a6 bd a5 60 6e 3d 69 55 a0 bd
       -0.0049338024 -0.081367135 0.058197636 -0.07828791
000050 57 f9 88 bd c4 bc ad bd 1f 9f 62 3d 68 19 71 bd
       -0.06688183 -0.0848327 0.05532753 -0.05886212
000060 08 e4 0d 3e bc a4 34 be 19 34 83 bd 33 7f 55 3e
       0.13856518 -0.17640966 -0.06406421 0.20849304
000070 12 7a 16 3e 2c 9d da bd 8f 2e 15 3e 9a 58 69 3d
       0.14695004 -0.106745094 0.14568542 0.056969263
000080 76 bd 98 3c 54 97 18 be 68 6e d8 bd 1d 73 15 bb
       0.01864503 -0.14901477 -0.10567933 -0.0022804209
000090 a6 7a d3 bd e0 c1 bd 3d 8d d4 8d bd c4 8f 22 3e
       -0.10326128 0.09265494 -0.069253065 0.15875155
0000a0 3e a3 97 3d 1b 03 94 bd 73 15 06 be 6d 75 1e 3e
       0.07404183 -0.07227155 -0.1309412 0.15474482
0000b0 33 5f 15 be 81 13 3c bd 31 b4 47 3e 25 db 0d 3d
       -0.14587097 -0.045917038 0.19502331 0.03463282
0000c0 27 e6 51 3d de d1 6a 3d 77 18 98 3d 72 27 89 3d
       0.05124488 0.05732905 0.07426541 0.06696977
0000d0 31 12 19 3e eb b7 b6 bd 49 58 10 3e 15 d4 e7 3c
       0.14948346 -0.08921798 0.14096178 0.02829937
0000e0 89 ef 91 3d 49 90 fd 3d ed 60 3a 3e 0d 09 e4 bd
       0.07125766 0.12381036 0.18201037 -0.11134539
0000f0 68 11 30 bd 6e ce c2 3d 80 90 b7 3d 8d 61 55 bd
       -0.04298535 0.095120296 0.08963108 -0.052094985
000100 f4 1f 9b bd d3 c8 bf 3d 8e fc d7 3d e7 8f e6 bd
       -0.07574454 0.09364476 0.10546218 -0.11257916
000110 9e 4f a2 bd f7 f2 41 3d 39 e1 f4 bb 0c 92 33 bd
       -0.07925342 0.04735085 -0.0074731377 -0.043840453
000120 6c 49 84 3d 22 de 4d 3d 6b 42 03 be 59 8d 8a bd
       0.064593166 0.05026067 -0.12818305 -0.06765241
000130 0f 7e a2 3d db 8c 4c 3d 0d 9c 70 3d e7 f2 72 3d
       0.079342 0.049939018 0.05874257 0.05931368
000140 52 49 71 3e cb ef d4 3c 26 12 15 bd c6 0a 53 bd
       0.23563126 0.025993248 -0.03639426 -0.051523946
000150 ae 2b e5 bd f5 d4 6a 3d 79 12 23 3e 7d dd 83 bd
       -0.11189972 0.057331998 0.15925016 -0.0643873
000160 8f 05 c2 3d 86 8c ae 3d eb 28 fd 3d 41 75 e3 3d
       0.094737165 0.085228965 0.1236132 0.11106349
000170 63 a5 df bd ec e7 9e 3c 53 c7 02 be 41 c6 11 bd
       -0.10920217 0.019397698 -0.12771349 -0.03558946
000180 c0 d4 08 3e 4c 19 01 be 3f 10 b0 3d 78 dc d3 bd
       0.13362408 -0.12607306 0.08596849 -0.103447855
000190 5c 69 29 be 49 20 84 3d 18 5e fd 3c e1 8d 18 ba
       -0.16544098 0.064514704 0.030928656 -0.00058194814
0001a0 34 d3 f7 3d 4f 67 57 3d 87 58 22 3e fe 21 5f 3c
       0.12100831 0.052588757 0.15854083 0.013618944
0001b0 48 65 0d 3e 1f ad 14 be 20 23 ee 3d 04 d6 dd bc
       0.13808167 -0.14519165 0.11627793 -0.02707959
0001c0 9a ba 69 bd 8b b6 d3 bd 29 7c c9 bd 70 b6 18 be
       -0.057062723 -0.10337552 -0.09838135 -0.14913344
0001d0 4e 31 8a bd 81 e4 5a bd 92 2c 47 bd 78 b8 49 bd
       -0.067476854 -0.053440575 -0.04862649 -0.04924819
0001e0 df 50 a3 3d a0 03 61 3b 62 54 66 bc 9f 27 ea bb
       0.07974409 0.0034334436 -0.014058204 -0.0071458365
0001f0 73 97 0e bd 87 0b a6 bd 9a b8 9a bd 44 27 a9 3d
       -0.034812402 -0.081076674 -0.07554741 0.082594424

layer4.weight f4 [128, 128]
000000 c5 b1 8f bd cb e6 c4 3d df 10 92 3d 86 8d 71 3d
       -0.07016329 0.09614333 0.07132124 0.058972858
000010 17 30 c4 3b 3f ee 73 bd 58 f3 9a bd 0d c5 ab bd
       0.005987178 -0.05955338 -0.075659454 -0.08387194
000020 ac dc b8 3c 95 17 22 3d 29 e6 50 bd 80 58 b5 ba
       0.022566162 0.03957327 -0.051000748 -0.0013835579
000030 f4 39 28 bd 2b 27 5b 3b db 2b 9b bc 31 65 24 bd
       -0.041070893 0.0033440094 -0.01894181 -0.040135566
000040 63 27 3c 3d ce fc 00 3c 2c 0b ed 3b 28 ff c9 3c
       0.045936 0.007872773 0.007233998 0.0246578
000050 bb 09 3d 3c eb 42 0f bd f4 9a 62 bc a9 fc 8d bd
       0.011537964 -0.034975927 -0.013830889 -0.06932957
000060 33 84 07 3d 9d bc b1 bb 52 88 62 3d 5a c6 06 bd
       0.03308506 -0.005424096 0.055305786 -0.032904007
000070 c8 19 3b 3d 2f 48 95 3d 33 f4 63 bd cd 83 27 3d
       0.045678884 0.072891586 -0.05565281 0.04089718
000080 d4 05 e4 3a 2e 43 09 bd ff 72 02 bd 5a bf 04 bd
       0.0017396756 -0.033511333 -0.03184795 -0.03240905
000090 35 a2 0c bd 6c 02 ae 3d 5d d6 53 bd ee 31 32 3d
       -0.03433438 0.08496556 -0.051718105 0.043504648
0000a0 06 66 9e bc e1 26 aa 3c 1a b1 8c bd 3c 93 8d bd
       -0.019335758 0.020770492 -0.06869717 -0.06912848
0000b0 8a 1a b7 3d cd 26 22 bd 01 a0 05 3d 1b 16 68 3d
       0.08940609 -0.039587785 0.032623295 0.056661706
0000c0 8a f0 ff 3c 95 0e 80 3c bb a8 9e 3b 7b a3 c2 3b
       0.031242628 0.015631953 0.0048418916 0.0059398985
0000d0 20 23 8a bd 22 81 a2 bd bf e2 39 3d a1 2d 4b 3d
       -0.06744981 -0.079347864 0.045382258 0.049604062
0000e0 cf 90 03 bd 51 db 2d bd b9 bb cb 3d 1b 83 e8 bc
       -0.032120522 -0.042445485 0.09947915 -0.028382828
0000f0 ac 0b 17 bd 93 f5 49 bc 91 27 15 bd 20 78 1d bb
       -0.036876366 -0.012326616 -0.036414687 -0.00240279
000100 2f ab a6 bd 76 bf 3f bd e5 57 57 bb 7e 0b 4e 3b
       -0.081381194 -0.04681345 -0.0032858786 0.0031439955
000110 3f e2 0a 3d 1e 11 99 3d ea b1 62 bd 56 c2 ed 3c
       0.03390717 0.07473968 -0.055345453 0.02902333
000120 16 9c 86 bd 5a d6 ae bc 0c 76 25 3b 38 65 8f bd
       -0.0657274 -0.021342445 0.0025247363 -0.07001728
000130 28 0c 0b 3d 7c 0b 22 bd db c0 a7 bd b4 d4 92 3c
       0.03394714 -0.039561734 -0.08191081 0.01792369
000140 57 19 dc 3c ab 36 f6 3b 1b 04 1f bc 19 9e 6b 3d
       0.026867552 0.007513841 -0.009705569 0.05752382
000150 18 92 35 3d b8 04 85 bd f3 d5 91 3d e9 1c 8f bd
       0.04432878 -0.06495041 0.07120886 -0.06987936
000160 9f c9 a8 3d 85 ff a7 bd 5c 76 90 3d 90 48 3c 3d
       0.08241581 -0.08203033 0.07053825 0.04596764
000170 8e de 85 bd b2 10 de 3c 10 1b 58 3d f0 b8 22 bd
       -0.065365896 0.02710757 0.052760184 -0.03972715
000180 c4 58 bf 3d 9e 88 14 3d 9e c9 c4 3b e3 b8 40 3d
       0.093431026 0.0362631 0.00600548 0.04705132
000190 08 9b ad 3c b5 f7 b9 3d e4 5a d3 bb a3 c4 a4 bd
       0.021192089 0.090804495 -0.006450044 -0.08045318
0001a0 3e c3 48 bd 13 87 6b 3c ce 1e 7f 3d d9 fd ab bd
       -0.049014322 0.014375466 0.062285237 -0.08398027
0001b0 28 45 e4 3b e2 91 0f 3d e1 89 62 bc cd 03 0d bd
       0.006966252 0.035051234 -0.013826818 -0.034427453
0001c0 01 91 14 3d a6 a2 bf 3c 2b 2a 84 3d f0 d2 60 bd
       0.0362711 0.023392987 0.064533554 -0.054888666
0001d0 3d 19 0a bc b6 2f 4d bd c4 09 82 bc 47 23 9c 3c
       -0.008428869 -0.05009433 -0.015873797 0.01905979
0001e0 23 5d f4 bc 73 b6 53 3d a0 f9 88 3d cb 37 b5 bd
       -0.029829567 0.05168767 0.06688237 -0.08848532
0001f0 8e 8b 7a bd bb fb a2 bd d8 52 75 bd 21 9e d6 3c
       -0.061168246 -0.0795817 -0.05989346 0.026198449
000200 16 2a b2 bd 11 29 68 3d e3 1a 87 bd 2e ca db bc
       -0.086994335 0.05667979 -0.06596925 -0.026829805
000210 5c a9 1f 3e 9d 34 55 3e a0 ad 04 bc 72 15 80 3e
       0.15591949 0.20820852 -0.008098036 0.2501636
000220 05 cb 78 3d c7 12 c1 3d 64 da 1d be 8f 2b 60 bd
       0.06074049 0.094274096 -0.1541534 -0.05472904
000230 62 0c 12 3e 57 83 86 bb 36 77 50 3d 66 75 1e be
       0.14262536 -0.0041050124 0.05089494 -0.15474471
000240 62 74 fe bd b5 90 e5 3b be d2 f0 bd a1 3b 23 3d
       -0.12424542 0.007005776 -0.11758946 0.03985179
000250 b4 d6 01 bd 72 a8 8f bc 3c f0 a7 3d cd d4 6b 3d
       -0.031698897 -0.017536376 0.08200118 0.05757599
000260 5a 22 28 be 6d a2 32 be 81 44 ef 3a 9e 82 41 be
       -0.16419354 -0.17444773 0.0018254669 -0.18897483
000270 2d 6a 44 3e af 1c 4c 3e 19 8f 0e bd 52 5f c7 bd
       0.19181128 0.19932817 -0.034804437 -0.09734978
000280 57 83 de bd ed b1 fb 3b 70 ee 1a be af ef 09 3e
       -0.10864895 0.0076811225 -0.15130019 0.13470338
000290 a1 2e bc bd 94 46 8a 3c e3 84 7b 3d 85 d2 d1 bd
       -0.09188581 0.016879357 0.061406028 -0.102452315
0002a0 b2 bd 07 3e 36 aa db bd 74 9d d7 3d fc 48 14 3d
       0.13255957 -0.107258245 0.10528079 0.036202416
0002b0 88 77 72 3e 72 72 ed bd 49 48 33 3e 5e 77 ed 3d
       0.2367841 -0.11594094 0.17508043 0.11595033
0002c0 d4 af 0a 3e 35 a6 8a 3d 80 58 3e be f8 5a d2 3d
       0.13543636 0.06769983 -0.18588448 0.10271257
0002d0 85 10 89 bd d2 be 4a bd 3a 69 07 3d 83 4b de 3d
       -0.06692604 -0.049498387 0.033059336 0.108542465
0002e0 c9 7d 5e be d7 dd e8 bd 16 c2 13 3e 42 26 b1 bd
       -0.2172767 -0.113704376 0.14429507 -0.08649875
0002f0 a2 5a cb bc 9c 11 ee 39 02 fe 36 3e 1a 65 e4 bc
       -0.02482349 0.00045408017 0.17870334 -0.02788024
000300 af b2 c9 bd 9a 6e a1 3d d1 7d 1e be 4a ec 95 bd
       -0.09848534 0.07882424 -0.15477683 -0.07320459
000310 e0 11 35 3e df d7 5b 3c 11 4d f8 3c b7 a9 a8 bd
       0.176826 0.013418167 0.030310186 -0.082354955
000320 58 39 01 3e ae aa ca bd 07 2a 65 3e 13 b4 3c bd
       0.12619531 -0.09895836 0.22379313 -0.04607017
000330 87 5f 25 be 70 b4 05 bd 21 61 ed 3d c3 f5 7b bd
       -0.16149722 -0.03264278 0.115907915 -0.061513674
000340 3e 43 2a bd 88 c1 06 3e ae fb 63 bc 47 aa f4 3d
       -0.041568033 0.13159764 -0.013914986 0.1194654
000350 06 05 4c 3e 3e 54 b0 bd 89 01 88 3e 3a b8 ba bd
       0.19923791 -0.08609818 0.2656367 -0.0911717
000360 fb be f9 3d 06 41 bb 3a ae a2 c8 3d ca 45 97 bc
       0.1219463 0.0014286346 0.09796654 -0.018465895
000370 ab a0 f2 3d 3c 24 ca 3d 67 20 74 bd 2a 76 a1 3b
       0.11847051 0.098701924 -0.059601214 0.0049274163
000380 8d f9 c1 3d a4 06 37 be 7c 0f 2f 3d d0 a4 05 bd
       0.09471426 -0.17873627 0.042739376 -0.03262788
000390 b7 b7 c4 bc 71 1b 2c bd 16 16 6d 3d 62 cd 4b bd
       -0.024013383 -0.042018358 0.05788239 -0.049756415
0003a0 47 05 5b bd 9a 6f b4 bc 89 d8 e7 3d b6 7e 0a bd
       -0.05347183 -0.022025872 0.11320598 -0.033812247
0003b0 7a 4d 5c be e0 a8 1e be 85 1f 0b be 99 b6 33 be
       -0.2151393 -0.15494108 -0.13586242 -0.17550124
0003c0 c8 30 ab bd 63 51 19 3d 6f d7 14 3d 24 70 01 bc
       -0.08358914 0.037431132 0.036338266 -0.007900272
0003d0 14 7c 50 be 4f 9b 1e bc 6e 98 e6 3d b2 2a d0 3b
       -0.20359832 -0.009680583 0.112595424 0.006352746
0003e0 ee 94 f1 3c ae da d0 bd e7 3f f0 3b 2f 31 6e 3e
       0.02948996 -0.1019796 0.0073318365 0.2326095
0003f0 f8 c9 5c bd f2 56 c5 3d 66 ce ee 3c e4 1e a2 3d
       -0.05390355 0.09635724 0.029151153 0.07916048

layer4.bias f4 [128]
000000 34 ae 89 bc 84 7a 49 3e d2 65 6e bd 18 77 1f 3d
       -0.0168067 0.19675642 -0.058202572 0.038931936
000010 f6 2a ce 3d d0 18 cc b9 6f e4 44 3c 25 0d 40 be
       0.10066788 -0.000389284 0.012017353 -0.18755014
000020 f2 2f 9d bc c1 af 9d bc 40 db 5e bd 2b 02 56 3e
       -0.019187901 -0.019248845 -0.05440831 0.20899265
000030 6d 3c af 3d 88 62 b7 3d df b2 3c 3e bb 9d 75 3d
       0.08556447 0.0895434 0.18427609 0.059964877
000040 74 21 a7 3d cc 07 84 bd 3e 2b ef 3d bc 37 df 3c
       0.081606776 -0.064468 0.1167817 0.027248256
000050 8f ef 76 bd aa 08 ee 3c 88 96 de 3d 98 e5 ad bd
       -0.060287055 0.029056866 0.10868555 -0.08491057
000060 e4 b0 af bd c0 34 40 be 4e cd 07 3c 97 e4 02 be
       -0.08578661 -0.18770123 0.008288695 -0.12782513
000070 16 0a 8b 3d 8c 36 a9 bd 77 46 9c bd ac ca 18 bd
       0.06789033 -0.08262357 -0.076306276 -0.037302658
000080 a7 17 74 3c 44 59 27 3e 5b d6 a5 3d 71 a6 18 3d
       0.014898217 0.16342646 0.08097526 0.037268106
000090 1d 96 5f 3e ed 05 43 bd db 30 3b bd 90 01 50 3e
       0.21834607 -0.047613073 -0.04570089 0.20313096
0000a0 f7 bb a1 bc a2 52 d1 3d 50 bf 5d bd 3a 18 8f 3d
       -0.019742949 0.10220839 -0.054137528 0.06987043
0000b0 f0 1f fe bd 90 28 75 3c 27 1d 89 bd 5f 05 8b bd
       -0.12408435 0.014963284 -0.066950135 -0.06788134
0000c0 83 4a 96 3d 46 71 d0 bd 66 55 01 3e 0c e7 12 3e
       0.07338431 -0.10177855 0.12630233 0.1434595
0000d0 28 3b f5 bd f1 10 8a 3d 24 49 0f be 1c 23 b0 3d
       -0.11974174 0.067415126 -0.13992745 0.086004466
0000e0 e5 ab 89 bd f6 4c 73 bb b3 04 55 3e b4 53 18 3d
       -0.067222394 -0.003712473 0.20802574 0.0371892
0000f0 1b 16 5e 3d 67 b3 c6 bb db cf 0d bd da 08 8b bd
       0.0542203 -0.006063867 -0.034622055 -0.06788798
000100 d3 01 d9 3d 66 28 bf bd 3f 5a 32 3d 19 e8 ac 3d
       0.10596051 -0.09333877 0.043543097 0.084427066
000110 de 5b 1d 3d 87 d6 90 3d 84 7d a1 bd c2 d2 4e 3e
       0.03841769 0.07072168 -0.07885268 0.20197585
000120 92 ab a4 3d 64 36 fe bd 9a e7 6f bd 1b a0 cf bc
       0.08040537 -0.12412718 -0.05857048 -0.025344899
000130 4f a2 cf 3d 55 11 91 3d 69 59 be bd f0 5f 26 3d
       0.1013838 0.07083384 -0.092943974 0.040618837
000140 20 17 3d bd b9 bb c9 bd 1f 57 fd 3d d7 bd bd bc
       -0.04616463 -0.098502584 0.12370133 -0.023161812
000150 62 e5 43 3d 6a 0e 1e 3c 21 f0 8c 3e f2 51 53 bd
       0.04782618 0.009646991 0.27526954 -0.05159182
000160 79 25 07 3c 07 25 7b bd 8a 28 55 3d 9d fe 35 bd
       0.00824868 -0.06131461 0.052040614 -0.04443227
000170 ce cb aa 3d fd fd 76 bd eb 50 f6 b7 fe 15 90 3c
       0.08339654 -0.060300816 -2.9363166e-05 0.017588612
000180 36 86 db 3d 5c 65 46 bd 16 c8 38 bd 11 57 21 3d
       0.10718958 -0.048436508 -0.04511269 0.039389674
000190 4a c0 32 3c f9 cc dd 3c 3c 7a e9 3d 96 02 b2 bd
       0.010910103 0.027075278 0.114002675 -0.086918995
0001a0 9b cb 04 3e 5f b2 04 bd 59 b8 cd bd 50 9f ae bd
       0.12968294 -0.03239667 -0.10044927 -0.0852648
0001b0 3a 5a e4 3d e0 92 f6 3d b5 30 10 3d a3 9c ce bd
       0.11150022 0.12039733 0.0352027 -0.1008847
0001c0 66 30 35 bd 10 76 de 3d ff 98 c1 3b 89 36 8b bd
       -0.04423561 0.108623624 0.005908131 -0.06797511
0001d0 e8 6f 69 3d 74 a9 b5 3c b3 e3 02 3d 2b 2e c8 3d
       0.056991488 0.022175528 0.031955432 0.09774431
0001e0 f0 0c 96 3c f6 e5 5c bc ba 99 9c 3c ef ff 97 bc
       0.018316716 -0.013482561 0.019116271 -0.018554656
0001f0 fa cb e2 3d fe 68 d5 3c fc 83 60 3e 12 e4 6d 3c
       0.11074062 0.02605104 0.21925348 0.014519708

input_norm.weight f4 [8]
000000 56 ee a1 3f f1 9f 4c 3f 73 dc 70 3f aa 19 54 3f
       1.2650859 0.7993155 0.9408638 0.8285166
000010 40 2b 43 3f 40 e4 84 3f a2 af 1e 3f 99 25 46 3f
       0.7623787 1.0382156 0.61986744 0.7740112

input_norm.bias f4 [8]
000000 9e cd 8a 3e 44 ee 47 3e bc 1f fd 3e 34 9d f3 3e
       0.27109998 0.19524485 0.49438274 0.47580874
000010 56 fe 1a bc e1 a9 93 3e e6 bb 8d 3e f2 b3 02 3e
       -0.0094600525 0.28840545 0.27682418 0.12763956

input_norm.running_mean f4 [8]
000000 43 9b 67 40 96 36 13 3d 69 da 8c bf 04 4a 69 40
       3.6188514 0.03594073 -1.1004153 3.6451426
000010 52 de a0 3b 6b d2 e8 3c 47 38 00 be 53 50 85 3e
       0.004909315 0.028420648 -0.12521468 0.26037845

input_norm.running_var f4 [8]
000000 82 d6 7a 40 42 85 2f 3b 1a 4d 07 40 d4 e3 b9 40
       3.9193425 0.0026782309 2.114081 5.809061
000010 7d ab 35 3e c8 ad 01 3b 84 8a 32 3f 48 44 45 3e
       0.17741199 0.001978742 0.6974261 0.19264328

norm.weight f4 [128]
000000 51 76 58 3f 76 67 88 3f 57 45 64 3f 9a 6a 5b 3f
       0.84555537 1.0656574 0.89168304 0.85709536
000010 47 cf 5c 3f 84 ee 5f 3f 1d a5 5e 3f 17 9d 63 3f
       0.8625378 0.8747332 0.8697069 0.88911575
000020 3a b7 63 3f aa 13 5c 3f 2e 9f 6d 3f 25 d1 6b 3f
       0.88951457 0.85967505 0.92821014 0.92116004
000030 8b 3c 56 3f cd 08 6b 3f 22 93 68 3f 5e 98 64 3f
       0.8368613 0.91810304 0.90849507 0.89294994
000040 f0 3c 56 3f d4 e5 5d 3f 7e 0c 70 3f 7e e1 67 3f
       0.83686733 0.86678815 0.9376906 0.9057845
000050 b3 41 60 3f ef 93 69 3f 75 58 6f 3f 84 c3 66 3f
       0.8760025 0.91241354 0.9349435 0.90142083
000060 01 59 66 3f 8a f7 6e 3f 1b 7b 5a 3f e7 f6 7e 3f
       0.8997956 0.93346465 0.85344094 0.99595493
000070 53 d4 52 3f 01 33 56 3f cd 78 6f 3f 2f 27 65 3f
       0.8235523 0.83671576 0.935437 0.89512914
000080 a1 ce 57 3f 6a a4 61 3f 65 b6 62 3f 33 b8 67 3f
       0.84299666 0.881415 0.8855956 0.9051544
000090 2f f1 69 3f b0 50 67 3f 1a a5 51 3f 0f 84 76 3f
       0.9138364 0.90357494 0.8189255 0.96295255
0000a0 92 36 70 3f d9 ca 5f 3f de 89 7b 3f 01 ba 5c 3f
       0.9383327 0.87418896 0.98257244 0.8622132
0000b0 50 56 61 3f 64 c5 6d 3f f2 1f 84 3f 09 e9 5e 3f
       0.8802233 0.9287932 1.0322249 0.87074333
0000c0 7f 9c 6f 3f d6 0e 6a 3f 5b 52 6c 3f 12 39 64 3f
       0.9359817 0.9142889 0.92313164 0.8914958
0000d0 1b 73 62 3f ee 66 63 3f 10 29 5d 3f 25 f6 61 3f
       0.88456887 0.88828933 0.8639078 0.8826621
0000e0 cb 43 5e 3f 72 cb 7c 3f be 28 6f 3f 2d 8d 57 3f
       0.86822194 0.9874793 0.9342154 0.8419979
0000f0 3f a9 64 3f 5a 49 5d 3f a1 15 68 3f 2d f2 68 3f
       0.8932075 0.8644005 0.90658003 0.9099453
000100 94 9c 5c 3f 84 27 65 3f 61 0b 64 3f 4c e2 5f 3f
       0.8617642 0.8951342 0.8907986 0.87454677
000110 62 c2 4e 3f d6 5d 6c 3f 48 74 68 3f 79 28 63 3f
       0.80765355 0.9233068 0.9080243 0.8873363
000120 a3 62 64 3f 56 f1 5a 3f 67 f8 60 3f 06 4e 63 3f
       0.8921301 0.855245 0.8787903 0.8879093
000130 b9 f6 6f 3f c0 41 68 3f de e7 63 3f 88 40 81 3f
       0.93735844 0.90725327 0.89025676 1.0097818
000140 75 f1 64 3f 19 bb 5e 3f 65 b0 5f 3f ff ba 5f 3f
       0.89430934 0.8700424 0.8737853 0.8739471
000150 e5 a3 60 3f 40 fe 58 3f 5e 9f 7c 3f d9 93 64 3f
       0.87750083 0.84762955 0.98680675 0.892881
000160 55 7e 63 3f 3d e3 61 3f 3d 76 55 3f eb 43 65 3f
       0.8886464 0.88237363 0.8338354 0.8955676
000170 9e 74 52 3f 82 b9 53 3f 26 0c 59 3f 90 b5 6c 3f
       0.82209194 0.8270494 0.8478416 0.9246454
000180 d9 bd 6c 3f ef a1 65 3f 7d 80 6a 3f 56 4d 6e 3f
       0.92477185 0.89700216 0.9160231 0.93086755
000190 5a e7 60 3f 8f c2 64 3f 66 3a 56 3f 90 a2 54 3f
       0.87853014 0.8935937 0.8368286 0.8306055
0001a0 05 54 5f 3f ff a5 70 3f 63 1f 5e 3f 8e ca 66 3f
       0.8723758 0.9400329 0.8676664 0.90152824
0001b0 7a a2 82 3f 9c b2 5e 3f 63 92 60 3f 66 a2 61 3f
       1.0205834 0.86991286 0.8772337 0.88138425
0001c0 61 1c 5e 3f 25 5f 64 3f ff 9d 60 3f d5 c6 5c 3f
       0.8676205 0.8920768 0.8774108 0.86240894
0001d0 0b ab 62 3f 8c 94 5f 3f 96 57 5e 3f 31 eb 60 3f
       0.8854224 0.8733604 0.86852396 0.87858874
0001e0 fa 49 54 3f ff 62 71 3f cf fe 63 3f 02 0b 59 3f
       0.8292538 0.9429168 0.8906068 0.8478242
0001f0 58 39 68 3f bc 7f 65 3f 08 ed 77 3f 12 e3 58 3f
       0.907125 0.8964803 0.96846056 0.8472148

norm.bias f4 [128]
000000 47 31 e2 3d 10 9b bd 3b 87 62 07 3e c0 6a cd bd
       0.11044555 0.005786307 0.13221179 -0.100301266
000010 16 29 46 3e a9 5f 6d bd 3d 38 fc bd f9 5e 9e bd
       0.1935161 -0.057952557 -0.12315414 -0.07732958
000020 c4 27 4e 3e e6 f5 e8 3d 5e 7b 4a 3e 72 66 33 3e
       0.20132357 0.113750264 0.19773623 0.17519549
000030 3e be 2c 3e 22 b2 62 3e 73 61 a2 3e 21 93 e5 bd
       0.16869447 0.22138265 0.31714973 -0.11209703
000040 cc 34 16 3e 0c 5f d3 3d 2c a2 5d 3e c3 c5 1d bc
       0.14668578 0.10320863 0.21643895 -0.00962967
000050 06 df 33 3d 80 af cf bc 80 bb 24 3d 85 58 a2 3a
       0.043913864 -0.02535224 0.040217876 0.0012386
000060 9b 82 29 3d 52 f7 9d bc 2c 11 30 3e f5 6b 04 be
       0.04138432 -0.01928297 0.1719405 -0.12931807
000070 4e f4 a6 be 36 27 0e be fd 41 04 bd 46 2a 55 3e
       -0.32608265 -0.13882145 -0.032289494 0.20816907
000080 4a 3a a4 bc cf 82 0b be 43 e7 7e bd b2 81 42 be
       -0.020047326 -0.13624118 -0.062232267 -0.18994787
000090 68 15 20 bd 29 07 fd 3b 97 bd 80 3d 0b f6 d9 3d
       -0.039082915 0.007721801 0.062861614 0.10642632
0000a0 70 27 e9 3d 1c c7 55 3e 74 9a 0a 3e 1f 38 58 3e
       0.11384475 0.20876735 0.13535482 0.21115158
0000b0 40 c5 90 bc c9 2c 97 3d 4a 9c 14 3e 00 ff 8d be
       -0.017672181 0.07381589 0.14512745 -0.27733612
0000c0 20 1a 11 3e 9c 46 4c be 37 bd c2 3d 29 20 3b 3e
       0.14170122 -0.1994881 0.09508746 0.18273987
0000d0 34 fe 68 3e 5a c6 86 be 64 e8 b1 bd 03 af 51 bd
       0.22753221 -0.26323205 -0.08686903 -0.051192295
0000e0 61 d9 93 3d 79 a0 ba 3d 9e cd e5 3d d7 2e c7 3e
       0.07219196 0.09112639 0.11220859 0.38902923
0000f0 90 f3 e7 bd b2 f4 bf 3d 0a b5 2d be 11 5b 9d 3e
       -0.11325753 0.09372844 -0.16963592 0.3073354
000100 63 16 0d 3d 8f b8 4d be 8a 98 04 be 45 0d 95 3a
       0.034445178 -0.20089935 -0.12948814 0.0011371752
000110 66 b4 92 3e a0 86 5a bd c8 a8 a0 3e dd de ed 3c
       0.28653258 -0.053351045 0.3137877 0.029036934
000120 a3 79 30 3e 87 6c 3b be 6c 02 ee 3d 2d 43 4a 3e
       0.172339 -0.18303119 0.11621556 0.19752188
000130 e3 7d 9e bd a0 ba 8b be 8a 3e bf bc 25 44 2b bd
       -0.07738855 -0.2729082 -0.02334525 -0.041813035
000140 e3 c6 c2 3b 37 2b 23 3e 3d 76 17 be ed 0a c0 bd
       0.0059441193 0.15934454 -0.14791198 -0.09377084
000150 8d 95 96 3d ac 4b b5 bb f1 bd 56 3e 07 a0 41 3c
       0.07352743 -0.0055327024 0.20970894 0.011817939
000160 c6 28 c1 be 28 a0 65 3d 2c 19 13 3e 8d d7 47 3e
       -0.3772642 0.05606094 0.14365071 0.1951582
000170 44 79 f1 bc df d1 6a 3e 33 c0 c8 3c d3 33 e1 3d
       -0.02947677 0.22931622 0.02450571 0.10996213
000180 77 5f b7 3d 54 55 0b be d4 b2 8c be cc 96 28 3e
       0.08953755 -0.13606769 -0.27480185 0.16463774
000190 d4 87 9c 3d 08 98 26 3b ee 16 27 bd 01 20 1d be
       0.07643095 0.0025420208 -0.04079335 -0.1534424
0001a0 4a 76 3e 3d e5 00 11 be ce b5 01 3e 25 43 c5 bc
       0.046499528 -0.14160497 0.12667009 -0.024079869
0001b0 76 b1 55 bd bb 1f 08 3e e9 bd b3 bd 8d 22 35 3e
       -0.052171193 0.13293354 -0.08776457 0.17688961
0001c0 64 01 68 bd 3e df 89 3d 89 45 5a bd 53 a4 52 bc
       -0.05664195 0.06732033 -0.05328897 -0.012856561
0001d0 f4 25 11 b9 57 d8 93 be 77 b6 0f 3e a6 eb 98 bd
       -0.00013842416 -0.28875992 0.14034449 -0.07466821
0001e0 bb 75 eb 3d c8 30 40 3d 73 4e b1 be 66 61 b0 3d
       0.11497065 0.04692152 -0.34630165 0.08612327
0001f0 39 8b 1d bd c6 12 ab bd 76 f6 9c bb 32 99 e4 bb
       -0.03846285 -0.0835319 -0.0047901226 -0.00697627
