final_models/our_model_varying_speed/checkpoint_models/best_model_episode_9325.pt (torch, 226638 bytes, 22 tensors)

layer1.weight f4 [128, 8]
0.27629516 -0.26496854 -0.122201726 0.27644295 -0.2859863 0.1820564 -0.082802296 0.18976904
-0.039593454 -0.28040442 0.23655486 0.0018257536 -0.009345536 -0.12046665 0.00562662 0.028404849
-0.10894856 -0.045291163 0.41842696 0.117660426 -0.11374018 -0.27945405 -0.086186975 -0.1204768
-0.08839635 -0.04734729 0.23011293 0.30126482 -0.4549571 0.14974664 0.07750174 0.3159225
0.046216562 -0.18399908 -0.2360775 -0.018937258 0.16184191 -0.020057533 0.17202282 -0.13977043
0.1939842 -0.14195839 0.24006757 -0.10866308 -0.16114707 0.21344858 -0.1367745 -0.008298785
-0.013799901 0.015713619 -0.19758695 -0.12945546 0.08425139 -0.1604513 0.30516174 0.06317124
0.026030276 -0.38878298 0.14986308 0.10286751 -0.21127205 0.24363504 0.21915612 0.38124412
-0.16567317 -0.22699948 -0.06124929 0.0021445241 -0.2792436 -0.12417704 0.115667135 0.04483556
0.1635547 -0.12517442 0.15494998 -0.0128194 0.23067458 0.16739468 -0.24243823 0.10429229
-0.1970773 -0.35432556 0.022112193 -0.09748723 0.14692828 -0.18290605 -0.31861272 0.15733969
-0.015639545 0.09347795 0.0502164 -0.06996381 -0.011723121 0.099170364 -0.08146925 -0.15042709
0.2260118 0.20867875 0.027695486 -0.08437088 0.2986707 -0.08449003 0.19952643 0.17284222
-0.1406016 -0.36230043 0.35106656 0.123112306 0.42783284 -0.03730598 0.17232187 0.18397397
0.2871595 -0.09469837 -0.011827172 0.06971359 0.011348535 -0.092013 -0.047852788 -0.25638485
-0.25613794 0.01762458 0.31954822 -0.2784912 0.1242369 -0.17108263 -0.45016083 -0.0075206277
0.15487061 0.4121742 -0.2670253 0.32288745 0.33465844 0.23132002 0.28935885 0.3233986
0.50694215 0.105962574 -0.21484646 -0.2944866 -0.26453513 0.016553933 -0.26710618 0.16691436
0.040139016 -0.056939866 0.10001484 0.07420683 0.1342246 0.1127189 0.0034548196 0.36376706
-0.06124165 -0.025110742 -0.36445644 -0.2082751 -0.1987058 -0.11142771 0.22236371 -0.11769259
-0.46828103 0.065785736 0.1105231 0.50745064 -0.2072115 0.17216317 -0.1826248 0.029703034
-0.21410093 -0.25652498 -0.25057405 0.11353563 -0.0009512759 0.03934357 0.458198 0.32093957
0.27523357 0.07486353 -0.45985144 0.16878238 0.006196611 0.06998778 -0.3982059 -0.21634215
-0.30973837 0.19228019 -0.33593974 -0.34586743 -0.027307805 -0.2607552 0.024358533 -0.08176194
-0.34878105 0.011844778 0.2790744 -0.20162836 0.21397598 0.10012744 0.36275178 -0.31579846
-0.0046283607 -0.36163798 0.2470953 0.01263045 -0.005279661 -0.27865988 -0.040425375 0.05367906
0.018407786 0.11183103 0.028220326 0.0330365 -0.2556597 0.2870212 0.32333478 0.42787817
0.016704885 -0.24158819 -0.08172636 0.03908258 -0.04255872 0.0051741526 -0.058705486 -0.24942817
0.3630398 -0.27682766 0.0077145193 0.30775186 0.48733774 0.25051516 -0.05178888 -0.45318556
0.2044292 0.055284224 -0.11103005 0.03320231 -0.38192376 0.17224744 0.23975128 -0.3312179
-0.47588784 -0.2655831 0.08094558 0.099551454 -0.19602913 0.30351344 -0.35633126 -0.1423275
-0.13473697 0.29690245 0.31123182 0.02136087 0.06412951 0.0918234 0.098603696 -0.016912406
00000000: 8f76 8d3e f5a9 87be e644 fabd ee89 8d3e
00000010: cc6c 92be fe6c 3a3e 4094 a9bd d152 423e
00000020: bf2c 22bd 2b91 8fbe 703b 723e 204e ef3a
00000030: 051e 19bc 38b7 f6bd 825f b83b 49b1 e83c
00000040: 6c20 dfbd 3a83 39bd 0f3c d63e f3f7 f03d
00000050: 9df0 e8bd 9a14 8fbe cc82 b0bd 8abc f6bd
00000060: 2509 b5bd 3bef 41bd b9a2 6b3e 623f 9a3e
00000070: 23f0 e8be 2f57 193e 3bb9 9e3d 98c0 a13e
00000080: 944d 3d3d 416a 3cbe 4dbe 71be 4f22 9bbc
00000090: e3b9 253e b24f a4bc c026 303e fb1f 0fbe
000000a0: cba3 463e 8a5d 11be 46d4 753e c08a debd
000000b0: bd03 25be 4492 5a3e 9d0e 0cbe a1f7 07bc
000000c0: fb18 62bc d9b9 803c 3c54 4abe f98f 04be
000000d0: fe8b ac3d 584d 24be 293e 9c3e ec5f 813d
000000e0: 723d d53c 900e c7be b575 193e 33ac d23d
000000f0: b357 58be 777b 793e 766a 603e 6e32 c33e
00000100: 3aa6 29be 8d72 68be 89e0 7abd 258b 0c3b
00000110: 04f9 8ebe 8850 febd e4e2 ec3d 7ea5 373d
00000120: e27a 273e b92d 00be 35ab 1e3e 7608 52bc
00000130: f535 6c3e 8369 2b3e ba41 78be 3297 d53d
00000140: a2ce 49be 296a b5be a124 b53c 63a7 c7bd
00000150: 5e74 163e b94b 3bbe 3521 a3be a81d 213e
00000160: 811e 80bc 5e71 bf3d b6af 4d3d 3049 8fbd
00000170: 5512 40bc d519 cb3d 5ad9 a6bd 8f09 1abe
00000180: a36f 673e e2af 553e a5e1 e23c a4ca acbd
00000190: 5eeb 983e 1c09 adbd a850 4c3e 8dfd 303e
000001a0: def9 0fbe 717f b9be ffbe b33e 4e22 fc3d
000001b0: e80c db3e 28ce 18bd 2575 303e ac63 3c3e
000001c0: 9206 933e 38f1 c1bd c1c6 41bc 00c6 8e3d
000001d0: 35ef 393c 5071 bcbd 4901 44bd e044 83be
000001e0: 8324 83be 6c61 903c d39b a33e 6696 8ebe
000001f0: ea6f fe3d 4930 2fbe 7b7b e6be 996f f6bb
00000200: 6796 1e3e 7f08 d33e 8ab7 88be 8151 a53e
00000210: 5a58 ab3e 28df 6c3e d826 943e 8094 a53e
00000220: f6c6 013f e802 d93d b600 5cbe f3c6 96be
00000230: 2671 87be 1d9c 873c 24c2 88be 99eb 2a3e
00000240: cf68 243d c739 69bd 95d4 cc3d c0f9 973d
00000250: 2c72 093e 2bd9 e63d 416a 623b ad3f ba3e
00000260: 86d8 7abd 0bb5 cdbc 099a babe 1146 55be
00000270: 8979 4bbe 3634 e4bd 50b3 633e d008 f1bd
00000280: 88c2 efbe acba 863d ef59 e23d 49e8 013f
00000290: 402f 54be 8b4b 303e ff01 3bbe c753 f33c
000002a0: 463d 5bbe 3e57 83be 3e4b 80be 5e85 e83d
000002b0: 0c5f 79ba b926 213d ee98 ea3e 3152 a43e
000002c0: 6aeb 8c3e 0d52 993d a671 ebbe 4ad5 2c3e
000002d0: f10c cb3b c155 8f3d a5e1 cbbe cc88 5dbe
000002e0: 0796 9ebe 19e5 443e 4b00 acbe 8915 b1be
000002f0: 9eb4 dfbc b581 85be 8c8b c73c ce72 a7bd
00000300: 6e93 b2be 9a10 423c d7e2 8e3e aa77 4ebe
00000310: 851c 5b3e 9e0f cd3d 9aba b93e 56b0 a1be
00000320: 81a9 97bb 9d28 b9be 8d06 7d3e f2ef 4e3c
00000330: 0201 adbb 82ac 8ebe 1495 25bd 93de 5b3d
00000340: edcb 963c ab07 e53d 502e e73c 4851 073d
00000350: d4e5 82be 71f4 923e 238c a53e d912 db3e
00000360: afd8 883c e562 77be 2660 a7bd 0e15 203d
00000370: 0d52 2ebd f08b a93b 2a75 70bd 196a 7fbe
00000380: 5ae0 b93e 5bbc 8dbe 14ca fc3b a791 9d3e
00000390: 5584 f93e 8643 803e 9420 54bd f007 e8be
000003a0: e355 513e b671 623d b963 e3bd 25ff 073d
000003b0: 838b c3be a261 303e 5c81 753e 6595 a9be
000003c0: 92a7 f3be 82fa 87be ccc6 a53d a2e1 cb3d
000003d0: dcbb 48be 1d66 9b3e 0d71 b6be 4dbe 11be
000003e0: 7df8 09be 9903 983e c759 9f3e fefc ae3c
000003f0: 5556 833d e80d bc3d bcf0 c93d e38b 8abc

layer1.bias f4 [128]
-0.0192434 -0.07672808 0.14924818 -0.10369921 -0.3140728 0.14649953 -0.1897916 -0.12658264
0.34055394 0.153539 0.11054157 -0.01594813 -0.29676536 0.15266529 -0.26151195 0.018746635
-0.3406926 0.16079363 -0.18199423 0.33624867 0.17407627 0.35529402 0.013606097 0.0112766335
0.16375501 -0.23165894 -0.16512416 -0.44090408 0.42743707 -0.023583377 0.12452441 0.029866919
0.15332866 -0.25598904 -0.20755439 0.27972293 0.1700364 -0.025579602 -0.2595575 -0.10558476
-0.24178602 0.008184945 -0.2783022 -0.2929634 -0.41278368 0.04495779 0.053619348 0.36336857
-0.33773053 -0.109068014 -0.19216137 -0.25893742 0.0024892227 0.38688752 0.0691645 -0.10438836
0.25455236 -0.35668242 0.009165845 0.25612208 0.27612182 0.07212575 -0.19206065 -0.43469998
-0.15959357 0.17812985 0.26363516 0.031635888 -0.3033205 -0.046978578 0.11182352 0.013470748
-0.16213717 0.052292503 0.03587682 0.062300377 -0.047287818 0.20378956 -0.39103487 -0.13005967
0.0021312844 0.22393006 0.14579515 0.14302704 0.38008544 0.109764054 -0.36480263 0.13963601
-0.22676587 -0.0038026837 0.059551425 0.3394129 -0.13229787 -0.19560726 -0.13440615 -0.08542884
0.35190615 0.21715185 0.18981463 0.094419025 -0.092867374 -0.07487451 -0.27396077 0.11970623
-0.23263504 0.05746744 0.15962718 0.26183027 -0.36371005 0.4132093 -0.12011649 -0.047359243
0.3322523 0.2982834 -0.27260697 0.25725704 -0.33513418 0.28602174 0.4121226 0.016911024
0.03311845 -0.0049114753 -0.27937025 -0.3004779 -0.07166897 -0.38056576 -0.30511612 -0.110574864
00000000: 56a4 9dbc 9d23 9dbd 84d4 183e 4060 d4bd
00000010: 26ce a0be f903 163e bb58 42be e19e 01be
00000020: 165d ae3e 5439 1d3e 9e63 e23d a7a5 82bc
00000030: a1f1 97be 4a54 1c3e e5e4 85be 8b92 993c
00000040: 436f aebe 16a7 243e b25c 3abe c928 ac3e
00000050: 0d41 323e 19e9 b53e 1bec 5e3c a1c1 383c
00000060: 65af 273e 0038 6dbe 4f16 29be 2ebe e1be
00000070: 08d9 da3e ed31 c1bc a706 ff3d 78ab f43c
00000080: 3002 1d3e ff10 83be 2389 54be d837 8f3e
00000090: 061e 2e3e 508c d1bc b8e4 84be d33c d8bd
000000a0: c196 77be 261a 063c a07d 8ebe 4cff 95be
000000b0: 6258 d3be a925 383d f69f 5b3d 720b ba3e
000000c0: 04eb acbe 0d5f dfbd f3c5 44be 7293 84be
000000d0: 3a22 233b 1f16 c63e 1ea6 8d3d 91c9 d5bd
000000e0: b054 823e 149f b6be 572c 163c 6f22 833e
000000f0: d75f 8d3e aab6 933d 8cab 44be ff90 debe
00000100: 7f6c 23be ac67 363e 30fb 863e a294 013d
00000110: d34c 9bbe 9c6c 40bd bb03 e53d 6ab4 5c3c
00000120: 4907 26be aa30 563d 93f3 123d ae2e 7f3d
00000130: dfb0 41bd 36ae 503e b935 c8be 5d2e 05be
00000140: 05ad 0b3b ec4d 653e 534b 153e ae75 123e
00000150: 8f9a c23e facb e03d 69c7 babe befc 0e3e
00000160: 5035 68be 7236 79bb 32ec 733d 87c7 ad3e
00000170: 1879 07be 454d 48be c4a1 09be 51f5 aebd
00000180: 0b2d b43e 0e5d 5e3e c45e 423e c35e c13d
00000190: 4031 bebd cf57 99bd 9644 8cbe 8a28 f53d
000001a0: e137 6ebe fa62 6b3d 4f75 233e 9e0e 863e
000001b0: 3438 babe 2b90 d33e a2ff f5bd c4fb 41bd
000001c0: f91c aa3e 9ab8 983e 2493 8bbe 32b7 833e
000001d0: b596 abbe 7171 923e bc01 d33e fd88 8a3c
000001e0: 36a7 073d 71f0 a0bb 9e09 8fbe 3dd8 99be
000001f0: 2ec7 92bd 84d9 c2be 2e38 9cbe 1375 e2bd

layer2.weight f4 [128, 128]
-0.041726198 -0.04426123 -0.050532646 0.015965136 0.098902255 0.0030043682 -0.038057916 0.021926092
-0.11777961 0.08533638 0.08347669 -0.043158166 -0.055474386 0.13729197 -0.112767346 0.057643443
-0.0596103 -0.13299407 0.039565697 -0.09578037 0.09248277 0.00479988 -0.07901082 -0.08891123
0.06476816 0.11893098 0.00205714 -0.059775457 -0.11035565 0.051087648 -0.0147122955 0.051736575
0.07679057 0.0790794 0.019583972 0.026453588 0.06516834 -0.007487208 0.07670617 0.016402898
-0.0017638741 -0.053789064 0.007518337 0.08026723 0.083900616 -0.010155065 -0.035842214 0.059676476
0.06652231 0.18122728 0.026355283 -0.020971749 -0.025958175 -0.056891955 0.011204352 0.0039769355
-0.052737754 -0.06430788 0.037535507 0.0105230315 -0.15074743 0.025038294 0.05274916 0.050945953
0.1130254 -0.046317432 0.09627925 -0.102433264 -0.013415026 -0.05799712 -0.020403145 0.09799503
0.09534125 0.009405791 -0.033841368 -0.04405239 0.0013100782 -0.022665327 0.057681542 0.052895218
0.08543836 -0.051641293 0.07663888 -0.023404105 -0.035445146 -0.04542769 -0.00636002 -0.055401627
-0.009602133 -0.08198883 0.0389283 -0.07820507 -0.013907707 -0.057382606 0.013537187 0.07449832
-0.073134474 -0.08568296 0.070163235 0.06493799 0.06789544 -0.072854035 0.07267048 0.06806863
0.043776013 -0.009603969 0.094915 0.041075967 0.037425518 -0.023194583 -0.04198386 -0.04927749
0.1080091 0.03937278 0.060864657 0.06914485 -0.0769731 0.03487656 -0.06001848 0.003225734
0.021930512 -0.005166049 -0.020095201 -0.028878592 -0.11526172 -0.071671516 0.06850589 -0.065586686
-0.019730646 -0.013208844 0.023938362 -0.024504436 0.050606765 -0.022735132 0.0574401 -0.014009367
0.0036483516 -0.0075445976 0.10475315 0.015245837 0.0413243 -0.034958057 0.012223584 0.120326735
-0.10280264 -0.02090495 0.0656033 -0.046931535 -0.029548604 -0.014329634 0.020465227 0.056273777
-0.017181506 0.0414769 -0.07024596 0.030208206 -0.059242517 0.05786325 -0.05724693 -0.08187361
-0.0010661075 0.042784095 -0.0038906143 0.038628124 0.003237138 0.055361416 -0.010685115 -0.13041107
-0.06379588 0.032841943 -0.012489626 0.072372906 -0.051941875 0.07130679 -0.047769994 -0.05198989
-0.020472744 -0.09381763 -0.014992536 0.018952863 -0.12335306 0.09456482 -0.083099514 0.049543
0.033996988 0.0015750097 -0.061030146 0.007054368 -0.045508787 0.08689145 -0.07880104 -0.037850633
-0.022642102 -0.06495676 -0.041083317 0.018692609 -0.020214891 0.0066479524 0.08353801 -0.0052268617
-0.06318063 -0.04340584 0.10371613 -0.02125472 -0.08612296 0.05378929 -0.0077289375 0.018968329
0.005238226 0.12529096 -0.060307037 0.024086723 0.15232277 0.016887533 0.043612357 0.07130887
0.11695409 -0.029617902 -0.09712003 -0.053415343 -0.09535466 0.014545064 0.06721222 0.07140624
0.028731223 0.0125959935 0.038318254 0.06637061 0.07477447 0.009673604 -0.009888602 0.022746317
-0.0034668366 -0.034242377 -0.0153122535 0.09141029 0.062430486 -0.03159151 -0.033019714 -0.0628485
0.014218316 0.06683306 -0.074371144 0.08110879 -0.0793552 -0.094872124 -0.016094092 0.0037666867
-0.009572256 -0.042122405 -0.052693926 -0.07492973 -0.062201295 -0.06886014 0.061257467 -0.07547445
00000000: 17e9 2abd 434b 35bd 52fb 4ebd 51c9 823c
00000010: 448d ca3d efe4 443b 9ee2 1bbd 599e b33c
00000020: 7036 f1bd d7c4 ae3d d4f5 aa3d 9ec6 30bd
00000030: 1c39 63bd 4496 0c3e 91f2 e6bd 881b 6c3d
00000040: ee29 74bd 992f 08be a40f 223d 8028 c4bd
00000050: 9b67 bd3d 5048 9d3b 6dd0 a1bd 1717 b6bd
00000060: 2ba5 843d 1692 f33d 15d1 063b 1cd7 74bd
00000070: 2502 e2bd 4841 513d d70b 71bc bbe9 533d
00000080: 6044 9d3d 61f4 a13d 916e a03c 32b5 d83c
00000090: fb76 853d 4157 f5bb 2018 9d3d 5f5f 863c
000000a0: cb31 e7ba ec51 5cbd 625c f63b 2563 a43d
000000b0: 16d4 ab3d 6e61 26bc 49cf 12bd 526f 743d
000000c0: d93c 883d a593 393e 09e7 d73c f2cc abbc
000000d0: 3da6 d4bc 8a07 69bd 7592 373c f450 823b
000000e0: 8b03 58bd dab3 83bd d5be 193d cb68 2c3c
000000f0: 895d 1abe 1c1d cd3c 810f 583d b4ac 503d
00000100: dc79 e73d 59b7 3dbd 0e2e c53d 88c8 d1bd
00000110: b2ca 5bbc 638e 6dbd 7f24 a7bc 9eb1 c83d
00000120: 4642 c33d bf1a 1a3c 3f9d 0abd 4770 34bd
00000130: eeb6 ab3a a3ac b9bc 7b43 6c3d a8a8 583d
00000140: 4ffa ae3d d285 53bd d8f4 9c3d f7b9 bfbc
00000150: ee2e 11bd 6312 3abd b767 d0bb d1ec 62bd
00000160: 4452 1dbc c2e9 a7bd 4873 1f3d fb29 a0bd
00000170: 27dd 63bc 060a 6bbd 14cb 5d3c 9392 983d
00000180: 87c7 95bd 8c7a afbd beb1 8f3d 35fe 843d
00000190: c40c 8b3d 7f34 95bd 43d4 943d 9167 8b3d
000001a0: 7a4e 333d f759 1dbc cc62 c23d 463f 283d
000001b0: 804b 193d 9102 bebc 45f7 2bbd 31d7 49bd
000001c0: e033 dd3d 5a45 213d 384d 793d d19b 8d3d
000001d0: 13a4 9dbd b9da 0e3d f0d5 75bd d666 533b
000001e0: 9ea7 b33c f647 a9bb b19e a4bc cc92 ecbc
000001f0: 560e ecbd 84c8 92bd d14c 8c3d 5052 86bd
00000200: 2aa2 a1bc e869 58bc 621a c43c 87bd c8bc
00000210: 0a49 4f3d 073f babc 4f46 6b3d 8b87 65bc
00000220: 2f19 6f3b ac38 f7bb d288 d63d adc9 793c
00000230: ab43 293d 2e30 0fbd 6d45 483c dd6d f63d
00000240: 318a d2bd dc40 abbc 065b 863d 483b 40bd
00000250: ea0f f2bc d7c6 6abc b1a6 a73c 557f 663d
00000260: 3bc0 8cbc afe3 293d 1ddd 8fbd 3377 f73c
00000270: 48a8 72bd 0402 6d3d c27b 6abd 5aad a7bd
00000280: a2bc 8bba 603e 2f3d adf9 7ebb 8638 1e3d
00000290: 2a26 543b a7c2 623d 9f10 2fbc 7b8a 05be
000002a0: 6aa7 82bd 4685 063d 4aa1 4cbc 3f38 943d
000002b0: 01c1 54bd 4b09 923d 78aa 43bd 5af3 54bd
000002c0: 75b6 a7bc 7523 c0bd 41a3 75bc 0943 9b3c
000002d0: 87a0 fcbd 33ab c13d 1430 aabd 9aed 4a3d
000002e0: 6d40 0b3d 8e70 ce3a bffa 79bd 5428 e73b
000002f0: 6c67 3abd 25f4 b13d 7162 a1bd 4409 1bbd
00000300: ee7b b9bc 0d08 85bd fb46 28bd 3e21 993c
00000310: b399 a5bc 11d7 d93b fa15 ab3d 1846 abbb
00000320: d964 81bd 52ca 31bd 1f69 d43d 611e aebc
00000330: 3c61 b0bd 2952 5c3d 0743 fdbb 7863 9b3c
00000340: 6da5 ab3b 464c 003e 8304 77bd 8551 c53c
00000350: 80fa 1b3e b957 8a3c dfa2 323d 630a 923d
00000360: a085 ef3d 3ea1 f2bc dee6 c6bd 0cca 5abd
00000370: 4e49 c3bd 6c4e 6e3c 8fa6 893d 6f3d 923d
00000380: be5d eb3c 6d5f 4e3c 9af3 1c3d 50ed 873d
00000390: 5b23 993d 097e 1e3c ce03 22bc 7c56 ba3c
000003a0: de33 63bb bc41 0cbd 3fe0 7abc 5135 bb3d
000003b0: 1cb7 7f3d 1966 01bd ae3f 07bd b7b6 80bd
000003c0: f1f3 683c c5df 883d e64f 98bd 5e1c a63d
000003d0: fb84 a2bd 514c c2bd c2d7 83bc 84da 763b
000003e0: f4d4 1cbc 8b88 2cbd 96d5 57bd c274 99bd
000003f0: c9c6 7ebd 8c06 8dbd 1ce9 7a3d 5992 9abd

layer2.bias f4 [128]
-0.036408097 -0.042157214 -0.028308703 0.011930563 -0.1318859 0.0627589 -0.06154972 0.18489598
-0.02333627 0.007341864 0.03696327 0.10461612 -0.02994913 -0.2437147 0.02548739 -0.027935904
-0.09122178 -0.01510814 -0.017785605 0.10497088 0.1338795 0.07279807 0.04631493 0.010774227
0.08465816 -0.14601377 -0.019906897 -0.00048494723 0.04028809 0.03828773 0.16813904 -0.10558646
-0.058291823 0.05249895 0.0077535072 0.0644161 0.14413555 0.0056628743 -0.06470325 -0.026718378
-0.14287645 0.086266704 0.02964518 -0.1036341 0.05702553 0.09821952 0.1509205 -0.07647107
0.12502514 0.02443202 0.035526462 -0.04363328 0.08880227 0.084413566 -0.0072701015 -0.08478976
0.064920165 -0.16187981 0.07018091 0.08955749 0.029052664 0.048332453 -0.08693879 0.02324901
0.009005388 -0.077426985 0.012448679 -0.029525785 0.013652037 0.010573571 -0.028246026 -0.042817786
0.15536767 0.113012016 -0.022626683 -0.045667402 0.02346482 -0.14563443 -0.048317697 -0.09635044
0.031186048 -0.02110189 0.082345724 -0.08502673 -0.08040577 -0.020810766 -0.10337481 -0.14994664
-0.06272203 -0.0123041095 0.044397783 0.11087688 0.0006754907 0.18620595 0.09717637 0.0011667056
-0.09038845 -0.02641626 0.005032085 0.010661434 0.07153205 0.14796515 -0.03605296 0.08954116
0.06587479 0.10383065 -0.03512088 0.016643953 0.10122989 -0.15708992 -0.04921409 -0.05813002
0.08879748 0.007975284 0.01176293 0.021912446 0.08434907 -0.073264144 -0.1313388 -0.035104148
-0.032350037 -0.055040196 -0.024380213 0.00080342934 -0.15592977 -0.19472697 0.011310578 -0.05929871
00000000: a820 15bd 0bad 2cbd a7e7 e7bc 6878 433c
00000010: 190d 07be bd87 803d 8f1b 7cbd 5f55 3d3e
00000020: b52b bfbc 0594 f03b cc66 173d fa40 d63d
00000030: e157 f5bc 5990 79be eeca d03c d6d9 e4bc
00000040: 7cd2 babd 2288 77bc 1eb3 91bc f9fa d63d
00000050: b517 093e 2817 953d b9b4 3d3d 6286 303c
00000060: 4261 ad3d a284 15be ca13 a3bc 8440 feb9
00000070: 2005 253d 98d3 1c3d a42c 2c3e b73d d8bd
00000080: 68c3 6ebd 2409 573d 2211 fe3b 97ec 833d
00000090: 4598 133e a28f b93b 2383 84bd 80e0 dabc
000000a0: 344e 12be 99ac b03d 73da f23c 1d3e d4bd
000000b0: 9a93 693d 5127 c93d e78a 1a3e dd9c 9cbd
000000c0: 9706 003e a925 c83c 3284 113d cfb8 32bd
000000d0: f7dd b53d 05e1 ac3d 083a eebb 41a6 adbd
000000e0: ddf4 843d d2c3 25be 02bb 8f3d eb69 b73d
000000f0: daff ed3c 40f8 453d f70c b2bd b574 be3c
00000100: 568b 133c 0a92 9ebd 8bf5 4b3c 0fe0 f1bc
00000110: cbac 5f3c c53c 2d3c 3664 e7bc b461 2fbd
00000120: b418 1f3e d872 e73d 985b b9bc be0d 3bbd
00000130: 4b39 c03c 3121 15be c7e8 45bd 6153 c5bd
00000140: e279 ff3c dfdd acbc e0a4 a83d 7f22 aebd
00000150: c8ab a4bd 577b aabc 2cb6 d3bd 9d8b 19be
00000160: 6874 80bd 2d97 49bc 73da 353d 6b13 e33d
00000170: 6a13 313a c6ac 3e3e 6804 c73d 25ec 983a
00000180: 941d b9bd ea66 d8bc 30e4 a43b 4cad 2e3c
00000190: 657f 923d 2d84 173e 45ac 13bd 5b61 b73d
000001a0: 5de9 863d 2aa5 d43d e9da 0fbd e658 883c
000001b0: 9e51 cf3d 2edc 20be b794 49bd be19 6ebd
000001c0: 74db b53d c4aa 023c 4eb9 403c bb81 b33c
000001d0: 35bf ac3d 830b 96bd ae7d 06be 5ec9 0fbd
000001e0: 7981 04bd d471 61bd 03b9 c7bc 3b9d 523a
000001f0: 0eac 1fbe 8266 47be 0150 393c 34e3 72bd

layer3.weight f4 [128, 128]
-0.073693074 0.07662523 0.037730254 -0.005213052 -0.061137736 -0.060038943 -0.056744162 0.065786935
0.066194154 0.0788077 0.027929815 0.007239704 -0.048308782 -0.053872168 0.078393616 0.08073906
0.10510455 0.007653605 0.06167895 0.0028537787 -0.01729534 -0.019121828 -0.049643725 -0.08306613
-0.04304003 -0.033567138 0.07932946 -0.05360486 -0.023604736 0.024849312 0.01913561 0.016029647
0.051911086 -0.079518 0.00849357 -0.10764576 7.722762e-05 0.06770286 0.057237115 0.02587627
-0.090098396 0.017792508 0.0006807856 -0.098095156 -0.10012163 -0.055783927 0.035755806 0.056444544
-0.11383295 -0.04777907 0.032266147 -0.045638375 0.07387319 0.045267005 -0.024441611 0.11313805
-0.012650291 -0.024642607 -0.003990191 -0.060470864 0.05715466 -0.06540518 0.069853574 -0.030041004
0.001732516 -0.170424 -0.04886986 0.0258534 -0.10546692 0.05776435 -0.031235082 -0.05787637
0.06564973 0.013803111 0.02449316 -0.021156495 0.013839547 0.034412898 -0.076665424 -0.06252553
-0.08659045 -0.00919479 0.044585906 -0.08150744 0.019458607 -0.05490698 0.021016521 0.08100447
-0.023133319 0.054191966 0.022493938 0.023669843 0.017130537 -0.056924853 0.057473548 0.055392385
0.0887819 0.024438456 -0.042404246 -0.02706484 0.060681637 -0.0020208966 -0.014691731 0.048530158
-0.009354643 0.13737997 0.045801144 -0.0714011 0.07114977 0.033715043 -0.09199029 -0.04731896
0.029537687 0.035903446 0.09130443 0.017127927 0.06910965 -0.064855225 0.07251182 0.042900883
0.0312245 -0.06514617 -0.110818684 -0.031546097 0.042495865 0.0029530495 0.013043989 0.0021202303
0.10684092 0.03993304 -0.055894975 0.027895557 -0.0023278773 -0.010682256 -0.12457651 0.12426875
0.027706493 -0.03084098 -0.08977752 0.03543358 -0.025282053 -0.044534143 0.009341191 0.0014731461
0.028128441 -0.12132362 -0.04145715 -0.005217685 0.089660786 -0.03131669 -0.031780183 0.019684002
0.0028347468 -0.07536016 0.004946381 0.047577806 0.031884003 -0.02727899 0.059536967 -0.039667014
0.08313684 0.05325693 0.08063996 0.019678783 0.046693113 -0.043384712 0.0024546774 0.02814014
-0.09122211 -0.034422915 -0.019880865 0.11582642 0.056773722 0.0030939644 -0.021376934 -0.07831856
0.13645703 0.018171914 -0.028458944 -0.055022996 -0.015741171 0.05104738 0.057647876 -0.12175155
-0.03036546 -0.032934286 0.1364502 -0.030647987 -0.036433704 0.06217964 -0.026374632 -0.084790364
0.030082202 0.1282065 -0.096324526 0.085713856 0.004357382 0.10387558 0.024646673 -0.0031938325
-0.039973944 0.095189095 -0.021059074 0.016903197 0.055567745 -0.039629817 -0.01872938 0.10898556
0.10971665 0.051674195 -0.05667641 -0.014664192 -0.0234739 -0.0031997352 -0.05883332 0.02615205
-0.08899118 -0.06218294 -0.0042563877 0.024861764 0.029078389 -0.00017904011 0.0021187328 -0.17336378
0.08525115 0.11273464 -0.07288585 -0.11812699 -0.11130551 -0.08023321 0.026612982 -0.083125815
-0.1312168 -0.042838763 -0.0041769943 -0.03261867 0.048339605 -0.070716545 -0.032398704 -0.04884044
0.06554262 -0.011677095 -0.041440204 -0.008570563 -0.01485863 0.05179484 -0.052679226 -0.048792932
-0.05070092 -0.090862446 0.096968435 -0.018440723 -0.020942666 0.03150915 -0.002098107 0.09008645
00000000: 65ec 96bd b0ed 9c3d 0a8b 1a3d 40d2 aabb
00000010: 906b 7abd 65eb 75bd 916c 68bd 4dbb 863d
00000020: cd90 873d ee65 a13d 11cd e43c 0a3b ed3b
00000030: 6edf 45bd 10a9 5cbd d58c a03d 855a a53d
00000040: 0e41 d73d 18cb fa3b 11a3 7c3d 7606 3b3b
00000050: f5ae 8dbc 61a5 9cbc 3857 4bbd 931e aabd
00000060: be4a 30bd b27d 09bd 7c77 a23d c590 5bbd
00000070: b85e c1bc c990 cb3c 48c2 9c3c 9b50 833c
00000080: b8a0 543d 55da a2bd 9d28 0b3c 6175 dcbd
00000090: 43f5 a138 cca7 8a3d 7771 6a3d 79fa d33c
000000a0: 8285 b8bd 98c1 913c c076 323a 1de6 c8bd
000000b0: 920c cdbd b07d 64bd ae74 123d 6532 673d
000000c0: 4021 e9bd fcb3 43bd 8229 043d 4eef 3abd
000000d0: d44a 973d e569 393d c639 c8bc ecb4 e73d
000000e0: 2b43 4fbc 4bdf c9bc 26c0 82bb 4cb0 77bd
000000f0: 011b 6a3d 27f3 85bd 640f 8f3d 8d18 f6bc
00000100: 9715 e33a a183 2ebe c32b 48bd 82ca d33c
00000110: 0aff d7bd 509a 6c3d b7e0 ffbc c60f 6dbd
00000120: 5e73 863d 7226 623c e1a5 c83c 6350 adbc
00000130: 44bf 623c 8af4 0c3d c302 9dbd 630d 80bd
00000140: 5556 b1bd bfa5 16bc b69f 363d 5fed a6bd
00000150: a867 9f3c 24e6 60bd d72a ac3c ace5 a53d
00000160: 1682 bdbc 65f8 5d3d 3545 b83c 42e7 c13c
00000170: 5755 8c3c 092a 69bd 6269 6b3d 20e3 623d
00000180: 49d3 b53d 2833 c83c 13b0 2dbd 15b7 ddbc
00000190: 4f8d 783d 0571 04bb 96b5 70bc 8fc7 463d
000001a0: 3744 19bc 56ad 0c3e fb99 3b3d bd3a 92bd
000001b0: f8b6 913d c918 0a3d 6865 bcbd 87d1 41bd
000001c0: 05f9 f13c 7e0f 133d d1fd ba3d de4f 8c3c
000001d0: 5c89 8d3d d1d2 84bd 1481 943d d6b8 2f3d
000001e0: 86ca ff3c 5b6b 85bd e8f4 e2bd 7b36 01bd
000001f0: 2510 2e3d f387 413b 75b6 553c 90f3 0a3b
00000200: 6acf da3d d490 233d 21f2 64bd 3985 e43c
00000210: 4d8f 18bb a104 2fbc f821 ffbd 9d80 fe3d
00000220: baf8 e23c 39a6 fcbc 47dd b7bd cd22 113d
00000230: 4f1c cfbc 6f69 36bd cb0b 193c 9516 c13a
00000240: 9e6d e63c 8578 f8bd f9ce 29bd 1df9 aabb
00000250: 13a0 b73d ee45 00bd f02b 02bd 5840 a13c
00000260: 29c7 393b 6d56 9abd 4015 a23b f2e0 423d
00000270: cd98 023d 3078 dfbc 09dd 733d e179 22bd
00000280: a643 aa3d f023 5a3d 9026 a53d 6635 a13c
00000290: 4741 3f3d 2bb4 31bd a7de 203b 2786 e63c
000002a0: a8d2 babd 0bff 0cbd 32dd a2bc 6736 ed3d
000002b0: 908b 683d 1cc4 4a3b ae1e afbc 7b65 a0bd
000002c0: 64bb 0b3e 44dd 943c bb22 e9bc cb5f 61bd
000002d0: a1f3 80bc 0f17 513d 2e20 6c3d e058 f9bd
000002e0: fcc0 f8bc 1ae6 06bd 9ab9 0b3e 7d11 fbbc
000002f0: 823b 15bd 14b0 7e3d 9d0f d8bc 92a6 adbd
00000300: f36e f63c 9148 033e cb45 c5bd bf8a af3d
00000310: 5fc8 8e3b b8bc d43d d2e7 c93c 9e4f 51bb
00000320: b8bb 23bd 80f2 c23d 1484 acbc 9378 8a3c
00000330: 019b 633d e052 22bd 5b6e 99bc d233 df3d
00000340: 1fb3 e03d 52a8 533d 8625 68bd 1442 70bc
00000350: 564c c0bc a6b2 51bb 35fb 70bd d33c d63c
00000360: 0241 b6bd 8ab3 7ebd 2b79 8bbb e6aa cb3c
00000370: cd35 ee3c b7bc 3bb9 70da 0a3b 4686 31be
00000380: 2898 ae3d 6be1 e63d 2d45 95bd 90ec f1bd
00000390: 25f4 e3bd 4f51 a4bd 7803 da3c de3d aabd
000003a0: b25d 06be b377 2fbd 2bdf 88bb 289b 05bd
000003b0: c0ff 453d d6d3 90bd 81b4 04bd ea0c 48bd
000003c0: 363b 863d 4951 3fbc 34bd 29bd 8c6b 0cbc
000003d0: 9c71 73bc d326 543d 2cc6 57bd 19db 47bd
000003e0: c5ab 4fbd 1716 babd 6397 c63d 0011 97bc
000003f0: f48f abbc bd0f 013d 6580 09bb 3f7f b83d

layer3.bias f4 [128]
0.036285486 0.048635356 -0.00821567 -0.05304122 0.013271314 0.20230873 -0.012975616 0.09829608
0.053341284 -0.12709965 -0.08643433 -0.014283001 0.02802257 0.054639075 0.05394739 0.04851245
-0.013258312 -0.08136719 0.059759576 -0.077872485 -0.07846421 -0.08769581 0.053071067 -0.073187195
0.16165039 -0.17325293 -0.06892847 0.22150005 0.16071244 -0.10964869 0.16113903 0.048168745
0.02359566 -0.16001937 -0.10822527 0.015302111 -0.112887904 0.07046353 -0.06539153 0.16585252
0.08370751 -0.06953774 -0.103659734 0.15087318 -0.13622597 -0.049081452 0.19334882 0.017467804
0.067251384 0.0710111 0.07065717 0.07369106 0.12583494 -0.112486325 0.16076833 0.03773944
0.092784666 0.11570901 0.19614212 -0.100253135 -0.05354018 0.10553212 0.07275838 -0.052094985
-0.082600184 0.07955137 0.100642316 -0.11784735 -0.06523828 0.06607937 -0.012814434 -0.043528616
0.065931015 0.060815383 -0.12899947 -0.092507884 0.08369467 0.047667943 0.06565099 0.07553145
0.22632976 0.01041232 -0.06413216 -0.06718558 -0.104115345 0.076160386 0.1899387 -0.057405643
0.12964259 0.0873943 0.09871273 0.115236714 -0.12952735 0.009694692 -0.13101256 -0.03931457
0.16665082 -0.17811769 0.08891135 -0.10553712 -0.19875751 0.042259604 0.042585768 0.008972009
0.14201878 0.044040374 0.20055163 0.0018588002 0.14043522 -0.13582595 0.13603225 -0.039891943
-0.05427851 -0.11092542 -0.092693016 -0.17691572 -0.13723393 -0.037613902 -0.04588418 -0.046808887
0.09290026 -0.012350071 -0.0087841535 -0.0043515344 -0.036152575 -0.084815904 -0.104660586 0.095360115
00000000: 17a0 143d de35 473d 049b 06bc c041 59bd
00000010: ed6f 593c 052a 4f3e ae97 54bc 754f c93d
00000020: 647c 5a3d 6926 02be 7b04 b1bd 4003 6abc
00000030: 978f e53c 39cd 5f3d f0f7 5c3d feb4 463d
00000040: 6439 59bc d7a3 a6bd 75c6 743d 9c7b 9fbd
00000050: d8b1 a0bd dc99 b3bd 0c61 593d 2be3 95bd
00000060: ae87 253e 3769 31be 5f2a 8dbd e9d0 623e
00000070: cd91 243e 7e8f e0bd a101 253e 974c 453d
00000080: b04b c13c 1edc 23be 36a5 ddbd b5b5 7a3c
00000090: c631 e7bd 2f4f 903d ffeb 85bd 3ed5 293e
000000a0: d86e ab3d cd69 8ebd 8e4b d4bd 807e 1a3e
000000b0: d27e 0bbe a209 49bd 3cfd 453e a418 8f3c
000000c0: 18bb 893d 456e 913d b5b4 903d 57eb 963d
000000d0: e0da 003e 3b5f e6bd 74a0 243e ac94 1a3d
000000e0: e305 be3d d8f8 ec3d 7bd9 483e 8451 cdbd
000000f0: f34c 5bbd 3921 d83d 5802 953d 8d61 55bd
00000100: 492a a9bd d4eb a23d 8f1d ce3d f459 f1bd
00000110: a69b 85bd 9f54 873d a2f3 51bc 104b 32bd
00000120: d706 873d 8d19 793d 7018 04be c674 bdbd
00000130: 1c68 ab3d 763f 433d 0774 863d 3cb0 9a3d
00000140: fdc2 673e 6f98 2a3c b957 83bd 9898 89bd
00000150: 6d3a d5bd faf9 9b3d 4a7f 423e 2e22 6bbd
00000160: 07c1 043e c8fb b23d e629 ca3d 3a01 ec3d
00000170: d1a2 04be 7cd6 1e3c 2828 06be 5108 21bd
00000180: 83a6 2a3e 7c64 36be 2717 b63d d823 d8bd
00000190: 1787 4bbe 6818 2d3d 6a6e 2e3d 55ff 123c
000001a0: 5f6d 113e ae63 343d 685d 4d3e fca2 f33a
000001b0: 40ce 0f3e f515 0bbe 0a4c 0b3e bc65 23bd
000001c0: 2553 5ebd de2c e3bd d6d5 bdbd 6529 35be
000001d0: 0d87 0cbe 0911 1abd 0df1 3bbd adba 3fbd
000001e0: 7e42 be3d f457 4abc 69eb 0fbc 5197 8ebb
000001f0: b914 14bd f6b3 adbd 4a58 d6bd 2a4c c33d

layer4.weight f4 [128, 128]
-0.071980305 0.09377858 0.07889995 0.052034236 0.0116236 -0.05299648 -0.07707005 -0.08025168
0.02209536 0.038894836 -0.0506302 -0.0013835579 -0.034959596 0.0043629967 -0.018191336 -0.037504602
0.049860258 0.007872773 0.002068459 0.025103053 0.007013664 -0.035384838 -0.012661029 -0.06838626
0.045559246 -0.009798041 0.05361711 -0.026290193 0.056745872 0.08001764 -0.058797266 0.044502374
-0.0020557535 -0.030012166 -0.030548897 -0.040846713 -0.033786256 0.085530594 -0.050184503 0.053241998
-0.019194897 0.019928548 -0.06777146 -0.06547504 0.09155982 -0.039684176 0.036245733 0.05196052
0.03302633 0.020110972 0.0010789132 0.022638045 -0.07366515 -0.07737074 0.049353752 0.05768818
-0.03575664 -0.043738354 0.100037724 -0.020932266 -0.04104133 -0.009543342 -0.037486833 -0.00240279
-0.08164545 -0.050085787 0.007315742 0.004360079 0.032210957 0.07934761 -0.05743489 0.02902942
-0.07034997 -0.015040893 -0.0069795777 -0.066585205 0.035630766 -0.039735585 -0.083202325 0.025631705
0.027976712 0.011568494 -0.008153341 0.058251765 0.027305674 -0.0645693 0.08072259 -0.0680152
0.07801203 -0.08393593 0.055472672 0.037477974 -0.060962766 0.028011812 0.05585794 -0.04859517
0.10284895 0.03255788 0.009472528 0.044625036 0.018409861 0.09538387 -0.007045587 -0.0750166
-0.054307614 0.015800416 0.06620916 -0.07597085 0.0052382206 0.0356981 -0.017940901 -0.038027376
0.048653394 0.03061103 0.0699889 -0.055357937 -0.007677686 -0.04064139 -0.013860228 0.022508822
-0.031790856 0.046057522 0.05996122 -0.10086937 -0.06118702 -0.08095373 -0.062326238 0.044070933
-0.12552792 0.07545468 -0.091496535 -0.025680806 0.20785016 0.20778711 -0.015658097 0.23537777
0.05378106 0.08422666 -0.16397542 -0.05472904 0.11696556 0.010293929 0.09424595 -0.18894422
-0.15726835 0.007005776 -0.15072484 0.038257707 -0.018355098 -0.02009392 0.07915419 0.046366528
-0.13523214 -0.17010885 0.01472677 -0.1942751 0.1723739 0.15903835 0.0431905 -0.11103624
-0.094925076 -0.03117363 -0.16527288 0.15728581 -0.09118378 -0.009691511 0.06022595 -0.119020656
0.10387667 -0.11227352 0.16199411 0.032760613 0.28424594 -0.11279489 0.16895744 0.09675507
0.15774061 0.05382329 -0.19867136 0.0970124 -0.108127885 -0.053879686 0.035705857 0.12385725
-0.22288442 -0.09292085 0.14546956 -0.08862209 -0.011145609 0.025630131 0.16687919 -0.02788024
-0.10233722 0.07806849 -0.17084634 -0.08886161 0.1375203 0.014567734 0.02133806 -0.08233263
0.13052012 -0.055751096 0.22424185 -0.047535475 -0.15411265 -0.041664027 0.11662228 -0.07851718
-0.07232646 0.15431045 -0.022312185 0.10335285 0.20117262 -0.093766615 0.24646363 -0.10538706
0.1246467 0.0036462308 0.072357 -0.026957417 0.09931374 0.091060825 -0.065617576 0.03726124
0.09528961 -0.1984029 0.06341247 -0.031439736 -0.013728464 -0.07119086 0.056833778 -0.046341997
-0.0018505536 -0.0032327413 0.08951947 -0.04564095 -0.21423711 -0.14990284 -0.121754184 -0.15433353
-0.08053283 0.026856843 0.013106834 -0.016055314 -0.24885716 -0.011460458 0.085431926 -0.002627339
0.03668384 -0.07371482 0.012045898 0.26299858 -0.054144494 0.073107004 0.03497798 0.028427461
00000000: 696a 93bd fc0e c03d 4c96 a13d da21 553d
00000010: e970 3e3c d612 59bd e7d6 9dbd fe5a a4bd
00000020: 5401 b53c 3150 1f3d 9d61 4fbd 8058 b5ba
00000030: cb31 0fbd 78f7 8e3b ff05 95bc 6d9e 19bd
00000040: 453a 4c3d cefc 003c fc8e 073b eba4 cd3c
00000050: e1d2 e53b b1ef 10bd 3470 4fbc 180e 8cbd
00000060: 559c 3a3d f687 20bc 9d9d 5b3d 885e d7bc
00000070: 5c6e 683d 4ae0 a33d 67d5 70bd 1f48 363d
00000080: d2b9 06bb 13dc f5bc ae41 fabc e24e 27bd
00000090: 7563 0abd aa2a af3d 448e 4dbd 4814 5a3d
000000a0: 9e3e 9dbc 3241 a33c c3cb 8abd c717 86bd
000000b0: b783 bb3d e08b 22bd 6876 143d 8ed4 543d
000000c0: 9e46 073d c4bf a43c 526a 8d3a 6c73 b93c
000000d0: c1dd 96bd 8d74 9ebd 2927 4a3d 714a 6c3d
000000e0: 8e75 12bd fd26 33bd 94e0 cc3d 257a abbc
000000f0: f41a 28bd ad5b 1cbc cb8b 19bd 2078 1dbb
00000100: bb35 a7bd c126 4dbd e4b8 ef3b fede 8e3b
00000110: a3ef 033d 0081 a23d d940 6bbd 1bcf ed3c
00000120: a513 90bd 146e 76bc f1b4 e4bb d35d 88bd
00000130: 91f1 113d c8c1 22bd fb65 aabd 95f9 d13c
00000140: 6b2f e53c c889 3d3c 9795 05bc 6799 6e3d
00000150: 26b0 df3c e93c 84bd e351 a53d 8e4b 8bbd
00000160: c5c4 9f3d 9ae6 abbd 5037 633d 8182 193d
00000170: 18b4 79bd 0779 e53c 4ccb 643d bb0b 47bd
00000180: 78a2 d23d 695b 053d a932 1b3c bec8 363d
00000190: 47d0 963c 9e58 c33d abde e6bb 4ea2 99bd
000001a0: a971 5ebd e06f 813c ab98 873d 9b96 9bbd
000001b0: 61a5 ab3b 2c38 123d ccf8 92bc 98c2 1bbd
000001c0: c848 473d fcc3 fa3c 5756 8f3d 01bf 62bd
000001d0: 1995 fbbb 9677 26bd 0216 63bc 6c64 b83c
000001e0: 2137 02bd d0a6 3c3d e599 753d 9a94 cebd
000001f0: 3e9f 7abd 12cb a5bd cc49 7fbd b983 343d
00000200: 648a 00be fc87 9a3d 8962 bbbd 8e60 d2bc
00000210: acd6 543e 25c6 543e 6945 80bc df06 713e
00000220: 8749 5c3d 077f ac3d 2ce9 27be 8f2b 60bd
00000230: a48b ef3d dea7 283c 0504 c13d 987a 41be
00000240: f40a 21be b590 e53b 9d57 1abe 1db4 1c3d
00000250: 6e5d 96bc 019c a4bc 981b a23d d4ea 3d3d
00000260: 4b7a 0abe 0431 2ebe 8d48 713c 0df0 46be
00000270: c982 303e f3da 223e 86e8 303d f866 e3bd
00000280: 1468 c2bd d75f ffbc 4b3d 29be 880f 213e
00000290: 90be babd 25c9 1ebc 7caf 763d 1ac1 f3bd
000002a0: 4bbd d43d a9ef e5bd c9e1 253e fe2f 063d
000002b0: af88 913e 0201 e7bd 2e03 2d3e 8627 c63d
000002c0: c186 213e cf75 5c3d 8170 4bbe 70ae c63d
000002d0: 2772 ddbd f2b0 5cbd 4e40 123d dfa8 fd3d
000002e0: d03b 64be 494d bebd f9f5 143e 807f b5bd
000002f0: 139c 36bc 48f6 d13c 61e2 2a3e 1a65 e4bc
00000300: 2d96 d1bd 5fe2 9f3d 58f2 2ebe 13fd b5bd
00000310: 1fd2 0c3e 81ad 6e3c 28cd ae3c 039e a8bd
00000320: 11a7 053e 435b 64bd a89f 653e 8fb4 42bd
00000330: b5cf 1dbe e6a7 2abd a9d7 ee3d 9ecd a0bd
00000340: e51f 94bd 8f03 1e3e 0bc8 b6bc a9aa d33d
00000350: 3200 4e3e b608 c0bd f660 7c3e 2cd5 d7bd
00000360: c546 ff3d 9af5 6e3b e82f 943d cdd5 dcbc
00000370: 0165 cb3d 197e ba3d 8262 86bd 3e9f 183d
00000380: 3327 c33d 212a 4bbe 66de 813d f4c6 00bd
00000390: 5aed 60bc 83cc 91bd 89ca 683d 1bd1 3dbd
000003a0: 468e f2ba 66dc 53bb fc55 b73d 01f2 3abd
000003b0: f960 5bbe 2180 19be 425a f9bd 9c09 1ebe
000003c0: 65ee a4bd e202 dc3c 0cbe 563c 6f86 83bc
000003d0: 69d4 7ebe a5c4 3bbc eff6 ae3d 6f2f 2cbb
000003e0: cb41 163d ccf7 96bd 285c 453c c0a7 863e
000003f0: 9ec6 5dbd 20b9 953d 1245 0f3d b5e0 e83c

layer4.bias f4 [128]
-0.00064887304 0.24480416 -0.06168457 0.04932474 0.12126797 -0.0074806157 -0.0058054673 -0.19372694
-0.0020846832 -0.0357719 -0.029765287 0.22066619 0.093293615 0.1007816 0.19436719 0.058765396
0.08088471 -0.07435383 0.11576046 0.039584823 -0.057750527 0.027582262 0.11074648 -0.06748206
-0.09640833 -0.20033877 0.0038661244 -0.1334474 0.06392929 -0.05478008 -0.076306276 -0.04426526
0.003333299 0.15712692 0.09149409 0.04433642 0.20398971 -0.036920916 -0.061497573 0.20157953
-0.0019114666 0.13017522 -0.04929011 0.08225613 -0.09006683 0.02092201 -0.085076034 -0.059337504
0.09287057 -0.12698588 0.15297689 0.14230643 -0.1192291 0.051232997 -0.13797426 0.10023519
-0.072469085 -0.021946903 0.26733273 0.034269422 0.060718033 0.002448577 -0.030232346 -0.056426544
0.11857279 -0.10300246 0.059651263 0.11772721 0.034255642 0.08764691 -0.09426749 0.17856187
0.07563896 -0.12349029 -0.059848063 -0.026550442 0.11698738 0.09402332 -0.1148706 0.0063266875
-0.04118679 -0.09378245 0.13505095 -0.023135789 0.038728114 0.014305016 0.3231689 -0.060506374
0.013575406 -0.061685976 0.052893188 -0.054536257 0.08078087 -0.044370722 -0.0028775162 0.021918619
0.120920084 -0.03045793 -0.047930673 0.047340713 0.03151302 0.04539162 0.123719215 -0.08738778
0.12773325 -0.030594453 -0.104597606 -0.09603896 0.10930002 0.13517724 0.05382752 -0.0876019
-0.046969894 0.109188214 0.023866907 -0.059350926 0.06899856 0.02583572 0.02440939 0.10590853
0.027075743 -0.0140813235 0.028790697 -0.02673424 0.1076674 0.011847708 0.21113098 0.014962299
00000000: 2219 2aba f1ad 7a3e f6a8 7cbd bd08 4a3d
00000010: 575b f83d f41f f5bb ca3b bebb 5b60 46be
00000020: 2e9f 08bb 8e85 12bd 55d6 f3bc 51f6 613e
00000030: b910 bf3d 9566 ce3d 3108 473e fcb3 703d
00000040: e2a6 a53d d246 98bd d213 ed3d b223 223d
00000050: d18b 6cbd 32f4 e13c 0dcf e23d 0934 8abd
00000060: bb71 c5bd 9b25 4dbe ce5e 7d3b 6fa6 08be
00000070: 5ced 823d 1461 60bd 7746 9cbd 7d4f 35bd
00000080: 7a73 5a3b e1e5 203e 4161 bb3d 1b9a 353d
00000090: aee2 503e 633a 17bd e1e4 7bbd dd6a 4e3e
000000a0: 2d8a faba a74c 053e 6de4 49bd e775 a83d
000000b0: f574 b8bd a364 ab3c 583c aebd e20b 73bd
000000c0: ed32 be3d 9608 02be f9a5 1c3e c7b8 113e
000000d0: 632e f4bd b1d9 513d 2049 0dbe 1b48 cd3d
000000e0: ac6a 94bd fec9 b3bc d6df 883e 185e 0c3d
000000f0: 79b3 783d 4e78 203b d3a9 f7bc 851f 67bd
00000100: 4ad6 f23d f4f2 d2bd e254 743d f71a f13d
00000110: a54f 0c3d 3980 b33d 500f c1bd ecd8 363e
00000120: 99e8 9a3d 7ae8 fcbd 3e23 75bd 5080 d9bc
00000130: 1497 ef3d 4c8f c03d 4741 ebbd 1a50 cf3b
00000140: 7bb3 28bd 0311 c0bd cc4a 0a3e 4487 bdbc
00000150: 5fa1 1e3d 965f 6a3c 6576 a53e 88d5 77bd
00000160: 616b 5e3c 6faa 7cbd 87a6 583d 6961 5fbd
00000170: 7170 a53d 13be 35bd b694 3cbb ad8e b33c
00000180: f3a4 f73d e982 f9bc f452 44bd 56e8 413d
00000190: cc13 013d 90ec 393d 8060 fd3d 5df8 b2bd
000001a0: 81cc 023e 38a1 fabc 4537 d6bd 13b0 c4bd
000001b0: b0d8 df3d e76b 0a3e 3f7a 5c3d a068 b3bd
000001c0: 8163 40bd 129e df3d 8884 c33c f519 73bd
000001d0: 1e4f 8d3d 6fa5 d33c 33f6 c73c 92e6 d83d
000001e0: f3cd dd3c 5ab5 66bc 78da eb3c c401 dbbc
000001f0: ba80 dc3d e41c 423c b832 583e 6e24 753c

input_norm.weight f4 [8]
1.2553734 0.87240386 0.95764154 0.82007164 0.7963539 1.020447 0.58848435 0.72018254
00000000: 13b0 a03f dc55 5f3f ff27 753f 37f0 513f
00000010: d9dd 4b3f 029e 823f e9a6 163f e25d 383f

input_norm.bias f4 [8]
0.26443458 0.2291689 0.48745218 0.40879625 0.089311905 0.28015333 0.27934828 0.094416834
00000000: f863 873e 41ab 6a3e 5593 f93e be4d d13e
00000010: 29e9 b63d 4270 8f3e bd06 8f3e 9d5d c13d

input_norm.running_mean f4 [8]
3.514364 0.043532584 -1.1555899 3.552166 0.043613687 0.027459018 -0.12306135 0.2342103
00000000: 57eb 6040 394f 323d 5fea 93bf b056 6340
00000010: 44a4 323d bcf1 e03c 9707 fcbd d3d4 6f3e

input_norm.running_var f4 [8]
3.6957965 0.004309542 2.1650417 5.305122 0.23297216 0.0020276557 0.6699825 0.17975369
00000000: ee87 6c40 0f37 8d3b 0b90 0a40 8fc3 a940
00000010: 4190 6e3e 6be2 043b f983 2b3f 5a11 383e

norm.weight f4 [128]
0.81363606 1.0124301 0.86458826 0.81756204 0.8277994 0.84059614 0.8564121 0.8404745
0.86196357 0.8150473 0.8970498 0.89809245 0.7998296 0.87723964 0.8955605 0.87769175
0.7928863 0.8282855 0.91864973 0.8884352 0.84064853 0.89690167 0.9131564 0.87367713
0.8805315 0.8886907 0.81662124 1.1267067 0.78294945 0.79486436 0.9173193 0.88249165
0.79558074 0.85656106 0.8698464 0.8791469 0.9022905 0.8847014 0.79040617 0.9411413
0.9087784 0.8544502 0.9709299 0.802717 0.85939217 0.9130493 1.0518628 0.8527789
0.9183595 0.8849447 0.88971394 0.85882455 0.84433866 0.8830949 0.8093397 0.86180615
0.8390746 1.005929 0.8822937 0.8191412 0.8602119 0.80939376 0.8793351 0.8716453
0.83321524 0.8576885 0.86022776 0.8572856 0.7792807 0.88625526 0.88933307 0.8484866
0.85838044 0.82042253 0.8488139 0.8649732 0.9339215 0.8844204 0.8394384 1.0058419
0.8689738 0.85176075 0.84635884 0.83640474 0.86025816 0.8237067 0.95168215 0.8713411
0.8574929 0.8637947 0.8080365 0.8698999 0.78445655 0.79749364 0.8097312 0.88924664
0.906381 0.87119293 0.89434713 0.9096108 0.8498367 0.86713594 0.8075297 0.78938925
0.83742034 0.9122614 0.83599895 0.8879971 1.0278767 0.84293085 0.8630599 0.84876853
0.81319845 0.8774314 0.8247908 0.8434601 0.8498496 0.8550528 0.84512204 0.8599393
0.80595237 0.91713095 0.8624185 0.82187575 0.8889468 0.86743414 0.9681674 0.80158603
00000000: 744a 503f 4f97 813f a855 5d3f bf4b 513f
00000010: a9ea 533f 4f31 573f d33d 5b3f 5629 573f
00000020: a5a9 5c3f f1a6 503f 0ea5 653f 63e9 653f
00000030: a2c1 4c3f c792 603f 7443 653f 68b0 603f
00000040: 99fa 4a3f 850a 543f a12c 6b3f 7d70 633f
00000050: be34 573f 599b 653f 9ec4 693f 4ea9 5f3f
00000060: 836a 613f 3c81 633f 170e 513f ed37 903f
00000070: 606f 483f 3b7c 4b3f 70d5 6a3f f9ea 613f
00000080: 2eab 4b3f 9647 5b3f 41ae 5e3f c50f 613f
00000090: 83fc 663f ca7b 623f 0f58 4a3f a3ee 703f
000000a0: b4a5 683f 40bd 5a3f dd8e 783f dc7e 4d3f
000000b0: 2001 5c3f 99bd 693f 71a3 863f b84f 5a3f
000000c0: 9c19 6b3f bc8b 623f 4bc4 633f eddb 5b3f
000000d0: 9426 583f 8212 623f e330 4f3f 549f 5c3f
000000e0: 98cd 563f 48c2 803f 00de 613f 3db3 513f
000000f0: d936 5c3f 6e34 4f3f 1b1c 613f 2524 5f3f
00000100: 984d 553f 7991 5b3f e337 5c3f 1277 5b3f
00000110: f17e 473f a0e1 623f 55ab 633f 6b36 593f
00000120: d2be 5b3f 3607 523f de4b 593f e26e 5d3f
00000130: 7b15 6f3f 6069 623f 6fe5 563f 6dbf 803f
00000140: 1175 5e3f fe0c 5a3f f9aa 583f 9f1e 563f
00000150: e139 5c3f 71de 523f 71a1 733f 3610 5f3f
00000160: a884 5b3f a621 5d3f 7bdb 4e3f c3b1 5e3f
00000170: 25d2 483f 8b28 4c3f 8b4a 4f3f aba5 633f
00000180: 9608 683f 8006 5f3f eff3 643f 41dc 683f
00000190: e68e 593f 9ffc 5d3f 44ba 4e3f 6a15 4a3f
000001a0: 2e61 563f f789 693f 0704 563f c753 633f
000001b0: 7791 833f 51ca 573f 7ef1 5c3f e548 593f
000001c0: c62d 503f 589f 603f 7d25 533f 00ed 573f
000001d0: be8f 593f bee4 5a3f eb59 583f fb24 5c3f
000001e0: e552 4e3f 18c9 6a3f 75c7 5c3f 7366 523f
000001f0: 0492 633f 2a10 5e3f d2d9 773f be34 4d3f

norm.bias f4 [128]
0.10300233 0.08927324 0.08444406 -0.11636449 0.12746853 -0.10994518 -0.14182352 -0.11191469
0.22235844 0.12983958 0.2026131 0.13855816 0.1360948 0.23684867 0.30832207 -0.09731041
0.18927512 0.11038912 0.16415472 0.0066471617 0.04393838 -0.03474189 0.11415852 -0.061487317
0.060597967 0.0061460007 0.13107456 -0.20841914 -0.36044088 -0.1402318 -0.007432888 0.16880037
-0.0164611 -0.15277557 -0.04951686 -0.2520799 -0.0644169 -0.012989918 0.06469062 0.19184332
0.03081913 0.19968714 0.09666453 0.2770538 -0.036099482 -0.004418494 0.14381574 -0.28434598
0.1264315 -0.23314348 0.07418946 0.19203481 0.20524044 -0.20066482 -0.039968032 -0.06596961
0.098019265 0.030004822 0.17681669 0.38305667 -0.13714898 0.13337697 -0.1724694 0.3484888
0.03152516 -0.24650508 -0.06375075 0.08254642 0.21790667 -0.042334966 0.3238462 0.11066086
0.13843131 -0.21589534 0.107904375 0.22796312 -0.08248772 -0.29582033 -0.083610676 -0.09792627
0.019804671 0.14042115 -0.13089417 -0.090011746 0.032982834 -0.0336658 0.3687329 0.040492706
-0.39258596 0.026167357 0.12674363 0.19458646 -0.0056857117 0.22493246 0.02076569 0.06398751
0.06382513 -0.09764577 -0.30920848 0.13517216 0.05784051 -0.030812386 -0.0155539615 -0.15104416
0.059448592 -0.1362592 0.13973752 0.030303895 -0.10282137 0.124184415 -0.083076485 0.20350796
-0.06139337 0.06321107 -0.08142289 -0.015914705 -0.042343985 -0.2150661 0.1282765 -0.089339435
0.10961606 0.06650138 -0.38360044 0.055690102 -0.104306385 -0.13059641 0.041021254 -0.020859545
00000000: e3f2 d23d e3d4 b63d 02f1 ac3d 8150 eebd
00000010: 1c87 023e f02a e1bd 2f3a 11be 8733 e5bd
00000020: eeb1 633e abf4 043e cf79 4f3e 31e2 0d3e
00000030: 6f5c 0b3e 7588 723e 64dc 9d3e ae4a c7bd
00000040: 56d1 413e b113 e23d 2d18 283e 6fd0 d93b
00000050: bbf8 333d 834d 0ebd f1cb e93d 20da 7bbd
00000060: 9335 783d 6464 c93b 6938 063e d46b 55be
00000070: b58b b8be ed98 0fbe 958f f3bb 01da 2c3e
00000080: 6ed9 86bc 3371 1cbe 31d2 4abd 9e10 81be
00000090: 02ed 83bd aad3 54bc 847c 843d 9372 443e
000000a0: 6678 fc3c c97a 4c3e 0ef8 c53d ffd9 8d3e
000000b0: 0ddd 13bd 04c9 90bb 6f44 133e cc95 91be
000000c0: 4277 013e 2abd 6ebe a5f0 973d c6a4 443e
000000d0: 8d2a 523e 147b 4dbe 85b5 23bd 131b 87bd
000000e0: 53be c83d accc f53c 6f0f 353e 0120 c43e
000000f0: c870 0cbe f993 083e d29b 30be 206d b23e
00000100: 8720 013d d46b 7cbe c18f 82bd 190e a93d
00000110: ed22 5f3e 6e67 2dbd 2bcf a53e 29a2 e23d
00000120: f0c0 0d3e ab13 5dbe f8fc dc3d 2a6f 693e
00000130: 52ef a8bd c375 97be 133c abbd 918d c8bd
00000140: 683d a23c 90ca 0f3e 1f09 06be 1458 b8bd
00000150: 0219 073d 26e5 09bd 8fca bc3e aedb 253d
00000160: 0701 c9be ed5c d63c 15c9 013e ac41 473e
00000170: 354f babb b254 663e cf1c aa3c e20b 833d
00000180: c0b6 823d 81fa c7bd 9350 9ebe 926a 0a3e
00000190: 2cea 6c3d 426a fcbc 0bd6 7ebc 52ab 1abe
000001a0: 5e80 733d 8887 0bbe 5a17 0f3e e03f f83c
000001b0: 0394 d2bd 6654 fe3d 0124 aabd 6464 503e
000001c0: 9d77 7bbd ce74 813d 0bc1 a6bd 8e5f 82bc
000001d0: e370 2dbd 4a3a 5cbe ea5a 033e 98f7 b6bd
000001e0: 637e e03d e031 883d 4767 c4be 4e1b 643d
000001f0: 969e d5bd 11bb 05be e705 283d a3e1 aabc

norm.running_mean f4 [128]
0.43204346 0.48610777 0.34344512 0.4789006 0.18407208 0.46726343 0.05754966 0.2573335
0.405631 0.30236587 0.14008987 0.3009697 0.3814956 0.553018 0.36614186 0.34006262
0.33196104 0.33197173 0.25104055 0.38747087 0.47087398 0.5111303 0.47862527 0.15546423
0.51632315 0.024468089 0.40377668 0.00092955114 0.89313 0.2290424 0.32059392 0.435178
0.42736605 0.25919515 0.15356472 0.5997647 0.5453739 0.12240575 0.09049678 0.28790912
0.040899303 0.55827075 0.024232293 0.2550052 0.033609405 0.121142216 0.083703525 0.6915932
0.14551736 0.34483567 0.31187207 0.51245505 0.30969405 0.4270769 0.2498522 0.22642535
0.4424849 0.004574633 0.47058266 0.8527126 0.6951931 0.41278264 0.069464 0.033764385
0.20473439 0.3174741 0.3742199 0.40944308 0.1982427 0.51527584 0.16124533 0.42891595
0.36720192 0.3582366 0.34943998 0.50683606 0.25755164 0.6610512 0.24179707 0.019058572
0.3897752 0.26985177 0.6208744 0.41060066 0.6460624 0.29639798 0.37415522 0.48554614
0.41484606 0.13832547 0.57701683 0.7441785 0.20086253 0.43887147 0.2346511 0.15031464
0.6585395 0.19397071 0.26568392 0.4642637 0.54468215 0.10075871 0.46459076 0.16858934
0.27325138 0.21709311 0.19919427 0.2491892 0.064097606 0.4303534 0.33754712 0.3977692
0.3427332 0.6794203 0.23852476 0.43519488 0.5338335 0.7090677 0.58586246 0.5297545
0.34555158 0.23773062 0.13620311 0.12866867 0.42348117 0.049241584 0.50355285 0.14416634
00000000: cd34 dd3e 1ee3 f83e 0ad8 af3e 7632 f53e
00000010: 647d 3c3e 273d ef3e 31b9 6b3d 37c1 833e
00000020: deae cf3e b3cf 9a3e b873 0f3e b318 9a3e
00000030: 6453 c33e 9692 0d3f f276 bb3e b01c ae3e
00000040: ccf6 a93e 33f8 a93e 6388 803e 9562 c63e
00000050: 6516 f13e 6fd9 023f 5f0e f53e 0432 1f3e
00000060: c12d 043f 4d71 c83c d1bb ce3e 1fad 733a
00000070: 2ba4 643f 178a 6a3e e324 a43e a7cf de3e
00000080: b9cf da3e 3ab5 843e 1240 1d3e 2e8a 193f
00000090: a09d 0b3f deaf fa3d 6056 b93d d368 933e
000000a0: 0786 273d d5ea 0e3f cd82 c63c 0b90 823e
000000b0: 04aa 093d 6919 f83d c16c ab3d 410c 313f
000000c0: 8102 153e 4d8e b03e b2ad 9f3e 4130 033f
000000d0: 3890 9e3e d3a9 da3e 41d9 7f3e 0cdc 673e
000000e0: 618d e23e cee6 953b 36f0 f03e 5f4b 5a3f
000000f0: 2df8 313f 3f58 d33e 2443 8e3d 864c 0a3d
00000100: e4a5 513e f78b a23e c099 bf3e 86a2 d13e
00000110: 2200 4b3e 1ee9 033f 7f1d 253e df9a db3e
00000120: e401 bc3e ca6a b73e cce9 b23e 02c0 013f
00000130: cfdd 833e a73a 293f a799 773e b920 9c3c
00000140: 9d90 c73e 032a 8a3e a0f1 1e3f 403a d23e
00000150: 5864 253f 7ac1 973e 4691 bf3e 8199 f83e
00000160: b466 d43e 31a5 0d3e 60b7 133f 7b82 3e3f
00000170: e8ae 4d3e c3b3 e03e 6148 703e 15ec 193e
00000180: 0b96 283f 42a0 463e b907 883e f9b3 ed3e
00000190: 4a70 0b3f 955a ce3d d7de ed3e afa2 2c3e
000001a0: 9be7 8b3e a84d 5e3e 95f9 4b3e 742b 7f3e
000001b0: 9b45 833d 4857 dc3e fad2 ac3e 68a8 cb3e
000001c0: ba7a af3e 7dee 2d3f d63f 743e ddd1 de3e
000001d0: 50a9 083f 7685 353f 15fb 153f fe9d 073f
000001e0: 23ec b03e a86f 733e d478 0b3e b8c1 033e
000001f0: 86d2 d83e 8bb1 493d d7e8 003f 57a0 133e
