final_models/our_model_varying_speed/agent.pt (torch, 226638 bytes, 22 tensors)

layer1.weight f4 [128, 8]
000000 1c 76 8d 3e f9 a4 87 be 3c e4 f9 bd 55 55 8d 3e
       0.27629173 -0.26493052 -0.122017354 0.27604166
000010 b7 87 92 be 6d 8e 3a 3e 1d 4e a9 bd 8b 74 42 3e
       -0.28619167 0.18218394 -0.08266852 0.1898977
000020 54 db 1d bd ef 90 8f be 41 a1 72 3e 7f bb 20 3b
       -0.038539246 -0.28040263 0.23694326 0.002452582
000030 19 9e 14 bc 81 7c f6 bd 8c d3 bb 3b 7a a4 ea 3c
       -0.009070897 -0.12035466 0.0057320055 0.028642882
000040 e6 8d db bd 32 b1 3c bd 4b a0 d6 3e 3d 55 f5 3d
       -0.10720424 -0.046067424 0.4191917 0.119791485
000050 65 ad e9 bd 3b ca 8d be e7 d0 ae bd c3 bd f5 bd
       -0.114100255 -0.27693352 -0.08535939 -0.11999085
000060 e4 65 b3 bd 2c c8 43 bd d2 80 6b 3e fa 2e 9a 3e
       -0.087596685 -0.04779832 0.2299836 0.30113965
000070 24 f3 e8 be ef 0d 1a 3e e4 42 9f 3d 2e d6 a1 3e
       -0.45498002 0.15044378 0.0777643 0.3160872
000080 2d 6b 3e 3d 18 29 3c be 3a 7b 71 be 7b 6d 98 bc
       0.04648893 -0.18375051 -0.23582163 -0.018606892
000090 e1 86 25 3e ae 7d a3 bc 58 02 30 3e dd e7 0e be
       0.16164733 -0.01995739 0.17188394 -0.13955636
0000a0 e5 82 46 3e 76 69 11 be bf 70 75 3e 28 73 de bd
       0.1938587 -0.14200386 0.2396879 -0.10861808
0000b0 5d 4d 24 be fd 47 5b 3e 65 fa 0b be d7 5d 0a bc
       -0.16045137 0.2141418 -0.13669737 -0.008445225
0000c0 a1 00 60 bc 86 30 80 3c 01 81 4a be d2 81 04 be
       -0.013672025 0.015648138 -0.19775774 -0.12940148
0000d0 bc 7c ab 3d cb 5c 24 be 4b 41 9c 3e b9 0a 81 3d
       0.083734006 -0.16051023 0.30518565 0.06300873
0000e0 3e 74 d6 3c 7b f8 c6 be 34 10 1a 3e 13 a6 d0 3d
       0.026178475 -0.3886145 0.15045244 0.10187926
0000f0 90 25 58 be 5c 33 7b 3e 53 fd 60 3e 5a 39 c3 3e
       -0.21108079 0.24531311 0.21971636 0.38129693
000100 47 a0 29 be 90 30 68 be f5 6e 79 bd 81 13 f3 3a
       -0.16565047 -0.22674775 -0.060896832 0.0018545241
000110 0d 30 8f be ae 36 fd bd 52 d9 ed 3d 9a 2d 37 3d
       -0.27966347 -0.12363945 0.11613716 0.044721223
000120 46 b1 27 3e 9b e1 00 be 93 25 1f 3e 01 d1 55 bc
       0.16376218 -0.12586062 0.15541677 -0.013050319
000130 b5 c3 6b 3e 89 73 2b 3e 27 16 78 be e4 f7 d5 3d
       0.23023875 0.16743292 -0.242272 0.10447672
000140 e5 b9 49 be 51 47 b5 be eb b5 b3 3c a5 23 c7 bd
       -0.1969982 -0.35405973 0.021937331 -0.097235955
000150 4a 84 16 3e f1 3c 3b be 57 43 a3 be 06 27 21 3e
       0.14698902 -0.18284966 -0.31887314 0.15737543
000160 f1 1f 7a bc 59 45 bb 3d 65 a6 4b 3d 18 4d 90 bd
       -0.0152664045 0.091440864 0.049719233 -0.070459545
000170 5a fb 61 bc bd 0c cd 3d b9 1a a6 bd c8 cc 19 be
       -0.013792837 0.10012195 -0.08110566 -0.15019524
000180 b1 51 67 3e 57 12 55 3e db 52 e1 3c 3b e8 ac bd
       0.22589757 0.20807777 0.027505329 -0.08442732
000190 43 b5 98 3e 95 da ad bd 45 22 4c 3e e2 e1 30 3e
       0.29825792 -0.08488957 0.19934948 0.17273667
0001a0 2b 1e 10 be 81 bb b9 be 6f 43 b3 3e 55 37 fb 3d
       -0.14074008 -0.36275867 0.35012385 0.12266413
0001b0 c0 1b db 3e 70 9d 1c bd e6 1f 30 3e 7b 88 3c 3e
       0.4279461 -0.03823608 0.17199668 0.18411438
0001c0 bd 8f 92 3e f3 aa c2 bd e8 9f 44 bc d5 67 8d 3d
       0.2862529 -0.09505262 -0.012001015 0.0690457
0001d0 8f 42 37 3c 03 77 be bd 75 60 44 bd 54 7e 83 be
       0.011185302 -0.093000434 -0.04794355 -0.25682318
0001e0 29 01 83 be 27 9b 8e 3c 9c 88 a3 3e f2 82 8e be
       -0.25586823 0.017407967 0.31940162 -0.27834278
0001f0 59 a4 fd 3d c4 f8 2e be 42 7b e6 be 20 a8 f2 bb
       0.123848625 -0.17087084 -0.45015913 -0.007405296
000200 11 dc 1d 3e b8 99 d2 3e 03 02 89 be 6b 73 a5 3e
       0.1541598 0.41132903 -0.26759347 0.3231462
000210 1c 27 ab 3e 84 bd 6b 3e 67 f6 93 3e 4e 7e a5 3e
       0.33428276 0.23021513 0.28898928 0.32322925
000220 08 b6 01 3f 65 6b d8 3d 83 02 5c be 5a df 96 be
       0.5066838 0.10567359 -0.21485333 -0.2946728
000230 dc 83 87 be 43 41 88 3c 3a b0 88 be b6 d1 2a 3e
       -0.26467788 0.016632682 -0.2669695 0.16681561
000240 59 d1 23 3d 91 b1 6d bd de a3 cc 3d d1 e9 97 3d
       0.03999457 -0.05803067 0.09992193 0.07417644
000250 65 4a 09 3e 1a 0d e4 3d bb a0 69 3b 63 1f ba 3e
       0.13407286 0.111353114 0.0035648781 0.3635207
000260 1a 27 7b bd 31 fa cb bc e1 90 ba be 4b 43 55 be
       -0.061316587 -0.024899574 -0.3643866 -0.20826451
000270 8c 73 4b be 45 53 e5 bd 28 a3 63 3e 94 e6 f0 bd
       -0.19868296 -0.11197523 0.22230208 -0.11762729
000280 0f 68 ef be 2d 57 86 3d 3f 64 e2 3d 4d 32 02 3f
       -0.46759078 0.06559596 0.11054277 0.50858
000290 47 8a 53 be b6 59 30 3e 42 d0 3a be b6 42 f4 3c
       -0.20658217 0.17221722 -0.18243507 0.029816967
0002a0 d3 d4 5a be 19 0f 83 be 4e f1 7f be 93 c0 eb 3d
       -0.21370248 -0.25597456 -0.24994394 0.1151134
0002b0 93 70 a9 ba bf b7 25 3d d6 ca ea 3e 74 3e a4 3e
       -0.0012927226 0.040458437 0.45857877 0.32078898
0002c0 04 af 8c 3e b6 df 95 3d ae c1 eb be 43 fb 2c 3e
       0.27477276 0.0731806 -0.46046203 0.16892724
0002d0 94 bb be 3b 58 18 90 3d 81 cc cb be be 8e 5d be
       0.005820701 0.07035893 -0.39804462 -0.21636483
0002e0 b0 8c 9e be 00 99 44 3e f2 34 ac be f5 dc b0 be
       -0.3096671 0.1919899 -0.33634144 -0.34543577
0002f0 8f bb d8 bc ed 68 85 be bf 92 c6 3c dc b6 a7 bd
       -0.026456622 -0.26056615 0.024239896 -0.081891745
000300 21 7f b2 be 3d c3 52 3c 54 13 8f 3e 0a 69 4e be
       -0.34862617 0.012863931 0.27944434 -0.20157257
000310 47 00 5b 3e 34 27 ce 3d aa c2 b9 3e 46 ad a1 be
       0.21386825 0.10066071 0.3628133 -0.3157751
000320 47 c8 b0 bb 5b 2c b9 be 92 2a 7d 3e d2 4a 41 3c
       -0.0053949687 -0.36166653 0.2472327 0.011797624
000330 0e 3b b8 bb d3 b4 8e be 36 2f 25 bd 67 9c 5c 3d
       -0.0056222742 -0.27872333 -0.040328227 0.053860094
000340 73 56 94 3c 56 35 e5 3d 13 fd e4 3c 32 37 07 3d
       0.018107628 0.11191814 0.027952706 0.033011623
000350 43 d2 82 be 64 08 93 3e 01 75 a5 3e 82 16 db 3e
       -0.25551042 0.2871734 0.3231583 0.4279061
000360 af d8 88 3c e5 62 77 be 26 60 a7 bd 0e 15 20 3d
       0.016704885 -0.24158819 -0.08172636 0.03908258
000370 0d 52 2e bd f0 8b a9 3b 2a 75 70 bd 19 6a 7f be
       -0.04255872 0.0051741526 -0.058705486 -0.24942817
000380 2c bf b9 3e 6a c8 8e be 11 69 e1 3b b5 1f 9d 3e
       0.36278665 -0.2788728 0.00687898 0.30688253
000390 ac 93 f9 3e 42 bc 7f 3e 96 fd 55 bd 19 08 e8 be
       0.48745477 0.24974158 -0.05224379 -0.45318678
0003a0 28 81 51 3e 36 06 64 3d 20 c2 e2 bd 11 b9 06 3d
       0.20459425 0.055669986 -0.11072183 0.032891337
0003b0 f8 9a c3 be f0 44 31 3e 26 bd 75 3e db 85 a9 be
       -0.3820417 0.17311454 0.23997936 -0.33109936
0003c0 09 81 f3 be fc 22 88 be 2f 4f a6 3d f4 ce cc 3d
       -0.47559384 -0.2658919 0.08120572 0.10000411
0003d0 a7 f5 48 be 8c 98 9b 3e 88 29 b6 be 89 be 11 be
       -0.19624959 0.30389822 -0.3557856 -0.1423284
0003e0 06 c1 09 be d6 68 98 3e cd 83 9f 3e 53 eb b1 3c
       -0.13452539 0.29767483 0.31155244 0.021718657
0003f0 63 9d 83 3d 72 df bb 3d 6c 0b ca 3d 04 9d 8a bc
       0.064265035 0.09173478 0.0986546 -0.016920574

layer1.bias f4 [128]
000000 ef 03 9c bc d4 70 9c bd 87 e0 19 3e 1f 84 d4 bd
       -0.019044844 -0.07638708 0.15027057 -0.103767626
000010 7e f4 a0 be 59 b0 15 3e a6 55 42 be 3c 35 01 be
       -0.31436533 0.14618053 -0.18977985 -0.12617964
000020 ed 41 ae 3e a8 5e 1d 3e 6f 7b e1 3d 6e f4 86 bc
       0.34034672 0.1536814 0.11009871 -0.016473975
000030 dd 1b 98 be f7 d0 1b 3e ba 17 86 be 6a 7a 98 3c
       -0.29708758 0.15216433 -0.26189977 0.01861306
000040 bd af ae be 2a ba 24 3e 1c 89 3a be 26 2c ac 3e
       -0.34118453 0.16086641 -0.18216366 0.33627433
000050 5f 02 32 3e 17 3b b6 3e 6e 08 53 3c 94 2e 37 3c
       0.17383717 0.35591957 0.012880428 0.011180539
000060 60 f3 27 3e 9b 22 6d be 02 0e 29 be 2e be e1 be
       0.16401434 -0.23157732 -0.1650925 -0.44090408
000070 d3 5a da 3e 5d c6 bd bc 56 1a ff 3d 13 f8 f6 3c
       0.42647418 -0.023165876 0.12456195 0.030147588
000080 a7 00 1d 3e 08 46 83 be 80 41 54 be 5d 50 8f 3e
       0.1533228 -0.25639367 -0.20728111 0.27991
000090 b4 9c 2e 3e cc f4 cf bc 58 fe 84 be 38 bd d7 bd
       0.17051965 -0.025385283 -0.259753 -0.105341375
0000a0 68 40 77 be 31 e6 05 3c 9f 9e 8e be bc ad 95 be
       -0.24145663 0.008172558 -0.27855393 -0.2923411
0000b0 f9 77 d3 be e0 e1 38 3d e2 2d 5a 3d cd fb b9 3e
       -0.4130247 0.045137286 0.053266414 0.3632492
0000c0 20 e6 ac be 65 6e e0 bd 6c b7 44 be 4d 8f 84 be
       -0.3376932 -0.10958556 -0.19210595 -0.2589058
0000d0 7d 67 25 3b d3 3c c6 3e df 32 8e 3d 75 31 d5 bd
       0.0025238686 0.3871828 0.06943297 -0.10409824
0000e0 b6 52 82 3e b3 e7 b6 be af 4a 23 3c ee 6d 83 3e
       0.25453728 -0.35723647 0.009966536 0.25669807
0000f0 12 21 8d 3e 08 6d 93 3d b4 ac 44 be ec 76 de be
       0.27564293 0.071985304 -0.19206506 -0.43450105
000100 6e 04 23 be 1b 3f 36 3e 7e 34 87 3e 48 1b 00 3d
       -0.15919659 0.1779751 0.26407236 0.031276017
000110 fd 41 9b be 97 0a 40 bd b8 c5 e4 3d 8c 43 60 3c
       -0.30323783 -0.0468851 0.11170524 0.013687979
000120 a4 cf 25 be 5a 0c 53 3d 47 8a 12 3d 32 15 7f 3d
       -0.1619249 0.05152545 0.035776403 0.062276073
000130 38 03 41 bd c0 ba 50 3e 04 6f c8 be 5d 2e 05 be
       -0.04712221 0.2038374 -0.39147198 -0.13005967
000140 32 04 d0 3a 78 0d 65 3e 72 af 15 3e 4a ae 12 3e
       0.0015870391 0.22368419 0.14617708 0.14324299
000150 a0 bd c2 3e 42 14 e1 3d fc 0f bb be 39 82 0f 3e
       0.38035297 0.10990192 -0.36535633 0.1401452
000160 b0 85 68 be 4e 80 70 bb 6e f0 71 3d de 11 ae 3e
       -0.22707248 -0.003669757 0.059067182 0.33998007
000170 4f 54 07 be 21 fa 47 be b0 ce 09 be 6b 52 ae bd
       -0.13215755 -0.1952901 -0.13457751 -0.08511814
000180 f3 5e b4 3e 28 18 5e 3e 11 7c 42 3e 3a 44 c0 3d
       0.3522869 0.21688902 0.1899264 0.09388013
000190 5b 86 bd bd 39 e9 98 bd ae 86 8c be 4a 88 f5 3d
       -0.09254142 -0.07466359 -0.27446502 0.11988886
0001a0 3c 78 6e be c9 da 6b 3d e7 d3 23 3e f6 40 86 3e
       -0.23288053 0.057581697 0.15998803 0.26221436
0001b0 32 5a ba be 6d 3f d3 3e 12 90 f6 bd 09 6a 43 bd
       -0.3639694 0.41259328 -0.12039198 -0.047708545
0001c0 44 42 aa 3e ca a8 98 3e 9b c0 8b be 15 ef 83 3e
       0.33253682 0.29816276 -0.27295384 0.25768343
0001d0 1d ab ab be 07 ac 92 3e 88 14 d3 3e 82 04 8a 3c
       -0.33528987 0.2864687 0.41226602 0.016847853
0001e0 9e d4 06 3d e5 b3 95 bb 4a d4 8e be de f7 99 be
       0.03291761 -0.0045685642 -0.2789634 -0.3007192
0001f0 82 06 93 bd 84 f0 c2 be ad 52 9c be ed 93 e1 bd
       -0.07178976 -0.38074124 -0.30531827 -0.11014543

layer2.weight f4 [128, 128]
000000 d8 c8 2a bd d6 49 35 bd c6 60 4e bd bf 8c 84 3c
       -0.041695446 -0.04425987 -0.05038526 0.016180394
000010 eb 8e ca 3d 27 8b 4b 3b 74 d5 1b bd f9 ea b3 3c
       0.09890541 0.0031058283 -0.03804536 0.02196263
000020 4c dc f0 bd 54 d9 ae 3d 2a f7 aa 3d 41 2f 30 bd
       -0.11760768 0.08537546 0.08347924 -0.043013815
000030 12 f7 61 bd a7 ad 0c 3e 52 f3 e6 bd f6 13 6d 3d
       -0.055167265 0.13738118 -0.112768784 0.057880364
000040 70 ad 73 bd 7e c8 07 be 6e 3f 22 3d 38 e4 c3 bd
       -0.059491575 -0.13260075 0.039611273 -0.09565014
000050 80 89 bd 3d cf b0 9e 3b 43 e7 a1 bd 5b 46 b5 bd
       0.09254742 0.0048428546 -0.07905438 -0.0885131
000060 2d 60 85 3d 6a 93 f3 3d 90 00 11 3b 1c d7 74 bd
       0.06512485 0.118933514 0.002212558 -0.059775457
000070 66 74 e2 bd 11 55 51 3d c6 b5 6f bc 09 b0 55 3d
       -0.110573575 0.051106516 -0.0146307405 0.052169833
000080 30 14 9e 3d 0d f5 a1 3d 5f 21 a2 3c 24 b4 d9 3c
       0.07718694 0.07908068 0.019791303 0.026575156
000090 2f b8 85 3d 87 46 f5 bb 28 b2 9c 3d e0 b5 87 3c
       0.06529271 -0.007485214 0.07651168 0.016566217
0000a0 8a 57 e7 ba 1e 55 5c bd 7d 54 f6 3b 6b 88 a4 3d
       -0.001764999 -0.05379211 0.007517396 0.08033832
0000b0 80 e2 ab 3d 9d 85 26 bc d9 be 12 bd 2d a8 76 3d
       0.08392811 -0.010163692 -0.035826538 0.06021898
0000c0 a6 3d 88 3d 4b b6 39 3e 26 f8 d8 3c 6a fc ab bc
       0.066523835 0.18135945 0.026485514 -0.020994384
0000d0 a9 81 d1 bc 6f 0c 67 bd bd c9 3d 3c 43 0b 81 3b
       -0.025574522 -0.056408342 0.011583743 0.00393811
0000e0 39 c6 57 bd da b3 83 bd db 10 1a 3d c3 8c 2f 3c
       -0.052679274 -0.06430788 0.03761373 0.010714713
0000f0 04 6b 1a be e6 7e d0 3c 7d 27 58 3d c8 af 50 3d
       -0.15079886 0.025451135 0.052772034 0.050948888
000100 1d 74 e8 3d 2b 56 3d bd 04 20 c5 3d 9d d0 d1 bd
       0.11350272 -0.046224754 0.09625247 -0.10244868
000110 06 34 5c bc 80 93 6d bd c6 0f a7 bc 57 ed c8 3d
       -0.013440138 -0.058001995 -0.020393264 0.09810894
000120 57 9f c3 3d c7 8c 1a 3c 06 a8 0a bd 1b 38 34 bd
       0.09551876 0.009432978 -0.033851646 -0.04399882
000130 6e 62 c8 3a b1 9a b8 bc 18 54 6b 3d a8 a8 58 3d
       0.0015288123 -0.0225347 0.057453245 0.052895218
000140 8a 08 af 3d 61 b7 52 bd 08 eb 9d 3d d8 1b bb bc
       0.085465506 -0.051444415 0.07710844 -0.022840425
000150 b1 e9 0e bd a0 fc 38 bd f9 66 d0 bb 37 de 62 bd
       -0.034890834 -0.045162797 -0.0063599315 -0.0553877
000160 07 e1 1b bc a3 d9 a7 bd 3e 89 20 3d 09 fb 9f bd
       -0.0095141 -0.08195808 0.039193384 -0.07811553
000170 a4 f0 62 bc 34 79 6a bd fb f4 5b 3c c4 9b 98 3d
       -0.0138513185 -0.057244495 0.013425107 0.07451585
000180 b1 64 95 bd 8d 6a af bd 6c c0 8f 3d 07 1e 85 3d
       -0.07294596 -0.08565245 0.070191234 0.06499868
000190 ef 49 8b 3d 88 1c 95 bd ff 62 95 3d ce 8f 8b 3d
       0.06801211 -0.072808325 0.07294273 0.06814538
0001a0 95 56 33 3d bc 59 1d bc 20 0c c3 3d 00 64 28 3d
       0.043783743 -0.009603914 0.09523797 0.041110992
0001b0 4a 4c 19 3d 1e cb bb bc 64 fb 2b bd fd 8d 4a bd
       0.03742627 -0.022924002 -0.04198779 -0.049451817
0001c0 be 18 de 3d 5e 0e 22 3d 08 c9 79 3d 4d c8 8d 3d
       0.10844563 0.039564483 0.060982734 0.0692297
0001d0 30 e0 9c bd 92 9a 0e 3d 35 0a 76 bd 92 ef 5e 3b
       -0.07659948 0.03481538 -0.060068328 0.0034017307
0001e0 66 08 b3 3c f0 d8 ae bb 5d 0e a4 bc 6b 9a ea bc
       0.02185459 -0.0053359196 -0.02002638 -0.028638085
0001f0 06 06 ec bd 91 c7 92 bd a8 47 8c 3d 74 a1 85 bd
       -0.115245864 -0.071669705 0.06849605 -0.06524935
000200 79 0f a2 bc 08 8a 58 bc 0f 83 c3 3c 46 01 c9 bc
       -0.019782769 -0.013216503 0.023866205 -0.02453674
000210 79 63 4f 3d 51 e7 ba bc 09 7e 6b 3d 36 c4 65 bc
       0.050631974 -0.022815378 0.057493243 -0.014023831
000220 0a ff 68 3b 5b 66 f8 bb 52 66 d6 3d 1a d1 79 3c
       0.0035552406 -0.007580561 0.10468735 0.015247608
000230 58 71 29 3d 96 f1 0e bd a2 16 48 3c 47 4d f6 3d
       0.04136786 -0.034898363 0.012212427 0.12026458
000240 6a 8d d2 bd e9 b5 ab bc ad 57 86 3d a3 2d 40 bd
       -0.10280879 -0.020960765 0.065596916 -0.046918523
000250 25 1e f3 bc 46 a2 6a bc cb 7b a6 3c 25 c3 66 3d
       -0.02967746 -0.014320916 0.020322701 0.056338448
000260 78 7e 8b bc 21 e4 29 3d e5 db 8f bd 33 77 f7 3c
       -0.017028078 0.041477326 -0.070243634 0.030208206
000270 67 d4 72 bd 1f df 6c 3d 3a 3e 6b bd 74 8e a7 bd
       -0.059284594 0.057829972 -0.05743239 -0.08181468
000280 46 fe 7e ba 63 3e 2f 3d fc e7 7e bb 81 c1 1d 3d
       -0.0009727221 0.042784106 -0.0038895598 0.038514618
000290 a2 61 58 3b aa c0 62 3d 62 a9 2f bc c3 8b 05 be
       0.0033017178 0.05535952 -0.010721536 -0.13041596
0002a0 ef b9 82 bd 5e 75 06 3d cd 10 4d bc 3b 3c 94 3d
       -0.0638312 0.032826774 -0.012516213 0.072380506
0002b0 31 dd 54 bd eb ee 91 3d b4 a4 43 bd 77 cb 54 bd
       -0.051968757 0.07125648 -0.047764495 -0.05195185
0002c0 7e b6 a7 bc 37 13 c0 bd 88 30 76 bc 09 03 9b 3c
       -0.020472761 -0.09378665 -0.015026219 0.018922346
0002d0 22 9a fc bd c3 cc c1 3d f7 ec a9 bd eb 90 4a 3d
       -0.12334086 0.09462883 -0.082971506 0.04945461
0002e0 5e 2e 0b 3d 96 70 ce 3a ca f0 79 bd a5 de e3 3b
       0.033979766 0.0015750106 -0.06102065 0.0069540315
0002f0 14 d9 3a bd 65 3a b2 3d cc 93 a1 bd 85 38 1b bd
       -0.045617178 0.08702544 -0.07889518 -0.037895698
000300 8c 0c ba bc c3 f0 84 bd 8b 23 28 bd e4 96 98 3c
       -0.022711061 -0.06491234 -0.04104952 0.018626638
000310 19 8e a5 bc a5 58 d9 3b 96 03 ab 3d c6 7b ac bb
       -0.020209359 0.0066328817 0.08350293 -0.0052637784
000320 6b 4f 81 bd 78 c0 31 bd 95 4d d4 3d 50 98 ae bc
       -0.06313976 -0.043396443 0.1036636 -0.021312863
000330 fa 5b b0 bd bd 47 5c 3d 99 fd fd bb 78 63 9b 3c
       -0.08611293 0.053779352 -0.0077511785 0.018968329
000340 70 0c aa 3b 90 0b 00 3e 47 f8 76 bd 1e 18 c5 3c
       0.005189471 0.1250441 -0.06029537 0.024059352
000350 41 e8 1b 3e 14 b6 8a 3c 06 86 32 3d f1 dc 91 3d
       0.15225317 0.016932525 0.043584846 0.07122219
000360 c5 81 ef 3d 47 1d f3 bc cd a9 c6 bd 3a 65 5b bd
       0.116946734 -0.029677046 -0.09700356 -0.053563334
000370 78 4c c3 bd 71 86 6e 3c 60 82 89 3d 8d 3b 92 3d
       -0.0953607 0.0145584205 0.0671432 0.07140265
000380 24 98 ea 3c fc 7f 4e 3c 5b e9 1c 3d a4 d7 87 3d
       0.028637 0.012603756 0.038308483 0.06632927
000390 63 17 99 3d b5 94 1e 3c a9 0a 21 bc b8 45 ba 3c
       0.07475164 0.009679009 -0.009829202 0.022738323
0003a0 ef b8 61 bb 1f d3 0c bd cb e1 7c bc fb 35 bb 3d
       -0.0034442504 -0.03438103 -0.015434693 0.09141155
0003b0 8e b0 7f 3d 13 cc 01 bd ac 3d 07 bd 40 cc 80 bd
       0.062424235 -0.03168876 -0.0330178 -0.062889576
0003c0 8b 33 66 3c b0 c0 88 3d 7d 4b 98 bd 57 fa a5 3d
       0.014050375 0.06677377 -0.07436273 0.08104389
0003d0 69 61 a2 bd ea 77 c2 bd 9a 94 83 bc 7e 0c 7c 3b
       -0.07928736 -0.09495528 -0.01606207 0.0038459594
0003e0 d0 43 1b bc de da 2c bd 38 d9 57 bd e6 95 99 bd
       -0.009476617 -0.042200916 -0.05269739 -0.07499294
0003f0 87 0b 7f bd 88 fc 8c bd 1c d1 7a 3d 54 c8 9a bd
       -0.062266853 -0.06884104 0.06123458 -0.07557741

layer2.bias f4 [128]
000000 c6 f0 13 bd ce 0c 2d bd c3 fb e6 bc ca 3d 43 3c
       -0.03611829 -0.04224854 -0.028196221 0.011916587
000010 a8 3d 07 be 54 94 80 3d cd 8a 7d bd 8d 01 3d 3e
       -0.13207114 0.06278291 -0.06189995 0.18457623
000020 65 dc b9 bc 4c 2d f7 3b b0 53 19 3d 19 6d d5 3d
       -0.0226881 0.0075432416 0.037433326 0.10421199
000030 c5 5e f3 bc 53 f2 79 be ed 9d ca 3c 97 2b e4 bc
       -0.029708276 -0.24408846 0.024733508 -0.027852817
000040 10 8b ba bd 64 28 73 bc 16 03 97 bc 68 5a d6 3d
       -0.09108555 -0.014841173 -0.018434089 0.104664624
000050 4b 26 08 3e dc b9 94 3d b5 a0 3c 3d 66 0f 32 3c
       0.13295858 0.07262012 0.0460517 0.010867929
000060 42 61 ad 3d f9 fc 14 be fa 34 a3 bc ce 05 ff b8
       0.08465816 -0.14549626 -0.019922722 -0.00012160429
000070 b1 fc 27 3d eb 7c 1d 3d 5a 88 2b 3e 63 02 d8 bd
       0.04101247 0.03844921 0.16751233 -0.1054733
000080 68 c3 6e bd 7b 9f 56 3d 14 88 00 3c 25 74 85 3d
       -0.058291823 0.052398186 0.007844944 0.065162934
000090 11 d7 13 3e 0f 2d c3 3b 8a 2d 85 bd f8 5d d9 bc
       0.1443751 0.005956299 -0.065028265 -0.026534066
0000a0 4a 70 12 be f2 ac b0 3d 4b ea f2 3c 05 14 d3 bd
       -0.14300647 0.08626737 0.029652735 -0.10306553
0000b0 c0 03 69 3d 60 a9 c8 3d 46 92 1a 3e 0c 60 9c bd
       0.056888342 0.09797931 0.15094861 -0.07635507
0000c0 9a 58 00 3e ff 7d c3 3c 27 86 11 3d 17 85 32 bd
       0.12533799 0.02386379 0.03552833 -0.043583956
0000d0 c3 6e b6 3d 64 bf ac 3d ee 80 de bb 61 41 ad bd
       0.08907845 0.08434942 -0.006790272 -0.08459736
0000e0 fe 22 84 3d ee 50 26 be ea 5a 90 3d 4c 9c b6 3d
       0.06451987 -0.1624181 0.070485905 0.0891653
0000f0 90 f0 ed 3c eb da 44 3d 0c 13 b2 bd dc 34 bd 3c
       0.029045373 0.04806034 -0.08695039 0.023096494
000100 5d 91 1d 3c 2f 7a 9d bd 5e 51 44 3c de 2f f0 bc
       0.009617177 -0.0768932 0.01198229 -0.0293197
000110 bd b5 67 3c 86 4b 25 3c 8b fc e8 bc 23 85 30 bd
       0.014142451 0.010088807 -0.028440734 -0.04309572
000120 49 a6 1e 3e ca cc e7 3d 35 7b b6 bc 71 ea 3a bd
       0.1549312 0.11318357 -0.022275547 -0.045633737
000130 42 38 c1 3c b4 02 15 be d4 80 46 bd 59 e3 c5 bd
       0.023586396 -0.14551812 -0.048462704 -0.09662504
000140 8b 8d fc 3c 47 d2 ab bc cb f3 a7 3d 8f c3 ad bd
       0.030829212 -0.020974291 0.08200797 -0.084845655
000150 88 3a a4 bd a6 4b a9 bc a3 f5 d4 bd 8c 05 1a be
       -0.080189764 -0.020665955 -0.10398414 -0.15041178
000160 41 27 80 bd 66 a8 4d bc 58 f2 35 3d 3d 24 e3 3d
       -0.06257487 -0.012552356 0.04442057 0.11090896
000170 f3 6a 1d b7 23 2f 3f 3e d0 90 c7 3d 5e 2d 68 3a
       -9.38283e-06 0.18670325 0.09744418 0.0008856858
000180 cf f8 b8 bd be 8a d7 bc 62 b7 a5 3b 0e 06 2a 3c
       -0.090318315 -0.026311275 0.0050572613 0.01037742
000190 63 e8 92 3d 57 80 17 3e 0f f0 12 bd 1d e4 b6 3d
       0.071732305 0.14795052 -0.03587347 0.08930228
0001a0 74 1e 87 3d 02 f4 d4 3d 43 57 0d bd a6 3c 89 3c
       0.06597605 0.10398103 -0.034507047 0.016752552
0001b0 54 3b d0 3d 12 ae 20 be f7 ff 49 bd d2 35 6f bd
       0.10167566 -0.15691403 -0.049316373 -0.058400936
0001c0 36 f2 b5 3d 77 8f f9 3b 58 05 42 3c fc af b3 3c
       0.08884089 0.0076159793 0.011842094 0.021934502
0001d0 ad 1a ae 3d 6e 43 95 bd 30 75 06 be db 76 10 bd
       0.08501182 -0.07288252 -0.13130641 -0.0352696
0001e0 17 03 04 bd d1 a9 61 bd 6c 01 c8 bc 2d f3 0c 3a
       -0.03222951 -0.05509359 -0.02441474 0.0005376812
0001f0 2a 31 20 be d6 b3 46 be b4 f1 32 3c 1f b9 72 bd
       -0.15643755 -0.1940454 0.010921884 -0.059258576

layer3.weight f4 [128, 128]
000000 f9 e3 96 bd ef d6 9c 3d 86 63 1a 3d 37 8c a8 bb
       -0.07367701 0.07658183 0.03769257 -0.005143668
000010 72 62 7a bd 18 df 75 bd 69 62 68 bd ae c6 86 3d
       -0.06112904 -0.060027212 -0.056734476 0.06580864
000020 db d4 87 3d 87 3e a1 3d d1 11 e5 3c 47 a4 ef 3b
       0.06632396 0.07873254 0.027962597 0.0073132846
000030 71 ae 45 bd a6 c6 5c bd 77 96 a0 3d 59 6b a5 3d
       -0.048262063 -0.053900383 0.07841199 0.080771156
000040 05 65 d7 3d de 38 fb 3b 4e ae 7c 3d 8c 5a 3b 3b
       0.10517315 0.007666691 0.061689667 0.0028587906
000050 41 5b 8d bc 6c 30 9c bc ec 55 4b bd 41 36 aa bd
       -0.017255427 -0.019066058 -0.04964249 -0.08311129
000060 be 4a 30 bd 65 1f 09 bd 6e a8 a2 3d f8 2b 5b bd
       -0.04304003 -0.033477206 0.07942282 -0.05350873
000070 19 8b c1 bc 4f c2 cb 3c 84 65 9d 3c 9f 0c 84 3c
       -0.023625897 0.024872927 0.019213445 0.0161193
000080 b8 a0 54 3d da cc a2 bd af 44 0b 3c 31 87 dc bd
       0.051911086 -0.079492286 0.008500262 -0.10767973
000090 84 ee 9a 38 dc ad 8a 3d 66 f5 6a 3d 87 5f d4 3c
       7.387719e-05 0.06771442 0.057362936 0.025924457
0000a0 aa a6 b8 bd b3 02 92 3c fd c4 1b 3a a5 cf c8 bd
       -0.09016164 0.017823553 0.00059421343 -0.0980523
0000b0 5b 2e cd bd b7 00 65 bd b2 3a 12 3d 49 56 67 3d
       -0.10018607 -0.055908885 0.035700507 0.056478772
0000c0 70 22 e9 bd 24 b5 43 bd d0 29 04 3d ff 0b 3b bd
       -0.113835216 -0.04778017 0.032266438 -0.045665737
0000d0 98 3c 97 3d 2f 96 39 3d a1 c7 c7 bc 4a e4 e7 3d
       0.07384604 0.04530924 -0.024387183 0.113228396
0000e0 60 f5 4e bc 4c 59 c9 bc 3b 77 82 bb e6 dc 77 bd
       -0.012631744 -0.024578713 -0.0039814985 -0.0605134
0000f0 e2 71 6a 3d da f7 85 bd 85 0f 8f 3d cf 01 f6 bc
       0.057237513 -0.065414146 0.06985382 -0.03003016
000100 8e 92 e5 3a 3b 6f 2e be 74 4b 48 bd a9 cf d3 3c
       0.001751499 -0.17034619 -0.048900083 0.025855856
000110 cf f2 d7 bd d0 5d 6d 3d 5c f5 ff bc 58 80 6c bd
       -0.10544359 0.057950795 -0.031244926 -0.057739586
000120 bd a5 86 3d d2 1d 62 3c 06 ba c8 3c c3 72 ad bc
       0.06574581 0.013801055 0.024502765 -0.021172887
000130 a9 9c 63 3c 70 e5 0c 3d 03 11 9d bd de dd 7f bd
       0.013892331 0.034398496 -0.0766926 -0.06246745
000140 aa 54 b1 bd 86 de 16 bc 53 9d 36 3d 96 ae a6 bd
       -0.086587265 -0.009208327 0.04458363 -0.081387684
000150 47 7c 9f 3c 3b 05 61 bd 58 3b ac 3c 38 f6 a5 3d
       0.01946844 -0.05493663 0.021024391 0.08103603
000160 2d f8 bc bc d7 d8 5d 3d a6 76 b8 3c da 83 c1 3c
       -0.023067558 0.054161873 0.022517513 0.023622442
000170 bb 0b 8c 3c 00 1b 69 bd f2 45 6b 3d 13 fb 62 3d
       0.017095437 -0.056910515 0.057439752 0.055415224
000180 9a e3 b5 3d db 52 c8 3c 9b c3 2d bd f5 c2 dd bc
       0.08881302 0.024453571 -0.042422872 -0.027070502
000190 5e b2 78 3d f4 dd 00 bb b0 41 70 bc 33 35 47 3d
       0.06071698 -0.0019663544 -0.014664099 0.04863472
0001a0 5a 16 19 bc 5b b9 0c 3e 0b 96 3b 3d b5 f0 91 bd
       -0.009343708 0.13742582 0.04579739 -0.07125989
0001b0 5e 9b 91 3d 13 6d 0a 3d c7 6d bc bd 4b 6b 41 bd
       0.07109712 0.033795428 -0.09200626 -0.047221463
0001c0 a4 67 f2 3c 2e 0c 13 3d cc d4 ba 3d 48 ed 8b 3c
       0.029590435 0.035900287 0.09122619 0.017080918
0001d0 f9 54 8d 3d 03 c1 84 bd bc 98 94 3d fa ae 2f 3d
       0.06900973 -0.064821266 0.07255694 0.04289148
0001e0 3b e8 ff 3c 6a 1e 85 bd 8b e3 e2 bd 40 35 01 bd
       0.031238666 -0.06499942 -0.110785566 -0.031544924
0001f0 dc f8 2d 3d d4 7e 44 3b 66 8b 55 3c be bc 0d 3b
       0.04247366 0.0029982822 0.013033723 0.0021627392
000200 82 59 db 3d dc 0b 24 3d 8a 93 62 bd 37 59 e4 3c
       0.10710432 0.040050372 -0.055316485 0.027874572
000210 a1 32 07 bb a5 37 2d bc 9c 25 ff bd 17 e2 fe 3d
       -0.0020629542 -0.010572349 -0.12458345 0.12445467
000220 a5 52 e1 3c 9e bf f9 bc c1 90 b7 bd 7d 8e 12 3d
       0.027505228 -0.030486878 -0.089631565 0.03578042
000230 4a 3e cf bc 8d e6 33 bd 99 c5 16 3c 62 a7 c1 3a
       -0.025298256 -0.043921042 0.009202384 0.0014774615
000240 99 01 ea 3c 21 78 f8 bd 6f 2c 2a bd bb e0 a5 bb
       0.028565215 -0.12132288 -0.04154628 -0.0050621904
000250 dc 2d b8 3d 20 64 00 bd d4 5c 00 bd 09 af a1 3c
       0.08993122 -0.031345487 -0.031338528 0.019736784
000260 29 c7 39 3b 05 68 9a bd b8 d8 a2 3b 84 f9 43 3d
       0.0028347468 -0.075393714 0.0049696825 0.04784538
000270 3f 4a 03 3d f6 af dc bc 16 55 74 3d 80 24 22 bd
       0.03205323 -0.026939373 0.059651457 -0.03958559
000280 a6 43 aa 3d 73 70 5a 3d 1d 29 a5 3d 2b 37 a3 3c
       0.08313684 0.053329896 0.08064482 0.019923767
000290 90 bb 3f 3d 21 08 32 bd 6b e4 34 3b 5a 14 e5 3c
       0.046809733 -0.043464784 0.0027601968 0.027963806
0002a0 e2 b2 ba bd f0 98 0c bd cc af 9f bc 13 63 ee 3d
       -0.091161504 -0.03432554 -0.019493006 0.11639991
0002b0 ef 86 6a 3d fa d1 6d 3b 0e f2 a8 bc 4c 74 a0 bd
       0.05725759 0.0036288486 -0.020623233 -0.07834682
0002c0 18 fe 0b 3e c5 9f 96 3c 1b 24 e9 bc 6e 3c 61 bd
       0.13671148 0.01838673 -0.0284596 -0.05498927
0002d0 e4 39 80 bc 41 2f 51 3d 73 71 6e 3d f0 71 f9 bd
       -0.015652604 0.051070455 0.058213662 -0.12179935
0002e0 1f 26 f5 bc 18 81 06 bd 88 16 0c 3e 38 98 f7 bc
       -0.029925404 -0.032837957 0.1368047 -0.03022395
0002f0 e8 e0 14 bd 79 14 80 3d f4 0e d8 bc 75 f9 ac bd
       -0.0363473 0.06253905 -0.026374318 -0.08446018
000300 aa 27 fc 3c 5e f7 03 3e a1 0d c4 bd 42 ef af 3d
       0.030780632 0.12887332 -0.09572912 0.08590557
000310 29 0b af 3b 62 e6 d4 3d 26 6d ca 3c 26 01 2b bb
       0.0053419066 0.103955045 0.02471025 -0.0026093214
000320 bd bc 22 bd 0c 33 c3 3d e1 51 a6 bc 1f c7 8a 3c
       -0.039730776 0.09531221 -0.020302715 0.016940651
000330 77 28 63 3d 7b ed 21 bd f0 d9 97 bc d6 06 e0 3d
       0.055458512 -0.03953312 -0.018536538 0.10938804
000340 2a 6f e2 3d c9 c3 53 3d 29 17 68 bd 2f 1f 62 bc
       0.11056359 0.051700387 -0.056662712 -0.01380138
000350 e7 8d be bc aa 87 55 bb 03 8e 6f bd 20 de d6 3c
       -0.023261024 -0.0032582083 -0.058485042 0.026228964
000360 85 cb b5 bd 17 0f 7c bd ec 24 8a bb 7d be cc 3c
       -0.08876709 -0.06153783 -0.004215827 0.024993176
000370 37 ff ec 3c 09 31 ab 39 a6 73 23 3b 83 65 31 be
       0.02893029 0.00032652196 0.0024940758 -0.1732388
000380 ef 88 ae 3d b4 08 e8 3d be 5a 95 bd 3a 44 f0 bd
       0.08522212 0.11329785 -0.07292698 -0.11731763
000390 80 bb e3 bd 61 8c a4 bd 10 34 de 3c 85 ea a9 bd
       -0.11119747 -0.08034588 0.027124435 -0.08296684
0003a0 25 e9 05 be 0b f4 2d bd 8a 1a 6c bb a5 e1 05 bd
       -0.13077219 -0.042469066 -0.003602656 -0.032685895
0003b0 85 90 46 3d 1f da 8f bd a8 c2 03 bd 66 d6 47 bd
       0.04847767 -0.07024025 -0.03216806 -0.04878845
0003c0 64 1e 86 3d d3 d4 3b bc 82 cd 28 bd ba 8f 08 bc
       0.06548765 -0.0114643155 -0.041211613 -0.008335048
0003d0 04 8f 64 bc 1f 0d 56 3d 7f 64 57 bd 9c e6 47 bd
       -0.013950113 0.052258607 -0.052586075 -0.04880391
0003e0 fa 44 4f bd 3d 88 b9 bd c7 81 c7 3d 91 f2 96 bc
       -0.05060289 -0.090591885 0.0974155 -0.018426212
0003f0 9e c5 ac bc fd 0d 02 3d 5c 2f 00 bb 8a 63 b8 3d
       -0.021090325 0.03175162 -0.0019559478 0.090033606

layer3.bias f4 [128]
000000 7f 4d 14 3d a9 31 4a 3d a7 e8 09 bc 89 43 59 bd
       0.03620672 0.049363766 -0.008417285 -0.053042922
000010 2d 96 62 3c b7 98 4f 3e 3f ca 58 bc b8 9c c8 3d
       0.01382975 0.202731 -0.013231813 0.09795517
000020 99 9d 59 3d 71 19 02 be 78 a9 b1 bd 40 03 6a bc
       0.053128812 -0.12705018 -0.08674902 -0.014283001
000030 2a 9d e7 3c c6 48 5f 3d 0f 82 5a 3d d9 44 45 3d
       0.028273184 0.05451276 0.05334669 0.04816136
000040 fe aa 4f bc d7 a3 a6 bd d4 84 73 3d 5e 6a 9f bd
       -0.012675045 -0.08136719 0.059452847 -0.0778396
000050 04 d9 a0 bd 9e d7 b3 bd 77 27 5d 3d f4 32 96 bd
       -0.078538924 -0.0878136 0.053992715 -0.07333937
000060 42 10 26 3e 1a d1 31 be 88 4e 8d bd 3e c4 62 3e
       0.1621714 -0.17364922 -0.06899744 0.22145173
000070 1b 69 25 3e cc 8a e0 bd 3f dd 24 3e bb 4e 46 3d
       0.16153376 -0.109639734 0.16100024 0.048414927
000080 ae 57 ba 3c bb ab 24 be d5 6a dc bd 72 55 80 3c
       0.022746887 -0.16081135 -0.10762564 0.015665743
000090 47 97 e6 bd 1e 1f 90 3d e0 16 86 bd d8 6a 29 3e
       -0.112593226 0.07037185 -0.06547332 0.16544664
0000a0 c1 18 ac 3d 5c 78 8e bd 3f 15 d5 bd 0c ab 1a 3e
       0.08403159 -0.069565505 -0.10404443 0.15104312
0000b0 3b 80 0a be a8 35 4d bd 09 c2 45 3e 40 ec 8d 3c
       -0.13525479 -0.0501 0.193123 0.017324567
0000c0 e5 1f 89 3d 11 98 93 3d b0 4c 90 3d 42 94 96 3d
       0.066955365 0.07206739 0.07045877 0.07352497
0000d0 cb 49 01 3e 93 fa e5 bd c1 5f 24 3e 9b b9 1a 3d
       0.12625806 -0.11229434 0.16052152 0.037774663
0000e0 a5 4c c1 3d 40 13 ed 3d 2f 0a 49 3e 9c fe cd bd
       0.09438447 0.11575937 0.19632791 -0.100583285
0000f0 31 93 5c bd a1 29 d8 3d 29 3c 95 3d 8d 61 55 bd
       -0.05385131 0.10554815 0.07286865 -0.052094985
000100 e8 d8 a9 bd 13 04 a3 3d f1 f4 cc 3d 8b 3c f1 bd
       -0.08293325 0.079597615 0.10007656 -0.11779126
000110 08 5d 86 bd b7 e3 88 3d 00 de 55 bc 10 4b 32 bd
       -0.06560713 0.06684058 -0.013053417 -0.043528616
000120 24 8d 87 3d 51 8f 7b 3d b2 41 04 be 15 16 bd bd
       0.06618717 0.061415974 -0.12915686 -0.092327274
000130 a9 dc aa 3d 8e a8 43 3d 22 b3 86 3d 92 45 9a 3d
       0.08342869 0.04776817 0.065771356 0.07532801
000140 fb 5e 67 3e 71 69 22 3c ca 4e 82 bd 9d e1 88 bd
       0.22594826 0.0099128345 -0.06362684 -0.06683657
000150 d1 79 d5 bd a1 3d 9c 3d d7 20 43 3e 60 0d 6a bd
       -0.10423625 0.07628942 0.19055496 -0.05714166
000160 d1 0f 05 3e e3 97 b2 3d a0 62 c9 3d a4 45 ee 3d
       0.12994315 0.08720376 0.09833264 0.11634377
000170 be c8 04 be b6 62 1d 3c 42 5f 06 be 4a 54 21 bd
       -0.12967202 0.009606054 -0.13122275 -0.039387025
000180 f3 96 29 3e 9d 6a 36 be 5c aa b5 3d cb bf d8 bd
       0.16561489 -0.17814107 0.08870384 -0.105834566
000190 51 62 4b be 66 fc 2a 3d 58 de 2e 3d 77 fa 18 3c
       -0.19861723 0.041744612 0.042692512 0.009337059
0001a0 9f 60 11 3e 67 5f 34 3d c7 dd 4c 3e 3c 2e ad 3a
       0.14197014 0.044036295 0.20006476 0.0013212631
0001b0 3e 6a 0f 3e d5 f8 0a be 53 94 0b 3e 32 68 24 bd
       0.14005372 -0.13571484 0.136308 -0.04013843
0001c0 6b 09 5d bd f7 96 e3 bd 9c ad bd bd b3 d7 34 be
       -0.05396406 -0.11112779 -0.09261629 -0.17660408
0001d0 56 5a 0c be 9c af 18 bd aa 26 37 bd ee 81 3f bd
       -0.13706335 -0.03727685 -0.044714607 -0.04675477
0001e0 f0 ed bd 3d 9e ba 48 bc b6 1d 0b bc d7 3a 7c bb
       0.092738986 -0.012251524 -0.00849097 -0.003848722
0001f0 f9 fd 13 bd 0f 58 ad bd 13 a6 d5 bd c8 fc c2 3d
       -0.03613088 -0.084640615 -0.10432067 0.095208704

layer4.weight f4 [128, 128]
000000 dd 70 93 bd 75 05 c0 3d 4b 9d a1 3d 22 ec 54 3d
       -0.07199261 0.09376041 0.078913294 0.051983006
000010 ee cc 3e 3c d8 12 59 bd eb d7 9d bd b5 65 a4 bd
       0.011645539 -0.052996486 -0.07707199 -0.080272116
000020 e6 c0 b4 3c dd 55 1f 3d 93 5c 4f bd 80 58 b5 ba
       0.022064637 0.038900245 -0.050625395 -0.0013835579
000030 e4 33 0f bd 49 ee 8e 3b 3c c5 94 bc e7 ec 19 bd
       -0.034961596 0.004361902 -0.018160455 -0.037579443
000040 e4 1e 4c 3d ce fc 00 3c dd ec 05 3b c5 a4 cd 3c
       0.049834147 0.007872773 0.002043537 0.025102982
000050 2f 87 e5 3b 6a eb 10 bd 93 8a 4f bc 15 10 8c bd
       0.0070046405 -0.03538076 -0.012667316 -0.06839005
000060 95 3c 3a 3d af 7f 20 bc 01 b5 5b 3d a2 c1 d7 bc
       0.04546793 -0.009796067 0.053639416 -0.026337449
000070 b9 59 68 3d 8d e5 a3 3d b4 24 71 bd 4a 6a 36 3d
       0.05672619 0.08002768 -0.058872893 0.04453496
000080 18 bd 05 bb b6 e1 f5 bc 6e 5f fa bc c9 78 27 bd
       -0.0020406898 -0.030014854 -0.030563083 -0.040886674
000090 bc 73 0a bd 7b 2a af 3d df 8f 4d bd 49 b1 59 3d
       -0.03380178 0.085530244 -0.050186034 0.053147588
0000a0 e4 6d 9d bc eb 1d a3 3c fd ce 8a bd 50 26 86 bd
       -0.019217439 0.019911727 -0.06777761 -0.06550276
0000b0 4c 7c bb 3d a7 ba 22 bd 00 3f 14 3d d5 c2 54 3d
       0.09154567 -0.039728787 0.036192894 0.05194362
0000c0 02 48 07 3d 55 56 a4 3c 44 fc 87 3a 53 78 b9 3c
       0.033027656 0.020060698 0.0010374864 0.022640383
0000d0 18 e9 96 bd d5 7c 9e bd c5 fd 49 3d bc 3b 6c 3d
       -0.07368678 -0.077386536 0.04931428 0.057674155
0000e0 06 9f 12 bd ee 58 33 bd d0 e3 cc 3d 34 1d ab bc
       -0.035796188 -0.04378598 0.10004389 -0.020887949
0000f0 fa 4f 28 bd 35 59 1d bc 8c 92 19 bd 20 78 1d bb
       -0.041091897 -0.009603788 -0.037493274 -0.00240279
000100 6b 3f a7 bd d3 3e 4d bd 18 d6 ed 3b 6d 86 8f 3b
       -0.08166393 -0.050108742 0.007258188 0.0043800385
000110 74 f9 03 3d 11 54 a2 3d b9 20 6b bd 1b cf ed 3c
       0.03222032 0.07926191 -0.057404254 0.02902942
000120 47 15 90 bd 0a 51 76 bc 74 45 e5 bb 33 60 88 bd
       -0.07035308 -0.01503397 -0.006996805 -0.066589735
000130 c4 b8 11 3d f9 b9 22 bd 21 60 aa bd 43 46 d1 3c
       0.035576597 -0.03972814 -0.083191164 0.025546199
000140 76 f6 e4 3c 68 62 3d 3c 86 3f 05 bc 6f cb 6e 3d
       0.027949553 0.011559106 -0.008132821 0.05829948
000150 cb 43 df 3c 1a 61 84 bd ce 41 a5 3d 96 46 8b bd
       0.027254006 -0.06463833 0.08069192 -0.068005726
000160 62 94 9f 3d fb f7 ab bd 3d ee 62 3d f1 6d 19 3d
       0.07791974 -0.08396908 0.055402983 0.037458364
000170 ee c0 79 bd 1e 7b e5 3c b0 8e 64 3d 5b 1e 47 bd
       -0.060975008 0.028012808 0.05580014 -0.048612934
000180 32 a0 d2 3d b4 5d 05 3d af 4c 1a 3c b0 97 36 3d
       0.10284461 0.032560065 0.009417697 0.044578254
000190 1d f2 96 3c 4e 6b c3 3d e8 db e6 bb 28 b6 99 bd
       0.018425995 0.09541951 -0.007045258 -0.07505447
0001a0 93 56 5e bd f4 49 81 3c 63 83 87 3d c7 99 9b bd
       -0.054281782 0.015782334 0.06616857 -0.0759769
0001b0 e3 77 aa 3b 52 45 12 3d 4f 7d 93 bc ed c4 1b bd
       0.00520228 0.03571064 -0.018004088 -0.0380296
0001c0 c6 14 47 3d 43 a3 fa 3c b2 6a 8f 3d 51 c7 62 bd
       0.048603795 0.030595427 0.070027724 -0.055365864
0001d0 37 c8 fb bb 07 49 26 bd a0 4e 63 bc 97 92 b8 3c
       -0.0076837796 -0.040596988 -0.013873726 0.022530837
0001e0 3a 4d 02 bd 65 97 3c 3d e9 8c 75 3d 2a 94 ce bd
       -0.03181193 0.04604282 0.059948836 -0.10086854
0001f0 47 9f 7a bd 7e b9 a5 bd b2 4c 7f bd b3 68 34 3d
       -0.061187055 -0.080920205 -0.062329 0.04404516
000200 df 9f 00 be 15 72 9a 3d 9f 5f bb bd e1 e0 d1 bc
       -0.12560986 0.07541291 -0.09149098 -0.025619926
000210 0e da 54 3e 78 b8 54 3e bb f0 7f bc 3f de 70 3e
       0.20786306 0.20773494 -0.015621359 0.2352228
000220 15 6d 5c 3d b7 85 ac 3d a8 d5 27 be 8f 2b 60 bd
       0.053814966 0.084239416 -0.16390097 -0.05472904
000230 5e f1 ef 3d e7 09 2c 3c 20 ff c0 3d b4 55 41 be
       0.11715959 0.010500408 0.09423661 -0.1888035
000240 44 b6 20 be b5 90 e5 3b 59 65 1a be 31 b5 1c 3d
       -0.15694529 0.007005776 -0.15077724 0.038258735
000250 df 00 95 bc 4d 9f a4 bc 32 e0 a1 3d 50 c5 3e 3d
       -0.018188892 -0.020095492 0.0790409 0.04657489
000260 f8 2e 0a be d3 15 2e be cb 1c 76 3c 6b c8 46 be
       -0.1349448 -0.17000513 0.015021513 -0.19412391
000270 59 ca 30 3e bd 9f 22 3e c6 df 30 3d 87 87 e3 bd
       0.1726469 0.15881248 0.043182157 -0.11109834
000280 19 87 c2 bd 65 ce fd bc bd 42 29 be 7e ca 20 3e
       -0.09498424 -0.030982206 -0.16529365 0.15702245
000290 30 90 ba bd cc 49 1e bc 93 af 76 3d 01 0c f3 bd
       -0.09109533 -0.009661149 0.060226034 -0.11867524
0002a0 64 e7 d4 3d ae f8 e5 bd d4 db 25 3e 53 11 06 3d
       0.10395697 -0.112290725 0.16197139 0.032731365
0002b0 d7 99 91 3e 94 df e6 bd d5 de 2c 3e 1a 84 c6 3d
       0.28437683 -0.11273113 0.16881879 0.09693165
0002c0 f1 77 21 3e 57 df 5b 3d 15 9c 4b be 7e 9f c7 3d
       0.1576841 0.05367979 -0.1988376 0.097472176
0002d0 f7 b5 dd bd 71 38 5b bd 48 2a 12 3d 2d 61 fd 3d
       -0.10825723 -0.053520624 0.035684854 0.123720504
0002e0 4e 6d 64 be 1e 76 be bd f0 23 15 3e 94 58 b5 bd
       -0.22307321 -0.09299873 0.1456449 -0.088547856
0002f0 12 e7 35 bc 26 03 d3 3c 95 07 2b 3e 1a 65 e4 bc
       -0.011102455 0.025758337 0.16702111 -0.02788024
000300 b0 4a d1 bd 8f f7 9f 3d 77 d9 2e be be 53 b6 bd
       -0.10219324 0.0781089 -0.17075144 -0.08902691
000310 2f ce 0c 3e 8d ce 6e 3c 5b cd b0 3c 03 9e a8 bd
       0.13750528 0.014575613 0.021582296 -0.08233263
000320 95 d1 05 3e d2 86 64 bd 8e b3 65 3e 05 79 42 bd
       0.1306823 -0.055792637 0.22431776 -0.047478694
000330 b7 c2 1d be b1 ca 2a bd 8c c1 ee 3d 70 ad a0 bd
       -0.15406309 -0.041697208 0.1165801 -0.078455806
000340 71 2b 94 bd 69 0c 1e 3e 40 77 b5 bc ba 13 d3 3d
       -0.07234848 0.15434422 -0.02215159 0.10306497
000350 b0 ef 4d 3e e3 d1 bf bd 2f 7d 7c 3e c8 c7 d7 bd
       0.20110965 -0.093662046 0.24657129 -0.10536152
000360 e4 82 ff 3d 3b 40 71 3b 53 12 94 3d ba 2e dc bc
       0.12476137 0.0036811966 0.072300576 -0.02687775
000370 85 7c cb 3d 01 84 ba 3d bd 51 86 bd a7 c5 18 3d
       0.099358596 0.09107209 -0.06558559 0.03729787
000380 da 8a c3 3d c8 2d 4b be 3a e8 81 3d 55 18 ff bc
       0.09547968 -0.19841683 0.06343122 -0.031139532
000390 68 cf 5b bc 33 a7 91 bd 04 8c 69 3d 1f 4a 3d bd
       -0.013416149 -0.07111969 0.057018295 -0.046213266
0003a0 81 8e 01 bb 4e 29 59 bb c5 6e b7 3d 71 be 39 bd
       -0.0019768777 -0.0033136192 0.089566745 -0.045347635
0003b0 d4 b1 5b be 03 72 19 be 69 67 f9 bd a4 f9 1d be
       -0.21454555 -0.14984898 -0.12177927 -0.15427262
0003c0 8c de a3 bd 7c 08 dc 3c 57 f7 5a 3c cc 3b 85 bc
       -0.08001432 0.026859514 0.0133646345 -0.016263865
0003d0 24 dd 7e be 1c e3 3f bc e8 fa ae 3d 2c 17 36 bb
       -0.24889046 -0.011711862 0.0854395 -0.0027784808
0003e0 e6 63 16 3d e4 38 97 bd ae 13 45 3c 1d a9 86 3e
       0.036716364 -0.07383898 0.012028618 0.26300898
0003f0 82 c6 5d bd f0 da 95 3d 06 07 10 3d 04 22 e8 3c
       -0.05414439 0.0731715 0.035162948 0.028336532

layer4.bias f4 [128]
000000 39 4e 48 ba 01 c8 7a 3e f2 be 7c bd 39 ef 49 3d
       -0.00076410506 0.24490358 -0.061705537 0.049300406
000010 57 a9 f8 3d 41 bb f7 bb e7 80 b6 bb c3 1d 46 be
       0.12141674 -0.007560164 -0.0055695656 -0.1934729
000020 07 de 07 bb 60 39 12 bd a4 d7 ef bc 24 23 62 3e
       -0.0020731704 -0.03569925 -0.02927763 0.22083718
000030 f6 ff be 3d 41 2a ce 3d 43 24 47 3e b0 d5 70 3d
       0.093261644 0.10066653 0.19447426 0.05879754
000040 70 fd a5 3d 13 75 98 bd c8 46 ed 3d 3d 65 22 3d
       0.0810498 -0.07444205 0.11585766 0.03964733
000050 8c 9a 6c bd 90 81 e1 3c 40 e3 e2 3d 1b 3c 8a bd
       -0.057764575 0.0275276 0.11078501 -0.067497455
000060 a5 ac c4 bd 8a a2 4d be 44 e5 77 3b c6 14 06 be
       -0.09603242 -0.20081535 0.0037825862 -0.13093862
000070 69 cc 82 3d ed 9a 60 bd 77 46 9c bd 4e 8f 34 bd
       0.063866444 -0.05483525 -0.076306276 -0.04408198
000080 a3 f0 54 3b 68 34 20 3e d1 fc ba 3d 6b 75 34 3d
       0.0032492063 0.15644991 0.09130252 0.04405729
000090 a8 22 51 3e d9 d1 19 bd c8 f7 7a bd 19 7f 4e 3e
       0.20423377 -0.037553642 -0.06127146 0.20165671
0000a0 19 3c 2f bb dc 2d 05 3e 83 b2 43 bd f0 6b a9 3d
       -0.0026738702 0.13005775 -0.047777664 0.082725406
0000b0 b3 cf b6 bd 6d c5 aa 3c 21 cb ad bd f2 40 73 bd
       -0.08926334 0.020846093 -0.084860094 -0.05938811
0000c0 5a 4b be 3d 7f fe 01 be 45 9a 1c 3e 81 b8 11 3e
       0.09291716 -0.12694739 0.15293224 0.14230539
0000d0 3e e7 f3 bd a3 64 51 3d 04 4a 0d be 9c 02 cd 3d
       -0.1190934 0.051121365 -0.13797766 0.10010263
0000e0 c6 5b 94 bd 81 20 bc bc 21 b0 88 3e dd 1c 0c 3d
       -0.07244067 -0.022964718 0.26696876 0.034207214
0000f0 f9 e0 78 3d 5f 5d 1e 3b a9 86 f4 bc b8 ce 66 bd
       0.060761426 0.002416454 -0.029849367 -0.056349486
000100 13 61 f3 3d e9 f0 d2 bd 31 e9 73 3d 6a c7 f1 3d
       0.1188375 -0.10299856 0.05954856 0.11805613
000110 1f ec 0b 3d 53 22 b5 3d ce 44 c0 bd 69 31 37 3e
       0.03416073 0.088444375 -0.093881235 0.17889942
000120 7f d0 9a 3d 22 00 fd bd 82 ed 74 bd b8 a7 d9 bc
       0.07559299 -0.12353541 -0.059796818 -0.026569232
000130 74 62 f0 3d 9b 3c c0 3d fc 2d eb bd 10 8d b3 3b
       0.117375284 0.093865596 -0.1148338 0.0054794624
000140 4c ee 29 bd f7 0a c0 bd 26 53 0a 3e ad 87 bd bc
       -0.041487023 -0.093770914 0.13508281 -0.023135984
000150 f5 1b 1f 3d 05 1e 6a 3c bf 2f a5 3e 6a 09 78 bd
       0.03884502 0.014289384 0.3226299 -0.060555853
000160 e3 55 5f 3c 6f aa 7c bd 4f d2 58 3d 4c af 5f bd
       0.013631317 -0.061685976 0.05293494 -0.054610536
000170 f7 21 a6 3d 3d af 35 bd 1f 2d 39 bb 1f 1b ad 3c
       0.08111947 -0.044356573 -0.0028255654 0.021131096
000180 b1 7a f7 3d a6 03 f9 bc b9 8d 42 bd 81 91 42 3d
       0.120839484 -0.030397248 -0.04749844 0.047502045
000190 85 f7 00 3d 34 49 3b 3d 31 77 fd 3d bd ba b2 bd
       0.031486053 0.04572411 0.123762496 -0.08727024
0001a0 8a 3f 02 3e 48 14 f9 bc a0 b2 d6 bd 4c 30 c4 bd
       0.1271955 -0.030405179 -0.10483289 -0.095795244
0001b0 a5 1f e0 3d 13 3a 0a 3e 7f b5 5c 3d d1 14 b3 bd
       0.10943536 0.13498716 0.053884026 -0.08744205
0001c0 94 4e 40 bd cd 8e df 3d 44 76 c3 3c a8 58 73 bd
       -0.046949938 0.10915909 0.023860104 -0.05941072
0001d0 27 56 8d 3d fb 0e d4 3c 10 a1 c8 3c 41 d4 d8 3d
       0.06901198 0.02588605 0.024490863 0.10587359
0001e0 42 4e df 3c c6 b4 62 bc 89 87 ea 3c c2 dd da bc
       0.027258996 -0.013837045 0.028629081 -0.02671707
0001f0 57 c0 dc 3d 07 62 4d 3c 19 2e 58 3e 0f f8 75 3c
       0.107788734 0.012535579 0.21111335 0.015012755

input_norm.weight f4 [8]
000000 7b 62 a0 3f f1 2e 60 3f 61 66 75 3f d1 22 52 3f
       1.2530054 0.87571627 0.9585934 0.82084376
000010 3f 9e 4b 3f ef 78 82 3f 52 ac 16 3f 65 63 38 3f
       0.7953834 1.0193156 0.5885669 0.72026664

input_norm.bias f4 [8]
000000 60 a2 86 3e 87 61 6b 3e f4 f6 f9 3e eb b3 d0 3e
       0.26295757 0.22986422 0.48821223 0.40762267
000010 94 64 ae 3d 3e cf 8e 3e 87 60 8f 3e 9a aa c1 3d
       0.085152775 0.27892488 0.28003332 0.09456368

input_norm.running_mean f4 [8]
000000 cb 36 5e 40 f0 f4 31 3d 1f ae 8f bf 5c de 63 40
       3.4720943 0.04344648 -1.1225013 3.5604467
000010 a4 36 db 3c d0 59 ea 3c 5a 2d df bd ba f9 6d 3e
       0.026759453 0.028607279 -0.10897322 0.23239794

input_norm.running_var f4 [8]
000000 db 79 6e 40 4a ff 87 3b 2e a6 09 40 51 04 ab 40
       3.7261875 0.004150306 2.1507678 5.344277
000010 9c a6 65 3e 10 4c 06 3b 1b d4 20 3f 3b eb 36 3e
       0.22426838 0.0020492114 0.6282365 0.17863171

norm.weight f4 [128]
000000 c9 42 50 3f 57 93 81 3f 6c 54 5d 3f 04 43 51 3f
       0.81351906 1.012309 0.8645694 0.8174288
000010 4c ee 53 3f 4c 32 57 3f fe 45 5b 3f 49 2b 57 3f
       0.8278549 0.8406112 0.85653675 0.8405042
000020 69 b8 5c 3f 6a 9c 50 3f 86 a3 65 3f 76 e4 65 3f
       0.8621889 0.8148867 0.8970264 0.8980173
000030 e2 c2 4c 3f 31 92 60 3f 29 49 65 3f ef b3 60 3f
       0.7998487 0.8772307 0.8956476 0.87774557
000040 9b 05 4b 3f 56 0c 54 3f 92 2f 6b 3f a5 73 63 3f
       0.7930543 0.82831323 0.9186946 0.88848335
000050 b8 34 57 3f 3b 94 65 3f 8b c6 69 3f 55 a4 5f 3f
       0.8406482 0.89679307 0.9131858 0.87360126
000060 16 68 61 3f 7e 75 63 3f bd 0b 51 3f 61 41 90 3f
       0.8804945 0.88851154 0.81658536 1.1269952
000070 7b 7a 48 3f c1 77 4b 3f 3d dc 6a 3f 87 fd 61 3f
       0.7831189 0.79479605 0.91742307 0.8827748
000080 57 ba 4b 3f b9 5e 5b 3f 25 bd 5e 3f 5d 02 61 3f
       0.7958121 0.8569141 0.8700736 0.8789423
000090 3e 07 67 3f 54 73 62 3f 50 57 4a 3f 87 e4 70 3f
       0.90245426 0.88457227 0.7903948 0.94098705
0000a0 ea a7 68 3f 0e a9 5a 3f 89 91 78 3f eb 83 4d 3f
       0.90881217 0.85414207 0.9709707 0.80279416
0000b0 79 04 5c 3f 80 b9 69 3f 7c 95 86 3f 38 41 5a 3f
       0.85944325 0.91298676 1.0514369 0.85255766
0000c0 9b 1b 6b 3f 81 83 62 3f 3a c4 63 3f a6 da 5b 3f
       0.91839 0.8848191 0.8897129 0.85880506
0000d0 47 2b 58 3f a9 23 62 3f db 27 4f 3f 2e 98 5c 3f
       0.84441036 0.88335663 0.8092019 0.8616971
0000e0 32 ca 56 3f 1f c0 80 3f 2e cd 61 3f f7 a3 51 3f
       0.83902276 1.0058631 0.88203704 0.81890815
0000f0 f4 3a 5c 3f 2c 32 4f 3f 01 21 61 3f bc 33 5f 3f
       0.86027455 0.8093593 0.87940985 0.87188315
000100 6a 3d 55 3f c2 87 5b 3f 12 39 5c 3f 29 85 5b 3f
       0.83296835 0.85754025 0.8602458 0.8575006
000110 49 8a 47 3f af e0 62 3f 47 b3 63 3f 71 39 59 3f
       0.7794538 0.8862409 0.8894543 0.84853274
000120 fd af 5b 3f 57 0a 52 3f a4 3b 59 3f fc 6e 5d 3f
       0.8581541 0.8204703 0.8485663 0.86497474
000130 f1 1a 6f 3f 52 64 62 3f 16 e7 56 3f 55 d0 80 3f
       0.93400484 0.88434327 0.8394636 1.0063578
000140 74 80 5e 3f 12 07 5a 3f 30 a8 58 3f 05 20 56 3f
       0.86914754 0.8516704 0.84631634 0.8364261
000150 50 39 5c 3f 86 e4 52 3f 98 9e 73 3f 40 10 5f 3f
       0.8602495 0.8237995 0.9516387 0.8713417
000160 d7 85 5b 3f b3 1e 5d 3f 39 e0 4e 3f a5 b6 5e 3f
       0.857511 0.8637497 0.80810887 0.86997443
000170 f5 d9 48 3f 28 2d 4c 3f 38 3a 4f 3f 45 98 63 3f
       0.78457576 0.797564 0.8094821 0.8890422
000180 7c 02 68 3f db 02 5f 3f 7a fa 64 3f c5 d1 68 3f
       0.9062879 0.8711373 0.89444697 0.9094508
000190 24 94 59 3f a7 fc 5d 3f a9 c4 4e 3f 34 11 4a 3f
       0.8499167 0.8671364 0.8076883 0.789325
0001a0 53 57 56 3f 86 8a 69 3f eb 0d 56 3f f6 49 63 3f
       0.83726996 0.91226995 0.8361499 0.8878473
0001b0 d9 90 83 3f 43 be 57 3f b0 fd 5c 3f f4 3b 59 3f
       1.0278579 0.8427469 0.86324596 0.84857106
0001c0 e2 29 50 3f 1d a2 60 3f bd 18 53 3f 40 e7 57 3f
       0.8131391 0.87747365 0.8245962 0.84337234
0001d0 10 89 59 3f 1b e1 5a 3f c7 58 58 3f de 1b 5c 3f
       0.84974766 0.85499734 0.84510463 0.8598002
0001e0 cf 55 4e 3f 25 d0 6a 3f 6e c7 5c 3f b5 63 52 3f
       0.80599684 0.91723853 0.86241806 0.8218339
0001f0 a0 89 63 3f e4 e7 5d 3f 3f e1 77 3f d0 32 4d 3f
       0.88881874 0.8668196 0.96828073 0.8015566

norm.bias f4 [128]
000000 7d bf d2 3d 34 af b7 3d 0d e8 ac 3d b1 d5 ee bd
       0.1029043 0.08968964 0.08442698 -0.11661852
000010 93 66 02 3e 8a ee e0 bd eb 52 11 be 29 7d e5 bd
       0.12734441 -0.10982998 -0.14191787 -0.11205513
000020 b9 7c 63 3e d7 fe 04 3e 52 35 4f 3e 51 69 0d 3e
       0.22215547 0.12987839 0.20235184 0.13809706
000030 ac 5a 0b 3e 42 a9 72 3e 75 de 9d 3e 78 00 c7 bd
       0.13608807 0.23697379 0.30833784 -0.09716886
000040 aa c4 41 3e c9 ba e1 3d 83 f3 27 3e d1 57 d2 3b
       0.18922678 0.110219546 0.16401486 0.00641916
000050 13 66 34 3d c9 b5 0e bd fa c2 e9 3d 37 c9 7b bd
       0.044042658 -0.034841333 0.11414142 -0.06147119
000060 50 d6 77 3d 0b 7a c6 3b b0 64 06 3e c8 b4 55 be
       0.06050712 0.006057029 0.13124347 -0.20869744
000070 7d 8e b8 be 73 82 0f be fe 0b f0 bb dc 12 2d 3e
       -0.3604621 -0.14014606 -0.0073256483 0.16901726
000080 32 94 86 bc f1 2c 1c be 04 d7 49 bd fa 29 81 be
       -0.016428087 -0.15251519 -0.04927732 -0.25227338
000090 01 3d 83 bd 1e 12 56 bc a7 28 84 3d bf 23 44 3e
       -0.0640812 -0.013065843 0.06453066 0.19154261
0000a0 c8 0e fb 3c 5d 75 4c 3e c5 6e c5 3d 69 f6 8d 3e
       0.030646697 0.19966646 0.09640268 0.2772706
0000b0 ac 2a 13 bd f7 09 8c bb 2c cd 13 3e 93 9b 91 be
       -0.035929367 -0.004273649 0.14433736 -0.28439006
0000c0 68 81 01 3e 30 c3 6e be 7b 37 98 3d 11 a8 44 3e
       0.12647021 -0.23316646 0.07432457 0.19204737
0000d0 a7 49 52 3e 07 30 4d be 4e 37 23 bd 52 22 87 bd
       0.20535909 -0.20037852 -0.039847665 -0.06598343
0000e0 fd 9c c8 3d 29 4d f5 3c b9 32 35 3e 2b 20 c4 3e
       0.09795568 0.02994402 0.1769513 0.38305792
0000f0 ae c9 0c be 7a 51 08 3e 27 96 30 be d5 63 b2 3e
       -0.1374881 0.13312331 -0.17244779 0.3484179
000100 13 e0 00 3d 39 8e 7c be 76 2f 82 bd 6f 85 a9 3d
       0.031463694 -0.24663629 -0.06356709 0.082774036
000110 11 35 5f 3e c6 c2 2d bd 26 a2 a5 3e f2 87 e2 3d
       0.21797587 -0.04242208 0.32350272 0.11061086
000120 0e a8 0d 3e 19 e9 5c be 8a 3e dd 3d bc 77 69 3e
       0.13833639 -0.21573295 0.10802944 0.22799581
000130 14 96 a8 bd 64 71 97 be d2 1e ab bd 11 65 c8 bd
       -0.0823175 -0.29578698 -0.08355488 -0.09784902
000140 46 27 a4 3c 3a d4 0f 3e 84 f5 05 be 5e 21 b8 bd
       0.020038258 0.14045802 -0.13081938 -0.08990739
000150 a2 0c 07 3d b4 03 0a bd 3b ed bc 3e b0 c4 25 3d
       0.032971032 -0.033694938 0.36899742 0.04047078
000160 49 0b c9 be 92 9d d5 3c 7e cf 01 3e 64 29 47 3e
       -0.39266422 0.026076112 0.12676808 0.19449383
000170 11 f8 b5 bb 2d 42 66 3e 58 72 a8 3c c0 21 83 3d
       -0.0055532535 0.22486182 0.020562336 0.06402922
000180 4a 3b 83 3d 21 d7 c7 bd 5b 3d 9e be ac 49 0a 3e
       0.06407793 -0.097578295 -0.30906186 0.13504666
000190 dc 2e 6d 3d ed da fb bc 96 9c 78 bc 98 de 1a be
       0.057906017 -0.03074404 -0.015174052 -0.15123975
0001a0 34 d6 72 3d 5b 70 0b be 48 20 0f 3e fe d1 fa 3c
       0.05928631 -0.13617079 0.13977158 0.03061771
0001b0 5f 28 d2 bd 68 2a fe 3d df 0a aa bd e2 25 50 3e
       -0.102616064 0.12410432 -0.08302855 0.20326951
0001c0 85 ca 7b bd c2 95 81 3d ec 1d a7 bd 79 fd 82 bc
       -0.061472435 0.06327392 -0.08160004 -0.015990006
0001d0 88 2e 2e bd 90 f9 5b be 3b 38 03 3e 40 53 b7 bd
       -0.042524844 -0.2148192 0.12814419 -0.089514256
0001e0 44 2d e0 3d a6 2b 88 3d bf 9c c4 be 25 d9 63 3d
       0.10946134 0.0664895 -0.38400838 0.055627007
0001f0 31 98 d5 bd a7 dd 05 be 60 4b 27 3d eb cd aa bc
       -0.10429419 -0.13072835 0.040843368 -0.020850142
