final_models/original_physical_model/Lex_jaywalker_QAgent.pt (torch, 236321 bytes, 22 tensors)

layer1.weight f4 [128, 8]
000000 20 0f d7 3d 59 65 a4 bd 0f 37 e6 bd e6 99 8f 3e
       0.10500932 -0.08027143 -0.1124097 0.28047103
000010 71 32 c1 be 7e b0 59 3e 19 83 9f bd 9d 52 ce 3d
       -0.37733796 0.21258733 -0.07788677 0.10074351
000020 ea 12 ab 3d 70 a4 14 3c 76 27 a7 3d 41 8f bd 3c
       0.08353217 0.009072408 0.081618235 0.023139598
000030 64 aa 30 3e b2 36 20 bd 9e 4d 16 bd df 2d 4e bc
       0.17252499 -0.03911466 -0.036695115 -0.012584179
000040 2b d4 8c 3d af 09 70 bc f1 a4 dd 3e 86 c6 de 3d
       0.06876405 -0.014650746 0.43289903 0.10877709
000050 b0 f9 a2 bc e6 fc 73 be cb 6a 78 bd 24 7a 12 be
       -0.01989445 -0.23826942 -0.06064872 -0.14304405
000060 85 cb 82 be 95 c2 8c bd b2 51 7b 3e 60 f4 5f 3e
       -0.25545898 -0.06873051 0.24542883 0.21870565
000070 67 85 e4 be 16 63 1d 3e e9 03 34 3e e3 d3 d5 3e
       -0.44633028 0.1536983 0.17579617 0.4176322
000080 51 c7 21 3e ed 6b 51 be f9 fc 9e be 7f f9 82 bc
       0.1579869 -0.20451327 -0.31052378 -0.01598811
000090 82 41 7d 3d 08 aa 17 be ad 43 db 3d 79 cf a4 be
       0.06183005 -0.14810956 0.107062675 -0.3218954
0000a0 1d f3 b4 3e 5b 4a fc bd d9 e8 1f 3e 44 e8 e5 ba
       0.3534173 -0.1231887 0.15616168 -0.0017540534
0000b0 b6 69 6c be 5f 9d 32 3e 97 47 a8 bd 98 d7 72 3d
       -0.230872 0.17442845 -0.0821678 0.059287637
0000c0 f0 84 31 be 50 ed 62 bd 61 e5 f6 bd b7 fc be bd
       -0.17335868 -0.0554021 -0.12055469 -0.09325545
0000d0 d2 84 18 3e be 7e 1c be 45 06 92 3e 8e 56 a6 3e
       0.14894417 -0.15282723 0.28520408 0.3248791
0000e0 30 bd e6 bd a0 63 c3 be e1 16 69 3e 38 8c e1 3d
       -0.112665534 -0.38161945 0.22762634 0.11013073
0000f0 d2 2c 96 be 49 9b 55 3e c4 ba 84 3e a0 84 bb 3e
       -0.2933107 0.20860018 0.2592374 0.36624622
000100 7e c5 8d be c5 1a 9d 3d 9f 93 6e bd f3 1f 66 bd
       -0.27689737 0.076711215 -0.05824625 -0.056182813
000110 a5 48 70 be 9e cc 68 be 0e 2c 3d 3e 00 c0 a9 3d
       -0.23465212 -0.22734305 0.18473837 0.08288574
000120 e8 96 69 3e b9 46 b7 bd 87 9b 88 3d 37 4b 98 3d
       0.22811472 -0.08949036 0.066702895 0.07436221
000130 e8 6c 21 3e 19 a7 65 3d 1a d4 96 be 7d 0e f9 3d
       0.157642 0.05606756 -0.29458696 0.121609665
000140 dc 52 95 be 40 54 90 be ed a5 ea 3c 4f df d2 bd
       -0.2916478 -0.28189278 0.028643573 -0.10296499
000150 89 e7 fa 3d 8f aa 59 be 9b d0 63 be 76 f3 82 3e
       0.12251193 -0.21256469 -0.22247545 0.2557637
000160 31 09 a1 3c 6e c0 9c 3d 96 83 c3 3d 95 b3 ec bd
       0.019657703 0.076538906 0.095465824 -0.1155769
000170 83 0d 82 3b 8e 6a 1d 3e 00 6c bc be d7 85 46 be
       0.003968896 0.15372679 -0.36801147 -0.19386993
000180 6a d0 05 3e cb aa 7a 3c 15 9d 96 bd 1b c0 61 bd
       0.13067785 0.015299509 -0.0735418 -0.055114847
000190 b9 4f 85 3e 5f 3c 3d bd 94 7c 13 3e 85 b9 38 3d
       0.26037386 -0.046200152 0.14402992 0.0450988
0001a0 dc 92 27 be a6 ee 03 bf 5b 69 cb 3e 62 ae 00 3c
       -0.16364616 -0.51536024 0.39728817 0.007854076
0001b0 eb 05 29 3e ff 69 cc bc 07 2f e1 3d 3b 1c c5 3e
       0.16506164 -0.024952887 0.10995298 0.384981
0001c0 d4 cc e3 3e db be ac be 4b 02 4e be 14 90 92 3e
       0.4449221 -0.3373936 -0.20118062 0.28625548
0001d0 68 d4 b1 3d 37 94 62 3e 66 67 60 be cf 56 b2 be
       0.086830914 0.22126852 -0.21914443 -0.34831855
0001e0 60 25 43 be 53 d3 b5 3c e4 1f bc 3e 4e 85 62 be
       -0.19057226 0.022195494 0.3674308 -0.22121164
0001f0 cc 20 88 3e c8 30 24 be 89 2e b5 be 54 70 17 bd
       0.26587522 -0.16034234 -0.35387066 -0.03697236
000200 7a 2c 20 3e 03 f2 cc 3e e9 cc b4 bd ea d7 1b 3e
       0.15641966 0.4002839 -0.08828146 0.15219083
000210 49 c7 aa 3e b3 70 72 3e 0e 5f 8d 3e ee d5 78 3e
       0.33355168 0.23675804 0.27611583 0.24300358
000220 f0 58 09 3f 26 ec fa 3c 90 28 88 be 5a ee a9 be
       0.5365133 0.030630182 -0.26593447 -0.3318966
000230 69 f7 f7 bd 76 10 db bc 76 98 ae be 89 68 28 be
       -0.121077366 -0.026741248 -0.34100693 -0.16446127
000240 1d b7 ff 3d cb f1 03 be 86 da b7 3d cd 1e 1a 3d
       0.12486098 -0.12885205 0.08977227 0.03762703
000250 43 f1 72 3e e1 bb 52 3e 3b 8c 80 bc b3 87 b7 3e
       0.23724847 0.20579483 -0.015691867 0.35845718
000260 41 95 8b bd 62 05 5d 3d f4 3b b5 be 2b 14 51 be
       -0.06815577 0.05396021 -0.35397303 -0.2041785
000270 d6 dd 2f be e3 97 97 be 09 0a 54 3e 5b b7 c6 bd
       -0.17174467 -0.29608068 0.20706953 -0.09702941
000280 43 b9 c8 be 31 4d 76 3d 83 1c 73 bd da e4 0f 3f
       -0.39203843 0.06013221 -0.059353363 0.56208575
000290 83 3f 68 3c 14 d6 18 3e 58 78 c1 bc 84 f5 6a bb
       0.014175299 0.14925414 -0.023616955 -0.0035851905
0002a0 82 b1 88 be dc 37 fe bd 8d ca 58 be 5d ba 67 3c
       -0.26697928 -0.12412998 -0.21171017 0.014143554
0002b0 03 a6 43 bd 16 aa 9e 3d b9 42 c9 3e 93 ab d4 3e
       -0.047765743 0.07747285 0.39308718 0.4153715
0002c0 2d 1c e9 3d ba 98 05 3e 57 5f bb be ba 56 55 3e
       0.11382327 0.13046542 -0.36596176 0.20833865
0002d0 95 c9 0f be 6b 3b 45 bd b1 ff 88 be 93 d3 2a be
       -0.14041741 -0.04815237 -0.26757577 -0.16682272
0002e0 d2 8c cc be 89 da 09 3e 7a 74 6a be 40 33 96 be
       -0.39951187 0.13462271 -0.22895995 -0.29335976
0002f0 c8 14 37 3e 69 01 52 3d 72 86 a9 3d f9 dc 09 be
       0.17879021 0.051270876 0.082775965 -0.134632
000300 9c 65 1c be 02 c7 df 3d 49 08 80 3e e6 df 86 be
       -0.15273136 0.109266296 0.2500632 -0.26342696
000310 3c fc 5f 3e d2 37 99 3e 67 d3 b4 3e 7d 6f 1f be
       0.21873564 0.299254 0.35317537 -0.15569873
000320 4b af 36 3e 38 fa c3 be 5b bd fe 3e 15 7f 8c 3b
       0.17840306 -0.3827684 0.49753842 0.0042876103
000330 46 94 32 3e 4b db fb bd 47 7a 4b bd ef 84 02 bc
       0.17439374 -0.12297686 -0.04967716 -0.007966264
000340 51 04 e8 bc 73 1f 03 3e 2f 09 87 3d 4b b8 9a 3d
       -0.02832237 0.12804966 0.065935485 0.07554682
000350 64 01 d1 be 0e ff 3a 3e f4 1b 9b 3e 78 9a b6 3e
       -0.40821373 0.18261358 0.30294764 0.35664725
000360 75 99 43 3e 99 06 d3 be 0d 69 94 be e9 b9 b0 3e
       0.19101508 -0.4121597 -0.28986397 0.34516838
000370 31 ae 39 be 17 71 b3 3e ab af bc be 06 7e 82 be
       -0.18132855 0.35047218 -0.36852774 -0.25486773
000380 cd a5 1a 3e 27 f4 aa be 4d 09 d1 bc 44 70 a1 3e
       0.1510231 -0.33389398 -0.02551713 0.31530964
000390 7f 94 89 3e 39 1a 89 3e e6 8e 83 3c 1b 2b de be
       0.26871106 0.2677782 0.01605935 -0.43392262
0003a0 1a 58 99 3e a8 20 05 be a5 8b 37 be f5 cd 85 3d
       0.2995003 -0.13000739 -0.17924364 0.06533424
0003b0 76 51 71 be 29 4e 59 3e 75 9e 98 3e 0b 74 bb be
       -0.23566231 0.21221222 0.29808393 -0.3661197
0003c0 dc 2f be be 86 26 07 be fb 9b e4 3d 90 30 ab 3c
       -0.3714589 -0.1319829 0.111625634 0.02089718
0003d0 1f a3 9f be 97 52 cd 3d 50 b6 dc be e8 42 2f be
       -0.3117914 0.100255184 -0.43107843 -0.17115366
0003e0 2b e6 98 be 3a 39 af 3e 58 e5 a2 3e 1a 05 10 be
       -0.29863104 0.34223348 0.318156 -0.14064446
0003f0 6b f4 9a bd 4e fd 60 3e 50 22 8c 3d 6c fc bf bd
       -0.0756615 0.21971628 0.06842482 -0.093743175

layer1.bias f4 [128]
000000 55 fb a0 3d a2 60 36 bb ef 49 c8 3d 27 2b 7f bd
       0.07860438 -0.0027828594 0.09779727 -0.062297013
000010 46 4c c4 be 3d ab 96 3c 69 70 37 be 8f d9 cc bc
       -0.38339442 0.0183922 -0.17913975 -0.025006084
000020 ee 9a fc 3d 78 04 48 3d e6 fb 47 3d df 67 dd 3c
       0.12334238 0.048832387 0.048824213 0.027027069
000030 49 2d 79 be 73 87 d9 3d c2 7c 12 bd dc 89 5f 3d
       -0.24333681 0.10621538 -0.03576351 0.054574832
000040 b3 fe 2b be 55 5b 28 3e 27 c8 7f be 77 2d 78 3e
       -0.16796379 0.1644109 -0.24978696 0.24236093
000050 bd f1 2e 3e 7a 24 8a 3e e7 16 73 3e 2d 10 ba bd
       0.17084403 0.26980954 0.23739205 -0.090851165
000060 a3 7e 2f bd 40 af ef bd 50 b7 0c be 04 d3 89 be
       -0.04284538 -0.11703348 -0.13741803 -0.26918805
000070 c5 4f ca 3e a5 f7 6d 3d 03 c8 ea 3d 9c 0c e7 3c
       0.39513984 0.0580975 0.114639305 0.028204255
000080 57 a3 10 3e b0 3b 2a be b5 fe 87 be 66 43 b8 3e
       0.14124809 -0.16624331 -0.26561514 0.3598892
000090 92 72 22 3e 38 42 f9 3c ee 5f 92 be 49 03 a5 bd
       0.15864018 0.030427083 -0.28588814 -0.08057267
0000a0 13 15 a5 be 42 b5 80 bd 31 19 6d be be 8b a8 be
       -0.3224264 -0.06284572 -0.23154141 -0.32919115
0000b0 30 2a ac be b5 44 91 bd fc ef 8e 3e 33 63 bf 3e
       -0.33625937 -0.07093183 0.2791747 0.3738037
0000c0 43 91 fa bd c2 68 bc bd 0a b3 a5 be a4 3a d4 be
       -0.12234738 -0.091996685 -0.32363158 -0.4145099
0000d0 bb 6c 94 bd ae 38 27 3e 1c 68 59 bc ed 86 67 be
       -0.07247301 0.16330215 -0.0132694505 -0.22610064
0000e0 db 1b a4 3e 0e 45 ab 3c e4 6f 28 3e 4b fd 35 3e
       0.32052502 0.020906951 0.16448933 0.17772405
0000f0 6a 91 86 3e d2 09 d3 3d 53 73 ae be 0b 2b e1 be
       0.26282817 0.103046075 -0.3407236 -0.43978152
000100 0f 91 93 bd a9 fc 5c 3e 62 39 5f 3e 02 01 75 3d
       -0.07205402 0.21580757 0.21799234 0.059815414
000110 2f 97 31 be 63 8d 6c be 90 22 52 3e 7a 24 ad 3c
       -0.17342828 -0.2310081 0.20520997 0.021135557
000120 30 a8 90 be c8 e3 38 3d 9b 6c 23 be ef c5 95 3d
       -0.28253317 0.045139104 -0.15959398 0.073131435
000130 8a 21 39 3e 72 41 da 3d 58 56 83 be e9 9c c9 bd
       0.180792 0.10657014 -0.25651813 -0.09844381
000140 27 69 5b be 9a 83 dc 3d 1f 6b 83 3e c8 1d 17 3e
       -0.21426831 0.107672885 0.25667664 0.14757454
000150 a5 bc 65 3e ff 37 1d 3e f3 36 bc be 96 6a 4a 3e
       0.22435243 0.15353392 -0.36760673 0.19767222
000160 80 62 59 be f0 e6 5e bd 86 f0 b7 3c 69 f6 cb 3e
       -0.21228981 -0.054419458 0.022453558 0.39836434
000170 2d dd 6c be 17 8f 7f be cb eb cb bd a7 0e e8 bd
       -0.23131247 -0.24956928 -0.09957083 -0.1133092
000180 68 e4 ae 3e 50 f3 8f 3e c1 30 4b 3e f6 62 74 3d
       0.34158635 0.2811532 0.19842817 0.05966469
000190 c9 0c 91 bd 56 99 09 bc 64 f5 ff bd f8 6d ed 3c
       -0.07082517 -0.008398375 -0.124979764 0.028983101
0001a0 17 89 6c bd ae 61 58 bb 01 3c 24 3d 74 4d 6f 3e
       -0.057747927 -0.0033017206 0.040096287 0.2336939
0001b0 96 44 9f be 94 a6 84 3e 9c bf 8e be 77 25 0b 3d
       -0.31107014 0.2590834 -0.2788056 0.033971276
0001c0 61 c7 7a 3e 8d 6e 59 3e 33 27 c1 bd 61 23 61 3e
       0.2449012 0.21233578 -0.09431305 0.21986152
0001d0 f2 48 8b be 64 4d 8d 3e e7 53 bb 3e f6 de 6d 3c
       -0.2720409 0.27598107 0.3658745 0.01451849
0001e0 c5 88 00 3d 62 ee c2 bc 5d 76 31 be 9f 08 b7 be
       0.031380434 -0.02379531 -0.17330308 -0.35748765
0001f0 6c 73 84 3d 69 45 c8 be da b2 bd be 93 94 62 bd
       0.064673275 -0.39115456 -0.37050515 -0.055317473

layer2.weight f4 [128, 128]
000000 30 61 55 bd f5 4e 70 bd b8 8c 26 bc fa fa ed bc
       -0.05209464 -0.05866905 -0.010165386 -0.029050339
000010 6b 6a a8 3d 8e 55 28 bd 6e 9c 09 bd 9a 68 78 bc
       0.082234226 -0.041097216 -0.03359645 -0.015161658
000020 22 a9 1a bd fa 69 00 3d 9d 60 85 3d 80 4e 7c bd
       -0.037758954 0.031351067 0.06512568 -0.0615983
000030 16 a6 3f bc 78 7e cb 3d e7 40 50 bc ef c1 35 3c
       -0.011697313 0.099362314 -0.012710786 0.011093601
000040 b5 ed a3 bd e5 f4 b6 bd 36 e4 bf bb 23 f8 4c bd
       -0.080043234 -0.08933429 -0.0058560623 -0.05004133
000050 05 cb 38 3d 38 13 bc bc c0 b1 03 bd 68 02 4a bc
       0.04511549 -0.022958383 -0.032151937 -0.012329675
000060 67 61 7b 3d 63 a1 09 3e 19 9f 5d bd 35 a0 51 bd
       0.061372187 0.1344047 -0.054106805 -0.051178176
000070 ad dd c8 bd 4f 15 b0 3d 03 08 e4 3c 22 6f 39 3d
       -0.09807906 0.08597814 0.027835852 0.045272
000080 6a 03 78 3c dd 2d c2 3d 4d f9 8b 3c 4d 0d bc 3c
       0.015137533 0.09481404 0.01708665 0.022955561
000090 4c eb a7 3d f2 81 6f 3c 9c 77 88 3d 67 40 96 3d
       0.08199176 0.014618384 0.06663439 0.073365025
0000a0 09 63 7a 39 cb 4d 96 bd a1 ba 06 3c 1b 9d 89 3d
       0.00023878751 -0.073390566 0.008223207 0.067194186
0000b0 8b f9 43 3d 1c 89 44 bd 38 fb 13 bd b2 d6 7d 3c
       0.047845405 -0.04798232 -0.036128253 0.015493082
0000c0 ef 7c d8 3c e4 7c e3 3d b3 db 78 3d 8f 4d d6 3c
       0.02642676 0.11107805 0.060756397 0.02616003
0000d0 80 1b 96 bc d2 e5 1c bd 28 74 c9 bc c3 61 58 3c
       -0.01832366 -0.03830511 -0.02459152 0.013206902
0000e0 4e 6b 3f bd 0d 3b 3f bd f2 69 83 3d a6 41 61 3c
       -0.046733193 -0.046687175 0.06416692 0.013748562
0000f0 2b 44 b6 bd 70 1e a1 3c 1e b1 3b 3d cb b5 86 3d
       -0.08899721 0.019667834 0.04582321 0.06577643
000100 db 5f cb 3d 53 68 38 bc 93 d8 1a 3d 12 5a be bd
       0.09930392 -0.011255342 0.037804198 -0.09294523
000110 0d 2a 06 3d c1 3a 66 bd 54 b7 98 bb c9 51 18 3d
       0.032754947 -0.056208376 -0.0046605263 0.03718737
000120 c8 62 3c 3d ed c7 29 bd ac 2d df bc 9c 14 e6 bc
       0.045992643 -0.04145043 -0.027243458 -0.028086
000130 3c 2a 34 bd d9 75 34 bd 9a df 50 3d e1 41 57 3d
       -0.04398559 -0.0440577 0.050994493 0.05255306
000140 61 a5 5a 3d 33 a7 23 bc 1a 4d a0 3d 98 67 45 bd
       0.053380374 -0.009988594 0.07827206 -0.048194498
000150 14 b2 84 bb e6 c3 25 bd 32 76 a7 ba 21 ba 8f bc
       -0.004049549 -0.040470026 -0.0012776314 -0.017544808
000160 bc 9d 2a bc cd 07 5d bd fe 2e 85 3d 99 f5 64 bd
       -0.010413583 -0.053962518 0.06503104 -0.055898283
000170 83 9a 0e bd b0 9a 6e bd 4f b9 86 3d 75 ea c9 3d
       -0.034815323 -0.05825299 0.065783136 0.09859172
000180 e2 38 72 bd db 1c 67 bd 75 ee b6 3d f1 18 c2 3c
       -0.05913628 -0.056424003 0.08932201 0.023693534
000190 92 e1 6d 3d f1 e0 66 bd da 58 ef 3c b0 e3 78 3d
       0.05807645 -0.056366865 0.029217172 0.060764015
0001a0 28 d6 85 3c ea 22 3f bc f9 74 74 3d ae 3a 6b 3d
       0.01633747 -0.011666039 0.059681866 0.05742901
0001b0 d5 c2 84 3d 96 4a bc bc ab a8 bd bd 12 4f 56 bd
       0.06482474 -0.022984784 -0.092606865 -0.0523215
0001c0 be 94 e0 3d 1f 8f 35 bd b0 c9 80 3d bb bf 8e 3d
       0.1096587 -0.044325944 0.06288469 0.069701634
0001d0 cb 1c b9 bd 32 a7 b9 3b c6 1a 04 bd 72 83 1c 3c
       -0.09038695 0.005665683 -0.032252096 0.009552823
0001e0 0a 89 b9 3d 53 2d 70 3d 9b 89 a9 bc 54 74 e2 3c
       0.09059341 0.058636975 -0.020695498 0.02764336
0001f0 81 fa 92 bd c1 31 65 bd 14 59 4d 3d 45 c4 82 bd
       -0.07176686 -0.055955652 0.05013378 -0.06385092
000200 65 e9 16 3d cf 59 56 b9 43 21 8f 3c 1f 76 a8 bc
       0.036843676 -0.00020442087 0.017471915 -0.020564137
000210 20 70 bf 3c 80 3a 1b 3d cd 8d 6f 3d ac 1a 7b 3c
       0.023368895 0.037897587 0.05848484 0.015326183
000220 22 1b 1d 3d 57 69 56 3c 4c fa ce 3d aa 0e 80 3b
       0.038355954 0.013086638 0.10106334 0.003907998
000230 d4 ad 82 3d 1f 08 08 bd 6a df 9a 3d 7d 1a 84 3d
       0.06380811 -0.03321087 0.07562144 0.06450365
000240 90 4e b1 bd 55 c2 c2 bc 6d f8 b3 3d e1 0b e0 bc
       -0.08657563 -0.023774305 0.08787618 -0.027349414
000250 df 3f 06 bd 7f 4b ea 3c cc 35 1f 3d 2b 50 97 3d
       -0.032775756 0.028600452 0.038869664 0.07388338
000260 5e a8 18 3b 6f 4e bd 3c 5c 2f 87 bd 94 93 87 3d
       0.0023293714 0.02310869 -0.0660083 0.06619945
000270 c5 84 99 bb 02 7f 73 3d 2f 8e 71 bb d7 5c bd bd
       -0.004685017 0.059447296 -0.003685843 -0.092462234
000280 f4 b6 ef bc bb 92 a3 3c a3 72 0d 3b 2f 45 fa bc
       -0.029262044 0.019967427 0.0021583221 -0.030550567
000290 30 92 17 bc 64 46 66 3d fd 92 14 3d 25 e7 25 bd
       -0.009251162 0.056219473 0.03627299 -0.04050364
0002a0 25 88 8a bd de cd 9b 3c f6 a4 67 ba 60 a4 bd 3d
       -0.06764249 0.019019064 -0.0008836532 0.09259868
0002b0 07 32 c3 3b 6a a2 db 3d 3c 41 30 bd 1a 0b cb bd
       0.0059568915 0.107243374 -0.043030962 -0.09914227
0002c0 17 f3 db bb be 2c 5c bd 87 1a 15 bc 72 52 95 3d
       -0.006712328 -0.053753607 -0.009100563 0.07291116
0002d0 95 12 4c bd 46 a1 84 3d ea c3 c7 bd 09 24 a4 3d
       -0.04982241 0.06476073 -0.097541645 0.08014686
0002e0 71 c6 33 3d 65 04 6f bc 39 ca ab bd 17 b5 9f 3c
       0.04389042 -0.01458845 -0.0838818 0.01949553
0002f0 e3 d8 a8 bd 74 43 39 3d 17 26 85 bd 43 c2 92 bc
       -0.08244493 0.045230344 -0.06501406 -0.017914897
000300 eb 05 11 bd 1a 19 b3 bc dc 1d 41 bd 27 d3 ad 3c
       -0.035406034 -0.021862555 -0.047147617 0.02121885
000310 fe 3f eb 3c 36 01 3e 3c 7b fb a9 3d e7 4f 04 bd
       0.028717037 0.011596968 0.08299919 -0.032302763
000320 ad 46 6e bd 48 62 e8 3c db ab e7 3d 65 a7 8f 3c
       -0.05817287 0.028367177 0.11312076 0.017535875
000330 94 cd bd bd 2b 12 69 3d 7c bc 4f 3d 58 e7 5d 3c
       -0.092677265 0.056902092 0.050716862 0.013543926
000340 50 bf d3 3c a1 74 10 3e 91 35 8f bd 02 e0 19 3d
       0.02584806 0.1410699 -0.06992639 0.037567146
000350 2f 26 09 3e 39 67 32 bd 95 e1 93 3d 1a 25 ae 3d
       0.13393472 -0.043555472 0.07220761 0.0850317
000360 15 78 00 3e c9 38 9b 3c b8 c5 09 be 97 31 ab bc
       0.12545808 0.018947976 -0.1345433 -0.02089767
000370 e2 36 9d bd c9 dd 65 3c 71 6e 18 3e 46 a0 f9 3d
       -0.07676484 0.0140299285 0.1488588 0.12188773
000380 04 28 94 3d 1b cf be 3c 28 eb 62 3d 83 b6 25 3d
       0.07234195 0.023292115 0.055400044 0.04045726
000390 2b 99 96 3d fc 0a 09 3d 20 e5 d4 bc 46 ad 30 3c
       0.07353433 0.03345774 -0.025988162 0.010783499
0003a0 8b 09 f1 bc b4 9e 8f bd 28 ac 8b bc 62 62 cb 3d
       -0.029423496 -0.07012692 -0.017049864 0.099308744
0003b0 1b a7 a0 3d 52 3c 72 bd b9 7b 21 bc 7b 98 4f bd
       0.07844373 -0.059139557 -0.009856158 -0.050682526
0003c0 d0 c6 4c bd b1 b1 8e 3d 1e 11 9d bd 0f e9 ab 3d
       -0.04999429 0.06967486 -0.076692805 0.08394062
0003d0 17 ae b7 bd 2f cb e2 bc 08 e7 67 3b be 59 3c 3c
       -0.08968752 -0.027684776 0.0035385508 0.011496006
0003e0 9f 8a c5 bb 1a b0 3e bd 17 5e 1a bc 8c 01 dc bc
       -0.006028488 -0.046554662 -0.009421847 -0.026856206
0003f0 2d 11 7d bb b8 19 64 bd 24 71 d2 3d 71 e6 57 bd
       -0.0038614974 -0.05568859 0.10275486 -0.05271

layer2.bias f4 [128]
000000 c4 2e a9 bd 4d 69 08 be e2 00 9f 3d 38 ac 81 3d
       -0.08260873 -0.13321419 0.0776384 0.06331676
000010 5b 6e 82 bd 3a 72 9b 3d 70 65 16 ba 69 91 a7 3d
       -0.06368705 0.07590146 -0.0005737161 0.08182032
000020 52 32 8e bd 26 20 8e 3d dd 2c 00 bd 24 5d b4 3c
       -0.069431916 0.069397256 -0.031292785 0.02201707
000030 46 0c 08 bd b8 e5 d4 bd ad 0e 51 bd ea 1a 85 bc
       -0.03321483 -0.10395378 -0.051039387 -0.016248185
000040 45 f9 9d bc 16 66 0f 3d 2b 98 85 bc 32 1e 9f 3d
       -0.0192839 0.035009466 -0.01630791 0.07769431
000050 b8 69 33 3e da f8 9c 3c 5e 45 b0 bc d2 f7 ad 3c
       0.17520797 0.01916163 -0.021517452 0.021236334
000060 03 89 aa 3d 81 d9 2e bd 3d f0 31 bc a6 02 8c 3d
       0.08326914 -0.042687897 -0.0108605 0.06836443
000070 10 50 aa bd ec c1 06 3e bd c5 98 3d ec 2d 26 be
       -0.08316052 0.13159913 0.074595906 -0.16228455
000080 9b 38 65 bd d3 4f 9b 3c e4 5f b0 bc a8 45 45 3c
       -0.055962186 0.018958962 -0.0215301 0.012040533
000090 7f 96 3b bc aa 36 1e bc 3a ee 99 bd 23 8f 71 bd
       -0.011449455 -0.009656588 -0.07516141 -0.058974396
0000a0 8c 40 6a bb b2 23 5d 3d 12 c9 5a bd 18 7e 10 bd
       -0.003574404 0.05398912 -0.05341441 -0.035276502
0000b0 63 15 b0 3d 3e 49 e9 3b c7 8f 07 3d c6 df 97 bd
       0.08597829 0.007119327 0.0330961 -0.07415728
0000c0 79 c2 fb 3d df f1 94 3d fa 3e 8f 3d 52 73 ae bc
       0.12292952 0.07272696 0.06994434 -0.021295223
0000d0 82 06 2a 3c 63 90 c9 3d 0b b3 d0 bc 2d a2 c0 bd
       0.010377528 0.09841993 -0.025476 -0.094059326
0000e0 82 b8 c9 3d b7 7b d5 bd 84 a9 11 3c 0e ba e0 3c
       0.09849645 -0.10423987 0.008890513 0.027432468
0000f0 48 bb 47 3d 14 80 95 bd 17 ac b3 bd b3 c2 cb 3c
       0.04876259 -0.072998196 -0.08773058 0.024873113
000100 df ce 0a 3d 1f 59 9e bd 06 bc 8b 3d 6f d7 de bc
       0.033888694 -0.07731842 0.06822972 -0.027202336
000110 0d dd 0d 3d 64 6a 64 3d c1 85 1b bd cf 20 89 bd
       0.03463464 0.055765525 -0.037969355 -0.06695711
000120 4a 4e 37 3d 87 71 f3 3c ba 08 c2 3b 2c f7 5e bd
       0.044752397 0.02971722 0.0059214504 -0.05443494
000130 77 f6 56 bd 38 f4 c7 3c e1 1f 08 3b 58 50 a9 bd
       -0.05248114 0.024408445 0.0020770954 -0.082672775
000140 c4 d1 3a bd 93 2b 95 3b e4 b1 7e 3d 0f 85 97 bd
       -0.045610204 0.0045523136 0.06218137 -0.07398426
000150 76 1c bd bd 3e b2 81 bd cf 1d c2 bd 89 e1 14 be
       -0.09233944 -0.06332825 -0.09478342 -0.1453916
000160 7f 80 21 bc 5b 62 a8 bd 43 28 2c 3d 3c d6 ca 3d
       -0.009857296 -0.08221885 0.042030584 0.09904143
000170 66 e8 1f 3d a8 78 a2 3d 33 17 05 3e 00 bf d8 3c
       0.03903999 0.079331696 0.12997131 0.026458263
000180 45 a8 bd bd 73 85 ac 3d b6 2c 01 bd fd 53 03 bd
       -0.092606105 0.08423891 -0.03153678 -0.03206252
000190 8b 63 44 3d f0 77 b0 3d 4c ee c7 3d a5 42 24 3d
       0.047946494 0.08616626 0.097622484 0.04010262
0001a0 67 1c 0b 3c 1a 2d 47 3d ff 57 0e bb 3c 76 9a bc
       0.008490658 0.048626997 -0.002171993 -0.018855207
0001b0 ad e9 d3 3d f5 6d d8 bd e6 b2 89 3d 96 f6 0d be
       0.103473045 -0.10567848 0.06723575 -0.13863596
0001c0 f5 95 3a 3d be 90 37 3c bc 23 1f bd bf 1f 12 3d
       0.045553166 0.011203943 -0.03885244 0.035674807
0001d0 78 8f 1e 3d f5 63 fd bd 44 b5 26 bd 11 11 1e 3d
       0.03871104 -0.12372581 -0.040700212 0.038590495
0001e0 f3 8e 1a bd 95 dc 56 bd f0 28 8d bd a9 61 a3 bd
       -0.037733983 -0.052456457 -0.06892574 -0.079776116
0001f0 23 bb 96 bd f2 45 a8 bd de 19 88 35 b5 5c f6 bc
       -0.07359912 -0.08216466 1.0140318e-06 -0.030073503

layer3.weight f4 [128, 128]
000000 5e 29 97 bc 72 53 aa 3d 4a 1a 79 bd 24 d9 94 3a
       -0.018452343 0.08316697 -0.060816087 0.0011356217
000010 47 3a ac bd 13 36 c6 bd ac 08 16 bd 50 d5 6c 3d
       -0.08409553 -0.096782826 -0.036629364 0.05782062
000020 06 3a 66 3d 3f 34 b9 3d b6 9c 3c 3d 3d b0 10 3d
       0.05620768 0.09043168 0.04604789 0.035324324
000030 f5 c6 be bd ca 42 a5 bd 5c 69 02 3e 28 82 f7 3d
       -0.09315292 -0.0806938 0.12735504 0.12085372
000040 c0 08 94 3d 45 2d b0 bc 17 0a 9c 3d ce 5b b5 3d
       0.072282314 -0.021505961 0.07619112 0.08855401
000050 7d 93 8c 3d 4e 1e 9a 3c 49 27 9d bd 50 04 d6 bd
       0.06864069 0.018813279 -0.07673509 -0.10450041
000060 b6 b8 30 bd 36 b3 92 bd 5e ce 0e 3d 52 72 6d bd
       -0.043144904 -0.07163088 0.034864776 -0.057970352
000070 c6 64 3d bd a4 7a 65 3d 20 22 07 3d 45 8c 93 3c
       -0.046238683 0.056025162 0.03299153 0.018011222
000080 2c da 59 3d 60 4f 85 bc 64 aa f7 3c 25 f4 8b bd
       0.05318658 -0.0162732 0.030232616 -0.06833676
000090 24 c9 0f bd b8 6a 98 3d ff 8d 4a 3d 29 b6 e0 bb
       -0.035103932 0.0744223 0.049451824 -0.0068576527
0000a0 4f 1e 99 bd 0c 47 b4 bc f6 17 08 3d 93 aa e5 bd
       -0.07476484 -0.022006534 0.033225976 -0.11214175
0000b0 ff cb a1 bd ec 95 0c bd 22 97 81 bb 0f 93 c9 3c
       -0.07900237 -0.034322664 -0.003954784 0.024606256
0000c0 c5 8c 54 bd 08 0d 05 bd 07 2f 93 bd fc 0a 00 bd
       -0.05189206 -0.03248313 -0.07186704 -0.031260476
0000d0 33 e9 00 3d 8f 1d de 3c f7 79 37 3a 7a 9e 9d 3d
       0.031472396 0.027113704 0.000699907 0.07696243
0000e0 c3 ee 1b 3b d9 77 27 bc 91 63 89 bc af a4 d1 bd
       0.0023793436 -0.010221445 -0.01677111 -0.10236489
0000f0 3d b3 8a 3d c2 69 32 bd 1b 10 8f 3d 9a 32 4b bd
       0.06772468 -0.04355789 0.06985494 -0.049608804
000100 13 ec 25 bc 73 e9 ce bd d9 8b 2b bd 0a 0e a3 3c
       -0.010127085 -0.10103121 -0.041881416 0.019904155
000110 37 bb e0 bc 37 bd 06 bd 33 a4 be 3c d2 0d 05 3d
       -0.027433021 -0.032895293 0.023271656 0.032483883
000120 80 37 7a 3d 23 17 96 3d 0e 0f e1 3c e3 6f 44 bc
       0.061088085 0.07328632 0.027472999 -0.0119895665
000130 9e 8d 64 3d d7 53 a8 3d 1e d8 86 bd d4 5c ae bc
       0.05579912 0.08219116 -0.0658419 -0.021284498
000140 f7 da c6 bd b0 15 94 bc 51 70 a8 3d d0 2c 94 bc
       -0.09709733 -0.018076748 0.08224548 -0.018087775
000150 90 c8 00 3e 1f cd 72 bd 62 84 a3 bc 8e 85 08 3e
       0.12576509 -0.05927765 -0.019960586 0.13332197
000160 cf 20 62 bc 39 5a 9c bc c6 fa 1c 3d fe 76 7e 3d
       -0.0138017675 -0.01908599 0.038325094 0.0621252
000170 97 37 79 3d 64 df 45 bd 74 e7 cf 3d d1 bc 39 3d
       0.06084403 -0.048308745 0.10151568 0.045346085
000180 1d db d5 3d 72 de 35 3c db cf 23 bd 83 9f 9e 3c
       0.10442183 0.011100398 -0.03999315 0.01936317
000190 9f 7e 46 3d 30 d8 2a bb 68 8a f5 bc 64 e7 c6 3c
       0.0484606 -0.00260688 -0.029973224 0.024280258
0001a0 d0 f4 7c bd de 3a d1 3d e1 db 97 3d 04 11 48 bd
       -0.06175691 0.10216306 0.074149854 -0.048844352
0001b0 48 5c 9b 3c 55 d7 85 3d 6e e9 da bd 1d 94 b1 3c
       0.018964902 0.06535212 -0.106890544 0.021677071
0001c0 4f 1a a8 3c ca f9 85 3d 61 2b a4 3d c0 f4 c6 3c
       0.020520357 0.06541784 0.08016086 0.024286628
0001d0 7b c0 ca 3d 51 68 68 bd 19 29 9c 3d 03 b8 0c 3d
       0.09899994 -0.05674011 0.07625026 0.034355175
0001e0 36 8b 2a 3d 8d 5a 26 bd 6a f8 f2 bd b7 61 76 bd
       0.04163667 -0.0406137 -0.118637875 -0.060151782
0001f0 db 84 15 bc 55 fb c2 3c 87 7d 0d 3d e6 f7 9e 3c
       -0.0091259135 0.023801485 0.03454354 0.019405317
000200 7f c8 63 3d d4 cb c0 3c e7 e2 89 3c d8 00 2f 3d
       0.05561113 0.023534693 0.016831828 0.042725414
000210 47 6a f3 bc 3a 11 58 bd 02 4b a4 bd 33 c2 75 3d
       -0.029713763 -0.052750804 -0.08022119 0.059999656
000220 d3 fa ac 3d 12 c1 18 bb 93 59 cb bd 92 d3 01 bd
       0.084462784 -0.0023308438 -0.09929194 -0.03169591
000230 93 6e e8 bc b9 4d 8f bd 0e af c0 bb e8 71 70 3d
       -0.028373038 -0.06997246 -0.005880243 0.05870238
000240 27 e2 3f 3d b3 d5 ba bd 8c 7c 68 bd f4 bb 00 be
       0.046846535 -0.09122791 -0.056759402 -0.12571698
000250 b2 44 30 3d 12 ba e4 3b f6 6a 7b 3a fb f6 af bc
       0.043034263 0.006980189 0.00095908286 -0.021480074
000260 64 04 85 3b 45 8a 70 bd 51 54 60 3d af eb 14 3d
       0.0040593613 -0.058725614 0.05476791 0.036357578
000270 40 f7 04 3d ee 92 bf 3c a6 91 4d 3b 24 08 e0 bd
       0.03246236 0.023385491 0.003136733 -0.10939053
000280 17 47 ad 3d b4 be 96 3c 72 ee 8a 3d a7 40 e3 3c
       0.08460825 0.018401481 0.06783761 0.02774079
000290 89 40 97 3d db a0 15 bc 3b 35 26 bd 3f 9c 3a 3d
       0.07385356 -0.009132589 -0.04057811 0.045559164
0002a0 3a 71 82 bd 28 1f 97 bd 94 9e 2e 3c 5b 2b 9f 3b
       -0.063692525 -0.073789895 0.010657925 0.0048574633
0002b0 21 11 91 3d ee 5e 11 bc d7 b9 30 bd cd 37 e2 bd
       0.07083345 -0.008872731 -0.04314598 -0.110457994
0002c0 bb 77 28 3e 60 86 07 bd 6f c8 75 bd 77 a1 67 bd
       0.16451924 -0.033087134 -0.0600056 -0.05655047
0002d0 f9 76 78 3b 82 23 95 3d fd d0 0d 3d 9f e6 c0 bd
       0.003791271 0.07282163 0.034623135 -0.094189875
0002e0 4c c0 3c bc 2f 16 dd bc 5a 36 08 3d b4 fb c2 bd
       -0.0115204565 -0.026988117 0.03325496 -0.09520665
0002f0 0e 82 14 b9 c5 41 25 3d 92 4d d9 bc 5e ed 82 bd
       -0.00014162829 0.040345926 -0.026526246 -0.063929304
000300 59 06 81 bc 73 5d e8 3d 1b 1d 9c bd 10 5a c1 3c
       -0.015750097 0.11345949 -0.07622739 0.023602515
000310 f5 fb 6d 3d bd c6 a5 3d 73 84 bd 3c 58 5d f5 bc
       0.058101613 0.08094547 0.023134446 -0.029951736
000320 aa aa 85 bd 64 17 8f 3d 44 81 4d bc b2 db ca b9
       -0.06526692 0.06986883 -0.012543026 -0.00038692128
000330 73 a1 fd 3c a3 7a dc bc 13 53 07 bd c9 39 49 3c
       0.030960774 -0.026913946 -0.03303821 0.012281843
000340 07 ba 6e 3d 4b 25 1e 3d ba 56 08 be 49 26 03 bd
       0.05828288 0.038609784 -0.13314334 -0.032018933
000350 15 dd 84 bd ff 83 f7 3c 3f 2b 71 bd e4 e2 56 bd
       -0.064874806 0.030214308 -0.058879133 -0.052462474
000360 08 7a f5 bc f5 eb be bd 0a 64 a3 bc 8f b3 5d 3d
       -0.029965416 -0.09322349 -0.019945163 0.05412632
000370 a3 67 b8 3d 14 36 93 bd d4 48 84 3c e7 0f 96 bc
       0.09004142 -0.07188049 0.016148008 -0.01831813
000380 a3 4e 50 3d 5f 5a 56 3c 75 d1 94 bd a2 ce f1 bd
       0.050856244 0.01308307 -0.07266513 -0.1180699
000390 d4 06 1e bd 22 81 1a bc 42 ad 77 bd 6b 0d fd bc
       -0.03858073 -0.009430202 -0.060467966 -0.030890187
0003a0 ba 03 b6 bd ec cb 00 bd 90 66 35 bd 75 b9 bd bd
       -0.088874295 -0.031444475 -0.044287264 -0.09263889
0003b0 6a c5 2a 3d 83 5c 5e bd c4 ae cf bd 91 e7 eb bd
       0.041692175 -0.054287445 -0.10140756 -0.11518777
0003c0 0e b0 ab 3d 25 11 21 bc 86 45 96 bd ef d5 1d bc
       0.08383189 -0.009830748 -0.07337479 -0.009633525
0003d0 d0 4a 22 3d 37 d4 6f 3d ec fe f7 bc 22 1e 61 bd
       0.039622128 0.058551993 -0.030272923 -0.054960378
0003e0 d0 11 6b bd 04 6d 4f bd 81 c9 34 3d 4b b7 5a 3b
       -0.057390034 -0.050641075 0.04413748 0.0033373411
0003f0 01 52 97 3c ca 29 e9 3b 91 c8 e3 3c 0a e3 ec 3d
       0.01847172 0.0071155773 0.027805598 0.11566742

layer3.bias f4 [128]
000000 84 e6 3e 3d 9e 71 8d 3c 5a 7e 25 3d c4 41 97 bd
       0.046606556 0.017266091 0.0404037 -0.07385591
000010 8e b7 66 3c d8 ed a7 3c b1 37 ab 3b a0 a6 0d 3d
       0.014081849 0.020499155 0.005225145 0.034582734
000020 53 a4 ec 3b c8 e8 9d bd eb be 66 bd 63 9a 72 bc
       0.0072217374 -0.07710415 -0.056334417 -0.0148073165
000030 6a b2 c0 3d 98 d2 16 3e ae 7b 8d bd e9 03 ee bc
       0.0940903 0.14728773 -0.06908356 -0.029054599
000040 e4 cb df 3c 4c 16 c1 bd f9 1e 88 3d e3 ae e2 bd
       0.027318902 -0.09428081 0.066465326 -0.11068513
000050 8d 09 91 bd 7f d7 b3 bc fe 06 60 bd 33 a7 b0 bd
       -0.070819 -0.021953342 -0.05469417 -0.08625641
000060 83 35 96 3e d2 ad 41 be 5d 3f fb bd 94 3d 38 3e
       0.293377 -0.18913963 -0.12267945 0.1799224
000070 09 78 92 3b 57 58 b2 3d ef 11 ba 3d 06 22 9e 3b
       0.0044698757 0.08708256 0.09085452 0.0048258333
000080 2e 01 13 3c db 25 00 be 62 2d 10 be 52 36 3f bd
       0.008972449 -0.1251444 -0.14079812 -0.046682663
000090 50 07 23 be 99 9b 12 3e 0a 62 a9 bd 29 51 c8 3d
       -0.15920758 0.14317168 -0.082706526 0.09781105
0000a0 08 a5 88 bd ba 6e 50 bd a0 da 68 bd 6f dd 9d 3d
       -0.06672102 -0.050886847 -0.056849122 0.07708251
0000b0 9b a2 2b bc 25 bb 48 be e3 2b c7 3d 39 0b 1c 3d
       -0.01047578 -0.1960264 0.097251676 0.03809664
0000c0 2a 15 7f 3d 9f 9d 3e 3d 0b cf 9f 3d 7f a2 07 3d
       0.062276043 0.046537038 0.07803162 0.033113953
0000d0 69 bf aa 3d 39 b6 a3 bd 90 0c 90 3d a0 e8 39 bd
       0.0833729 -0.079937406 0.07033646 -0.045387864
0000e0 77 29 31 3d 7b 52 d3 3d 7a bd 0a 3e a7 36 f3 bd
       0.043252435 0.10318466 0.13548842 -0.118756585
0000f0 c6 67 82 be 48 bc 13 3e dd cf 3b 3d 53 5d 11 bd
       -0.25469798 0.14427292 0.04585253 -0.03548939
000100 64 e6 33 be 51 0b e0 3d 8b c1 dd 3d c2 f1 8d bd
       -0.17568356 0.109396584 0.10827931 -0.06930877
000110 cd 77 70 bd 87 05 3e 3c 10 56 80 3d 07 de 80 bd
       -0.058708 0.0115979975 0.06266415 -0.06292348
000120 ee 05 7b 3d dd 70 3f ba 22 05 0f bd 02 03 4c bd
       0.061284952 -0.000730289 -0.034917004 -0.049807556
000130 00 4c ba 3c b0 25 02 3d 5d 7d 92 3d e8 01 ff bc
       0.022741318 0.031774223 0.071528174 -0.031128839
000140 6a 50 b1 3d c8 6a a8 bd 14 04 ea 3b 01 5d 46 3d
       0.08657916 -0.08223492 0.0071415994 0.04842854
000150 64 42 90 bd 62 cf a3 3c af a7 8e 3d c9 5b 42 bd
       -0.07043913 0.019996349 0.06965577 -0.047450814
000160 71 d1 99 3c b5 62 e3 3d 0d 22 56 3d 8f 75 20 3d
       0.018776627 0.11102811 0.052278567 0.039174613
000170 59 f8 f8 bc 58 97 56 3e 81 5b 3c bd 3a 34 ce bd
       -0.030391859 0.2095617 -0.045985702 -0.10068555
000180 9a dd 23 3e 5d 4d df bd 7c 06 b8 3c 73 3f 2d bd
       0.16002503 -0.10903428 0.02246403 -0.042296838
000190 f1 5a 33 be bb fb f7 3d 0b f9 39 3d 48 a1 87 bd
       -0.1751516 0.12108561 0.04540352 -0.06622559
0001a0 f5 62 dd 3d 55 74 fb 3d 9f 27 f5 3d 2f 12 d1 bc
       0.1080989 0.12278048 0.11970448 -0.025521366
0001b0 52 2a 42 bd b2 d5 9a bd 71 05 8d bc e5 0e c3 bc
       -0.04740364 -0.075602904 -0.017214509 -0.023810813
0001c0 d6 13 0a be 84 1e d6 bd 19 f9 c6 3d ac df 7e bd
       -0.1348413 -0.10455039 0.0971548 -0.06222503
0001d0 15 a3 e1 bd 21 34 1c be cd 01 cb 3c c3 dd ab bd
       -0.110174336 -0.1525426 0.024781132 -0.08391907
0001e0 c8 01 8f 3c c4 bc 1f 3c 5e ed 1f 3d 2f c3 7d bc
       0.017456904 0.009749595 0.03904473 -0.01548843
0001f0 ca f2 1e 3d ed 00 fe b9 60 f1 e5 bd f2 f0 39 3d
       0.03880576 -0.00048447345 -0.11227679 0.0453958

layer4.weight f4 [128, 128]
000000 33 75 8d bd 80 11 ac 3d 09 43 87 3d d3 55 70 3d
       -0.069071196 0.08401775 0.06604583 0.0586756
000010 ef b8 91 3c b1 7e ac bd e0 8f 7f bd d4 e0 ab bd
       0.017788379 -0.08422602 -0.06239307 -0.08392492
000020 0f 87 6d 3c 21 16 29 3d 02 5e 56 bd d5 76 b5 ba
       0.0144975325 0.04128087 -0.052335747 -0.0013844619
000030 1c 6d 20 bd af d9 f5 3b 68 da 2f bc ba e9 2d bd
       -0.039166555 0.0075027565 -0.010733224 -0.042459227
000040 4b b3 04 3d 66 93 01 3c 1b 1f da 3b 3e 5d c3 3c
       0.03239755 0.007908678 0.00665654 0.023848172
000050 e4 5b 2d 3c f7 9b 16 bd 22 e5 ac bc 1e 92 75 bd
       0.01058099 -0.036769833 -0.021105353 -0.0599538
000060 e9 1f d5 3c d0 32 40 3b e3 0a 85 3d 03 91 3a bd
       0.026016193 0.0029327162 0.06496217 -0.04554845
000070 73 f7 ea 3c 32 91 71 3d 42 93 64 bd e6 6c 87 3d
       0.028682446 0.05897636 -0.0558045 0.066125676
000080 2f 10 05 bc 25 e4 01 bd 92 84 02 bd 86 71 23 bd
       -0.008121534 -0.031711716 -0.03186471 -0.039903186
000090 ff 94 1a bd 38 8a ae 3d c2 78 60 bd f8 7a 13 3d
       -0.03773975 0.08522457 -0.054802664 0.036005944
0000a0 a4 0b 00 bd 9d 6f c9 3c 58 bd 7c bd e0 27 9f bd
       -0.0312611 0.024589354 -0.06170401 -0.077712774
0000b0 66 5a cc 3d f3 1b 2d bd b7 d7 c0 3c 95 8c 56 3d
       0.0997818 -0.042262983 0.02354036 0.052380163
0000c0 18 73 7f 3c 1b 0a 34 3a 44 0f dc 3c 14 ec e5 3b
       0.015591405 0.0006867961 0.026862748 0.007016668
0000d0 7d e6 94 bd 30 52 98 bd 26 8e 48 3d 2a c0 48 3d
       -0.07270525 -0.07437551 0.04896369 0.049011387
0000e0 59 e4 e6 bc 0d ab 2a bd 66 42 b9 3d 1c 40 6a bc
       -0.028185057 -0.041667033 0.090458676 -0.014297511
0000f0 34 b3 2e bd de 75 38 bc a7 4f 29 bd f7 f6 f3 bb
       -0.04265137 -0.0112585705 -0.041335728 -0.007445212
000100 9e 4f a3 bd e2 57 37 bd e4 b5 6d ba 9e 30 3d 3b
       -0.0797417 -0.044761546 -0.00090679363 0.002886809
000110 f0 db e6 3c 3d 06 a3 3d 7f 69 5c bd bc 27 cf 3c
       0.028181046 0.07960174 -0.053811546 0.025287502
000120 59 cd 42 bd 23 8b 97 3a b8 89 09 3c 5f 88 a1 bd
       -0.047559116 0.0011561852 0.008394651 -0.07887339
000130 db fd fb 3c 74 59 0b bd 3d 5d aa bd 73 c7 22 3c
       0.030760696 -0.034020856 -0.08318565 0.009935248
000140 2e c7 b7 3c 77 c5 1c 3c 1d 02 9e bc 3a 7a 82 3d
       0.022433843 0.009568564 -0.019288117 0.06370969
000150 3c 53 12 3d 88 4b a3 bd 02 fd 82 3d 05 7f 87 bd
       0.03572391 -0.07973391 0.06395914 -0.06616024
000160 a8 23 9e 3d 68 82 af bd 42 77 74 3d f8 7b 0f 3d
       0.07721645 -0.08569795 0.059684046 0.035030335
000170 53 c9 91 bd af ee 88 3c 89 49 6f 3d a1 98 17 bd
       -0.07118478 0.016715376 0.058419738 -0.037010793
000180 be 25 a4 3d 6d 8e 27 3d 7b 6f 09 bc e6 53 3f 3d
       0.08015011 0.040907312 -0.008388395 0.04671087
000190 55 25 d4 3c 23 62 af 3d 2b 82 6e bc 91 6f 9c bd
       0.025896708 0.0856364 -0.014557402 -0.07638467
0001a0 71 c9 9a bd 43 da 4f 3c 3d f1 64 3d 15 cc 94 bd
       -0.07557953 0.012686315 0.055894125 -0.07265488
0001b0 40 6a 45 bb 01 ca 3f 3d ab 5a 80 bc 03 21 21 bd
       -0.0030123144 0.046823505 -0.015668234 -0.039338123
0001c0 cd ff 14 3d 44 44 b3 3c cf 8d 81 3d 90 bd 83 bd
       0.036376763 0.021883138 0.06325876 -0.064326406
0001d0 29 a7 1c bc 04 cc 93 bd a2 f2 b0 bc 7a 54 de 3c
       -0.009561338 -0.07216647 -0.021600071 0.027139891
0001e0 5f 31 6b bc e3 0d 3c 3d cc 1f 5e 3d 68 91 b4 bd
       -0.014355033 0.04591168 0.054229543 -0.088167965
0001f0 2c 78 73 bd 2c 36 a5 bd db 4e 55 bd 74 5e 89 3c
       -0.059440777 -0.08066973 -0.052077156 0.016768672
000200 a2 5f af bd fe 21 c1 bd f9 5b 57 bd ee ce 14 be
       -0.085631624 -0.094303116 -0.052577946 -0.14532062
000210 ef 7b 9a 3d 6d c8 ad 3d da d7 8b 3c 95 e5 63 3c
       0.0754317 0.08485494 0.0170707 0.013909717
000220 25 a6 ba 3d 54 54 41 3d 5d 93 51 bc 3d 2d 60 bd
       0.09113721 0.047199562 -0.012791482 -0.054730643
000230 8a 80 00 3d 37 80 c2 bd ff 01 c9 3c 93 17 a5 bd
       0.031372584 -0.09497111 0.024537085 -0.08061137
000240 85 75 ba bb 4f 54 f5 3b 3e e9 89 3b 2c 15 e9 3c
       -0.005690279 0.007486857 0.004208713 0.028452478
000250 70 18 96 3c e4 de 8b 3c d0 99 8e 3d 70 b5 b2 3c
       0.0183222 0.017074056 0.06962931 0.021815032
000260 0b 75 90 bd b0 5f 71 bd a2 a7 f1 39 49 e9 82 bc
       -0.07053574 -0.058929145 0.00046091998 -0.01598038
000270 f9 46 66 3d 7f 3b fc 3d 66 3b 99 bc fa 26 b3 bd
       0.05622003 0.123160355 -0.018705081 -0.087476686
000280 6b 30 b2 bd 55 81 89 3c 4a f6 ba bd be 46 11 3e
       -0.08700641 0.016785303 -0.09129007 0.14187142
000290 08 dd 90 3b d4 c9 93 bd 15 7a d4 3d da 3a 19 bd
       0.00442088 -0.0721623 0.10374848 -0.03740964
0002a0 e7 de 58 3d 30 a3 be bc 06 34 5e bc cb be 18 3d
       0.05294695 -0.023271173 -0.013562208 0.03729133
0002b0 99 7c 35 3d 20 73 fe bc 20 5e 7b 3d 8d 06 03 3d
       0.04430828 -0.031060755 0.06136906 0.03198867
0002c0 91 b1 72 3d 3a 56 a1 3d 18 56 66 bd 4e 56 7c bd
       0.05925137 0.078777745 -0.05623445 -0.061605744
0002d0 c3 28 1d be 13 53 4b bd 44 62 40 3d 32 e7 36 3d
       -0.1534758 -0.049639773 0.046968713 0.04465408
0002e0 72 c7 e3 bd 1f 22 a3 3d 36 95 fa bc be 89 bc bd
       -0.111220255 0.079654925 -0.030588727 -0.0920596
0002f0 ed e5 1b 3b 83 99 06 3c 78 4f 5e 3c 08 5a fa 3c
       0.002378817 0.008215311 0.0135687515 0.030560508
000300 92 bc 70 3c 5c dc 41 3d 25 f6 9d bd 6b 0e 53 bc
       0.014693396 0.04732929 -0.07712964 -0.0128818555
000310 24 c2 ca 3d 5e ce a7 3c 5d 8e 84 3c af 88 f2 bd
       0.09900311 0.020484146 0.016181165 -0.118424766
000320 db b3 30 3d f8 d4 e7 bd 1c 18 ba 3d 02 99 b8 3d
       0.043140274 -0.113199174 0.0908663 0.09013559
000330 ef 9f b7 bc 2a ee fe 3c 2a 06 8f 3d a1 26 b0 bd
       -0.02241513 0.031119425 0.069835976 -0.08601118
000340 d1 0d 71 bc de 4a 2f 3e a4 e3 36 bd 4a 20 0b bd
       -0.014712767 0.17118403 -0.04465069 -0.03396634
000350 2e 0e be 3d 95 b7 91 bd 72 17 c5 3d a8 c3 ea 3b
       0.09280048 -0.071150936 0.096236125 0.0071644373
000360 ef af 9c 3d 26 5c 10 bc 00 2e b1 3d 9f 43 dc bd
       0.07650744 -0.008811032 0.08651352 -0.10755085
000370 47 c6 e3 3d 56 44 d8 bc 63 5e e5 bd 4e fa 2c 3c
       0.11121803 -0.026399773 -0.111996435 0.010557724
000380 91 a6 8e 3d c4 e1 83 bd b4 1c 67 3d fd 56 7c 3d
       0.06965364 -0.06439546 0.056423858 0.061606396
000390 16 3e 8d bd cd da f1 bd 4e b1 50 bd 76 ca 5e 3c
       -0.068966076 -0.11809311 -0.05095034 0.013598075
0003a0 fa 59 70 bd b4 33 8c bc cc a4 bf 3d 63 08 bd bd
       -0.05867956 -0.017114498 0.093576044 -0.09230115
0003b0 7d 96 62 bc a4 a3 74 bd 73 1d 7c bd 8a e0 0e bd
       -0.0138298245 -0.059726372 -0.061551522 -0.034882106
0003c0 cf d9 47 3d 3d 8d b5 3d 73 0d fa bb 46 63 cd 3d
       0.048791703 0.0886483 -0.007630998 0.100287005
0003d0 01 d7 8d bd 14 d1 2b be d4 fd b5 3d 2c 35 60 3d
       -0.06925774 -0.16778976 0.088863045 0.05473821
0003e0 c9 b1 07 3d 9d 9b 88 bd 81 87 7e 3d c2 6d 9d 3d
       0.033128534 -0.06670306 0.062140945 0.0768695
0003f0 60 37 0d bd 32 68 9f bd a4 fd b1 3c b3 3f a8 3d
       -0.034476638 -0.077835456 0.02172739 0.08215275

layer4.bias f4 [128]
000000 f8 c2 64 bd 66 6f d5 3d e5 62 61 bd 9e 1d e5 3b
       -0.05585 0.10421638 -0.055025954 0.006992056
000010 d9 83 bf 3d ab e3 07 bc 69 de 18 3e 89 31 82 bb
       0.0935132 -0.008294026 0.14928593 -0.00397319
000020 b9 8b 27 3c 49 5a db bc c0 b3 b3 bc 7d f8 0a 3e
       0.010226184 -0.02677645 -0.021936297 0.13571353
000030 0f 85 39 3e d1 15 9f 3d 88 4a db 3d 76 e9 81 3d
       0.18117164 0.07767833 0.10707575 0.06343357
000040 24 6e 9f 3d 1c d1 85 bd af 57 cc 3d 45 8d bf 3d
       0.077846795 -0.06534025 0.09977662 0.09353117
000050 c3 27 83 bd 66 f2 9b 3d 31 d9 94 3d d9 b1 ac bd
       -0.06404068 0.07614593 0.072679885 -0.08432359
000060 ab 8b 9d bd 88 19 2b be aa 76 3f bd d1 aa b6 bd
       -0.07692655 -0.16708958 -0.046744026 -0.089192994
000070 cb 88 7f 3d 31 ab 63 bd 77 46 9c bd e4 7e fe ba
       0.062386315 -0.055583183 -0.076306276 -0.0019416478
000080 f3 3a 6a 3c 5b f2 c2 bc 78 d2 51 3d 4b 49 cd 3b
       0.014296281 -0.023797205 0.05122611 0.0062648407
000090 85 8d 5a 3d 1a be b2 bd a2 ff 4d bd 16 c9 09 3e
       0.05335762 -0.08727665 -0.05029262 0.13455614
0000a0 b6 a5 14 3e df 39 1b 3d 26 05 b0 bd f7 a5 ad 3d
       0.14516339 0.037896987 -0.08594732 0.08478921
0000b0 a1 03 c6 bd 4c 2a c9 3c 8b 68 08 be db 57 4b bd
       -0.09668661 0.024556302 -0.1332113 -0.049644332
0000c0 d2 dd 97 3d 30 ae b6 3b 73 d0 95 bc 25 41 21 bc
       0.07415356 0.005574964 -0.018287873 -0.009842192
0000d0 45 39 90 bc cb ac b4 3d 32 30 83 bd 90 1e 3e 3d
       -0.017605433 0.0882202 -0.06405677 0.046415865
0000e0 3a 1c e8 bd d0 e1 19 3d c4 03 93 3e 93 b9 52 3d
       -0.11333509 0.037568867 0.2871381 0.05144651
0000f0 01 9f cc 3c f7 2d 19 bd 7c cb 28 bd 3b 7d a9 3d
       0.024978163 -0.03739735 -0.041209683 0.08275839
000100 1c 79 d9 3d 76 99 17 bd 28 11 ef bc c4 bc 18 bd
       0.10618803 -0.037011586 -0.029182985 -0.037289396
000110 89 ac 24 3d 50 49 8d bd f8 51 a3 bd f5 38 09 3e
       0.040203605 -0.06898749 -0.07974619 0.13400634
000120 27 98 ea 3c f8 87 b3 bd 1f 7e 5d bd 73 7d 16 bd
       0.028637005 -0.08766168 -0.054075357 -0.03674073
000130 ec 59 19 3e 10 9c ca bb 28 9c b1 bd 58 b0 50 3d
       0.14975709 -0.006183155 -0.086723626 0.050949425
000140 37 91 95 bb 88 9f 9a bd b6 9a c4 3d d5 d9 69 bc
       -0.00456443 -0.075499594 0.09599821 -0.014273127
000150 45 46 7c 3d 70 b7 b7 3c ec 2e 9d 3d bd 82 21 bd
       0.06159045 0.022426337 0.07674965 -0.039431322
000160 52 25 4d bd 9a 18 1b bd 7f 6f 9a 3c e4 25 af bd
       -0.05008442 -0.03786526 0.018851994 -0.08552149
000170 bf 96 7a 3d b8 c8 53 bd f5 f9 03 3d 24 38 a6 bb
       0.06117892 -0.051705092 0.0322208 -0.0050726105
000180 46 53 b3 3d 03 4b a3 3d 53 fd 63 bd fc 61 51 3d
       0.087561175 0.07973292 -0.05566151 0.051118836
000190 42 58 8f 3b 87 cd b8 3d 1a 33 a4 3d 22 50 88 bd
       0.004374535 0.09023576 0.08017559 -0.06655909
0001a0 a0 5f aa 3d bd 93 40 bd 55 3b ef bd 74 b0 3b 3d
       0.0831902 -0.047015894 -0.116812386 0.045822576
0001b0 cc 2a 05 bd 1f 1f 1e 3d 48 66 f7 3b 5a b3 95 bd
       -0.032511517 0.0386039 0.0075500347 -0.07309599
0001c0 e4 d0 8b bc 02 b2 78 3d 81 04 ad 3d b1 ad 83 bd
       -0.01706738 0.060716636 0.08448125 -0.064296134
0001d0 5b 25 25 3d bf 80 47 bd b2 4d 9f bc 50 b9 b5 3d
       0.040318828 -0.048706766 -0.019446228 0.08873236
0001e0 6f a8 51 3c f9 d1 c7 bd 29 ce 82 3d 50 54 18 bd
       0.012796505 -0.09756846 0.06386978 -0.03718978
0001f0 68 62 7a 3d 36 e1 d3 3d aa 95 6c 3d 51 84 74 3d
       0.061129004 0.1034569 0.05775992 0.0596965

input_norm.weight f4 [8]
000000 bd 87 b2 3f 4f 06 2b 3f bf f8 81 3f 17 10 79 3f
       1.3947674 0.668065 1.0154036 0.97290176
000010 9a 16 61 3f 5a de 84 3f 81 1a 58 3f 11 47 70 3f
       0.8792511 1.0380356 0.8441544 0.9385844

input_norm.bias f4 [8]
000000 20 99 21 3f 0d 33 8c 3e f9 99 13 3f f3 52 f8 3e
       0.63124275 0.273827 0.5765682 0.48500785
000010 75 1a 17 3e 6f 30 f9 3e f4 0c 70 3e 86 be 81 3e
       0.14756186 0.48669764 0.23442441 0.2534067

input_norm.running_mean f4 [8]
000000 9b 0f 84 40 a3 fb 92 3c 31 1b 9a bf bb ee 2d 40
       4.126905 0.017942255 -1.2039548 2.717696
000010 11 28 80 3a 7c 2a bd 3c 92 48 23 be 5b 32 a7 3e
       0.0009777566 0.023091547 -0.15945652 0.32655606

input_norm.running_var f4 [8]
000000 c0 b7 8f 40 e7 16 e5 39 74 29 0d 40 bc 3b 45 40
       4.4911804 0.00043695347 2.205655 3.081771
000010 59 e7 73 3c 7b cf 60 3a 06 6d 30 3f 16 fe 60 3e
       0.014886701 0.0008575839 0.68916357 0.21971926

norm.weight f4 [128]
000000 38 94 52 3f ed e4 69 3f 04 1b 66 3f a2 83 56 3f
       0.82257414 0.9136494 0.8988497 0.83794606
000010 4c 25 6c 3f 60 0f 50 3f b3 a8 65 3f 2b 21 57 3f
       0.9224441 0.8127346 0.8971054 0.84034985
000020 c7 0d 5a 3f fa e5 50 3f 3d 1d 74 3f fb 88 6b 3f
       0.8517727 0.81600916 0.95357114 0.9200589
000030 77 44 63 3f a9 4c 5d 3f 4e ac 49 3f 40 e2 65 3f
       0.88776344 0.864451 0.7877854 0.89798355
000040 f4 ef 4a 3f 92 77 5a 3f 6f e4 52 3f e7 67 69 3f
       0.7927239 0.853387 0.8237981 0.9117417
000050 4e 58 57 3f dd bc 5c 3f 36 cf 6a 3f 28 6b 63 3f
       0.8411912 0.8622568 0.9172243 0.8883538
000060 de 0b 4f 3f 11 08 71 3f 56 f3 50 3f 7d 1f 44 3f
       0.8087748 0.94152933 0.816213 0.7661055
000070 cf 50 55 3f 4c 95 45 3f c4 cc 63 3f 59 d8 4d 3f
       0.8332643 0.77180934 0.8898432 0.80408245
000080 61 7d 50 3f 7c 1e 5b 3f 43 e6 61 3f 21 21 61 3f
       0.81441313 0.8559339 0.88241976 0.87941176
000090 67 94 50 3f 99 93 6f 3f e2 3b 59 3f e3 44 40 3f
       0.81476444 0.9358459 0.84857 0.7510511
0000a0 85 79 88 3f cf 3c 5b 3f 5f 95 bb 3f 60 d0 5c 3f
       1.0662085 0.8563966 1.465496 0.86255455
0000b0 49 e9 47 3f 0e 9b 66 3f 51 57 72 3f 9b 35 47 3f
       0.7809034 0.90080345 0.94664484 0.7781617
0000c0 de d3 5a 3f 77 8b 4f 3f 41 2b 73 3f 20 8b 54 3f
       0.85479534 0.8107218 0.94987875 0.8302479
0000d0 b5 44 58 3f 42 16 70 3f 7b 53 55 3f db 8e 77 3f
       0.8447984 0.9378396 0.83330506 0.96702355
0000e0 85 25 58 3f a4 3d 54 3f 38 3a 7b 3f 9d 26 61 3f
       0.8443225 0.82906556 0.9813571 0.87949544
0000f0 c8 07 5a 3f 21 19 5b 3f 96 68 71 3f e5 ca 85 3f
       0.85168123 0.8558522 0.9430021 1.0452543
000100 50 90 6c 3f 40 67 57 3f db 8b 5f 3f 94 f1 5a 3f
       0.92407703 0.8414192 0.8732278 0.8552487
000110 a1 a4 49 3f 06 9f 70 3f fe 13 6c 3f 27 33 5d 3f
       0.7876683 0.9399265 0.92218006 0.8640618
000120 07 26 53 3f fe 37 45 3f 9e 32 58 3f 83 23 56 3f
       0.824799 0.7703856 0.84452236 0.83647937
000130 fd 63 67 3f d8 1b 5b 3f a1 0e 53 3f 57 49 6f 3f
       0.90386945 0.8558936 0.82444197 0.9347128
000140 59 2a 5a 3f 87 13 62 3f 1f e1 4e 3f a1 cd 4f 3f
       0.8522087 0.88311046 0.8081226 0.8117314
000150 cf 43 57 3f 16 2f 4e 3f 02 93 88 3f 2f d5 55 3f
       0.8408784 0.805406 1.0669863 0.8352842
000160 a7 e4 56 3f 42 4e 47 3f cd 32 51 3f a1 85 5d 3f
       0.83942646 0.77853787 0.8171814 0.86532027
000170 cd 09 56 3f ff 12 57 3f 9c 10 48 3f b7 37 6a 3f
       0.83608705 0.8401336 0.78150344 0.91491264
000180 f9 21 5b 3f cd 18 66 3f b0 69 63 3f 1d 3b 59 3f
       0.85598713 0.89881593 0.8883314 0.84855825
000190 52 b8 5b 3f c7 43 64 3f 84 d0 4c 3f 98 b0 5e 3f
       0.85828125 0.8916592 0.8000567 0.8698821
0001a0 06 c5 5a 3f e7 aa 62 3f e4 a6 68 3f 96 1a 69 3f
       0.85456884 0.88542026 0.90879655 0.9105619
0001b0 e6 fa 6e 3f e7 bd 5e 3f 5f 99 58 3f e4 cb 54 3f
       0.9335159 0.8700852 0.84609026 0.8312361
0001c0 70 53 69 3f 1a 8d 56 3f 3b 02 56 3f 2a 89 54 3f
       0.9114294 0.83809054 0.83597153 0.83021796
0001d0 37 59 4b 3f 5e 25 5b 3f 8d c8 59 3f 36 d2 48 3f
       0.79433006 0.8560389 0.8507164 0.78445756
0001e0 fe f9 5a 3f a8 59 5c 3f 06 fe 54 3f 72 f0 4c 3f
       0.8553771 0.86074305 0.8320011 0.8005439
0001f0 d7 74 53 3f 8a e6 67 3f a1 32 53 3f 82 94 67 3f
       0.8260016 0.9058615 0.8249913 0.9046098

norm.bias f4 [128]
000000 bb be 3b 3d de c1 81 3b 90 f2 02 bb 99 b1 51 3d
       0.04583619 0.0039598783 -0.0019981004 0.05119476
000010 cb 1c 2c 3e 57 97 a8 3e 34 82 d0 bb aa db 57 3c
       0.16807859 0.32927963 -0.0063631777 0.013174931
000020 74 13 7e 3e 76 62 d2 3d 9a 33 d6 be 72 f4 e8 bd
       0.24812108 0.10272686 -0.41836244 -0.11374749
000030 2c da 0c be d5 b1 16 be f4 cd af 3e 75 19 e8 3d
       -0.13755101 -0.14716275 0.34336817 0.113329805
000040 b6 10 c3 bd a1 a6 35 3e 89 9b 10 3e a7 9c 23 be
       -0.09524672 0.17739345 0.14121832 -0.15977727
000050 18 c6 e7 3d 08 bc 68 bc 1b 87 d9 bd ef aa c8 3d
       0.1131708 -0.014204986 -0.106214724 0.09798228
000060 e1 3f 1f 3c 0e d1 a9 3d 24 81 8e bd c3 03 b4 bd
       0.00971982 0.08291827 -0.06958225 -0.0878978
000070 63 c0 98 bd f0 49 35 3e 25 90 30 3e ab 31 35 3c
       -0.0745857 0.17703986 0.17242487 0.011059205
000080 1c b6 79 3e 9a 2a 98 3d 0f 35 cb 3d 6a a2 4a bc
       0.24385875 0.074300006 0.099222295 -0.012367824
000090 9f df d9 bd 10 c2 4b 3e cd b1 89 3e 7f 17 1f bd
       -0.106383555 0.19898248 0.26893464 -0.038840767
0000a0 f5 f1 93 bd e4 b0 eb 3b 44 a9 77 3d 1f 02 66 3c
       -0.07223884 0.007192718 0.06046416 0.014038592
0000b0 e3 60 a1 be 4a 6d ad 3d 60 47 ea 3d 72 fb 8f 3e
       -0.3151923 0.08468111 0.11439395 0.28121525
0000c0 0b f1 7a 3d db d7 cb be d2 29 67 bd 36 55 a8 3e
       0.061265033 -0.39813122 -0.056436367 0.3287751
0000d0 9c 04 45 3e 62 71 cb ba 95 d3 53 3d 78 8d 5d 3f
       0.1924004 -0.0015521462 0.051715452 0.8654399
0000e0 38 0d 6c 3e af 46 d3 bd 61 0e 06 3e 4d 46 f0 bc
       0.23051918 -0.10316216 0.13091423 -0.029330397
0000f0 40 2a cc bd 73 ca 46 3e dc ad e2 3d 76 bb ca 3d
       -0.09968996 0.19413166 0.11068317 0.098990366
000100 a4 56 80 bc 32 5e 82 3e 28 8a 87 3c fa 30 db 3d
       -0.015666313 0.2546249 0.01654537 0.10702701
000110 45 9f 9a 3e 54 e2 a1 bd ec 80 91 be ed 68 5a be
       0.30199638 -0.07904497 -0.28418672 -0.21329089
000120 27 2d 4f 3e 2b d8 fb 3d b9 34 26 3d 1d 0d 38 be
       0.20232068 0.1229709 0.040577624 -0.17973752
000130 35 6b b7 3d 76 33 0c 3c e4 bf ce bd 09 c8 5e 3e
       0.08955995 0.008557191 -0.10095194 0.21755995
000140 bb 7f 29 bd 6d f6 b5 bd b4 e5 90 3d d9 35 3b be
       -0.04138158 -0.088848926 0.070750624 -0.1828226
000150 fd 0f 99 3b 3b 15 d7 bc 60 ea 48 be 68 91 af 3e
       0.0046710954 -0.02625524 -0.19620657 0.34290624
000160 28 98 b8 3c b1 e6 61 be 9c b4 dc 3c c9 c1 2d 3e
       0.022533491 -0.22060658 0.02694159 0.16968454
000170 68 4f 51 3c 85 20 27 bd 84 45 68 be 82 33 9c 3d
       0.01277528 -0.040802497 -0.22682768 0.07627012
000180 55 57 a9 3d ad 3f aa 3d 2b 4f 80 3e 48 55 28 3e
       0.082686104 0.083129264 0.250604 0.16438782
000190 3a 9d 16 bd 4f 52 d7 3d f5 6d 1f be 76 f9 2e be
       -0.036771037 0.10513746 -0.15569289 -0.1708735
0001a0 be 4f 88 3e 9d c9 77 3d 50 ec 7f bd 8c f4 b2 bc
       0.26623338 0.060495008 -0.062481225 -0.021845125
0001b0 f8 5d 30 3e 57 2c 54 3d 5d c4 1b bc 87 07 14 3e
       0.17223346 0.0518001 -0.009507266 0.14455996
0001c0 05 a3 53 3d fe aa 68 be a9 47 4e 3e 2c 5c 77 bb
       0.05166914 -0.22721478 0.20144524 -0.0037744148
0001d0 41 c1 98 3b 59 cb a3 3a 95 b5 4b bd c1 2f 64 be
       0.0046617095 0.0012496515 -0.049733717 -0.22283842
0001e0 2e 52 69 3e a5 cd 41 3e 63 76 0e bd 4a 7c 38 3d
       0.22785255 0.18926103 -0.03478087 0.045040406
0001f0 14 15 c5 bd 0c 10 18 3e 1c f5 1b 3e e6 e3 42 3b
       -0.09623161 0.14849871 0.1523022 0.0029737889
