.previous_experiments/car_arriving_trials/with learning rate/one_scenario_lr_final_model_-0.32_0.94.pt (torch, 226913 bytes, 22 tensors)

layer1.weight f4 [128, 8]
000000 35 3c 28 3e 35 4a a8 bd 9b bc bf 3c df 58 53 3e
       0.16429217 -0.08217279 0.023405364 0.2063937
000010 62 61 bb be 55 98 60 3e aa 34 4b bd 5b bf 4e 3e
       -0.36597735 0.2193311 -0.04961077 0.20190184
000020 3e 5b de 3c 42 27 91 bc 56 41 6d 3b e6 d2 39 3c
       0.027143117 -0.017718915 0.0036202273 0.011341786
000030 fc 5f a1 3c de 06 e0 bd d1 61 6c bc 91 6e 2a bc
       0.01969909 -0.1093881 -0.014427618 -0.010402338
000040 64 e1 64 3d b3 ef ac 3c 33 15 b3 3e 09 4d 02 3e
       0.05587901 0.021110391 0.3497711 0.12724699
000050 3c 08 91 bd 23 94 4c be 63 8f ce bd f7 47 00 be
       -0.07081649 -0.19978385 -0.100859426 -0.12527452
000060 24 a5 10 be 55 a9 27 3b 43 99 79 3e 75 ed 6d 3e
       -0.14125496 0.0025583107 0.24374871 0.23235114
000070 ff 4d 99 be f3 4d 6e 3e fb 3b ea 3d cc 96 b3 3e
       -0.2994232 0.23271923 0.114372216 0.35075986
000080 d4 a2 4e 3e 1a 6b 95 be ab 71 99 be e7 3d 25 be
       0.20179302 -0.29183275 -0.29969534 -0.16136895
000090 b6 cf 81 3e ff 83 6c bd 52 e8 da 3d cf 61 61 be
       0.25353783 -0.05774307 0.10688843 -0.22009967
0000a0 88 42 ad 3e e9 30 0d be 20 fa 8e 3e a3 b2 ac 3c
       0.33839822 -0.13788189 0.27925205 0.021081274
0000b0 c9 df f5 bd 10 92 68 3e 27 9e 2b be da 44 c7 3d
       -0.12005574 0.22711968 -0.16759549 0.09729929
0000c0 f8 7b 05 be 1b 6e 2f bd 84 66 92 be 11 70 a8 bd
       -0.13035572 -0.042829614 -0.28593838 -0.082245
0000d0 40 06 69 3e a5 a8 b5 bd ec 76 b0 3e b7 26 a0 3e
       0.2275629 -0.08870057 0.3446573 0.31279537
0000e0 6c 0d e6 3c c3 91 51 be 06 c6 6c 3e d9 2f 02 3e
       0.028082572 -0.2046576 0.23122415 0.12713565
0000f0 07 27 22 be 18 b8 85 3e d3 2e 2c 3e 4f f1 b4 3e
       -0.158352 0.26117015 0.16814737 0.35340354
000100 83 1f 2d be 37 c5 20 be 1f 4e 9d bd b7 73 8d 3d
       -0.16906552 -0.15700231 -0.07680916 0.069068365
000110 0f 2e ad be 72 7e 50 be 02 fb 40 3e 08 a2 4b 3c
       -0.33824202 -0.20360735 0.18845752 0.012428768
000120 cf d5 63 3e f3 6f d7 3c 02 48 aa 3d 30 38 2c 3d
       0.2224953 0.026298499 0.08314516 0.042045772
000130 ce e7 56 3d 2c d0 28 3e 10 ca aa be ee 40 4f 3e
       0.05246716 0.16485661 -0.33357286 0.20239612
000140 70 2c 6d be 75 31 94 be 86 bd 98 bd c4 33 2d bd
       -0.23161483 -0.28943983 -0.07458024 -0.042285696
000150 90 cb 6e 3e 47 2c 4c be 18 0a b3 be 83 ab 68 3e
       0.2331984 -0.19938765 -0.34968638 0.22721677
000160 4b cb fc bc ec 34 73 3d ff 05 0c ba 20 8a 75 be
       -0.030858656 0.059376642 -0.00053414697 -0.23978472
000170 06 71 ca bb 6d e0 24 3d c3 5f ea bd a3 c8 26 be
       -0.006178024 0.04025309 -0.11444046 -0.16287474
000180 00 af 82 3d 23 9a cb 3d 04 e4 48 be 34 8a b8 bd
       0.06381035 0.099415086 -0.19618231 -0.09010735
000190 52 3a ba 3e 51 d6 ff bb d3 ee 52 3e cc 4f 0f 3d
       0.3637262 -0.007807531 0.20598917 0.03498821
0001a0 59 7b 61 be 94 59 85 be d0 84 a2 3e 49 43 c0 3d
       -0.2201971 -0.26044905 0.31741953 0.093878336
0001b0 c6 f1 92 3e 49 7b ec 3d 23 72 0d 3e 91 5b 8d 3e
       0.28700083 0.11546952 0.13813071 0.27608922
0001c0 79 57 c8 3e ac 58 0c be 8a f9 20 3d 92 11 b4 3e
       0.39129236 -0.137057 0.03930048 0.35169655
0001d0 04 02 2a 3e 2c af 88 3e 80 0e de bd 79 2b 92 be
       0.16602331 0.26696146 -0.108426094 -0.28548792
0001e0 49 43 37 be 7b 6f 53 3c ce 37 ba 3e d2 82 64 be
       -0.17896761 0.012904997 0.363707 -0.22315529
0001f0 7b 1c 23 3e a1 2a 50 be c6 ec b0 be 0c 73 bb bd
       0.15928833 -0.20328762 -0.34555644 -0.09152803
000200 bf 5e 16 3e 0e b2 ab 3e 66 ea 4c be 49 3d 20 3e
       0.1468458 0.33534282 -0.20011291 0.15648378
000210 bb f1 a9 3e 32 03 83 3e 09 1d 72 3e 55 5d 70 3e
       0.33192238 0.25588375 0.23643889 0.23473103
000220 4e 9a 1a 3e 3f f4 7c 3d b6 c3 5b be e3 79 d5 be
       0.15097925 0.06175637 -0.21461377 -0.41694555
000230 cf b5 ac bd e6 8b 23 bd 4d c4 80 be e9 78 b1 3d
       -0.08433115 -0.03992834 -0.25149766 0.0866564
000240 da c0 0f 3e 38 d1 7c bc 7b 91 4f 3e d0 dd 23 3e
       0.14038411 -0.015430741 0.2027034 0.16002584
000250 0b b7 1f 3e 8c 3d 78 3e b4 4f d9 bd 08 df b4 3e
       0.15597169 0.24242228 -0.10610905 0.3532641
000260 b9 77 ae bc b5 50 c7 bc 70 b5 bd be 16 b3 86 be
       -0.021297323 -0.024330476 -0.37052488 -0.26308507
000270 18 86 28 be ea 07 05 be ff 57 89 3e e3 f2 d0 bd
       -0.16457403 -0.129913 0.26824948 -0.10202577
000280 f7 66 a4 be 6b 50 13 3e 2a 5f d7 3d 01 b6 91 3e
       -0.32109806 0.14386146 0.10516198 0.2845917
000290 fe e3 d7 bd 2c 3c e9 3d 91 cb b0 bd 25 d9 86 bd
       -0.10541533 0.1138843 -0.08632577 -0.06584386
0002a0 4b 55 9c be 12 56 08 be c8 37 aa bd 20 c9 17 3e
       -0.30533823 -0.13314083 -0.08311421 0.14822817
0002b0 c4 db 8e 3d af cd af 3d d7 77 b9 3e 8d a7 ab 3e
       0.06975511 0.08584153 0.36224243 0.3352627
0002c0 da 12 91 3c 17 62 cb bd f3 d9 83 be 93 67 b2 3e
       0.017709184 -0.099308185 -0.2575222 0.34844646
0002d0 e7 15 3c bd 03 5d af bd 81 5f 6f be e1 db 31 be
       -0.045919325 -0.085626625 -0.23376276 -0.17369033
0002e0 35 f8 87 be e8 7c 8d 3e 8f f1 84 be 58 be b0 be
       -0.26556554 0.27634358 -0.25965545 -0.3452022
0002f0 3c be f1 bd 1a 1f 36 be 79 83 47 3d 81 24 1c be
       -0.118038625 -0.17785302 0.048709366 -0.152483
000300 23 82 06 be 6f 26 82 3d cc 4e 90 3e 1d da 35 be
       -0.1313558 0.06354987 0.28185117 -0.17758985
000310 fe 51 12 3e 2d e9 a6 3e 9d 07 b1 3e 33 09 6d be
       0.1428909 0.32599774 0.3457612 -0.2314804
000320 62 90 4b 3e 22 bf 30 be 97 ec 88 3e 02 d3 c9 bd
       0.19879296 -0.17260411 0.26743004 -0.098547
000330 e8 da 95 3e 5c 37 50 3d fb 81 ab 3a 4e 3e 82 3c
       0.29268575 0.050834045 0.0013085002 0.01589885
000340 ac 88 9a 3d 48 8d 45 3e 1a 7b 28 3d 38 4f e3 3d
       0.07545599 0.19292176 0.041133024 0.11099094
000350 b8 0a a0 be 31 d3 86 3e 6c 34 86 3e 34 01 8f 3e
       -0.31258178 0.26333 0.2621187 0.27930605
000360 d2 7d c1 3e 69 c4 78 be 27 f3 e3 bd 96 4f c6 3e
       0.37791306 -0.24293675 -0.11130362 0.38732594
000370 4a 06 2b be 02 16 4c 3e 31 4e b9 be ca 47 6e be
       -0.16701618 0.1993027 -0.36192468 -0.23269573
000380 e6 f2 80 3e 53 77 67 be e5 9a e7 bd d2 b4 4b 3e
       0.25185317 -0.22604112 -0.11308841 0.19893196
000390 99 1e a9 3e c1 47 9a 3e 54 c0 a9 bd 31 45 8a be
       0.33031157 0.3013287 -0.08288637 -0.27005914
0003a0 2e 92 bf 3e 76 58 21 3d b1 00 b7 bd 44 b1 bb 3d
       0.37416214 0.039391004 -0.08935679 0.0916467
0003b0 61 ab 5c be 18 22 7c 3e 34 57 6e 3e c1 ef aa be
       -0.21549751 0.2462238 0.23275453 -0.33386043
0003c0 e5 ca c0 be 9e 06 ba 3c e7 2e 35 3e 8a 71 35 3d
       -0.37654796 0.022708233 0.17693673 0.044297732
0003d0 93 a5 02 be ee 95 97 3c a5 ba a3 be 76 58 66 be
       -0.12758474 0.01850411 -0.31978336 -0.22494683
0003e0 84 2c 3d be dd 87 88 3e 50 34 a9 3e ce 90 08 be
       -0.18474013 0.26666155 0.33047724 -0.13336489
0003f0 56 de 20 3c fd 61 fc 3d 0a aa 99 3d 5a aa 75 be
       0.009818634 0.12323377 0.075031355 -0.23990765

layer1.bias f4 [128]
000000 6b 6d 7c 3d 92 93 fe bd f0 36 5b 3d 4b 88 2a be
       0.061627787 -0.124304906 0.05351919 -0.16653554
000010 eb 5e dd be f3 ea 03 3d b5 a0 19 be 60 f2 42 be
       -0.4323648 0.032206487 -0.15002711 -0.19037771
000020 87 29 74 3e 95 98 7f 3d 74 cf e1 3d 00 21 b4 be
       0.23843966 0.062401373 0.11025897 -0.35181427
000030 71 78 7d be 0b fb dd 3d 32 38 5e be 4e 6a 4d 3d
       -0.24752976 0.10838898 -0.21701124 0.05015021
000040 68 93 7f be 83 f1 65 3e 8c 7a 58 be e7 2d 88 3e
       -0.24958575 0.2245541 -0.21140498 0.2659752
000050 94 d0 99 3e 48 bc 93 3e 5e 7e 76 3e 9e d8 72 bc
       0.30041945 0.28854585 0.24071643 -0.014822153
000060 ec e7 05 bd 1d 67 8c bd a6 6e 54 be 54 d9 84 be
       -0.03269188 -0.06855605 -0.20745334 -0.25947058
000070 4b 8e aa 3e 9b 1e 1e 3d 78 a7 e0 3d f7 63 27 3d
       0.33311686 0.038603406 0.10969442 0.04086682
000080 be 2c fd 3d 8a cb 83 be 29 dc 86 be f0 16 6f 3e
       0.123620495 -0.25741225 -0.26339844 0.23348594
000090 68 e7 86 bc 15 ee 29 3d 7a 5b bd be 9e a2 8c bc
       -0.016467765 0.04148682 -0.36983854 -0.017167386
0000a0 2d c4 92 be b1 b7 76 bd e6 49 8c be 33 bd 7e be
       -0.28665295 -0.060233776 -0.2740013 -0.24876861
0000b0 ed 5d 89 be 42 c3 43 bc a4 56 9c 3e 7f c9 8d 3e
       -0.26829472 -0.011948409 0.30534852 0.27692792
0000c0 33 ac 03 be 20 c9 84 bd b4 28 d9 be fd e3 9a be
       -0.12858658 -0.06483674 -0.42413867 -0.30252066
0000d0 8e cf 80 bd 1a e1 5c 3e 37 67 df bd 9b 34 09 bd
       -0.06289588 0.21570244 -0.109083585 -0.033497434
0000e0 f0 cc bc 3e fd 76 31 3d 5c 52 7c 3e 4b be 81 3e
       0.36875105 0.043326367 0.24640793 0.25340495
0000f0 06 54 9b 3e 3c e7 32 3d c4 ac 90 be 4e ff 75 be
       0.30337542 0.043677554 -0.2825681 -0.24023172
000100 2a 81 94 be d1 34 8a 3e 1a 3d fe 3d 1f da 0f 3e
       -0.29004794 0.2699342 0.12413998 0.1404805
000110 5c 95 bd be 3b c7 75 be 11 8d 8c 3e 6d 71 e7 3b
       -0.37028015 -0.24001782 0.27451375 0.007063082
000120 e2 79 aa be f5 97 28 bd 36 9a cd bd 31 5f 5a 3d
       -0.33296114 -0.041160543 -0.10039179 0.053313438
000130 36 0b 22 3e 66 9d 17 3e 8b cc 8a be 30 53 62 bd
       0.15824589 0.14806136 -0.2710918 -0.055255115
000140 d7 b4 3c be cd 31 6f 3e 44 3e 0e 3e 5a d2 3a 3e
       -0.1842836 0.23358841 0.1389094 0.18244305
000150 4e b9 99 3e 1f 2d 67 3e f4 5f ef be 04 a9 15 3e
       0.3002419 0.22575806 -0.46752894 0.14615256
000160 b3 82 24 be 1f 90 51 3d d8 f0 03 bd 05 0f 9f 3e
       -0.16065483 0.051162835 -0.03221211 0.31066146
000170 cf 22 83 be ee bb 53 be bc 16 4f bd 41 d2 90 3d
       -0.25612494 -0.20677158 -0.05055879 0.07071353
000180 db a0 8a 3e f0 e3 89 3e 1a d7 78 3e c4 88 bb 3d
       0.27075848 0.26931715 0.24300805 0.09156945
000190 94 63 1e bd 99 06 a3 bd 09 ee 13 be be 14 0c 3d
       -0.038669184 -0.07960243 -0.14446272 0.03419947
0001a0 a6 47 95 be 33 bb 54 3d 75 f7 4d 3e 70 88 8a 3e
       -0.29156226 0.05193634 0.20113929 0.2705722
0001b0 62 44 c7 be 1c 26 89 3e 6b 86 7b be a3 87 72 3b
       -0.3891936 0.26786888 -0.24562995 0.0037007115
0001c0 9f d2 7e 3e 8b f5 6b 3e 2e e8 0d be fb 04 35 3e
       0.24885033 0.23042886 -0.13858101 0.17677681
0001d0 a6 3b 97 be fe 8a a9 3e d3 a5 af 3e ac ea c0 bc
       -0.29537696 0.33113855 0.343062 -0.0235494
0001e0 f1 cb 79 3c 10 f9 1d be 99 d3 63 be 0f 89 b5 bd
       0.015246377 -0.15427041 -0.22248687 -0.088640325
0001f0 92 ba 9a bc 1b 28 b3 be 66 39 66 be 53 e4 b0 bd
       -0.018887792 -0.34991536 -0.22482833 -0.086372994

layer2.weight f4 [128, 128]
000000 b8 34 40 bd 06 4a 45 bd d0 d4 92 3b 39 15 ca bc
       -0.046925277 -0.048166297 0.0044809356 -0.024668323
000010 1f 8e c2 3d f3 32 8b bc 32 e0 1d bd 10 6d 79 bc
       0.09499764 -0.016992068 -0.038543887 -0.015223756
000020 65 53 a7 bd 29 74 5c 3d e8 29 91 3d f5 c9 35 bd
       -0.08170203 0.053821716 0.07088071 -0.044382054
000030 02 d4 df bc 2c b0 b5 3d 39 a5 56 bd 74 85 c1 3c
       -0.027322773 0.08871493 -0.052403662 0.023623206
000040 b3 5c 3b bd 82 9f 85 bd 6a b0 0f 3c 42 36 3b bd
       -0.0457427 -0.06524564 0.008770088 -0.04570604
000050 d6 dc 75 3d 9a fc 82 bc 14 f8 38 3c 87 db 49 bd
       0.06002506 -0.01598959 0.011289615 -0.049281623
000060 47 a5 2c 3d 57 d9 b7 3d 93 80 c2 3b b7 7c 40 bd
       0.04214981 0.08977001 0.0059357374 -0.046993937
000070 f4 a6 93 bd a6 d3 d0 3d fc 08 18 3d 70 68 28 3d
       -0.07209578 0.10196619 0.037117943 0.041115224
000080 95 d1 1a 3d 3d c4 62 3d ac 43 2c 3d 15 79 29 3d
       0.03779753 0.05536293 0.042056724 0.04137524
000090 2f 54 59 3d 1a b6 56 3c 98 a9 a9 3d 80 01 58 3d
       0.0530588 0.01310494 0.082843006 0.052735806
0000a0 28 fb 23 3b ea c8 2d bd a7 40 37 3c 1a 31 96 3d
       0.0025021527 -0.042427935 0.011184848 0.07333584
0000b0 6e ae 7a 3d de eb 2d bd 4a 7c 86 bc 5c 33 43 3d
       0.061201505 -0.04246127 -0.016416688 0.047656402
0000c0 ad 0c 16 3d d7 b6 b8 3d a1 c8 46 3d 97 3a 9d 3c
       0.036633182 0.09019249 0.04853118 0.019192977
0000d0 d7 1c 00 3d 4c d4 92 bd 86 b1 f3 bc 47 a4 05 3d
       0.031277504 -0.07169399 -0.029747736 0.03262737
0000e0 6d 9c 4b bd 04 f3 90 bd 50 da 6a 3d 9b ca 6c 3d
       -0.049709726 -0.070776016 0.057337105 0.057810407
0000f0 91 af a1 bd 21 65 39 3a e2 f3 71 3d 1d ef 73 3d
       -0.07894815 0.00070722593 0.059070475 0.059554208
000100 68 8c b1 3d 76 9c 4d bd 43 f0 0b 3d 79 ae 9b bd
       0.086693585 -0.05019804 0.03416468 -0.076016374
000110 1b 07 0b 3c 0d f5 42 bd 3c 80 c3 bc 38 17 5a 3d
       0.008485581 -0.04759698 -0.023864858 0.0532448
000120 a1 cc 32 3d 2f 13 01 bd 39 a0 83 bc ea 58 d7 bc
       0.04365218 -0.031512436 -0.016067611 -0.026287515
000130 9e 91 9b bc ae 75 37 bd ef c4 be 3d 85 1d 7f 3d
       -0.018990334 -0.044789962 0.09314906 0.06228401
000140 68 fb aa 3d 5c 92 70 bd 3f 06 a2 3d 2d 7d c5 bc
       0.08348733 -0.05873333 0.079113476 -0.02410754
000150 57 6e 90 bc 3b c2 33 bc 37 7a 4c 3b 88 38 30 bd
       -0.01763074 -0.010971601 0.0031200775 -0.043022662
000160 79 0b 8e 3c eb 5f 65 bd 4b 0b 70 3d 9e a5 95 bd
       0.017339455 -0.055999678 0.05860452 -0.073069796
000170 56 9d 08 bd 22 fa 47 bd bf 3e 99 3d ac eb 7b 3d
       -0.033353172 -0.04882253 0.07482671 0.06150405
000180 5c 3e 54 bd 97 74 36 bd f6 19 9c 3d e5 8e 00 3d
       -0.051817283 -0.044544782 0.07622139 0.031386275
000190 f6 4f a9 3d c3 b6 8a bd b7 fc 7b 3d 97 ab 8d 3d
       0.082672045 -0.0677314 0.061520305 0.06917494
0001a0 05 04 b0 bc e2 96 28 bb b6 79 8b 3d dc 40 bf 3c
       -0.021486292 -0.0025724699 0.06810324 0.023346357
0001b0 de 09 f6 3c a7 31 4a bb f4 de 34 bd 23 50 26 bd
       0.030034002 -0.003085235 -0.044157937 -0.040603768
0001c0 63 53 ce 3d 3c ca 8f 3b c2 6b ce 3d a9 61 a0 3d
       0.100744985 0.004388122 0.10079147 0.07831127
0001d0 cf 1e 44 bd c4 4e e8 3c f6 c0 e5 3b a1 37 99 3c
       -0.047880944 0.02835787 0.007011528 0.018703284
0001e0 89 0a 85 3d 55 3f 56 3d 60 e8 29 bd 77 9e cf bc
       0.0649615 0.052306492 -0.041481376 -0.025344117
0001f0 1d f2 76 bd 73 a5 8d bd fb 8e 7e 3d 9c c3 48 bd
       -0.06028949 -0.069163226 0.062148076 -0.049014673
000200 71 ac 62 3c ed 28 01 bb 86 92 34 3c 5c 6d 34 3c
       0.013835059 -0.0019708232 0.011021262 0.011012401
000210 eb bb 1c 3d ef 9e ab 3c 59 64 7e 3d 59 58 08 3d
       0.03826515 0.020949809 0.062107418 0.03328738
000220 ac 37 f8 3b f6 cd a0 3c 4c 88 73 3d ab 04 5c 3c
       0.007574996 0.01962946 0.059456155 0.013428847
000230 09 c9 56 3d 8d dc fc ba 23 27 22 bb ec 08 a2 3d
       0.052437816 -0.0019291803 -0.0024742566 0.07911858
000240 7e d2 b0 bd 7e d2 f3 3b 94 18 b9 3d e8 bd 1b bd
       -0.08633898 0.007440864 0.09037891 -0.038022906
000250 c8 5f 58 bc 64 d8 1e 3c fb 12 0c 3d 5b 6f 26 3d
       -0.01320643 0.009695146 0.03419779 0.04063354
000260 bc 74 89 3c 73 8f e6 3c 5c e4 f4 bc ac 81 30 3d
       0.016779296 0.028144574 -0.029894046 0.043092415
000270 33 60 1b bd e2 87 58 3d 05 64 b4 bc ee b0 a2 bd
       -0.03793354 0.052863963 -0.02202035 -0.07943903
000280 c4 28 ca 3b 43 29 24 3d 7e c3 65 bb 11 67 da 3b
       0.0061694104 0.040078413 -0.003505915 0.0066651185
000290 42 43 30 3b 2f e4 52 3d 65 9a 98 3c 04 de 98 bd
       0.0026895558 0.051487144 0.018628309 -0.07464221
0002a0 db 48 82 bd 31 3e 08 3c ef 22 08 bc 6c 9a ae 3d
       -0.06361552 0.008315609 -0.00830911 0.085255474
0002b0 01 2c e1 bc 86 47 8f 3d 53 0e 95 bd 9e 4f b4 bd
       -0.027486803 0.06996064 -0.07278123 -0.08804248
0002c0 88 68 9c bb e2 d4 73 bd 35 c8 e5 bc 2e ef 01 3c
       -0.0047732033 -0.059529193 -0.028049568 0.00793056
0002d0 cf 9c 91 bd 94 75 79 3d 51 a7 64 bd b9 4a 97 3d
       -0.07109987 0.060903147 -0.055823628 0.07387299
0002e0 8d 38 05 3d e4 ae 8d bc ce b6 99 bd 0c 97 f2 3b
       0.032524634 -0.017295308 -0.0750557 0.00740326
0002f0 a7 2a 55 bd 74 4b 89 3d 69 08 9a bd 8d 80 dd bc
       -0.05204263 0.06703845 -0.07521135 -0.027038837
000300 24 4e 3d bd 22 e6 2c bd 94 3f 32 bd bb e4 a2 bc
       -0.0462171 -0.04221166 -0.043517664 -0.019884458
000310 79 ed 5f 3c e1 0a dd 3b f9 19 4a 3d 87 c2 09 bd
       0.013667458 0.0067456816 0.049341176 -0.03363278
000320 06 b8 63 bd e3 0f 01 bc 57 9d be 3d 7f c2 09 3b
       -0.05559542 -0.007877323 0.09307354 0.002102047
000330 46 d8 8d bd 71 13 80 3d c5 82 85 3c 6c 79 80 3c
       -0.069260165 0.06253708 0.016297707 0.015682898
000340 44 5f e9 3c da 51 92 3d b4 22 2b bd e7 33 8a 3d
       0.028487809 0.07144518 -0.041781142 0.06748181
000350 1b c7 c2 3d 08 82 03 bd af 33 5e 3d a3 11 76 3d
       0.095106326 -0.03210643 0.054248508 0.060075413
000360 37 7c b2 3d 15 56 b9 bc 65 7d 56 bd 3d c4 be bc
       0.08715098 -0.022624055 -0.05236568 -0.023286933
000370 38 3d 6e bd ce 84 18 3c 9d c3 ad 3d 98 13 bd 3d
       -0.05816385 0.009309007 0.08484576 0.09232253
000380 43 ae 87 3d cd 35 0d 3c bb 91 af 3b ce 2a 31 3d
       0.06625035 0.008618784 0.0053579486 0.043253712
000390 bd 7e 79 3d 67 b5 d4 bb 76 f0 ca bc c7 5c 2b 3d
       0.060911883 -0.0064913514 -0.024772864 0.041836526
0003a0 f6 5c 53 bc 9c 21 88 bd c6 4f 28 bd af 2d 95 3d
       -0.012900582 -0.066470355 -0.041091703 0.07284104
0003b0 c6 1f 9c 3d 34 8d 13 bd 6c 31 67 bc 0c 43 44 bd
       0.07623248 -0.036023334 -0.014110904 -0.047915503
0003c0 37 2b cc bc 75 07 c2 3d e1 47 ba bd 7a 65 3f 3d
       -0.02492295 0.094740786 -0.09095741 0.046727635
0003d0 d0 d0 9c bd 48 d7 07 bd 32 7a c2 bc 72 29 cc ba
       -0.07657015 -0.033164293 -0.023739908 -0.0015576317
0003e0 86 24 7b bc 10 4c 29 bd 5b e4 f3 bc 2d 44 1d bd
       -0.015328532 -0.041332304 -0.029771974 -0.038395096
0003f0 3b 60 6a bd 7d 73 61 bd d8 8c ad 3d b2 34 2e bd
       -0.05722068 -0.05504178 0.084741294 -0.042530723

layer2.bias f4 [128]
000000 6f b8 4c bd 90 59 a6 bd 38 d7 40 3d 26 26 56 bc
       -0.049980577 -0.081225514 0.04708025 -0.013070619
000010 c0 be ae bd 58 b5 90 3d 02 c3 86 bc 48 de 61 3d
       -0.085324764 0.070658386 -0.016450409 0.055143625
000020 ad bf 9d bc c5 15 5f 3d ff 1d 2a 3d b4 49 59 3d
       -0.019256437 0.05446412 0.041532513 0.053048804
000030 01 09 7a 3c c0 3c 82 bd 28 e4 fe bc 5a 81 33 3a
       0.015260936 -0.063592434 -0.031114653 0.0006847583
000040 ea 9f f8 bc 25 27 26 3c f6 62 59 bc fb 38 7b 3d
       -0.03034969 0.010141169 -0.013268223 0.061333638
000050 d7 59 91 3d 3b 77 06 3d fc f5 f5 bb ca 3c 9d bc
       0.07097214 0.03282855 -0.0075061303 -0.019194026
000060 34 5a e5 3d 2a d3 83 bd fd df 24 3d 25 3e 1e 3d
       0.111988455 -0.06436761 0.040252674 0.038633484
000070 16 a0 ad bc de 76 a4 3d 6e 13 3c 3d d3 cd bd bd
       -0.021194499 0.080304846 0.045916967 -0.092677735
000080 76 3a 21 bd 98 19 75 3d e2 97 8d 3c e6 53 08 ba
       -0.039362393 0.05983886 0.017284337 -0.000520049
000090 be 14 af 3d 47 63 93 3b 46 f7 66 bd 28 47 67 bd
       0.08548878 0.0044979188 -0.056388162 -0.056464344
0000a0 c2 57 b3 bd 95 ce e1 3c 1e 71 6b bd 77 d8 1d bd
       -0.08756973 0.027564326 -0.057480924 -0.038536515
0000b0 ef f9 70 3d a9 2c 42 3d 5f a6 9a 3d 26 c1 71 bd
       0.058832105 0.047405872 0.07551264 -0.05902209
0000c0 2e ac d7 3d 5d 7f 24 3d b8 7d 6c 3d 3c 17 eb 3c
       0.105308875 0.040160526 0.057737082 0.028697602
0000d0 db 4a bb 3d e2 45 97 3d c5 56 25 bb 21 98 61 bd
       0.09145137 0.07386376 -0.002522872 -0.055076722
0000e0 b0 63 7b 3d 27 0c 8d bd fe c0 80 3b 81 21 bd 3c
       0.061374366 -0.068870835 0.0039292565 0.023087265
0000f0 1e 90 5e bc 20 36 06 3c 17 ac b3 bd f5 0a c1 3c
       -0.013584165 0.008191615 -0.08773058 0.023564795
000100 28 a2 0c bc dd 4e 1c bd ea a9 17 3d 2d b0 99 3a
       -0.008583583 -0.038161147 0.037027277 0.0011725478
000110 58 80 01 bb 5d e4 89 3d e0 cd 37 bb 6c a2 66 bc
       -0.0019760337 0.0673301 -0.0028046295 -0.01407681
000120 4e 78 a8 3d 3d 93 2f 3d b2 f0 d9 3b 9b 59 61 bd
       0.08226071 0.042865027 0.0066510076 -0.055017095
000130 5a ef ea bc cf fd d2 bc c4 90 9f bc 9d 1f 96 bd
       -0.028678585 -0.025755791 -0.01947821 -0.073302485
000140 c7 e4 28 3a 2e f4 74 3b 64 48 70 3d a8 75 4c bd
       0.0006442782 0.0037376988 0.058662787 -0.049916893
000150 b3 6e 9e bd 33 8a 93 bd bd 25 93 bd 6c cc 9c bd
       -0.07735958 -0.07204094 -0.071849324 -0.07656178
000160 88 01 9d 3b 12 c9 5f bd bd 7e a1 3d 86 06 74 3d
       0.0047914423 -0.054635115 0.078855015 0.059576534
000170 bd 66 46 bc 89 ed a5 3d 85 20 5b 3d 0c fe 84 3d
       -0.012109456 0.08101947 0.05349781 0.06493768
000180 e1 88 8b bd 3f f8 23 3d 23 02 aa ba af 77 c1 bb
       -0.06813217 0.040031668 -0.0012970607 -0.00590416
000190 f0 d4 82 3c 46 75 d8 3c b9 94 b2 3c fb ef ea 3d
       0.015970677 0.026423108 0.021799432 0.11471554
0001a0 92 42 78 3d 8b 12 ab 3d f4 44 26 bb 61 0b cd 3b
       0.06061036 0.08353146 -0.002537069 0.00625746
0001b0 1b ce 82 3d 4a 5b 95 bd 97 11 0d 3c 14 e4 78 bd
       0.06386968 -0.07292803 0.008610151 -0.060764387
0001c0 f3 eb 96 3d fd bf e1 3c 49 2e be bc 65 a9 13 3d
       0.073692225 0.027557367 -0.02321543 0.03605022
0001d0 f4 17 a0 3d e1 82 6d bd 86 27 35 bd 7b 67 5e 3d
       0.07817069 -0.057986144 -0.044227146 0.054297905
0001e0 d7 50 d9 3c 65 8a 09 bd 4f bf 39 bd fd db 25 bd
       0.026527805 -0.03357925 -0.04534846 -0.040493
0001f0 c4 dd a2 bd c7 41 66 bd 7f f2 2c bc 76 dc 28 bd
       -0.07952455 -0.056215074 -0.010555862 -0.041225873

layer3.weight f4 [128, 128]
000000 6b dd d8 bc 4e 40 9f 3d af b2 9b bc a8 cd a8 3c
       -0.026472768 0.07775937 -0.019006101 0.020605877
000010 f4 b2 74 bd ca 40 86 bd f6 61 73 bd db ed 92 3d
       -0.059740975 -0.06555326 -0.059419595 0.071742736
000020 19 17 78 3d 11 e6 52 3d 28 37 39 3d 9c de 55 3d
       0.060568903 0.05148894 0.045218617 0.05221425
000030 63 e3 52 bd 82 8c 4e bd 0d f1 a9 3d 21 45 b4 3d
       -0.051486384 -0.050426967 0.0829793 0.08802248
000040 bb ed 97 3d bb 5e f8 bb fa 3b 89 3d e7 7d 4c 3c
       0.0741839 -0.007579652 0.06700893 0.012481189
000050 a2 21 b6 bc 2d 5a 1b 3d 4d 76 9a bd 7e f8 d2 bd
       -0.022232834 0.037927795 -0.07542095 -0.103013024
000060 42 b2 31 bd 22 82 d7 bc 23 22 0a 3d 43 92 5b bc
       -0.04338289 -0.02630717 0.03372396 -0.013401571
000070 b1 4f 2c bd 09 f9 02 3d a2 0b 04 3d 5d 24 18 3c
       -0.042068187 0.03197578 0.032237656 0.009286013
000080 e7 1a 58 3d 28 8f 14 bd fa 48 52 3c 45 5e 67 bd
       0.05276003 -0.036269337 0.012834782 -0.056486387
000090 63 93 41 bc 1d a7 a5 3d 87 ee 16 3d 14 13 d6 3c
       -0.011814925 0.08088515 0.03684857 0.026132144
0000a0 80 32 60 bd d3 a4 23 3b 7b fd 10 3c 87 b8 d9 bd
       -0.05473566 0.002497007 0.008849497 -0.10630899
0000b0 bb f1 ac bd 3b 39 2e bd 11 8b e1 3b f2 af 21 3d
       -0.08444544 -0.042535048 0.006883033 0.039474435
0000c0 fd e3 8d bd 74 50 5c bd bf 72 10 3d 19 0a 11 bd
       -0.06928251 -0.053787664 0.03526568 -0.03541002
0000d0 5f f0 b7 3c 6c dc 20 3d b4 94 01 bd c1 53 9d 3d
       0.022453485 0.03927271 -0.031635955 0.076819904
0000e0 ac af 53 3c 0e 94 38 3c 3f 58 31 3b 05 1a c7 bd
       0.012920301 0.011265768 0.0027060655 -0.0972176
0000f0 10 b7 18 3d e0 b7 31 bd 1b 10 8f 3d 14 98 26 bd
       0.037283957 -0.043388247 0.06985494 -0.040672377
000100 5f 70 44 bc 1f c5 83 bd 79 83 f9 bc 33 99 e3 3b
       -0.011989682 -0.06434082 -0.030458199 0.006945753
000110 64 be 8d bd 23 af d2 3c cd 49 63 bc ef c3 97 3b
       -0.0692108 0.025718277 -0.013872576 0.0046315114
000120 e3 04 8c 3d 86 ec 16 3d 4b d2 06 3d c0 51 6e bc
       0.068368696 0.03684666 0.032915395 -0.014545858
000130 26 a9 30 3d 21 7c 37 3d 66 0b 96 bd 30 c8 fe bc
       0.043130063 0.044796113 -0.07326393 -0.031101316
000140 f8 cf 98 bd 49 65 e5 bc 96 8d 8d 3d 8b 69 11 bd
       -0.07461542 -0.028002398 0.06911771 -0.035501044
000150 6b 6c 81 3d 2d b5 74 bd 3c 4f de 3c 78 ae 99 3d
       0.06319507 -0.059743095 0.027137391 0.075039804
000160 d8 6a ba 3b 12 c7 98 3b 2d 6a 00 3d 1c 48 0a 3d
       0.0056890063 0.004662403 0.031351257 0.033760175
000170 a0 77 91 3c 99 5f 20 bd 23 0c 7a 3d 11 33 28 3d
       0.017757237 -0.03915367 0.06104673 0.041064326
000180 8c e1 ab 3d c1 6d b1 3c d1 5a 45 bd aa e8 8b bc
       0.08392629 0.02165878 -0.048182312 -0.017078716
000190 ea 81 2d 3d fc b9 1a 3d 34 7d de bc a0 1b 3b 3d
       0.042360224 0.037775025 -0.02715931 0.045680642
0001a0 ae 97 83 bc d7 50 93 3d b4 3e 34 3d b8 24 5b bd
       -0.016063537 0.07193153 0.04400511 -0.053501815
0001b0 c8 49 3a 3d 52 72 91 3d 10 79 9d bd eb ad dd bc
       0.04548052 0.07101883 -0.076891065 -0.02706047
0001c0 fb bc bd 3c ae 95 62 3d 23 34 c2 3d 7b 10 93 3c
       0.023161402 0.055318527 0.094826005 0.017952194
0001d0 29 0e 94 3d 08 5c d0 bc d4 43 a9 3d e1 ab ad bb
       0.07229263 -0.025434509 0.0826489 -0.0053000306
0001e0 6d 22 0c 3d 8b 7e bd 3c a1 81 ae bd 8f 53 35 bd
       0.03421252 0.02313163 -0.085208185 -0.04426914
0001f0 17 54 7a bc 3c 1e 1d 3d 12 e2 49 3c 88 72 02 3d
       -0.015278838 0.038358912 0.012321966 0.031847507
000200 04 14 88 3d 4b 57 4e 3d c9 08 92 bc 15 f9 54 3d
       0.06644443 0.050376218 -0.017826455 0.051995356
000210 ac 5c fe bc 78 c7 c9 bc ef 4e b1 bd a9 29 2f 3d
       -0.031050049 -0.024631247 -0.086576335 0.04276434
000220 ff 6d 85 3d 40 f2 00 bc 79 22 ac bd 3c 3b d3 3a
       0.06515121 -0.007870257 -0.08405013 0.0016115676
000230 f9 ae 65 bd 6e 65 73 bd 51 55 be bc ee 59 4f 3d
       -0.05607507 -0.059422903 -0.023234041 0.050622873
000240 47 b4 56 3d 0e e7 9b bd 76 37 57 bd c3 5b 3f bd
       0.05241802 -0.076124296 -0.052543126 -0.04671837
000250 6c b8 27 3d 72 0e 6c bb 2b 3c 58 bc bf e2 0b 3c
       0.040947363 -0.0036019352 -0.013197939 0.008537947
000260 45 b6 6a 3b 92 ff 94 bd 15 0f 8a 3c 30 d4 02 3d
       0.0035814208 -0.07275309 0.016852895 0.03194064
000270 24 c1 8c bb 3b f4 fe 3c 1c 67 c7 3c 91 33 85 bd
       -0.004295485 0.031122318 0.024341159 -0.06503976
000280 8b cb ac 3d 29 c2 78 3d 85 84 95 3d 0a 32 94 3b
       0.0843726 0.06073204 0.07300667 0.0045225667
000290 37 8f 5b 3d 75 19 86 bc 8f 4d 8a 3b df dc 33 3d
       0.053603377 -0.01636956 0.0042206715 0.04391181
0002a0 30 d9 4f bd 88 44 a2 bd 2f a4 72 3c 49 51 64 3d
       -0.050744236 -0.079232275 0.014809652 0.055741582
0002b0 63 dd a4 3d 00 bd 4d bc a4 00 2b bd b4 0a 94 bd
       0.08050039 -0.012557268 -0.041748658 -0.07228604
0002c0 fa 95 b0 3d 72 8e 27 bc ac 07 19 bd 43 af 6e bd
       0.08622356 -0.010226833 -0.037360832 -0.05827261
0002d0 e8 de e3 bc bc 0c 89 3d 4c e4 44 3d f8 9d 9f bd
       -0.02781625 0.06691882 0.048069283 -0.07793802
0002e0 c6 4c 0e 3d ac 21 82 bc 10 47 97 3d f2 e4 2a bd
       0.034741186 -0.015885197 0.07386601 -0.041722246
0002f0 63 fd 61 bc 5f ce 00 3d 92 4d d9 bc f3 a2 84 bd
       -0.013793322 0.03144681 -0.026526246 -0.064763926
000300 69 af bc ba 13 77 c3 3d f3 2e ac bd 4f 50 52 3d
       -0.0014395538 0.09544196 -0.08407392 0.05134612
000310 68 e5 94 3d 3f 33 92 3d ea af 5b 3c 61 61 40 bc
       0.07270318 0.07138681 0.01340864 -0.011741967
000320 4f 8d 89 bd e4 1f b2 3d 17 da 68 3c f4 7b 83 b9
       -0.067164056 0.08697489 0.014212153 -0.0002507862
000330 0e a3 3a 3c c8 b7 87 bc 29 09 29 bb e8 33 19 3d
       0.011391414 -0.016567126 -0.0025792813 0.037403017
000340 6b 86 76 3d 4c 8f 41 3d 80 6d a9 bd 3e 5b af bc
       0.060186785 0.0472558 -0.082728386 -0.021405812
000350 c1 e6 8e 39 a4 86 f7 3c d8 64 80 bd f6 2f a8 bb
       0.00027256276 0.030215569 -0.062692344 -0.0051326705
000360 72 1a e8 bc 86 14 88 bd 54 84 a1 3b 4c 31 6c 3d
       -0.028332923 -0.066445395 0.004929105 0.0576642
000370 3d ec 92 3c ec b3 0b bd e6 b8 46 bb 53 75 23 bd
       0.017934913 -0.034107134 -0.003032261 -0.03990681
000380 95 a4 a8 3d e3 bd 08 3d 91 a3 70 bd e3 55 ae bd
       0.082345165 0.033384215 -0.05874974 -0.08512475
000390 48 bb 63 bd 91 54 58 bd 5e 25 7f 3c 0c a6 38 bd
       -0.055598527 -0.052815024 0.015572874 -0.04508023
0003a0 a8 de a2 bd cd 29 2d bd 43 ae 5a bd b2 ca 43 bd
       -0.079526246 -0.042276192 -0.053388845 -0.047800727
0003b0 61 31 74 3d 72 a8 dc bb ae f6 8b bd 0d 6f 38 bd
       0.059617404 -0.0067339474 -0.0683416 -0.04502778
0003c0 5e b7 a1 3d 6f 60 cd 3b b9 e9 24 bd ab 8f f0 bb
       0.07896303 0.0062675993 -0.040261958 -0.0073413453
0003d0 4a 7d 02 3d 1e 10 77 3d d1 f7 dd bc df 9d b3 bc
       0.031857766 0.060318105 -0.027095707 -0.021925865
0003e0 ad 1a 1a bd b1 c0 8f bd d6 69 21 3d 1a 76 ac 3a
       -0.037623096 -0.07019175 0.039407574 0.0013157756
0003f0 2b 82 3e 3b cf 81 0c 3c 03 83 02 3c 1f 1e b7 3d
       0.0029069285 0.008575871 0.007965806 0.08941292

layer3.bias f4 [128]
000000 86 8b 30 3d ac e9 b4 bc 82 da 44 bd 5b 29 61 bd
       0.04310181 -0.02208408 -0.048059948 -0.05497108
000010 9b 87 9a bc 3f b7 a4 3d b1 2d 51 ba 21 15 c4 3d
       -0.01886349 0.08042764 -0.0007979526 0.095743425
000020 27 a3 5a bc 8b a1 8a bd e8 23 8b bd 40 03 6a bc
       -0.013344563 -0.06769093 -0.06793958 -0.014283001
000030 2c a7 d7 bb 6f 62 65 3d 55 84 a3 3c 7f f9 03 3d
       -0.0065812077 0.056002077 0.019960562 0.03222036
000040 08 bb 49 bc ad 03 a5 bd 27 29 61 3d e6 35 9d bd
       -0.012312658 -0.08057342 0.054970887 -0.07676296
000050 8f d5 81 bd b5 bf 64 bd bf a9 79 3c db e0 1d bd
       -0.06339561 -0.05584689 0.0152382245 -0.038544517
000060 87 ca c0 3d 9a 5d bc bd b6 08 45 bd 12 bd b9 3d
       0.09413629 -0.091975406 -0.04810401 0.090692654
000070 69 b6 a8 3d 11 ee 88 bd 4a a6 55 3d 35 9a 78 3d
       0.08237917 -0.066860326 0.05216054 0.06069394
000080 2d 0c 98 bc 44 dd ac bd 3f 1d 92 bd 73 b4 2a bc
       -0.018560493 -0.084406406 -0.071344845 -0.010418999
000090 2c ac 51 bd 4b 20 70 3d ce 55 7d 38 0d e1 7d 3d
       -0.051189587 0.058624547 6.0399812e-05 0.061982203
0000a0 32 66 2c 3d ca a5 37 bc 7f 52 79 bd 7e ee 9f 3d
       0.04208965 -0.011208961 -0.06086969 0.07809161
0000b0 9c 5b a8 bd 6a 2e ca bd 78 85 88 3d dc 16 19 3d
       -0.08220598 -0.09872134 0.06666082 0.037375316
0000c0 0d 37 30 3d 0c e3 08 bc d2 31 b2 3c aa fb 6a 3d
       0.04302125 -0.008354913 0.021752272 0.05736891
0000d0 42 49 a1 3d ae 09 c2 bd 42 db 69 3d ed 11 31 bd
       0.07875301 -0.094745025 0.057093866 -0.043229986
0000e0 89 73 98 3c 25 12 c1 3b ba b7 a2 3d fb ca 26 bd
       0.018609779 0.0058920556 0.07945199 -0.04072092
0000f0 2b 39 63 bd 41 c6 ae 3d a6 a7 36 3d 09 e8 3b bd
       -0.05547444 0.08533908 0.044593476 -0.045875583
000100 53 3f bc bc 05 b8 a1 3d fb b7 bf 3d c8 ee 35 bd
       -0.022979414 0.07896427 0.09361263 -0.044417173
000110 74 a8 02 bd 33 8f 16 3d be dc a8 3c 53 9e 33 bd
       -0.03189893 0.03675766 0.02061307 -0.04385216
000120 3e 05 78 3d 54 bf 79 bb 27 bd 11 bd b7 ce 89 bd
       0.060551874 -0.0038108425 -0.03558078 -0.06728881
000130 4b 52 98 3d 00 79 91 3c 61 dd c3 3b c9 d1 a2 3c
       0.07437571 0.017757893 0.005977318 0.019875424
000140 4d 09 0d 3d a0 47 f8 3c 52 69 9a 3c 70 50 03 3d
       0.034432698 0.030307591 0.018849049 0.032059133
000150 19 51 96 bd f7 95 66 3d 71 9b 9c 3d a9 1c 88 bd
       -0.07339687 0.05629536 0.076468356 -0.066460915
000160 28 a4 01 3d 81 77 1c 3d c6 98 78 3d 42 e0 8d 3d
       0.031650692 0.038199905 0.06069257 0.069275394
000170 e3 6d 1b bd 07 6a a3 bc 1c 10 eb bd 1d c6 95 3c
       -0.037946593 -0.019948019 -0.11477682 0.018282944
000180 df 7f aa 3d 4c e5 72 bd cd be 57 3d e2 9f 59 bd
       0.08325171 -0.059300706 0.052672196 -0.05313099
000190 85 02 2b bd 07 a4 d4 3c ba 8c 34 3d 7e 1c b3 bd
       -0.04175045 0.02595712 0.04407952 -0.08745669
0001a0 6a 58 9f 3d 65 2c 8e 3d a5 9a a9 3d 32 7d b2 3b
       0.077805355 0.06942061 0.08281449 0.0054470534
0001b0 03 f8 de bb 7b 6a 63 bd 85 7a 77 3d 8e 63 ed bc
       -0.0068044676 -0.05552147 0.060419578 -0.028978135
0001c0 74 db b7 bd 8a 5b 9a bd d1 21 cc 3c 99 7d 70 bd
       -0.08977404 -0.07536991 0.024918469 -0.05871353
0001d0 b0 be a8 bd 4a 24 45 bd 6b 7a 39 bd 2c 38 97 bc
       -0.08239496 -0.04813031 -0.045282762 -0.018459402
0001e0 f3 55 3c 3d ee 2a 8c 3d 7c 26 fc bc 6c 8d 02 bd
       0.045980405 0.06844126 -0.03078007 -0.03187315
0001f0 b8 9d dc bb e5 e5 0a 3c c8 cc dd bc 2a f4 9e 3d
       -0.0067326687 0.008477663 -0.027075186 0.07761414

layer4.weight f4 [128, 128]
000000 a2 3e 8f bd 63 b1 b4 3d c3 6c 83 3d 2e b1 66 3d
       -0.06994368 0.08822896 0.06417229 0.056321315
000010 0c e8 8f 3c 77 df 99 bd 07 7c 9a bd 0f 7c b3 bd
       0.017566703 -0.07513326 -0.075431876 -0.08763897
000020 08 41 6d 3c 32 c1 23 3d 10 ce 55 bd 80 58 b5 ba
       0.014480837 0.039979167 -0.05219847 -0.0013835579
000030 bb ae 16 bd a0 7b d4 3b 28 8a 08 bc 87 24 50 bd
       -0.03678773 0.006484464 -0.00833372 -0.050816085
000040 86 58 1c 3d 20 fd 00 3c 20 68 cb 3b ac 6d c9 3c
       0.03817036 0.00787285 0.006207481 0.024588428
000050 50 ee 5d 3c cc cf 18 bd 8c 6c b7 bc c6 41 7c bd
       0.013545588 -0.037307546 -0.022390626 -0.061586164
000060 90 20 98 3c c0 b3 a0 3a 72 50 7a 3d 73 57 39 bd
       0.018570215 0.0012260601 0.061111875 -0.045249414
000070 ce 74 07 3d cb c7 89 3d eb 6d 62 bd 76 c9 6a 3d
       0.033070378 0.067275606 -0.055280607 0.057321034
000080 70 88 c3 bb 3a 44 0f bd a2 4a 07 bd 5c 8f 1b bd
       -0.0059671924 -0.034977175 -0.03303016 -0.037978515
000090 b7 74 1c bd d9 78 a7 3d bd bf 61 bd bc f2 f3 3c
       -0.038197245 0.08177347 -0.055114496 0.02977883
0000a0 c9 64 02 bd 60 98 ca 3c b5 45 7e bd 90 08 9f bd
       -0.031834397 0.024730861 -0.062078197 -0.07765305
0000b0 a9 23 ae 3d d3 6c 07 bd 50 34 9f 3c 46 6c 5c 3d
       0.085028954 -0.033062767 0.019434124 0.053814195
0000c0 10 54 c1 3c 78 e6 0e 3c 54 73 81 3c c0 02 4e 3c
       0.023599654 0.00872194 0.015802063 0.012573898
0000d0 e6 5a 9d bd 7a ea 9f bd ee 5b 3c 3d 52 f2 44 3d
       -0.07683353 -0.07808395 0.04598611 0.048082657
0000e0 a8 80 03 bd 85 38 3a bd 4d cd b0 3d c4 9c bc bc
       -0.032105118 -0.045464057 0.08632908 -0.02302397
0000f0 16 d5 34 bd 90 85 62 bc 6e 49 35 bd 20 78 1d bb
       -0.044148527 -0.013825789 -0.04425948 -0.00240279
000100 24 3d a9 bd 94 7e 4d bd 00 58 68 b8 e0 e9 36 3b
       -0.08263615 -0.050169542 -5.5395067e-05 0.0027910396
000110 cc b2 d8 3c eb ce 99 3d 01 59 66 bd 1c c3 ed 3c
       0.026452444 0.075101696 -0.056237224 0.0290237
000120 ae ac 52 bd 30 dc 81 bb a0 c1 ad 3b 92 14 9d bd
       -0.05143421 -0.003963016 0.005302623 -0.07669939
000130 44 7c e6 3c 27 04 0b bd 5c d1 a8 bd 30 fb e3 3b
       0.028135426 -0.033939507 -0.08243057 0.006957434
000140 d0 04 ce 3c 90 10 eb 3b d8 7b 91 bc ca 19 65 3d
       0.02514878 0.0071736053 -0.017759249 0.055932797
000150 d8 d2 12 3d 08 26 8e bd d5 0f 80 3d 1e 94 8e bd
       0.035845608 -0.06940848 0.0625302 -0.06961845
000160 6f 05 9b 3d 62 d4 b0 bd 2e a1 7e 3d 3e 94 24 3d
       0.07569396 -0.08634259 0.06216543 0.040180437
000170 69 81 8a bd ac 1c 88 3c 0a 13 5b 3d fe ae 1b bd
       -0.06762964 0.016615234 0.053484954 -0.038008682
000180 47 86 a7 3d a0 47 10 3d e0 79 23 bb be c4 3c 3d
       0.08179908 0.035224557 -0.002494447 0.046086065
000190 d4 0f d1 3c ef 0e b3 3d d0 f1 b2 bb 33 f7 9c bd
       0.025520243 0.08743083 -0.005460955 -0.07664337
0001a0 60 6b 88 bd 60 25 29 3c 1e a2 45 3d ab 96 9c bd
       -0.06661105 0.010323852 0.04825031 -0.07645925
0001b0 e0 d7 32 bb b4 0d 15 3d 34 83 95 bc 81 a7 2f bd
       -0.0027289316 0.03639002 -0.01825104 -0.042884354
0001c0 96 7c 0b 3d 24 14 b3 3c de e5 6a 3d f0 5b 82 bd
       0.03405436 0.02186019 0.057348125 -0.06365192
0001d0 50 b1 21 bc fd 1c 95 bd 5c 05 d8 bc 88 5b 81 3c
       -0.009868935 -0.0728092 -0.026369743 0.015790716
0001e0 50 2a 94 bc ee 81 1b 3d 1e 54 6d 3d 99 85 b4 bd
       -0.018086582 0.037965707 0.05794155 -0.08814544
0001f0 49 8c 7a bd e1 c9 a7 bd 12 01 70 bd 40 b2 56 3c
       -0.061168943 -0.08192802 -0.05859477 0.013104022
000200 06 bd 1b bd 99 f1 46 bd 21 ad 13 bc 3f 21 8d bd
       -0.038022064 -0.04857025 -0.009013445 -0.06891107
000210 b1 0e 97 3d 44 e1 84 3d a0 1f 4d bb 8a a0 57 bc
       0.07375849 0.064882785 -0.0031299368 -0.013160834
000220 fb cf 6c 3d b0 35 c5 3d 39 af 5e bc 8f 2b 60 bd
       0.057815533 0.09629381 -0.013591581 -0.05472904
000230 74 8b 98 3d 09 b7 2e bc c6 b9 86 3d 0d 09 a4 bd
       0.074484736 -0.010663756 0.06578402 -0.08009539
000240 39 48 00 bc 90 b0 ed 3b 06 48 26 bd 0a 19 0b 3d
       -0.007829719 0.007253714 -0.04059603 0.033959426
000250 dd b5 22 bc 7f 8f b4 3c 0f 97 ca 3d 70 17 17 3d
       -0.009931055 0.02204108 0.098920934 0.036887586
000260 d1 8b a9 bd 1e a6 91 bd 41 ee 04 bc 49 ea 5f bc
       -0.08278621 -0.071117625 -0.008113445 -0.013666698
000270 21 2b 14 3e 8d 69 d4 3d f0 87 63 bc 56 02 a9 bd
       0.14469577 0.10371695 -0.0138873905 -0.08252399
000280 cb d7 b4 bd be e6 0d bd 79 e9 80 bd d2 7d 44 3d
       -0.08830222 -0.03464388 -0.062945314 0.047971554
000290 a3 9a 01 bd 1c 8e 96 bd 8d 13 b6 3d 40 5b a1 bd
       -0.031641614 -0.07351324 0.08890448 -0.07878733
0002a0 70 21 07 3e 93 08 5c bc a3 3e 6d bc 21 29 2e 3d
       0.13196349 -0.013429779 -0.014480266 0.042519692
0002b0 84 8a 99 3d 14 1f 39 bd 34 85 c0 3d 61 1f 88 3c
       0.07497123 -0.045195654 0.094004065 0.016616525
0002c0 5e 3e 8a 3d ae a3 ad 3d 46 fd 71 bd c3 cc 04 3d
       0.06750177 0.08478485 -0.05907943 0.03242184
0002d0 4a 49 b9 bd 75 44 02 be b6 f1 13 3d 21 13 80 bc
       -0.09047182 -0.12721427 0.036119185 -0.015634121
0002e0 68 49 99 bd b9 9c b8 3c 40 4b de bd 89 a5 63 bd
       -0.07484704 0.022535669 -0.108541965 -0.05557779
0002f0 d4 77 cd bc 93 aa a8 bc 4d a6 75 3d bd f2 e7 bc
       -0.025081553 -0.020589149 0.05997305 -0.028313989
000300 0c 65 da bc 37 58 34 3d df 1e d4 bd 33 81 cc 3b
       -0.026659511 0.04402944 -0.10357451 0.0062409877
000310 96 e5 df 3d 09 55 25 3d bb 3a 92 3c 7a a6 a8 bd
       0.10932462 0.0403643 0.01785027 -0.08234878
000320 4b 51 54 3d cd f7 be bd b4 d0 ab 3d 62 19 83 3d
       0.05183534 -0.09324608 0.08389416 0.06401326
000330 d4 a7 be bd cc 76 d5 bc 4c cc ad 3d b5 7a e6 bd
       -0.093093544 -0.026057623 0.08486232 -0.11253873
000340 c5 a5 90 3c 2a 59 af 3d a9 16 41 bd 86 05 be 3d
       0.01765717 0.085619286 -0.04714075 0.09278397
000350 21 f2 b7 3d e0 8e 13 bc 8c 25 c4 3d ae c8 e9 bb
       0.08981729 -0.009006232 0.09577474 -0.0071345186
000360 93 f7 e0 3d c9 de da bc d4 35 27 3c 78 87 8a bd
       0.10984721 -0.02671756 0.010205705 -0.0676412
000370 64 02 96 3b 00 74 01 3d 72 b8 a7 bd 8e 00 69 bc
       0.0045779217 0.031604767 -0.08189477 -0.014221324
000380 66 e2 94 3d 50 53 88 bd c4 d5 db 3c a5 de 32 3c
       0.072697446 -0.066565156 0.02683533 0.01091734
000390 5f 85 a2 bc f3 cd 36 bc 35 0e 19 3d 95 b5 90 bc
       -0.019838987 -0.011157501 0.037367065 -0.01766471
0003a0 a0 d1 0a be a9 1e 50 bd da bb 47 3d f2 49 d3 bd
       -0.13556528 -0.05081049 0.048763134 -0.10316838
0003b0 5b dd 82 bd cd 0f b4 bd 76 95 3f bd 62 d9 d6 ba
       -0.063898765 -0.08792076 -0.046773396 -0.001639169
0003c0 52 e0 e1 3d eb c7 7c 3d ed e2 63 3c a8 15 85 3d
       0.11029114 0.061714094 0.013909084 0.06498271
0003d0 02 2a 9d bd 2f 57 b8 bd 1c 2a 93 3d cb 9a ab 3d
       -0.07674028 -0.09001004 0.07185766 0.08379134
0003e0 3d 0c f7 3c c6 4c 10 bd 5e 47 9f bd 3b 6e a7 3d
       0.030157203 -0.035229467 -0.07777284 0.08175322
0003f0 21 85 5d bd c5 f3 17 bc ca 4a 42 3d 6c ea 8f 3d
       -0.05408204 -0.009274428 0.047434606 0.07027134

layer4.bias f4 [128]
000000 a2 10 45 bd 12 ec 96 3d cb aa c9 bc 7c 1e e9 bc
       -0.048111565 0.073692456 -0.024617573 -0.028456919
000010 ac 12 3f 3d 00 e0 6e 3b a3 e6 43 3d c7 f6 80 bd
       0.046648666 0.0036449432 0.047827374 -0.06297069
000020 96 11 12 bb 69 03 91 bc a3 cf 3b bd 86 eb 1b 3d
       -0.0022288314 -0.017701821 -0.045852315 0.03806641
000030 6c f3 7b 3d eb 87 82 3d 47 e3 15 3d 1e 06 50 3d
       0.061511442 0.063735805 0.0365937 0.050787084
000040 5b 0c 9c 3d fe 5f 80 bd 24 ce 89 3d 37 81 b2 3b
       0.07619544 -0.06268309 0.06728771 0.0054475325
000050 c3 27 83 bd d3 d9 c2 3c 28 03 f7 3c 97 93 1d bd
       -0.06404068 0.023785507 0.030152872 -0.03847083
000060 fc 09 ba bd 3c 31 a7 bd 58 c1 9a bd 59 55 9b bd
       -0.090839356 -0.081636876 -0.07556409 -0.07584638
000070 a2 68 3a 3d b5 dd 67 bd 77 46 9c bd 74 d0 65 bd
       0.045509942 -0.05660792 -0.076306276 -0.056107
000080 1c 12 81 bc 77 17 75 3d 2d 13 97 3d b6 8f d6 3c
       -0.015755706 0.05983683 0.07376704 0.026191574
000090 68 27 e0 3d e9 ce c0 bd 1b 7b ed bc 3b 27 81 3d
       0.10945016 -0.09414465 -0.028989365 0.06306311
0000a0 0d 22 94 bc c1 53 ff 3c 1d 62 c5 bc b6 43 35 3c
       -0.018082643 0.031167867 -0.024094636 0.011063507
0000b0 9b a1 ad bd 9e b4 0d 3d 6d 69 ad bc 84 8e 89 bd
       -0.084780894 0.034596078 -0.021168435 -0.06716636
0000c0 df 0f 80 3d f4 ea 37 bd dd 26 09 bc 84 5b 9b bc
       0.06253027 -0.044901803 -0.008371082 -0.018964536
0000d0 73 54 53 bd b3 3a 5d 3d cc a5 5b bd bf ba f1 bc
       -0.05159421 0.054011058 -0.053624913 -0.029507993
0000e0 38 31 ac bd eb 91 fd 3b d6 57 1d 3c 4b d3 f5 3c
       -0.08407825 0.007738342 0.009603461 0.030007979
0000f0 52 ae 3e 3d 02 89 1f bd 8c e5 43 3d e3 eb 50 bd
       0.046552964 -0.03894902 0.047826335 -0.05100621
000100 e9 c7 af 3d a0 2f 3d bd e3 5f 17 3b 4d fc 78 3b
       0.08583052 -0.046187997 0.0023097924 0.003799218
000110 f6 63 78 3d 92 cd 98 bc 59 2c 7d bd 46 03 4c 3c
       0.060642205 -0.018652711 -0.06180987 0.012451952
000120 57 9c 47 3d f2 91 87 bd ec 59 e4 bc f8 84 c7 bc
       0.04873308 -0.06619634 -0.02787491 -0.024355397
000130 46 5f b1 3d 58 db 52 3c 35 4a ac bd 2b db a6 3d
       0.0866075 0.012869678 -0.08412591 0.08147272
000140 6a 98 ab bc 70 53 a1 bd b2 5f ae 3d f1 11 b6 bc
       -0.0209467 -0.078772426 0.08514346 -0.022225352
000150 7d 58 da 3c 80 1c cb 3b 65 ea 32 3d 13 bb 9d bc
       0.026653523 0.006198466 0.043680567 -0.019254243
000160 88 31 0e bd 4b 7a 46 bd 77 3b 85 bc 93 c5 2a bd
       -0.034715205 -0.04845647 -0.016263707 -0.041692328
000170 27 3a 4f 3d 65 d2 6c bd a8 70 d0 3b 73 f6 ef 3c
       0.050592568 -0.057817835 0.006361086 0.02929232
000180 cb 33 ac 3d 80 9a 62 bc 49 f1 e0 bc b1 28 61 3c
       0.08408316 -0.013830781 -0.027458804 0.013742612
000190 96 b2 98 3c bd 3f ec 3c 4c 20 8a 3d a5 a0 8e bd
       0.018639844 0.028838987 0.067444414 -0.06964234
0001a0 61 bb 0b 3d b8 f6 cc bb ea 00 ce bd 8f b4 1c bd
       0.034114245 -0.006254997 -0.10058768 -0.03825813
0001b0 6c 03 35 3d 09 4c 71 3d 38 e2 46 3c 29 a3 74 bd
       0.044192716 0.058910403 0.012138896 -0.059725914
0001c0 06 1b dd bc 2b 44 86 3d a2 cb f0 3c 28 6e 83 bd
       -0.026990425 0.06555971 0.029393975 -0.06417495
0001d0 c4 53 90 3c 5c 9e ac ba fa 23 0b 3d a1 75 88 3d
       0.017618068 -0.0013169753 0.033969857 0.06663061
0001e0 34 aa f4 bb 6f fd d0 3c aa d8 6f 3d 75 f3 4a bc
       -0.007466579 0.025511472 0.058556236 -0.012387146
0001f0 80 c6 c6 3d d1 bd 71 3c 1f b9 01 3d 68 1b 7f bc
       0.097058296 0.014754728 0.031670686 -0.015570499

input_norm.weight f4 [8]
000000 f9 6e 90 3f bf bb 3d 3f 69 08 57 3f 4a 63 9e 3f
       1.1283866 0.741146 0.8399721 1.2374051
000010 b6 6a 4f 3f b4 3c 80 3f 1c 32 56 3f 40 a4 60 3f
       0.810222 1.0018525 0.8367021 0.87750626

input_norm.bias f4 [8]
000000 a8 ca 52 3e 7d 18 f6 3d e4 33 58 3e 38 2b 3a 3f
       0.2058512 0.120163895 0.21113545 0.72722197
000010 a5 32 1d 3e bc b2 74 3e 8c db 81 3e c4 1e 99 3e
       0.1535135 0.23896307 0.25362813 0.29906285

input_norm.running_mean f4 [8]
000000 4d 96 70 40 b9 59 d6 3c 9b 7e 05 c0 ed 06 d8 40
       3.7591736 0.02616583 -2.0858524 6.7508454
000010 9d 1f 8b 3c 36 9b ac 3c 27 a6 3f be 80 50 c3 3e
       0.016982848 0.021070104 -0.18715726 0.38147354

input_norm.running_var f4 [8]
000000 c8 2f 6a 40 36 78 24 3b 59 f5 fe 3f d6 2d 76 41
       3.6591663 0.0025096065 1.9918624 15.38619
000010 a8 a1 23 3d 43 a5 bc 3a fe 4d 61 3f bc ff 71 3e
       0.03994909 0.0014392514 0.8800963 0.23632711

norm.weight f4 [128]
000000 6c a3 78 3f 85 26 8e 3f a2 18 78 3f 95 13 78 3f
       0.9712436 1.1105505 0.96912587 0.9690488
000010 0a c2 72 3f 20 65 7a 3f 47 33 75 3f 16 14 7a 3f
       0.9482733 0.97810555 0.9578137 0.976869
000020 d4 5d 7a 3f 96 d3 79 3f 5b 5b 7a 3f 96 08 84 3f
       0.9779942 0.9758848 0.9779565 1.031512
000030 32 a0 78 3f 3c 5e 7a 3f 77 30 7a 3f 6c 8b 78 3f
       0.9711944 0.9780004 0.977302 0.9708774
000040 79 07 77 3f 51 bd 77 3f 32 ef 7a 3f 28 54 7a 3f
       0.9649578 0.9677325 0.98021233 0.9778466
000050 9f e2 7a 3f f9 73 7a 3f 25 96 7d 3f 22 b8 74 3f
       0.98002046 0.9783321 0.9905723 0.95593464
000060 07 f2 78 3f 58 1e 78 3f 3c 4e 7b 3f 91 63 75 3f
       0.97244304 0.969213 0.9816625 0.9585505
000070 0f 3e 78 3f 10 73 77 3f 98 a7 7f 3f f3 b4 7a 3f
       0.96969694 0.96659946 0.998651 0.97932357
000080 51 39 7c 3f e1 b1 76 3f 87 dd 7b 3f 11 2b 7a 3f
       0.9852496 0.9636517 0.983849 0.97721964
000090 9d 4b 77 3f 29 a4 7f 3f 81 ee 74 3f 83 cb 7a 3f
       0.9659975 0.99859864 0.9567643 0.97966784
0000a0 3a 2a 83 3f aa 47 7b 3f b9 2a 83 3f 18 7b 77 3f
       1.0247262 0.98156226 1.0247413 0.966722
0000b0 88 9e 78 3f 9e 7c 7b 3f 05 85 7b 3f 17 77 81 3f
       0.971169 0.98237026 0.98249847 1.0114468
0000c0 c3 c1 78 3f ea 99 78 3f 06 01 85 3f f9 27 7f 3f
       0.97170657 0.97109854 1.0390937 0.9967037
0000d0 c0 52 76 3f 4c 52 7d 3f 4a e8 7d 3f 83 e8 7d 3f
       0.96220016 0.989537 0.9918257 0.9918291
0000e0 44 b7 78 3f f5 8c 79 3f 9a 42 78 3f 5b 00 7b 3f
       0.9715464 0.9748071 0.96976626 0.9804742
0000f0 bb 40 7b 3f 53 de 7a 3f 8b 77 79 3f 6b a8 77 3f
       0.98145646 0.9799549 0.97448033 0.9674136
000100 66 85 78 3f be eb 79 3f d4 b9 83 3f 5c 17 79 3f
       0.9707855 0.9762534 1.0291085 0.9730127
000110 8c 77 7f 3f c6 05 7c 3f 63 2e 77 3f aa da 7b 3f
       0.9979179 0.9844631 0.96555156 0.9838053
000120 3b d9 77 3f 4d 55 77 3f aa 25 76 3f b3 26 7b 3f
       0.9681584 0.96614534 0.9615122 0.98105925
000130 ff 0f 7b 3f 0f f3 7b 3f db 2c 7c 3f e0 69 7a 3f
       0.98071283 0.98417753 0.98505944 0.978178
000140 e9 fd 79 3f 32 7c 7b 3f 97 8f 76 3f d1 82 7b 3f
       0.9765306 0.9823638 0.9631285 0.98246485
000150 a8 bc 77 3f 76 1a 76 3f 81 a9 7d 3f 75 1c 7a 3f
       0.9677224 0.96134126 0.9908677 0.9769967
000160 a3 ba 78 3f dd e2 75 3f 53 60 74 3f a5 48 7d 3f
       0.97159785 0.9604929 0.9545948 0.9893897
000170 f2 e5 74 3f fb 5d 75 3f ac a3 79 3f 8b 82 7d 3f
       0.9566337 0.9584653 0.9751537 0.9902732
000180 b6 84 81 3f 8c a9 7a 3f 50 7c 7c 3f 8a 67 7d 3f
       1.0118625 0.9791496 0.98627186 0.98986113
000190 c3 fb 7a 3f db ea 76 3f 3b ea 79 3f 14 ee 72 3f
       0.9804041 0.9645211 0.9762303 0.9489453
0001a0 c3 73 77 3f 50 f2 79 3f 10 42 76 3f c9 2a 7b 3f
       0.96661013 0.97635365 0.96194553 0.9811216
0001b0 27 8d 80 3f 5f 33 7a 3f c6 ad 75 3f 71 7c 78 3f
       1.0043076 0.97734636 0.9596828 0.9706488
0001c0 7b 6c 7e 3f e2 a0 77 3f e2 58 7c 3f b4 a0 7c 3f
       0.9938428 0.9672986 0.98573124 0.98682714
0001d0 b5 50 7a 3f be be 75 3f ab a0 79 3f 52 4e 7b 3f
       0.977794 0.95994174 0.97510785 0.9816638
0001e0 2d 69 74 3f c6 29 7b 3f 60 e1 78 3f d1 94 80 3f
       0.95472986 0.98110616 0.97218895 1.0045415
0001f0 05 d1 75 3f 00 46 7f 3f 79 5c 76 3f 52 f3 7b 3f
       0.96022063 0.99716187 0.9623485 0.9841815

norm.bias f4 [128]
000000 ca 9e e8 3d 1e 5e 5a bd 24 0f 6f 3e 57 01 a6 bd
       0.113584116 -0.053312413 0.2334562 -0.08105724
000010 de be aa 3c 41 15 88 bd d2 4b 42 bd 2e 5b 81 bd
       0.020842966 -0.06644679 -0.04743559 -0.06316219
000020 32 86 fd 3d 56 13 25 3e 30 dc 21 3d f1 e6 1d 3e
       0.12379111 0.16120657 0.039516628 0.15420128
000030 59 87 24 3e 29 38 47 3e 8e 97 0d 3f e3 c5 02 bd
       0.16067256 0.19455017 0.5530938 -0.031927
000040 13 e9 39 3e 6c 40 6f 3e 41 4a 57 3e 2b b5 8e bd
       0.18155317 0.23364419 0.2102442 -0.06968149
000050 e6 9f 8b 3c 69 d9 25 3e e9 5d 89 3e 0a c1 38 bd
       0.017044019 0.16196217 0.2682946 -0.04510597
000060 4f 22 c1 3c 89 a0 df bd 9d c2 55 3d 42 dd 3f be
       0.02357593 -0.109192915 0.05218755 -0.18736747
000070 8d 9b d2 be 35 40 a7 be f8 ed 02 be 6d 03 5f 3e
       -0.411343 -0.32666174 -0.1278609 0.2177865
000080 e6 f2 c1 bd d5 4f 3e be 08 28 d9 bd af 83 63 bd
       -0.09470157 -0.18585141 -0.106033385 -0.055545505
000090 9e d1 7d 3d 7e b3 b0 3d 10 bf 4b 3e f8 6b 28 3d
       0.061967485 0.086279854 0.19897103 0.041118592
0000a0 89 03 58 3e c5 08 05 3e 96 bf 23 3e dc 73 60 3e
       0.21095099 0.12991627 0.15991053 0.21919197
0000b0 43 b9 05 bd 03 dc 05 3e 82 5b e3 3d 23 c8 7d be
       -0.032647382 0.13072209 0.11101438 -0.24783377
0000c0 7d b3 01 3e 48 ae 5b be dd c6 bf 3c fb 1f aa 3c
       0.12666126 -0.21453202 0.023410255 0.020767203
0000d0 3e 79 25 3e a3 55 71 be a7 a7 3d be 5e ed 1c 3e
       0.16159531 -0.23567824 -0.18520986 0.15324923
0000e0 69 87 51 3e 78 8e 98 bd ca 37 d5 3d a3 ce 82 3e
       0.20461811 -0.07449049 0.104110315 0.25548276
0000f0 26 08 2e be d0 8d 60 3c e7 cf 11 be b9 ad a7 bd
       -0.16995296 0.013705686 -0.14239465 -0.08187432
000100 52 77 9a bb 41 d7 70 bd 88 3c 7c bd 44 cb d9 bd
       -0.004713931 -0.058799032 -0.061581165 -0.10634473
000110 b6 be 54 3e d1 f9 a2 bd 2a d8 83 3e f0 b3 7e 3d
       0.20775875 -0.07957805 0.25750858 0.06218332
000120 cb fd fd 3d d2 62 2b be 0e d8 87 3c f6 cd 9f 3e
       0.12401923 -0.16736916 0.016582515 0.31211823
000130 96 43 05 be d1 81 8c be 9d 01 0e be 9a b7 e9 3c
       -0.13014063 -0.27442792 -0.13867803 0.02852993
000140 ae 36 5f 3d 77 0c 2c 3e be 1f 53 be 9c 1c d9 bd
       0.054495506 0.1680163 -0.20617577 -0.1060116
000150 19 0d 59 3d 47 e1 72 3e 24 c5 31 3e 11 3c c0 bc
       0.052991007 0.23718749 0.1736036 -0.023466142
000160 db 68 b5 be 18 75 48 3e a6 3b 3e 3e da e9 05 3c
       -0.3543156 0.19575918 0.18577442 0.00817343
000170 9e 85 d8 bd 2d 28 3b 3e 7c 73 c3 3d 27 c6 13 bd
       -0.105723605 0.18277045 0.09543511 -0.036077645
000180 01 7d 0f bc 01 1b 8a be d2 2f 01 be 8c b9 01 3e
       -0.008757831 -0.26973727 -0.12615898 0.12668437
000190 3d ce a2 3d b0 f9 4b 3e 52 e5 3e 3c cb 25 48 be
       0.07949493 0.19919467 0.011651354 -0.19545667
0001a0 33 6c af 3d 9c 9a df bd bf 4f 2f 3e b8 ea c3 bd
       0.08565559 -0.10918161 0.17120264 -0.095662534
0001b0 15 c0 07 be fe 9a 31 3e bf ae de bd 86 be a5 3d
       -0.13256867 0.17344281 -0.10873174 0.0809298
0001c0 91 fe 09 be 16 aa 6c 3d 05 06 a2 bd ed c6 85 3c
       -0.13476016 0.057779394 -0.079113044 0.016330207
0001d0 06 a9 e3 bd 48 1d df be 32 b1 6c 3e 2d 4c 87 bc
       -0.11116223 -0.43577027 0.2311447 -0.016515816
0001e0 2f 12 03 3e a0 15 1d 3d 22 17 ae be 1c 2c 34 3e
       0.12799905 0.0383507 -0.34002024 0.17594951
0001f0 b8 9e 88 bd c2 71 a4 bb 72 ca 67 3c 8a d8 dc 3c
       -0.06670898 -0.005018444 0.014147388 0.026958723
